HW2/R6_btnk_ch8(hw2).pt (torch, 59086 bytes, 42 tensors)

weight f4 [8, 3, 7, 7]
0.23075865 0.004210573 0.14972512 -0.07799466 -0.011685233 -0.0003323853 0.05996768 0.31114724
-0.064712964 -0.08078132 -0.24396895 -0.20059848 0.056630142 0.195359 0.28420904 0.07861992
0.00991427 -0.04963462 -0.25248763 -0.13913287 0.39372286 0.06707352 0.5058833 0.88237983
0.49770072 0.09592361 -0.110086024 -0.10001525 0.07153813 0.049512103 0.07642219 0.40044928
0.5612083 -0.2192827 -0.05360603 -0.25976002 -0.39167634 -0.36618492 0.0761381 0.48664966
0.19758123 0.06553498 -0.2953682 -0.23185112 -0.22128396 -0.47311428 -0.19291341 -0.034161575
0.21257699 0.14702304 -0.07170961 0.094074324 -0.031050613 -0.1482152 0.055108283 0.0971909
0.27925864 -0.07912874 -0.10968432 -0.18650544 -0.07766411 0.0044515166 0.13444865 0.41956133
0.13885334 0.045865234 -0.056734595 -0.2287966 -0.24348581 0.3645526 0.07224917 0.46154857
0.9400415 0.5502535 0.08927584 -0.070449576 -0.109372474 0.02325411 0.0391983 0.027020384
0.35007006 0.5601802 -0.070159264 0.014766141 -0.3302267 -0.34921712 -0.34938717 0.11085293
0.33256215 0.27752793 -0.028699327 -0.27695972 -0.2916306 -0.31438065 -0.4442399 -0.11604208
8.557065e-05 0.20117368 0.20717646 0.044036843 0.14838901 -0.033826865 -0.1446582 -0.025904734
0.05318888 0.37536603 0.0030026387 -0.027726358 -0.30428773 -0.10991471 0.039122187 0.1507355
0.39671454 0.12502046 0.07154141 -0.06480363 -0.259268 -0.2324223 0.29509255 0.006659699
0.38342938 0.8061387 0.5331827 0.14591599 -0.17932425 -0.18629888 0.1259427 0.12463086
0.12593533 0.27981436 0.64196306 -0.1253977 0.036259446 -0.37982854 -0.24711841 -0.27794114
0.15122981 0.47464037 0.2895078 0.025581473 -0.37119243 -0.26779577 -0.21126011 -0.56738764
-0.15690385 -0.03792826 0.3348138 -0.2851327 -0.008249524 -0.07756118 -0.074061744 -0.038387097
0.14334445 0.22387163 0.1594118 0.22253683 -0.014499194 -0.066493966 -0.040764343 0.0828943
0.19128677 -0.0626221 -0.16073538 -0.1849209 -0.2523073 0.19648588 0.07652821 0.33741885
-0.16055506 -0.2000776 -0.12874104 0.6004205 0.45009175 0.07801025 0.063962124 0.3159069
0.20970544 0.43837982 0.58820575 -0.1399676 -0.31782103 -0.50405496 0.29370344 0.07755198
0.03794623 -0.20560893 -0.55057967 -0.61236614 0.0032063045 -0.35443994 -0.31227794 -0.112481564
-0.015876962 -0.08460358 0.13533811 0.36030823 -0.2764676 0.029495051 -0.06209904 -0.11750251
-0.016146166 0.098887295 0.1112045 0.116029836 0.10826968 -0.095022075 -0.091847405 0.03386348
0.033948373 0.12187454 0.03278945 -0.1971856 -0.22940119 -0.14308506 0.16260198 0.12763354
0.29047808 -0.12790608 -0.24575436 -0.27098355 0.54786205 0.35527676 0.028310165 0.0025551696
0.2503985 0.09441926 0.35544157 0.5643986 -0.14363706 -0.3050359 -0.50231344 0.43138614
0.076048434 -0.0017254825 -0.10737112 -0.550652 -0.64138514 0.018008394 -0.31000045 -0.27645674
-0.11966963 0.04989049 -0.012800105 0.24578068 0.360817 -0.26123488 0.023590012 -0.066710226
-0.07197841 -0.034056928 0.01878838 0.16144203 0.17254889 0.2215356 -0.031301215 -0.0935511
00000000: ff4b 6c3e d9f8 893b 8b51 193e aabb 9fbd
00000010: 6b73 3fbc 0044 aeb9 aca0 753d b14e 9f3e
00000020: 3b88 84bd ad70 a5bd ffd2 79be b069 4dbe
00000030: 02f5 673d 310c 483e d983 913e 7b03 a13d
00000040: 766f 223c ac4d 4bbd 0f46 81be d978 0ebe
00000050: 0b96 c93e d75d 893d 9181 013f a5e3 613f
00000060: a1d2 fe3e 9973 c43d c874 e1bd ccd4 ccbd
00000070: 9582 923d 34cd 4a3d 3d83 9c3d b007 cd3e
00000080: 59ab 0f3f a58b 60be ff91 5bbd 44ff 84be
00000090: cd89 c8be 977c bbbe 4bee 9b3d 252a f93e
000000a0: bc52 4a3e 3437 863d 803a 97be 616a 6dbe
000000b0: 4398 62be 093c f2be 188b 45be 02ed 0bbd
000000c0: c8ad 593e 358d 163e 7ddc 92bd 0aaa c03d
000000d0: db5d febc bac5 17be 39b9 613d 060c c73d
000000e0: fdfa 8e3e 400e a2bd 2ca2 e0bd 48fb 3ebe
000000f0: 5c0e 9fbd 07de 913b e8ac 093e bed0 d63e
00000100: 922f 0e3e 2fdd 3b3d 8962 68bd a849 6abe
00000110: 5854 79be a3a6 ba3e 5ff7 933d 1850 ec3e
00000120: 8fa6 703f 6add 0c3f 40d6 b63d de47 90bd
00000130: adfe dfbd 677f be3c 668e 203d da59 dd3c
00000140: 623c b33e f867 0f3f a9af 8fbd afed 713c
00000150: 7913 a9be 96cc b2be e0e2 b2be dc06 e33d
00000160: 9645 aa3e 2418 8e3e da1a ebbc aacd 8dbe
00000170: 9b50 95be 80f6 a0be 6a73 e3be 78a7 edbd
00000180: 6574 b338 7900 4e3e 1126 543e fa5f 343d
00000190: 4af3 173e 0a8e 0abd 4721 14be 2a36 d4bc
000001a0: 95dc 593d fa2f c03e ebc7 443b 6322 e3bc
000001b0: 9acb 9bbe f71a e1bd 963e 203d 685a 1a3e
000001c0: 2b1e cb3e 5d05 003e 4e84 923d c4b7 84bd
000001d0: c6be 84be 1d00 6ebe 5f16 973e 9b39 da3b
000001e0: db50 c43e 1b5f 4e3f a97e 083f 006b 153e
000001f0: c7a0 37be 22c5 3ebe 20f7 003e 773e ff3d
00000200: 31f5 003e d443 8f3e b157 243f 4168 00be
00000210: c984 143d e378 c2be 9c0c 7dbe 4d4e 8ebe
00000220: fddb 1a3e 1004 f33e 5e3a 943e 3d90 d13c
00000230: ef0c bebe 871c 89be 9254 58be 5140 11bf
00000240: 67ab 20be aa5a 1bbd b76c ab3e eafc 91be
00000250: 0329 07bc 65d8 9ebd afad 97bd ca3b 1dbd
00000260: e3c8 123e 9b3e 653e d93c 233e b2e0 633e
00000270: 078e 6dbc fd2d 88bd 83f8 26bd 7dc4 a93d
00000280: aee0 433e 0440 80bd d197 24be e85b 3dbe
00000290: 6c2e 81be 9833 493e d2ba 9c3d 2ac2 ac3e
000002a0: 8c68 24be 24e1 4cbe b1d4 03be 28b5 193f
000002b0: 6d72 e63e d7c3 9f3d 93fe 823d 8dbe a13e
000002c0: 06bd 563e 5273 e03e a794 163f ab53 0fbe
000002d0: 70b9 a2be bf09 01bf 4c60 963e 93d3 9e3d
000002e0: 826d 1b3d 268b 52be caf2 0cbf 07c4 1cbf
000002f0: dd20 523b 2779 b5be e5e2 9fbe bc5c e6bd
00000300: 6710 82bc a444 adbd 1396 0a3e 527a b83e
00000310: 298d 8dbe 9b9f f13c 905b 7ebd 28a5 f0bd
00000320: f744 84bc 6c85 ca3d 2fbf e33d 0da1 ed3d
00000330: 7ebc dd3d ef9a c2bd 7e1a bcbd 6fb4 0a3d
00000340: 730d 0b3d 5c99 f93d 3b4e 063d 06eb 49be
00000350: 25e8 6abe e484 12be 2281 263e 5eb2 023e
00000360: 8bb9 943e d0f9 02be 08a7 7bbe 5bbe 8abe
00000370: b040 0c3f d6e6 b53e b8ea e73c a274 273b
00000380: 3b34 803e e35e c13d 70fc b53e 6d7c 103f
00000390: 9815 13be aa2d 9cbe 9d97 00bf a5de dc3e
000003a0: 48bf 9b3d 9629 e2ba 64e5 dbbd 88f7 0cbf
000003b0: d131 24bf 5786 933c 61b8 9ebe bd8b 8dbe
000003c0: 5a15 f5bd f859 4c3d 88b7 51bc eead 7b3e
000003d0: 01bd b83e 94c0 85be d73f c13c 5f9f 88bd
000003e0: 6b69 93bd 477f 0bbd 17ea 993c 0f51 253e
000003f0: a8b0 303e 3ada 623e b435 00bd b897 bfbd

weight f4 [8]
0.82386094 0.74377084 0.9912864 0.65803975 1.820403 0.87789226 1.6292799 1.4303683
00000000: 8de8 523f c467 3e3f f2c4 7d3f 4b75 283f
00000010: f702 e93f 8cbd 603f 3e8c d03f 4f16 b73f

bias f4 [8]
0.14899442 -0.039815664 -0.45568058 -0.09644275 0.27990606 1.6474117 0.2128545 0.16896419
00000000: fe91 183e c015 23bd f74e e9be c783 c5bd
00000010: d94f 8f3e 63de d23f 88f6 593e f304 2d3e

running_mean f4 [8]
24.80174 -0.91073126 2.5004833 9.861201 -68.51575 -8.457031 -36.299614 -65.34636
00000000: f769 c641 af25 69bf eb07 2040 7bc7 1d41
00000010: 1008 89c2 0050 07c1 ce32 11c2 56b1 82c2

running_var f4 [8]
34929.836 6831.222 83473.75 15007.038 225001.84 33656.332 85649.89 134166.36
00000000: d671 0847 c779 d545 e008 a347 277c 6a46
00000010: 76ba 5b48 5578 0347 f248 a747 9705 0348

weight f4 [8, 8, 1, 1]
0.22909412 -0.053221945 -0.72081536 -0.063424565 0.9248054 -0.0057431 0.31689525 -0.33160824
-0.16894427 0.011611639 0.025019068 -0.3198437 0.71011084 -0.14336415 0.87442714 0.20198324
0.11404922 0.38440746 -0.26815984 0.82495046 -0.29205322 0.18405604 -0.44883373 0.06218193
-0.07058424 0.10290402 0.5588481 0.41561955 0.40637586 -0.007764304 -0.045347597 0.94102335
0.5514805 -0.38666368 0.2011867 0.3771582 -0.58164924 -0.60500896 0.18777104 -0.14563127
0.4030959 0.14976895 -0.37134892 -0.0005315756 -0.4839463 0.8354467 0.2625266 -0.34643447
-0.44351545 -0.05478065 0.2726704 -0.1290051 0.06417476 0.40533656 -0.92433465 0.36938936
0.3938076 0.5635489 0.2278795 -0.060075063 -0.73796517 -0.36443812 0.23026037 -0.45137146
00000000: a697 6a3e 41ff 59bd 5b87 38bf bde4 81bd
00000010: 0cc0 6c3f 9d30 bcbb 1840 a23e 8ec8 a9be
00000020: baff 2cbe be3e 3e3c caf4 cc3c 8ec2 a3be
00000030: d3c9 353f 0dce 12be 75da 5f3f b2d4 4e3e
00000040: a392 e93d 0ed1 c43e 3f4c 89be f42f 533f
00000050: 0088 95be 3079 3c3e 89cd e5be 7bb2 7e3d
00000060: 788e 90bd 58bf d23d ab10 0f3f 16cc d43e
00000070: 7f10 d03e b46b febb 67be 39bd e8e6 703f
00000080: d32d 0d3f c8f8 c5be e303 4e3e e11a c13e
00000090: f7e6 14bf dee1 1abf 0d47 403e 5d20 15be
000000a0: 9662 ce3e 085d 193e 7221 bebe 6f59 0bba
000000b0: cfc7 f7be d6df 553f e369 863e dc5f b1be
000000c0: 7514 e3be ad61 60bd 749b 8b3e ea19 04be
000000d0: 0e6e 833d 4688 cf3e 32a1 6cbf 9a20 bd3e
000000e0: 26a1 c93e be44 103f 3e59 693e 4511 76bd
000000f0: 49eb 3cbf a297 babe 60c9 6b3e 291a e7be

weight f4 [8]
1.2990005 0.9298329 0.87839484 1.1861988 0.99882454 1.1901708 1.2061253 0.855916
00000000: a645 a63f 8709 6e3f 7cde 603f 5dd5 973f
00000010: f7b2 7f3f 8457 983f 5062 9a3f 501d 5b3f

bias f4 [8]
0.21615466 -0.076239176 -0.013272881 0.2680732 0.10571475 0.28745213 0.10104144 0.118413225
00000000: a657 5d3e 4923 9cbd 7f76 59bc e440 893e
00000010: fa80 d83d ed2c 933e d1ee ce3d a282 f23d

running_mean f4 [8]
0.47144747 0.5901102 0.18396024 0.8098017 -1.183892 1.3161119 0.388358 -0.9437032
00000000: 9061 f13e 7611 173f 1360 3c3e 2a4f 4f3f
00000010: c689 97bf 5b76 a83f dcd6 c63e 8896 71bf

running_var f4 [8]
0.83877134 0.53138524 1.0502001 1.1887561 0.64482105 1.0791396 1.0408206 1.096155
00000000: b8b9 563f dd08 083f f56c 863f 2929 983f
00000010: fe12 253f 3f21 8a3f 9c39 853f cf4e 8c3f

weight f4 [8, 8, 3, 3]
-0.2779579 0.12962858 -0.46741548 -0.27606142 0.31362805 0.08029076 -0.13442115 -0.16970989
0.54891324 -0.36877722 -0.56128424 -0.1428784 0.032907378 0.16208172 0.2347292 0.03553546
0.012630929 0.3599412 0.21859415 0.26305467 0.17583019 0.02249012 0.24508432 -0.033168744
0.08411007 0.30447647 -0.09327256 0.25931862 -0.039360598 0.25771692 0.526345 -0.084781125
0.7892389 -0.10972236 -0.4938849 0.15849148 0.003003336 0.031399824 0.2710396 0.20106316
-0.20578404 -0.001955038 0.6661571 -0.30783913 -0.16589008 0.26586634 -0.19417463 0.26971468
-0.15202627 -0.42757064 -0.046633396 0.24085549 0.34414816 0.24350187 0.7209427 0.37276965
0.71204454 0.055160068 -0.17436948 0.046863034 -0.14146727 0.41697448 0.8446087 -0.10988924
0.08617151 -0.40502617 -0.20572484 -0.6439417 0.0630209 -0.045250557 -0.54177594 0.3549015
0.112494476 -0.4514954 -1.6969163 0.4991026 0.25493562 -0.8002462 -0.06197494 0.07983176
0.23790064 -0.082628675 0.25816545 0.013970682 -0.37832457 0.26657328 -0.102878764 0.07422354
0.49861857 0.3307659 -0.34175482 0.14268185 -0.24526279 0.3646745 0.039749257 -0.27217528
0.463169 0.24158473 0.022103097 -0.53267914 -0.027375665 0.21932966 -0.41237742 -0.30535504
0.17875572 -0.09880463 -0.130475 0.23387082 -0.58769 -0.019515848 0.56248266 -0.051941693
0.23136607 0.024379719 0.32353616 -0.062466376 -0.35887006 0.381237 0.33667436 -0.13311571
0.47303686 0.1072593 -0.34758812 -0.031423975 0.15455192 0.28457335 0.30936667 0.080690384
0.59047496 -0.096552916 0.0491506 0.50600463 0.34261093 0.14006077 0.019821351 0.077688485
-0.09031518 -0.2980955 0.0738625 -0.2056646 -0.22694929 -0.009461685 0.0656671 0.30616257
0.54768914 -0.044719223 -0.17733397 0.25348625 0.01994435 0.111174166 -0.567678 -0.3823489
-0.3314062 0.0689756 0.092692874 -0.19515176 -0.26365674 -0.08571779 0.03854156 -0.4509437
-0.110669345 -0.24953458 0.59483415 -0.021457192 -0.019640723 0.72235566 0.11678549 0.396905
0.7749205 0.59521496 0.14708026 0.38561258 -0.1055411 -0.052918244 -0.16318052 -0.5217188
0.15342298 1.0406835 0.3614687 1.0438794 0.2846562 0.016857086 -0.26393068 -0.120432414
-0.25536916 0.18323359 -0.06098018 0.044108763 0.6035272 0.43639186 -0.022687132 -0.12661275
0.19693175 -0.054044165 -0.048362363 -0.13741386 -0.19434592 -0.06833329 -0.15254709 0.03054873
-0.3120224 -0.2085093 -0.26289263 -0.39624584 0.3915175 0.11640996 0.43051124 0.18457851
0.14738299 0.26960775 0.1373992 -0.123227604 0.16147327 -0.064093836 0.10305671 0.5590907
0.550827 0.1144317 0.15676758 0.013054579 0.0836884 0.271009 -0.34654 0.008521657
0.07647251 -0.39236814 -0.58032006 -0.79762435 -0.19131601 -0.09005047 0.017734876 0.42588863
-0.18380487 -0.16405754 0.61136043 0.23420571 0.75887066 0.42402697 -0.29464158 0.19991773
0.3163266 -0.03921004 0.26569983 0.537498 0.42291826 0.755801 -0.7753558 -0.33518332
0.021505317 -0.111297645 -0.042064574 -0.31776443 0.14603885 -0.14033142 -0.054495312 0.08482482
00000000: 7f50 8ebe 5bbd 043e 1551 efbe ec57 8dbe
00000010: db93 a03e 7b6f a43d b3a5 09be 6ec8 2dbe
00000020: 9485 0c3f 5ed0 bcbe 53b0 0fbf b74e 12be
00000030: e3c9 063d c0f8 253e da5c 703e a18d 113d
00000040: f5f1 4e3c 374a b83e 25d7 5f3e 1aaf 863e
00000050: d40c 343e 333d b83c 62f7 7a3e f3db 07bd
00000060: e641 ac3d 57e4 9b3e af05 bfbd 69c5 843e
00000070: 9438 21bd 79f3 833e 8cbe 063f baa1 adbd
00000080: 900b 4a3f 1eb6 e0bd 7bde fcbe 974b 223e
00000090: 9ed3 443b 1a9d 003d b4c5 8a3e 80e3 4d3e
000000a0: 0db9 52be 1820 00bb 4689 2a3f 179d 9dbe
000000b0: 17df 29be a21f 883e b7d5 46be 0b18 8a3e
000000c0: c6ac 1bbe 8aea dabe a902 3fbd d2a2 763e
000000d0: 3034 b03e 8e58 793e b38f 383f aadb be3e
000000e0: 8d48 363f 86ef 613d ea8d 32be 74f3 3f3d
000000f0: ccdc 10be ae7d d53e 4738 583f 9c0d e1bd
00000100: b07a b03d 975f cfbe 88a9 52be 5dd9 24bf
00000110: 1a11 813d a658 39bd d4b1 0abf a6b5 b53e
00000120: 8163 e63d 682a e7be 8e34 d9bf 608a ff3e
00000130: ec86 823e efdc 4cbf 6fd9 7dbd d57e a33d
00000140: 3a9c 733e 3939 a9bd 432e 843e 4ae5 643c
00000150: c2b3 c1be 4b7c 883e 1ab2 d2bd 8302 983d
00000160: ef4a ff3e 265a a93e 7dfa aebe 311b 123e
00000170: 2b26 7bbe 9eb6 ba3e 1ed0 223d 8f5a 8bbe
00000180: 7d24 ed3e fd61 773e 8e11 b53c a95d 08bf
00000190: ee42 e0bc f497 603e 2223 d3be 7f57 9cbe
000001a0: bd0b 373e 155a cabd 3d9b 05be d57b 6f3e
000001b0: da72 16bf b3df 9fbc ddfe 0f3f d0c0 54bd
000001c0: 3aeb 6c3e fab7 c73c 88a6 a53e bedc 7fbd
000001d0: d1bd b7be 7f31 c33e 9560 ac3e 7c4f 08be
000001e0: e331 f23e c4aa db3d 12f7 b1be 6db6 00bd
000001f0: dc42 1e3e 99b3 913e 4f65 9e3e 0041 a53d
00000200: 5e29 173f 89bd c5bd 2452 493d 8589 013f
00000210: b36a af3e 176c 0f3e 6360 a23c 241b 9f3d
00000220: 2af7 b8bd f99f 98be 3945 973d be99 52be
00000230: 6565 68be 2f05 1bbc 797c 863d 57c1 9c3e
00000240: 5b35 0c3f 812b 37bd 0997 35be f3c8 813e
00000250: 5562 a33c 48af e33d 5853 11bf 3cc3 c3be
00000260: 13ae a9be 1443 8d3d c3d5 bd3d ddd5 47be
00000270: 04fe 86be cf8c afbd c1dd 1d3d 18e2 e6be
00000280: 9ca6 e2bd fe85 7fbe 0d47 183f fec6 afbc
00000290: 95e5 a0bc 4dec 383f 3b2d ef3d 2237 cb3e
000002a0: 3161 463f 0260 183f 359c 163e 036f c53e
000002b0: ef25 d8bd cdc0 58bd cb18 27be 5d8f 05bf
000002c0: ea1a 1d3e 1e35 853f 6d12 b93e d79d 853f
000002d0: 75be 913e df17 8a3c ec21 87be 45a5 f6bd
000002e0: bfbf 82be 96a1 3b3e 5ac6 79bd 64ab 343d
000002f0: c280 1a3f c16e df3e 5dda b9bc c6a6 01be
00000300: 7aa8 493e 6a5d 5dbd 9d17 46bd 38b6 0cbe
00000310: 9e02 47be 53f2 8bbd 4e35 1cbe 5541 fa3c
00000320: 66c1 9fbe 7683 55be dd99 86be bce0 cabe
00000330: fb74 c83e 5868 ee3d f86b dc3e 2602 3d3e
00000340: 91eb 163e 070a 8a3e 60b2 0c3e c15e fcbd
00000350: 4059 253e a143 83bd 650f d33d 9120 0f3f
00000360: 0003 0d3f 2b5b ea3d ae87 203e dfe2 553c
00000370: d364 ab3d b1c1 8a3e b16d b1be 6c9e 0b3c
00000380: 9f9d 9c3d 7ae4 c8be db8f 14bf 1c31 4cbf
00000390: 58e8 43be 616c b8bd bb48 913c 130e da3e
000003a0: 5837 3cbe b3fe 27be 1e82 1c3f 9fd3 6f3e
000003b0: 5945 423f 101a d93e 43db 96be 3cb7 4c3e
000003c0: 8ff5 a13e b59a 20bd cf09 883e 7899 093f
000003d0: be88 d83e 2d7c 413f b87d 46bf 269d abbe
000003e0: eb2b b03c 05f0 e3bd e74b 2cbd 05b2 a2be
000003f0: 358b 153e 0ab3 0fbe 7a36 5fbd a3b8 ad3d

weight f4 [8]
0.8343407 0.8554508 0.9586044 0.8017857 0.80157167 2.0733633 0.93444246 1.3948244
00000000: 5a97 553f d3fe 5a3f 1967 753f d441 4d3f
00000010: cd33 4d3f fcb1 0440 9f37 6f3f 9b89 b23f

bias f4 [8]
-0.89400506 -0.4418899 -1.1239637 -0.63049084 -0.6472598 0.48120996 -0.7064532 0.14717919
00000000: 84dd 64bf 653f e2be 0bde 8fbf d967 21bf
00000010: d1b2 25bf 2761 f63e 1eda 34bf 24b6 163e

running_mean f4 [8]
1.1515086 0.13430718 0.90177506 1.009726 0.1909868 -1.7970057 0.5247922 -0.703146
00000000: a264 933f d287 093e bbda 663f b43e 813f
00000010: 0b92 433e 4804 e6bf c858 063f 6001 34bf

running_var f4 [8]
6.2362847 7.065515 19.509178 6.278046 3.8063796 24.021091 7.4498143 7.132405
00000000: a58f c740 b318 e240 cc12 9c41 c1e5 c840
00000010: b99b 7340 322b c041 e164 ee40 a93c e440

weight f4 [32, 8, 1, 1]
-0.09316052 -0.4195653 -0.028009545 0.04110504 0.45782495 0.46618095 0.3081415 1.0656139
0.0069791484 -0.034658782 0.08360549 0.02180579 1.1352305 0.1888545 0.050754223 0.52964467
-0.56190485 -0.22557098 -0.07244255 0.42696312 0.029206688 -0.39569575 0.22080006 -0.16834939
0.21857977 0.052449007 -0.72281325 0.22882268 0.49561182 0.7357899 0.32135698 -0.24180992
0.41669485 -0.4309852 0.6579577 -0.16111225 -0.28783536 0.4188607 0.3784543 -0.17740972
0.41501886 -0.13903452 0.33038223 -0.25961494 0.27137595 -0.2535385 -0.81397516 0.06389404
-0.14003073 -0.4808558 -0.112763315 0.86261547 0.24017724 0.52206844 -0.26302654 -0.017028157
-0.3588247 0.21230836 -0.85292053 -0.4180092 0.103571996 -0.5450858 0.43329015 0.10799281
-0.10159579 0.12520818 0.33218518 0.32275984 0.25125462 0.3246223 0.07883801 1.1008877
-0.1327975 0.019917049 0.9296814 0.3120042 0.64278924 -0.1934186 0.071270235 -0.07932787
-0.05352857 0.43276808 -0.8310054 -0.23129608 0.41417658 -0.36615175 -0.13128088 -0.2945795
-0.2265789 0.044637933 0.3425708 -0.555475 0.71666485 -0.33057112 -0.03295164 0.65890485
0.09205045 0.10850085 -0.18710509 1.0906217 -0.52940035 0.42349946 -0.011339412 -0.20808826
-0.33183718 0.6213735 0.06485604 0.04453819 -0.12504609 -0.47183192 -0.05947391 0.96615773
0.29178652 -0.3215239 -0.007210881 0.39735448 0.44558638 -0.38988385 -0.6590429 -0.55368614
-0.13044946 0.16604145 -0.15337196 -0.44337207 0.2158343 -0.6057582 -0.03531477 0.88076586
0.89048654 -0.056908797 0.5302535 -0.25152436 0.024430685 -0.44592005 -0.3735044 0.06207832
0.3714517 -0.47552565 0.33751747 -0.032624666 0.08506872 -0.15556736 -0.6704862 0.2597189
0.3463122 0.17232147 0.095303506 0.16456035 -0.011010892 1.4649599 0.16599025 0.3839965
-0.36728066 0.21721719 -0.5178283 -0.33862907 0.20653746 0.7614722 0.5134552 0.18232737
-0.028003903 0.00019242673 0.48835295 0.58253485 -0.5882591 0.153058 0.32964304 0.15989055
-0.6510215 0.16207932 0.32783893 -0.056313135 0.65188104 -0.073605426 0.2203676 0.23754013
0.10883574 -0.5437121 0.53827155 0.27375737 0.08904198 -0.66044265 -0.27668807 -0.13681261
-0.70786905 -0.1383118 -0.9219175 0.05989865 -0.32514054 0.041654274 -0.67996305 -0.674422
0.032248165 -0.003923657 0.021796076 0.27136666 -0.056907523 0.6370454 -0.60837764 -1.1820507
0.336541 0.32915124 0.17147742 0.5212449 0.5113181 1.048261 0.103244126 -0.2277906
0.2926016 0.10212607 -0.36132133 -0.16168478 -0.847778 -0.016420094 0.43589762 0.6507844
-0.039229807 0.8921693 -0.17141479 0.103418306 -0.057202406 0.7549267 0.28132972 0.068104565
0.60663795 -0.15392591 0.37156215 0.2794508 -0.12053767 0.45012477 0.4771791 -0.26698664
0.3313904 0.40457064 0.2741491 0.5648838 0.5179226 0.07932379 0.4131491 0.08448183
-0.49250984 -0.47664586 0.47663462 0.25664333 0.24032204 -0.06301508 0.16961685 0.44681525
-0.34429118 0.1198009 0.517231 -0.19202352 -0.5643355 -0.0010029697 0.4751322 -0.4144179
00000000: f1ca bebd 43d1 d6be 4674 e5bc c25d 283d
00000010: 0868 ea3e 45af ee3e b9c4 9d3e 0966 883f
00000020: 57b1 e43b 5ef6 0dbd 5b39 ab3d 0ea2 b23c
00000030: 3c4f 913f 1363 413e a9e3 4f3d cb96 073f
00000040: ffd8 0fbf 14fc 66be c25c 94bd e99a da3e
00000050: dd42 ef3c a298 cabe 6919 623e c863 2cbe
00000060: 60d3 5f3e c5d4 563d 4a0a 39bf 7e50 6a3e
00000070: d5c0 fd3e ba5c 3c3f e788 a43e 059d 77be
00000080: 0759 d53e 18aa dcbe ea6f 283f 9cfa 24be
00000090: 285f 93be e974 d63e c3c4 c13e e5aa 35be
000000a0: 5a7d d43e 115f 0ebe dc27 a93e 40ec 84be
000000b0: caf1 8a3e cccf 81be ad60 50bf e1da 823d
000000c0: 3764 0fbe bb32 f6be 74f0 e6bd 5ed4 5c3f
000000d0: 06f1 753e 47a6 053f 6aab 86be a27e 8bbc
000000e0: dfb7 b7be 5d67 593e 0059 5abf 4d05 d6be
000000f0: 8e1d d43d be8a 0bbf 35d8 dd3e 562b dd3d
00000100: 7411 d0bd 9336 003e 2d14 aa3e c740 a53e
00000110: 72a4 803e e534 a63e d375 a13d e3e9 8c3f
00000120: 11fc 07be 1429 a33c 9aff 6d3f 04bf 9f3e
00000130: d68d 243f 870f 46be 21f6 913d a676 a2bd
00000140: c640 5bbd c793 dd3e c5bc 54bf e1d8 6cbe
00000150: f40e d43e 3e78 bbbe 7f6e 06be 20d3 96be
00000160: 4d04 68be 44d6 363d 7165 af3e 9c33 0ebf
00000170: 5977 373f 9e40 a9be 4df8 06bd fdad 283f
00000180: f284 bc3d b235 de3d 7a98 3fbe 7e99 8b3f
00000190: c886 07bf ecd4 d83e f1c8 39bc 1715 55be
000001a0: 90e6 a9be 5512 1f3f 3ed3 843d ad6d 363d
000001b0: 150c 00be f493 f1be ea9a 73bd 1d56 773f
000001c0: 0b65 953e c89e a4be 4149 ecbb 0c72 cb3e
000001d0: e623 e43e db9e c7be 09b7 28bf 60be 0dbf
000001e0: 8b94 05be c506 2a3e 8a0d 1dbe aa01 e3be
000001f0: ab03 5d3e f812 1bbf 38a6 10bd df79 613f
00000200: edf6 633f 3319 69bd b2be 073f cdc7 80be
00000210: dc22 c83c a24f e4be f83b bfbe d645 7e3d
00000220: eb2e be3e 1978 f3be 17cf ac3e 71a1 05bd
00000230: 8238 ae3d 0d4d 1fbe fca4 2bbf e0f9 843e
00000240: d54f b13e 0a75 303e 7c2e c33d 8282 283e
00000250: 0767 34bc ce83 bb3f 59f9 293e 309b c43e
00000260: 360c bcbe 2f6e 5e3e 6590 04bf ca60 adbe
00000270: 8e7e 533e d8ef 423f cd71 033f 07b4 3a3e
00000280: 7168 e5bc 28c6 4939 6609 fa3e 0121 153f
00000290: 2698 16bf 3dbb 1c3e f9c6 a83e 59ba 233e
000002a0: 58a9 26bf 1ff8 253e 81da a73e 9aa8 66bd
000002b0: ade1 263f 71be 96bd 0ba8 613e b83d 733e
000002c0: 46e5 de3d b730 0bbf 2acc 093f ed29 8c3e
000002d0: a45b b63d c512 29bf 0faa 8dbe 9b18 0cbe
000002e0: e836 35bf 9ca1 0dbe c902 6cbf 4958 753d
000002f0: d278 a6be ac9d 2a3d 0f12 2ebf eca6 2cbf
00000300: a716 043d 0592 80bb af8d b23c 92f0 8a3e
00000310: dd17 69bd 6815 233f a3be 1bbf 704d 97bf
00000320: 1a4f ac3e 8386 a83e c797 2f3e 4e70 053f
00000330: bee5 023f 6b2d 863f a871 d33d f041 69be
00000340: e0cf 953e 7927 d13d 1cff b8be b290 25be
00000350: fb07 59bf 6f83 86bc f92d df3e ce99 263f
00000360: 6faf 20bd 3565 643f 5c87 2fbe facc d33d
00000370: 124d 6abd e042 413f 730a 903e 687a 8b3d
00000380: a04c 1b3f c19e 1dbe 653d be3e 2d14 8f3e
00000390: 74dc f6bd c176 e63e d250 f43e 79b2 88be
000003a0: 01ac a93e e223 cf3e 455d 8c3e 3a9c 103f
000003b0: 9396 043f 8374 a23d 4788 d33e cf04 ad3d
000003c0: 402a fcbe ed0a f4be 7409 f43e c166 833e
000003d0: fb16 763e 0d0e 81bd 0ab0 2d3e f8c4 e43e
000003e0: ef46 b0be 2d5a f53d 4069 043f d0a1 44be
000003f0: 4b78 10bf 1476 83ba 8744 f33e 952e d4be

weight f4 [32]
2.1539314 1.5065839 1.6338196 2.1137686 2.5397112 1.2008505 1.7344015 1.7919921
2.47007 2.3603058 1.5861694 1.2463845 1.7952269 2.3490736 1.8453074 2.556861
1.1809888 1.8590648 1.9926999 1.2891779 1.7921383 1.8835651 1.9210229 1.663034
1.7253882 1.9629744 2.1490595 1.9077245 2.018193 1.6781545 2.273846 2.1594548
00000000: 03da 0940 bed7 c03f 0021 d13f fc47 0740
00000010: a18a 2240 78b5 993f de00 de3f ff5f e53f
00000020: a015 1e40 400f 1740 9907 cb3f 8789 9f3f
00000030: ffc9 e53f 3957 1640 0833 ec3f 9ca3 2340
00000040: a42a 973f d6f5 ed3f ca10 ff3f c803 a53f
00000050: ca64 e53f a918 f13f 14e4 f53f 4cde d43f
00000060: 85d9 dc3f bf42 fb3f 318a 0940 5130 f43f
00000070: 132a 0140 c4cd d63f b186 1140 8234 0a40

bias f4 [32]
-0.20600589 0.03348666 0.2978696 0.090041615 -0.23896416 0.08480713 -0.75489837 0.5050065
-0.40174803 -0.023176385 0.02277731 0.043904774 -0.20943835 0.25577855 0.1350395 0.3196127
0.36712936 0.32360756 -0.104857005 0.12470121 0.019480912 -0.12172537 0.0046926206 0.5500989
0.005356571 0.3678311 0.28632718 0.31758237 -0.071123034 -0.21807837 0.20722531 -0.28278178
00000000: 35f3 52be 4f29 093d 5d82 983e bd67 b83d
00000010: 05b3 74be 5caf ad3d 0541 41bf 1b48 013f
00000020: ebb1 cdbe 67dc bdbc 7b97 ba3c 7ed5 333d
00000030: 0277 56be 68f5 823e cb47 0a3e 47a4 a33e
00000040: 61f8 bb3e e4af a53e 45bf d6bd 5963 ff3d
00000050: 6f96 9f3c 274b f9bd 8ec4 993b 48d3 0c3f
00000060: 2d86 af3b 5c54 bc3e 7a99 923e 289a a23e
00000070: f4a8 91bd f04f 5fbe df32 543e c6c8 90be

running_mean f4 [32]
0.8958556 0.5008328 -0.4516608 0.6239896 0.43649054 -0.251649 0.49900284 -0.58958787
0.85462785 -0.0018501818 -0.55009925 -0.035507336 0.39471012 -0.042595923 -0.58408564 -0.2668433
-0.29974845 -0.07755141 1.6289366 0.7235124 0.33371255 0.084556974 -0.6190271 -0.5647592
0.077676795 1.0954099 0.20461044 0.82557803 0.5086519 0.380725 0.1669148 -0.14496784
00000000: cb56 653f 9436 003f 1640 e7be c8bd 1f3f
00000010: b07b df3e 23d8 80be 4d7d ff3e 3bef 16bf
00000020: e4c8 5a3f cd81 f2ba 4ed3 0cbf 2470 11bd
00000030: 7217 ca3e 1079 2ebd a386 15bf af9f 88be
00000040: a178 99be 46d3 9ebd ff80 d03f 1c38 393f
00000050: 5fdc aa3e 352c ad3d 8f78 1ebf 0f94 10bf
00000060: 0315 9f3d 6436 8c3f 6685 513e 1559 533f
00000070: 0337 023f 63ee c23e b7eb 2a3e 7372 14be

running_var f4 [32]
0.24614917 0.43484148 0.123940244 0.1894603 0.30059293 0.28406382 0.16848327 0.40890723
0.44797912 0.9542143 0.3102268 0.30301428 0.37200996 0.3508757 0.26773903 0.22933856
0.47705105 0.20924336 0.1289095 0.35714528 0.4124243 0.25337064 0.25102168 1.9528344
0.53164613 0.44556826 0.369085 0.14184529 0.5212007 1.143752 0.20105773 0.28178933
00000000: 870e 7c3e 8ba3 de3e 62d4 fd3d e201 423e
00000010: 51e7 993e d070 913e e186 2c3e 4a5c d13e
00000020: 855d e53e 6347 743f 0cd6 9e3e b024 9b3e
00000030: 1778 be3e fba5 b33e 1715 893e bad7 6a3e
00000040: 0940 f43e e443 563e da00 043e bfdb b63e
00000050: 4729 d33e ccb9 813e ea85 803e 7af6 f93f
00000060: f619 083f 8621 e43e b6f8 bc3e e43f 113e
00000070: 696d 053f 7766 923f 14e2 4d3e b146 903e

weight f4 [32, 8, 1, 1]
-0.36779115 -0.28109497 0.47253084 -0.05013054 -0.11483221 -0.24770857 0.6305213 0.60081315
0.10515221 0.37655124 -0.11312167 0.61504453 -0.24410856 0.11539128 0.02172147 0.31308252
0.077877715 -0.27620003 -1.1393979 -0.13451716 -0.18306062 0.36403218 0.4054383 -0.07946296
-0.025747212 0.72363764 0.17676167 -0.48910907 0.7462643 -0.5172912 -0.001817957 0.06761312
0.0058386037 0.20073275 0.23733991 0.4006871 0.92361826 -0.6437601 0.17608806 0.35053816
0.42530337 0.47646502 0.3626476 0.42377472 -0.410982 -0.018239131 -0.33331838 -0.055650752
0.049363676 -0.0072164917 0.05939739 0.3945418 -1.2476013 0.06099076 -0.9172202 0.42639178
0.22520909 0.045467395 -0.19741485 -1.0781169 0.23604827 0.3733177 -0.6630978 -0.3304274
0.5817153 0.35681745 0.1947619 -0.2608407 0.43863744 0.45242438 0.3764322 0.1888068
0.42225492 0.42969915 0.4019272 0.15086812 -0.16525815 0.2649232 -0.11686211 0.83886313
0.42372575 0.2725648 0.396166 0.3675589 -0.66752255 -0.28999352 -0.34843 0.045159433
-0.34550694 -0.44700608 0.11104948 0.119250745 -0.83090097 -0.039293505 0.8566328 -0.16438182
0.27694353 0.4893209 0.1728226 -0.051589802 0.72189766 -0.47637165 0.6189543 -0.50121063
-0.24848431 -0.17580788 0.10442771 -0.40188316 0.4783369 0.8852339 0.42000285 -0.5228798
-0.538797 -0.1721035 -0.15091385 -0.044274136 -0.740419 0.22515696 -0.6065429 0.6351674
0.34485093 -0.13949575 -0.051285423 0.04275512 1.3633235 0.15876079 0.91969365 0.112933256
-0.038262874 -0.39498118 0.42986497 0.33272284 -0.07385408 0.1944655 -0.50596297 0.6292751
0.017928401 0.56278235 0.71452826 -0.2661434 -0.8648155 0.34061125 -0.41710252 0.21704227
0.40485066 0.29404134 -0.48955497 -0.028555956 0.6105904 0.48427275 0.22764981 0.6796633
-0.959511 0.10209751 -0.20259061 -0.019186707 0.7045478 0.3335716 0.2436536 -0.013706103
-0.1516648 1.1072397 0.2279967 -0.38388702 -0.22788456 -0.07789454 -0.24685927 0.042701755
0.101110585 0.8987779 0.2945089 0.054088805 -0.69353884 0.16828598 -0.27513817 0.23181388
-0.32611877 0.42314318 0.318946 -0.13288178 0.6214177 0.2571584 -0.78446996 0.77414095
0.02014475 0.5539832 -0.8856073 -0.51339996 -0.04601957 0.32036433 0.19665384 -1.6679347
-0.3335114 0.7178431 0.17763864 0.44816828 -0.2188843 -0.10152037 0.5932868 0.23833002
0.18974617 0.117533825 0.016843256 -0.19886477 -0.34499043 0.073433414 0.9826604 0.41597846
0.8269309 0.4379779 0.28511813 0.21120937 0.03755469 -0.59485334 -0.08271553 -0.13350411
-0.3357854 0.08760049 0.22825137 -0.28914103 0.67542565 0.101319596 -0.39076373 2.1168966
-0.09735058 0.13885406 1.0981067 0.3818187 -0.061847143 -0.15613684 -0.22413233 0.6868154
0.3986282 0.8321395 0.071711846 -0.18169068 0.25182277 -0.10302233 0.07008734 -0.25168833
0.13293478 -0.57364696 -0.56280047 0.2613466 -0.38950223 0.41730204 -0.31111926 -0.722995
1.0192167 0.030757278 -0.07089041 0.1881059 -0.23714034 -0.5578296 0.116691105 -0.11309342
00000000: 1f4f bcbe aeeb 8fbe 90ef f13e ae55 4dbd
00000010: 262d ebbd 51a7 7dbe d869 213f e4ce 193f
00000020: 0b5a d73d 53cb c03e 56ac e7bd 8f73 1d3f
00000030: 98f7 79be 4352 ec3d 39f1 b13c 5a4c a03e
00000040: 5a7e 9f3d 176a 8dbe cad7 91bf debe 09be
00000050: 3e74 3bbe 6d62 ba3e 9c95 cf3e 7abd a2bd
00000060: d1eb d2bc 5140 393f 0301 353e 816c fabe
00000070: 2d0b 3f3f 326d 04bf 8448 eeba bf78 8a3d
00000080: c251 bf3b e38c 4d3e 3c09 733e dc26 cd3e
00000090: 3f72 6c3f 76cd 24bf 6e50 343e bd79 b33e
000000a0: 5dc1 d93e 39f3 f33e f2ac b93e 00f9 d83e
000000b0: 3c6c d2be 3b6a 95bc b5a8 aabe 0bf2 63bd
000000c0: 9131 4a3d 5278 ecbb ad4a 733d 6201 ca3e
000000d0: 66b1 9fbf 72d1 793d f1ce 6abf 0650 da3e
000000e0: 369d 663e 053c 3a3d 1e27 4abe bcff 89bf
000000f0: a3b6 713e 7f23 bf3e c7c0 29bf c82d a9be
00000100: 4beb 143f c7b0 b63e aa6f 473e ea8c 85be
00000110: 1695 e03e 2ba4 e73e b9bb c03e 9256 413e
00000120: cc31 d83e 8701 dc3e 67c9 cd3e 2c7d 1a3e
00000130: 6f39 29be 03a4 873e 6755 efbd bcbf 563f
00000140: 95f2 d83e 9d8d 8b3e 45d6 ca3e ae30 bc3e
00000150: c2e2 2abf 087a 94be 6b65 b2be 19f9 383d
00000160: 49e6 b0be fbdd e4be e96d e33d bc39 f43d
00000170: edb5 54bf 3af2 20bd 4a4c 5b3f b553 28be
00000180: 8bcb 8d3e 4588 fa3e 68f8 303e d44f 53bd
00000190: 49ce 383f fce6 f3be ca73 1e3f 574f 00bf
000001a0: ac72 7ebe fb06 34be 32de d53d a1c3 cdbe
000001b0: 93e8 f43e b09e 623f 9d0a d73e 73db 05bf
000001c0: 9aee 09bf e63b 30be 2989 1abe cc58 35bd
000001d0: 198c 3dbf 8c8f 663e 6546 1bbf 559a 223f
000001e0: 4d90 b03e f9d7 0ebe aa10 52bd fe1f 2f3d
000001f0: 6281 ae3f 3092 223e 0b71 6b3f 8d49 e73d
00000200: 88b9 1cbd f93a cabe 4317 dc3e a65a aa3e
00000210: cf40 97bd f721 473e ca86 01bf 2c18 213f
00000220: 95de 923c 8112 103f 53eb 363f f343 88be
00000230: 8c64 5dbf 9964 ae3e 768e d5be 5440 5e3e
00000240: 9648 cf3e 968c 963e f3a6 fabe 2eee e9bc
00000250: a74f 1c3f 99f2 f73e 081d 693e 6afe 2d3f
00000260: 83a2 75bf 8018 d13d ea73 4fbe 712d 9dbc
00000270: 3f5d 343f e6c9 aa3e 5480 793e 908f 60bc
00000280: 044e 1bbe 08ba 8d3f f877 693e d78c c4be
00000290: 925a 69be 2c87 9fbd adc8 7cbe 09e8 2e3d
000002a0: 1113 cf3d 4f16 663f dfc9 963e 398c 5d3d
000002b0: c38b 31bf 2953 2c3e e9de 8cbe 9e60 6d3e
000002c0: 0af9 a6be 39a6 d83e e44c a33e 2912 08be
000002d0: 3b15 1f3f 44aa 833e 06d3 48bf 1a2e 463f
000002e0: 9a06 a53c d8d1 0d3f 29b7 62bf 2e6e 03bf
000002f0: 047f 3cbd cb06 a43e a05f 493e e27e d5bf
00000300: 02c2 aabe 91c4 373f e7e6 353e 5076 e53e
00000310: 3523 60be e9e9 cfbd a5e1 173f c90c 743e
00000320: d24c 423e 93b5 f03d defa 893c 35a3 4bbe
00000330: 96a2 b0be 4264 963d a28f 7b3f 21fb d43e
00000340: beb1 533f a43e e03e 01fb 913e 4547 583e
00000350: f2d2 193d 4f48 18bf c366 a9bd 4db5 08be
00000360: 10ec abbe e367 b33d baba 693e 4b0a 94be
00000370: b2e8 2c3f a680 cf3d 2f12 c8be 3c7b 0740
00000380: be5f c7bd c22f 0e3e c38e 8c3f be7d c33e
00000390: 6e53 7dbd 56e2 1fbe f282 65be 22d3 2f3f
000003a0: ff18 cc3e 1807 553f a9dd 923d 1f0d 3abe
000003b0: eaee 803e 5ffd d2bd f489 8f3d 4bdd 80be
000003c0: 0e20 083e 87da 12bf b113 10bf 39cf 853e
000003d0: d66c c7be 9da8 d53e 064b 9fbe 3316 39bf
000003e0: b175 823f b0f6 fb3c fe2e 91bd d59e 403e
000003f0: ebd4 72be eccd 0ebf bffb ee3d 869d e7bd

weight f4 [32]
1.0028489 1.090925 2.1146367 0.8154483 1.367384 1.0880265 1.4496797 2.231024
1.1245167 1.1902112 1.4646786 1.5552346 0.8000981 1.2290492 1.9980638 1.1424975
1.6261605 1.8547406 1.434309 1.4827429 1.4197935 1.2519503 1.4841347 1.3256421
1.2897084 0.4776798 1.7730839 1.4797468 1.6139867 0.78491026 1.7149307 0.8404001
00000000: 5a5d 803f 6ea3 8b3f 3556 0740 38c1 503f
00000010: 7006 af3f 7444 8b3f 1b8f b93f 19c9 0e40
00000020: 2af0 8f3f d758 983f 977a bb3f ed11 c73f
00000030: 3bd3 4c3f 7c51 9d3f 8ec0 ff3f 5c3d 923f
00000040: 0726 d03f 2468 ed3f 7097 b73f 85ca bd3f
00000050: cbbb b53f e83f a03f 20f8 bd3f a4ae a93f
00000060: 2a15 a53f 7292 f43e 6af4 e23f 5868 bd3f
00000070: 1e97 ce3f e1ef 483f d982 db3f 7624 573f

bias f4 [32]
-0.20600589 0.03348666 0.2978696 0.090041615 -0.23896416 0.08480713 -0.75489837 0.5050065
-0.40174803 -0.023176385 0.02277731 0.043904774 -0.20943835 0.25577855 0.1350395 0.3196127
0.36712936 0.32360756 -0.104857005 0.12470121 0.019480912 -0.12172537 0.0046926206 0.5500989
0.005356571 0.3678311 0.28632718 0.31758237 -0.071123034 -0.21807837 0.20722531 -0.28278178
00000000: 35f3 52be 4f29 093d 5d82 983e bd67 b83d
00000010: 05b3 74be 5caf ad3d 0541 41bf 1b48 013f
00000020: ebb1 cdbe 67dc bdbc 7b97 ba3c 7ed5 333d
00000030: 0277 56be 68f5 823e cb47 0a3e 47a4 a33e
00000040: 61f8 bb3e e4af a53e 45bf d6bd 5963 ff3d
00000050: 6f96 9f3c 274b f9bd 8ec4 993b 48d3 0c3f
00000060: 2d86 af3b 5c54 bc3e 7a99 923e 289a a23e
00000070: f4a8 91bd f04f 5fbe df32 543e c6c8 90be

running_mean f4 [32]
-0.059816044 0.42785653 0.4410453 -0.39832348 -0.20403299 -0.07378058 -0.8122977 0.1588991
1.60935 1.0216266 -0.7376142 -0.34172726 -0.1304672 1.7254058 -0.29756072 1.6997117
0.41602343 0.20920457 1.7366399 0.83959645 -0.26505992 0.12827565 0.8206442 -0.28382474
0.2405506 0.6630857 -0.7191464 1.2122364 0.17973466 0.15882331 -0.098213695 -0.79711103
00000000: ab01 75bd 0310 db3e b1d0 e13e 0ef1 cbbe
00000010: 06ee 50be 461a 97bd bef2 4fbf 72b6 223e
00000020: 2eff cd3f a9c4 823f 49d4 3cbf e0f6 aebe
00000030: 3299 05be 19da dc3f e159 98be 2790 d93f
00000040: 0601 d53e b939 563e 374a de3f cbef 563f
00000050: efb5 87be b15a 033e bd15 523f 7a51 91be
00000060: e652 763e fcbf 293f fa19 38bf 902a 9b3f
00000070: 5d0c 383e 94a2 223e 4324 c9bd 780f 4cbf

running_var f4 [32]
0.459335 1.0724272 1.6627777 0.5897619 1.1459271 2.2077236 0.85219884 1.2685157
2.7297342 2.5116081 1.2179366 0.54901475 1.7890484 0.48171526 2.135618 2.0871723
0.4115688 1.9163113 1.1865803 1.1147143 0.91327727 1.7434001 0.5656263 1.0591476
1.3479792 0.78595316 2.576357 0.6104016 2.041895 1.7677855 1.097955 1.6720397
00000000: f52d eb3e 4b45 893f e6d5 d43f a3fa 163f
00000010: bdad 923f 584b 0d40 b429 5a3f b95e a23f
00000020: f7b3 2e40 30be 2040 59e5 9b3f 3b8c 0c3f
00000030: 8aff e43f 62a3 f63e f7ad 0840 3b94 0540
00000040: 25b9 d23e b049 f53f dde1 973f f5ae 8e3f
00000050: 8acc 693f bc27 df3f e3cc 103f 2692 873f
00000060: 958a ac3f 3a34 493f 08e3 2440 4743 1c3f
00000070: 68ae 0240 cc46 e23f ca89 8c3f 6605 d63f

weight f4 [8, 32, 1, 1]
-0.05485764 -0.31792194 -0.78984535 -0.48073688 0.7430252 -0.24796663 -0.8131508 0.66085756
0.033718392 0.07475826 -0.12680276 0.055151194 0.40693787 0.42536187 0.42570615 -0.078544416
-0.046345986 -0.72407764 0.12646234 -0.29299334 -0.14151292 -0.34457415 0.10561994 0.088049136
0.38781646 0.55844796 0.0798367 0.28436953 0.21072473 0.2740891 -0.047574677 -0.054769743
-0.50963193 0.16351746 -2.0088246 -0.39086 0.21374285 0.4013432 -0.628451 -0.81950545
-0.5507375 0.048326775 0.27682665 0.46616966 -0.1393778 -0.56891406 -0.06038806 -0.51716036
0.3427696 -0.11095377 -0.62694395 -0.32916638 -0.08238869 -0.1868074 0.31850997 -0.37341255
0.07974842 -0.4991376 0.27051556 -0.18881263 -0.041765675 -0.1823003 0.08977496 0.23846857
0.012011729 0.21983425 0.41667342 -0.5347707 -0.07670697 0.45430678 1.0947739 0.5783433
-0.019082375 0.29126814 -0.34556022 0.15661985 0.2055861 -0.4500381 0.6917277 0.04170459
0.10762283 0.48674646 0.26426473 -0.19902411 -0.16268204 -0.039553378 0.029684352 0.3133097
-0.039096832 0.1696357 0.09196426 -0.4585894 0.4368185 0.043197196 -0.05261152 -0.36733025
0.12704293 0.1023195 0.34866998 0.25539133 -0.018125044 -0.44318932 0.35196543 -0.3942571
0.22612064 0.17307574 -0.031739794 -0.13322228 -0.47163215 -0.40616885 -0.1889603 -0.19822635
-0.64346546 -0.5146101 0.55998224 0.97226244 -0.07475523 0.23467626 -0.3106022 0.26620615
0.036484543 0.28300977 -0.29060364 0.4493473 -0.672303 0.045484375 0.48441207 0.26573
0.30460313 0.18548582 -0.8104171 -0.08735442 0.08115252 -0.10245638 0.38046396 0.10612125
0.45625013 0.44231266 -0.21391779 -0.12012069 0.06326901 0.1485002 -0.35026267 -0.21232635
-0.09395429 -0.46814165 -0.12619622 -0.10563173 -0.03422849 0.16747734 -0.20545132 0.6025708
-0.55599296 0.21160272 -0.27503142 -0.1839909 0.13349955 0.3915569 -0.07240792 0.58374447
-0.61044663 0.10604485 0.4367967 -0.41865873 0.27225426 -0.47749174 0.11463245 -0.1093058
-0.92327124 -0.50558466 0.202641 -0.0237292 -0.28620094 0.24033864 -0.5918131 0.23163109
-0.9330346 0.03792578 -0.29054636 -0.1464563 -0.073495336 -0.51414 -0.14891365 -0.2514084
-0.4100471 -0.71071774 0.02127473 -0.23198844 -0.21231754 -0.21047267 -0.75570464 0.09306059
0.2885098 0.059069756 0.5370471 0.79485154 -0.2884846 0.27054518 0.0011399302 0.31207475
0.019559111 0.024797551 -0.27423397 0.003743362 0.4953397 -0.1422788 0.74463075 -0.36549705
0.09688239 -0.2178066 0.014741884 0.80964744 0.06619774 -0.14473806 -0.37709615 0.5556094
-0.4899331 0.31147116 0.7063338 0.06803791 0.15826929 0.1625224 -0.44694313 0.2410279
-0.04786807 0.22570373 0.21533647 0.67261547 0.017531982 0.00853447 0.04743856 -0.8693496
0.08857002 0.10613727 0.3509394 -0.3834081 -0.12858999 0.1462717 -1.1422992 0.33320802
0.337433 -0.29390356 0.1276952 -0.4560214 -0.2146311 -0.18780881 0.30355668 -0.11420392
-0.048584823 0.25853178 -0.21456943 -0.17054962 0.05143322 0.09154546 0.78884965 -0.3024474
00000000: 68b2 60bd aac6 a2be 4e33 4abf 2523 f6be
00000010: e636 3e3f f7ea 7dbe a72a 50bf f62d 293f
00000020: 4c1c 0a3d dc1a 993d 95d8 01be 38e6 613d
00000030: 295a d03e 08c9 d93e 28f6 d93e e5db a0bd
00000040: 4ad5 3dbd 275d 39bf 587f 013e 3903 96be
00000050: c3e8 10be 066c b0be 444f d83d 1b53 b43d
00000060: e18f c63e 72f6 0e3f 6c81 a33d e298 913e
00000070: 39c8 573e 6855 8c3e aadd 42bd 3d56 60bd
00000080: 3d77 02bf 1f71 273e 9590 00c0 cd1e c8be
00000090: 68df 5a3e db7c cd3e 2ae2 20bf 1ccb 51bf
000000a0: 22fd 0cbf 4cf2 453d 39bc 8d3e caad ee3e
000000b0: 0eb9 0ebe 5aa4 11bf 7859 77bd 9f64 04bf
000000c0: 7f7f af3e bb3b e3bd 667f 20bf 7f88 a8be
000000d0: 67bb a8bd 704a 3fbe bd13 a33e ee2f bfbe
000000e0: 2453 a33d f78e ffbe 0481 8a3e 1958 41be
000000f0: 7c12 2bbd eeac 3abe efdb b73d 1b31 743e
00000100: d8cc 443c 3b1c 613e 3856 d53e bce6 08bf
00000110: 8b18 9dbd e69a e83e 8d21 8c3f 4e0e 143f
00000120: a452 9cbc 1921 953e 45ed b0be f460 203e
00000130: 2a85 523e 656b e6be 1115 313f 6fd2 2a3d
00000140: 5c69 dc3d d536 f93e b54d 873e facc 4bbe
00000150: 1f96 26be b902 22bd 992c f33c 216a a03e
00000160: 0024 20bd fbb4 2d3e c257 bc3d 3bcc eabe
00000170: ada6 df3e 8bef 303d 2d7f 57bd b612 bcbe
00000180: 8b17 023e e38c d13d df84 b23e a7c2 823e
00000190: f97a 94bc b6e9 e2be d034 b43e 11dc c9be
000001a0: 2b8c 673e c43a 313e 9601 02bd 6c6b 08be
000001b0: c579 f1be 5df5 cfbe cf7e 41be d9fb 4abe
000001c0: 27ba 24bf 7dbd 03bf ff5a 0f3f 31e6 783f
000001d0: 4519 99bd f94e 703e 4007 9fbe 2c4c 883e
000001e0: d170 153d a8e6 903e 00ca 94be d910 e63e
000001f0: 0d1c 2cbf d34d 3a3d dc04 f83e c30d 883e
00000200: f1f4 9b3e ffef 3d3e 7f77 4fbf e0e6 b2bd
00000210: 4b33 a63d a7d4 d1bd 2ccc c23e 1956 d93d
00000220: 9e99 e93e ce76 e23e 440d 5bbe d601 f6bd
00000230: 2f93 813d 7010 183e a155 b3be 146c 59be
00000240: 1b6b c0bd 43b0 efbe 9539 01be 7355 d8bd
00000250: 2c33 0cbd 2e7f 2b3e d561 52be 1442 1a3f
00000260: 8e55 0ebf 62ae 583e ebd0 8cbe 1c68 3cbe
00000270: 1bb4 083e 257a c83e 9b4a 94bd 4770 153f
00000280: 3b46 1cbf 0b2e d93d d1a3 df3e 705a d6be
00000290: e964 8b3e cc79 f4be 6bc4 ea3d b8db dfbd
000002a0: 815b 6cbf ff6d 01bf 1f81 4f3e bd63 c2bc
000002b0: ee88 92be 551b 763e 1081 17bf b330 6d3e
000002c0: 5bdb 6ebf 1058 1b3d 7ec2 94be a4f8 15be
000002d0: b984 96bd ae9e 03bf d27c 18be 9ab8 80be
000002e0: b2f1 d1be 99f1 35bf 5848 ae3c 618e 6dbe
000002f0: c569 59be 2686 57be dc75 41bf 8d96 be3d
00000300: 8eb7 933e 21f3 713d eb7b 093f 647b 4b3f
00000310: 41b4 93be e684 8a3e b669 953a 43c8 9f3e
00000320: 6e3a a03c 3c24 cb3c 6568 8cbe 3153 753b
00000330: 2a9d fd3e 89b1 11be 1fa0 3e3f 6e22 bbbe
00000340: 466a c63d b108 5fbe f187 713c 0e45 4f3f
00000350: ae92 873d 3736 14be bf12 c1be 6b3c 0e3f
00000360: 83d8 fabe 2679 9f3e 4bd2 343f 7657 8b3d
00000370: 5811 223e 466c 263e bbd5 e4be 05d0 763e
00000380: 4f11 44bd e11e 673e 2a81 5c3e 8730 2c3f
00000390: 3b9f 8f3c 29d4 0b3c ef4e 423d b28d 5ebf
000003a0: 3364 b53d 7f5e d93d 54ae b33e 114e c4be
000003b0: 18ad 03be 40c8 153e dc36 92bf 3e9a aa3e
000003c0: 05c4 ac3e 877a 96be 88c2 023e a37b e9be
000003d0: 41c8 5bbe f450 40be c86b 9b3e bfe3 e9bd
000003e0: e100 47bd 475e 843e 17b8 5bbe 8fa4 2ebe
000003f0: a4ab 523d 307c bb3d 0df2 493f 63da 9abe

weight f4 [8]
0.8973129 1.2876939 1.224107 1.0055718 1.1067455 1.0677783 0.89776164 0.86068475
00000000: 4cb6 653f 27d3 a43f 8aaf 9c3f 94b6 803f
00000010: d6a9 8d3f f6ac 883f b5d3 653f d655 5c3f

bias f4 [8]
-0.6634812 0.07092907 -0.579516 -0.36730224 -0.99946094 0.06352403 -0.719355 -0.31153396
00000000: e7d9 29bf 4343 913d 295b 14bf 0a0f bcbe
00000010: acdc 7fbf e318 823d a627 38bf 6181 9fbe

running_mean f4 [8]
1.0456445 -5.476498 2.6563106 0.022627616 0.16242729 -4.3738523 3.5456908 -1.254042
00000000: aed7 853f 793f afc0 fe00 2a40 8d5d b93c
00000010: 5753 263e 99f6 8bc0 99ec 6240 7384 a0bf

running_var f4 [8]
10.971702 39.616974 18.375164 18.880276 11.497794 123.84197 9.415412 11.181373
00000000: 178c 2f41 c877 1e42 5600 9341 ce0a 9741
00000010: f7f6 3741 17af f742 87a5 1641 e7e6 3241

weight f4 [8, 8, 3, 3]
-0.32002974 -0.43293414 -0.78630537 0.08032928 -0.14668539 -0.42648375 -0.6784779 -0.06155978
0.030619694 -0.30671543 0.3223863 0.30817673 -0.13071074 -0.17339663 -0.45647514 0.1660035
-0.590101 -0.33998597 -0.095674455 0.0045786295 0.50590646 -0.23534337 0.25436217 -0.040274963
-0.94091994 -0.29958555 -0.048407268 -0.78637904 -0.7528806 -0.46392748 -0.7456291 -0.43212166
-0.3786506 -0.15898308 0.5688628 -0.32367802 0.6957875 0.24650073 0.023755101 -0.01774389
-0.5089301 0.29899544 -0.82006586 -0.14005959 0.5922836 -0.22005513 -0.35035035 -0.15299581
-0.22102913 -0.49432373 -0.08637415 -0.3790106 -0.32940027 -0.10096764 0.27864113 0.032937363
0.02755521 0.3986163 -0.038406406 -0.5182639 -0.035621524 -0.09117499 -0.40322876 0.10206423
-0.028341718 0.052804116 -0.067003354 -0.10286757 -0.049116973 -0.075562514 -0.13672031 -0.12847862
-0.24055277 0.48507068 -0.001630736 -0.2633938 0.18455581 0.08540254 -0.37581244 -0.6661557
-0.5409092 -0.2008338 -0.95757145 -0.59859866 -0.23042193 -0.15939483 -0.9101878 0.24255951
0.0077877445 -0.37701157 0.6167416 0.28291038 0.27369156 -0.05937079 -0.17813481 0.24163844
-0.33553714 -0.23522991 0.26234633 -0.015864745 -0.060499243 -0.70963335 0.1959264 0.21122728
-0.46297047 0.1621065 0.34122854 0.1685071 0.45649418 0.21832107 0.2736558 -0.1332611
-0.16268069 -0.19531357 0.30955884 0.22135726 0.14055228 0.68107146 0.09556715 0.2784546
0.070464976 -0.4546454 0.15026063 -0.46150693 -0.9094733 0.26982185 0.0858337 -0.14271855
-0.21605958 -0.29426414 -0.3300734 -0.011628107 -0.5471239 -0.95908356 -0.5857589 -0.11928274
0.19666454 0.06609192 -0.1870523 -0.3649487 -0.38742498 0.45132318 0.45722696 0.3048792
0.05105728 0.093101926 -0.3236428 -0.105916515 0.18410008 -0.10113938 0.24570663 0.2212297
-0.2619771 -0.43490776 -0.07324671 1.0540332 -0.19828357 -0.035128552 0.57021785 0.15803353
0.21558563 -0.02888893 -0.4298918 -0.37435296 -0.6600721 -0.054322317 -0.36645883 -0.49896014
-0.05295112 -0.79896224 -0.92992854 0.58325684 0.09498494 -0.19786237 0.4004074 0.036657378
0.26891932 -0.034248304 -0.01543142 0.44385022 -0.42614305 -0.04362479 0.21726744 0.1915907
0.06443764 -0.4017195 0.30894148 -0.16427834 -1.02032 0.013397039 -0.446479 -0.3970493
0.06746921 -0.19215769 -0.5273943 0.27957168 -0.13261649 -0.31992692 -0.14687774 0.079650655
0.031014612 -0.19926174 -0.022133203 -0.0046230536 0.09061911 0.25271174 0.20996939 0.33237594
0.453018 0.6504644 0.338118 0.2284851 0.17337063 0.50107646 0.22945422 0.08974853
-0.14370894 0.06761399 -0.5903559 0.39110017 0.25462937 -0.5972675 0.51991636 0.19414239
-0.5981028 -0.49913338 -0.17993885 -0.021651922 -0.43049642 -0.1704562 0.12541388 0.07839764
0.34657845 0.603765 0.3930535 0.01923927 -0.13071111 0.29416153 0.18339594 0.17594932
0.24209462 0.33762392 0.21543294 -0.09817776 0.10744985 0.26043767 -0.2623732 0.31656277
0.65158737 0.062090993 0.40433565 0.6402261 -0.5497452 -0.47117108 -0.67750657 -0.041714348
00000000: f0da a3be 8ba9 ddbe 4f4b 49bf ad83 a43d
00000010: b234 16be 145c dabe bab0 2dbf 1c26 7cbd
00000020: 27d6 fa3c ce09 9dbe d10f a53e 57c9 9d3e
00000030: 09d9 05be e38e 31be 1cb7 e9be d2fc 293e
00000040: dc10 17bf a412 aebe f8f0 c3bd 5408 963b
00000050: 1683 013f dafd 70be c23b 823e 5cf7 24bd
00000060: 21e0 70bf 4763 99be b346 46bd 2350 49bf
00000070: c8bc 40bf e787 edbe 8ce1 3ebf 0d3f ddbe
00000080: 7ede c1be 76cc 22be fea0 113f 20b9 a5be
00000090: 211f 323f b06a 7c3e 0f9a c23c a25b 91bc
000000a0: 3e49 02bf ee15 993e d6ef 51bf c86b 0fbe
000000b0: e69f 173f 2256 61be 1f61 b3be efaa 1cbe
000000c0: 7655 62be 0018 fdbe eee4 b0bd ad0d c2be
000000d0: 27a7 a8be 1fc8 cebd 0daa 8e3e 54e9 063d
000000e0: 77bb e13c 7017 cc3e 0950 1dbd f1ac 04bf
000000f0: e0e7 11bd f4b9 babd 0074 cebe 0d07 d13d
00000100: e42c e8bc 2149 583d 0e39 89bd 3cac d2bd
00000110: e12e 49bd 85c0 9abd 6900 0cbe e68f 03be
00000120: 7753 76be 2f5b f83e 6cbe d5ba 8ddb 86be
00000130: 33fc 3c3e 87e7 ae3d 7d6a c0be 2e89 2abf
00000140: 0679 0abf 60a7 4dbe 6723 75bf c33d 19bf
00000150: baf3 6bbe 6638 23be 1102 69bf 8561 783e
00000160: 5630 ff3b a907 c1be c7e2 1d3f a1d9 903e
00000170: 4d21 8c3e c92e 73bd f968 36be 1170 773e
00000180: 86cb abbe 1ce0 70be 4252 863e c8f6 81bc
00000190: 0ece 77bd 88aa 35bf eea0 483e f74b 583e
000001a0: 770a edbe 3fff 253e 82b5 ae3e 208d 2c3e
000001b0: 9bb9 e93e 8f8f 5f3e 9d1c 8c3e 9975 08be
000001c0: c495 26be 4800 48be 7f7e 9e3e 7aab 623e
000001d0: f0ec 0f3e b35a 2e3f b6b8 c33d 9a91 8e3e
000001e0: f14f 903d 48c7 e8be ecdd 193e a34a ecbe
000001f0: 3ed3 68bf 1726 8a3e 94c9 af3d d024 12be
00000200: b93e 5dbe caa9 96be 61ff a8be d183 3ebc
00000210: 5010 0cbf 8086 75bf 4cf4 15bf 824a f4bd
00000220: 6e62 493e 335b 873d a38a 3fbe 8eda babe
00000230: 915c c6be d513 e73e a719 ea3e 2019 9c3e
00000240: 7021 513d 39ac be3d 82b4 a5be c2ea d8bd
00000250: bb84 3c3e 2a22 cfbd 859a 7b3e 0a8a 623e
00000260: dd21 86be 3bac debe 5f02 96bd 8fea 863f
00000270: d90a 4bbe f5e2 0fbd ccf9 113f 8bd3 213e
00000280: 7bc2 5c3e 7aa8 ecbc c71a dcbe 31ab bfbe
00000290: 7cfa 28bf 1481 5ebd 7ea0 bbbe b477 ffbe
000002a0: 46e3 58bd ca88 4cbf cc0f 6ebf 5250 153f
000002b0: 7787 c23d 6f9c 4abe 3302 cd3e 0c26 163d
000002c0: cbaf 893e f347 0cbd 11d4 7cbc 5640 e33e
000002d0: 6c2f dabe e8af 32bd 5b7b 5e3e 5a30 443e
000002e0: e2f7 833d 2eae cdbe 942d 9e3e 9538 28be
000002f0: d999 82bf 417f 5b3c e598 e4be 0c4a cbbe
00000300: 4c2d 8a3d fcc4 44be 5003 07bf 0524 8f3e
00000310: 9ecc 07be 76cd a3be 1e67 16be e21f a33d
00000320: 5b12 fe3c 450b 4cbe b150 b5bc fc7c 97bb
00000330: 8396 b93d 6f63 813e 3702 573e 2e2d aa3e
00000340: faf1 e73e d684 263f cd1d ad3e 00f8 693e
00000350: 1288 313e 8c46 003f 0cf6 6a3e 14ce b73d
00000360: 7028 13be 3479 8a3d 9021 17bf 483e c83e
00000370: c85e 823e 86e6 18bf 3d19 053f 43cd 463e
00000380: 441d 19bf 698e ffbe e441 38be 5f5f b1bc
00000390: 076a dcbe 128c 2ebe 7f6c 003e f18e a03d
000003a0: bb72 b13e 5890 1a3f 4f3e c93e ac9b 9d3c
000003b0: 22d9 05be 579c 963e 25cc 3b3e 0f2c 343e
000003c0: a7e7 773e 0bdd ac3e 749a 5c3e 6c11 c9bd
000003d0: ab0e dc3d 1658 853e c855 86be 8414 a23e
000003e0: 6ece 263f 2053 7e3d 1505 cf3e dce5 233f
000003f0: 1abc 0cbf 563d f1be 1271 2dbf aadc 2abd

weight f4 [8]
1.2020468 0.8436042 1.0557085 0.9953683 1.3226976 1.0609386 1.1978636 1.0729324
00000000: abdc 993f 72f6 573f 7521 873f 75d0 7e3f
00000010: 284e a93f d6cc 873f 9853 993f d955 893f

bias f4 [8]
0.63024604 -0.27864197 -0.30975705 0.0021057043 -0.06435098 -0.7277049 -0.46816736 0.18994065
00000000: ce57 213f 29aa 8ebe 7a98 9ebe dbff 093b
00000010: 72ca 83bd de4a 3abf a2b3 efbe cd7f 423e

running_mean f4 [8]
-1.620747 -1.1986717 -0.38745537 -0.49510053 0.43142226 0.22497712 -0.69340354 -0.4442497
00000000: a374 cfbf 136e 99bf 8d60 c6be d17d fdbe
00000010: 61e3 dc3e 6760 663e e582 31bf b274 e3be

running_var f4 [8]
8.804224 3.261903 11.008098 4.2782774 14.205718 6.897786 5.6490607 4.693379
00000000: 1ade 0c41 05c3 5040 2b21 3041 a6e7 8840
00000010: 9f4a 6341 aaba dc40 1bc5 b440 2930 9640
