HW2/R6_btnk_ch2.pt (torch, 42993 bytes, 42 tensors)

weight f4 [2, 3, 7, 7]
000000 0b f7 9f 3e 88 3f 30 be bd 50 2c bf 46 d4 c0 be
       0.31243166 -0.17211735 -0.67310697 -0.37661952
000010 34 3f 18 3d be 2f 81 3e 37 c2 78 3e 0d f0 ee 3e
       0.03716965 0.25231737 0.24292837 0.4666752
000020 07 87 c6 3d f1 14 04 be 93 aa 1e bc 69 e6 40 3e
       0.09693723 -0.12898614 -0.009684223 0.18837894
000030 01 f7 53 be db 5b 07 3d 87 9b f5 3e 33 8e 90 3e
       -0.20699693 0.033046585 0.4797022 0.2823349
000040 c5 23 11 3f 96 02 3d 3f 57 f9 16 3e 79 4f 30 be
       0.56695205 0.7383207 0.14743553 -0.17217816
000050 0a ad 91 3e 21 e4 5f 3e f7 e0 1e be 4c 35 67 3d
       0.2845233 0.21864368 -0.15515505 0.056447312
000060 37 04 83 3e b6 fb f2 be 0e 16 17 be 46 72 ac 3e
       0.25589153 -0.47457665 -0.14754507 0.33680934
000070 00 f3 0d 3e e2 2e b1 be b2 9a a2 bc e4 58 33 3e
       0.13862228 -0.3460608 -0.019849155 0.17514378
000080 5b af 10 bf 5c 6f 0a bd f5 ac 91 3e f8 59 0f 3e
       -0.5651757 -0.033797607 0.28452268 0.13999164
000090 c4 a9 37 bd 9b 6f 76 bc 36 6a 34 be fc 70 3b be
       -0.044839635 -0.015041257 -0.17618641 -0.18304819
0000a0 80 eb 0b 3e fd 9b 42 3e 3e 6f 29 be 19 e4 c5 bc
       0.13664055 0.19004817 -0.16546342 -0.024156617
0000b0 62 ad 15 3d e9 7f 4d 3d 2d dd 23 3d 67 4c 78 3e
       0.036542304 0.050170813 0.04000585 0.24247895
0000c0 6f f8 9d bd cf dd c9 3e f4 36 7f be 5e 42 23 bf
       -0.077134006 0.3942704 -0.24923307 -0.63773143
0000d0 f5 ae cf be 01 fc b6 3c 54 c7 ac 3e 46 7b 18 3e
       -0.4056317 0.022336962 0.33745825 0.14890775
0000e0 12 8d d6 3e b0 9c ba 3d 53 98 fc bd 64 80 a6 bc
       0.41904503 0.09111917 -0.12333741 -0.020324893
0000f0 ad 5e 34 3e e7 dd 4d be bf 57 78 3d 13 c7 f5 3e
       0.17614241 -0.2010418 0.060630556 0.48003444
000100 98 c4 8d 3e 9a 25 ff 3e c2 9d 23 3f ed 56 76 3e
       0.27689052 0.49833375 0.63912594 0.24056597
000110 7d e3 0d be 1b 69 cb 3e 3c 8b 65 3e 6a 45 1d be
       -0.13856311 0.39728627 0.22416395 -0.1535851
000120 d0 ef 9b 3d af 03 96 3e 5c fe c7 be b6 55 56 be
       0.076141 0.29299685 -0.39061248 -0.20931134
000130 e0 67 a6 3e a9 36 59 3e c8 ad b1 be 69 b3 73 bc
       0.32501125 0.21212257 -0.34702897 -0.014874318
000140 01 98 18 3e 74 68 19 bf 10 4b 01 bd 5d 3e cb 3e
       0.14901735 -0.5992501 -0.031565726 0.39696017
000150 33 2c 52 3c f6 c6 4c bc 05 64 0c bd f0 fb 62 be
       0.012827921 -0.012498608 -0.034275074 -0.22166419
000160 6b 1e c9 bd 57 35 d4 3c fc 2e 12 3e 8a ce 85 be
       -0.09820255 0.02590434 0.14275736 -0.2613414
000170 a5 ac 2d bd 5a 88 76 bd 86 82 cd bb 3d a1 4c 3d
       -0.042400975 -0.06018863 -0.006271663 0.049958456
000180 ec 26 15 3e f8 55 66 3d e7 4d ad 3e 29 a6 6e be
       0.14565629 0.05623433 0.33848497 -0.23305573
000190 70 7e 44 bf 7a 86 cb be 01 74 14 bc 02 97 a8 3e
       -0.7675543 -0.39751035 -0.009060861 0.3292771
0001a0 9d 00 77 3e 76 55 e3 3e 1a 53 b1 3d f9 78 b1 bc
       0.24121328 0.4440114 0.086584285 -0.02166413
0001b0 b2 b3 85 bc 84 3a 15 3e 71 78 b5 bd 99 e5 f9 3d
       -0.016321037 0.14573103 -0.08860863 0.122019954
0001c0 2c 6a f0 3e 9c 2f a0 3e 2b 5f 04 3f e7 c6 23 3f
       0.46956003 0.31286323 0.51707715 0.63975376
0001d0 55 0e 0f 3e e3 42 23 be ad cb c2 3e f4 50 5a 3e
       0.13970311 -0.15943484 0.38046017 0.21319944
0001e0 47 db 54 bd 25 7b 96 3d a9 6f 95 3e b9 51 e1 be
       -0.05196693 0.07347707 0.29186752 -0.44007662
0001f0 97 86 60 be 99 76 8e 3e 10 5b 5e 3e 8c 6c 72 be
       -0.21926342 0.27824858 0.21714425 -0.2367422
000200 b6 49 46 3d 88 2e 3d 3e e5 a8 0e bf d8 51 b1 3d
       0.04841014 0.18474782 -0.5572646 0.086581886
000210 b8 e1 a7 3e a3 6a 1a 3e ac 9a 35 bc 95 7a 3b 3c
       0.32789397 0.15079741 -0.01108424 0.0114428
000220 62 7f 25 be d2 87 3b be 68 8e f8 3d ee 5f ce 3d
       -0.16161874 -0.1831353 0.12136537 0.10076891
000230 cd 68 8a be 3b 31 0e bd 3a 31 81 bd 69 6a 1c 3c
       -0.27033082 -0.03471492 -0.06308217 0.0095468545
000240 e0 c0 9b 3d 95 13 60 3e 65 e7 3d 3d d4 84 c9 be
       0.07605147 0.2188247 0.046363253 -0.39359152
000250 ba 81 ce bc 75 d6 19 3e 45 02 55 be fa a2 4b be
       -0.025208343 0.15023215 -0.20801647 -0.1988639
000260 ee 4d bc bd d7 4e 96 3e 4b 77 17 3e 2f 0f 75 3d
       -0.091945514 0.29357025 0.147916 0.059828933
000270 95 ef 5c 3c d2 43 84 3e 2e 83 95 3e 08 38 52 3d
       0.013484855 0.25832993 0.29201645 0.051322967
000280 b7 c4 76 3d 37 5e bf bc bb 69 25 bf a5 37 16 be
       0.060246196 -0.023360355 -0.64614457 -0.14669664
000290 60 14 0b 3e fa 56 68 bd 9a eb 15 3d f3 5c 9a 3d
       0.13581991 -0.056723572 0.03660164 0.0753726
0002a0 15 af 16 3e 18 4f f1 be 01 4a 5c bd 93 8a 84 bd
       0.14715226 -0.47130656 -0.053781513 -0.064717434
0002b0 2f 88 79 be d9 17 8f be 24 ce c9 be fa 95 65 3f
       -0.24368356 -0.27947882 -0.39415085 0.8968197
0002c0 cf 2a 0a 3e 1c ad af bd 3b 97 07 bf 98 c4 e6 be
       0.13492893 -0.0857794 -0.52965134 -0.45071864
0002d0 82 52 96 3d 47 6b a7 be 6d 7f 7e 3e 6e 69 9b 3e
       0.07339956 -0.32699034 0.24853297 0.30353874
0002e0 ed 6f 12 be d2 87 40 bc 51 3c c3 bc db ab 9e bd
       -0.14300509 -0.011751132 -0.023832472 -0.077476226
0002f0 e9 47 fd bd d6 dc e0 be 9d ee 65 3e 4f 07 06 3f
       -0.123672314 -0.43918484 0.22454305 0.523549
000300 5d 88 c4 3e e1 64 89 3e cf 57 38 3e cf 45 27 3f
       0.38385287 0.26834777 0.18002246 0.65340894
000310 12 68 bf be c9 a2 ee 3c 24 a9 eb 3d 47 cc f5 bd
       -0.37384087 0.029130356 0.115068704 -0.120018534
000320 e1 dc 89 be db 96 04 be 30 19 88 3e 05 aa 33 3e
       -0.2692633 -0.12948172 0.26581717 0.17545326
000330 6b 9a 9a 3d bd 59 a5 bd b4 5f 8a 3e d0 7d 51 3e
       0.07548984 -0.08073757 0.2702614 0.2045815
000340 ac cb 18 3e 52 9b d6 3b 1f fc ac bd e7 2b 26 bf
       0.14921445 0.0065492773 -0.08446526 -0.6491074
000350 c3 34 00 be 81 86 f5 3d 91 09 ce bd a1 3d 2a 3c
       -0.12520127 0.11988545 -0.100604184 0.01039067
000360 1f 52 40 bc 1d 87 25 3e ee 42 b7 be 5b 4f ca bd
       -0.011738329 0.16164823 -0.3579325 -0.09878417
000370 e2 94 19 be a2 1d a4 be 62 4b 35 be 81 bd f5 be
       -0.149982 -0.32053858 -0.17704538 -0.47996143
000380 aa 7b 5b 3f fb a6 02 3e 10 86 ab bd 43 97 f0 be
       0.8573557 0.1275901 -0.0837518 -0.46990404
000390 00 bd 00 bf 31 72 af 3d fd dd b9 be ee fb 27 3e
       -0.5028839 0.08566702 -0.36302176 0.16404697
0003a0 2e 4f 46 3e ca 0a 0c bd 47 f0 1f be 02 c2 a1 3c
       0.19366142 -0.034189977 -0.15619002 0.01974583
0003b0 10 44 a6 bd ec c5 f6 bd 68 04 cd be 6b 96 8c 3e
       -0.08118451 -0.12049469 -0.40042424 0.2745851
0003c0 d8 97 06 3f 09 37 e4 3e c3 cf ad 3e 7d 31 6c 3e
       0.52575445 0.44573238 0.33947572 0.23065753
0003d0 2a 35 14 3f 25 0d de be 1f 4d ba bc 15 d5 68 3e
       0.5789362 -0.43369403 -0.022741852 0.22737534
0003e0 0d ac fc bd 78 00 9e be 9a 32 e1 bd ea 47 96 3e
       -0.123375036 -0.30859733 -0.109959796 0.2935174
0003f0 89 07 ef 3d a4 41 57 bd 75 08 8b bd 8f a3 4a 3e
       0.11671359 -0.052552834 -0.067887224 0.19788955

weight f4 [2]
000000 d3 ed 70 3f b1 28 3d 3f
       0.9411289 0.73890215

bias f4 [2]
000000 b1 22 24 3e e9 be 8f 3d
       0.16028859 0.07018835

running_mean f4 [2]
000000 3d 26 d4 41 46 c8 07 c0
       26.518671 -2.1215987

running_var f4 [2]
000000 6a c5 de 46 6b 1e 51 46
       28514.707 13383.6045

weight f4 [2, 2, 1, 1]
000000 be 92 5e bf 8e 32 29 3e 40 f4 03 3f 4c da db 3e
       -0.8694266 0.16523191 0.5154457 0.42939985

weight f4 [2]
000000 fa fe cd 3e 37 c6 35 3f
       0.40233594 0.71005577

bias f4 [2]
000000 64 6b 92 3f d7 79 36 bf
       1.1439023 -0.7127966

running_mean f4 [2]
000000 0e 34 84 be 2b 9a 95 3e
       -0.25820965 0.29219183

running_var f4 [2]
000000 7e 37 c3 3f 76 32 96 3f
       1.525131 1.173415

weight f4 [2, 2, 3, 3]
000000 ad 97 8c 3e ac 0f 98 be ba ae 98 be a6 ae 83 3d
       0.2745947 -0.29699457 -0.29820806 0.06429796
000010 5f a5 fd bd c2 e4 bb 3d d0 90 07 3f 37 f3 95 3e
       -0.12385058 0.091744915 0.5295534 0.2928712
000020 de 0a 65 3f 01 9f 98 3e 04 ee 52 bd 10 21 3a be
       0.89469707 0.2980881 -0.05149652 -0.18176675
000030 3f 29 61 3e 7d fb da bd c5 05 fd 3d 50 28 18 3e
       0.2198839 -0.10692499 0.12354616 0.14859128
000040 cb 1a 35 3e 03 fb 78 3f bf 00 3c 3e 71 df b5 3e
       0.17686002 0.97258013 0.1835966 0.35522035
000050 40 46 7d 3d 62 ff 2a be 43 2f b5 bd 19 bb 19 3e
       0.061834574 -0.16698983 -0.08846905 0.15012778
000060 90 ac 70 3f c1 d9 9d 3e 7c 9a 44 3b a4 7b de 3e
       0.9401331 0.30830196 0.0029999306 0.43453705
000070 9e 14 e6 bd 75 60 8c be 5a e0 eb 3d a4 de 63 bd
       -0.11234401 -0.2741734 0.11517401 -0.05563225
000080 3e 08 2c 3e 15 54 00 3f 38 4b 5a 3e 4b 1e 5d 3f
       0.16800019 0.501283 0.21317756 0.8637435

weight f4 [2]
000000 87 36 6c 3f 16 dd 76 3f
       0.922707 0.964311

bias f4 [2]
000000 e4 79 9b be e8 a8 12 bf
       -0.30366433 -0.5728898

running_mean f4 [2]
000000 b5 94 dc 3f df 2c 08 40
       1.7232882 2.1277387

running_var f4 [2]
000000 4a dc e2 3e 01 4e 06 3f
       0.44308692 0.52462775

weight f4 [8, 2, 1, 1]
000000 19 3d fd 3e 3f 73 a5 3e ab e8 8d 3e 01 23 99 be
       0.49460676 0.32314488 0.27716574 -0.29909518
000010 bc d1 2f bd 59 f2 49 3f 21 1c 0a 3f 08 57 d6 be
       -0.042924628 0.7888542 0.5394917 -0.41863275
000020 17 ef bc be 82 cc fd 3e 3c 8e 1a bf 46 40 fb 3e
       -0.3690116 0.4957009 -0.6037328 0.49072474
000030 37 58 42 3f 17 5c cf 3d 0f 59 2a 3f 23 0f 39 3e
       0.75915855 0.101249866 0.6654214 0.1807218

weight f4 [8]
000000 dd b1 5b 3f f4 6e 15 40 99 10 71 40 ad 05 32 40
       0.8581827 2.334897 3.766638 2.7815964
000010 c1 1c f8 40 ce f6 fd 3f 13 1a b8 3f 9b df 4d 40
       7.75351 1.9840944 1.4382957 3.2167728

bias f4 [8]
000000 ad b5 04 c0 d8 c8 38 bd 24 d4 05 bf b9 de 9e 3e
       -2.0735886 -0.045113415 -0.52276826 0.310293
000010 9e 4c eb be 95 55 b8 3f 0b ab d6 bf 8f 74 75 be
       -0.45956892 1.4401118 -1.6770948 -0.23970245

running_mean f4 [8]
000000 b5 c8 ce 3d dc 2d 25 bb a3 f6 ba 3d 94 c8 67 3c
       0.100968756 -0.0025204336 0.091290735 0.014146943
000010 d2 8c 84 3c 40 41 68 bc 29 92 d9 3d 6d e7 d5 3d
       0.01618043 -0.014175713 0.10623581 0.104445316

running_var f4 [8]
000000 0d 04 8f 3e c2 09 a9 3b e9 e3 8d 3e f5 e3 3c 3c
       0.27932778 0.005158634 0.27712944 0.011528959
000010 36 50 bf 3c 78 0e 6b 3c ea 19 95 3e cb c0 92 3e
       0.023353677 0.014346711 0.29121333 0.28662714

weight f4 [8, 2, 1, 1]
000000 92 21 32 3f f2 e3 27 bd b1 28 31 3c f5 c1 3e 3f
       0.69582474 -0.04098887 0.010812924 0.74514705
000010 4c a0 4b bf ca a0 24 3c 0f 45 0b bd 00 2a 88 3f
       -0.7954147 0.010048101 -0.034001406 1.0637817
000020 cf ca 35 be f6 28 47 3f fd e4 f7 3e 68 4c 6e be
       -0.17753147 0.77796876 0.48416892 -0.23271334
000030 da 2e 22 3f 9d 88 7f be 3a 35 4b 3d e6 c9 69 3f
       0.6335274 -0.24954458 0.049611308 0.913237

weight f4 [8]
000000 ab ca 95 3f 2f 96 80 3e 1b 39 0b 40 cf 8c de 3f
       1.1702474 0.2511458 2.1753604 1.7386721
000010 c0 1e 93 40 5f c2 92 40 2f 37 28 40 6c 79 17 40
       4.5975037 4.586227 2.6283681 2.366786

bias f4 [8]
000000 ad b5 04 c0 d8 c8 38 bd 24 d4 05 bf b9 de 9e 3e
       -2.0735886 -0.045113415 -0.52276826 0.310293
000010 9e 4c eb be 95 55 b8 3f 0b ab d6 bf 8f 74 75 be
       -0.45956892 1.4401118 -1.6770948 -0.23970245

running_mean f4 [8]
000000 57 30 6c 3e 11 2e 4e 3e 72 7c 8b be 68 d5 89 3e
       0.23065315 0.2013476 -0.27243382 0.2692063
000010 e6 b8 12 3e 95 32 d1 3d 6b 14 1e 3e 86 d5 84 3e
       0.14328346 0.10214726 0.15437476 0.25944155

running_var f4 [8]
000000 09 fa 88 3f eb 0a 0d 3f 12 7f b8 3f 70 63 83 3f
       1.0701305 0.55094784 1.4413779 1.0264721
000010 08 85 d3 3e 27 e6 c3 3e 76 33 37 3f 16 f7 63 3f
       0.41312432 0.3826153 0.715629 0.890489

weight f4 [2, 8, 1, 1]
000000 9c 77 66 be af e5 97 3e a2 a0 21 bf d5 13 93 3e
       -0.22506565 0.29667422 -0.6313573 0.28726068
000010 04 01 05 3e c9 3b 95 be b3 7d db 3e 11 18 33 bd
       0.12988669 -0.29147175 0.42869338 -0.043724123
000020 1d 26 81 bf 51 a2 93 3c 3e 5f 9e 3e 9e 9c 2d 3e
       -1.0089756 0.018021734 0.3093204 0.16954276
000030 a7 f4 6f be 3a 13 9f bd 95 b0 89 bf 64 f7 cb 3e
       -0.23433171 -0.07767339 -1.0757014 0.39837182

weight f4 [2]
000000 02 d2 0e 3f 89 47 cd 3f
       0.55789196 1.6037456

bias f4 [2]
000000 09 e5 d1 be 54 e6 d3 3e
       -0.40995052 0.41386664

running_mean f4 [2]
000000 29 6d ef be ca 8e 38 bf
       -0.4676297 -0.7209288

running_var f4 [2]
000000 c6 f4 f3 3f 76 12 42 41
       1.9059074 12.129507

weight f4 [2, 2, 3, 3]
000000 23 57 27 3f 0e f8 da 3e 64 14 5b 3d 4b 39 d0 3e
       0.65367335 0.42767376 0.053486243 0.4066871
000010 49 d3 5b 3e 16 4e b5 3d 15 5f 02 3f b7 4d 09 3e
       0.21467318 0.08852784 0.50926334 0.13408552
000020 18 0a ad bd 3f 4a 9b be e3 4a 51 3e 07 6c 0b 3f
       -0.08449191 -0.30330083 0.20438723 0.5446171
000030 aa 63 00 bf e3 02 fa 3d 64 70 7f 3f dd e1 c3 b9
       -0.50152075 0.12207582 0.9978087 -0.0003736158
000040 21 39 30 3f dd 31 81 3f 60 ff 79 3e 26 d3 c1 3d
       0.6883717 1.0093342 0.24413824 0.094641015
000050 d1 c3 42 3e 3c f3 48 3e 23 be 9b 3c 25 93 a0 3e
       0.1902001 0.19624037 0.019011563 0.31362262
000060 29 b3 9d 3d 7f 93 5b 3e ef e8 b9 3e ba 3b 3e 3e
       0.07700188 0.21442984 0.36310527 0.18577471
000070 6c cd af 3e 00 48 26 3f a3 09 86 3e 59 cd 3b 3e
       0.34336412 0.64953613 0.26179227 0.18340053
000080 0a c6 81 3f dd 7d 3b 3f e6 cb 0c 3f f4 07 7b 3f
       1.0138562 0.7323893 0.54998624 0.9805901

weight f4 [2]
000000 ea 98 90 3f e1 57 52 3f
       1.1296666 0.8216534

bias f4 [2]
000000 57 a4 27 bf d5 1a 1f bf
       -0.6548514 -0.6215032

running_mean f4 [2]
000000 af 7e f4 3f 90 0e 4d 40
       1.9101161 3.2040138

running_var f4 [2]
000000 28 56 56 3f 45 db 52 3f
       0.83725214 0.8236583

weight f4 [8, 2, 1, 1]
000000 55 6a 5d be e1 e5 2a 3f 5d a0 d6 3e 80 6e 5d be
       -0.21622594 0.6675702 0.41919222 -0.21624184
000010 7a 65 93 be 24 6a 21 3f 98 5e 24 3f fd 8e 1d bf
       -0.28788358 0.6305258 0.6420684 -0.6154631
000020 a5 8a 25 bf 1a e1 3c 3f 72 8c 9a be 88 72 75 be
       -0.6466468 0.7378098 -0.30185276 -0.23969471
000030 8c d7 a6 3e e5 25 d8 be da fe 9b 3e 3d 91 2b bf
       0.32586324 -0.4221641 0.30467874 -0.6701849

weight f4 [8]
000000 9f 75 fc 40 ae db eb 40 18 cb 1e 41 72 ac c3 40
       7.889358 7.3705664 9.924583 6.1148005
000010 35 37 81 40 a5 e7 58 40 50 c5 07 41 48 f0 d8 40
       4.037989 3.3891385 8.485672 6.779331

bias f4 [8]
000000 09 11 39 bd d0 2c f0 3e 67 93 08 be 82 54 16 3f
       -0.04518226 0.4690919 -0.1333748 0.587227
000010 0d 5a 9d be cb 3c bd 3f f1 26 4c be ac e2 85 c0
       -0.30732766 1.4784178 -0.1993673 -4.18392

running_mean f4 [8]
000000 b7 d8 ac 3c 81 fd 26 3d 8e 79 0d 3c af 45 2d 3d
       0.021099431 0.040769104 0.008634938 0.042302784
000010 7e 0b 0a bd dd 4f 7a bd 6c 64 5f 3c 7c 21 07 bc
       -0.033702366 -0.06111132 0.013634782 -0.008247729

running_var f4 [8]
000000 85 4a 6a 3d 12 c9 8a 3d c1 8f 35 3d 99 65 f3 3d
       0.057199974 0.06776632 0.044326548 0.118846126
000010 14 00 ea 3d 3f 29 01 3e 73 d9 f0 3c ff 3a 49 3d
       0.11425796 0.1261339 0.029400563 0.04912853

weight f4 [10, 8]
000000 17 57 92 bf 29 a6 53 bd c3 18 a6 bf 2b c3 21 3f
       -1.1432828 -0.051672135 -1.2976307 0.6318843
000010 0d 27 ac 3f e1 26 36 3d 75 f5 9c 3f 05 88 41 bf
       1.3449417 0.04447067 1.2262408 -0.75598174
000020 be 09 cc be 05 5e 5c 3e 15 89 bb bf 70 c8 e9 bf
       -0.39851183 0.2152024 -1.4651209 -1.8264294
000030 58 0d 81 c0 29 88 19 40 1f c8 a3 bf ca 9d a7 c0
       -4.032879 2.3989356 -1.2795447 -5.2380114
000040 e4 69 3c 3f 9b e1 44 bf 1d 86 c3 3f fe ff 3c 3e
       0.73599076 -0.76906747 1.5275303 0.18457028
000050 de 8f f9 3f 6b a2 0a bf 64 14 8b bf a5 f9 90 be
       1.949703 -0.5415408 -1.0865598 -0.28315464
000060 96 28 22 40 c6 eb 3d 3f ea 63 15 40 b6 24 90 bd
       2.5337272 0.74187887 2.3342233 -0.07038252
000070 fd 12 c9 3e 56 44 8f bf 73 cd 97 bf 1b 7a ca 3d
       0.392723 -1.119273 -1.1859573 0.09886571
000080 74 19 6d c0 88 80 87 c0 40 6b 8d c0 da 1f 4a 3f
       -3.7046785 -4.23444 -4.419342 0.7895485
000090 c0 d4 a0 3f 30 f7 91 3f ff 64 89 3f 19 01 b1 3f
       1.2564926 1.1403561 1.0733947 1.382846
0000a0 12 dc bf 3f ad c1 39 40 03 0d 7d 3f da e2 48 3f
       1.4989035 2.902446 0.9884798 0.7847115
0000b0 b2 15 7f 3e 52 62 b7 bf c3 60 0e bf 66 51 4c bf
       0.2491062 -1.432688 -0.55616397 -0.79811704
0000c0 7b 62 0b c0 fb 04 c7 3f f8 6e 94 c0 03 d9 ca 3f
       -2.1778858 1.5548395 -4.638546 1.5847477
0000d0 52 3b 14 c0 fc eb 57 3d a6 b5 1b 40 d6 07 9b 3f
       -2.3161206 0.052715287 2.432962 1.2111766
0000e0 a2 e3 b6 3e 75 0f 39 c0 fd 6b 01 40 9a 57 47 c0
       0.35720545 -2.8915684 2.022216 -3.1147218
0000f0 b8 e1 67 40 3f 63 49 3f da d1 59 c0 72 43 08 c0
       3.6231518 0.7866706 -3.4034333 -2.1291165
000100 c8 c4 cb 3d 5f 0f be 3f 10 b2 cd 3e 33 0b 46 3f
       0.099496424 1.4848441 0.40174913 0.7736084
000110 cb bf 26 c0 28 9e 46 bf 9c 90 f6 3f 76 6d d3 3f
       -2.605456 -0.7758508 1.9262881 1.651778
000120 4c bb 98 bf 5d fb 50 c0 4e 8c 99 3f 40 c7 b6 bf
       -1.1932158 -3.265342 1.1995943 -1.4279556
000130 00 31 fb 3e ce ad 3d 3f a4 1c 8e 3b ae 07 fe 3f
       0.49060822 0.7409333 0.0043369103 1.9846094

bias f4 [10]
000000 5d e6 9a be 64 95 66 3f a4 b8 c3 3d 35 9c 97 bf
       -0.30253878 0.900717 0.09556702 -1.1844546
000010 c6 48 fb 3e 6e b0 9b be 76 81 01 3e ce c0 e5 3e
       0.4907896 -0.30408043 0.12647042 0.4487366
000020 02 8f 54 be c4 42 42 3f
       -0.20757678 0.75883126
