HW3/model_27_cpu.pt (torch, 15008 bytes, 7 tensors)

weight f4 [2, 1, 7]
0.34910598 0.18771693 -0.1833307 -0.106857255 0.36542264 0.19025873 -0.008336529 -0.38634697
-0.015385698 -0.18391424 0.2294148 0.17158891 0.07185128 -0.50369745
00000000: 05be b23e de38 403e 0bbb 3bbe fad7 dabd
00000010: ad18 bb3e 2fd3 423e f095 08bc 45cf c5be
00000020: 4b14 7cbc 0454 3cbe b7eb 6a3e 01b5 2f3e
00000030: c426 933d 51f2 00bf

weight f4 [2]
1.5665147 1.579735
00000000: 8e83 c83f c234 ca3f

bias f4 [2]
-0.049309935 -0.102477156
00000000: 37f9 49bd 8bdf d1bd

running_mean f4 [2]
0.0010654681 -0.0008297623
00000000: 2da7 8b3a 6884 59ba

running_var f4 [2]
0.0020835358 0.0022080163
00000000: ee8b 083b 5eb4 103b

weight f4 [3, 2]
-1.150268 -0.8635469 -0.15558505 0.7317543 0.48653692 -0.05744531
00000000: fb3b 93bf 6911 5dbf b051 1fbe 4054 3b3f
00000010: 5e1b f93e c64b 6bbd

bias f4 [3]
0.36810344 -0.65767336 -0.49974793
00000000: 0e78 bc3e 485d 28bf f6de ffbe
