HW2/aML/R6_btnk_ch8n4.pt (torch, 70473 bytes, 47 tensors)

weight f4 [8, 3, 7, 7]
000000 2f bd 6b 3e 2d 3d b9 3d 2f e0 e9 bc 32 9d 91 be
       0.23021387 0.090448715 -0.028549282 -0.28440243
000010 3b fa 75 be f9 0f 27 3e f8 7b 4c be 30 ce 43 3e
       -0.24021237 0.16314687 -0.19969165 0.19121623
000020 df 8d a9 3d 61 a3 11 bd 9a 01 e6 be 43 ea 3f bc
       0.08279013 -0.0355562 -0.44923097 -0.011713567
000030 c7 9f 94 3e be 34 0e be 49 dd 90 3e 81 9c 32 3e
       0.2902815 -0.13887307 0.28293827 0.17442514
000040 89 f7 6e be 17 28 38 bf 67 92 67 3e 33 3d b0 3d
       -0.23336615 -0.7193617 0.22614442 0.08605423
000050 06 bf a0 be 3f 76 bf 3e b2 67 9b bd eb 97 49 bf
       -0.3139574 0.37394902 -0.07588138 -0.78747433
000060 57 cd d4 be 05 12 a4 3c 07 c4 31 3d 9c 80 65 be
       -0.41562912 0.020028124 0.043399837 -0.22412342
000070 a7 b4 19 3f 56 c8 94 be 2e 67 32 bf 8e 4f d3 bd
       0.6004128 -0.29059094 -0.6968869 -0.10317908
000080 de d4 2b 3e fa fc 65 3e d9 7f 17 be 81 6d 15 3e
       0.16780421 0.22459784 -0.14794864 0.14592554
000090 f4 e2 c6 be 35 b7 ea be 74 7a f1 bb 76 82 85 3c
       -0.38845026 -0.458429 -0.007369334 0.01629756
0000a0 20 85 49 3e 18 87 1a be 3e 8f 2d bf 8a a8 07 bf
       0.1967969 -0.15090597 -0.67796695 -0.52991545
0000b0 5c d2 11 3e 10 d9 1a 3e df 43 52 3c 3d 4a 6c 3d
       0.14240402 0.15121865 0.012833565 0.057687987
0000c0 05 4f b2 be a6 76 b6 3e 4a 20 0e 3e c4 ef 56 bd
       -0.34825912 0.35637397 0.13879505 -0.052474752
0000d0 a1 c7 98 be 1d ab 73 be f0 53 4e 3e 00 f3 55 be
       -0.29839805 -0.23795743 0.20149207 -0.20893478
0000e0 08 f4 48 3e c0 ad 2e 3c a1 ea 76 bd 46 b8 07 bf
       0.1962434 0.010661542 -0.060282353 -0.53015554
0000f0 da c7 94 bd 05 cf 71 3e b8 ee 40 be e4 5a 77 3e
       -0.07264681 0.23614128 -0.18841064 0.24155766
000100 f9 f0 65 3e e0 69 0f be 81 3c 2f bf 5f 4d fc 3d
       0.22455205 -0.14005232 -0.68451697 0.12319445
000110 28 91 2f 3e 2b b8 a7 be e5 95 e9 3e 8f 00 f3 bd
       0.17145216 -0.32757697 0.45622173 -0.11865341
000120 49 5b 38 bf ba b6 aa be 69 5b b7 3c 84 de f7 3d
       -0.7201429 -0.33342534 0.022382455 0.12102988
000130 41 d4 8c be 6a 50 27 3f 2b 40 9a be 1b e5 47 bf
       -0.27505687 0.6535708 -0.3012708 -0.7808396
000140 81 5d 68 be 18 cf 3d 3e 6d 22 ed 3d 55 5f 9c be
       -0.22691919 0.18536031 0.11578832 -0.30541483
000150 6f 98 29 3e 68 e4 f2 be 45 b2 f5 be bd 68 3b 3d
       0.16562055 -0.47439885 -0.4798757 0.045754183
000160 b3 c5 fb 3b fe 17 35 3e 45 cf b8 bd 36 3b 2e bf
       0.0076834797 0.17684934 -0.090239085 -0.680591
000170 e0 c1 db be 52 c5 0f 3e 11 16 f1 3d f8 3d f5 bd
       -0.42921352 0.14040115 0.11771787 -0.1197471
000180 9c cc d1 3d 17 68 b3 be 45 dc 96 3e 2f 2b 42 3e
       0.10244104 -0.35040352 0.29464927 0.18961786
000190 e7 bc 93 3d 7c 61 90 be ce 39 bf be 56 19 2a 3e
       0.07213765 -0.28199375 -0.3734879 0.16611227
0001a0 cd eb d7 bd 9f f6 0f 3e 75 f5 a7 b9 46 3d 07 be
       -0.10543022 0.14058922 -0.00032035602 -0.13206968
0001b0 56 94 13 bf f4 84 a7 bd 2b 94 b8 3e cf 22 36 be
       -0.5764822 -0.08179656 0.36050543 -0.17786716
0001c0 d8 a3 3b 3e 41 c4 81 3e 94 91 60 be 02 0a 2d bf
       0.1832422 0.25345042 -0.21930534 -0.67593396
0001d0 5c f1 1d 3e 51 63 f7 3d d8 58 4c be 7f e1 b8 3e
       0.15424103 0.1207949 -0.19955766 0.3610954
0001e0 9b 3a 4e be f1 4f 54 bf 4d 90 a6 be 44 fb 27 3e
       -0.20139544 -0.8293448 -0.32531968 0.16404444
0001f0 cf 4e 31 3d da da 9b be cb d2 32 3f ea 23 5d be
       0.04328805 -0.30440408 0.69852895 -0.21595731
000200 c4 73 43 bf 1a 56 06 be 5b b8 4e 3e 8f 2c 13 3e
       -0.7634852 -0.13118783 0.20187514 0.14372467
000210 3d aa 30 be 6e 0d c2 3d f6 89 07 bf b4 75 ab be
       -0.17252441 0.09475218 -0.52944887 -0.33488238
000220 5a 58 37 3c 49 df d3 bc 76 8d 2f 3e 04 94 02 be
       0.011190498 -0.025863307 0.17143807 -0.12751776
000230 bd 7f 4b bf 48 73 ca be 62 a0 2d 3e c9 d4 9d 3d
       -0.7949179 -0.39541078 0.16955712 0.07706601
000240 d3 e4 ce bd 59 30 1b 3e c1 d2 fa be 7d 60 2b 3f
       -0.101022385 0.15155162 -0.48988917 0.66944104
000250 8f 66 02 3f 6c eb d6 3d e7 b3 38 3e 2a 7d cf 3e
       0.5093774 0.10494122 0.18037377 0.4052518
000260 3c dd 97 3e ff 0d d6 3e ae dc 1b be e9 76 27 3c
       0.29660976 0.41807553 -0.15220901 0.0102212215
000270 12 27 e6 3d 77 3c 1d 3e 22 75 af 3e c9 f2 17 3e
       0.11237921 0.15355097 0.34269053 0.14838709
000280 7f e0 d5 3d 87 22 94 be 3a 1f 1b 3e ce ec 83 3e
       0.1044321 -0.28932592 0.1514863 0.25766605
000290 ab 98 96 bd e1 bd a0 3d 18 d9 c8 bd 4b ed 38 bd
       -0.07353338 0.078487165 -0.09807032 -0.045148175
0002a0 b7 5a d7 be 21 e0 2f bd ac be b0 bd cd 47 89 be
       -0.42061397 -0.042938355 -0.08630118 -0.26812592
0002b0 9f dc c8 be 2d 99 65 be 38 48 4e 3d 98 26 18 bf
       -0.3923082 -0.22421713 0.050361842 -0.5943389
0002c0 29 d7 cf be ef dd e9 be 70 0b e8 be 82 fa 45 be
       -0.40593842 -0.45677134 -0.45321226 -0.19333842
0002d0 50 18 dd 3d 30 03 21 3e 27 09 9e bd f5 1b 46 3b
       0.10795653 0.15723872 -0.077165894 0.0030229066
0002e0 6d 00 37 bc 90 64 3f bc fc b0 e7 3c fc b0 47 bd
       -0.011169535 -0.011681691 0.028282635 -0.04875277
0002f0 e8 e1 91 3d 3c 9b 27 3e 33 0b 99 bd 37 57 9d 3d
       0.07123166 0.16367811 -0.07472839 0.076826505
000300 67 6f 12 be 6b ff 01 be 04 f9 cb bd dd 27 17 be
       -0.14300309 -0.1269509 -0.09959605 -0.147613
000310 c9 81 0d 3f ae a2 0b 3f 8f 3d 5f 3e 79 01 9e 3e
       0.5527616 0.54545105 0.21800826 0.308605
000320 96 d5 a7 3e b3 85 b3 3e 83 0b ba 3e a0 d7 35 be
       0.3278014 0.35062942 0.36336908 -0.17758036
000330 b9 31 76 3d 0a 73 ac 3d 43 34 d2 3d 3e 53 cc 3e
       0.060106013 0.084203795 0.102638744 0.3990726
000340 16 f5 47 3e b4 61 0f 3e 3a 6f 54 be e1 4b 3f 3e
       0.19527087 0.14002115 -0.20745555 0.1868129
000350 31 f9 1a 3e 53 ce 3d 39 54 bb 0c 3e 1a ba d4 bd
       0.15134121 0.00018101306 0.13743335 -0.103870586
000360 48 e5 00 3d e1 4e 01 bf d0 b3 dd 3c 6d 80 25 bd
       0.03146866 -0.50510985 0.02706328 -0.04040568
000370 b1 1e a0 be 86 f6 c4 be c7 77 b4 bd 8e 22 0d 3d
       -0.31273416 -0.38469332 -0.08811908 0.034456782
000380 cf 17 f1 be 8c ec d8 be e9 e1 01 bf e7 80 e7 be
       -0.47088477 -0.4236797 -0.50735337 -0.45215532
000390 4c df 22 be 8d 90 ab bc 32 f2 b2 3d 73 64 61 bd
       -0.15905493 -0.02094295 0.08737601 -0.055027436
0003a0 27 d4 8b 3c ef 68 b4 bd 02 0b 0c 3e c6 74 d3 3c
       0.017068936 -0.08809077 0.13676074 0.025812518
0003b0 93 0b 61 3c 3b d0 02 3e 77 ac 0e 3d b4 07 e7 3b
       0.01373567 0.12774746 0.034832444 0.007050479
0003c0 8a 22 f5 3c de 30 7e bd 4a f5 fe bc d4 30 52 bd
       0.029923696 -0.062058322 -0.031122822 -0.051316097
0003d0 55 d0 81 bd 74 94 28 3f 9a 41 d8 3e ab 97 1f 3e
       -0.06338564 0.6585152 0.4223755 0.155852
0003e0 3b ef 47 3e 9a 13 df 3e 29 a9 9b 3e 82 7e cb 3e
       0.19524853 0.43569642 0.30402496 0.39744955
0003f0 9e 5a 7a be f7 95 dd bb 56 f3 0b 3d 18 4e e5 3d
       -0.2444863 -0.006762262 0.03416761 0.11196536

weight f4 [8]
000000 03 d9 c8 3f 5d 03 65 3f e4 ae 5e 3f 80 6c bf 3f
       1.5691227 0.89458257 0.8698561 1.4954987
000010 0e 70 67 3f f3 ec 6c 3f 6a 1a c1 3f f5 e1 80 3f
       0.90405357 0.92549056 1.5086186 1.0068957

bias f4 [8]
000000 10 f8 0e 3e 9e 72 63 3d 1e e5 4d 3e 06 8c 8a 3e
       0.13961816 0.05552923 0.20106933 0.27059954
000010 5b e1 89 3d be 8f 86 be 36 43 84 3e 8b 65 a4 3e
       0.06732436 -0.26281542 0.25832528 0.3210872

running_mean f4 [8]
000000 b6 0d 44 c2 32 99 a3 be 8c 36 84 c0 78 0e 71 c2
       -49.01339 -0.31952816 -4.1316586 -60.26413
000010 15 69 cf 40 be 42 59 41 24 38 2c c2 ad 66 8c 41
       6.4815774 13.5787945 -43.054825 17.550135

running_var f4 [8]
000000 23 4e d4 47 07 e7 07 47 e8 00 77 46 76 89 f1 47
       108700.27 34791.027 15808.227 123666.92
000010 4d 91 22 47 84 4d d5 46 d2 e4 db 47 db 65 80 47
       41617.3 27302.758 112585.64 65739.71

weight f4 [8, 8, 1, 1]
000000 dd b0 85 bd d8 9b ca be 42 5f 77 be 39 1e 7b 3e
       -0.065278746 -0.39572024 -0.24157432 0.24523248
000010 5e 4a 91 3d 4c 5d a8 3e ba 0a 4a 3e 3d d7 45 3f
       0.070942625 0.3288368 0.19730654 0.7728155
000020 96 24 96 3e c6 b1 66 be ed 25 3e 3e 51 71 84 be
       0.29324788 -0.22528753 0.18569155 -0.25867704
000030 9e 72 be 3c 19 f0 1a 3f 74 ac 84 3f 21 9a 11 be
       0.023248013 0.6052261 1.0365129 -0.14218952
000040 0f dd bc 3e 66 c7 4b 3d 44 45 92 be c7 0e 10 3e
       0.36887404 0.049750708 -0.2856847 0.14068137
000050 97 11 f1 be 09 26 04 3f 1a 36 30 3d 6d 9c e7 3d
       -0.47083732 0.5162054 0.043020345 0.11309133
000060 d2 70 8a 3f 69 b6 35 be 28 c8 8d be 5a e5 ac 3c
       1.081568 -0.17745365 -0.2769177 0.021105457
000070 34 52 9c be 80 0b a3 3c cf d0 24 3e 62 c1 fe 3e
       -0.30531466 0.019902945 0.16095279 0.49756914
000080 af 7c 90 3d da 89 37 3e 81 90 2f be 49 f0 25 be
       0.070550315 0.1792368 -0.17144968 -0.16204943
000090 93 0b b4 bb 83 c3 c1 3e 25 f1 bd be 94 43 f9 be
       -0.005494544 0.37844476 -0.3709804 -0.4868437
0000a0 30 e7 e8 3e aa ef f4 be 22 6d dc 3e fd aa 03 bf
       0.45488882 -0.478391 0.43052012 -0.5143278
0000b0 90 36 78 3e b8 21 84 3e b0 a8 52 bf 86 35 8c ba
       0.24239564 0.25806975 -0.82288647 -0.0010697104
0000c0 9a f0 ee be 32 26 18 3f 08 7a 2e 3e fb 36 48 be
       -0.4666794 0.5943328 0.17038739 -0.19552223
0000d0 15 2e a7 3e c6 e9 4e 3b 5f 2c c8 3d f4 07 45 be
       0.32652345 0.0031572445 0.09774088 -0.19241315
0000e0 68 e7 f0 3e 1f 28 47 be 1c 10 d4 3e f8 79 cb 3e
       0.4705155 -0.19448899 0.4141854 0.39741492
0000f0 54 13 7e be fa 67 6f bc 52 fe 7b 3e 6d f7 00 3d
       -0.2481206 -0.014612192 0.24608734 0.031485964

weight f4 [8]
000000 ba 91 83 3f 7d fc 86 3f e4 32 93 3f 9b c0 79 3f
       1.0278847 1.0545803 1.1499906 0.9755952
000010 f8 a8 93 3f 46 f4 85 3f b0 90 93 3f 85 eb 37 3f
       1.153594 1.0465171 1.152853 0.7184375

bias f4 [8]
000000 63 cf a5 3e cd 47 b2 3e 68 64 5a 3e 92 1b 52 3d
       0.32384786 0.34820405 0.21327364 0.051295824
000010 2e dc 38 be e9 dc 0d 3d 83 8f 00 be e9 19 9b bf
       -0.18052742 0.034634504 -0.12554745 -1.2117282

running_mean f4 [8]
000000 6c d7 09 3f e0 5f 27 3f d7 14 5c 3e db 85 15 3f
       0.5384433 0.6538067 0.21492325 0.5840737
000010 c6 eb df be e6 f4 ad be 51 5b 20 bd e0 bb 1b 3f
       -0.43734568 -0.33975905 -0.039149586 0.6083355

running_var f4 [8]
000000 20 c6 a2 3f b0 32 fe 3f dc d6 18 3f 91 dd 2f 3f
       1.2716713 1.9859219 0.5970285 0.6869746
000010 f7 7a cc 3e e7 d4 10 3f 8a 1d 47 3f 1b 5c 3f 3e
       0.39937565 0.56574863 0.7777945 0.18687479

weight f4 [8, 8, 3, 3]
000000 72 8d 06 bd cf d1 e3 bd 0b 87 3b bd cc 09 63 3d
       -0.032849737 -0.11124002 -0.045783084 0.055429265
000010 09 cd 7a be 06 9b f7 be 52 21 ae 3d 2d 5a a9 3e
       -0.24492277 -0.4836046 0.08502449 0.3307661
000020 b1 79 44 3d d5 bd 7c 3e 04 2e d6 bd 81 0c 06 bf
       0.047967616 0.2468179 -0.104579955 -0.5236283
000030 eb 58 82 3a 80 9d 97 3d 1e 16 15 bf 0d 2b c1 be
       0.0009944713 0.074030876 -0.58236873 -0.37728158
000040 91 de 25 bf fd c8 7f be 66 ec 50 bf 73 76 e3 bd
       -0.64792734 -0.24979015 -0.81610715 -0.11106577
000050 2c b0 1e bf 49 d7 07 bd 43 07 05 bf 14 f7 32 be
       -0.61987567 -0.033164296 -0.51964206 -0.17477065
000060 a2 f0 f0 3e bb 1e 2c 3f cd 94 02 3e 6d 37 6f bf
       0.47058588 0.6723439 0.12752075 -0.9344395
000070 f6 b5 7d be 0f 1b 84 bf c0 2a b7 be d2 41 72 be
       -0.24776444 -1.0320758 -0.35774803 -0.23657921
000080 cb 7e 88 3e 17 76 87 3c 7f a7 35 be 96 21 85 be
       0.26659235 0.016535802 -0.17739676 -0.26002187
000090 05 97 31 be 96 ff 24 bf 9f a5 58 bf 6b fc 48 be
       -0.17342766 -0.64452493 -0.8462772 -0.1962754
0000a0 84 a9 1e bf 22 9c 5e 3f 76 ce 41 be c9 77 43 3e
       -0.6197741 0.8695699 -0.18926415 0.19088663
0000b0 86 f5 45 3d 08 58 85 3e d4 66 a0 3d 44 11 f0 3d
       0.048329853 0.26043725 0.07832113 0.11722043
0000c0 3b fe 86 bd c9 07 03 be 33 b7 48 be 07 1c 29 be
       -0.06591459 -0.12795939 -0.19601135 -0.16514598
0000d0 00 14 a9 3d c9 d2 ac bb 0a 54 da be 0d 74 22 bf
       0.08255768 -0.005274151 -0.42642242 -0.6345833
0000e0 49 99 74 bf b0 aa 9f bd 7e 1b 51 3e f5 c6 fc be
       -0.95546395 -0.07796228 0.20420644 -0.49370542
0000f0 0f 6b b6 3e 7c 48 98 3e a3 ab 25 3e 28 46 ed 3e
       0.35628554 0.297428 0.16178755 0.46342587
000100 8c 3e 84 3e 28 0d 0b 3f 24 70 81 3e 34 b6 b4 3e
       0.2582897 0.5431695 0.2528087 0.3529526
000110 59 81 14 3e 92 06 40 be 63 26 6b be 79 ab 2f bd
       0.14502467 -0.18752506 -0.22963862 -0.04288814
000120 5f 4f d9 3e f5 62 f7 3e 39 4a 82 be 93 78 68 3e
       0.42443368 0.48317686 -0.25447252 0.22702245
000130 0f 94 84 bd 7a 32 1e 3d 20 55 4e be 01 b0 25 3d
       -0.064735524 0.038622357 -0.2014966 0.040451054
000140 17 ed 19 be 63 be 1f 3f 12 8f 7c be b2 30 d2 be
       -0.15031849 0.6239988 -0.24663952 -0.41052777
000150 96 ca 53 be 3e 81 fd be bd 5b 90 be c1 6c 60 bf
       -0.20682749 -0.49512666 -0.2819499 -0.87665945
000160 50 5e 2a bf 15 50 3a bf d7 60 06 3e 25 f0 74 be
       -0.6655016 -0.72778445 0.13122879 -0.23919733
000170 16 57 49 bf ef dc b6 3e b0 07 ab be 0d 67 f3 be
       -0.7864851 0.35715434 -0.33404303 -0.4753956
000180 7f 1d cb 3e f9 04 c0 be 3f f5 27 bc e6 eb 1f 3e
       0.3967094 -0.37503794 -0.010251342 0.15617332
000190 5e 8e a9 3d e8 e7 5d be 8c f5 c0 be dd 1f ed bd
       0.082791075 -0.21670496 -0.37687337 -0.11578343
0001a0 ca fc 9a 3e bc 8d 8d bd 3c 52 62 be 3c 81 35 3b
       0.30270988 -0.06911799 -0.22101682 0.0027695438
0001b0 98 1e bd 3e 17 c2 83 be 9a b9 32 be 59 93 2f 3d
       0.36937404 -0.25734016 -0.17453614 0.04286513
0001c0 82 b3 82 3d 55 78 c8 bd a8 ce b7 3e 24 a4 e2 3d
       0.06381895 -0.097885765 0.35899854 0.110664636
0001d0 f5 bf 9b bf 06 85 34 be ab 10 17 be b9 6f 13 3e
       -1.2167956 -0.1762887 -0.14752452 0.14398088
0001e0 63 36 6b be 38 6d 80 3e 59 37 84 3e 6c 05 94 bf
       -0.22969966 0.25083327 0.25823477 -1.1564155
0001f0 3b 5b f6 bd 51 db 04 bc 54 a1 a8 3d c0 96 42 be
       -0.120291196 -0.00810893 0.08233896 -0.19002819
000200 57 9b a4 be 11 34 fd bd 02 28 06 3f 3b bb 67 3e
       -0.32149765 -0.123634465 0.524048 0.22630017
000210 ea 9f e8 be 05 93 bb bc 12 48 b2 be 5b fe fa 3d
       -0.45434505 -0.022897253 -0.3482061 0.12255546
000220 42 8b b7 3e 34 39 20 3e 4b 05 ce be f9 53 0f be
       0.35848433 0.15646821 -0.40238413 -0.13996877
000230 ab 06 cf bd e6 f3 1c bf 08 58 65 3c 01 cf 25 be
       -0.10108694 -0.6130966 0.013998039 -0.16192247
000240 63 94 b5 bd 3c 3d 31 3e 19 ca 36 be e4 5d 74 bd
       -0.08866193 0.17308515 -0.17850532 -0.059659854
000250 d7 86 b1 3d 2d 50 ff 3c 93 06 d3 3e 17 f0 0c 3d
       0.08668297 0.03116616 0.41215953 0.034408655
000260 c1 34 59 3e 1a 36 ee 3e d5 e5 39 bc 99 b9 94 3e
       0.2121153 0.4652565 -0.0113463 0.2904785
000270 e5 00 8f 3e 17 d2 8e bd 14 9e a8 3e 1a be e5 3e
       0.2793037 -0.06973665 0.32933104 0.44871598
000280 cd 84 a0 3e d9 2f 83 3f 24 f4 87 3b 00 32 0f be
       0.3135132 1.0248977 0.004148977 -0.13983917
000290 11 63 f1 be 53 5e 1c be 08 33 3f bc fb 2e 98 bd
       -0.47145894 -0.15270357 -0.011669882 -0.07430836
0002a0 88 e2 33 bf 78 27 84 be 33 96 1f 3e eb 79 20 3d
       -0.70267534 -0.25811362 0.1558464 0.03917877
0002b0 9f 9a ff 3e d3 97 85 3e 7c 02 1f bc 0e 52 69 3e
       0.49922654 0.26092395 -0.009705182 0.22785208
0002c0 92 53 91 3c e2 3c be 3c 0c 5a 84 be bd 5d 7c be
       0.017740045 0.02322239 -0.2584995 -0.24645133
0002d0 4f 34 0e be 07 6e 45 3d 44 35 eb bb f0 9c 28 be
       -0.13887142 0.048200633 -0.0071779806 -0.16466117
0002e0 89 0d f8 bd 0c 34 8f be 79 69 ff 3c 7c 1e 21 bd
       -0.121119566 -0.27969396 0.031178223 -0.039335713
0002f0 26 55 b3 3d e0 3f ac be ab 42 50 bc fb 8c 8e 3e
       0.08756475 -0.33642483 -0.012711207 0.27841935
000300 44 cf f1 bd 53 1c 5a be 4a aa 09 3e 0c 51 89 3f
       -0.11807111 -0.21299867 0.13443866 1.0727859
000310 a2 7b ca 3c e9 6a 17 3f 4d 08 0e be 27 fd 8f bc
       0.024717156 0.59147507 -0.13870354 -0.017576767
000320 5b 9e 13 3e c9 ff 4e 3b 38 35 ed 3c 59 20 82 bd
       0.14415877 0.0031585565 0.02895604 -0.06353826
000330 e3 12 54 3e 88 0f 43 be 0a 74 df 3e 7e db d4 bd
       0.2071033 -0.19048893 0.43643218 -0.10393427
000340 53 8c 9e bd f9 03 a2 bd cc 7a 8d be a8 b7 29 3e
       -0.077416085 -0.07910914 -0.2763275 0.16573966
000350 26 a4 11 3e cc 43 6e be d1 f1 54 bd 48 d1 63 3c
       0.14222774 -0.2326805 -0.051988427 0.013904877
000360 39 c6 63 bf 90 51 3c be 83 80 95 3d dc 6e 24 3b
       -0.8897434 -0.18390489 0.07299902 0.0025090491
000370 18 1a b5 bd ec 1f 5c be de 6b 83 3d 64 2c 23 3e
       -0.088428676 -0.21496552 0.064170584 0.15934902
000380 78 32 41 3e 5e f6 f7 3e af aa 85 3d ff e7 ec be
       0.18866909 0.4843015 0.06526696 -0.4627075
000390 29 ac 52 3e 68 cd 1c 3e bc 3b bf bd c3 3f 34 3d
       0.20573486 0.15312731 -0.09337565 0.04400612
0003a0 d9 bb 3e bd 82 17 8c 3e 86 68 99 be aa 91 f3 bd
       -0.046565864 0.27361685 -0.29962558 -0.118930176
0003b0 f8 65 dd 3d 02 47 e4 bd 2a d1 8a 3e 24 99 4c 3d
       0.108104646 -0.11146356 0.27112705 0.049950734
0003c0 63 09 a6 3e 34 c8 2e be 13 d3 09 3c ab f1 ac bf
       0.32429036 -0.17068559 0.00841214 -1.3511251
0003d0 34 c4 a1 be c4 96 c8 be a4 b4 15 bf 6d 6e 3a 3e
       -0.31595004 -0.39177525 -0.5847876 0.18206187
0003e0 6e 91 8b be 09 55 78 3e 54 4d 91 3d bc 57 1f bd
       -0.27259392 0.24251188 0.07094827 -0.03890203
0003f0 c6 12 fd 3e da 5c 1c 3e a3 c6 96 3e 12 40 46 3e
       0.49428385 0.15269795 0.29448423 0.19360378

weight f4 [8]
000000 40 f6 8b 3f 9c 0f 99 3f cb 1f 63 3f 20 9b 75 3f
       1.0934525 1.1957889 0.8872039 0.95939827
000010 bc 7f 49 3f 15 34 9b 3f b7 58 20 3f 15 35 62 3f
       0.7871053 1.2125269 0.6263537 0.88362247

bias f4 [8]
000000 52 03 d3 3e 9f 79 b4 bc d8 b1 fe 3e d6 7b ee 3e
       0.4121347 -0.02203065 0.4974506 0.46578854
000010 68 8a bf 3e 45 0d e8 3e 39 2c a2 3f 67 ac c5 3e
       0.37410283 0.45322624 1.2669746 0.38608095

running_mean f4 [8]
000000 64 c7 ea bf 63 2c e6 bf ef cb 8a 3f b3 77 25 bf
       -1.8342099 -1.7982296 1.0843486 -0.6463577
000010 d2 4c c4 3d d9 25 89 bf 9a 86 8e bf 93 7a b3 bd
       0.09584965 -1.0714675 -1.1134827 -0.087636136

running_var f4 [8]
000000 2c a0 cb 41 43 2d c4 41 dd f5 24 41 9c e0 73 41
       25.453209 24.5221 10.310025 15.242336
000010 b9 2d e1 40 32 8c 8d 41 25 30 59 41 f7 24 a3 40
       7.0368314 17.693455 13.574254 5.0982623

weight f4 [32, 8, 1, 1]
000000 eb ee 82 3e 0e 62 a9 3d a1 e9 11 bf 52 eb 73 be
       0.25572905 0.082706556 -0.56997114 -0.23820236
000010 40 4e 04 bf 3e 06 e5 bd 02 60 7a be 13 f7 51 be
       -0.516819 -0.11182831 -0.24450687 -0.20504408
000020 83 db 87 3e ce 53 3c be c0 e5 25 bf f8 9e 60 3e
       0.26534662 -0.18391344 -0.64803696 0.21935642
000030 19 53 d1 3d 41 91 65 be 69 48 65 3e a7 d5 8f 3d
       0.10220928 -0.22418691 0.22390904 0.07023173
000040 a8 44 03 3d b8 25 11 3f c6 92 2b bf 74 f9 a9 be
       0.032047898 0.5669818 -0.67020833 -0.3319813
000050 46 0b bc 3e bb 57 67 be 8e 8e 67 3d c1 f8 a5 be
       0.3672735 -0.2259206 0.056532435 -0.32416347
000060 98 a6 99 3e e8 e1 cb 3e 16 8b 15 bf 24 ab fa bd
       0.30009913 0.3982079 -0.58415353 -0.12239674
000070 82 00 b7 3e aa b2 19 3e 1e b6 d1 be 2e 07 8d bd
       0.35742575 0.15009561 -0.40959257 -0.06886135
000080 c4 f2 1f 3f 2c 85 91 bd c1 ca e8 be 7f 2c 35 bd
       0.62479806 -0.07105479 -0.4546719 -0.044231888
000090 3b 9f a6 be ae 5d 28 3e 2c 31 81 3e 7e 2a c2 be
       -0.32543358 0.16441986 0.25232828 -0.37923044
0000a0 e9 e2 d9 3e 9d 5b f1 bd 8d f1 e5 bd ed 47 04 3f
       0.4255593 -0.11785052 -0.11227713 0.5167225
0000b0 85 e0 2c 3f 06 1a 07 bf 77 6e 6e 3e 60 f7 bd 3e
       0.6753009 -0.52774084 0.23284326 0.37102795
0000c0 13 1e c9 be 37 3e a2 3d fa ee 6f bc dc 50 28 be
       -0.39280757 0.07922023 -0.014644379 -0.16437095
0000d0 8c 4a 3e bf cf 94 d2 bd 25 3a 2d bf 1b 96 83 be
       -0.743325 -0.10282289 -0.67666847 -0.2570046
0000e0 7c 52 8f be 0d de 83 3f 98 e6 99 be 4f 54 82 3d
       -0.27992618 1.030214 -0.30058742 0.06363737
0000f0 e9 e0 78 be 30 f9 fe be fa a5 73 3f 17 15 e3 bd
       -0.24304546 -0.4979949 0.95175135 -0.11088007
000100 4e 49 72 3f 6d 31 a9 3f a9 35 1a 3e 41 59 c2 3e
       0.94643104 1.3218209 0.15059532 0.3795872
000110 7d 69 5d 3e 1c 8a 17 bf 7c 34 be 3e a8 a8 39 be
       0.21622272 -0.59195113 0.37149417 -0.18130744
000120 db d4 70 3f 61 08 cb 3e 61 70 8d 3d bd d2 11 bf
       0.9407479 0.3965483 0.069062 -0.56962186
000130 d5 d4 b7 3c 4c e1 1c bf b6 31 71 3f 03 1c f4 bd
       0.022440353 -0.61281276 0.9421648 -0.11919405
000140 64 87 0f 3d 44 5c 2b 3f 68 2d 6f 3e 1b 05 e9 3e
       0.035041228 0.6693766 0.23357165 0.45511708
000150 5f db 1b bf 1d 0d 1a 3d 00 e0 03 bf f8 0f 96 be
       -0.6088161 0.037610162 -0.5151367 -0.29309058
000160 76 55 67 be 6a e7 d9 3e bd 1f 2c 3e 5e 0a ac bf
       -0.22591195 0.42559367 0.16808982 -1.3440664
000170 65 73 2c 3d 5b b9 2f be bd 91 67 be 18 a9 19 be
       0.042102236 -0.17160551 -0.22614188 -0.1500591
000180 46 1c 03 3f 39 e4 e5 be 69 88 05 be fe f3 e9 be
       0.51215017 -0.44900683 -0.13040318 -0.45693964
000190 74 6f 2a bf 8e 8a d4 3d 06 83 ef be 82 c6 94 be
       -0.66576314 0.1037799 -0.4677965 -0.290577
0001a0 51 8e 60 be 0c 4f f2 be da 5c 8d be 3b cf 84 3f
       -0.2192929 -0.47325933 -0.27609903 1.0375742
0001b0 f9 5b 52 3e 6c 4b 25 be 6c af 9c bc af 26 0e 3e
       0.20542897 -0.16142052 -0.019126616 0.13881944
0001c0 86 4e 8a be 3f a2 fe be de cd 6b 3e e0 7f 7b bc
       -0.27013034 -0.4973316 0.23027751 -0.015350312
0001d0 56 cf 03 be 04 31 a6 3e b3 c1 8d bf ff 8f 03 be
       -0.12872061 0.3245927 -1.1074737 -0.12847899
0001e0 fe 23 0e 3f 33 7b 55 bf 86 f4 3e bd 1c 08 ca be
       0.5552367 -0.8339111 -0.046619914 -0.39459312
0001f0 8a f0 2c 3e da fb db 3e b8 d3 f3 be 64 a5 28 3f
       0.16888633 0.42965585 -0.47622466 0.65877366
000200 11 4a ab 3e 54 46 18 3f 94 b9 8d be 7f d0 b2 3e
       0.33454946 0.5948231 -0.27680647 0.34924695
000210 cb ea 21 3e 78 48 04 3f 4c c3 d9 be 3a f9 ae 3e
       0.15812223 0.5167308 -0.42531812 0.3417452
000220 62 83 e1 be 39 7a 1f be 3d f6 65 3e 39 5c 39 3f
       -0.4404555 -0.15573968 0.22457214 0.72406346
000230 02 dc 9f 3e 74 5d 24 3f 77 3a 98 be 03 1f aa 3e
       0.3122254 0.642051 -0.29732105 0.33226785
000240 a2 d1 89 3e 47 f6 09 be d7 6f 11 3f d6 08 8a 3e
       0.2691775 -0.13472854 0.5681128 0.26959866
000250 c2 7c 94 bc 70 1d 31 3f 34 bd 9a 3e d4 67 5c 3e
       -0.018125895 0.69185543 0.30222476 0.21523982
000260 d5 33 1a 3e 6c 7c 53 bf 43 a1 67 bc fc 91 98 3d
       0.15058835 -0.8261173 -0.014137569 0.07449719
000270 cf 58 17 3d d4 5c cf 3e 26 ca 0e bf 03 da 23 bf
       0.03694993 0.4050051 -0.55777204 -0.64004534
000280 df c2 31 bf c2 b4 9f 3e 36 7b 65 3e 0f 15 d2 bd
       -0.69437975 0.31192595 0.22410282 -0.10257923
000290 82 f0 30 3f 2b 01 82 3e 4b c9 88 3e 99 07 d5 3e
       0.69116986 0.25391516 0.26716074 0.4160736
0002a0 9e 98 39 3e 8d 62 29 3f dc 41 1d bf 59 da a3 bc
       0.18124625 0.66166 -0.6142862 -0.020001577
0002b0 71 f3 76 bc 12 34 62 be 1a b0 ed be 86 d9 53 3e
       -0.015072689 -0.22090176 -0.46423417 0.20688447
0002c0 ef 2c 43 3e 98 d1 ee 3e 61 87 5b be ec db a2 be
       0.1906011 0.46644282 -0.21438362 -0.31808412
0002d0 99 fb d3 3d 5c d2 12 bf ba ad 04 3f 32 ea f9 bd
       0.10350723 -0.5735223 0.51827586 -0.12202872
0002e0 e0 86 38 3f 12 8f 7f 3e cf bc 05 3f 78 00 a2 be
       0.720808 0.2495692 0.52241224 -0.31640983
0002f0 45 7e 9f 3e 3e 1f 5f bd e4 8c 93 3e 27 f3 b5 bd
       0.31151024 -0.054473154 0.2881843 -0.08884268
000300 64 92 79 be 5a 44 00 bf 10 df 12 3e 47 d1 a4 3e
       -0.2437225 -0.50104296 0.14342904 0.32190916
000310 3a 5b 0a be 23 6f d3 3e 7a f5 8c 3d 59 09 05 bf
       -0.13511363 0.41295728 0.068827584 -0.5196739
000320 33 70 45 3c 10 bd c1 be 86 31 ff bd 66 ad a9 be
       0.012050676 -0.37839556 -0.12460618 -0.33140105
000330 75 36 aa be 91 b6 e8 3e 42 ad e6 be 03 53 aa be
       -0.33244672 0.45451787 -0.4505406 -0.33266458
000340 0e e6 e1 be b6 94 c3 be 04 31 21 3f 3a 38 15 3e
       -0.4412083 -0.38199395 0.62965417 0.1457223
000350 cb 9d 0a bd f0 c5 94 3c 34 c5 d2 3e 77 ec 18 be
       -0.03384189 0.01816079 0.4116608 -0.14933954
000360 6c e5 9e be 13 08 d2 be dd 1d c1 bd 94 3d 2a be
       -0.3103441 -0.41021785 -0.09429524 -0.16625053
000370 53 0b 13 bd 36 d3 fa 3d 31 d6 96 3f c5 ce 48 be
       -0.03589947 0.122473165 1.1784116 -0.19610126
000380 38 ae 4b bf b5 ac da be 66 a7 5b 3e 17 a9 aa be
       -0.7956271 -0.4270989 0.21450576 -0.3333213
000390 fc 0a 90 bd 1b 00 c6 3d 0b 07 8e bf c5 50 6c be
       -0.07033345 0.09667989 -1.1095899 -0.23077686
0003a0 49 7e 71 bc 31 fe c8 3e a5 d6 99 3e 5d f7 01 3e
       -0.014739581 0.39256433 0.30046573 0.12692018
0003b0 10 a7 d0 be 56 c7 2d bf b4 56 83 3f 93 34 87 3e
       -0.4075246 -0.6788229 1.0260835 0.26407298
0003c0 db e6 84 be b9 21 98 3d 31 51 c6 be 27 c9 08 bf
       -0.2595738 0.07428307 -0.3873382 -0.53431934
0003d0 22 d4 b2 3e 75 db 5c be de 85 4f bd 3e 72 87 3e
       0.3492747 -0.21568091 -0.050664775 0.26454347
0003e0 1c 9d 4b 3f 44 39 5b 3e 50 22 e6 3e e6 db cb be
       0.79536605 0.21408564 0.44948053 -0.39816207
0003f0 a3 8d 38 3e 54 d4 05 3f 81 78 8f 3d d2 da 8b 3c
       0.1802278 0.5227711 0.07005406 0.017072115

weight f4 [32]
000000 eb a9 17 40 6d 7c 75 3f 62 c2 ea 3f 12 a5 b6 3f
       2.369746 0.95892984 1.8340571 1.4269125
000010 11 49 43 3f 8d 8c 8b 3f 5c dc 87 3f 32 3e b1 3f
       0.76283365 1.0902268 1.0614123 1.3847106
000020 04 6f 72 3f 23 66 f0 3f 40 9d 65 3f 48 8f 49 3f
       0.94700646 1.878117 0.8969307 0.78734255
000030 7b 3f 9b 3f 7d 57 63 3f 6d f8 2e 3f da 79 68 3f
       1.2128748 0.8880537 0.6834782 0.9081093
000040 24 7a 84 3f 98 06 9d 3f 4b 77 7e 3f 02 97 74 3f
       1.0349774 1.2267637 0.99400777 0.9554292
000050 5e 47 86 3f d1 8f bf 3f dd c9 9b 3f af 9d 8c 3f
       1.049053 1.4965764 1.2170979 1.0985621
000060 44 53 3d 3f d6 de b6 3f 89 30 3c 3f ed 40 16 3f
       0.7395518 1.4286754 0.7351156 0.5869282
000070 d1 b1 70 3f 10 ff 7e 3f f9 7b 9d 3f d4 d1 8b 3f
       0.94021326 0.99607944 1.2303458 1.092341

bias f4 [32]
000000 ff 90 11 3d 0a cd 08 3f cc 1c d8 3d e1 ff 7a 3e
       0.03553867 0.53437865 0.105523676 0.24511673
000010 2c 22 22 3f ee 0c 02 3d 39 36 43 bf e9 ce c2 3d
       0.6333339 0.031750612 -0.7625461 0.09512121
000020 a0 80 83 be b5 a7 98 be 49 3a ba 3e a2 5d f9 3e
       -0.2568407 -0.2981545 0.36372593 0.4870425
000030 88 c7 0c 3e 68 38 94 be 3a 96 b5 be e6 55 6f 3e
       0.1374799 -0.28949285 -0.35466176 0.23372611
000040 86 1f f2 3d 3d 7c 68 be 42 1e 52 3e 9a 5b b6 3e
       0.11822419 -0.22703643 0.20519355 0.3561676
000050 ac a8 f9 bd 24 c3 20 3d 23 71 b4 3e a9 f6 1a bf
       -0.12190375 0.0392486 0.35242566 -0.60532624
000060 e4 1e 1a bf 9c 62 18 bf 80 cf 02 be 25 a7 d0 be
       -0.60203385 -0.59525466 -0.12774467 -0.4075252
000070 6e 7e 02 bf e2 17 cf be 94 3e 22 3f 3f 60 de bd
       -0.50974166 -0.4044791 0.63376737 -0.10858201

running_mean f4 [32]
000000 25 40 82 bf 73 cf 1a 3e d2 74 ed be ab 72 ce be
       -1.0175825 0.15118198 -0.4637819 -0.4032186
000010 8e 10 66 3e 12 bb 6e 3f be d9 e3 bf ca 01 33 3f
       0.22467253 0.93254197 -1.7800825 0.69924605
000020 af b6 a5 3f cf e0 8f 3f fd e3 00 bf d5 b9 a0 bf
       1.2946376 1.1240481 -0.5034788 -1.2556711
000030 39 af 91 bf 27 a6 96 3e 23 b9 c3 bf 6c f9 4d bd
       -1.1381599 0.2942364 -1.5290874 -0.050286695
000040 1e 29 e3 3e 7a 2a 21 3f 9f 92 c9 3f 41 0f 51 bf
       0.44367307 0.6295544 1.574787 -0.816639
000050 97 f7 3c 3f 03 d1 37 bf c1 cd 47 3e a2 a9 80 3f
       0.7381529 -0.718033 0.19512083 1.0051768
000060 05 eb 76 3d a9 5c 74 bf ab 51 06 3f 9c 67 8a 3f
       0.060282726 -0.9545389 0.52468365 1.0812869
000070 c0 ce 0e c0 56 4d 94 3f 60 46 18 bf 5d f1 85 3f
       -2.231369 1.1586101 -0.59482384 1.0464283

running_var f4 [32]
000000 5e 8b d5 3e 4f a1 b1 3e 29 06 da 3e 77 80 72 3e
       0.4170789 0.3469338 0.42582825 0.23681818
000010 5f 39 0a 3f 20 09 1c 3e 63 d4 f8 3d a4 54 a4 3e
       0.5399379 0.15237856 0.121498846 0.32095826
000020 46 60 a6 3d 0e da 2f 3e 22 ee c5 3d 90 de 2e 3e
       0.081238315 0.17173025 0.09664561 0.17077088
000030 02 c0 44 3e eb 1e 10 3e f3 3a 61 3e 51 19 31 3e
       0.1921387 0.14074294 0.21995144 0.17294814
000040 56 b8 d9 3d db d5 8d 3e cb 38 4f 3e f6 b8 25 3e
       0.106308624 0.2770222 0.20236509 0.16183838
000050 de e6 8c 3e b2 83 67 3e c9 ad f8 3d b5 e8 17 3e
       0.27519888 0.22608832 0.12142522 0.14834864
000060 63 76 de 3d 2f a9 b4 3d 9f fc 84 3e e0 b1 60 3e
       0.10862424 0.08821332 0.25973985 0.21942854
000070 51 75 9b 3e 9e 63 17 3e 72 4d bc 3d 75 ec 01 3e
       0.30362943 0.14784095 0.09194459 0.12687857

weight f4 [32, 8, 1, 1]
000000 0c b9 5a 3e 35 50 2e bd ec dc ae bd be 17 9e 3f
       0.21359652 -0.04255696 -0.08538231 1.2350996
000010 02 9b 3b bf 18 8b ca 3e b0 4a 58 bf fa fb a1 bc
       -0.732834 0.39559245 -0.84488964 -0.019773472
000020 40 85 9d 3d 4d 90 66 be 5f 83 91 3d 00 04 e7 bd
       0.07691431 -0.22515984 0.07105135 -0.1128006
000030 6c 37 33 3f 78 57 2e be 0e 5a 9f 3e 43 f7 92 be
       0.7000644 -0.17025554 0.31123394 -0.2870427
000040 ad fa 6b bd d7 fd 42 3f 9d 1e 78 bd dc d0 51 bd
       -0.05761211 0.7616858 -0.06057607 -0.051224574
000050 66 48 96 be bc 9d a5 3d f4 8b da 3d 19 59 cb 3e
       -0.2935211 0.08086726 0.10671225 0.39716414
000060 0f e2 f9 3e 90 14 4b 3d b3 d5 6c 3e da 31 23 3e
       0.48805282 0.049580157 0.23128395 0.15936986
000070 6a 8f ab 3d 4c 2f 5a 3e 80 50 26 3f 7d 1f 0f 3f
       0.083769634 0.21307105 0.64966583 0.5590742
000080 04 fb 47 3f f3 e1 4c 3e 93 dd dc be 2f 2f 38 3d
       0.78117394 0.20008068 -0.43137798 0.044966873
000090 19 6f ab be 06 6d a3 3e 7d 1c 08 3f f4 f2 08 3f
       -0.33483198 0.31919116 0.5316847 0.5349572
0000a0 b5 99 58 bf 1e 2a 06 bf 6f e0 87 3e 34 44 c1 3d
       -0.8460954 -0.52408016 0.26538417 0.09436837
0000b0 3c 93 03 bf 10 2e 96 bd 9e ff ca be 5b 48 13 bf
       -0.51396537 -0.073330045 -0.39648145 -0.5753228
0000c0 1e bd ad bd 30 58 24 3f 3c 14 15 3e 8f 0b 3a 3d
       -0.08483337 0.64197063 0.145585 0.04542118
0000d0 43 5d cf be 60 00 9f be ba b8 b1 3e e3 1d b5 be
       -0.4050084 -0.31054974 0.34711248 -0.35374364
0000e0 db f3 3d 3f c1 9b 49 bf 22 c3 0f bf af 48 83 bd
       0.7420022 -0.78753287 -0.56157124 -0.06410348
0000f0 bf a1 8c be d4 81 20 3e 29 d2 a2 3e 5b 8e e2 3c
       -0.27467152 0.15674525 0.31800964 0.027655771
000100 29 62 77 bf dc 80 34 be f3 a2 0e 3f d0 f4 13 3f
       -0.96634156 -0.17627281 0.5571739 0.5779543
000110 6f 74 b5 3c ef ba b1 be 07 e3 f4 3e 3d 09 01 be
       0.022150246 -0.34712932 0.47829458 -0.1260118
000120 f4 3b e7 3e ac 06 b0 bb 28 52 90 3e 30 70 12 3f
       0.45162928 -0.005371889 0.2818768 0.57202435
000130 83 6f 8a be 1c 85 8d bb bb 85 9e 3f 0a 39 00 3e
       -0.27038202 -0.0043188464 1.2384561 0.12521759
000140 77 9a f7 be e0 03 04 bf d5 00 cf be f1 14 14 3e
       -0.48360035 -0.5156841 -0.40430322 0.14461114
000150 8c f6 93 3e 0d 7b e3 3b a3 17 e3 3c 17 60 a2 bf
       0.28899038 0.006942159 0.027721232 -1.2685574
000160 f7 f2 05 3e cb f0 b0 3d 9d 5b 8b 3e c8 86 80 3e
       0.13080965 0.086396776 0.27218333 0.2510283
000170 8e 0a 2d bd 60 3f 0c bf 46 dc 60 bf 32 e0 38 bf
       -0.042246394 -0.547842 -0.8783611 -0.72217095
000180 92 2a b9 be 0f 73 c5 3e 90 d4 8c 3e 29 dd 6a bf
       -0.3616529 0.38564345 0.27505922 -0.91743714
000190 e0 f7 c8 bd 38 df ff be 9b e0 2a bf fc 8e 66 be
       -0.098129034 -0.4997499 -0.6674897 -0.22515482
0001a0 40 cb 7f 3e b2 11 b7 ba 1e f5 09 bd 8a b4 11 3f
       0.24979877 -0.0013967066 -0.033681028 0.56916106
0001b0 b7 46 d1 3d 9e 67 22 bf a8 ff 8f bf a4 30 94 be
       0.10218566 -0.6343936 -1.1249895 -0.2894336
0001c0 25 eb 86 3f bb 19 31 3d 67 78 85 3e 87 14 5d 3e
       1.054051 0.04323743 0.26068422 0.21589862
0001d0 f5 da a7 bd 52 fd 25 3f b8 11 fa be 07 3d 6d be
       -0.081960596 0.6483966 -0.48841643 -0.23167811
0001e0 b7 ce b9 be 84 6d 68 bf 3a a8 71 be b9 9c 32 bf
       -0.36290523 -0.9079211 -0.2359933 -0.6977039
0001f0 06 93 98 3d b9 7c 94 be 98 99 73 bf e2 70 fa bd
       0.074499175 -0.29001406 -0.9515624 -0.12228562
000200 29 0b bb 3d a5 57 81 be 40 e7 9a bf dd 6f 6f 3e
       0.09132988 -0.2526218 -1.2101822 0.23382516
000210 ad f6 e1 be 36 53 37 3e 38 61 9d be 5c 45 32 3e
       -0.4413351 0.17902836 -0.30738235 0.17409271
000220 c2 1c bc 3d fa 81 51 bb 0b 09 11 be 0c 49 2a bf
       0.091851726 -0.0031968341 -0.14163606 -0.6651771
000230 ce 71 91 be 6a 04 b9 be 2c 9d 15 3f 6b 2b 0a be
       -0.2840714 -0.3613618 0.5844295 -0.13493125
000240 ba 05 00 3e 91 6e f0 3d 9e 33 58 be 78 9f 3d be
       0.12502185 0.11739839 -0.2111344 -0.18517864
000250 e8 6a 2a bf c4 6a ae be b7 e2 eb 3e aa 82 54 be
       -0.66569376 -0.3406583 0.46071407 -0.2075297
000260 2e 73 43 bf 68 4e a7 3e 41 7a c2 bd e7 b3 54 3e
       -0.76347625 0.32677007 -0.09495974 0.20771752
000270 0d 58 fe bc 0e 77 a2 bd 05 3c 43 3f b5 94 20 bf
       -0.031047845 -0.07932864 0.7626346 -0.6272691
000280 2b 74 88 be 19 79 2e bf 79 de 92 be ff 0a 8e 3e
       -0.2665113 -0.6815353 -0.28685358 0.27742764
000290 0f e1 8f 3e 7f 68 04 3e db b7 22 3b ca 7d 11 bf
       0.28101394 0.12930487 0.0024828825 -0.56832564
0002a0 b1 1a 1e 3f 81 21 db be cb 9f 1e 3d eb f5 31 3f
       0.6175948 -0.42799 0.03872661 0.69515866
0002b0 2a b9 31 bd 7d 47 9b 3e c0 2d d5 bb 97 c7 fa be
       -0.043389477 0.3032798 -0.006505698 -0.489804
0002c0 26 19 11 3f 1e f5 b3 3e 01 1e 02 3e 34 94 5e 3f
       0.56679 0.35147947 0.12706758 0.8694489
0002d0 2a 95 1d be 55 5d 19 3e f8 72 21 bf 61 ac 9f 3e
       -0.15388933 0.1497701 -0.63066053 0.31186202
0002e0 9a 78 6f 3e d6 f7 e9 be 3b bc d4 be 96 d5 8a bf
       0.2338585 -0.45696896 -0.41549858 -1.0846431
0002f0 3e dc 82 be 50 43 9d 3c ab 47 c3 be 91 65 42 bf
       -0.25558656 0.019197136 -0.38140616 -0.7593623
000300 da 8a 3f 3f 33 ca c2 be 19 02 0d 3e e3 91 58 3e
       0.74821246 -0.3804489 0.13770331 0.21149401
000310 63 5f 3d be 8f 04 69 3e a7 8f c0 3e 9a 89 03 3f
       -0.18493418 0.22755645 0.37609598 0.5138184
000320 53 0f 97 3e 56 98 12 bd 3c 51 5b bf 60 60 18 3f
       0.2950388 -0.03578981 -0.8567083 0.59522057
000330 ec 73 b8 3c cb f5 1d bf ac 06 98 3e 7d bd 44 3e
       0.022516213 -0.61703175 0.2969259 0.19212909
000340 18 c8 bd 3d 69 0d 7f bc db b7 9d 3e 8d f5 3d c0
       0.092666805 -0.015567162 0.30804333 -2.9681122
000350 69 1d 78 3b 43 cc 31 be ca 55 2e be db c7 8f 3e
       0.0037859327 -0.17363076 -0.17024913 0.28082165
000360 47 cb 3a 3f 67 ad 8f 3e f9 6b 61 3e 35 4d 9d be
       0.72966427 0.28061983 0.22013845 -0.30722967
000370 e4 c4 61 be d6 48 f2 3e 1e 90 43 3f 97 0a fd bd
       -0.22047764 0.47321194 0.7639178 -0.123555355
000380 31 2a 34 bf 7e d1 5c 3e d0 61 8b 3e ab 7b 91 3f
       -0.7037688 0.2156429 0.27223063 1.1365865
000390 5c 1b 65 bf 2a e6 e9 be f2 27 2d bd a7 9b 4a be
       -0.8949487 -0.45683414 -0.042274423 -0.19785939
0003a0 fd 88 b6 3e a2 25 c9 3e 54 2a 99 3e 7e e0 0e be
       0.3565139 0.39286524 0.29915106 -0.13952824
0003b0 66 bb ce 3d a2 b3 05 3f 9c 63 88 be 1d 64 8c be
       0.10094337 0.5222722 -0.26638496 -0.2742013
0003c0 97 48 97 3d 16 3c 15 be 88 15 39 be ef 93 80 bf
       0.07386892 -0.14573702 -0.1807462 -1.0045146
0003d0 96 9e a2 be dc 1d ca be e4 68 91 bd 23 6c cd be
       -0.31761616 -0.39475906 -0.071000844 -0.40121564
0003e0 c2 82 e9 3e 24 e8 de be 66 0c 55 3e 51 33 a1 3f
       0.45607573 -0.43536484 0.20805511 1.2593786
0003f0 d0 f2 69 bd 95 30 67 be 5a ca 3e 3e 77 66 36 be
       -0.05711633 -0.22577126 0.18631878 -0.17812525

weight f4 [32]
000000 7f cc 52 3f c3 8b 70 3f 54 d5 2d 3f 0a 80 0a 3f
       0.82343286 0.9396326 0.6790364 0.5410162
000010 38 54 86 3f 32 7d 92 3f 11 33 68 3f b1 f6 08 40
       1.0494452 1.1444457 0.9070292 2.1400568
000020 11 87 7d 3f 18 9c 84 3f 4f 27 c3 3f 57 d2 d6 3f
       0.9903422 1.0360136 1.5246371 1.6782941
000030 a4 43 36 3f 31 94 e1 3f 06 52 57 3f 80 d5 de 3f
       0.7119696 1.762335 0.8410953 1.7408905
000040 76 ec 85 3f bb e1 4a 3f 41 35 89 3f 1d 29 9c 3f
       1.0462787 0.7925069 1.0719377 1.2200047
000050 9b d6 74 3f f2 83 24 3f 61 2a 43 3f 30 8d 92 3f
       0.9563996 0.6426383 0.7623654 1.1449337
000060 bf 48 7f 3f 49 94 33 3f bc af 25 3f 9a 78 9f 3f
       0.99720377 0.7014814 0.64721274 1.245868
000070 ac 27 a2 3f 56 7b 4a 3f 1c 23 28 3f 99 5e ec 3e
       1.2668357 0.79094446 0.6567857 0.46165922

bias f4 [32]
000000 ff 90 11 3d 0a cd 08 3f cc 1c d8 3d e1 ff 7a 3e
       0.03553867 0.53437865 0.105523676 0.24511673
000010 2c 22 22 3f ee 0c 02 3d 39 36 43 bf e9 ce c2 3d
       0.6333339 0.031750612 -0.7625461 0.09512121
000020 a0 80 83 be b5 a7 98 be 49 3a ba 3e a2 5d f9 3e
       -0.2568407 -0.2981545 0.36372593 0.4870425
000030 88 c7 0c 3e 68 38 94 be 3a 96 b5 be e6 55 6f 3e
       0.1374799 -0.28949285 -0.35466176 0.23372611
000040 86 1f f2 3d 3d 7c 68 be 42 1e 52 3e 9a 5b b6 3e
       0.11822419 -0.22703643 0.20519355 0.3561676
000050 ac a8 f9 bd 24 c3 20 3d 23 71 b4 3e a9 f6 1a bf
       -0.12190375 0.0392486 0.35242566 -0.60532624
000060 e4 1e 1a bf 9c 62 18 bf 80 cf 02 be 25 a7 d0 be
       -0.60203385 -0.59525466 -0.12774467 -0.4075252
000070 6e 7e 02 bf e2 17 cf be 94 3e 22 3f 3f 60 de bd
       -0.50974166 -0.4044791 0.63376737 -0.10858201

running_mean f4 [32]
000000 ab 24 16 3e 20 ed e5 3d 86 60 a4 3e e1 f7 90 3f
       0.14662425 0.11226869 0.32104892 1.1325647
000010 85 fd 4a 3f 6d 5f 82 bf 18 96 8a 3c 31 f6 75 bc
       0.7929309 -1.0185372 0.016917273 -0.01501231
000020 f9 5d 3e 3e 77 22 a2 3f 45 31 81 bf 0e 43 34 bf
       0.18590535 1.2666768 -1.0093161 -0.7041482
000030 13 83 8a bf 61 23 05 bf 84 49 dd 3e 4e 9c bd bf
       -1.0821251 -0.5200711 0.4322015 -1.4813325
000040 3e 11 0a bf f3 ff a0 be b9 85 79 be 02 8f f9 bd
       -0.5393256 -0.31445274 -0.24367417 -0.1218548
000050 5a 79 e1 be e9 d1 a6 3e 22 21 2b 3f b3 ad b8 bf
       -0.44037896 0.32582024 0.6684743 -1.4428009
000060 ca 95 62 3f ce 36 29 3e 72 d4 b2 bf a0 f9 38 3f
       0.8850981 0.16524813 -1.3971083 0.722559
000070 51 9f a5 bc 64 c2 2b 3e 41 43 88 bf 7d b6 47 3f
       -0.02021757 0.16773373 -1.0645524 0.7801283

running_var f4 [32]
000000 c7 af 97 3f 79 b6 28 3f b3 98 b5 3f 0c 25 26 40
       1.1850518 0.6590343 1.4187225 2.5960112
000010 29 14 af 3f 84 ea 66 40 63 7c 31 3f ca ec bb 3f
       1.3678027 3.6080637 0.69330424 1.4681637
000020 7b 85 1d 3f da c0 60 3f 1c e7 ac 40 22 33 3b 40
       0.615318 0.8779427 5.4032116 2.924996
000030 ca 67 7b 3f 1e 1f 32 40 b3 78 19 3f af e6 71 40
       0.98205245 2.7831492 0.599498 3.7797048
000040 cb 6d 38 40 7f 9b 3e 3f 4f d6 f6 3f 1d c1 91 3f
       2.8817012 0.7445602 1.9284152 1.1387058
000050 62 d4 d8 3f 5f 8d 27 3f 3a cc 6f 3f ef 0d 88 40
       1.6939814 0.6545009 0.93671 4.251701
000060 b4 71 79 3f 57 ce e2 3f 46 7f 38 3f 2b b3 c3 3f
       0.9743912 1.771922 0.72069204 1.5289053
000070 71 e7 19 40 89 bc 84 3f 75 f6 23 40 47 69 17 3f
       2.404751 1.0370036 2.5619175 0.59145015

weight f4 [4, 32, 1, 1]
000000 30 b3 2b 3e ff d6 78 bd 5e 3e b3 3c 24 35 63 3e
       0.16767573 -0.06075191 0.021880325 0.2218824
000010 da 43 af be 10 79 2b bd 89 f2 25 3c 87 9f 77 bb
       -0.34231454 -0.0418635 0.010128626 -0.0037784295
000020 c0 35 00 be da e1 68 3e a4 98 00 bf 7b 0f 91 3c
       -0.12520504 0.22742406 -0.5023291 0.017707577
000030 05 cf 9f bc 2f 40 c1 3e c5 e7 96 3e 20 69 7f be
       -0.019507894 0.3774428 0.294737 -0.24942446
000040 1d 02 9a be 76 0e f8 3e 7a 92 2d 3e 34 d5 13 be
       -0.30079737 0.48448533 0.16950408 -0.144368
000050 78 e1 66 3e 63 1f 29 be fa 48 8f 3e 96 9b 47 3e
       0.22546947 -0.1651588 0.27985364 0.19492945
000060 f2 63 80 be 10 73 4d be 78 71 3f 3e 5d 4f 81 be
       -0.25076252 -0.20063424 0.18695629 -0.25255862
000070 cf 62 45 be b7 f8 07 3f 3e 08 f5 be d4 d3 40 be
       -0.19275974 0.53113884 -0.4785785 -0.18830806
000080 a6 31 56 bf ce 23 b3 3e 14 96 9e be ea 0f e1 bd
       -0.8366951 0.34988254 -0.30973876 -0.109893635
000090 ea d0 96 3e de 39 61 3e 34 e5 a7 3e 58 e1 59 3e
       0.29456264 0.21994731 0.32792056 0.21277368
0000a0 0e f3 e1 3c a9 24 ae 3e 1c 36 fe 3e b9 1a 8c 3e
       0.027581718 0.34012344 0.49650657 0.27364138
0000b0 e8 13 56 be 5f 59 da be 48 7c 70 3e e5 81 5c be
       -0.20906031 -0.4264631 0.2348491 -0.21533926
0000c0 07 2f 61 bb dd b6 85 bd f5 90 f3 be 50 32 8e 3d
       -0.0034360306 -0.06529019 -0.4757153 0.0694319
0000d0 5a d6 3a 3e 5d 36 95 be bd 4d 5f be 5b bd de bd
       0.18245831 -0.29143038 -0.21806999 -0.108759604
0000e0 c1 8a 81 3e 16 38 ee 3e bb 1a a8 bd f9 4c 87 3e
       0.25301173 0.46527165 -0.082082234 0.26425913
0000f0 16 44 32 3f 67 17 c8 3d 23 ce 1a be 8d 83 e9 bc
       0.6963514 0.09770089 -0.15117697 -0.028505111
000100 fd bf 24 3f d1 36 1a 3f 50 33 7a bd cf a0 97 3e
       0.6435545 0.60239893 -0.06108409 0.29614875
000110 c8 32 14 3d 98 35 0a be d0 5f df 3e f1 6a 7d bf
       0.03618124 -0.13497007 0.43627787 -0.98991305
000120 d1 16 9f bd c2 d9 65 3f fe c6 48 be a2 0d 2e be
       -0.07768024 0.897854 -0.1960716 -0.16997388
000130 c5 96 12 3d e2 74 26 3d 06 0e b2 3d 60 c8 ff be
       0.035788316 0.040638812 0.08694081 -0.49957561
000140 50 c0 2a 3e 7a 48 b5 3e e8 11 ca bd a0 dd 87 be
       0.16674924 0.35406858 -0.098666966 -0.26536274
000150 f7 d1 1c 3f cf 0e 19 bf 00 8d 50 be c6 3e 2c 3d
       0.6125788 -0.5978822 -0.20366287 0.042052053
000160 e5 98 2a be 85 48 c6 3e d9 79 18 bf 56 6e 96 be
       -0.16659887 0.38727203 -0.59560925 -0.29381055
000170 e0 ba 00 3b fe 2f 49 3e 22 3d b0 3c 32 54 e9 3e
       0.0019642636 0.19647214 0.021513525 0.45572048
000180 b4 50 72 bd de ba 4e be ad be df 3e 47 81 ee 3e
       -0.059158996 -0.20188472 0.43700162 0.46583006
000190 9a 6a f1 bb af 21 98 be d2 52 64 be 34 7d 8d bf
       -0.007367444 -0.297132 -0.22297218 -1.1053834
0001a0 4a fc e7 3d a8 d2 d7 3e a7 7d bd bd 61 ce ab 3e
       0.11327417 0.42152905 -0.09252482 0.33555892
0001b0 28 c5 ab be d1 b0 ce bd ea 0a 0b 3e 29 19 05 3f
       -0.33548856 -0.10092319 0.13578382 0.51991516
0001c0 23 58 b3 3b 00 6e 5d be 16 10 52 bd 15 74 5d 3e
       0.005473153 -0.21623993 -0.051284872 0.21626313
0001d0 3d 51 96 bc 46 0c 66 3e 99 12 04 3e 04 d1 be 3e
       -0.018349284 0.2246562 0.1289772 0.3726884
0001e0 47 7b 36 be b0 8c 21 bf 76 2b 10 be 4d 84 b0 3e
       -0.17820464 -0.631053 -0.14079079 0.34475937
0001f0 34 40 4e 3d b6 89 44 bd 7e 9d ae 3e 4b 3e 83 3e
       0.050354198 -0.047982894 0.34104532 0.25633463

weight f4 [4]
000000 95 ea 8b 3f 0d 0b 8b 3f 2b 35 4c 3f 9a 9a 7e 3f
       1.0930964 1.0862747 0.7976863 0.99454653

bias f4 [4]
000000 78 e9 16 be c2 b2 f4 3e dc 01 20 bc c4 81 ac 3b
       -0.14737499 0.4779263 -0.009766068 0.0052644927

running_mean f4 [4]
000000 53 ec b7 bf 55 3f 96 3e 99 12 2e bf 4d 6d 32 3f
       -1.4368995 0.29345194 -0.6799713 0.6969803

running_var f4 [4]
000000 3d 4e 79 3f 85 15 5f 3f 11 6a 82 3f 0b 3f 7a 3f
       0.9738501 0.8714221 1.0188619 0.97752446

weight f4 [4, 4, 3, 3]
000000 ef 66 63 3e a8 41 7e 3e 0f e7 09 3f d5 e6 d8 3d
       0.22207235 0.24829733 0.5386819 0.10590903
000010 a4 b7 5b 3e 4f 65 8d 3e 17 75 bf bd 91 3a 2c 3b
       0.21456772 0.27616355 -0.09348505 0.0026280025
000020 e5 05 cf 3c a8 45 83 be 9d ea c1 be 90 07 97 be
       0.025271365 -0.2563908 -0.37874308 -0.29497957
000030 98 bc d6 be f8 71 c0 bd 4b b9 e4 be 54 93 d4 bc
       -0.4194076 -0.09396738 -0.44672617 -0.025949158
000040 16 50 ae be 1e 52 97 be 23 95 9f 3e ec 6d e3 3e
       -0.34045476 -0.29554838 0.3116847 0.444198
000050 a7 f2 09 3e 0b 3a 83 3f 7d 5f d6 bd 34 2d 0a 3f
       0.13471471 1.0252088 -0.10467432 0.53975224
000060 4b 51 36 3f 53 04 86 3f e7 e8 76 3e e4 f1 de bd
       0.71217793 1.047007 0.24112283 -0.10885981
000070 5f ae fe 3c 39 d2 25 3e 4d f4 70 3d 76 c9 28 3c
       0.031089006 0.16193475 0.058826733 0.010301938
000080 06 53 00 bc 41 1d 47 bd ac 64 7c 3e 81 b7 04 bc
       -0.007832294 -0.048611883 0.24647778 -0.008100391
000090 66 e3 45 3d 1f ce 27 3e eb 7b 0b 3e 5f 5b c2 b9
       0.048312567 0.16387223 0.1362149 -0.0003707064
0000a0 23 a2 85 3e e7 36 2c bd d1 2a 98 be a1 84 88 be
       0.26100263 -0.042044546 -0.29720166 -0.26663688
0000b0 9f c6 55 be c4 75 ae be 26 63 91 be 1d 01 91 be
       -0.20876549 -0.34074223 -0.28395957 -0.28321162
0000c0 d5 ac 8e be 45 3c 5a be 00 e6 74 be fd 3f f9 bd
       -0.27866235 -0.21312054 -0.23915863 -0.12170408
0000d0 05 3c d6 be c6 ed dd be 7b ec 5a be ec 61 95 be
       -0.41842666 -0.4334547 -0.21379273 -0.2917627
0000e0 4c e2 72 3c d3 8e 89 bd b8 7f 1b be c0 62 47 be
       0.014824461 -0.06716695 -0.1518544 -0.19471264
0000f0 67 bb ed bd a9 96 11 be 93 c6 f3 3d a3 48 5a 3e
       -0.1160801 -0.14217629 0.119031094 0.21316771
000100 c6 cf d3 3e ef c0 a6 3e 61 20 d4 3e b1 33 79 3e
       0.41369456 0.32569072 0.41430953 0.24336125
000110 f5 96 0d 3f bf a5 a5 3e 02 8f 0a 3f 42 40 9a 3e
       0.5530847 0.32353017 0.5412446 0.3012715
000120 59 ad 34 bf 46 a2 32 bf f3 a0 02 bf b1 e7 77 bf
       -0.7057701 -0.6977886 -0.5102684 -0.9683791
000130 40 b8 86 bc 13 34 be be 7e a1 cd be e5 ed 79 3e
       -0.01644528 -0.37149104 -0.4016227 0.24407156
000140 f9 07 81 3e 8e 70 2b bd 80 1c e2 be 7b 80 0e bf
       0.25201395 -0.041855387 -0.4416237 -0.55664796
000150 04 12 99 be b9 73 45 be 2e 41 e2 be 56 26 10 be
       -0.29896557 -0.19282426 -0.44190353 -0.14077124
000160 e7 17 f3 bc 2a 4e 98 be 51 87 0e 3f 86 b8 3a be
       -0.029674483 -0.29747134 0.55675226 -0.18234453
000170 91 34 08 3e 19 c7 32 3e 52 2f 1b be e2 ba fd 3d
       0.13301302 0.17458762 -0.1515477 0.12389161
000180 a4 a1 2c be 01 5d dd be 04 7e 38 3f 33 ef d6 3c
       -0.16858536 -0.4323502 0.72067285 0.026237106
000190 69 54 d1 be 9d 0c 48 bf 76 7a 0f 3e 4a e2 84 3d
       -0.40884712 -0.78144246 0.14011559 0.06488474
0001a0 3b 04 7b be b0 7f 4d bd 56 58 83 be d9 c7 a8 3e
       -0.24513333 -0.0501706 -0.25653332 0.32964972
0001b0 a0 9c d6 be be df 0a bf bc 49 e7 bd 27 08 27 bf
       -0.4191637 -0.54247653 -0.112933606 -0.65246814
0001c0 7d 50 9f be d3 d4 8a be 48 0f 93 be ad 25 94 be
       -0.31116095 -0.27115497 -0.28722596 -0.28934994
0001d0 de 82 8a bd d5 85 59 bc 26 b7 60 3e 2e a3 66 3e
       -0.06763242 -0.013276537 0.21944866 0.22523186
0001e0 4b 4d 25 3e 30 3c 6b 3e ce 35 09 3f 25 60 e1 3e
       0.16142766 0.22972178 0.53597724 0.44018665
0001f0 e6 38 d4 3e 42 4c cc 3e b1 a0 6e 3e c7 e2 63 3e
       0.4144966 0.3990193 0.23303486 0.22254477
000200 78 86 0b bd 6b a5 02 3f f4 3d d7 bb 92 5c 95 3d
       -0.034063786 0.5103366 -0.0065686647 0.07293047
000210 d5 c2 5c 3e 73 25 2e 3e e5 55 78 bc 7c 24 f1 bd
       0.21558698 0.17006473 -0.015157198 -0.11774537
000220 99 ac cb bc fe 54 d0 3d a2 9d af bd fc 03 9d be
       -0.024862574 0.10172461 -0.08574988 -0.30667102
000230 36 d8 8d 3d 5e 50 08 3c c7 11 4c 3d f7 10 c3 bd
       0.069260046 0.008319942 0.04982164 -0.0952472

weight f4 [4]
000000 c1 d5 37 3f fb 64 46 3f d5 c4 30 3f d2 4a 61 3f
       0.7181054 0.77497834 0.6905034 0.8800479

bias f4 [4]
000000 b5 66 00 bc 4f bf 85 3f 0c c4 83 3f 99 f6 84 3e
       -0.007836987 1.0449008 1.0294204 0.2596939

running_mean f4 [4]
000000 d3 26 94 be ed 4d 69 bf 44 17 fb bf 04 39 4f 3f
       -0.2893587 -0.9113453 -1.9616475 0.80946374

running_var f4 [4]
000000 19 bb c0 40 87 ff 8f 40 cb 2c be 41 7a 0f 29 40
       6.022839 4.4999423 23.771872 2.6415696

weight f4 [16, 4, 1, 1]
000000 6a 4c a5 be 7d 4e c8 be ef 78 ab bf 76 73 c7 be
       -0.32284862 -0.39122382 -1.3396281 -0.38955277
000010 6f c6 6d bd 77 2d 3c 3f 0b 7c 94 3e b3 5c cd 3e
       -0.05805057 0.73506874 0.29000887 0.40109786
000020 6b 1b f7 3e 25 d3 27 bf 4e b1 eb 3e 8c 0a 85 be
       0.48263106 -0.65556556 0.4603371 -0.2598461
000030 1f 38 82 3d 5b 51 04 bf 2a b7 da 3e 4b ae fe 3e
       0.063583605 -0.5168664 0.42717868 0.4974235
000040 82 dc a7 3e 4e a3 b2 be 0e 4e 1e 3e 76 d6 3f 3f
       0.32785422 -0.34890217 0.15459463 0.74936616
000050 b2 a0 b3 3d 5f 38 72 3f 81 55 05 bb 5e 37 4d 3e
       0.087708846 0.94617265 -0.0020345154 0.20040652
000060 dd ae 26 3f cf c0 19 3d b9 55 f3 3e 55 91 30 3d
       0.6511057 0.037537392 0.4752634 0.04310735
000070 f4 fc 4f be b4 e9 96 3f fd 3c 62 3e 79 0f 97 3e
       -0.20311338 1.179007 0.22093578 0.29503992
000080 13 cb 06 3f c5 0a d8 be 03 b1 bd 3e 3a ff 80 bc
       0.52653617 -0.42195717 0.37049112 -0.015746702
000090 a4 29 b2 3e b7 8c 69 bd 62 fc e7 3e 90 c8 2f 3f
       0.34797394 -0.05701896 0.4530974 0.6866541
0000a0 15 77 d8 3c 08 f7 01 bf 61 96 2c bf 44 2d c2 be
       0.02642397 -0.50767565 -0.6741696 -0.3792516
0000b0 90 18 b4 bd 31 74 9f be 38 18 a7 bf 24 9e 3b bd
       -0.087937474 -0.31143335 -1.3054266 -0.04580511
0000c0 85 63 07 3f 63 a4 30 be 96 2f b4 3e 48 ff ac 3d
       0.5288623 -0.17250209 0.35192555 0.084471285
0000d0 b7 c1 7c be 54 9a a7 3e a6 f4 57 bf 3b a8 26 be
       -0.24683271 0.3273493 -0.8435768 -0.16275112
0000e0 db 09 a4 be db 69 90 3e 88 94 c0 be 0a 5d 9a 3e
       -0.3203877 0.2820576 -0.3761332 0.30149108
0000f0 a7 e3 24 3f b0 7c 2e 3f 06 6c 14 3e c9 d7 95 3c
       0.6440987 0.6815901 0.14494333 0.018291371

weight f4 [16]
000000 c8 3c b3 40 1c 99 8c 40 b9 40 78 40 43 d5 93 40
       5.6011696 4.39369 3.8789504 4.619783
000010 87 f2 8c 40 fb 59 af 40 7b f8 8c 40 47 3b 90 40
       4.4046054 5.479734 4.405332 4.507236
000020 e9 81 8d 40 ee 40 94 40 8c 19 9d 40 cf 5c 94 40
       4.422108 4.632926 4.9093685 4.636329
000030 46 13 89 40 22 9f a0 40 29 9d a7 40 df 68 ba 40
       4.2836027 5.0194254 5.2379346 5.8253016

bias f4 [16]
000000 13 2c 62 3f 27 aa 32 3e 9d ec 4c 3f 81 e9 5a 3f
       0.883485 0.1744772 0.80048543 0.8551255
000010 18 9d 2f 3f 73 11 10 3f 5d 3d b5 3e 9e 8d 29 3e
       0.6859908 0.56276625 0.3539838 0.16557929
000020 0b 67 f3 3e 41 c1 10 3f 24 52 36 3f e7 ae 46 3f
       0.47539553 0.5654488 0.71219087 0.7761063
000030 b8 18 64 3f 4f 23 e9 3e b8 d0 51 3e 5a 10 88 3e
       0.8910022 0.4553475 0.20489776 0.26574975

running_mean f4 [16]
000000 51 4d 06 c0 75 63 a1 3f 6e 47 77 be 90 1d 9f 3d
       -2.098469 1.2608477 -0.24148342 0.077693105
000010 42 cf b0 3d c3 14 90 3f 2d 39 2b 3f 1a ad d0 3f
       0.08633281 1.1256336 0.6688412 1.6302826
000020 4b ed 2f 3c b9 8c 38 3f 77 ad b7 bf 22 0a ea bf
       0.010737727 0.72089726 -1.4349812 -1.8284342
000030 ef 97 99 3e 78 97 29 bf f6 09 57 bd e6 49 82 3f
       0.2999873 -0.6624675 -0.052499734 1.0178802
