HW2/aML/R6_btnk_4ch8n4.pt (torch, 70636 bytes, 47 tensors)

weight f4 [4, 3, 7, 7]
0	0x3f05f317	0.5232405
1	0x3e1c2834	0.15249711
2	0x3db1bd89	0.08678729
3	0x3d1f77e2	0.03893269
4	0x3c4b54c2	0.012410345
5	0xbdb5bbd5	-0.08873717
6	0x3e17c43c	0.14820951
7	0x3e1287a3	0.14309554
8	0x3d8ad385	0.067786254
9	0x3e1d423f	0.15357302
10	0x3df7b444	0.1209493
11	0x3da18bf3	0.07888021
12	0xbdecbd79	-0.115595765
13	0x3eaedc6e	0.3415255
14	0xbd91232d	-0.070867874
15	0x3e13cd42	0.14433768
16	0x3e102c77	0.14079462
17	0x3eb66632	0.35624844
18	0x3edbaf4e	0.42907184
19	0x3e989378	0.2980001
20	0x3e4fe7e3	0.20303302
21	0xbd23794f	-0.03991061
22	0x3ea17f33	0.31542358
23	0x3e06180d	0.13095112
24	0x3df81336	0.12113039
25	0x3e2d179f	0.16903542
26	0x3eab9efe	0.3351974
27	0x3de0b7dd	0.10972569
28	0xbe46753a	-0.19380656
29	0x3e05030d	0.12989445
30	0x3d2a93dc	0.041644916
31	0x3d61ae53	0.05509789
32	0x3e4848ae	0.19558975
33	0xbbad54ee	-0.0052896654
34	0xbdc6ba0a	-0.09703453
35	0xbea6ea58	-0.32600665
36	0xbd36365d	-0.04448544
37	0xbdc9d31c	-0.09854719
38	0xbe860f96	-0.26183766
39	0xbef9d3e7	-0.4879448
40	0xbed6a855	-0.41925302
41	0xbe1a1709	-0.1504785
42	0xbe7def70	-0.2479837
43	0xbed51da6	-0.41624182
44	0xbedd4713	-0.43218288
45	0xbea35da9	-0.31907395
46	0xbd80c0a6	-0.06286745
47	0x3d11caa2	0.035593636
48	0x3d2ece1d	0.042677034
49	0x3f037cda	0.51362383
50	0x3df74146	0.12072997
51	0x3e49309e	0.19647452
52	0x3db39c9c	0.08770105
53	0xbd8b011f	-0.06787323
54	0xbd8e60e2	-0.06952073
55	0x3d87449c	0.06604883
56	0x3e2d6eb1	0.16936757
57	0xbce3c7c6	-0.02780522
58	0x3e27bed4	0.16381389
59	0x3d554aaa	0.05207316
60	0x3e0d2a93	0.13785772
61	0xbdbbf54b	-0.09177645
62	0x3ec1dc0e	0.378632
63	0xbc64d5ef	-0.013967021
64	0x3e6ad58f	0.22933029
65	0x3e2ab13b	0.1666917
66	0x3e954d12	0.29160362
67	0x3ee972a0	0.45595264
68	0x3e588fa0	0.21148539
69	0x3eacada9	0.33726242
70	0x3da0125c	0.07816002
71	0x3e2797bc	0.16366476
72	0x3e35f27e	0.17768285
73	0x3e2151f6	0.15753922
74	0x3e27e868	0.1639725
75	0x3e801c9e	0.25021833
76	0x3db45466	0.0880516
77	0xbe083b48	-0.13303864
78	0x3da236f4	0.07920638
79	0xbafe2c1d	-0.0019391809
80	0x3d80ceda	0.06289454
81	0x3e5d2db6	0.21599469
82	0xbddef4d6	-0.108865425
83	0xbe6db0ff	-0.2321205
84	0xbec2b4d1	-0.38028577
85	0xbcd9816e	-0.026550975
86	0xbe2f90de	-0.17145106
87	0xbe4c6ea6	-0.19964084
88	0xbeff1e32	-0.49827725
89	0xbefa8d40	-0.4893589
90	0xbe51affd	-0.2047729
91	0xbe28a850	-0.16470456
92	0xbecec0d4	-0.4038149
93	0xbef00008	-0.46875024
94	0xbe3239fd	-0.17404933
95	0xbe0dafa0	-0.13836527
96	0x3d1ca80e	0.038246207
97	0x3c0961b4	0.008385111
98	0x3f0f08ed	0.55872995
99	0x3e5613ec	0.20906037
100	0x3dbd3c16	0.09239976
101	0x3da0d963	0.07853963
102	0xbdd73105	-0.105073966
103	0x3d0715d0	0.032979786
104	0x3cdd7f80	0.027038336
105	0x3e07aba2	0.13249066
106	0x3c4e135f	0.012577861
107	0x3e459398	0.19294584
108	0x3db001a8	0.08594066
109	0x3e26e61f	0.16298722
110	0xbd97aad6	-0.07405631
111	0x3e8b4c43	0.2720662
112	0xbd5a1b0c	-0.05324845
113	0x3e4e8f0c	0.20171756
114	0x3e390c4b	0.18071096
115	0x3eb220a6	0.34790534
116	0x3eed6ff3	0.46374473
117	0x3eae50ed	0.34046116
118	0x3eb69446	0.3566
119	0xbbe0da09	-0.0068619293
120	0x3e81561e	0.25261015
121	0x3e127626	0.14302883
122	0x3e4420b0	0.19153094
123	0x3e2314c6	0.15925893
124	0x3eaa5229	0.33265808
125	0x3e2dbf8e	0.16967604
126	0xbe6768ab	-0.22598521
127	0x3cb5570c	0.022136234
128	0x3d8aae7b	0.06771561
129	0x3e00535a	0.12531796
130	0x3e4095bb	0.18807118
131	0xbcc95e42	-0.024581078
132	0xbe1dfd71	-0.15428711
133	0xbee07a2b	-0.43843207
134	0xbbd55b28	-0.006511111
135	0xbd80e168	-0.06292993
136	0xbe9e69de	-0.30940145
137	0xbf0ca757	-0.5494284
138	0xbefb9d5e	-0.491435
139	0xbe5209a5	-0.20511492
140	0xbe294369	-0.16529621
141	0xbeac61f3	-0.3366848
142	0xbefa814b	-0.48926768
143	0xbea33d8b	-0.3188289
144	0xbdfbda86	-0.122975394
145	0x3ce5ac74	0.028036334
146	0x3cc2178f	0.023692874
147	0xbe2475e1	-0.16060592
148	0x3e21061f	0.15724991
149	0x3dea774e	0.11448537
150	0xbe0682a0	-0.13135767
151	0xbd79c356	-0.060977302
152	0x3cc33f72	0.023833964
153	0xbebc428a	-0.36769515
154	0x3d8517b0	0.06498659
155	0x3ddebb82	0.10875608
156	0x3e8a07eb	0.26959166
157	0xbd8d2f9b	-0.06893846
158	0xbe8be3b7	-0.2732217
159	0xbeff0fe3	-0.49816808
160	0xbe1d684a	-0.15371814
161	0x3e607936	0.21921238
162	0x3dfaa21d	0.12237952
163	0x3e58fce2	0.21190217
164	0x3e2cb957	0.16867577
165	0x3e8f9333	0.28041992
166	0xbf7f0fd9	-0.99633557
167	0xbe13138a	-0.14362922
168	0x3c830b68	0.01599665
169	0x3eb41fda	0.3518055
170	0x3e39a73c	0.18130201
171	0x3e32a710	0.17446542
172	0xbe66978f	-0.22518753
173	0xbfb4af8b	-1.4116071
174	0x3e1ac1b9	0.15112962
175	0xbe8e2603	-0.27763376
176	0x3e9268ec	0.28595674
177	0x3e00343b	0.12519924
178	0x3cca7d59	0.024717974
179	0xbf620727	-0.88292164
180	0xbefbf1ef	-0.49208018
181	0x3dd42592	0.103587285
182	0xbf2dfa16	-0.67959726
183	0xbd5e2b02	-0.054240234
184	0xbe1f15f8	-0.15535724
185	0xbf26623c	-0.64993644
186	0xbf98d13d	-1.1938854
187	0xbd917ab1	-0.0710348
188	0x3e0cfdf1	0.13768746
189	0xbef5e8ca	-0.48029166
190	0xbf4d7fbe	-0.80273044
191	0xbf94f6ca	-1.1637814
192	0xbf2cab4e	-0.6744889
193	0xbda154a4	-0.07877472
194	0x3e8dc93b	0.2769259
195	0x3e70b143	0.2350512
196	0xbdf6d322	-0.12051989
197	0x3c6321d4	0.013863046
198	0x3d1081be	0.03527998
199	0xbded1529	-0.115763016
200	0x3d6749d0	0.056466877
201	0x3a6c1144	0.00090052583
202	0xbecbd1cc	-0.398085
203	0x3d8f8a94	0.070088536
204	0x3e1140f6	0.14184937
205	0x3e6dfc5f	0.23240803
206	0xbdcac420	-0.09900689
207	0xbe7b1b9b	-0.2452225
208	0xbf1a0d0a	-0.60176146
209	0xbe59e2a6	-0.21277866
210	0x3eadba5c	0.33931243
211	0x3dfbad81	0.122889526
212	0x3e876819	0.26446608
213	0x3e2ff0b5	0.17181666
214	0x3e574929	0.21024002
215	0xbf8a2a3f	-1.0794142
216	0xbe42c8bd	-0.19021888
217	0x3daddf20	0.08489823
218	0x3ea5565c	0.3229245
219	0x3e80144d	0.25015488
220	0x3e514625	0.20436914
221	0xbea6cb53	-0.32577
222	0xbfbb437e	-1.4629972
223	0x3d20d952	0.039269753
224	0xbe80943a	-0.25113088
225	0x3ea596d8	0.32341647
226	0x3da16f22	0.07882525
227	0xbd15f5bf	-0.036611315
228	0xbf61522d	-0.88016015
229	0xbefed497	-0.49771568
230	0x3e81686b	0.25274977
231	0xbf2f0f7d	-0.6838301
232	0x3db803e3	0.08985116
233	0xbe297f5c	-0.1655249
234	0xbf1ae465	-0.6050475
235	0xbfa514f7	-1.2897023
236	0xbe189d26	-0.14903697
237	0x3d9276fa	0.07151599
238	0xbef54e78	-0.4791143
239	0xbf45ef78	-0.77318525
240	0xbf897c65	-1.0741087
241	0xbf4245be	-0.7588767
242	0xbddb9e52	-0.107235566
243	0x3e7bf928	0.24606764
244	0x3e0efbbc	0.13963217
245	0xbe179ca6	-0.1480585
246	0x3cbc7870	0.023006648
247	0x3d93a18f	0.07208549
248	0xbe348622	-0.17629293
249	0xbd1f090c	-0.038826987
250	0xbd85faef	-0.065420024
251	0xbe9ad8c6	-0.3024351
252	0x3dfc2296	0.12311284
253	0x3e45cbb8	0.19315994
254	0x3e82ae2e	0.25523514
255	0xbe5dddce	-0.21666643

weight f4 [4]
0	0x3f7f20c8	0.99659395
1	0x3fc6373e	1.5485609
2	0x3f8a63b9	1.0811683
3	0x3f436288	0.7632222

bias f4 [4]
0	0x3dd91324	0.10599354
1	0x3f67281b	0.9029557
2	0x3e519300	0.20466232
3	0x3de1b87f	0.11021518

running_mean f4 [4]
0	0x414be4e8	12.743385
1	0xc2d0acd9	-104.33759
2	0x42e866ba	116.20064
3	0x415be61d	13.74368

running_var f4 [4]
0	0x4737f751	47095.316
1	0x48ddec0c	454496.38
2	0x48e2d1ea	464527.3
3	0x46591a17	13894.522

weight f4 [8, 4, 1, 1]
0	0xbd4d6472	-0.05014462
1	0xbf8a45dc	-1.0802569
2	0x3f0d2238	0.5513034
3	0xbdf5f38a	-0.12009342
4	0x3ee63781	0.4496422
5	0x3e023c74	0.12718374
6	0xbf0ace0c	-0.5422065
7	0x3e2cae73	0.16863422
8	0xbeac3bf4	-0.3363949
9	0x3ee3b96e	0.4447741
10	0x3ec63a93	0.38716564
11	0xbf151f10	-0.5825052
12	0xbe84dc1a	-0.25949174
13	0xbcc8dc2b	-0.024519047
14	0x3e291590	0.16512132
15	0x3efb9e82	0.4914437
16	0xbbb167b2	-0.005413973
17	0xbe6fd2a7	-0.23420201
18	0xbf389d88	-0.72115374
19	0x3ecadd6b	0.39622054
20	0xbded8181	-0.115969665
21	0xbf7c20ab	-0.9848735
22	0xbe656000	-0.22399902
23	0xbf073eac	-0.52830005
24	0x3eee9fc8	0.46606278
25	0xbf6c12ed	-0.9221638
26	0xbde8925b	-0.1135604
27	0x3eafe793	0.34356365
28	0x3dff5414	0.124672085
29	0x3fb6d603	1.4284061
30	0x3eb1a3e8	0.34695363
31	0xbd4132de	-0.04716765

weight f4 [8]
0	0x3f836b2a	1.0267079
1	0x3f811502	1.0084536
2	0x3fce11ca	1.6099179
3	0x3f58c1e1	0.84670836
4	0x3f8e25e2	1.1105311
5	0x3fbcf204	1.4761357
6	0x3f9cf334	1.226172
7	0x3f7cd24b	0.9875838

bias f4 [8]
0	0x3e789d69	0.24278797
1	0x3eac575f	0.3366041
2	0xbd996909	-0.07490737
3	0x3d8ed048	0.0697332
4	0xbd953e33	-0.07287254
5	0x3e95bed3	0.2924715
6	0xbe28e255	-0.16492589
7	0x3e202028	0.15637267

running_mean f4 [8]
0	0xbf8da930	-1.1067257
1	0x3e1f2ba4	0.15543991
2	0x3eb1e423	0.34744367
3	0x3dbc42a6	0.091924
4	0xbec79a0e	-0.38984722
5	0xbfb3d8ff	-1.4050597
6	0xbf584883	-0.84485644
7	0x3fe43adf	1.7830466

running_var f4 [8]
0	0x3f100edd	0.5627268
1	0x3e7b632c	0.2454955
2	0x3f1bb79b	0.60827035
3	0x3eb12882	0.34601218
4	0x3f0a8d0f	0.5412149
5	0x3fa2b56c	1.2711616
6	0x3f6e12e8	0.929976
7	0x3ed48faa	0.41515857

weight f4 [8, 8, 3, 3]
0	0x3e13e1af	0.1444156
1	0x3cfa04a4	0.030519791
2	0x3e91367b	0.28361878
3	0xbd115438	-0.035480708
4	0x3b642675	0.0034812961
5	0xbe78fc93	-0.243151
6	0x3e66447b	0.2248706
7	0x3d9daccb	0.07698973
8	0xbf5bef51	-0.8591204
9	0x3df4aab0	0.119466186
10	0xbdbf7684	-0.09348777
11	0x3dcc56ba	0.09977479
12	0x3e3e7245	0.18598278
13	0xbda7218e	-0.08160697
14	0xbe25b7b7	-0.16183363
15	0xbdbba206	-0.09161763
16	0xbdf718ec	-0.120653
17	0xbec2ff99	-0.3808563
18	0xbe97d134	-0.29651797
19	0xbe6a94e2	-0.22908357
20	0x3f07e859	0.5308891
21	0xbd6f3045	-0.058395643
22	0xbd0dacb3	-0.034588527
23	0x3eabae62	0.3353148
24	0x3ebd6f4d	0.36998978
25	0x3ee14082	0.43994528
26	0x3f16b2f9	0.5886684
27	0x3e07e7d1	0.13272025
28	0x3eb2df70	0.34936094
29	0x3e451387	0.1924573
30	0xbeaa64bf	-0.33279988
31	0x3d378aa6	0.04480996
32	0x3e590d90	0.2119658
33	0x3eb273e3	0.3485404
34	0x3d49569a	0.049154855
35	0xbed79462	-0.42105395
36	0xbea5b2e5	-0.32363048
37	0x3e2dd595	0.16976006
38	0x3e90a181	0.28248218
39	0xbe3aad83	-0.18230252
40	0x3ead68b8	0.33868957
41	0xbd560945	-0.052254934
42	0xbd32493b	-0.04352687
43	0x3e99f14d	0.3006691
44	0xbf71a7c5	-0.9439662
45	0xbf88eb31	-1.0696775
46	0xbbd054d4	-0.0063577686
47	0xbf11d394	-0.5696347
48	0xbe59ba2c	-0.21262425
49	0xbdfb59ba	-0.12272973
50	0x3dd7e4e7	0.105417065
51	0xbea7a088	-0.32739663
52	0xbd9347b3	-0.0719141
53	0x3fa3ca06	1.2796028
54	0x3e0ac06b	0.13549964
55	0xbe7c4732	-0.24636534
56	0xbc05479f	-0.008134752
57	0x3dd68661	0.104748495
58	0x3e26d79a	0.16293183
59	0x3defbf23	0.11706378
60	0x3f039043	0.51392
61	0x3ee87b90	0.4540677
62	0xbdc235c0	-0.09482908
63	0x3e47b2cc	0.195018
64	0x3e21f8d5	0.15817578
65	0x3f0423e0	0.5161724
66	0xbe85a871	-0.26105073
67	0x3f1e7ed7	0.6191229
68	0x3e53e36d	0.20692225
69	0x3d0cf03b	0.03440879
70	0xbe603dd6	-0.21898589
71	0xbf41c1a1	-0.7568608
72	0xbf29dd19	-0.66352993
73	0x3da196f6	0.07890122
74	0x3e03df76	0.12878212
75	0x3e09207c	0.13391298
76	0xbcd01f12	-0.02540544
77	0x3aa55063	0.0012612458
78	0x3d9feddd	0.07809041
79	0x3db839cc	0.08995399
80	0x3e6106e8	0.21975291
81	0xbea0d2de	-0.3141088
82	0x3f0896a9	0.5335489
83	0x3e91e4a8	0.28494763
84	0x3dc2f2c3	0.095189594
85	0x3eb091d1	0.3448625
86	0x3f0f525b	0.5598504
87	0xbd519512	-0.051167555
88	0xbdb9e832	-0.09077491
89	0x3e6ab914	0.22922164
90	0x3f613683	0.87973803
91	0x3f1e61ce	0.6186799
92	0x3f2c40b1	0.6728621
93	0xbcbdee85	-0.023185024
94	0xbec97f6b	-0.39355025
95	0xbd0779d4	-0.03307517
96	0x3c1f8644	0.009736601
97	0x3ec91e07	0.39280722
98	0xbd06251e	-0.03275024
99	0xbe3c4daf	-0.18389009
100	0xbebe7814	-0.37200987
101	0xbe3e7fd7	-0.18603455
102	0xbe145a35	-0.14487536
103	0x3d063f60	0.032775283
104	0xbec06552	-0.375773
105	0xbc6b1393	-0.014347929
106	0xbd209946	-0.039208673
107	0xbdef807f	-0.116944306
108	0x3e437036	0.19085774
109	0xbe5720fc	-0.21008676
110	0x3e2b8e65	0.16753538
111	0x3bb51f15	0.005527387
112	0x3dbffec8	0.093747675
113	0xbe110930	-0.14163661
114	0x3e32c7fe	0.17459103
115	0x3e616548	0.22011292
116	0xbecaeda8	-0.39634442
117	0xbdf68050	-0.120361924
118	0xbeeea32c	-0.46608865
119	0xbf02720a	-0.5095526
120	0x3d92c9fc	0.07167432
121	0x3eddfe4d	0.4335808
122	0xbd6f78e8	-0.058464915
123	0xbdc72970	-0.097247005
124	0xbde2dc7d	-0.11077211
125	0xbdf17a2a	-0.11790879
126	0xbf3a6172	-0.7280494
127	0xbe900458	-0.28128314
128	0xbea021e5	-0.3127586
129	0x3dc8d17f	0.09805583
130	0xbc9e6931	-0.019337269
131	0xbdbd49e7	-0.092426114
132	0x3e908034	0.2822281
133	0x3e22dde4	0.15904957
134	0x3e97fe67	0.2968628
135	0xbf6be4b5	-0.92145854
136	0xbeaa7c4d	-0.3329796
137	0xbdd1a9cc	-0.10237464
138	0x3e1e8cea	0.15483442
139	0x3e586623	0.21132712
140	0x3e485d8b	0.19566934
141	0xbe6649d9	-0.22489108
142	0xbd69f9c9	-0.05712298
143	0x3e84d8c4	0.2594663
144	0xbea519df	-0.322463
145	0xbe6f9e32	-0.2340019
146	0xbe4ac723	-0.19802527
147	0xbb83c0e7	-0.0040207985
148	0xbe886f0a	-0.26647216
149	0xbe472fcf	-0.19451831
150	0x3e7c0e1f	0.24614762
151	0xbd6c3860	-0.05767095
152	0x3e226d15	0.15861924
153	0x3e19694c	0.14981574
154	0xbe32f1f6	-0.17475113
155	0xbdb5d91a	-0.088792995
156	0x3dab4f5d	0.08364747
157	0x3e0ad565	0.13557966
158	0xbe1ff783	-0.15621762
159	0x3e15ce22	0.14629415
160	0xbe61d2e6	-0.22053108
161	0xbe82a8a6	-0.25519294
162	0x3ee8c58a	0.4546321
163	0x3ede5e7a	0.43431455
164	0xbf0a9688	-0.5413594
165	0x3a4b5dac	0.00077577936
166	0xbeaf439c	-0.3423127
167	0xbf2fb84e	-0.686406
168	0xbc66fd2d	-0.014098448
169	0x3dad3c27	0.08458739
170	0x3e719528	0.23592055
171	0xbdf9a0b0	-0.12188852
172	0x3e032cca	0.12810054
173	0x3e804913	0.2505575
174	0xbdd8cd8a	-0.105860785
175	0xbd72ef5d	-0.059310306
176	0x3c5ecded	0.013598901
177	0x3e631b9b	0.221785
178	0x3ecdd867	0.40204164
179	0x3efde096	0.49585408
180	0xbe4d25c8	-0.20033944
181	0xbf11779a	-0.5682312
182	0x3e859132	0.26087338
183	0xbea27d29	-0.31736115
184	0xbe913b86	-0.28365725
185	0x3e5e0fa4	0.21685654
186	0xbf0caea7	-0.54954
187	0xbda33a60	-0.079701185
188	0xbd35146a	-0.04420892
189	0xbe99377d	-0.29925147
190	0x3ec4bdf3	0.3842617
191	0xbe79d526	-0.24397716
192	0x3e8ce998	0.27521968
193	0x3f3511fc	0.70730567
194	0x3e9df053	0.30847415
195	0xbea85a1e	-0.32881254
196	0xbd866ef7	-0.065641336
197	0xbf1b931a	-0.60771334
198	0x3e20c680	0.15700722
199	0x3ef9db3a	0.4880007
200	0x3f367b98	0.7128234
201	0x3f0c22f8	0.5474086
202	0x3e19a833	0.15005569
203	0x3e48a711	0.19594981
204	0x3eeed7b0	0.46648932
205	0xbbf1a138	-0.007373955
206	0x3e86a84f	0.26300284
207	0xbe2b718e	-0.16742536
208	0x3e15d34c	0.14631385
209	0x3e4792ae	0.19489548
210	0x3eb0bda4	0.34519684
211	0xbded1b6c	-0.11577496
212	0xbe10d1b6	-0.14142498
213	0x3eddbc05	0.4330751
214	0xbd82d500	-0.06388283
215	0xbb135488	-0.0022480804
216	0x3e4c72f1	0.19965722
217	0xbc09353d	-0.008374509
218	0xbe4403b5	-0.19142039
219	0xbd46849f	-0.04846632
220	0x3dadb2d5	0.08481375
221	0x3eb7d17a	0.35902005
222	0xbf030cf4	-0.5119164
223	0xbe78ab3f	-0.24284075
224	0x3d8c179e	0.06840442
225	0xbf162dad	-0.58663446
226	0xbf28a0cf	-0.65870374
227	0xbd1b1ba0	-0.037868142
228	0xbe382576	-0.1798304
229	0xbe815736	-0.2526185
230	0x3f001bea	0.50042593
231	0x3e38875e	0.18020388
232	0x3e89adb1	0.2689033
233	0xbd3eb1c4	-0.04655625
234	0xbd9d09a1	-0.07667852
235	0x3e665936	0.22494969
236	0x3edee615	0.43534914
237	0xbed0f461	-0.40811446
238	0xbf6c5872	-0.92322457
239	0x3e4c04fb	0.19923775
240	0x3e8a385a	0.26996118
241	0x3dadd376	0.084875986
242	0x3f2a6f69	0.6657625
243	0x3ec85abf	0.39131734
244	0x3de4afd5	0.1116635
245	0x3e2e02db	0.16993277
246	0x3e31f318	0.17377889
247	0x3e5b88df	0.21438931
248	0xbdff5ab7	-0.12468474
249	0xbf0efb7a	-0.5585247
250	0xbd933a3f	-0.07188844
251	0xbdda221e	-0.106510386
252	0x3cf58e3a	0.029975045
253	0xbea83ebe	-0.32860368
254	0xbeabac59	-0.33529928
255	0x3eb5825e	0.35451025

weight f4 [8]
0	0x3f95a0ec	1.1689734
1	0x3f951353	1.1646522
2	0x3f9d2a2a	1.2278492
3	0x3f95d8f1	1.170683
4	0x3f39f959	0.726461
5	0x3f72fedf	0.9492015
6	0x3f6c8b22	0.923998
7	0x3f751bdc	0.95745635

bias f4 [8]
0	0xbe35d069	-0.17755283
1	0x3f07de3b	0.5307347
2	0xbe8fe56e	-0.28104728
3	0x3d057d2b	0.032590073
4	0x3e0e1765	0.13876112
5	0xbeaad22f	-0.33363482
6	0xbe92d3b3	-0.2867714
7	0xbe926d22	-0.28598887

running_mean f4 [8]
0	0xbdb88f52	-0.09011711
1	0x3d6f210f	0.058381137
2	0x3ee86024	0.4538585
3	0xbf848f47	-1.0356225
4	0xbe81b6e6	-0.25334853
5	0x3f5c4049	0.8603559
6	0x3ff07295	1.8784968
7	0x3ecec1b2	0.40382153

running_var f4 [8]
0	0x409eeae0	4.9661713
1	0x40a3ae4d	5.115027
2	0x4106b71e	8.419706
3	0x40d2dc15	6.5893655
4	0x4008b192	2.135838
5	0x40bfc476	5.992732
6	0x40685757	3.6303308
7	0x4044962f	3.0716665

weight f4 [32, 8, 1, 1]
0	0x3efad5aa	0.48991138
1	0xbf2333f3	-0.63751143
2	0x3e58030f	0.21094917
3	0x3e1510e6	0.14557227
4	0xbdf00730	-0.11720121
5	0xbdfe809c	-0.12426874
6	0xbf011e25	-0.5043662
7	0xbe76ab24	-0.24088722
8	0xbf0ccacb	-0.5499694
9	0x3e6a7d73	0.22899418
10	0xbce076ce	-0.0274004
11	0x3f1aa5f9	0.60409504
12	0x3e5155e1	0.20442916
13	0x3eaa979b	0.3331879
14	0xbe9b772b	-0.30364355
15	0xbf24ac3b	-0.643253
16	0x3da33888	0.07969767
17	0x3f620a1a	0.88296664
18	0xbca862a8	-0.020554855
19	0x3e782126	0.24231395
20	0x3ec04c78	0.3755834
21	0x3eaa00d5	0.3320376
22	0xbe293e4e	-0.16527674
23	0xbe37d4ca	-0.17952266
24	0xbe61b97f	-0.22043417
25	0xbd9de799	-0.07710189
26	0x3f279312	0.65458786
27	0xbea14d0a	-0.3150409
28	0xbda0b63f	-0.07847261
29	0xbf1a841e	-0.60357845
30	0x3e2b13b2	0.16706732
31	0x3ec6e852	0.3884912
32	0xbf00d25c	-0.5032098
33	0x3ebcb7ed	0.36859074
34	0x3c1d0044	0.009582583
35	0xbef2ca7c	-0.47420108
36	0xbf80b310	-1.0054646
37	0x3eb56c43	0.3543416
38	0xbde808d8	-0.11329812
39	0xbdc1cf81	-0.09463406
40	0x3f0f6471	0.56012636
41	0x3f466951	0.7750445
42	0xbec24163	-0.3794051
43	0xbeddf8da	-0.4335392
44	0x3c956312	0.018235717
45	0xbef3e9e1	-0.47639373
46	0x3e1ef0d6	0.15521559
47	0x3e85e1a1	0.26148704
48	0x3e6a93fd	0.22908016
49	0xbe81825f	-0.25294778
50	0xbf35a0dd	-0.7094858
51	0xbe939a19	-0.28828505
52	0xbe0118c9	-0.12607111
53	0xbea24e16	-0.317002
54	0xbe4ef460	-0.20210409
55	0x3e0e6fb9	0.13909806
56	0xbef934a8	-0.48672986
57	0x3f1bce6b	0.60861844
58	0x3e8c3934	0.27387393
59	0xbe0c2863	-0.13687281
60	0x3c6e63d1	0.014550165
61	0xbf045832	-0.51697075
62	0xbeb79be1	-0.35861114
63	0x3d0f40b7	0.034973826
64	0x3eb742eb	0.35793242
65	0x3da7b111	0.081880696
66	0x3c69f66a	0.014279941
67	0xbed3a5e3	-0.413375
68	0xbf0bfd1a	-0.5468308
69	0x3c01fe8e	0.007934226
70	0x3f4a0ab7	0.789226
71	0x3d7665cd	0.06015568
72	0xbf5a3597	-0.8523802
73	0x3e47283b	0.1944894
74	0xbce3d3d6	-0.027810972
75	0xbe87f90c	-0.26557195
76	0xbeb546a8	-0.3540547
77	0x3eb8c6de	0.36089224
78	0xbf2f8024	-0.685549
79	0xbe05195e	-0.12997958
80	0x3e1eae31	0.15496136
81	0x3f129bde	0.57269084
82	0x3e8e5f46	0.27807063
83	0xbef3fc07	-0.4765322
84	0x3e6370df	0.22211026
85	0xbc23f963	-0.010008189
86	0xbda76301	-0.0817318
87	0x3f1b32f6	0.60624635
88	0xbeab6f8f	-0.3348355
89	0x3d092d1d	0.03349029
90	0x3ee5d5b4	0.44889605
91	0xbede2797	-0.4338958
92	0x3ecb8ea0	0.39757252
93	0x3f118e05	0.5685733
94	0xbf1bd8f3	-0.60877913
95	0x3de1f051	0.11032165
96	0xbf1af8bb	-0.6053578
97	0x3dff2138	0.12457508
98	0xbe3eae03	-0.18621068
99	0x3e6a9b05	0.22910698
100	0x3ef38bb0	0.4756751
101	0x3d5d4f8e	0.054030947
102	0x3e955b47	0.29171202
103	0xbd24a8b6	-0.040199958
104	0xbf12187c	-0.5706861
105	0x3cb09d6c	0.02155944
106	0x3f0990c1	0.537365
107	0xbc9ec30d	-0.019380117
108	0x3d9cc9b8	0.07655662
109	0x3e90be22	0.2827006
110	0xbd842e5c	-0.06454155
111	0xbe9475cc	-0.28996122
112	0x3d9260ed	0.071473934
113	0x3ea087b4	0.31353533
114	0x3c7d92fa	0.0154769365
115	0xbf7ba944	-0.98305154
116	0x3ed1556c	0.40885484
117	0xbeb83ae1	-0.3598242
118	0xbe92a874	-0.28644145
119	0xbf02cbad	-0.51092035
120	0xbf0974e9	-0.53694016
121	0xbdd0d801	-0.101974495
122	0x3dd28ad0	0.10280383
123	0x3e38d235	0.18048938
124	0x3efe44c9	0.49661854
125	0xbf01a000	-0.50634766
126	0xbda7050a	-0.08155258
127	0x3ec8ddaa	0.39231616
128	0x3e2f1f52	0.17101792
129	0xbf12c5f3	-0.57333297
130	0xbf1ef004	-0.62084985
131	0x3d818054	0.06323305
132	0xbec3cbc3	-0.38241395
133	0xbeef564c	-0.46745527
134	0xbdaebcb5	-0.08532087
135	0x3ebb268c	0.36552846
136	0xbeb6ec68	-0.3572724
137	0xbd966703	-0.07343867
138	0x3f65fcc5	0.8983882
139	0x3ee030d1	0.43787244
140	0xbdecea9f	-0.11568188
141	0xbf04439d	-0.5166567
142	0xbdb872dd	-0.090062834
143	0x3d554b5b	0.052073818
144	0xbd4b43eb	-0.04962532
145	0xbf1986a3	-0.59971064
146	0x3f051e76	0.51999605
147	0x3e841b67	0.25802156
148	0xbd22c29e	-0.039736383
149	0xbea297b7	-0.31756374
150	0xbf10757d	-0.5642927
151	0x3e95199a	0.29121095
152	0xbf1fa621	-0.6236287
153	0xbb8f6f49	-0.00437728
154	0xbea7dcf3	-0.32785758
155	0x3f52743e	0.8220862
156	0x3e89a935	0.26886907
157	0x3e6eb08f	0.2330954
158	0xbec85351	-0.39126065
159	0x3d985224	0.07437542
160	0xbebbf82e	-0.36712784
161	0xbee0e004	-0.4392091
162	0xbe831140	-0.25599098
163	0xbf0ad4b2	-0.542308
164	0xbeac71b5	-0.33680502
165	0x3eb313a7	0.3497593
166	0x3eba9a28	0.36445737
167	0xbf06e5bf	-0.52694315
168	0x3cd06bcb	0.025442025
169	0xbe6b4cc9	-0.2297851
170	0x3f25eb67	0.6481232
171	0x3ebff2ab	0.37489828
172	0x3e5d2d57	0.21599327
173	0xbf10bd99	-0.56539303
174	0x3dd1321a	0.10214634
175	0xbe069810	-0.13143945
176	0x3f416ef4	0.75559926
177	0x3eb0a579	0.34501246
178	0x3edebf96	0.43505543
179	0xbebc9b9f	-0.3683748
180	0x3d540fa1	0.051772717
181	0x3e71a74e	0.23598978
182	0xbe188bbd	-0.14897056
183	0xbe2104d2	-0.15724495
184	0xbe47776f	-0.19479154
185	0xbda21d41	-0.07915736
186	0x3dbf3868	0.093369305
187	0xbf2b530b	-0.6692359
188	0xbe7a32fe	-0.24433514
189	0xbf75f342	-0.96074307
190	0x3de70ae8	0.11281377
191	0xbf409633	-0.75229186
192	0xbf12c3bc	-0.57329917
193	0xbe7c9175	-0.24664862
194	0xbe5a1ea4	-0.21300751
195	0xbf02c406	-0.5108036
196	0xbf0551af	-0.52077764
197	0x3ec214f0	0.379066
198	0x3e50fe3f	0.20409487
199	0x3e40178b	0.18758981
200	0x3e025cb5	0.12730677
201	0xbe7534f4	-0.23945981
202	0xbf5bb0c9	-0.8581663
203	0xbe10287a	-0.1407794
204	0x3d8a3c5d	0.06749795
205	0x3e9a5a26	0.30146903
206	0x3d6696be	0.056296103
207	0xbd42efd4	-0.047592
208	0x3ee4e9ea	0.44709712
209	0x3e998210	0.29982042
210	0xbedd45b2	-0.43217236
211	0x3e8979ed	0.26850834
212	0xbe0c0454	-0.13673526
213	0x3e5df654	0.21675998
214	0x3f3eb4f0	0.7449484
215	0xbeb03121	-0.34412482
216	0xbe7979ea	-0.24362913
217	0xbebc6364	-0.3679458
218	0xbea82554	-0.3284098
219	0xbdd0c71b	-0.10194226
220	0x3ed6b825	0.41937366
221	0x3e7bcbf7	0.24589525
222	0xbf5dcd88	-0.8664174
223	0x3ea214cb	0.3165649
224	0x3ef88131	0.48536065
225	0x3f328880	0.6973953
226	0xbe4371f4	-0.19086438
227	0x3e68e299	0.2274269
228	0x3e175488	0.1477834
229	0xbf07df1f	-0.5307483
230	0xbf0e8154	-0.5566609
231	0xbeb013c9	-0.34390095
232	0x3f0d2b8f	0.5514459
233	0xbee85d04	-0.45383465
234	0xbe0c512a	-0.13702837
235	0x3ea249e0	0.31696987
236	0x3e6fcabe	0.23417184
237	0x3e238d06	0.15971765
238	0xbe23c6e3	-0.15993838
239	0xbed0f0de	-0.40808767
240	0x3d75e2d1	0.060030762
241	0xbf0e25e2	-0.55526555
242	0x3e77b96a	0.24191824
243	0x3ee2e6d2	0.44316727
244	0x3f0e7467	0.55646366
245	0xbf0d6032	-0.5522491
246	0x3e4d8071	0.20068528
247	0xbda22847	-0.079178385
248	0xbe97d49b	-0.29654393
249	0xbdae3be4	-0.08507517
250	0x3db4ad45	0.08822111
251	0xbf1d92fe	-0.6155242
252	0xbecf145c	-0.4044522
253	0xbeadf457	-0.3397548
254	0xbea7607d	-0.32690802
255	0x3efaed42	0.49009138

weight f4 [32]
0	0x3fa6c59c	1.3029056
1	0x3f9e3b5a	1.2361863
2	0x3f000b85	0.5001758
3	0x3f80b007	1.0053719
4	0x3fbe4deb	1.4867529
5	0x3f7e8406	0.994202
6	0x3fdde09d	1.7334172
7	0x3fb0c20c	1.3809218
8	0x3f8d7962	1.1052668
9	0x3f9584ce	1.1681154
10	0x3f8eb9c8	1.1150446
11	0x3f89084f	1.070566
12	0x3f803389	1.0015727
13	0x3f89ad12	1.0755942
14	0x3f56a900	0.83851624
15	0x3f77b00a	0.9675299
16	0x3fb6f568	1.4293642
17	0x3ef3d8a1	0.47626212
18	0x3fa8e270	1.3194103
19	0x3f9d810a	1.2305005
20	0x3f38d5b8	0.7220111
21	0x3f6d8a94	0.9278958
22	0x3f8dca00	1.107727
23	0x3fbfcb50	1.4983921
24	0x3fbc695d	1.4719654
25	0x4010f136	2.2647223
26	0x3f4fc5ec	0.8116138
27	0x3fd1e5b7	1.6398228
28	0x3f74bb98	0.95598745
29	0x3faa060a	1.3283093
30	0x3f11ba90	0.56925297
31	0x3faf030b	1.3672804

bias f4 [32]
0	0xbf1bb3de	-0.6082133
1	0xbd3f24fb	-0.046666127
2	0xbf04a7b2	-0.5181838
3	0x3ebc9989	0.36835888
4	0x3e70f09f	0.2352929
5	0xbeb6fd59	-0.35740164
6	0x3ee05d02	0.4382096
7	0xbdac1400	-0.08402252
8	0x3d8a4cf0	0.06752956
9	0xbb316fed	-0.002707477
10	0xbea8be66	-0.32957762
11	0xbf5b59fe	-0.8568419
12	0xbe9d3784	-0.30706418
13	0xbee46dd1	-0.44615033
14	0xbe7748b4	-0.24148828
15	0xb97ab754	-0.00023910153
16	0x3e8d590d	0.27607003
17	0xbf5513f0	-0.8323355
18	0xbeb98ad2	-0.36238724
19	0xbd321ee2	-0.043486483
20	0xbdf30315	-0.11865822
21	0xbeeeb9ac	-0.4662603
22	0x3bc4674a	0.0059937583
23	0x3d9719da	0.07377978
24	0xbe3cf550	-0.18452954
25	0xba67a54e	-0.0008836583
26	0x3edf0238	0.4355638
27	0x3eadf9a9	0.33979538
28	0x3ec96baa	0.39339954
29	0xbf22151d	-0.63313466
30	0xbf1895ad	-0.5960339
31	0xbccae625	-0.024767945

running_mean f4 [32]
0	0xbecdac7d	-0.4017066
1	0x3e15ea2b	0.14640109
2	0x3f4952b7	0.7864184
3	0xbd32643a	-0.043552615
4	0xbe1fc494	-0.15602332
5	0x3eec51fe	0.46156305
6	0xbeed7dbf	-0.46385
7	0x3e7a23b0	0.24427676
8	0x3cfe5455	0.031046072
9	0xbe7d6031	-0.24743725
10	0x3f083403	0.53204364
11	0x3d91cec1	0.07119513
12	0x3de6c207	0.112674765
13	0x3cfbbf0c	0.030730747
14	0xbdc4ee6f	-0.0961579
15	0xbd5e6ba1	-0.05430186
16	0xbf1f25b4	-0.62166905
17	0x3dc5bab9	0.09654755
18	0xbea8d34a	-0.329737
19	0x3d28a575	0.041173417
20	0xbf27e78b	-0.6558768
21	0x3d31752d	0.04332464
22	0x3ee427d1	0.44561628
23	0xbf10f634	-0.56625676
24	0xbef4beed	-0.47801915
25	0xbea7eb0a	-0.32796508
26	0x3e9f8114	0.31153166
27	0xbeb65332	-0.35610348
28	0x3edd1326	0.43178672
29	0xbe29f8ce	-0.16598818
30	0xbe24dd2e	-0.16099998
31	0xbebb2dd1	-0.36558393

running_var f4 [32]
0	0x3ec2ed83	0.38071832
1	0x3f69f0a7	0.9138283
2	0x3e8ac6dc	0.27104843
3	0x3eab937e	0.33510965
4	0x3f1a30c8	0.60230684
5	0x3e7e7eb2	0.24853018
6	0x3f54dcba	0.831493
7	0x3f1637c6	0.58678854
8	0x3f035b08	0.5131078
9	0x3fa7af66	1.3100402
10	0x3f4248ef	0.7589254
11	0x3e98a037	0.29809734
12	0x3f0aca7e	0.5421523
13	0x3e5cdeb3	0.21569328
14	0x3f10846e	0.5645207
15	0x3ec05bd3	0.37570056
16	0x3f3a4353	0.7275898
17	0x3e6bdfce	0.23034593
18	0x3e93fe60	0.2890501
19	0x3f5e2852	0.86780274
20	0x3f2f003b	0.68359727
21	0x3e81f278	0.253803
22	0x3fb085b9	1.3790809
23	0x3fe3d4b5	1.7799288
24	0x3ed67256	0.41884106
25	0x3edb9ed8	0.42894626
26	0x3e95eb3c	0.29281032
27	0x3edafc28	0.42770505
28	0x3f405ec7	0.7514462
29	0x3e665e82	0.2249699
30	0x3e319f1a	0.17345849
31	0x3ec99e2b	0.39378485

weight f4 [32, 4, 1, 1]
0	0xbfb47fe7	-1.4101533
1	0xbdf38f21	-0.11892534
2	0x3e17ecb3	0.14836387
3	0x3db94736	0.090467855
4	0x3dede7b4	0.116164595
5	0x3db06e92	0.086148396
6	0x3d5660ba	0.05233834
7	0xbf93470e	-1.1506059
8	0x3e3f7572	0.18697146
9	0xbf1521df	-0.5825481
10	0x3f3a6538	0.728107
11	0xbe9ad44d	-0.30240098
12	0xbe11f502	-0.1425362
13	0x3ed3be8e	0.4135632
14	0xbf6bf9d5	-0.9217809
15	0x3dbae23b	0.09125181
16	0xbf2e0eea	-0.6799151
17	0x3fb32a8f	1.3997363
18	0xbe99dcec	-0.30051363
19	0x3d221fc1	0.039581064
20	0x3ecaf245	0.39637962
21	0x3ec097cd	0.37615815
22	0xbefd394f	-0.49457785
23	0xbcd7ad72	-0.026327822
24	0x3ef36899	0.4754074
25	0xbf38acba	-0.7213856
26	0x3e37f92d	0.17966147
27	0xbe62e1c7	-0.2215644
28	0xbf0f4a70	-0.5597296
29	0x3eb7b577	0.35880634
30	0x3e69a9b0	0.22818637
31	0xbf04c857	-0.51868194
32	0xbf5bd43a	-0.8587071
33	0x3f784232	0.96976006
34	0xbd85c0f3	-0.06530943
35	0xbe543d99	-0.20726623
36	0xbdd78b60	-0.105246305
37	0x3f01598b	0.50527257
38	0x3dbb655d	0.09150193
39	0x3f74f6bf	0.95689005
40	0x3e80fc5b	0.25192532
41	0xbdc7112d	-0.09720073
42	0xbf78e4de	-0.97224224
43	0x3dbe3ac5	0.09288553
44	0x3e2602c1	0.16211988
45	0xbe8a5f32	-0.27025753
46	0xbf53a8ba	-0.8267933
47	0xbe8113d9	-0.25210455
48	0x3e895e38	0.26829696
49	0xbf0198e0	-0.50623894
50	0xbf18c3ea	-0.5967394
51	0x3d46fa78	0.04857871
52	0xbd58be0d	-0.05291562
53	0xbe8f27f2	-0.27960163
54	0xbd63d93f	-0.055627104
55	0x3f93f171	1.1558057
56	0x3f0972fd	0.53691083
57	0xbf3d82d8	-0.74027777
58	0xbeb0bc08	-0.34518456
59	0xbd921507	-0.07132917
60	0xbd6258f7	-0.055260625
61	0xbe89e42b	-0.2693189
62	0xbf8ccb8b	-1.0999616
63	0x3e9313bf	0.28726003
64	0xbd9c760c	-0.07639703
65	0xbfdcee15	-1.7260157
66	0xbf2dc74e	-0.6788224
67	0x3e641c17	0.2227634
68	0x3ea6cc65	0.32577816
69	0x3f8f1e78	1.1181173
70	0xbe6a7c66	-0.22899017
71	0x3e9bbbd6	0.30416745
72	0xbea94809	-0.3306277
73	0xbd4f4769	-0.05060521
74	0xbf1fe209	-0.6245428
75	0xbda032a5	-0.0782216
76	0xbf22c78d	-0.6358574
77	0x3d459005	0.04823305
78	0xbe956646	-0.2917959
79	0x3e2dd66e	0.1697633
80	0x3f0f50fe	0.5598296
81	0x3e3c5d7e	0.1839504
82	0xbec9b71a	-0.39397508
83	0x3ec7457d	0.38920203
84	0x3ea69d43	0.32541856
85	0x3f6f2eb8	0.9343066
86	0xbf822489	-1.01674
87	0x3e2df9d2	0.1698983
88	0xbf2f58dc	-0.68494964
89	0x3f1637ac	0.586787
90	0xbe9d813e	-0.30762666
91	0x3e112d3e	0.14177415
92	0x3ea66447	0.3249838
93	0x3f8b3eb4	1.087851
94	0x3e88752f	0.26651904
95	0x3eef6316	0.46755284
96	0xbef50019	-0.47851637
97	0xbf74d9f1	-0.9564505
98	0xbf0dc915	-0.5538495
99	0x3d846cb2	0.064660445
100	0x3f2344e3	0.6377699
101	0x3f81365e	1.0094717
102	0xbe1cda68	-0.1531769
103	0x3d9f200d	0.07769785
104	0xbd777418	-0.06041345
105	0x3ea00c02	0.3125916
106	0xbf07e52b	-0.5308406
107	0xbed79fb1	-0.42114022
108	0x3d2a5553	0.041585278
109	0x3f7105b2	0.94149315
110	0x3e7da533	0.2477005
111	0x3e8c9334	0.27456057
112	0xbef939df	-0.48676965
113	0xbd869196	-0.06570737
114	0xbe57fd48	-0.21092713
115	0xbf62a417	-0.8853163
116	0xbe2e3014	-0.17010528
117	0xbf67f5c8	-0.9060941
118	0xbf052436	-0.5200838
119	0xbe5f73e5	-0.21821554
120	0x3efbd6ba	0.4918726
121	0xbf156aad	-0.583659
122	0xbe1bab9e	-0.15202186
123	0x3eed0da4	0.4629947
124	0xbf2bc749	-0.6710096
125	0xbdfb468e	-0.122693166
126	0xbefee01d	-0.4978036
127	0x3e77b441	0.24189855

weight f4 [32]
0	0x3f8d91ba	1.1060097
1	0x3f547c57	0.8300223
2	0x3f2df3a2	0.6794988
3	0x3f2975ba	0.6619526
4	0x3f5697a2	0.83825123
5	0x3f393180	0.72341156
6	0x3f56e0c1	0.839367
7	0x3f50a722	0.81505024
8	0x3f9c38f8	1.2204885
9	0x3f43b2ac	0.76444507
10	0x3f5fccdb	0.8742196
11	0x3f725509	0.94661003
12	0x3f447e07	0.767548
13	0x3e29c576	0.16579232
14	0x3f0e5b1c	0.5560777
15	0x3fae5f3b	1.3622812
16	0x3fb02448	1.3761072
17	0x3f1c9057	0.61157745
18	0x3f568bc5	0.8380702
19	0x3fb321e5	1.3994719
20	0x3f586289	0.8452535
21	0x3f4420ad	0.7661236
22	0x3f5268c8	0.82191133
23	0x3f5a0953	0.8517048
24	0x3f8b2bc9	1.0872737
25	0x3f290372	0.6602088
26	0x3f8330f8	1.0249319
27	0x3f2799de	0.6546916
28	0x3fac5950	1.3464756
29	0x3fbac241	1.4590532
30	0x3f0dd3c4	0.55401254
31	0x40008cd1	2.0085948

bias f4 [32]
0	0xbf1bb3de	-0.6082133
1	0xbd3f24fb	-0.046666127
2	0xbf04a7b2	-0.5181838
3	0x3ebc9989	0.36835888
4	0x3e70f09f	0.2352929
5	0xbeb6fd59	-0.35740164
6	0x3ee05d02	0.4382096
7	0xbdac1400	-0.08402252
8	0x3d8a4cf0	0.06752956
9	0xbb316fed	-0.002707477
10	0xbea8be66	-0.32957762
11	0xbf5b59fe	-0.8568419
12	0xbe9d3784	-0.30706418
13	0xbee46dd1	-0.44615033
14	0xbe7748b4	-0.24148828
15	0xb97ab754	-0.00023910153
16	0x3e8d590d	0.27607003
17	0xbf5513f0	-0.8323355
18	0xbeb98ad2	-0.36238724
19	0xbd321ee2	-0.043486483
20	0xbdf30315	-0.11865822
21	0xbeeeb9ac	-0.4662603
22	0x3bc4674a	0.0059937583
23	0x3d9719da	0.07377978
24	0xbe3cf550	-0.18452954
25	0xba67a54e	-0.0008836583
26	0x3edf0238	0.4355638
27	0x3eadf9a9	0.33979538
28	0x3ec96baa	0.39339954
29	0xbf22151d	-0.63313466
30	0xbf1895ad	-0.5960339
31	0xbccae625	-0.024767945

running_mean f4 [32]
0	0xbf00fa38	-0.50381804
1	0xbe488244	-0.19580942
2	0xbee4c606	-0.4468233
3	0x3e02ea90	0.12784791
4	0x3fa69edb	1.3017229
5	0x3ec3699e	0.38166517
6	0xbf2e75f7	-0.6814875
7	0x3e2650c5	0.16241749
8	0x3f41e519	0.757402
9	0x3f5a51b7	0.85280937
10	0xbeabc047	-0.33545133
11	0xbf1f607a	-0.62256587
12	0xbf2d79f9	-0.6776424
13	0xbb3bb64f	-0.00286426
14	0xbf5489e6	-0.83022916
15	0xbf20f590	-0.628747
16	0xc00a71d9	-2.1631987
17	0x3fb16793	1.3859733
18	0xbed324ee	-0.41239113
19	0xbe46876b	-0.19387595
20	0x3ebea228	0.3723309
21	0x3f5c3c9f	0.8603
22	0x3ec6125b	0.3868588
23	0x3fca91c8	1.5825739
24	0xbfb35dff	-1.401306
25	0x3fa988a0	1.324482
26	0x3b423549	0.0029633811
27	0x3fa117d1	1.2585393
28	0xbf105073	-0.56372756
29	0xbfab1932	-1.3367064
30	0xbede429e	-0.434102
31	0xbee5896b	-0.44831404

running_var f4 [32]
0	0x40478461	3.1174548
1	0x3fd696d3	1.6764778
2	0x3f91baff	1.1385192
3	0x40123d7f	2.2850034
4	0x3ffa6ce5	1.9564482
5	0x3e817b6e	0.25289482
6	0x3f066f0c	0.52513194
7	0x3fa6fece	1.304651
8	0x4020d2fd	2.5128777
9	0x3fc9e6fd	1.5773617
10	0x3fa0ee51	1.2572728
11	0x3feac4d4	1.8341317
12	0x3eb48ba4	0.35262787
13	0x3fefe02e	1.8740289
14	0x3e49fdb0	0.1972568
15	0x4008cc1d	2.137458
16	0x3f2ca62c	0.6744106
17	0x3eb6b0f3	0.35681877
18	0x40083992	2.1285138
19	0x3f9eec28	1.2415819
20	0x3f2dd50e	0.6790322
21	0x3fa70a8f	1.3050097
22	0x3fcc31f4	1.5952744
23	0x3ff08c1b	1.8792757
24	0x3ff1d6b5	1.8893648
25	0x3f35f099	0.7107025
26	0x3ff97e12	1.9491599
27	0x3f0d0bfa	0.550964
28	0x40874b27	4.227924
29	0x3fc37069	1.526868
30	0x3f91dd9e	1.1395757
31	0x3ff06506	1.878083

weight f4 [4, 32, 1, 1]
0	0x3f491046	0.78540456
1	0xbec9dc81	-0.39426044
2	0x3e9a689b	0.30157933
3	0x3e2b4a8b	0.16727655
4	0x3cd15446	0.02555288
5	0x3e442a10	0.1915667
6	0xbed20ec1	-0.4102688
7	0x3e346477	0.1761645
8	0xbe85abcc	-0.26107633
9	0x3d2241f5	0.039613683
10	0x3ed99efa	0.42504102
11	0x3ec918dc	0.3927678
12	0x3ec33f99	0.3813446
13	0x3e8962ab	0.2683309
14	0x3e72e7e9	0.23721279
15	0xbee4034a	-0.4453376
16	0xbe25d19e	-0.16193244
17	0x3d7b9022	0.061416753
18	0xbdb70a3b	-0.08937498
19	0xbf010860	-0.50403404
20	0x3d91d456	0.07120578
21	0xbe8b0476	-0.2715184
22	0x3da79210	0.08182156
23	0xbe53a4d3	-0.20668344
24	0xbf2242e7	-0.63383335
25	0x3ea95459	0.33072165
26	0xbe89f11b	-0.2694176
27	0xbed3ab88	-0.41341805
28	0xbece198d	-0.4025387
29	0xbe3f4bed	-0.18681307
30	0xbc2c11cd	-0.010502291
31	0xbf04dfc2	-0.5190393
32	0x3ed9ee72	0.42564732
33	0xbee946bd	-0.45561782
34	0x3e26daa3	0.16294341
35	0xbd886ef7	-0.0666179
36	0xbea7bb4c	-0.32760084
37	0x3edba78a	0.4290126
38	0xbef6c503	-0.48197183
39	0xbd4a1c9d	-0.049343694
40	0xbe3fd26f	-0.18732618
41	0xbcaabd1b	-0.020842126
42	0x3e34d9ec	0.17661256
43	0xbdbb9d20	-0.091608286
44	0xbe2c0036	-0.16796955
45	0xbe26f355	-0.16303761
46	0x3e2f6ca5	0.17131288
47	0xbe658a61	-0.22416069
48	0xbf4ca101	-0.7993317
49	0xbe94a91e	-0.29035276
50	0x3efdd192	0.49573952
51	0x3ec2c3bf	0.38039967
52	0x3ee4794c	0.44623792
53	0xbca6db82	-0.020368341
54	0xbe83cadd	-0.2574071
55	0x3e8bb9a8	0.27290082
56	0x3ec3d4d4	0.38248312
57	0xbef70788	-0.48247933
58	0xbd0f1b11	-0.034937922
59	0x3e588f40	0.21148396
60	0xbdf80301	-0.12109948
61	0x3f74e941	0.9566842
62	0x3e044b5b	0.12919371
63	0xbde4f868	-0.11180192
64	0xbd142c52	-0.03617508
65	0x3e41542e	0.18879768
66	0x3c4a69a5	0.012354289
67	0xbe26d42a	-0.16291872
68	0xbf193c8c	-0.5985801
69	0xbea928ea	-0.33039027
70	0xbf1f85cd	-0.6231354
71	0x3dbead80	0.09310436
72	0xbe77e905	-0.24209984
73	0xbdebd5d0	-0.11515391
74	0x3e291b39	0.16514291
75	0x3f6d69cb	0.9273955
76	0x3dab4007	0.083618216
77	0xbe133821	-0.1437688
78	0xbe7d6dd6	-0.2474893
79	0x3e870b13	0.26375636
80	0xbd29e414	-0.041477278
81	0xbeba9d3c	-0.36448085
82	0x3e36b18d	0.17841168
83	0x3f231a6a	0.6371218
84	0x3d080eb1	0.033217136
85	0xbe803aa3	-0.25044736
86	0x3e783625	0.24239404
87	0xbd7cb3b6	-0.061694823
88	0xbec198d9	-0.37811926
89	0x3e8b4aed	0.272056
90	0x3d0e8081	0.03479052
91	0xbf00db02	-0.5033418
92	0xbe0c3345	-0.13691433
93	0xbf67073d	-0.9024542
94	0xbe948af3	-0.2901226
95	0xbe3ce258	-0.18445718
96	0xbf052f4b	-0.5202529
97	0x3ea0b144	0.31385243
98	0x3ede82af	0.4345908
99	0xbda99762	-0.08280827
100	0xbf0a6a15	-0.5406812
101	0x3e82d0eb	0.25550017
102	0x3e4caaf1	0.19987084
103	0xbe370752	-0.17873886
104	0x3f0e5328	0.55595636
105	0x3e34e4ac	0.17665356
106	0xbeb9cef2	-0.362907
107	0x3d309842	0.043113954
108	0x3bb46755	0.005505482
109	0xbd3c7293	-0.046007704
110	0x3e591778	0.21200359
111	0x3c193f70	0.009353504
112	0xbde91db1	-0.11382616
113	0x3e9f0cf8	0.31064582
114	0x3e94fc5a	0.2909878
115	0x3c3b25e6	0.01142261
116	0x3e1d65cf	0.15370868
117	0x3eb3e8b7	0.35138485
118	0x3ebd86b6	0.3701684
119	0xbe79ae51	-0.24382903
120	0xbe7ff7c9	-0.24996866
121	0x3efa4765	0.48882595
122	0xbbb43374	-0.0054992978
123	0x3eb6edee	0.357284
124	0xbecbb8c3	-0.397894
125	0xbeaaa768	-0.33330846
126	0x3dbd68c5	0.09248499
127	0x3f563fc9	0.8369108

weight f4 [4]
0	0x3f83f60a	1.030946
1	0x3f913b6d	1.134626
2	0x3f7ce52c	0.9878719
3	0x3f8032cb	1.0015501

bias f4 [4]
0	0xbb4a9499	-0.0030911325
1	0x3e8aec0b	0.27133211
2	0x3f0222ba	0.5083424
3	0x3d46ab2f	0.048503097

running_mean f4 [4]
0	0xc00ddc94	-2.216588
1	0xbfe87c9a	-1.8163025
2	0xbfd66728	-1.6750231
3	0x3e85f0f2	0.2616039

running_var f4 [4]
0	0x3f8491bc	1.0356975
1	0x3f64ea09	0.8941961
2	0x3ee285cf	0.44242713
3	0x3f4b4232	0.7939788

weight f4 [4, 4, 3, 3]
0	0xbd85237a	-0.06500907
1	0xbc5c809e	-0.013458399
2	0xbcf1e4d1	-0.029528053
3	0x3ea810d2	0.32825333
4	0xbdf0d70c	-0.11759767
5	0xbdd76134	-0.10516587
6	0xbb4a5e8b	-0.0030879106
7	0x3e1be769	0.15224995
8	0xbcc1e29f	-0.023667632
9	0x3e4b42b4	0.19849664
10	0x3e661f04	0.22472769
11	0x3da34611	0.079723485
12	0x3f15e920	0.58558846
13	0x3e2b6011	0.16735865
14	0x3ec14d8b	0.37754473
15	0x3e0760fd	0.13220592
16	0x3f144f7a	0.5793377
17	0x3ec55bc2	0.38546568
18	0x3ef1ab47	0.47200987
19	0x3f26dccc	0.6518066
20	0x3e437e95	0.19091256
21	0x3f08564f	0.53256696
22	0x3f037699	0.5135284
23	0x3f01be00	0.5068054
24	0x3e349ba2	0.17637494
25	0x3f1445fe	0.579193
26	0x3ee1c3ec	0.4409479
27	0xbdc187c9	-0.09449727
28	0xbe362a78	-0.17789638
29	0x3d374f9c	0.044753656
30	0xbe188b0a	-0.14896789
31	0xbdee6df2	-0.11642064
32	0xbec26446	-0.37967128
33	0xbe80e6c7	-0.2517607
34	0xbebbb91d	-0.36664668
35	0xbea9a5e4	-0.33134377
36	0xbe5ce455	-0.21571477
37	0xbc90cc85	-0.017675648
38	0x3d4349bf	0.04767775
39	0x3e104498	0.14088666
40	0x3e4b8fe1	0.19879104
41	0x3ea43aa1	0.3207598
42	0x3e558aa5	0.2085367
43	0x3ef323fd	0.47488394
44	0x3eeef9d5	0.46674982
45	0xbba9b7bd	-0.005179374
46	0x3ea3c895	0.3198897
47	0x3e551132	0.2080734
48	0x3e9c43b8	0.30520415
49	0x3cc792c1	0.02436197
50	0x3ef0bfdf	0.47021386
51	0x3e83b2ef	0.25722453
52	0x3eb1d973	0.34736213
53	0x3eb3f929	0.35151032
54	0xbd4a7430	-0.04942721
55	0xbec4d2e1	-0.38442138
56	0xbecc3cdb	-0.3989018
57	0xbe58779c	-0.21139377
58	0xbeeadab6	-0.45869988
59	0xbf0a30c2	-0.5398065
60	0xbdda0b6f	-0.10646712
61	0xbe8a4fbb	-0.27013955
62	0xbe2488bd	-0.16067787
63	0xbebf85d7	-0.374068
64	0xbeba7415	-0.3641669
65	0x3d57e763	0.052710902
66	0xbf2a5041	-0.6652871
67	0xbdd0b8df	-0.10191511
68	0xbe6c725b	-0.23090498
69	0xbed40532	-0.41410214
70	0xbe6ca9f4	-0.23111707
71	0xbdaf7fe6	-0.085693166
72	0xbecdcefb	-0.40196976
73	0xbed916de	-0.4240026
74	0xbe32db8f	-0.17466567
75	0xbefce789	-0.49395397
76	0xbda16d94	-0.078822285
77	0xbe821d6e	-0.25413078
78	0xbec27b2b	-0.37984595
79	0xbe80812b	-0.25098547
80	0x3cf7ec81	0.030264141
81	0x3d346141	0.04403806
82	0x3ea29901	0.31757358
83	0x3e1cc993	0.1531127
84	0x3ea6151e	0.32437986
85	0x3d2cf6de	0.04222762
86	0x3f10de2f	0.56589025
87	0x3e6c191b	0.23056452
88	0x3efb69a2	0.4910403
89	0x3f0787b3	0.52941436
90	0x3db01800	0.08598328
91	0xbed6dc77	-0.41965076
92	0xbef3db54	-0.47628272
93	0x3d0d51af	0.034501728
94	0xbe4b8611	-0.19875361
95	0xbede931c	-0.4347161
96	0x3d86f437	0.06589549
97	0x3d1d8e5e	0.03846585
98	0xbe14a770	-0.14516997
99	0xbe202622	-0.15639547
100	0xbc99f00d	-0.018791223
101	0xbe16b7f0	-0.14718604
102	0xba8eeab1	-0.0010903684
103	0x3cceb645	0.025233397
104	0x3dc39836	0.09550516
105	0x3e4943a9	0.19654717
106	0x3e9c45a8	0.30521894
107	0x3ea9b91f	0.3314905
108	0xbe9601b5	-0.29298177
109	0x3e8c79bf	0.27436635
110	0x3d21ae53	0.03947289
111	0xbf11b200	-0.5691223
112	0x3f0cf2e9	0.5505815
113	0xbe8b72ae	-0.2723593
114	0xbe18bbeb	-0.14915435
115	0xbef95f69	-0.48705605
116	0xbf207ad1	-0.626874
117	0x3e9b4302	0.3032456
118	0xbd95f37e	-0.07321833
119	0x3ec00157	0.37501022
120	0x3e24fd5d	0.16112275
121	0x3e21356e	0.15743038
122	0xbe10042d	-0.14064093
123	0x3dd6a457	0.10480564
124	0xbe3f15b4	-0.18660623
125	0xbf1145ce	-0.5674714
126	0xbc683f2b	-0.014175217
127	0xbcbe0648	-0.023196355
128	0x3e8e70dc	0.2782048
129	0xbe9a4133	-0.30127868
130	0xbdd442ca	-0.103643015
131	0x3de18b72	0.11012925
132	0xbebd85bf	-0.37016103
133	0xbe97a0b2	-0.29614788
134	0x3cf6a4bf	0.030107854
135	0xbf19769b	-0.599466
136	0xbf6cd5dd	-0.9251383
137	0xbe1787fa	-0.14797965
138	0xbea90bf4	-0.33016932
139	0x3e4555ee	0.19271061
140	0xbee2aae7	-0.44271013
141	0xbdaabb55	-0.08336512
142	0xbe8d930b	-0.27651247
143	0xbf06fd7f	-0.52730554

weight f4 [4]
0	0x3f4d6052	0.802251
1	0x3f6ea249	0.9321638
2	0x3f6a0ee9	0.91429
3	0x3f2e6d6b	0.6813571

bias f4 [4]
0	0xbd2c713f	-0.042100187
1	0xbe4aa7b3	-0.19790535
2	0x3ce0b5e2	0.027430478
3	0x3f9d31bc	1.2280803

running_mean f4 [4]
0	0x403dd81e	2.9663157
1	0xbf941d78	-1.1571493
2	0xbf04311c	-0.51637435
3	0xbfbc43cd	-1.4708191

running_var f4 [4]
0	0x4092f498	4.5923576
1	0x403e6e8a	2.9754968
2	0x40404844	3.0044107
3	0x41687a8b	14.529918

weight f4 [16, 4, 1, 1]
0	0xbe31ceff	-0.17364119
1	0xbdfc9171	-0.12332428
2	0xbe0fe791	-0.1405318
3	0xbf400859	-0.7501274
4	0x3ec57bbd	0.38570967
5	0xbf0c3e68	-0.54782724
6	0x3e3e2a08	0.18570721
7	0xbf197dbd	-0.59957486
8	0xbe9dcd8a	-0.30820876
9	0x3ef1b8e1	0.47211364
10	0x3f1056e2	0.5638257
11	0x3f0bcf49	0.5461317
12	0xbe7fcd76	-0.24980721
13	0xbc95b287	-0.018273605
14	0xbe6eefaf	-0.2333362
15	0xbf850ae4	-1.0393949
16	0x3f0cfa59	0.550695
17	0xbc25abc1	-0.01011175
18	0x3dc8f5a5	0.09812478
19	0x3f4e7ab1	0.8065596
20	0xbded860c	-0.11597833
21	0x3d072837	0.032997336
22	0xbed11c92	-0.4084211
23	0xbf8ef59e	-1.1168706
24	0x3f248abd	0.642742
25	0xbf031898	-0.512094
26	0x3d9e5c66	0.07732467
27	0xbeb35a75	-0.3502995
28	0xbf17a66c	-0.59238315
29	0x3e1c617c	0.15271562
30	0x3e7b6458	0.24549997
31	0xbf611f7b	-0.8793866
32	0x3e5adf64	0.2137428
33	0xbe97bff5	-0.2963864
34	0x3f1c8a4e	0.61148536
35	0x3ed064af	0.40701815
36	0xbdd4465d	-0.10364983
37	0x3f5c4f6f	0.86058706
38	0xbd6e29c1	-0.05814529
39	0x3ea0657e	0.31327432
40	0xbedd3dd9	-0.4321125
41	0xbd8477df	-0.06468176
42	0x3e302973	0.17203312
43	0xbf427ec3	-0.75974673
44	0x3ec064b5	0.37576833
45	0x3eab060e	0.33403057
46	0xbe819720	-0.25310612
47	0x3e383e01	0.17992403
48	0xbdc2b91b	-0.09507962
49	0xbef17c65	-0.47165218
50	0x3f5e4e1f	0.86837953
51	0x3d96b717	0.0735914
52	0x3d389620	0.045065045
53	0x3f394659	0.72372967
54	0xbd6b5559	-0.05745444
55	0x3ee3d3cc	0.44497526
56	0xbeef194e	-0.46698993
57	0x3ef74aec	0.48299348
58	0x3f0483b0	0.5176344
59	0x3e08996a	0.13339773
60	0x3dda5a6e	0.10661779
61	0x3f2e9c2d	0.68207055
62	0xbec05ca8	-0.3757069
63	0x3ee333dc	0.44375503

weight f4 [16]
0	0x4095fa4a	4.686803
1	0x4096f978	4.7179527
2	0x40923880	4.569397
3	0x40a2d20d	5.088141
4	0x40a65dff	5.198974
5	0x40b188e8	5.547962
6	0x409d1fe7	4.9101443
7	0x40108e42	2.2586827
8	0x4095d6bc	4.6824627
9	0x409e52b8	4.9475975
10	0x40981928	4.753071
11	0x407c3214	3.9405565
12	0x4092f458	4.592327
13	0x40ac3e57	5.38261
14	0x407bda49	3.935198
15	0x40986caa	4.7632647

bias f4 [16]
0	0x3f57b2bd	0.8425711
1	0x3f223862	0.63367283
2	0x3f0817f8	0.53161573
3	0x3ec873bd	0.391508
4	0x3ec7ab33	0.38997802
5	0x3eca0e76	0.39464158
6	0x3f23ee76	0.6403574
7	0x3f9ce43b	1.225715
8	0x3f01e716	0.50743234
9	0x3f0ad635	0.54233104
10	0x3f0225d8	0.50838995
11	0x3f2ce739	0.6754032
12	0x3e853d69	0.26023415
13	0x3f2c47f9	0.6729732
14	0x3eac318b	0.33631548
15	0x3eb977e5	0.36224285

running_mean f4 [16]
0	0xbf8811ec	-1.0630469
1	0xbf449a56	-0.76798
2	0x3f5aac20	0.8541889
3	0xbfb8f4bd	-1.4449688
4	0x3f95bfa3	1.1699108
5	0xbfc5fefa	-1.5468438
6	0xbed1b62f	-0.40959308
7	0xbf9632a4	-1.1734204
8	0x3f2317b3	0.6370804
9	0x3f099cef	0.53755087
10	0xbf85bcd8	-1.0448256
11	0x3ea33df1	0.31883195
12	0x3e275f62	0.1634498
13	0x3f35a8af	0.70960516
14	0x3e8e682d	0.27813855
15	0x3f2748c7	0.65345424

running_var f4 [16]
0	0x3ce0ff02	0.027465347
1	0x3df2a1bf	0.11847257
2	0x3ead9f03	0.3391038
3	0x3d345712	0.04402835
4	0x3d9bdca3	0.076104425
5	0x3d8edb10	0.069753766
6	0x3e2bc59a	0.16774598
7	0x3e20aadd	0.15690179
8	0x3def2924	0.11677769
9	0x3e9c9ca9	0.30588272
10	0x3d8467d9	0.0646512
11	0x3de47ce9	0.11156637
12	0x3e5a5dc5	0.21324833
13	0x3e682712	0.22671154
14	0x3ebb49d9	0.3657978
15	0x3dfd0251	0.123539574

weight f4 [16, 32, 1, 1]
0	0xbea55f3c	-0.3229922
1	0x3ec0ec59	0.3768032
2	0xbdaf6154	-0.08563486
3	0x3e655873	0.22397022
4	0xbe9e62f7	-0.3093488
5	0x3e50df10	0.20397592
6	0x3e19fbc4	0.15037447
7	0x3f9dbf77	1.2324055
8	0x3f3debbb	0.7418782
9	0x3e18b237	0.14911734
10	0x3df8e2e4	0.12152651
11	0xbe395900	-0.18100357
12	0xbf05d88b	-0.52283543
13	0xbe0c42b5	-0.13697322
14	0xbe32f595	-0.17476495
15	0x3dfbccb3	0.12294903
16	0x3e2efb9d	0.1708817
17	0x3e27e702	0.16396716
18	0xbe3fee83	-0.18743329
19	0x3d38af98	0.045089334
20	0x3dfecca2	0.12441374
21	0x3e7a66b7	0.24453245
22	0x3eb9bf7a	0.36278898
23	0x3d826ac7	0.063680224
24	0xbeebb737	-0.4603822
25	0x3f465ed8	0.7748847
26	0xbf3472d6	-0.70487726
27	0xbe16a8a4	-0.14712769
28	0xbe15370a	-0.14571777
29	0xbdb57d1d	-0.08861754
30	0xbe09e309	-0.13465513
31	0x3eb41d5a	0.35178643
32	0xbf068f80	-0.52562714
33	0xbee56329	-0.44802216
34	0xbe6b0a9d	-0.22953267
35	0xbd3b32f1	-0.04570288
36	0xbe76f5ff	-0.24117278
37	0x3e9c294b	0.30500254
38	0x3bdaf67c	0.0066822153
39	0xbc3e447b	-0.011613007
40	0xbdd926c8	-0.106031
41	0xbe41592e	-0.18881676
42	0xbe5f67cf	-0.21816944
43	0x3ea99b85	0.33126464
44	0x3e5afc94	0.21385413
45	0x3e974ea4	0.29552186
46	0xbdf6531e	-0.12027572
47	0xbe25b3ba	-0.16181841
48	0xbf541799	-0.8284851
49	0x3e144d81	0.1448269
50	0x3e4ae7a5	0.19814928
51	0x3ee510ec	0.44739473
52	0xbe4fff51	-0.20312239
53	0xbd96ecf7	-0.07369416
54	0x3d45cff4	0.048294023
55	0x3f1e4759	0.6182762
56	0xbe8217c0	-0.25408745
57	0x3f5ec5fd	0.87020856
58	0x3ec9bfa0	0.3940401
59	0xbd3e23cc	-0.046420857
60	0xbf00ab7d	-0.5026167
61	0xbe3368cf	-0.1752045
62	0xbded4e95	-0.11587254
63	0xbe138ee2	-0.14409974
64	0x3d146f59	0.036239002
65	0xbcd1dba1	-0.025617423
66	0x3e59db8d	0.21275158
67	0xbda48ffe	-0.08035277
68	0x3e56e433	0.20985489
69	0xbdf9fd85	-0.12206558
70	0xbe30291c	-0.17203182
71	0xbe2f2901	-0.17105485
72	0x3f22168d	0.6331566
73	0x3e05d6e7	0.1307026
74	0xbda379b2	-0.07982196
75	0xbe8b0969	-0.27155617
76	0xbe4a07ad	-0.1972949
77	0xbea4ed1d	-0.32212153
78	0x3eb9d7ee	0.36297554
79	0x3db9c206	0.0907021
80	0x3e4e30ce	0.20135805
81	0xbeae3158	-0.3402202
82	0xbf3e1c27	-0.7426171
83	0x3e89a07f	0.2688026
84	0x3ed3c5e7	0.41361925
85	0x3ea23d0e	0.31687206
86	0x3ec39b62	0.38204485
87	0xbef7622f	-0.48317096
88	0x3f769c09	0.9633184
89	0xbf019cf9	-0.50630146
90	0xbf0cebbd	-0.5504721
91	0x3e87517e	0.2642936
92	0x3d015a04	0.031579986
93	0x3f4489b0	0.76772594
94	0xbda2b227	-0.07944136
95	0x3c2eafd7	0.010662041
96	0x3c8f0541	0.01745856
97	0xbe5dfc86	-0.21678361
98	0xbe725006	-0.23663339
99	0xbf13f1e3	-0.57790965
100	0x3d00203c	0.03128074
101	0x3c4ec5dd	0.0126204165
102	0xbcbf7e28	-0.023375586
103	0x3ec22176	0.37916154
104	0xbdb88d90	-0.09011376
105	0xbf3c185d	-0.73474675
106	0xbea050a0	-0.31311512
107	0x3e025ebf	0.12731455
108	0x3f85e008	1.0458994
109	0x3ea2a4ac	0.3176626
110	0xbc6fe618	-0.014642261
111	0x3ecb019b	0.39649662
112	0xbdb7e3fa	-0.0897903
113	0x3e691a57	0.22763954
114	0x3e8dadaf	0.27671573
115	0xbe9a14ec	-0.30094087
116	0x3e49884c	0.196809
117	0x3e154114	0.14575607
118	0x3ed5e23f	0.41774175
119	0xbefec22b	-0.49757513
120	0xbf094b55	-0.5363057
121	0x3f2691f8	0.6506648
122	0x3e499b96	0.19688258
123	0xbd1fb75d	-0.03899323
124	0xbf156d09	-0.583695
125	0xbecddc6e	-0.40207237
126	0x3e4cb56e	0.19991085
127	0x3f76d5e6	0.96420133
128	0xbe4f5065	-0.20245512
129	0x3e8de759	0.27715567
130	0x3e5b82d4	0.21436626
131	0xbe6a012b	-0.22852008
132	0xbe5bc000	-0.21459961
133	0x3d3568b9	0.044289324
134	0xbe3f2ff8	-0.18670642
135	0x3f609244	0.87723184
136	0x3e0b90d3	0.13629465
137	0xbe50ddb0	-0.20397067
138	0x3d923f08	0.071409285
139	0x3f2662a1	0.64994246
140	0x3d9a0b97	0.07521742
141	0xbedca6f5	-0.43096128
142	0x3f13dcc3	0.5775873
143	0x3ee7be38	0.45262313
144	0x3ee5cde2	0.4488364
145	0xbe88d7f8	-0.2672727
146	0xbea3191f	-0.31855103
147	0x3e525f16	0.20544085
148	0x3f204e69	0.62619644
149	0x3e8ef6c6	0.27922648
150	0x3ebe9aaa	0.37227374
151	0xbef46611	-0.4773412
152	0xbe4341ae	-0.19068024
153	0xbe2e09b9	-0.16995896
154	0xbee292a2	-0.44252497
155	0xbe574b73	-0.21024875
156	0x3d564a11	0.05231673
157	0x3f213afe	0.6298064
158	0x3d507b96	0.05089911
159	0xbcf81457	-0.030283136
160	0x3cf07a94	0.029355325
161	0x3f0ade87	0.542458
162	0xbe3b0aed	-0.18265887
163	0x3f44d6cf	0.7689027
164	0xbe71a3be	-0.23597619
165	0xbd01b6a3	-0.031668317
166	0x3d13cad2	0.036082096
167	0x3eb1fa39	0.34761217
168	0x3f0bac16	0.5455946
169	0x3ef2fb85	0.4745752
170	0x3ee9ea48	0.45686555
171	0xbe3d3368	-0.18476641
172	0xbef9f74b	-0.48821482
173	0x3d657de9	0.05602828
174	0x3da8846f	0.08228385
175	0xbea70e54	-0.3262812
176	0x3e4d9228	0.20075285
177	0x3e779ea6	0.24181613
178	0xbe7083fb	-0.23487847
179	0xbecdf9aa	-0.4022954
180	0xbe9b3c68	-0.30319524
181	0xbe56ef7d	-0.20989795
182	0x3e9fc5c3	0.31205568
183	0xbf230e87	-0.6369404
184	0xbe85ed47	-0.2615759
185	0xbc903e20	-0.017607749
186	0xbeced251	-0.40394834
187	0xbd790a99	-0.060801122
188	0x3f1ebacc	0.6200378
189	0xbf100076	-0.56250703
190	0x3d9b9c5f	0.07598185
191	0xbf237daa	-0.63863623
192	0xbee35839	-0.44403246
193	0xbda5e04f	-0.08099424
194	0xbd1458cb	-0.036217492
195	0x3d661ce4	0.056179896
196	0xbed9dff1	-0.42553666
197	0xbecd3ed2	-0.4008699
198	0xbe5bffcd	-0.21484299
199	0x3e43075a	0.19045773
200	0x3f09f255	0.53885394
201	0x3e89ecf7	0.26938602
202	0xbbdd02f8	-0.0067447387
203	0x3f3600fc	0.7109525
204	0x3ef12222	0.47096354
205	0xbc81bf84	-0.015838392
206	0xbeac19b0	-0.33613348
207	0x3e9abc53	0.30221805
208	0xbf32fd8e	-0.69918144
209	0x3eace011	0.337647
210	0xbeab832c	-0.33498514
211	0x3f42291e	0.7584399
212	0x3e991585	0.2989923
213	0xbdbfe36d	-0.0936955
214	0xbd87c0bb	-0.06628557
215	0x3ece8563	0.4033614
216	0xbf8f434c	-1.1192412
217	0x3f0360a2	0.51319325
218	0xbd257e05	-0.040403385
219	0xbe997464	-0.29971611
220	0xbecac7ea	-0.39605647
221	0xbef88c99	-0.48544767
222	0x3e2f53bb	0.17121784
223	0x3c2844ab	0.010270278
224	0x3e6bf5e1	0.23043014
225	0xbd5fcf2c	-0.054640934
226	0xbdbcea6f	-0.09224402
227	0x3e399c9b	0.18126146
228	0xbc00df93	-0.007865804
229	0x3f2a71c8	0.66579866
230	0x3f84e6de	1.0382955
231	0xbec41a77	-0.3830144
232	0x3e7f35b2	0.24922827
233	0x3e0bcf75	0.13653357
234	0x3e86d496	0.26334065
235	0x3f2607b1	0.64855486
236	0xbddf4355	-0.109015144
237	0x3c2da64a	0.010598728
238	0x3ec9376f	0.39300105
239	0xbf1aeb2e	-0.60515106
240	0x3dd13afd	0.10216329
241	0xbe7851f1	-0.24250008
242	0xbed9cf73	-0.42541084
243	0x3e80b351	0.25136808
244	0xbe143aed	-0.14475603
245	0xbe964100	-0.29346466
246	0x3d951e29	0.07281143
247	0x3edcebc1	0.43148616
248	0x3fc396d5	1.5280405
249	0x3f78beae	0.97165954
250	0xbeef0674	-0.4668461
251	0x3f056856	0.5211233
252	0xbe69a2e6	-0.22816047
253	0x3e9e4c1d	0.30917445
254	0xbed5a37b	-0.41726288
255	0x3da43472	0.08017816

weight f4 [16]
0	0x4098d26f	4.7756877
1	0x4095f4cc	4.6861324
2	0x40b989e0	5.7980804
3	0x40e586ef	7.1727214
4	0x40d44463	6.633348
5	0x40d52283	6.660463
6	0x40810d43	4.032869
7	0x408ef305	4.4671655
8	0x4090377c	4.506773
9	0x409e39bc	4.9445477
10	0x4087c813	4.243173
11	0x406ee0b7	3.7324655
12	0x40a48563	5.1412826
13	0x40b9389b	5.78816
14	0x409aa86a	4.8330584
15	0x40a93cc3	5.288667
