HW2/aML/R6_btnk_4ch8.pt (torch, 72398 bytes, 47 tensors)

weight f4 [4, 3, 7, 7]
000000 66 4d 54 3e 3a dd 21 3d 35 92 a0 bc 7d ba 5a 3e
       0.2073265 0.03951762 -0.019600967 0.21360202
000010 7b 76 83 3e dc bc 33 3e 82 15 00 3f 33 fb 81 3e
       0.2567633 0.17552513 0.5003282 0.25386962
000020 ad ba 14 3e c6 6c 99 3e 71 4f 45 3e 78 65 70 3e
       0.14524336 0.299658 0.19268586 0.23476207
000030 12 10 25 3e 6f b1 44 3e 79 a5 af 3e 78 1f 66 3e
       0.16119412 0.1920831 0.34305933 0.22472942
000040 1d 67 74 3e cf 3e cf 3d 8c 7e 75 3e c6 11 ca 3d
       0.2386746 0.10119402 0.23974055 0.09866671
000050 67 20 2d bd c4 10 5e bd ff ea 62 3e 44 1c a2 3c
       -0.04226723 -0.054215208 0.22159956 0.019788869
000060 8c 09 bd 3d 64 9f 7d bc d4 37 69 be c1 66 5c be
       0.092303365 -0.015479896 -0.22775203 -0.21523573
000070 63 75 b4 be 39 5c 87 be fb d1 85 be 54 8b bb be
       -0.3524581 -0.26437548 -0.26136765 -0.36629736
000080 aa c6 ec be 44 e5 92 be 6a e0 da 39 55 42 13 be
       -0.4624532 -0.2869054 0.00041747402 -0.14380772
000090 68 c4 ec be 51 db d3 be 4d 9e 39 be f3 4d ce bd
       -0.46243596 -0.41378263 -0.18126793 -0.100734614
0000a0 84 75 84 3c de e4 80 3e e2 ce 3f 3c dd 54 ae 3d
       0.016169317 0.25174612 0.01170704 0.0851228
0000b0 d3 c1 03 3d b9 d8 6c bc f8 07 ff bc 05 b5 55 3b
       0.032167267 -0.014455968 -0.03113173 0.0032609117
0000c0 15 1b 20 be da cc 42 3e 0d 40 bc bc 01 7f a7 bd
       -0.15635331 0.19023457 -0.02297976 -0.08178521
0000d0 f0 17 3e 3e 46 7c 4a 3e e2 e9 35 3e b0 6b ea 3e
       0.18563819 0.19773969 0.17765 0.45785284
0000e0 bd 97 2a 3e 36 53 52 3e 3c 5b a1 3e 85 17 17 3e
       0.16659446 0.20539555 0.3151492 0.14755066
0000f0 07 11 76 3e 30 61 c6 3d f0 51 ad 3d 96 9a 54 3e
       0.24029933 0.09686506 0.08462894 0.20762095
000100 a5 8f 8d 3e c3 2f 52 3e fe 05 0c 3e 6d 22 46 3e
       0.27648655 0.20526032 0.13674161 0.1934907
000110 be 67 da 3c f3 0d c5 bc 4b e1 58 bd 06 89 c4 3d
       0.026660796 -0.024054503 -0.05294923 0.09596448
000120 b9 b2 e0 3c 17 f0 fd 3d bf 4c c5 3c 29 d5 a9 be
       0.027428972 0.12399309 0.024084447 -0.3317044
000130 dd ac b8 be 28 e9 c9 be 8c b0 40 be 6f 7a 4f be
       -0.36069384 -0.39435697 -0.18817347 -0.20261548
000140 6a 8a d9 be 00 73 e5 be d0 77 a5 be 16 13 bb bc
       -0.42488414 -0.448143 -0.32317972 -0.02283625
000150 c9 6a 15 be e5 ea 9d be 5c 74 f5 be b3 45 88 be
       -0.14591517 -0.30843273 -0.47940338 -0.26615676
000160 67 96 54 bd 51 0e 07 3e c4 6d 69 3e ad 02 ba 3b
       -0.051901247 0.13189055 0.22795779 0.0056765885
000170 81 02 21 3b 4a 82 32 bc 0c 84 0b 3e 39 7b e9 3d
       0.0024568143 -0.010895321 0.1362459 0.11400456
000180 2b a2 11 3d 11 de 12 be a7 ac 21 3e 7d 77 ae 3d
       0.035555046 -0.14342524 0.15788518 0.08518884
000190 8a dd 3d 3a a6 18 47 3e cb 10 47 3e 38 bb 62 3e
       0.000724279 0.19442996 0.1944 0.22141731
0001a0 d4 e5 10 3f cc 52 7d 3e c7 cf 5c 3e a9 53 23 3e
       0.5660069 0.24738616 0.21563636 0.15949883
0001b0 6b 1e 2c 3e 39 24 6b 3e 7b b4 de 3d 10 1e 14 3d
       0.16808479 0.22963037 0.10874268 0.036161482
0001c0 ea 11 8e 3e c3 5a 0d 3e 97 5c 1c 3e bc 57 66 3e
       0.27748042 0.13804154 0.15269695 0.22494406
0001d0 c3 9b 8c 3e 9b 65 a5 3d 63 a1 8b bd d7 73 b2 bb
       0.27462587 0.0807602 -0.068178914 -0.005445938
0001e0 e7 c0 98 3d 94 0a 87 bc 83 0d e3 3d 38 43 39 bd
       0.07458668 -0.016484536 0.110865615 -0.04523012
0001f0 0a ef 45 be 85 7b 6b be 54 91 c9 be e7 b2 4d be
       -0.19329467 -0.22996338 -0.3936869 -0.20087777
000200 bb fb 37 be 20 ff b4 be ab 1a d7 be 1c 5b ab be
       -0.17967121 -0.35350895 -0.42012534 -0.33467948
000210 e6 42 83 bc b3 8c 02 be 1c 69 d6 be 41 7f c7 be
       -0.01602311 -0.12748985 -0.41877067 -0.38964275
000220 92 8e 85 be 9a 8c 2b 3c 7d 32 f1 3d c7 86 3b 3e
       -0.26085335 0.010470534 0.11777208 0.18313132
000230 c4 d8 2a 3d 8a 78 77 3c ee 3e f7 3d 30 05 d8 3c
       0.04171063 0.015104422 0.1207255 0.026369661
000240 56 2e e0 3d 05 25 05 3d 9f 4a 7d be 07 5b 09 bd
       0.10946338 0.032506008 -0.24735497 -0.033534076
000250 bb 9a 56 3e 5c 31 52 3e c1 0c 42 3e 19 d3 62 3e
       0.20957462 0.20526642 0.18950178 0.2215084
000260 d8 10 66 3e a9 be 62 3e 85 43 9e 3d 38 f1 ac 3d
       0.22467363 0.22143044 0.07727722 0.08444446
000270 ab 5f 12 3e 67 09 a5 3d ab a6 6c 3e 79 cf 66 3e
       0.14294307 0.08058434 0.23110454 0.22540082
000280 54 fe 2d 3e 58 9d 36 3e 1b 37 c3 bc 55 0a 60 3e
       0.1699155 0.1783346 -0.023829987 0.21878941
000290 d6 7c 68 3e e0 59 ad 3e cc 0e 7b 3e b4 1a b4 3e
       0.22703871 0.33857632 0.24517363 0.35176623
0002a0 ea aa bd bd 70 50 9d be d5 0d af 3d 91 f2 32 3e
       -0.09261115 -0.3072543 0.0854756 0.17475344
0002b0 3b 74 9a 3e 12 2b 85 3e 3b b5 91 3d 03 2d dd bc
       0.30166802 0.26009423 0.07114645 -0.026999002
0002c0 80 7c 98 bd 9b 17 b2 3e 5f c9 14 3f af 66 91 3e
       -0.074456215 0.34783635 0.5811977 0.28398654
0002d0 24 03 70 3e de 19 ae 3e a3 7a 23 3e 01 ca 7f 3d
       0.23438698 0.3400411 0.15964751 0.062448505
0002e0 fa b4 69 3e 90 99 15 3f 8f 58 4b 3c 66 7f a1 3d
       0.22822943 0.5843744 0.012411251 0.078856274
0002f0 7a 2b 89 3e 70 35 9d bd 1a f0 a0 3c d3 67 c9 3e
       0.26790982 -0.07676208 0.01964574 0.39337024
000300 bf f9 39 3f 8c ea 8b 3e 27 2d 2f 3d 54 2d 81 3e
       0.7264671 0.27327383 0.04276767 0.25229895
000310 79 97 53 bb db fa 5a 3e 06 cb 07 3e bd 2d 65 3e
       -0.003228633 0.21384756 0.13261041 0.22380729
000320 64 90 6c 3e 54 82 2f 3e 76 3a 95 3e c5 fd ca 3b
       0.23101956 0.1713956 0.29146165 0.0061948025
000330 4e 6f df 3d c9 10 84 3d 5c 6f 46 3e 19 41 9b 3e
       0.109099016 0.06448514 0.19378418 0.30323103
000340 6e d2 03 3e 43 33 06 3e 60 8b 9a 3e 79 51 9a 3c
       0.12873241 0.13105492 0.3018446 0.018837677
000350 5d 23 77 3e 90 f5 93 3e f5 04 c1 3e 53 c0 7e 3e
       0.24134584 0.28898287 0.37699094 0.24878053
000360 5e d0 d5 3e 58 18 17 be cb ec bb be 9c bc 06 bd
       0.41760534 -0.1475538 -0.36704096 -0.032894716
000370 b0 e3 24 3e 94 dc a8 3e 10 d8 71 3e 38 f3 70 bc
       0.16102481 0.32980788 0.23617578 -0.014706425
000380 03 b4 8c 3c 53 96 a5 bd 70 a8 d1 3e 0a af 09 3f
       0.01717568 -0.08085313 0.4094882 0.53782713
000390 10 d0 8b 3e f9 92 15 3e fd c4 bd 3e f4 f4 30 3e
       0.27307177 0.14606847 0.37064353 0.17280942
0003a0 90 5e 80 3d 8e da 9d 3e 90 22 16 3f 8b 07 69 3c
       0.06268036 0.30830806 0.5864649 0.01422299
0003b0 98 f0 22 3d f1 c8 72 3e 38 9c 20 bd 88 5a 24 3d
       0.03978023 0.23709466 -0.03921148 0.0401254
0003c0 36 64 ab 3e 59 4e 2b 3f 10 19 b8 3e 73 dd c3 3d
       0.33474892 0.66916424 0.3595662 0.095637225
0003d0 32 09 b5 3e 60 14 6b bd ad f1 3c 3e 5c ae 31 3e
       0.35358578 -0.057392478 0.18451567 0.17351669
0003e0 9b cc 73 3e 4b 99 a8 3e a6 28 68 3e ba fe 2b 3e
       0.2380852 0.32929453 0.22671756 0.16796389
0003f0 33 b2 cb 3d b7 b2 27 3e 7a 72 de 3d 27 62 5e 3d
       0.09946098 0.16376768 0.108616784 0.054292824

weight f4 [4]
000000 0b ad 82 3f df 07 92 3f b4 69 6d 3f 45 2c 57 3f
       1.0209059 1.1408652 0.92739415 0.84051925

bias f4 [4]
000000 e8 75 91 3d bd ef aa 3e 07 7c c7 3c b6 fa 1e 3e
       0.07102567 0.3338603 0.024351133 0.15525326

running_mean f4 [4]
000000 91 c0 ee 40 c3 09 d0 42 2b ae 5d 41 9c 7f b8 41
       7.4610066 104.019066 13.855021 23.06231

running_var f4 [4]
000000 8d 85 03 47 c9 84 b9 48 e6 12 3c 47 b0 02 e6 46
       33669.55 379942.28 48146.9 29441.344

weight f4 [8, 4, 1, 1]
000000 19 97 e1 be 5d 9b fd 3c 33 8f 91 3e de 0a 11 3f
       -0.4406059 0.030957872 0.28429565 0.56657207
000010 90 17 51 be b3 66 89 3f 99 a2 0b 3e f1 50 6e be
       -0.20419145 1.0734466 0.13636245 -0.23273064
000020 91 9b 52 3f db b1 66 bc 73 4e be 3e e4 75 77 3e
       0.82268625 -0.01408049 0.37169227 0.24166065
000030 9f 4c f7 be a2 07 b3 be 2c 69 83 be dd d5 f5 bd
       -0.48300645 -0.3496676 -0.25666177 -0.12003682
000040 21 8b 80 3e d0 c0 03 be dc 7d 83 be 40 df 39 3f
       0.25106147 -0.12866521 -0.2568196 0.7260628
000050 66 f4 19 3f d9 a2 2c bd 4e a7 02 3e bb f8 01 bf
       0.6013855 -0.04214749 0.12759134 -0.5077016
000060 35 72 79 bd 88 c3 f6 3e 5a 4f 31 be 16 28 42 be
       -0.060899932 0.48196054 -0.17315426 -0.18960604
000070 d0 7e 9f bd 0a 91 7e 3e 86 97 75 3f fb 76 6e be
       -0.077878594 0.24860016 0.9593433 -0.23287575

weight f4 [8]
000000 4d 8d 50 3f ca 0a 88 3f 4d 1d 62 3f 0a 26 04 40
       0.8146561 1.0628293 0.8832596 2.0648217
000010 9c 65 7d 3f f1 44 76 3f 52 14 87 3f 9b b8 85 3f
       0.9898317 0.96198946 1.0553076 1.0446962

bias f4 [8]
000000 32 fc 6c 3e 26 76 d4 3e d8 3d 0d 3f 02 ac b0 3e
       0.2314308 0.4149639 0.5517249 0.34506232
000010 4e 80 0c 3f 26 cb 1f 3e db 29 07 be 0b c1 05 3e
       0.5488328 0.15604839 -0.1319956 0.13061921

running_mean f4 [8]
000000 2e 33 19 3e 90 07 dc 3e d5 57 d6 3e 0b 58 d8 be
       0.1496093 0.4297452 0.41863886 -0.4225467
000010 0c 6a 32 3e e8 4b 02 3d 39 08 df 3d d0 76 92 3e
       0.17423266 0.03181067 0.1089024 0.28606272

running_var f4 [8]
000000 a2 ea 40 3f 56 3d 03 40 13 da 5b 40 0a 64 27 40
       0.7535802 2.0506186 3.4351852 2.615481
000010 7a 2d 1d 3f 27 13 24 3f 70 f7 41 3e 40 0d f4 3f
       0.61397517 0.64091724 0.18942046 1.9066544

weight f4 [8, 8, 3, 3]
000000 57 d1 a5 3e c6 0d 4e 3e 80 ba 78 3e 81 17 f3 3d
       0.32386276 0.20122442 0.24289894 0.118697174
000010 d3 e8 b2 bd e2 36 15 3e bb 82 0d 3d 33 a5 50 bd
       -0.08735814 0.14571717 0.034548502 -0.050938796
000020 9f 53 26 3e 25 ec 0b be f5 66 c4 bd 02 f6 25 3e
       0.16242836 -0.136643 -0.0958995 0.16207126
000030 68 58 e9 bd 42 76 af bc 7a 60 ee bd 16 46 9d 3e
       -0.11393815 -0.021418694 -0.11639495 0.30717534
000040 eb ca 8c 3d 4c 8a 87 3e 79 8f a1 3e c3 ea 4d 3e
       0.06874641 0.264727 0.31554773 0.20109086
000050 fa 1c 6b 3c 2a 15 90 3d 09 d4 c6 be 59 52 c5 bd
       0.01435017 0.07035287 -0.38833645 -0.09634847
000060 ee bf 03 3f a6 35 a3 3e ab 6f 23 be 3b 11 83 bf
       0.51464736 0.31876868 -0.15960567 -1.0239633
000070 eb b0 cd be f6 71 27 bf e7 b2 2a bf 0a f2 ef 3e
       -0.4017404 -0.65408266 -0.66679233 0.4686435
000080 37 33 b4 be 07 ec dc be b1 87 eb be df 52 7a be
       -0.35195324 -0.43148825 -0.46001962 -0.24445675
000090 49 ec 35 3f fa 3d 8f 3e 51 6d 51 3c c7 a0 20 3f
       0.7106367 0.27976972 0.012782411 0.62745327
0000a0 51 bd 24 be eb f9 fb 3e 31 bc 9b 3e f9 8e dc 3b
       -0.16087843 0.4921411 0.30417016 0.006730911
0000b0 9b e4 19 3f 9f ce 87 3d d4 d8 ab 3e 58 52 c1 3e
       0.6011445 0.06631207 0.33563864 0.37758136
0000c0 06 c8 21 3e 26 09 34 bb 01 2c ef 3e e3 d5 75 bd
       0.15798959 -0.0027471273 0.4671326 -0.06001843
0000d0 14 d3 d1 3d 59 6c bd 3c 39 f7 69 be 5f 4a 6c be
       0.10245338 0.023122953 -0.22848214 -0.23075245
0000e0 aa 14 6f 3d f0 61 97 be ea e4 ae 3d 1d c1 17 be
       0.058369316 -0.29566908 0.08539756 -0.1481976
0000f0 fa 7c f1 bd a0 bc e9 bd a4 06 0c 3e 29 f9 18 be
       -0.117914155 -0.114129305 0.13674408 -0.14938797
000100 8b 1c 3f be ac 7a 35 3d ed 0e 75 be bf bc 64 bd
       -0.18663232 0.044306442 -0.23931475 -0.055844065
000110 30 db f0 be 1c 04 35 3e 95 8e 22 3d e8 2a 80 be
       -0.47042227 0.17677349 0.039686758 -0.25032735
000120 f6 ac 65 3e bb 0f f4 bc 99 d0 02 3e d7 c0 e6 3a
       0.2242926 -0.029792657 0.12774886 0.0017605078
000130 fb f4 56 3e 35 c5 5c 3e 65 ce 53 bf b4 6c 87 be
       0.2099189 0.21559604 -0.8273681 -0.2645012
000140 55 b8 ae be f5 b0 03 3d be 2a e6 3e 5b 82 bc 3d
       -0.3412501 0.03215118 0.44954485 0.09204551
000150 00 5e af 3d 3f bf 25 3e fc be 14 bd 3f 43 f5 be
       0.08562851 0.16186236 -0.03631495 -0.47902867
000160 e2 f6 55 be c5 dc 40 bf ec 82 30 bc 46 ef ca 3d
       -0.2089496 -0.7533687 -0.010773402 0.09908919
000170 5e 37 4e 3e 17 3b b0 bd 51 18 10 3e cb d1 e7 3d
       0.20138308 -0.086050205 0.14071776 0.11319312
000180 a1 e3 a4 be 35 7f aa bc 3b 0c 76 bd 2b bf e5 3d
       -0.32204917 -0.02081261 -0.060070258 0.11218103
000190 c8 f0 81 be 60 6d 25 bf da 8a 44 3f bc e8 0f bf
       -0.25379014 -0.6462002 0.7677437 -0.562145
0001a0 ef ae 54 be 57 2a 2e 3e 97 53 bf be d0 de 01 3f
       -0.20769857 0.17008339 -0.3736846 0.5073061
0001b0 dd dc 8e 3d db 75 23 ba f6 0e 0d 3e 15 ea b0 bd
       0.0697572 -0.00062355184 0.13775238 -0.086383976
0001c0 7c af 96 3e e9 f1 8f 3d b2 0a 27 bf b0 b2 7c ba
       0.2943076 0.070285626 -0.65250695 -0.00096396636
0001d0 af 57 78 be 5e 34 6f 3c af 68 23 be 8c 15 a5 be
       -0.24252199 0.014599888 -0.15957902 -0.32243
0001e0 de c4 d1 bd 87 2c b8 bc 29 c9 6a bd e2 c2 a5 3e
       -0.102426276 -0.02248217 -0.057320748 0.32375246
0001f0 94 51 3e 3e 12 1b 05 3e a4 d3 20 be 55 be b6 3e
       0.18585807 0.12998608 -0.15705734 0.35692087
000200 7d 91 74 3e 7e 15 18 3e 91 fb 1e 3e 15 36 18 be
       0.23883624 0.14851949 0.15525652 -0.1486438
000210 9e 5b 09 3e 91 84 f0 3d 69 8c 87 be e9 f4 f6 3d
       0.13413855 0.11744035 -0.26474312 0.12058432
000220 95 5a 74 3e 46 c4 ad 3e dc 0d 2f bd af 49 b2 3d
       0.2386268 0.33938807 -0.042737827 0.0870546
000230 56 3e 81 3e 75 6d e1 be dd 76 bd be 71 8c 9d be
       0.2524287 -0.44028822 -0.37004748 -0.3077121
000240 28 28 66 3c e3 96 24 be 2f 60 a7 be f5 12 89 be
       0.01404766 -0.16073184 -0.3269057 -0.26772276
000250 bc 9a 58 be 47 35 b5 3d 45 84 39 be 30 56 5f bd
       -0.21152776 0.088480525 -0.18116863 -0.054525554
000260 f6 f0 cd bd c3 0e c4 bd a7 a2 5d 3c 80 43 75 be
       -0.10055725 -0.09573128 0.013527549 -0.2395153
000270 a1 38 9d bd 08 ba 27 bf b0 a5 c5 bd f6 68 71 be
       -0.07676817 -0.65518236 -0.09650743 -0.23575196
000280 0c c3 a3 bd 73 35 32 3d 52 59 9b 3e 9f 61 8d 3e
       -0.079961866 0.043508004 0.30341583 0.2761354
000290 40 67 5e be a2 d1 97 3e 07 55 47 3e cd 31 3c bf
       -0.21719074 0.29652125 0.19466029 -0.7351349
0002a0 3d 9d cc bb e3 05 b1 bc e2 9c 14 bf 58 64 45 be
       -0.00624433 -0.021609252 -0.58051884 -0.1927656
0002b0 81 5c 36 bd 41 65 82 3d c1 e9 09 bf 38 17 a5 be
       -0.044521812 0.06366969 -0.53872305 -0.32244277
0002c0 b1 0f 8c 3e a2 83 c9 bd 44 0c 8b 3e ff 90 8d bd
       0.27355722 -0.0983956 0.27157795 -0.069124214
0002d0 da 79 09 bd fe 6a d3 3e e9 7e ac bd 45 16 9c 3e
       -0.033563472 0.41292566 -0.08422644 0.3048574
0002e0 c1 09 da bd d3 2a 3e be 25 05 04 3e 90 7e b4 bd
       -0.10646392 -0.18571024 0.12892587 -0.088132024
0002f0 e9 c8 5b be f7 5e 97 be f7 84 5f 3e d0 66 dc bd
       -0.2146336 -0.2956464 0.21828066 -0.107617974
000300 d3 f9 64 be f1 a8 21 bd c3 41 28 be 38 6a a8 3e
       -0.22360925 -0.039467756 -0.16431336 0.32893538
000310 1a 01 c7 3e c5 c9 c0 be 42 0f 9c bf 86 1e 86 3f
       0.38868028 -0.37653938 -1.2192156 1.0478065
000320 22 3a 5b 3e 69 0a 9f be bd 0a 68 3c 4b c1 a3 3e
       0.21408895 -0.3106263 0.014162716 0.31983408
000330 e0 1d 64 be 93 93 8d 3e a3 34 00 3f 8e 20 a0 3e
       -0.22277021 0.27651653 0.5008032 0.31274837
000340 9a c6 f3 be 1c 60 0e bf 4e 27 17 3d 53 37 ad 3c
       -0.47612458 -0.556154 0.03690272 0.021144545
000350 f1 9c 96 be 02 1f 46 bf a8 c2 f4 bd 61 6c ba bd
       -0.29416612 -0.77391064 -0.1195119 -0.09102703
000360 b3 d7 a5 be 10 c5 36 be 82 6f 2c 3c e8 8b b1 be
       -0.32391128 -0.17848611 0.010524632 -0.34677052
000370 60 97 9d 3e 54 ac 0e 3f 9c 77 7d be e3 18 39 bf
       0.30779552 0.557317 -0.24752659 -0.723036
000380 e1 f7 4a bd 02 14 ac be ba 46 45 be c5 7f 48 be
       -0.049552802 -0.33609015 -0.19265261 -0.1957999
000390 d6 c3 2d be 23 2c e5 3d c7 23 39 3e 29 8e 03 bf
       -0.16969237 0.11190059 0.18080054 -0.51388794
0003a0 d7 e8 a7 be 40 1a 4e bd 4d f0 b3 bc f9 2b 4b 3e
       -0.3279483 -0.050318003 -0.02196517 0.19840993
0003b0 b7 a5 ca be 6c 6f 1c 3d b1 9d 08 ba 59 02 09 3d
       -0.39579555 0.038192198 -0.0005211486 0.033449505
0003c0 ea 4d 28 be c4 31 00 3e a9 fd 53 bd cf a6 bd bd
       -0.16435972 0.12518984 -0.05175558 -0.09260332
0003d0 28 90 0c 3d 45 d2 b2 3e 6b 24 33 3d ca cf a5 be
       0.034317166 0.34926048 0.043735903 -0.32385093
0003e0 53 98 6d be e2 08 37 3e 63 d6 a5 3d a2 00 b3 3c
       -0.23202638 0.17874482 0.08097532 0.021850888
0003f0 0c 2a 38 be 58 28 d7 3d 99 74 1a 3d f5 13 39 be
       -0.1798479 0.10505742 0.037708852 -0.18074019

weight f4 [8]
000000 7c f5 69 3f 7c ab 8f 3f 24 6d 6f 3f 4a 00 be 3f
       0.91390204 1.1224208 0.9352591 1.4843838
000010 a6 00 86 3f 70 5e 92 3f 34 74 77 3f a5 49 73 3f
       1.0468948 1.143507 0.96661687 0.9503425

bias f4 [8]
000000 51 89 6e be a1 85 bb be ef a8 49 3f 33 d0 29 bd
       -0.2329457 -0.36625388 0.787734 -0.04145832
000010 8c a6 8e bd 44 1a d1 3e 1a 9e 8b 3d e2 22 ad bd
       -0.0696536 0.40840352 0.06817265 -0.08453919

running_mean f4 [8]
000000 3a 1b 9d be ec 62 61 bf dc 3f f4 bf ba 6c cb bf
       -0.30684835 -0.8804157 -1.9081988 -1.5892556
000010 b3 1c 4b 3f 67 67 a5 bf 70 23 45 bf c2 06 b8 3f
       0.79340667 -1.2922181 -0.770072 1.4377062

running_var f4 [8]
000000 4e fe 46 41 95 5d cd 40 b9 34 87 41 8d 65 d7 41
       12.437086 6.4176736 16.900743 26.924585
000010 cf 2d 0f 41 5f 88 c8 41 26 b0 e8 40 58 00 eb 40
       8.948684 25.066587 7.2715025 7.343792

weight f4 [32, 8, 1, 1]
000000 e6 3b d0 3d e5 4d 19 bd c6 5e ec bd cf 65 0a 3f
       0.10167675 -0.0374278 -0.11541514 0.540616
000010 e4 cd 1c bf 5e c9 aa 3e c3 c5 87 be 79 75 8e 3d
       -0.61251664 0.33356756 -0.26518068 0.06956
000020 c7 d6 60 be ef 92 19 be fa 94 ea 3e 9e c9 74 be
       -0.21956931 -0.14997457 0.45816785 -0.23905036
000030 00 b4 17 3f 07 8f 10 3d 33 42 83 3d 68 b2 38 be
       0.59259033 0.03529265 0.06409111 -0.18036807
000040 6e c5 0d bf 69 90 9d 3d f1 be 07 be 97 a3 ca bd
       -0.5537938 0.0769356 -0.13256432 -0.098944835
000050 42 9b 08 bd 29 11 90 be bf ff 8c bc ad 95 2b bf
       -0.03335119 -0.28138092 -0.017211793 -0.6702526
000060 de 71 a3 be 74 cf 27 be 97 5f b8 be 7c 41 3c 3d
       -0.3192281 -0.16387731 -0.3601043 0.04596089
000070 24 47 50 3d ee 7f 17 bf ac f6 e3 3b a2 1b e7 be
       0.050849095 -0.5917958 0.006956896 -0.4513827
000080 17 f0 03 3f c8 ec a5 3e 3a 24 f7 3e fa 7a ae bd
       0.51538223 0.32407212 0.48269826 -0.0851955
000090 29 60 97 be b0 ea 65 3e ff ec 3c be a5 ad 69 3e
       -0.29565552 0.22452807 -0.18449782 0.22820146
0000a0 25 b4 0e bf 0b 5f 1c 3d 74 6b 73 be c2 2a 94 3e
       -0.5574363 0.038176578 -0.23771459 0.28938872
0000b0 6c 5c fa 3e de 5a ad 3e d3 82 bc 3e 5f 11 ce bd
       0.48898637 0.3385839 0.3681856 -0.10061907
0000c0 1b 37 73 bd e4 37 c4 be 86 5d 1d bf 06 97 23 3f
       -0.059378725 -0.3832389 -0.6147083 0.6390232
0000d0 b1 38 95 3c c9 ce 44 3f 42 da 17 bf 2a 7d b7 3e
       0.01821551 0.7687803 -0.5931741 0.3583768
0000e0 02 d2 a6 be 5d a2 0a 3f 05 54 f9 3e d9 5b fc be
       -0.32582098 0.54153997 0.48696914 -0.49288824
0000f0 c0 da 21 3e 36 c3 85 be 56 d6 de 3e 9a e9 9c 3d
       0.15806103 -0.26125497 0.435229 0.076617435
000100 a0 b8 1f 3e f0 94 83 be ef b8 82 be 0b c2 d9 3e
       0.15597773 -0.25699568 -0.25531718 0.42530856
000110 a8 51 2e bf 7f 28 8c 3e fb c6 16 be 18 9a a5 3e
       -0.6809335 0.27374646 -0.14724343 0.32344127
000120 2b ba b6 3b 66 6c ce 3d 2e 2c ed bd 86 a2 6b bf
       0.005576392 0.10079269 -0.11580692 -0.92044866
000130 26 68 7e bd 36 87 38 bf 52 c0 8b 3e 0c 5b 66 3f
       -0.062111042 -0.72081316 0.27295166 0.89982677
000140 09 79 52 3e 5b fc d4 be 76 1e 8f be 2e 36 cb 3e
       0.20553984 -0.41598782 -0.27952927 0.39689773
000150 fb e3 12 bf 96 3c c1 3d 7b 14 93 bd 9e 1d bb 3e
       -0.5737912 0.09435384 -0.07181641 0.36546034
000160 97 c1 9e 3d 8a 2b 32 bf 4d 1c 21 bf ac a7 57 3e
       0.07751768 -0.69597685 -0.6293381 0.21060055
000170 23 25 33 3d 8f 3b 65 3e ac 28 41 3f 69 c8 5e 3e
       0.04373659 0.22386001 0.75452685 0.21756138
000180 29 5a 12 3c 28 0b 2c 3e a8 3c 37 bf b4 59 e0 be
       0.008932629 0.16801131 -0.7157693 -0.43818438
000190 5c c9 73 be 35 f6 23 3f bd 4d 0e 3e e9 77 ac be
       -0.23807281 0.6404756 0.13896842 -0.33685234
0001a0 96 2e 4a 3e ff 08 9c 3e a4 64 2f bf d2 f5 f6 be
       0.19744334 0.30475613 -0.6851294 -0.4823442
0001b0 b3 59 31 bf c1 6c 3b 3e 81 69 8d be 00 81 5d 3e
       -0.69277495 0.18303205 -0.27619556 0.21631241
0001c0 46 f4 f6 3b 81 52 70 3e 78 ac 1d 3f 3d 79 45 bf
       0.007536444 0.23468973 0.6159129 -0.7713812
0001d0 68 c7 62 3e a8 04 61 bf 31 b5 db be 65 ce 9d 3e
       0.2214638 -0.8789773 -0.42911676 0.3082153
0001e0 95 0c 59 be 23 cb c8 be 49 04 c6 bd 04 f7 a2 be
       -0.21196206 -0.3921748 -0.09668786 -0.31829083
0001f0 ca 30 9f 3d ad de bc bd 4c 66 0b 3f 3f e9 09 3f
       0.07772978 -0.092221595 0.5445297 0.5387153
000200 f4 c7 2c bf 2c ce 1c be d4 5a ac 3e 3d b3 20 3f
       -0.67492604 -0.15313023 0.33663046 0.62773496
000210 e0 6b 26 3e 1a 7d 58 be 58 27 2b be 64 a6 08 3e
       0.16252089 -0.21141472 -0.16714227 0.13344723
000220 89 df 34 3c 24 04 33 bf 3c 04 bf be 61 fa 87 be
       0.011039623 -0.69928193 -0.37307918 -0.2655821
000230 f2 b2 36 be 68 88 f8 be 25 18 de 3e 55 63 ae 3e
       -0.178417 -0.4854157 0.43377796 0.3406016
000240 4b d7 b4 3e b7 e2 ae 3e a3 ee 0b 3e f5 4c 9a 3e
       0.35320505 0.34157345 0.13665251 0.3013684
000250 81 4f e4 3e da a1 ce be 13 8e 45 bf 1f 50 94 be
       0.44591907 -0.40357858 -0.77169913 -0.28967378
000260 43 7e 69 3f ae 79 dc 3e c7 1a dd bb 88 5a 91 bd
       0.91208285 0.43061584 -0.006747577 -0.070973456
000270 cc 96 f6 bd 93 d2 07 3e 84 ee 7a 3e 21 a8 1f bd
       -0.12040481 0.13263921 0.24505049 -0.0389787
000280 40 d5 ea 3d 3f 36 9b 3e 1b 91 b6 be b9 a6 59 3f
       0.114664555 0.30314824 -0.35657582 0.85020024
000290 0b cd 6e be f2 ff 91 bd 71 a4 23 be 8c ae b6 be
       -0.23320405 -0.07128896 -0.15980698 -0.35680044
0002a0 21 0a e9 be 14 8c 67 3e b3 02 3a bf 2d 8d 93 3e
       -0.4551554 0.2261203 -0.7266037 0.28818646
0002b0 a0 78 15 3e 16 e6 50 be b2 3e 9f 3d 6f ee 38 3f
       0.14596796 -0.20400271 0.0777563 0.7223882
0002c0 10 2d 23 bf 22 34 a0 3e c2 44 b0 3e 63 02 21 bf
       -0.63740635 0.31289774 0.34427458 -0.62894267
0002d0 f4 e9 f3 be 33 2f 58 be ce 7b 71 3e b3 e9 68 3e
       -0.4763943 -0.21111755 0.23582384 0.22745399
0002e0 44 a7 8b be 82 c5 b6 bc d7 f7 cd 3d 39 a0 20 3f
       -0.2727605 -0.022310976 0.10057037 0.6274448
0002f0 ad 34 38 be d4 87 8b 3f 02 c3 63 be cd d1 23 3f
       -0.17988844 1.0900826 -0.22242358 0.63992006
000300 68 93 69 3d 97 6b e0 3e 8e f4 af be a4 c6 e9 3d
       0.057025343 0.43832085 -0.34366268 0.11414841
000310 6e 0c ac 3c 7e 35 0a be a4 03 5c be 76 2f 1b 3f
       0.02100202 -0.13496968 -0.21485764 0.60619295
000320 cf 7e 78 3e 12 18 5a 3e 89 78 83 be 1d e4 02 bf
       0.24267124 0.21298245 -0.256779 -0.51129323
000330 53 88 d0 3e 12 05 ef be 11 8d c8 be 8b 7a b8 be
       0.40729007 -0.46683556 -0.39170125 -0.36030993
000340 1e 1c 92 3e 9f 9e 48 3f 50 f3 bc bd 65 77 01 3f
       0.28537077 0.78367037 -0.09226096 0.50572807
000350 f7 90 f7 bc b3 fd d5 3e da 93 1a bf ca d0 53 3d
       -0.030220492 0.4179512 -0.60381854 0.05171279
000360 0b 37 8e 3e 57 8a 22 3f 51 1f ce bd c8 61 df be
       0.2777637 0.6349234 -0.10064567 -0.4362929
000370 b5 99 4f 3c 21 c1 99 be 82 88 d7 be 16 22 03 3f
       0.012670924 -0.30030158 -0.42096335 0.51223886
000380 9b cf 1a 3f cc 7d 7e be 97 d9 8a be 2c b4 1a 3f
       0.6047303 -0.24852675 -0.27119133 0.6043117
000390 f9 11 a9 3d 17 2a d3 3d bd 25 d8 3d 38 eb bd be
       0.08255381 0.103107624 0.10554073 -0.3709352
0003a0 e6 21 c2 be 2a 32 1c 3f f2 2e 76 be 45 f6 f1 be
       -0.37916487 0.61014044 -0.24041346 -0.472582
0003b0 30 3f f4 bd 73 8a bb 3e c8 4c 74 be fd 59 29 3e
       -0.119261146 0.36629066 -0.23857415 0.16538234
0003c0 d4 a8 17 bf 59 5d 10 3d c4 a5 3b 3f 74 96 46 bf
       -0.59241986 0.035245273 0.73299813 -0.77573323
0003d0 51 90 8b be 96 b8 89 be 37 b2 23 bc bf 1f 8f bc
       -0.27258542 -0.2689864 -0.00999122 -0.017471192
0003e0 bd e9 a9 bc de 6d dd 3e 5e 2b 2e be aa b9 b3 bd
       -0.020741338 0.43247885 -0.17008731 -0.08775647
0003f0 43 3d 87 3e 83 08 58 bd 3b 96 54 3f 57 44 15 bf
       0.26413926 -0.052742492 0.83041734 -0.58307403

weight f4 [32]
000000 19 fb a5 3f 40 a1 97 3f 49 11 b2 3f ed 2a 1b 40
       1.2967254 1.1846085 1.3911525 2.424495
000010 33 8a 94 3f 63 a6 8a 3f 0e 29 7b 3f ba e6 81 3f
       1.1604675 1.0832027 0.9810952 1.0148537
000020 35 a2 cb 3f 32 f1 49 3f 23 b1 a6 3f 21 6d bb 3f
       1.5908877 0.7888366 1.3022808 1.4642678
000030 8f bc bf 3f 8b 5d aa 3f 23 4d 80 3f 4d 8c 5d 3f
       1.4979419 1.3309797 1.002354 0.86542207
000040 70 2d 98 3f 7c 3c 47 3f 17 f8 98 3f a9 a6 4e 3f
       1.1888866 0.77826667 1.1950711 0.80723053
000050 24 6e ae 3f 52 b2 94 3f a6 20 ce 3f c5 e4 8f 3f
       1.3627362 1.1616919 1.6103714 1.124169
000060 8a 1a 23 3f 08 50 c7 3d 5b 9a 9c 3f ef 08 58 3f
       0.6371237 0.097320616 1.2234606 0.8438863
000070 a8 fd a2 3f f9 19 aa 3f 68 44 f6 3f 8f dc 88 3f
       1.273366 1.3289176 1.9239626 1.0692309

bias f4 [32]
000000 ca 41 18 3e 9a 0e d2 3e 7d e4 30 3e d5 cc aa be
       0.14868847 0.41026765 0.17274661 -0.333594
000010 ed 6f 32 bf 54 d9 b0 3d 0c 50 08 bf f0 aa 73 be
       -0.69702035 0.08635202 -0.5324714 -0.23795676
000020 f9 ca 17 be 4d 7e 44 bd 48 09 c2 3d 06 33 12 bc
       -0.14823522 -0.047972012 0.094744265 -0.008923298
000030 10 74 91 bd 6f 63 2c be 60 4f 6e bb 7f bc b3 be
       -0.07102215 -0.16834806 -0.003636323 -0.3510475
000040 7e af f7 3e 86 6e d5 3e b1 64 b5 be 6e a8 cd be
       0.48376077 0.41685885 -0.35428384 -0.40167564
000050 dc 96 ad 3e 56 30 27 be 4f 06 a0 3e ff 78 29 bf
       0.3390416 -0.16327032 0.31254813 -0.6620025
000060 2f ff d2 be 72 88 9e be ea de 8c 3c f6 47 2c 3f
       -0.41210315 -0.30963475 0.017196137 0.67297304
000070 b6 5d ed be 02 ae 87 be ca a3 bf ba 60 07 ec 3e
       -0.46360558 -0.26499945 -0.0014620956 0.46099377

running_mean f4 [32]
000000 62 32 c9 3d ee f9 d7 3e 1e 9b 13 bf 91 e8 54 bf
       0.09824063 0.4218287 -0.57658565 -0.8316737
000010 0a 70 23 3f 93 8d 01 3e e4 21 fd bc ac a1 90 3e
       0.63842833 0.12651663 -0.03089995 0.28248346
000020 40 8b 14 bd 53 0b 0f bf 5f e1 04 be 0a f2 4a be
       -0.03626561 -0.55876654 -0.12976597 -0.19818893
000030 59 c4 eb be 29 54 3e bf ee df 1d be fb a6 36 bd
       -0.4604824 -0.7434717 -0.15417454 -0.04459284
000040 f6 e7 73 3e 9b 39 20 bf b2 fc d7 bd f2 bc 96 3e
       0.23818955 -0.625879 -0.10546245 0.2944103
000050 e3 c5 77 be b7 8e 11 bf a3 8c 8c bd ba b1 6b 3f
       -0.24196582 -0.5685839 -0.06862762 0.92068064
000060 68 9c 79 be 5c fb 31 bf 95 f2 93 3e f1 d3 94 be
       -0.2437607 -0.6952417 0.28896013 -0.29067948
000070 c4 7a 2f 3d e2 4c 46 be c7 58 fc 3d fc c2 56 bd
       0.042841688 -0.19365266 0.123216204 -0.052432045

running_var f4 [32]
000000 7f de 79 3e b5 08 14 3e 5b ff 57 3f 46 51 8a 3e
       0.24401282 0.14456446 0.84374017 0.27015132
000010 91 1c 38 3e a7 0c 16 3e 07 10 e5 3d 6a 81 1d 3e
       0.17979647 0.14653264 0.111846976 0.15381399
000020 4d bd 5c 3e 6a 76 75 3f 05 56 36 3e 6c 85 1f 3e
       0.21556588 0.9588381 0.17806251 0.1557824
000030 94 21 01 3e f5 69 3a 3e 27 3c 9e 3e 70 8a 2c 3e
       0.12610465 0.18204482 0.30905268 0.16849685
000040 49 a0 82 3e 38 75 11 3e a8 a1 a0 3e 21 59 18 3f
       0.25512913 0.14204872 0.31373334 0.59511
000050 39 1d fa 3d 4c e9 f2 3e 61 88 fd 3e 00 ea af 3d
       0.12212605 0.47443616 0.4951811 0.08589554
000060 9a 6d 25 3f 58 8a 84 3e 98 22 81 3e 48 14 5b 3f
       0.64620364 0.25886798 0.25221705 0.8557782
000070 b2 68 04 3e 59 2a f0 3d 65 04 0d 3f 3b 1e 18 3e
       0.12930563 0.11726827 0.5508483 0.14855282

weight f4 [32, 4, 1, 1]
000000 9d 2e bc 3d 77 88 90 3e a5 9e 47 3f 44 99 7e 3e
       0.09188578 0.28229114 0.7797645 0.24863154
000010 19 30 1d bf b9 1f e0 be 3d 3c df be 55 a1 c6 be
       -0.61401516 -0.43774202 -0.43600646 -0.38794962
000020 86 b1 40 be 7d 35 e2 3e 7b 6f 03 3f 9c 13 ae bd
       -0.1881772 0.44181433 0.5134198 -0.08499834
000030 5c 3b 04 be eb 52 03 3f b8 9b 0c bf b3 39 8a 3e
       -0.12913269 0.512984 -0.5492511 0.26997146
000040 6d c3 27 be d3 3a c8 3e e9 c3 8d bd 0b 5d 25 bf
       -0.16383143 0.3910738 -0.069221325 -0.645951
000050 e6 97 80 bf 6c f7 56 be 05 7d f3 be b5 36 cd 3d
       -1.0046356 -0.20992821 -0.4755632 0.100202
000060 1f 6b f2 be f3 aa a6 3e 7e c2 a1 3e f6 01 c3 3d
       -0.47347352 0.325523 0.31593698 0.095218584
000070 b4 b6 62 be 40 f9 e5 be f9 04 aa bd ea c6 c2 3e
       -0.22140008 -0.44916725 -0.0830173 0.38042384
000080 91 23 1c 3f d6 95 72 be 12 c4 c2 be 80 da 69 3d
       0.6099177 -0.2368997 -0.38040215 0.057093143
000090 f4 fc 0b 3f 24 7f 6e 3d d3 76 ff 3e d4 65 77 3e
       0.5468285 0.05822672 0.49895343 0.24159938
0000a0 96 70 ba be b3 25 05 bf a1 49 1c 3f 54 0e 69 be
       -0.3641402 -0.5201065 0.6104985 -0.22759372
0000b0 44 5b 1d 3d 37 99 06 bf 2d ca a7 3e ee eb 4f bd
       0.038417116 -0.5257754 0.32771435 -0.05076211
0000c0 e1 a4 56 bf 4c fa 00 be de b3 f8 3e e0 20 30 3e
       -0.83845335 -0.1259548 0.48574728 0.17200041
0000d0 30 0c d3 3d 39 38 2c bf 53 f1 92 3e b0 bd 98 be
       0.10305059 -0.6727329 0.2869974 -0.2983222
0000e0 7e d4 ba 3d 9b 9b 70 bd 46 66 55 bf 70 6d 80 3d
       0.09122561 -0.058742147 -0.8335918 0.062708735
0000f0 45 7c 5c 3f 50 e5 99 3e 6d 69 e5 3e 96 45 94 be
       0.8612712 0.30057764 0.44806996 -0.2895934
000100 a0 0a f0 3d 5b 70 1d 3f ac 21 fc 3d 55 1c 27 bf
       0.117207766 0.61499566 0.1231111 -0.65277606
000110 42 78 a4 bf ee 87 f1 bd ff 08 bc bd f6 2c 25 3e
       -1.28492 -0.11793505 -0.09181403 0.16130432
000120 5e 14 e7 3e 12 af 34 bf 01 fc 20 be 68 0a 90 3d
       0.45132726 -0.70579636 -0.15721132 0.07033235
000130 37 94 37 3e 3e 01 8e be 42 cf 30 3f f5 38 11 be
       0.17927633 -0.27735323 0.6906625 -0.14181884
000140 a1 35 83 bd 41 d9 a6 3e d8 62 ca 3e a2 8f b8 3e
       -0.06406713 0.32587627 0.39528537 0.36047083
000150 fa aa cf bd cd d3 68 be 4d c2 dc 3e b2 5e 23 bf
       -0.10140033 -0.22737046 0.4311699 -0.6381637
000160 a2 ad be 3e 5b 4a f6 3d db 29 26 3f a7 73 50 3e
       0.37241846 0.12025901 0.64907616 0.20356618
000170 43 fe 57 3f 57 fc d6 bd 68 96 07 bf a6 69 34 3e
       0.8437235 -0.10497349 -0.52963877 0.17618427
000180 d2 15 62 3f 09 a6 4a 3e 46 48 8a 3e 83 90 70 be
       0.88314545 0.197899 0.27008265 -0.23492627
000190 79 66 8f be d1 8a 5b 3f 1b 56 9b be 38 df ce be
       -0.28007868 0.8575869 -0.3033913 -0.40404677
0001a0 c5 93 11 bc 6d 5c 61 bf b0 79 e1 be bd 32 b6 be
       -0.008885329 -0.88031656 -0.44038153 -0.35585585
0001b0 9e d6 b6 be c5 05 ec be f5 7a a7 3d db a3 bf 3e
       -0.35710615 -0.46098152 0.08177749 0.374297
0001c0 21 6b 10 3f 0f c6 ad 3e fd df 23 bf 9e 5b 60 3e
       0.56413466 0.3394017 -0.64013654 0.21909949
0001d0 f2 f8 0e be 08 c5 db be cb ed 4e bf 8d 22 09 bf
       -0.13962153 -0.4292376 -0.80831593 -0.53568345
0001e0 6c 9d 49 be 43 98 2e 3f 43 be 7d be 07 89 60 be
       -0.19688958 0.6820108 -0.2477961 -0.21927272
0001f0 1a 42 03 bf 42 e8 fa bd 22 8d ed 3e 15 d7 8c be
       -0.5127274 -0.12251331 0.46396738 -0.27507845

weight f4 [32]
000000 55 a0 81 3f 44 e6 d4 3e a5 5f 96 3f 42 bf 1b 3f
       1.0127054 0.4158193 1.1747938 0.6083871
000010 db ce a8 3e cc 36 a6 3f 39 f3 2b 3f 32 9e ac 3f
       0.32970318 1.2985473 0.67168003 1.3485777
000020 3d e2 45 3f b3 bb d9 3e 19 d2 90 3f 21 5a d8 3e
       0.7729834 0.42526016 1.1314117 0.42256263
000030 1d fd 73 3f 31 1f a7 3f c6 8a 43 3f 79 5c b5 3e
       0.95308095 1.3056394 0.76383626 0.35422114
000040 d2 97 7f 3f d4 88 81 3f 31 94 61 3f a4 d7 da 3e
       0.99841034 1.0119882 0.8811675 0.42742646
000050 36 9d 36 3f e3 8a 9a 3f da b9 4c 3f be f8 5e 3f
       0.71333635 1.2073635 0.79971087 0.870983
000060 e7 7b ca 3d 12 ce 0a 3f b2 0f c1 3f d5 de 6f 3f
       0.09886914 0.5422069 1.5082915 0.9369939
000070 98 fc 2d 3f 7c 4f b0 3f 8e 91 68 3f 18 42 28 3f
       0.6796355 1.3774257 0.908471 0.6572585

bias f4 [32]
000000 ca 41 18 3e 9a 0e d2 3e 7d e4 30 3e d5 cc aa be
       0.14868847 0.41026765 0.17274661 -0.333594
000010 ed 6f 32 bf 54 d9 b0 3d 0c 50 08 bf f0 aa 73 be
       -0.69702035 0.08635202 -0.5324714 -0.23795676
000020 f9 ca 17 be 4d 7e 44 bd 48 09 c2 3d 06 33 12 bc
       -0.14823522 -0.047972012 0.094744265 -0.008923298
000030 10 74 91 bd 6f 63 2c be 60 4f 6e bb 7f bc b3 be
       -0.07102215 -0.16834806 -0.003636323 -0.3510475
000040 7e af f7 3e 86 6e d5 3e b1 64 b5 be 6e a8 cd be
       0.48376077 0.41685885 -0.35428384 -0.40167564
000050 dc 96 ad 3e 56 30 27 be 4f 06 a0 3e ff 78 29 bf
       0.3390416 -0.16327032 0.31254813 -0.6620025
000060 2f ff d2 be 72 88 9e be ea de 8c 3c f6 47 2c 3f
       -0.41210315 -0.30963475 0.017196137 0.67297304
000070 b6 5d ed be 02 ae 87 be ca a3 bf ba 60 07 ec 3e
       -0.46360558 -0.26499945 -0.0014620956 0.46099377

running_mean f4 [32]
000000 03 2f ea 3e de 24 24 bf 14 e5 89 3e 12 40 1d 3e
       0.45738992 -0.64118755 0.26932585 0.15356472
000010 99 25 b1 bd 23 77 00 bf 27 83 08 3e e5 c9 49 be
       -0.08649749 -0.5018179 0.1333128 -0.19705923
000020 dd 92 79 bc d0 59 ce 3e b1 fe 8f be 43 8f 2d be
       -0.015232769 0.40302896 -0.28124002 -0.16949181
000030 92 89 f6 bd b1 f4 9f be 88 94 54 be a6 b0 dd 3e
       -0.12037958 -0.31241372 -0.20759785 0.43298835
000040 e2 55 1a 3e e6 3d d6 be dd 7e 67 be cf f1 74 3d
       0.15071824 -0.418441 -0.22606988 0.05980092
000050 7c 21 b9 3e 0b bc 78 be 8a df d1 3e f7 82 f8 3d
       0.3615836 -0.24290483 0.4099086 0.121343546
000060 bc 3f b7 3e 6e 0e 06 3e 64 cc 2a bf 78 cb 43 be
       0.35790813 0.13091442 -0.66718125 -0.19120586
000070 60 c7 61 3e 95 08 25 bf 62 43 0e 3e f5 f2 36 be
       0.22048712 -0.6446622 0.13892892 -0.17866118

running_var f4 [32]
000000 7b 83 5e 40 8e 82 c1 40 c8 14 88 3f b2 bf 21 3f
       3.476775 6.047187 1.0631342 0.6318313
000010 6a 25 c5 3e 7b 95 9c 40 c3 1b dd 3e 1e 6a 12 3f
       0.38505107 4.893247 0.43185243 0.5719317
000020 26 c2 9c 3e c0 63 3f 40 8d f5 91 3f 92 dc da 3e
       0.30616874 2.9904633 1.1403061 0.42746407
000030 c1 ee 54 3f 2e 5f 9d 3f 6f fc 9f 3f e7 b9 6b 40
       0.8317681 1.2294672 1.2498912 3.6832216
000040 b9 f3 e5 3e 01 95 81 40 74 3e 36 3f 31 1c 3a 3f
       0.44912508 4.049439 0.71189046 0.72699267
000050 37 f6 f1 3f fe 90 6d 3f d2 bb 43 40 11 d5 3e 3f
       1.8903264 0.92799366 3.0583386 0.74543864
000060 39 a8 2e 40 74 87 03 3f cb c2 b3 40 0d 94 1a 3f
       2.7290175 0.5137856 5.6175284 0.6038216
000070 1e a7 68 3f 1b 08 cb 40 18 b9 be 3e 8b 98 19 3f
       0.9088 6.3447394 0.3725059 0.5999839

weight f4 [8, 32, 1, 1]
000000 1e 57 9c 3e 86 31 88 be 5e 98 c2 3c fe c5 34 3f
       0.30535215 -0.26600283 0.023754295 0.7061461
000010 e0 90 13 3e 2b 6c 63 3e b4 23 82 3e d4 04 bf be
       0.14410734 0.22209232 0.25417864 -0.3730837
000020 79 33 50 bf 15 97 71 bd e8 86 32 bf 53 fa 08 bd
       -0.8132854 -0.058981974 -0.697371 -0.033441853
000030 91 65 21 3e 2f 78 73 3c 74 2d 99 be 43 af 1d bf
       0.15761401 0.014860197 -0.2991749 -0.61595553
000040 fa 18 03 3e e3 6d c6 bd 21 c6 66 3e d9 cd 8f bd
       0.12802497 -0.09688928 0.22536518 -0.07021684
000050 c5 06 10 be b4 e1 23 bd 90 28 a9 be d7 4b 7b be
       -0.14065082 -0.04001017 -0.3303876 -0.2454065
000060 73 cb bc bd 9f d3 c1 be d9 82 a2 3f 85 66 a0 3e
       -0.09218492 -0.37856767 1.2696182 0.31328216
000070 03 d9 64 be 4c 74 30 bf bc f5 d9 be 16 fe 39 bd
       -0.22348408 -0.68927455 -0.42570293 -0.04540833
000080 f7 d9 47 3c ed 42 81 3e 66 cc db 3e 18 8a 0d 3f
       0.012197963 0.25246373 0.4292938 0.5528884
000090 0c 5e a1 be 2a 81 04 bf 67 62 8f bd a0 ba 70 3e
       -0.31517065 -0.5175959 -0.07001191 0.23508692
0000a0 52 86 92 be 3c f9 05 3e 06 1a 4d 3e 83 69 82 bd
       -0.28618103 0.13083357 0.20029458 -0.06367781
0000b0 ec 53 72 3e 7a 98 68 3e 5d 01 65 3e 45 14 fb bd
       0.23664826 0.22714415 0.22363801 -0.122597255
0000c0 a5 db 06 bf 41 68 55 3e 6c 7c 44 3e 75 79 8a be
       -0.526789 0.20840551 0.19188088 -0.2704579
0000d0 8f 60 ab 3e f0 8f a5 be 58 67 34 3e 09 ad 0b be
       0.33472106 -0.32336378 0.17617548 -0.13640226
0000e0 a0 ac 46 bd 4f ca c1 bd 2b 71 62 bd 69 8a 2a 3e
       -0.04850447 -0.094624154 -0.055283707 0.16654362
0000f0 26 e0 8d be b1 20 20 3f 4c 65 63 be 65 ae 96 be
       -0.27710074 0.62549883 -0.2220661 -0.29429927
000100 7a 37 c7 3d 4b 79 8b be 9b 4d de be 71 bd 45 3f
       0.09727378 -0.27240977 -0.43418583 0.7724219
000110 2c 7b 73 bd fa 11 a3 bd 07 68 68 3e 6c f3 2e be
       -0.059443638 -0.07962413 0.22695933 -0.17085046
000120 57 6c 86 be b0 b7 3a 3e 81 c2 1e bf d5 ce b9 3e
       -0.26254532 0.18234134 -0.6201554 0.36290613
000130 14 ae 0f bf df 83 90 be c2 64 ac 3d 40 4c 88 3e
       -0.56125 -0.2822561 0.084176555 0.26620674
000140 3d c4 c3 be d9 c3 33 3e 46 53 49 3e 4a a4 c8 3b
       -0.38235655 0.17555179 0.19660673 0.0061231004
000150 12 9f 51 be a8 de b4 be 1d e6 a4 3e 6d 6b 0e 3d
       -0.20470837 -0.35326123 0.32206813 0.034770418
000160 16 28 2f 3e 12 8d 88 bd e9 11 92 3e 4b fd 1b 3e
       0.17105135 -0.06667532 0.2852929 0.15233342
000170 09 bf 58 be 9d 82 04 3d 09 f2 02 bf 38 ee bd be
       -0.21166624 0.032351125 -0.51150566 -0.3709581
000180 0a 2f 0e 3d 70 80 1e be 23 da 66 be 7e 3e d3 3e
       0.03471283 -0.15478683 -0.2254415 0.41258615
000190 36 a6 7c 3e 76 24 41 bf 21 ec 1c 3e de ae 21 be
       0.2467278 -0.7544626 0.15324451 -0.15789363
0001a0 ee 92 57 bd 73 2b 2f 3e cc 3a de 3e 9e 99 c5 be
       -0.052630357 0.17106418 0.43404233 -0.38593763
0001b0 7f 8e 0b bb e9 1e 1e 3d f1 a7 f6 3e 08 f5 20 be
       -0.002129465 0.038603697 0.48175004 -0.15718472
0001c0 1e 59 1c be 36 5c 78 3e 29 6e 50 3f 58 5e 9c 3e
       -0.1526837 0.24253926 0.8141809 0.3054073
0001d0 33 58 0c be 21 b1 e0 be b1 a3 7d be ed ba 49 3e
       -0.1370552 -0.4388514 -0.24769475 0.19700213
0001e0 e7 ab f9 3d 0b f7 1a 3e c3 3d f6 bd e7 76 2b 3e
       0.12190991 0.15133302 -0.12023499 0.16744576
0001f0 7f 98 19 be c7 7a 0c bf db 3c 47 3e 36 90 8e 3c
       -0.14999579 -0.54874843 0.19456808 0.01740275
000200 81 b8 ad 3e 97 a3 54 be 8c 39 24 3e ca f8 58 3e
       0.33929828 -0.2076553 0.16037577 0.21188655
000210 44 ff ef 3e 88 5e 78 be b6 eb b1 3b c6 70 ec bd
       0.4687444 -0.24254811 0.0054297103 -0.11544947
000220 fc 89 b2 3e 1c 8b 31 3f 86 e0 e0 3e 16 02 f6 bd
       0.348709 0.6935289 0.43921298 -0.120121166
000230 23 c6 36 3e 59 a2 2b bf 07 99 bc 3e d1 72 95 3e
       0.1784902 -0.670446 0.368355 0.2918916
000240 78 ad 87 be 39 12 ae 3d a9 13 59 be de 7b a7 3e
       -0.26499534 0.084995694 -0.21198906 0.3271169
000250 67 b8 b0 be 2d f1 15 3e 03 d5 b1 be 70 a2 e6 be
       -0.34515688 0.14642783 -0.34732828 -0.45045805
000260 df 89 00 3f 5d e5 20 be 0f d8 45 bd d1 17 00 3e
       0.50210375 -0.15712495 -0.048301753 0.12509085
000270 82 29 f4 be 17 4f ba 3e 51 0a 03 3e b6 c4 bd bd
       -0.47687918 0.36388466 0.12796904 -0.09266035
000280 59 9d f7 3e 4e fe f9 3d 0e 23 b6 be 43 f3 9b be
       0.48362234 0.12206708 -0.3557362 -0.3045903
000290 44 29 1e 3e 81 06 90 3e 0f c1 0c bd 4d aa 06 bf
       0.15445429 0.28129962 -0.034363803 -0.5260361
0002a0 50 3e 1a 3f c3 7a af 3d a7 13 04 3e 13 e5 e1 3e
       0.6025133 0.08568337 0.12898122 0.44120082
0002b0 72 c1 df 3e 29 18 bf 3e 7f 35 08 3e 6b c0 70 3e
       0.43702275 0.3732312 0.13301657 0.23510902
0002c0 b4 bf e4 3c de 26 d8 39 6b e8 8e 3c 20 5e ee 3d
       0.027923442 0.0004122769 0.01744481 0.11639047
0002d0 46 0a 09 3f 59 7f c5 bd 25 be c8 be 1e 42 4c 3e
       0.535313 -0.0964343 -0.3920757 0.19947097
0002e0 15 3f 11 3e b9 3c 53 be 97 fb 54 be 08 1c 45 be
       0.1418422 -0.20628633 -0.20799099 -0.19248974
0002f0 33 de 9e ba a4 0f 23 3f fe 28 19 be 8c 55 81 be
       -0.0012120664 0.6369574 -0.14957044 -0.2526058
000300 11 15 81 3e ec cc 90 be 0c ea c4 be e3 3f 18 bf
       0.25211385 -0.28281343 -0.38459814 -0.59472483
000310 9d e4 b0 3e 8b 77 95 3e 22 fd e5 3d 5f 4c 2a 3f
       0.34549418 0.29192767 0.11229922 0.66522783
000320 27 19 41 bd ce bc a5 3e 71 7c 5c bf 77 d7 80 bd
       -0.047143128 0.3237061 -0.8612738 -0.06291097
000330 1e b1 90 be a5 7b 9b 3e 11 a4 d0 3e ec 8f ec bd
       -0.2826013 0.3036777 0.40750173 -0.115508884
000340 50 1e 69 be 2f 00 ed be 08 88 1f bf 06 0c 88 3e
       -0.2276547 -0.46289203 -0.6231694 0.26571673
000350 63 97 97 3e 7a 43 96 bd b5 43 d5 3e 5d 65 c5 3e
       0.29607686 -0.07337089 0.4165322 0.38553897
000360 2d 33 8f 3e 82 2a 26 3d 49 c7 de bd 14 da 86 bd
       0.27968732 0.040567882 -0.108778544 -0.06584564
000370 f1 bb 54 3d a6 49 10 bf 24 28 09 bf aa eb b0 bd
       0.051937047 -0.5636238 -0.53576875 -0.08638699
000380 d8 20 03 be d8 a5 d8 be b4 19 0b bf a1 2f 18 bf
       -0.12805498 -0.4231403 -0.54336095 -0.59447676
000390 9c c9 f8 bd 35 6f 32 bf 3c b0 45 bf 90 ed 99 bc
       -0.12147829 -0.6970094 -0.7722204 -0.018790036
0003a0 65 e4 fb 3e a8 6f ce bd 21 3b df bc 36 0e d8 3c
       0.4919769 -0.100798905 -0.027249875 0.026373964
0003b0 ee e9 2e 3f ad 11 09 3f 8b 85 3d 3b 2a 23 cc 3d
       0.683257 0.53542596 0.002891871 0.099676445
0003c0 67 b8 9e bd 3f df 20 3d 80 59 39 be 95 16 87 be
       -0.07750016 0.039275404 -0.18100548 -0.26384416
0003d0 f2 2e 8a 3e eb 36 f9 bd 5c 93 41 be b6 90 0e 3f
       0.2698894 -0.12168678 -0.1890387 0.5568956
0003e0 e0 b1 f0 bb 80 73 bf be 93 ee 4f be 6c 11 36 3a
       -0.007345423 -0.37392807 -0.20305853 0.0006945345
0003f0 bc 4e 43 be 35 88 eb be 77 38 8b 3e 03 95 21 3e
       -0.19073004 -0.46002355 0.27191517 0.157795

weight f4 [8]
000000 a6 1a 9c 3f cf 9e 72 3f c4 50 96 3f 42 bb 7c 3f
       1.2195632 0.9477357 1.1743398 0.9872323
000010 68 df 85 3f 6a 1e 7e 3f df c6 55 3f f9 8a 8f 3f
       1.0458803 0.9926516 0.8350658 1.1214286

bias f4 [8]
000000 ec 0d 35 3c 4b 5f fe bd 8b 35 cc be 8d c9 b1 bd
       0.0110506825 -0.124205194 -0.398846 -0.08681021
000010 fb e4 1a bd 0b a5 5e 3c 7a 2c 36 be a3 0f 0f bd
       -0.03781603 0.013589154 -0.17790404 -0.03492702

running_mean f4 [8]
000000 b2 39 e6 be 84 51 95 3d d4 37 a5 bf 0d 6a 65 be
       -0.44965893 0.072909385 -1.2907662 -0.22403736
000010 79 83 85 be 39 5f a2 3e b0 23 85 bf 43 f7 50 bf
       -0.26076868 0.31713274 -1.0401516 -0.8162729

running_var f4 [8]
000000 2e 53 28 40 cc 66 4c 3f f7 82 4b 3f f0 1e a3 3f
       2.630077 0.79844356 0.7949671 1.2743816
000010 4c a3 e9 3f e1 d1 1c 40 c0 e0 c7 3f ec 7b 0a 40
       1.8252959 2.45031 1.5615463 2.1638136

weight f4 [8, 8, 3, 3]
000000 cd 02 7c 3d fc c4 08 bd c0 bb e3 3c 14 40 4d 3e
       0.06152611 -0.033390984 0.027799487 0.20043975
000010 22 bb 93 bd c6 45 8b bd 78 79 ed 3b 4d 6d 9e 3c
       -0.07213427 -0.068004176 0.007247146 0.019339228
000020 e7 5d 31 bd 30 ac 89 3e 83 ca 93 3e 2b d1 be 3d
       -0.043302443 0.2688918 0.28865442 0.093172394
000030 d6 d7 64 3e 62 e1 dc bb 86 e6 8e 3e 75 91 32 bd
       0.2234796 -0.006740735 0.2791025 -0.04359575
000040 82 df e8 3e e5 da cf 3e ab ae e6 bd 08 17 00 be
       0.45483023 0.4059669 -0.11263784 -0.12508786
000050 a6 56 be bc a4 04 9a 3d 14 a5 d6 3d 84 9c 26 bd
       -0.023234677 0.075204164 0.10480705 -0.04067661
000060 13 b1 e0 3d 4e 2c 55 3e ac 2e be 3d 32 04 ac bd
       0.10971274 0.20817682 0.09286246 -0.08399238
000070 e9 25 70 bd bc a2 03 bf 35 6b c3 3e 54 7a 65 3e
       -0.058629904 -0.5142019 0.3816773 0.22409946
000080 73 90 14 3d 4e a9 20 3e 66 99 eb 3e b5 69 cf 3e
       0.03627057 0.15689585 0.4601547 0.40510336
000090 ae a1 a6 be 8e ec dc be 03 51 5f bf ab 3a b5 3e
       -0.32545227 -0.43149227 -0.8723299 0.35396323
0000a0 48 72 df 3e 4f 82 4d be f4 9a 9f 3e 4f 55 ea 3e
       0.43641877 -0.2006924 0.31172907 0.4576821
0000b0 9b b1 e3 3d e7 c8 41 bd 62 bd 97 be 5e ac d9 be
       0.1111786 -0.047310736 -0.29636675 -0.42514318
0000c0 1b 63 06 3e bd b1 9c 3c df 7f bc be 2f cf 10 be
       0.13123743 0.019127721 -0.36816308 -0.14141534
0000d0 24 f3 6f bd f6 de 04 be 34 71 00 bf 0f f7 98 be
       -0.058581486 -0.12975678 -0.50172734 -0.2987599
0000e0 d3 03 31 bf 36 0b 36 bf b6 d8 28 bf 39 3d 1f bf
       -0.6914646 -0.71110857 -0.65955675 -0.62202793
0000f0 9b 2c a7 be 02 df f3 be 40 29 35 bf b8 15 f1 3e
       -0.3265122 -0.4763108 -0.7076607 0.47086883
000100 62 fa 59 3c a2 f8 90 be 48 aa 02 be d9 c0 a6 be
       0.013304325 -0.28314692 -0.1276027 -0.32569006
000110 45 f4 0f be 09 1c 23 be 34 f4 5c bd b6 4a c7 be
       -0.14058025 -0.15928663 -0.053943828 -0.38924187
000120 8d 89 ac 3e ef 94 4c be 37 27 e4 be fd 33 93 be
       0.33698693 -0.19978689 -0.4456117 -0.287506
000130 99 8a 21 bf bf 31 24 bf b4 f9 98 be eb 1c 16 bf
       -0.6310211 -0.64138407 -0.29878008 -0.58637875
000140 15 5c 33 be 24 e8 66 be 32 8a 35 3d f6 76 5f 3e
       -0.17515595 -0.22549492 0.044321246 0.21822724
000150 80 c2 3f 3e e2 9b 77 3e 5b 41 bf 3e 78 cd b1 3e
       0.1872654 0.24180558 0.3735455 0.34727073
000160 bc ec de 3e 34 86 1a 3f 5b 04 0f 3d 39 b1 21 be
       0.4353999 0.6036103 0.034916263 -0.15790261
000170 45 b0 65 be e1 6a 2c be 6e 16 05 be e1 6a e7 be
       -0.22430523 -0.16837646 -0.12996837 -0.4519873
000180 f2 bf 05 bf bd 70 d9 be c6 a2 bb be fb c0 52 3e
       -0.5224601 -0.42468825 -0.36647624 0.20581429
000190 16 2c d9 3e 63 e3 8a 3e 60 72 02 3e cb 45 86 3e
       0.42416447 0.27126607 0.12738943 0.26225123
0001a0 b4 2f cb 3d 6e 65 04 bf 1e b2 73 be ce fd 63 be
       0.09921208 -0.5171727 -0.23798415 -0.22264788
0001b0 e0 8c 1e 3e c1 0c bb 3d 29 be 47 3e 92 01 4f 3e
       0.15483427 0.09133292 0.19506134 0.20215443
0001c0 da ef 00 3e 03 0d ae 3d 74 f1 ad 3e 70 d3 7a 3d
       0.12591496 0.084985755 0.33973277 0.0612368
0001d0 38 96 87 bc 2b 5b 41 3e ed 99 8f 3d 7e 0e af bd
       -0.016551122 0.18882434 0.07011781 -0.08547686
0001e0 86 e9 af 3d 15 d5 92 3b df 65 d6 bd 72 4e a6 be
       0.08589463 0.0044809678 -0.10468649 -0.32481724
0001f0 53 88 e8 bd 5a b6 99 be 8a e9 98 3e 7c 0f 94 3e
       -0.11354127 -0.30021936 0.29865676 0.28918064
000200 08 32 77 3d 11 60 b0 3e 15 a4 d1 3d 4f c1 61 be
       0.060350448 0.34448293 0.10236374 -0.22046398
000210 c6 b7 66 3e b0 5a ad bc 90 c0 bc be 49 39 83 be
       0.22531042 -0.021161407 -0.36865664 -0.25629643
000220 90 cb 2a 3d 68 9d 01 3e 49 1d 0a bc 42 99 b1 3e
       0.04169804 0.12657702 -0.008429834 0.3468724
000230 b4 2f 8e bd 4f 47 cd 3d 8a 34 7e bd 2d e3 57 be
       -0.069426924 0.10023367 -0.062061824 -0.21082754
000240 49 db 46 bd 74 cb 4a 3e c0 4f a1 3d 82 95 71 3e
       -0.04854897 0.19804174 0.07876539 0.23592189
000250 db 94 0c 3e 3b e4 e4 3e 42 e8 ba 3d 9e 2f 2d 3f
       0.13728659 0.44705376 0.09126331 0.67650783
000260 8e 12 65 3f 53 f5 4a bf 7d 2f 54 bf 8f df 63 be
       0.8948144 -0.79280585 -0.8288496 -0.2225325
000270 36 ae 86 be 0a 16 63 be 1c 5b 34 bd 77 b9 ca bd
       -0.26304787 -0.22176376 -0.0440322 -0.09898656
000280 4e 9b a1 be f6 4f c9 be a9 0d cc 3e ec cf 72 3e
       -0.315638 -0.39318818 0.39854172 0.23712128
000290 4f a3 e3 be a7 ad 9c 3d 05 95 34 be c7 7f 21 bf
       -0.44460532 0.07650309 -0.17634971 -0.630856
0002a0 49 6a d0 be 87 0c 27 bf ee 0a 44 bf 39 18 11 3e
       -0.4070609 -0.6525349 -0.7657918 0.14169396
0002b0 21 9f 42 3e a6 ef 28 bf 6a 43 98 bd c9 b8 e0 bd
       0.19006015 -0.65990674 -0.07434733 -0.10972745
0002c0 08 4a 1d bf 09 a5 19 3d 33 1e 7a be 8e 8e 98 be
       -0.6144109 0.037510905 -0.24425583 -0.2979626
0002d0 f9 b7 f6 3e e8 e6 90 3d 55 81 23 3c f9 cc 6a 3e
       0.48187235 0.07075292 0.009979566 0.22929753
0002e0 09 60 82 be df 95 14 be b0 be 0d 3e 93 61 87 be
       -0.25463894 -0.14510296 0.13842273 -0.2644163
0002f0 85 50 87 be 9e f1 bc 3d b2 a2 9e 3c c0 9b c7 bd
       -0.2642862 0.09225772 0.019364689 -0.09746504
000300 ad 1d 12 3e a6 d2 92 3e 4c 0a b2 bd 21 16 0b 3e
       0.14269133 0.28676337 -0.0869337 0.1358266
000310 47 d9 d5 bd cf c2 87 be 36 1d ba 3e 19 d3 6f 3e
       -0.10441833 -0.26515815 0.3635041 0.23420371
000320 cb 03 c1 3c 5a e9 c0 3e 16 5a 13 be 99 b4 c8 3d
       0.023561379 0.37678033 -0.14389834 0.09800071
000330 02 4a e6 3e 14 52 c7 3e 37 d0 9c 3e 7a 18 27 bd
       0.44978338 0.38929808 0.30627605 -0.040794827
000340 c7 3f 1f 3f df c7 09 3f 12 c0 64 3e d1 41 e3 3e
       0.6220669 0.53820604 0.22338894 0.4438615
000350 d1 bf c7 3e 46 1b 7b 3d 49 46 65 be bf 3b fe 3d
       0.39013532 0.061305307 -0.22390093 0.124137394
000360 cb 50 d9 be f8 ef 16 bf f8 4f 88 bd 44 92 5e bf
       -0.42444453 -0.58959913 -0.06655878 -0.86941934
000370 71 f3 8d bd 3c cd b0 3e c9 bd 24 bf 4a e1 84 3e
       -0.069311984 0.3453158 -0.6435209 0.25953132
000380 1a 94 16 3f ec 7d cc bd ea f4 65 3e 77 8a 0b 3e
       0.58819735 -0.09984955 0.22456709 0.13627039
000390 5c 51 7d 3e c2 35 88 3d 1b b9 bc be 98 da ac 3e
       0.24738067 0.066508785 -0.36859974 0.33760524
0003a0 97 21 d3 be d2 40 10 3e 88 13 46 3e 3d 8c 87 bd
       -0.41236565 0.14087227 0.19343388 -0.06618545
0003b0 1f b1 8a be dd e7 6a be a0 81 98 be 74 23 f5 be
       -0.27088258 -0.22940011 -0.29786396 -0.4787861
0003c0 1d 9c 6c bd 6a b5 f8 3c a2 3c ad be 57 eb 19 be
       -0.05776607 0.030359942 -0.33835322 -0.15031181
0003d0 cb e4 bf bd c3 28 87 3c 82 f2 3f bf 63 84 e2 3d
       -0.09369811 0.016498929 -0.7497941 0.11060407
0003e0 3a c5 d9 3e 08 5f b6 be 4f 98 8f 3e ec 9c 37 be
       0.42533284 -0.35619378 0.2804589 -0.17930955
0003f0 76 2e 17 3f 51 30 2e 3f 61 e7 d2 3e 09 cb 4d 3e
       0.5905527 0.68042475 0.41192153 0.20096983

weight f4 [8]
000000 b8 cc e1 3f 38 b9 84 3f 04 7f 84 3f 8c bb 9a 3f
       1.76406 1.0369024 1.0351262 1.2088485
000010 1e 04 52 3f 92 a8 82 3f ef f2 ab 3f fe 71 45 3f
       0.8203753 1.0207694 1.3433512 0.77127063

bias f4 [8]
000000 f5 c2 30 3c 03 b7 41 bf 73 60 0b 3b cb f0 0a 3f
       0.010788669 -0.7566988 0.0021267205 0.5427367
000010 c3 b4 66 bd 76 da 3e 3e 57 ee 95 be 0a 6b 44 bf
       -0.05632473 0.18638024 -0.292834 -0.7672583

running_mean f4 [8]
000000 f1 b9 49 bf c0 01 27 bf 28 a7 ce 3e 05 da a3 bf
       -0.7879935 -0.65237045 0.40361905 -1.2800909
000010 ee 90 2f 3e de 95 54 be c8 e9 cf be b7 de 76 be
       0.1714513 -0.20760295 -0.40608048 -0.24108396

running_var f4 [8]
000000 f0 81 5a 41 15 dd 57 40 92 a1 ec 40 f0 e3 a6 41
       13.656723 3.3728688 7.394723 20.861298
000010 0f 0e 39 40 16 cb bf 40 63 96 8d 41 d5 c3 84 40
       2.891483 5.993541 17.698431 4.1489053
