HW2/aML/R6_btnk_8ch4(2).pt (torch, 62754 bytes, 47 tensors)

weight f4 [8, 3, 7, 7]
000000 9c 8b 14 3f e4 ba 93 3e 67 1f 46 3d 95 31 18 3e
       0.58025527 0.28853524 0.04836979 0.14862664
000010 f0 20 69 3d 88 6a d2 3e 73 b6 a1 3d a5 04 d3 3e
       0.056916177 0.41096902 0.078961276 0.4121448
000020 f4 2e f8 bd fc 36 07 be b0 b5 95 3d 60 55 55 3d
       -0.121183306 -0.13204569 0.07310045 0.052083373
000030 2e b0 0f 3f 56 0e 0a be 80 79 40 3f 71 76 85 3e
       0.56128204 -0.13482031 0.75185394 0.26066926
000040 8c bd 83 bd c7 02 b9 3e 0d 9d 5e bc 49 0d 27 3e
       -0.064326376 0.3613493 -0.0135872485 0.16313662
000050 aa d8 ec 3d ad 8f 2e 3f e5 d6 0d 3f 15 51 bc bd
       0.11564763 0.6818798 0.5540603 -0.09195153
000060 dd 1d eb 3e 8e c1 51 be 20 1e 0b be 88 12 de bd
       0.4592122 -0.20483992 -0.1358571 -0.10843378
000070 5d 02 12 3f ef 3f 7a 3e 98 90 7d 3e 8b 06 54 3d
       0.57034856 0.24438451 0.2476219 0.051764052
000080 95 70 7c bd 5a 91 5e be 5c 0b cf bd 14 a1 47 3f
       -0.061630804 -0.21735135 -0.101095885 0.7798016
000090 42 96 a6 3e 46 f3 b5 be 32 ce 17 3e 86 ad f8 bc
       0.32536513 -0.35537165 0.14824751 -0.03035618
0000a0 22 86 a7 bd bf 9e 6d 3e f4 df 64 3f c4 ce 42 be
       -0.08179881 0.23205088 0.89404225 -0.19024187
0000b0 7c a5 99 be 89 b1 2b 3e 86 61 94 3d 6e de 7b 3d
       -0.30009067 0.16766943 0.072451636 0.061491422
0000c0 85 66 68 3e 10 29 fe 3e 80 d8 a4 3e 3d 13 b8 3d
       0.22695358 0.49640703 0.32196426 0.089880444
0000d0 d2 71 b9 3d e8 b1 55 3d 07 4f b1 3e 2d 29 4d bc
       0.090549126 0.052171618 0.34630606 -0.012522024
0000e0 62 63 d1 3e 03 30 17 3c 5f 49 49 bd 6b 59 60 3d
       0.40896136 0.0092277555 -0.049142238 0.054772776
0000f0 a1 d7 11 3d 89 78 14 3f b8 cc 9c bd 68 49 3d 3f
       0.03560603 0.5799642 -0.076562345 0.73940134
000100 c3 52 88 3e cf 2e fe bd 97 35 8d 3e ba fd aa 3c
       0.26625642 -0.12411272 0.27579948 0.02087294
000110 99 94 12 3e 60 3c 22 3d 0a 78 27 3f df ef 17 3f
       0.14314498 0.03960836 0.6541754 0.5935039
000120 27 c9 65 bd fa f3 de 3e b9 ea 6c bd eb f9 34 be
       -0.056100037 0.43545514 -0.057841036 -0.17673461
000130 16 5e 76 be 44 d0 05 3f 04 f9 82 3e 8d d6 58 3e
       -0.24059328 0.52270913 0.2558061 0.21175595
000140 a5 95 97 3d eb 70 dc bd 3b a3 36 be d0 0f 45 be
       0.07401589 -0.10763725 -0.17835705 -0.19244313
000150 30 b1 46 3f 20 9e e7 3e bb 4f 8c be cb 4b ef 3d
       0.77614117 0.45237827 -0.2740458 0.11684378
000160 ee 6a 14 3d 02 c7 83 bd bb 78 92 3e 2b be 47 3f
       0.03623479 -0.06434442 0.28607735 0.7802455
000170 b2 cc 1f be 0b 44 b2 be 25 1e 1f 3e bf 2d f7 3d
       -0.15605429 -0.34817538 0.15538843 0.12069272
000180 a5 61 f8 3d 0a 58 a3 3e a4 ff 12 3f de 8a 3f 3e
       0.12127999 0.31903106 0.57421327 0.18705317
000190 f9 f9 9e 3d 4d 1e 18 3e 68 81 16 3d 83 cb f3 3e
       0.07762522 0.14855309 0.036744505 0.47616205
0001a0 04 03 99 3d 3e f1 08 3f 3c 50 c5 bd 9a 04 99 bd
       0.07471278 0.53493106 -0.09634444 -0.07471581
0001b0 11 3a b7 bc c0 3b d2 bc c0 5c eb 3e 42 68 4d be
       -0.022366555 -0.025663257 0.459692 -0.20059302
0001c0 51 3c 4c 3f ca 9b 0e 3e 51 92 da bd 26 9f a7 3e
       0.79779536 0.13926616 -0.10672439 0.32738608
0001d0 d6 96 9e 3c eb 4b 01 3e 8d 98 34 3d f8 e0 25 3f
       0.019359034 0.12626617 0.044090796 0.647964
0001e0 0f f1 00 3f fd 2c b7 bd da da b4 3e 50 97 2d be
       0.50367826 -0.08944128 0.3532322 -0.16952252
0001f0 38 53 8a be a7 fb 3c be 7e df f7 3e 3e 3d 77 3e
       -0.27016616 -0.18455373 0.48412699 0.24144456
000200 12 8a 6f 3e e6 56 40 3e 80 6b 55 be a8 2a 2c be
       0.23392513 0.18783149 -0.20841789 -0.16813147
000210 1b d5 5e bd b5 ca 4e 3f 55 06 9e 3e 61 78 c6 be
       -0.054402452 0.80778056 0.30864206 -0.38763717
000220 4b e1 10 3e 38 e5 51 bd f9 50 4d 3d 26 7a 7a 3e
       0.14148442 -0.05124399 0.05012605 0.24460658
000230 f6 5f 65 3f 4e 31 f1 bd 34 63 9d be 4a 83 74 3e
       0.8959955 -0.11776982 -0.30739748 0.23878208
000240 85 93 a0 3d 9e 54 c1 3d 6c 5e 9c 3e c8 58 2d bf
       0.07840637 0.094399676 0.30540788 -0.67713594
000250 25 aa 97 be 59 1e 26 bd 59 b2 6d bd 2c 3d 9d 3d
       -0.29621997 -0.040556286 -0.058031414 0.07677683
000260 3f c4 0e 3e d9 7a 71 3c 95 68 ad 3c 04 0c b4 bc
       0.1394205 0.014738762 0.021168033 -0.021978386
000270 94 4d 00 bf e5 07 11 bf c2 84 20 be 76 ad 29 be
       -0.50118375 -0.5665267 -0.15675643 -0.16570076
000280 fd 46 61 3d 38 4d c2 3e ad ab 2e 3d 95 f4 1e be
       0.05499934 0.37949538 0.04264419 -0.15522988
000290 17 f1 c8 be 27 56 6e be 12 6b 40 be 70 ac 45 bd
       -0.39246437 -0.23275052 -0.18790844 -0.048260152
0002a0 5c 4d da 3e c3 0f 93 bb d1 7e 19 3e 59 3e c1 3b
       0.42637146 -0.004487963 0.14989783 0.005897325
0002b0 34 67 d5 bd 3e 5c 05 be 7f 0a ef bd 27 53 b8 3e
       -0.10420075 -0.13023469 -0.11671924 0.3600094
0002c0 f6 f3 a5 3e f0 5e 79 3e d2 be 99 3e 55 18 1c 3e
       0.3241269 0.24352622 0.30028397 0.15243657
0002d0 09 bd 0c bd 6b b6 97 be 09 37 2f 3e 98 be d4 3d
       -0.034359965 -0.2963136 0.17110838 0.103879154
0002e0 2c 8e 55 3e 39 fb 87 3e e2 6d a2 3e 03 fc 43 3e
       0.20855016 0.26558855 0.3172446 0.19139104
0002f0 52 f0 30 be a7 31 9c bd 3a d6 cc bd f5 54 4b 3e
       -0.17279175 -0.07626658 -0.10001798 0.19856627
000300 6d 38 04 3e 66 95 0d 3e 8a f5 cf 3e 03 1c 38 3f
       0.1291215 0.13826522 0.4061702 0.7191774
000310 d9 55 29 bf 96 63 91 be f6 0c 61 bd 33 1c 50 3c
       -0.6614662 -0.2839629 -0.054944 0.012702036
000320 33 64 f4 3d 7d 1a a1 3d fa 99 b4 bd 26 dc df 3c
       0.11933174 0.0786638 -0.08818431 0.027326655
000330 62 e8 c9 bd eb 46 dd be 4c 69 0f bf 9d 5b 3b be
       -0.09858777 -0.4321817 -0.56020045 -0.18296666
000340 22 bd bf bd 49 5e 24 bd f4 52 83 3e a2 a7 45 3e
       -0.09362246 -0.04012898 0.25649226 0.19302228
000350 c2 a5 32 be 19 59 b1 be d8 db 85 be c4 41 eb bd
       -0.17446044 -0.3463829 -0.2614429 -0.11487153
000360 74 44 02 3c 2b a8 e3 3e a7 d0 3d 3b 02 a1 23 3e
       0.007950891 0.4446424 0.0028963478 0.15979388
000370 bc d1 81 bd ff 07 f2 bd 6f 9a 29 be e4 f0 0c be
       -0.06338832 -0.118179314 -0.16562818 -0.13763767
000380 e7 19 91 3e b4 0a 8c 3e 71 8d 91 3e 24 da a0 3e
       0.28340074 0.27351916 0.28428224 0.31416428
000390 37 7f ec 3c b5 41 60 3c 32 d1 8e be e7 be 4f 3e
       0.028869255 0.013687541 -0.27893978 0.20287667
0003a0 a9 56 4b 3e 31 9f 1b 3e de 5b 92 3e 76 94 85 3e
       0.19857277 0.15197445 0.28585714 0.2608983
0003b0 bc 23 2c 3e f2 ca 05 be 7d 22 89 bc 72 66 bd bd
       0.16810507 -0.13065699 -0.016740078 -0.092480555
0003c0 73 bc 43 3e 3e 18 ec 3d d8 d3 75 3e ee 6d ff 3e
       0.19114856 0.11528061 0.24006593 0.49888557
0003d0 68 75 31 3f 77 1c 29 bf 14 b8 9c be dd 27 d5 bd
       0.6931977 -0.6605906 -0.3060919 -0.10407994
0003e0 bd 9c 0d bd f2 02 a6 3d b4 f5 45 3d 53 af 23 3d
       -0.034573305 0.081060305 0.048330024 0.039962124
0003f0 ec 2f 21 3b ae cb 34 3c 8a 08 e9 be 50 9d 0d bf
       0.0024595214 0.011034889 -0.45514327 -0.55318165

weight f4 [8]
000000 8e 98 92 3f dc c4 8e 3f 1d 1a c8 3f 5c fc 7c 3f
       1.1452806 1.1153827 1.5632969 0.9882257
000010 18 c3 65 3f 8e 22 6a 3f cc 1e 7f 3f c1 d9 37 3f
       0.89750814 0.91458976 0.9965637 0.7181664

bias f4 [8]
000000 79 46 82 be 1d 81 eb 3d 96 01 57 3f ce a9 ea 3b
       -0.2544439 0.11499236 0.83986795 0.0071613556
000010 e7 62 85 bf f0 01 18 3f 54 a5 b8 3f fa 0a d3 3d
       -1.0420808 0.59377956 1.4425454 0.10304828

running_mean f4 [8]
000000 42 81 b6 42 0b e3 62 41 ad a5 6c c2 15 6a 29 c0
       91.25246 14.18043 -59.161793 -2.6470997
000010 85 3e 73 41 f1 6f 23 be c3 f0 f7 c1 94 bd a9 40
       15.202764 -0.15960671 -30.99256 5.304392

running_var f4 [8]
000000 36 31 8e 48 62 55 27 47 2f 69 10 48 16 cc 02 47
       291209.7 42837.383 147876.73 33484.086
000010 d9 e9 5d 46 02 04 e3 46 38 9f 92 47 f8 e7 30 46
       14202.462 29058.004 75070.44 11321.992

weight f4 [4, 8, 1, 1]
000000 c8 6c 37 be 77 25 bf 3d 84 e0 8c 3e ff f0 48 bf
       -0.1791259 0.09333318 0.27515042 -0.7849273
000010 e2 06 42 be 26 e1 d1 3e 82 05 ba 3e 12 da 9e 3e
       -0.18947938 0.40992087 0.36332327 0.3102575
000020 54 44 87 be a9 d8 04 3f ca ac aa be 17 eb 19 be
       -0.26419318 0.518931 -0.33334953 -0.15031086
000030 cb 75 31 3e 7b 7e eb 3e f2 8b a8 be b5 f9 b3 3e
       0.1733009 0.45994934 -0.3291927 0.3515145
000040 0d df e1 3e 00 e9 8b 3d 75 33 2e 3f a6 89 fa 3e
       0.44115487 0.068315506 0.6804727 0.48933142
000050 fc 22 1d 3f 71 a4 99 be c8 90 de 3d 10 b9 d3 bd
       0.61381507 -0.3000827 0.108674586 -0.10338032
000060 02 d5 9a 3d bf 94 b1 be 45 25 a8 3e 3b a2 63 3d
       0.07560159 -0.34683797 0.32840934 0.055574637
000070 19 05 57 be 2a 69 72 be b0 0a ac bd ea 3a 5e bf
       -0.20998038 -0.2367293 -0.08400476 -0.86808646

weight f4 [4]
000000 be 28 58 3f d6 f6 8c 3f be 49 68 3f 68 c5 c5 3f
       0.8443717 1.1012828 0.9073752 1.5450869

bias f4 [4]
000000 b4 99 68 3e 94 44 36 3e 07 f2 a8 3e cc e5 51 3f
       0.22714883 0.17799598 0.32997152 0.8199127

running_mean f4 [4]
000000 6a 42 87 3f 63 4f 9d be bc 59 89 3f 2d 1a ae be
       1.0567143 -0.3072463 1.073051 -0.34004346

running_var f4 [4]
000000 c9 9a 7d 3f 3a 96 bf 3f aa d6 2b 40 dd 87 3e 40
       0.9906431 1.496772 2.684977 2.9770424

weight f4 [4, 4, 3, 3]
000000 8e 08 ea 3d 1c 6d 50 3e 33 3b a5 3e a0 10 30 3f
       0.11427413 0.20354122 0.32271728 0.6877537
000010 f6 57 14 3f 5b 18 02 3e 08 91 42 be 7d 23 9a 3d
       0.5794672 0.12704603 -0.19000638 0.075263
000020 3d 8b bd 3c 0d 52 91 bd e9 f5 8e bc 7f 97 b3 3e
       0.023137683 -0.07095728 -0.017451243 0.3507652
000030 1d 95 33 3d 42 04 72 3d 12 36 a9 3e 41 c4 d2 3e
       0.043843377 0.05908609 0.33049065 0.41165355
000040 ba 69 e4 3e 06 da 01 3f b9 d8 65 3e 35 ad a3 3e
       0.44611913 0.507233 0.22445954 0.31968084
000050 b5 f7 e5 3e 28 5a db 3c c0 cd c0 3e 56 f7 c9 be
       0.44915548 0.026776388 0.37656975 -0.39446515
000060 47 74 b1 be 0a df 9a bd 88 58 1c bf ff 2f 4d bf
       -0.34659025 -0.075620726 -0.6107259 -0.8015136
000070 c2 c7 97 be 1d 76 3a bf 7a 67 39 3f ab 90 08 3f
       -0.2964459 -0.72836477 0.7242352 0.53345746
000080 41 20 ac 3d 9c 0f 13 3f 61 4d e3 3e ea 9b 0d 3f
       0.084045894 0.57445693 0.44394973 0.5531603
000090 9a c1 67 3d 21 a3 16 be 42 6e e4 3c 60 0e 86 3d
       0.056581117 -0.14710666 0.027884606 0.065457106
0000a0 79 11 13 be 6f d5 2d 3e 31 66 0a bf c5 31 d4 be
       -0.14362134 0.1697595 -0.5406218 -0.4144422
0000b0 32 25 9a 3e 97 d8 72 3e cc f3 65 3d 98 02 a8 be
       0.30106503 0.23715435 0.056140706 -0.3281448
0000c0 8c 7a f1 3e 10 9e a5 3d 77 17 48 be 6d 0e 40 3f
       0.47163808 0.08086789 -0.19540201 0.7502201
0000d0 ac 77 82 bd aa 29 a5 be 96 22 87 3e b0 71 ca 3d
       -0.06370482 -0.3225835 0.26393574 0.098849654
0000e0 98 1a ba 3e 77 a4 be be ce 75 c0 3e c6 c7 4b 3e
       0.36348414 -0.37234852 0.37589878 0.19900426
0000f0 ed 59 7a 3e a0 b4 a7 3c a2 74 3e bd 15 a3 81 bf
       0.24448366 0.02047187 -0.04649795 -1.0127894
000100 f5 c8 dc 3d a3 fa b9 bb d6 2e d2 3d 19 27 b5 bd
       0.10780517 -0.00567563 0.102628395 -0.08845348
000110 67 30 ce 3e 5e 0e c6 be db d5 b5 be b4 ee 3e 3e
       0.40271303 -0.38682836 -0.3551472 0.18645746
000120 50 f3 e5 be 94 dc 78 bd 80 be d2 3e e5 74 6a 3e
       -0.44912195 -0.060757235 0.41160965 0.22896154
000130 94 74 96 3e 62 43 98 bd 3f f2 14 3e 5b 82 ca bc
       0.29385817 -0.07434727 0.14545535 -0.024720361
000140 0e 85 c4 be af 9f 93 3d 56 7c 99 bd 72 51 88 be
       -0.38382763 0.072081916 -0.07494418 -0.26624638
000150 cf ae a4 bc b5 06 67 bc 0c 9a 3f 3e 91 d7 e3 3e
       -0.020102886 -0.01410072 0.18711108 0.44500402
000160 9a 8f 6b be ec 75 66 3e 43 74 ce bc ee 1f 8a 3e
       -0.23003998 0.22505921 -0.025201922 0.26977485
000170 43 b9 58 3e fb b5 e8 3c c2 3a eb be 7c 5e c1 3d
       0.21164422 0.028407088 -0.45943266 0.094418496
000180 ed 58 81 3f 56 dc cf 3e a1 39 e9 3e b7 25 1c 3f
       1.0105263 0.4059779 0.4555178 0.6099505
000190 3e 2c 93 bd dd 87 d4 be 40 7a 2b 3f 6e 9e 39 3e
       -0.07186173 -0.41509905 0.66983414 0.18126842
0001a0 c2 6a 28 be e7 f5 9c bd fa a0 02 bf 5c cc eb 3d
       -0.16446975 -0.0766409 -0.5102688 0.11513588
0001b0 c5 85 eb be 2e 71 dd bd 31 19 ba 3e bf be fc bd
       -0.46000496 -0.10812603 0.36347345 -0.123410694
0001c0 24 ba 38 be 50 80 52 be 46 a5 8c be 1c 2c 82 be
       -0.18039757 -0.2055676 -0.27469844 -0.25424278
0001d0 29 5c f7 be a3 eb 7d 3d c4 67 65 3e e8 60 c1 3e
       -0.483125 0.0619923 0.22402865 0.37769246
0001e0 d6 53 a7 3e 67 3f d1 3e 16 9c f9 3e 4f f2 da 3e
       0.3268115 0.40868685 0.48751897 0.42762992
0001f0 11 01 6e 3e 48 a2 28 3f 3d 63 d8 be e3 52 a2 bd
       0.23242594 0.6587262 -0.42263213 -0.07925966
000200 38 e0 a1 3e 90 c6 6a be 77 69 b6 bc fc aa cb bc
       0.31616378 -0.22927308 -0.022267086 -0.024861805
000210 c8 7b 95 bc 44 a1 2e be b9 2c 34 3d 1b af 31 3f
       -0.0182475 -0.17053705 0.043987963 0.69407815
000220 7d 31 0e 3f 36 29 0a bf 34 02 35 3f 96 01 27 3f
       0.55544263 -0.5396913 0.70706487 0.65236795
000230 7c d7 9a be b3 3a 1e 3f 37 58 1a be 2d e8 3b be
       -0.30242527 0.6180832 -0.15072714 -0.18350287

weight f4 [4]
000000 80 c1 75 3f 20 13 99 3f eb f9 61 3f 3e 26 86 3f
       0.9599838 1.1958961 0.8827197 1.048042

bias f4 [4]
000000 fc 1b 2f bf 2e 22 25 bf e9 77 78 3e 8c a8 8c be
       -0.68402076 -0.6450528 0.24264492 -0.2747234

running_mean f4 [4]
000000 7e 72 10 40 68 28 3f bf 53 ce 98 3f 07 09 04 40
       2.256988 -0.7467103 1.1937965 2.063051

running_var f4 [4]
000000 29 55 a4 40 dc a0 4d 40 c2 0c 61 40 d9 72 91 40
       5.1353955 3.212943 3.5164037 4.5452695

weight f4 [16, 4, 1, 1]
000000 0e 72 bb bd ae a7 af 3e fb fe 22 be 0f a7 9c 3f
       -0.091526136 0.34307617 -0.1591758 1.2238482
000010 6c 18 cb bd ff 5b c0 be 47 3d db be 4d e5 88 3e
       -0.099167675 -0.37570187 -0.42820188 0.26737443
000020 c7 8c aa 3e eb a0 7a bf c7 fc f5 bd 33 1c 60 3e
       0.3331053 -0.9790179 -0.12011104 0.21885757
000030 4e 2d f6 be 99 70 0a 3f 68 11 2d bf df 2d a6 3e
       -0.4808144 0.5407806 -0.67604685 0.32456872
000040 12 c5 0f 3f 43 ab e7 3d 36 da 2d 3f 43 1d c1 3e
       0.5616008 0.113119625 0.6791109 0.37717637
000050 7e 8e e5 be 21 d9 25 3f 5f 31 34 3f cc 72 e2 3d
       -0.44835275 0.6478444 0.70387834 0.11057052
000060 6c de 2b 3f f9 26 5f bd f5 5e 60 be af 5a a5 be
       0.67136264 -0.054480527 -0.21911223 -0.3229575
000070 be 7c a8 3e 04 df 56 be 10 a9 57 3e bf 5d 4d bf
       0.3290767 -0.20983511 0.21060586 -0.8022117
000080 84 47 04 3f e7 62 de 3e 6b 15 85 be ed 85 c7 be
       0.51671624 0.43434832 -0.25992903 -0.38969365
000090 34 84 d0 bf a9 d3 c7 3d 5e f9 ad 3d ab c5 6c be
       -1.6290345 0.09757168 0.08494829 -0.2312228
0000a0 ca 0f a7 3e a1 f4 90 bf 7f 83 22 3e ce 1d 26 be
       0.32629234 -1.1324655 0.15870474 -0.16222307
0000b0 df aa 12 3e 18 8b 02 bf 03 f2 87 be 54 f0 04 3f
       0.14322995 -0.5099349 -0.26551828 0.5192921
0000c0 78 af f6 3e 8c 24 f1 be 43 d2 8d be 8e 63 0a bf
       0.48180747 -0.47098196 -0.2769948 -0.5405816
0000d0 6a 05 97 3e a3 7a 86 3f e8 c4 6a be bc 52 8a be
       0.29496318 1.0506176 -0.22926676 -0.27016246
0000e0 69 f7 62 3e a8 5e 99 be d7 56 31 3f ce db d4 be
       0.22164692 -0.2995503 0.6927313 -0.41573948
0000f0 bb 52 70 3f c3 27 08 3f f7 92 a9 bc 54 75 34 3e
       0.93876237 0.5318567 -0.020699961 0.17622882

weight f4 [16]
000000 4c 2c 43 3f ab 2b 6b 3f 4a c8 8a 3f ca a8 53 3f
       0.76239467 0.9186351 1.0842373 0.82679427
000010 3d cc 98 3f 0b 1c 56 3f 09 63 a7 3f 17 78 b8 3f
       1.1937329 0.8363654 1.3077098 1.4411649
000020 1c 62 80 3f c4 f9 a7 3f cb c1 84 3f cb 49 66 3f
       1.0029941 1.3123097 1.0371641 0.8995635
000030 ed e0 c3 3f b2 62 a4 3f 59 05 ea 3e e9 e1 92 3f
       1.5303017 1.284262 0.45707205 1.1475192

bias f4 [16]
000000 70 1d 1e bf e1 93 73 3e 38 d5 0c 3f 8f 27 31 bf
       -0.6176367 0.2378688 0.55012846 -0.69200987
000010 f9 37 96 bf 1f ac 06 bf b3 86 8b 3d 2a 99 ae 3e
       -1.1735831 -0.52606386 0.06812801 0.3410123
000020 17 bd f7 be dd 4b 8a 3e 6b fa e7 3e 90 87 00 3e
       -0.48386452 0.27011004 0.4530824 0.12551713
000030 cc db e5 3d 14 40 a2 be 50 76 bc be e8 5f 15 bf
       0.112235636 -0.31689513 -0.36809015 -0.58349466

running_mean f4 [16]
000000 d5 88 75 3e 4d cf 24 be 0f 0c 1b be cf ee af bd
       0.23977979 -0.16094704 -0.15141319 -0.08590471
000010 7e ba b8 3e 74 03 93 3e 2e c9 f6 bc 47 f2 af bd
       0.36079782 0.28713572 -0.030125227 -0.085911326
000020 e1 7f ed 3c d4 ce 74 be ff 8f 33 be aa 5a 83 bd
       0.028991641 -0.23907024 -0.17535399 -0.06413777
000030 1b 2f 4d be 3c 6f 21 3e fb 7d a2 3d 75 0e 8d 3e
       -0.200375 0.15765089 0.07934185 0.27550092

running_var f4 [16]
000000 8e 32 a3 3f 97 c2 bb 3e 53 7e 33 3f 83 b1 ca 3d
       1.2749803 0.36671898 0.7011463 0.09897139
000010 22 47 cd 3f 0c 6c 90 3f 22 0b fb 3d 64 4e 87 3e
       1.6037333 1.1282973 0.12257983 0.26426995
000020 a0 ac 4f 3e 09 fa dd 3f 5d bf 56 3f aa c0 96 3e
       0.20280695 1.734193 0.8388575 0.29443866
000030 a2 94 1a 3f 09 ff 57 3f a7 4f b0 3d 8a bb be 3f
       0.60383046 0.8437353 0.086089425 1.4900982

weight f4 [16, 8, 1, 1]
000000 1d 71 71 bf ad c9 5f bd e3 c5 f7 be 61 6d ec bc
       -0.9431322 -0.054635692 -0.48393163 -0.02886075
000010 e2 68 2e be c5 46 fc 3e fd 6a 3d bd 36 94 d4 3c
       -0.17032197 0.49272743 -0.04624461 0.025949579
000020 69 85 2e bd da cc e6 3e 45 41 43 3d eb 90 97 3e
       -0.0426077 0.45078164 0.047669668 0.2960275
000030 bf fe a7 bd d8 fe 5f bf 0d 63 4a bf 2a c3 64 be
       -0.08202886 -0.87498236 -0.7905739 -0.22340074
000040 d9 ab ad 3e 49 b1 4a be a7 40 84 be 93 94 cc 3e
       0.33920172 -0.19794191 -0.25830576 0.39957103
000050 33 f5 6b 3f 01 f1 5f 3e 22 71 e2 be 65 06 39 be
       0.9217102 0.2186928 -0.44226938 -0.18068846
000060 cc 8a 09 be 80 7d fc be a6 ca be 3e b1 11 05 3f
       -0.13431853 -0.493145 0.37263983 0.5198012
000070 28 e5 b8 3b 88 78 17 3f c6 2a d6 3e 24 3c b1 3d
       0.005642552 0.5916829 0.4182951 0.08654049
000080 06 8f a7 be 12 56 d0 be 83 4d 8b bf 85 48 d1 bd
       -0.32726306 -0.40690666 -1.088303 -0.1021891
000090 37 f2 0c 3f 5a 63 75 be 90 b4 e9 bd 39 62 08 bd
       0.5505709 -0.23963681 -0.11411393 -0.033296797
0000a0 a5 bf 13 be a5 23 b5 bd 82 06 35 3f 27 95 86 bc
       -0.14428575 -0.08844689 0.70713055 -0.016428543
0000b0 df 75 4b 3d 3b 0e 86 bf 36 6d d9 3d b7 cb 44 bf
       0.049672958 -1.0473093 0.106165335 -0.76873344
0000c0 d4 10 33 bf 03 ff ca 3c d3 51 e1 3d 30 6a cf be
       -0.6994755 0.024779802 0.11001935 -0.40510702
0000d0 49 1b e8 3d 70 4d af be 12 98 db be 10 c3 7e be
       0.11333329 -0.34238768 -0.42889458 -0.24879098
0000e0 12 bc 9c be e2 d4 3c 3f e3 5e 19 3f a1 6d 49 be
       -0.30612236 0.73762333 0.5991041 -0.19670726
0000f0 4c ab 51 be d2 0a b5 bd 8e 6d 5d 3e 5f a5 17 be
       -0.20475501 -0.088399544 0.21623823 -0.14809178
000100 c1 15 8e be ad 20 1e bf d8 49 bf bf 10 5b 4c be
       -0.27750972 -0.6176861 -1.494441 -0.19956613
000110 61 dd 81 be fa ea 5d 3e 4c 85 1e 3e 98 04 7c be
       -0.2536421 0.21671668 0.15480536 -0.24611127
000120 8a 88 93 be 49 a7 7c 3c d4 7c 39 bf 1f 64 c7 3e
       -0.2881511 0.015420743 -0.724561 0.38943574
000130 5f b8 83 be a1 1d b9 be 21 ad e1 bf bd 02 e3 3e
       -0.257266 -0.36155418 -1.763096 0.44338027
000140 d7 4e b3 3e 62 98 18 bf 5e bd f5 3e e4 10 08 be
       0.35021088 -0.5960752 0.47996038 -0.13287693
000150 e0 74 8a 3e 1d 6c 64 3e 6c 28 f7 3e 58 1a bd 3c
       0.27042294 0.22306867 0.48273027 0.02308385
000160 05 f5 8e be f3 12 51 be 95 56 41 3f bb 4b a5 3d
       -0.2792131 -0.20417385 0.7552274 0.08071085
000170 4a 4b 20 bf fb e6 c6 bd 82 05 2b 3f ea 94 a3 3e
       -0.6261488 -0.09712025 0.6680528 0.3194955
000180 1f e0 c9 be 72 65 e1 bd 18 23 0e 3e 2b 09 94 bd
       -0.39428803 -0.11005677 0.13880575 -0.07228311
000190 e6 fc 99 be 46 ad 49 bd 28 9f 65 3f 90 bf 6f bf
       -0.3007576 -0.049237512 0.8969598 -0.93651676
0001a0 e2 50 85 bf 12 02 7b be 93 5d e4 3d 71 6b ae 3d
       -1.0415308 -0.24512509 0.1115066 0.085165866
0001b0 16 62 3e bd 6a b9 91 3e b1 0f 85 be dd b5 cd 3e
       -0.04648026 0.28461772 -0.25988534 0.40177813
0001c0 80 6f e2 bc 01 7c 64 be c4 91 c2 3f d1 9d 0e 3f
       -0.027641058 -0.22312929 1.5200734 0.5570956
0001d0 ca a6 f2 3e 45 57 b1 bc 87 b9 a0 3d 45 95 98 be
       0.47392875 -0.021648059 0.078478865 -0.29801384
0001e0 b0 39 54 bf 0a 77 27 bd 2b 5c 0f 3f d6 ca ec be
       -0.82900524 -0.04088501 0.5600001 -0.46248502
0001f0 fa 24 2a bf c9 dd 96 3e c2 0f ca be 24 bd a2 3e
       -0.6646267 0.29466084 -0.39465147 0.31784928

weight f4 [16]
000000 2f ef e6 3f a0 97 9e 3f ad ec 38 3f 9b e9 63 3f
       1.8041743 1.2390022 0.7223614 0.8902833
000010 35 88 dd 3e 32 f1 88 3f 8e bb 6d 3f 1c 2e 67 3f
       0.4326798 1.0698607 0.9286431 0.9030473
000020 03 41 aa 3f 1d 7b 47 3f fd 14 49 3f 3d 59 5f 3f
       1.330109 0.7792223 0.7854765 0.8724554
000030 e7 61 88 3f 03 32 33 3f 99 17 2e 3f dd 57 92 3f
       1.0654877 0.69998187 0.6800476 1.1433064

bias f4 [16]
000000 70 1d 1e bf e1 93 73 3e 38 d5 0c 3f 8f 27 31 bf
       -0.6176367 0.2378688 0.55012846 -0.69200987
000010 f9 37 96 bf 1f ac 06 bf b3 86 8b 3d 2a 99 ae 3e
       -1.1735831 -0.52606386 0.06812801 0.3410123
000020 17 bd f7 be dd 4b 8a 3e 6b fa e7 3e 90 87 00 3e
       -0.48386452 0.27011004 0.4530824 0.12551713
000030 cc db e5 3d 14 40 a2 be 50 76 bc be e8 5f 15 bf
       0.112235636 -0.31689513 -0.36809015 -0.58349466

running_mean f4 [16]
000000 ee 12 15 bf 0d ff e5 bf d8 45 00 bf 6f 06 bd 3f
       -0.5823201 -1.796846 -0.50106573 1.4767588
000010 00 7b d6 bf 31 13 52 be d2 46 9a bf c4 af 6f 3f
       -1.6756287 -0.20515133 -1.2052863 0.9362757
000020 7e 17 d7 bf 4b de 79 c0 3a 05 b8 3f fc f2 c8 3f
       -1.6804044 -3.9041927 1.4376595 1.5699153
000030 b4 11 87 3f c6 23 ca be 1c 48 e9 3f 97 ab 99 be
       1.0552278 -0.39480418 1.8225131 -0.30013725

running_var f4 [16]
000000 c0 8c e2 3f 86 d6 06 40 91 8c 2a 40 ea 74 7c 3f
       1.7699203 2.1068435 2.6648295 0.98615897
000010 69 91 34 3f 9c 60 a0 40 3b ee 6d 40 02 22 11 3f
       0.7053438 5.011793 3.7176654 0.56692517
000020 f9 90 4e 40 2b 62 10 40 0d a1 6a 3f 03 78 ad 3f
       3.2275984 2.2559917 0.91651994 1.355225
000030 9e f7 5a 40 f3 da 1b 40 82 05 4d 3f a3 e3 92 40
       3.4213634 2.4352386 0.8008653 4.5902877

weight f4 [4, 16, 1, 1]
000000 a3 8a 29 bf cf 04 18 bf 49 6b b7 3e fc eb ef be
       -0.6622717 -0.5938234 0.3582404 -0.4685973
000010 b5 71 eb 3e 8b 7c 4d be 23 77 11 3e 8e ba fb 3d
       0.4598519 -0.2006704 0.14205603 0.12291442
000020 e5 34 42 3d 49 14 88 be 56 2b 8f be f1 8d 53 3e
       0.047413725 -0.26577976 -0.2796275 0.20659615
000030 4e c5 5c 3e e8 a2 43 3e e3 19 66 3e 43 68 fc be
       0.21559641 0.19105113 0.22470812 -0.49298295
000040 13 ea a8 3d 1d f5 20 3c 3e 1b c2 bc be f7 91 be
       0.08247771 0.009824065 -0.02369463 -0.28509325
000050 ae e3 0d bf f3 39 5f bb b8 b9 7c bd 6d 6b 64 3e
       -0.55425537 -0.003406164 -0.061700553 0.22306605
000060 e1 43 4d 3f 05 3f 7a be 6d 82 c3 bd 59 90 14 be
       0.801817 -0.24438103 -0.09546361 -0.1450819
000070 f6 ff c8 bb 57 4f 84 3e 23 b3 37 bd 45 bc 10 3f
       -0.0061340285 0.25841781 -0.044848572 0.56537277
000080 40 b2 98 3e b7 29 a8 3c 11 f9 79 3e a3 d0 d5 3d
       0.29823494 0.020527704 0.24411418 0.10440185
000090 d9 70 94 3e e0 f7 3c 3e b6 04 12 3f df e7 38 3e
       0.28992346 0.18453932 0.5703844 0.18057202
0000a0 0f 3d 88 3e 19 1e 8c be 61 56 09 bd 77 62 8c 3e
       0.26609084 -0.27366713 -0.033529643 0.27418873
0000b0 cc ea 93 39 46 fa 66 3f ab 70 32 bd 25 27 80 be
       0.00028212962 0.90225637 -0.04356448 -0.25029865
0000c0 ec 4e 81 3e 31 f3 1a be 6f a4 17 3d c5 02 ad 3e
       0.25255525 -0.15131833 0.03702205 0.33791175
0000d0 97 3e 1a 3f 07 b6 46 3d 4c ed 36 3e 7b d1 76 3f
       0.60251755 0.04851344 0.17863959 0.9641339
0000e0 4d fd 6c be c5 61 bf 3e 83 73 a6 3e bb 9f bc be
       -0.23143502 0.3737928 0.32510003 -0.36840615
0000f0 5c ed 3f be 80 80 25 3d 02 f9 7f 3e 32 90 c3 3e
       -0.18742889 0.04040575 0.24997333 0.3819595

weight f4 [4]
000000 1b 04 73 3f b6 ea 86 3f 6d b8 94 3f 57 47 86 3f
       0.9492814 1.0540378 1.1618782 1.0490521

bias f4 [4]
000000 9f 78 ae 3e 26 aa 14 3e a1 38 cd 3d cb 7f 55 bd
       0.34076402 0.14518031 0.10020567 -0.052123826

running_mean f4 [4]
000000 00 98 0a be c9 a2 4f be 1a bd 31 3f 7b 6a a7 3f
       -0.13534546 -0.20276941 0.6942917 1.307937

running_var f4 [4]
000000 1d 0b 16 3e d4 5c 4d 3e cf cb 45 3f 9e 00 8c 3e
       0.14652677 0.20054942 0.7726411 0.2734422

weight f4 [4, 4, 3, 3]
000000 2e fc d0 be 3b 84 bb be 1f ed e3 bd bc 53 c6 3d
       -0.40817398 -0.3662432 -0.11129212 0.0968394
000010 de 25 8a 3c f2 f9 f0 be 98 5b 0c 3f 1c e0 9c 3e
       0.01686376 -0.47065693 0.5482726 0.30639732
000020 5d f8 cd be 1d 02 e7 3d 4b 64 e8 3e b6 de c2 3e
       -0.4022855 0.112797 0.45389017 0.3806054
000030 1f b0 94 3e 45 e5 90 3e 4b 31 34 3f 83 b7 be 3e
       0.2904062 0.2829992 0.70387715 0.37249383
000040 59 f3 1f 3f e9 f2 f2 3e 52 d2 00 be 28 fb 09 3e
       0.62480694 0.4745095 -0.12580231 0.13474715
000050 5c a1 c7 3d 20 f1 92 3c b1 9d 49 3e 3c 7e 3b 3d
       0.09747574 0.017937243 0.19689061 0.045774683
000060 cc 3f 27 3e 53 e5 a6 3d 81 0e 7d 3b aa c1 54 be
       0.1633293 0.08149209 0.0038613381 -0.20777002
000070 c2 9d e9 be fb 32 7b be e5 75 14 bf f6 e3 a6 be
       -0.45628172 -0.24531166 -0.5799239 -0.32595795
000080 aa c2 91 be 3c 07 75 be 18 a4 fa be 91 83 6c be
       -0.2846883 -0.23928541 -0.4895332 -0.23097064
000090 75 e1 fd be ab dd 15 3e 2f a9 2a 3f 5e b7 4b be
       -0.49586073 0.14635341 0.66664404 -0.19894168
0000a0 1e 08 b5 3e 7b 88 11 3f 78 aa 1b be 8f 1c 96 3e
       0.35357755 0.5684888 -0.15201747 0.29318663
0000b0 4b 99 52 3e ea fe cf 3c dd d3 19 3e a2 80 1b bf
       0.20566289 0.025390107 0.15022226 -0.60743153
0000c0 cd 0e a9 3e a2 bf 79 3d 85 97 18 bf 57 0c 20 3f
       0.33019105 0.06097377 -0.596062 0.6251883
0000d0 18 3f 19 bf ba 10 c8 be 09 29 d5 3d 44 a3 76 be
       -0.598619 -0.3907526 0.104082175 -0.24085718
0000e0 2b 1c 4c be 0a 43 af bd f9 73 f0 bc 67 36 30 bf
       -0.1993262 -0.085577086 -0.029352175 -0.6883301
0000f0 f9 80 ad be b6 e0 04 bf f8 b6 b8 be 0d 9e c0 be
       -0.3388746 -0.5190538 -0.36077094 -0.37620583
000100 f4 82 0a bf 4b 25 bc be 95 09 6b be 15 37 ea bd
       -0.5410607 -0.36747202 -0.22952874 -0.11436287
000110 37 da 68 be 1b 7b a0 be d3 aa de bd 65 b4 8a bd
       -0.22739492 -0.31343922 -0.10872426 -0.06772689
000120 49 8b 04 3f e7 a3 48 3f 32 56 94 3e 28 47 ea 3e
       0.5177503 0.78375095 0.28972012 0.45757413
000130 ef 23 ae 3d 34 2b f7 3e 2a ba 1c bd 15 4a a6 3e
       0.085029475 0.4827515 -0.038263477 0.32478395
000140 8a d6 94 3e b5 87 83 3e 4c c8 03 3e e8 88 48 3e
       0.2906993 0.25689474 0.12869376 0.19583476
000150 d6 f2 3b 3e 90 fd a0 3d 9e 83 9c 3d 9e 08 3f 3e
       0.18354353 0.07860863 0.076422915 0.18655631
000160 d5 7a a5 3e 80 1f 97 be 52 21 1a bd 67 65 cd 3d
       0.32320276 -0.2951622 -0.037629433 0.100291066
000170 85 4f c9 3c 58 f8 92 3d 3c dc f6 3d 84 a5 e7 3e
       0.02457405 0.07176274 0.12053725 0.45243466
000180 c0 c6 25 3e 8f f4 58 3e 59 8c 77 3e 1d b6 25 be
       0.16189098 0.21187042 0.24174632 -0.16182752
000190 d1 86 8d bd 32 01 87 3e 12 9a c6 be b1 c0 fc be
       -0.0691048 0.263681 -0.3878942 -0.49365762
0001a0 9d 25 54 be a9 d7 f6 be d8 8f 38 bf 39 15 be be
       -0.20717473 -0.4821141 -0.7209449 -0.37125567
0001b0 64 45 bf bd 63 f1 d6 bd 47 e5 13 be e5 c7 19 3e
       -0.09339407 -0.104952596 -0.14442931 0.1501766
0001c0 8f f4 06 3d 5b 3a 1b bd dc e8 8a 3e 93 a6 35 3e
       0.032948073 -0.03789745 0.27130783 0.17739324
0001d0 3b ef 5c 3d 3f 62 3b bf c0 81 0c bc c9 42 40 3e
       0.053939085 -0.73196787 -0.008575857 0.18775477
0001e0 da 1c 4a be db e6 08 3e 7a 1f 0e 3f 12 c1 62 3e
       -0.19737568 0.13369314 0.5551678 0.22143963
0001f0 19 f2 f5 3e 0b 85 bc 3e 74 c8 43 bf 81 93 20 bf
       0.48036268 0.36820254 -0.7647774 -0.62725073
000200 44 4e b0 be 45 5c 63 bf de 2b cd be 1f 45 8f be
       -0.34434712 -0.8881267 -0.4007253 -0.27982423
000210 c6 e1 c6 be 7f cb d3 be 17 56 c4 be e1 6e 1a bd
       -0.38844126 -0.41366193 -0.3834693 -0.0377034
000220 20 3f 28 3d e1 2c 58 3e b6 26 2b 3e 63 c0 a2 3d
       0.041075826 0.2111087 0.16713986 0.07946851
000230 ae bf 66 3e 6f d5 68 3e b2 cb 87 3e ef a7 44 3e
       0.22534057 0.22737668 0.26522595 0.19204687

weight f4 [4]
000000 78 3a 0d 3f 41 f5 84 3f 51 ad 37 3f 22 9a c7 3f
       0.5516734 1.0387346 0.71748835 1.5593913

bias f4 [4]
000000 1d 3d 55 3f 23 72 5e 3f b4 c9 a4 be 6a 85 32 3e
       0.83296376 0.8689291 -0.32185137 0.17433706

running_mean f4 [4]
000000 e7 fe 7d 3d 7d 0b 18 bf 21 9d 98 3f 0f 89 d0 be
       0.062010672 -0.5939253 1.1922952 -0.40729567

running_var f4 [4]
000000 ec 4c a5 40 d7 d6 9d 41 63 a7 a8 40 8a 65 16 41
       5.16564 19.729902 5.270433 9.39979

weight f4 [16, 4, 1, 1]
000000 30 e7 2d 3f fd 0c 49 3f a4 25 ab 3e a5 15 cf 3e
       0.6793089 0.78535444 0.33427155 0.404462
000010 9a 6c 80 3f 3a 3d 30 3f a6 69 b8 3c b1 12 d5 3e
       1.0033143 0.68843424 0.022511315 0.41615823
000020 51 28 08 be ff 59 08 bf 9f 78 21 be 18 7e 15 bf
       -0.1329663 -0.53262323 -0.1576867 -0.5839553
000030 92 02 43 be eb 7b d6 3e 7c 4f 9a 3e d3 e1 bc 3e
       -0.19043949 0.41891417 0.30138767 0.3689104
000040 7b c5 a6 be 77 d8 6a bf 78 88 48 3e f1 cf 33 bf
       -0.3257254 -0.9173655 0.19583309 -0.7023917
000050 b9 73 3d be e7 86 2a 3f 91 2f 08 3f df 37 16 be
       -0.18501176 0.66612095 0.5319758 -0.1466975
000060 15 1c 44 3d 5d 2e 0a bf 00 4e 92 be 3a 20 80 3e
       0.047878344 -0.53976995 -0.28575134 0.25024587
000070 37 80 99 3e 9b 2a 5b 3e da fc 53 3f fa 80 9e be
       0.29980633 0.21402971 0.82807696 -0.30957776
000080 e6 1a d0 be c8 15 2d bf dd 88 c5 3d e2 a7 19 bf
       -0.40645522 -0.6761136 0.09645245 -0.60021794
000090 0c 74 41 3f 65 cd e8 3e 73 bf e6 3e 06 4b bd 3e
       0.755677 0.45469204 0.4506794 0.369713
0000a0 95 ce f4 3c 80 55 6b be 19 4c c7 3d ba 86 8e 3f
       0.029883662 -0.22981834 0.09731311 1.1134865
0000b0 08 75 3e be 26 10 fd 3e 9f ec fa 3e 6c 7f ce 3c
       -0.18599331 0.49426383 0.49008653 0.025207244
0000c0 79 4e 5e be 89 f6 bc be b4 7a 8c be 97 90 c0 bd
       -0.21709622 -0.3690684 -0.27437365 -0.09402578
0000d0 f8 76 bc 3f cd 56 6f 3d 2b 46 71 3c fb 96 b3 3e
       1.4723806 0.05843239 0.014726202 0.35076126
0000e0 ae 85 b2 be 22 da 0c bf 2a b6 9a 3e b6 67 5e 3f
       -0.34867615 -0.55020344 0.30217105 0.86877
0000f0 8a 26 e2 be fa ff 3b 3e 75 31 2a 3f 1d 29 c5 3e
       -0.44170028 0.18359366 0.66481715 0.3850793

weight f4 [16]
000000 27 59 9d 40 54 99 b0 40 27 47 89 40 48 ff b2 40
       4.917133 5.518717 4.2899356 5.5936623
000010 ca 4e 81 40 2b d9 c0 40 d9 05 8a 40 4a 67 82 40
       4.040868 6.02651 4.313214 4.0751085
000020 7c 8a a7 40 3f 35 a7 40 12 d2 cf 40 ed 4c b1 40
       5.235655 5.22525 6.4943933 5.5406404
000030 b4 07 80 40 e7 a5 99 40 5c ee ba 40 83 f6 82 40
       4.0009403 4.8015018 5.8415966 4.092592

bias f4 [16]
000000 87 85 9c 3e b3 cd 17 bd 9e 0c 06 3f c8 de 44 3e
       0.30570623 -0.037061404 0.52363 0.1922561
000010 cc 8a 34 3f 97 64 8d 3e 31 78 a6 3f a9 6a da 3e
       0.7052429 0.27615806 1.300543 0.426595
000020 ef 0c 65 3f 30 44 1a 3f aa f8 87 3e c8 d7 7c 3d
       0.8947286 0.60260296 0.26556903 0.061729223
000030 b9 f7 76 3f 2a 7d 87 3e 7f 87 84 3e 5d 8f f9 3e
       0.96471745 0.2646268 0.25884625 0.4874219

running_mean f4 [16]
000000 bc d7 cc 3f 6e d1 df 3f 67 8e 70 bf cc 90 f0 3e
       1.6003337 1.7485788 -0.9396729 0.4698547
000010 80 dc c0 bf e5 5f 01 3f da c4 d6 be a3 2f d7 3e
       -1.5067291 0.5053695 -0.4194706 0.4202853
000020 19 cd a5 bf 85 00 aa 3f 39 43 a6 3e 0b 54 d2 3e
       -1.2953216 1.3281409 0.32473162 0.41079745
000030 99 01 23 bf 0c d7 bd 3f 50 8e d3 be 2d 4c 91 3d
       -0.6367431 1.4831252 -0.41319513 0.070946075

running_var f4 [16]
000000 57 45 05 3e 91 1b 2e 3e c7 ce 38 3d cb 01 1e 3d
       0.13014732 0.17002703 0.045119073 0.03857593
000010 3f 4d 0c 3e 99 a9 ad 3d 9a fe 20 3d 17 38 9d 3e
       0.13701342 0.08479614 0.039305307 0.30706856
000020 71 68 a2 3d 44 46 42 3e 23 b8 0a 3e 4d 51 7d 3d
       0.07930077 0.18972117 0.13546805 0.061845113
000030 40 aa 09 3d cb 20 c9 3e 09 75 11 3e 8b 83 03 3e
       0.03360963 0.39282832 0.14204802 0.12843148

weight f4 [16, 16, 1, 1]
000000 28 e7 25 3d ec 42 02 bf fa a8 cf 3c 4f 9a 62 be
       0.04050365 -0.50883365 0.025349129 -0.22129177
000010 9d f9 c3 be db 59 89 bf 4a 77 b0 be 7e 7f e0 be
       -0.38276377 -1.0730547 -0.3446601 -0.4384727
000020 0d 2a 00 3f cc 64 22 be dc 13 7f bc 10 fb 07 be
       0.50064164 -0.15858763 -0.0155687 -0.13279366
000030 bc 82 c8 be ea c4 f2 3d 89 3f 0d 3f 9d 1c a2 bc
       -0.39162242 0.118539646 0.5517507 -0.019789035
000040 57 1b b3 be c0 ca 1a be 8d 64 24 3e d0 60 b7 bd
       -0.34981796 -0.15116405 0.16053982 -0.089540124
000050 39 b8 48 bf d3 cb 26 3f a5 ae 8f 3d ec 3b 08 be
       -0.784061 0.6515476 0.07015733 -0.13304108
000060 22 06 21 3e 54 98 9a 3e 24 66 17 be 8f 1f b4 3e
       0.15724996 0.30194342 -0.14785057 0.35180327
000070 7e 9b 36 3e 86 fd a8 3e 64 f0 a8 bc 2a 22 28 3f
       0.17832753 0.33005923 -0.02062244 0.6567713
000080 d3 cf 92 3f 8e 57 b1 3e d2 f1 52 3d 2a a5 24 3e
       1.1469673 0.3463711 0.05150015 0.1607863
000090 5f 98 16 be 63 c5 25 be f7 6b 1f be a2 e1 8a bc
       -0.14706562 -0.16188578 -0.15568529 -0.016953293
0000a0 02 a9 75 3e 61 54 02 bf 33 cb b4 3d ad 14 7f 3e
       0.23990253 -0.5091 0.0882782 0.24910231
0000b0 ff ff 25 bf a2 cc f6 3c 49 79 4b 3e aa 47 19 bf
       -0.64843744 0.030126873 0.19870485 -0.59874976
0000c0 e6 5b 6c bf 14 e1 25 bf b6 3a d7 3e 79 16 bf be
       -0.92327726 -0.64796567 0.4203698 -0.37321833
0000d0 c9 a8 40 3e 76 22 ec 3e 2d 5d af bc 68 0b d6 bd
       0.18814386 0.46120042 -0.021406734 -0.10451394
0000e0 b2 3e 29 be f3 ef 60 be f0 bb 90 be 52 37 06 3f
       -0.16527823 -0.21966533 -0.28268385 0.5242816
0000f0 d9 5c 12 be f2 30 9f bd 11 c7 d1 3e 5e 0c b2 be
       -0.14293231 -0.077730075 0.40972188 -0.3477506
000100 14 7c a0 3e 6a c1 63 be e4 07 87 3e 84 6c bf 3b
       0.31344664 -0.2224175 0.26373208 0.0058417935
000110 96 43 f3 3e 78 58 be be 73 1e 3d bc 37 3c 87 3e
       0.475125 -0.3717687 -0.011542904 0.26413128
000120 51 9b c0 3c a4 b6 06 bf c2 99 dc be b5 95 ef 3e
       0.02351156 -0.5262244 -0.43086058 0.46793905
000130 27 fb 1e bf f7 f7 e2 3e 1c 4e 05 be d5 12 54 bf
       -0.6210198 0.44329807 -0.13018078 -0.82841235
000140 82 7a 4a bd dd 30 86 be bf 59 9b 3e a3 db 6e bd
       -0.04943324 -0.26209155 0.30341908 -0.05831493
000150 9a 4f 0f 3f 58 15 02 bf aa e5 0d bf 1c e9 3a be
       0.5598084 -0.5081382 -0.55428565 -0.18252987
000160 5f 40 fb bd 4d a8 a7 3d da 08 84 be 87 65 19 3e
       -0.12268137 0.08186398 -0.25788003 0.14980136
000170 0c 39 c6 be 6f 3c 0e 3f 82 d8 1a be 85 33 ff be
       -0.38715398 0.55560964 -0.15121654 -0.49843994
000180 2c 3c c2 3e 4b 6a 9b 3e ba 84 04 bf f6 09 dd 3e
       0.37936532 0.30354533 -0.51765025 0.43171662
000190 94 05 a1 be 1d eb 07 be d4 5a 4b 3e a4 49 63 3e
       -0.31449568 -0.13273282 0.19858867 0.2219606
0001a0 61 b7 81 3d 75 64 2c be b2 31 da bd 85 f9 81 3e
       0.06333805 -0.16835196 -0.1065401 0.2538568
0001b0 38 c3 72 bf 71 6a a7 bd 29 c3 a8 bd f7 89 0e 3f
       -0.9482913 -0.08174599 -0.08240349 0.5567927
0001c0 b1 bf 73 be f2 04 98 3d 15 86 3b be e7 aa 00 be
       -0.23803593 0.07422818 -0.18312867 -0.12565194
0001d0 3c f4 b7 bd 84 2e 0e 3f f1 c5 3a 3f 34 11 8e 3e
       -0.08982131 0.5553973 0.72958285 0.277475
0001e0 82 0c 4f 3e 5d 47 37 3e 69 4f 10 3e 57 c4 bc bd
       0.20219615 0.17898317 0.14092793 -0.09217136
0001f0 4a e9 74 3f 03 d0 c3 3e b5 71 75 3e 61 cd e9 bd
       0.9566847 0.38244638 0.23969157 -0.11416126
000200 ec 1c 0e 3f 1e 09 57 3d e7 d6 6e bc 38 1d d1 3d
       0.5551288 0.05249893 -0.014577604 0.10210651
000210 4e 8c 01 bf a6 60 1b be 0f 55 c1 3e 34 67 a6 3e
       -0.5060471 -0.15173587 0.37760207 0.32500613
000220 1c 58 e8 be e1 3e 58 be ec 18 9f 3e 7c 51 e5 3e
       -0.45379722 -0.21117736 0.310737 0.4478873
000230 ed 6d 84 bd 51 e1 36 3f 5b 6c a0 3e d4 af e9 be
       -0.06466279 0.71437556 0.3133267 -0.4564196
000240 ea ef 20 3d 05 bb cc be d8 bd b1 be d0 6d 16 bf
       0.0392913 -0.39986435 -0.34715152 -0.5876131
000250 6e 66 81 3d fb cb 78 bf 14 a0 ca bd a8 7e fa 3e
       0.06318365 -0.9718625 -0.09893814 0.48924756
000260 f2 14 94 3f f6 a6 30 be 0b a1 5f be 1b d1 fa bd
       1.1568892 -0.1725119 -0.21838777 -0.12246915
000270 ad 10 15 3d db 60 53 3e e5 1d 8c 3b 56 f0 e2 3d
       0.036392856 0.20642416 0.0042760246 0.11080997
000280 7e 46 9f be fa 59 24 3e c8 49 aa 3e 19 6f ab 3e
       -0.3110847 0.16049948 0.33259416 0.33483198
000290 c7 dc 0e 3e 64 3a 80 3d e5 60 04 bf 2a 76 3c 3f
       0.13951407 0.06261137 -0.5171035 0.73617804
0002a0 a1 3f 59 be 1c 66 85 3d ac a5 74 be 37 7b a8 bd
       -0.21215679 0.065136164 -0.23891324 -0.08226626
0002b0 0c ce 60 bf e2 20 cf 3d b3 a0 34 be 5d e8 2e 3f
       -0.878144 0.10113694 -0.17639427 0.6832331
0002c0 b7 ee 6a be 3b f5 e0 bd 3c e3 4b 3f 48 bb e6 be
       -0.22942625 -0.10984274 0.7964361 -0.4506476
0002d0 a1 42 af be 20 8b 32 3f c7 64 da 3e a0 3b 4f 3b
       -0.3423052 0.6974354 0.42655012 0.0031621233
0002e0 83 a9 a6 bd df 1d 3d bd 77 b5 b9 bd 20 9a 2a be
       -0.081378005 -0.046171065 -0.09067815 -0.16660357
0002f0 43 f0 0e 3f f4 f8 95 3e 8a 25 d4 bb b8 04 5c be
       0.5583536 0.292915 -0.0064742016 -0.21486175
000300 59 42 92 be 28 ab 5b bc dc d1 b1 be 18 c0 a0 3e
       -0.28566244 -0.013407506 -0.34730422 0.31396556
000310 de 39 80 3e d9 c0 74 3f cd 27 23 3e 53 76 69 be
       0.2504415 0.9560676 0.15933152 -0.22799043
000320 56 6f 9a be 48 c5 2d be 10 09 0b 3e c9 e2 85 be
       -0.30163068 -0.16969788 0.13577676 -0.26149586
000330 b0 f6 10 3f 20 2c 0e be e8 4e 02 3f e3 c8 04 3e
       0.56626415 -0.1388402 0.5090165 0.12967257
000340 e4 82 56 3f 7e 6c 28 3f 26 49 51 3d bf 37 d4 bd
       0.83793473 0.65790546 0.05109515 -0.10362195
000350 c3 d9 99 3c 93 b7 5a 3f d3 4f 43 3e 2e 0c 5e 3b
       0.018780595 0.8543636 0.1907342 0.0033881771
000360 d8 8b 75 3f af f0 64 3d 56 68 6c be 4c e0 eb 3d
       0.9591651 0.055893596 -0.23086676 0.115173906
000370 fb 4e 25 bd 9e 30 65 be 47 40 cc be 69 71 17 3c
       -0.040358525 -0.22381827 -0.3989279 0.009243348
000380 78 dd 99 be 41 be f2 bd c1 5d 7b be 60 48 ee bd
       -0.3005178 -0.11852694 -0.24547483 -0.11634898
000390 e5 87 aa 3e e8 f9 03 3f c4 e3 67 3f a9 0b 7b 3f
       0.33306804 0.515532 0.9058192 0.98064667
0003a0 d4 b0 9a 3e 34 c4 00 3f fe 21 86 3e 2b e7 d5 be
       0.30213034 0.5029938 0.2619781 -0.4177793
0003b0 e3 65 1a bd d1 9f 89 3c ad 39 63 3d e9 c2 6b be
       -0.037694823 0.01679984 0.055474926 -0.23023571
0003c0 8c 67 1b bf 1a 31 09 bf 6f 74 ea bd d3 0d af bd
       -0.60704875 -0.5359055 -0.11447989 -0.08547559
0003d0 69 b7 52 be 16 cf 46 be f1 41 3b 3f 00 86 77 be
       -0.20577778 -0.19414935 0.73147494 -0.2417221
0003e0 0e 8c 08 bd cb 34 75 bd 7b 0e 08 3f e1 f4 19 3d
       -0.03333669 -0.0598648 0.53147095 0.03758705
0003f0 1f e9 0f 3d 3e 88 13 be d4 ad 38 3f 92 df 46 3e
       0.03513443 -0.14407441 0.7214024 0.19421223

weight f4 [16]
000000 aa 9c a5 40 52 29 7b 40 a5 78 a1 40 e4 a0 8f 40
       5.175374 3.924397 5.045977 4.48839
000010 bf 81 bd 40 39 21 bf 40 b8 03 8a 40 6d 8b b0 40
       5.922088 5.9728055 4.312954 5.5170197
000020 5b 8c bb 40 23 aa 93 40 4e 3a 87 40 43 dd 9c 40
       5.860883 4.6145186 4.2258673 4.9020095
000030 00 72 fa 40 c5 2d 8c 40 8b dd af 40 7a 67 d8 40
       7.826416 4.380587 5.495794 6.7626314

bias f4 [16]
000000 87 85 9c 3e b3 cd 17 bd 9e 0c 06 3f c8 de 44 3e
       0.30570623 -0.037061404 0.52363 0.1922561
000010 cc 8a 34 3f 97 64 8d 3e 31 78 a6 3f a9 6a da 3e
       0.7052429 0.27615806 1.300543 0.426595
000020 ef 0c 65 3f 30 44 1a 3f aa f8 87 3e c8 d7 7c 3d
       0.8947286 0.60260296 0.26556903 0.061729223
000030 b9 f7 76 3f 2a 7d 87 3e 7f 87 84 3e 5d 8f f9 3e
       0.96471745 0.2646268 0.25884625 0.4874219

running_mean f4 [16]
000000 4d 57 b6 bf 0c 77 d4 3e 3f 0c e0 be 10 2f d3 be
       -1.4245392 0.41497076 -0.43759343 -0.41246843
000010 95 fa 44 bf b1 b1 2b bf 42 d1 63 bf 53 c4 bc 3f
       -0.7694486 -0.6706801 -0.8899118 1.4747413
000020 8a 10 5d 3f 18 0e 43 bf 55 49 c4 3d 35 d8 9c 3f
       0.8635336 -0.7619338 0.095842995 1.2253481
000030 6c a0 0e be 68 79 f6 3e 01 f6 b5 3f 55 93 4b 3e
       -0.13928384 0.481395 1.42157 0.19880421

running_var f4 [16]
000000 6f ff 88 3e 5e 50 37 3e 7d 48 56 3e 67 25 a7 3e
       0.2675738 0.17901751 0.2092609 0.32645723
000010 3d f4 7f 3e 41 54 89 3e 49 19 35 3e 21 85 99 3e
       0.24995513 0.26822093 0.17685427 0.29984382
000020 19 37 8b 3e 3a 62 bc 3e 25 1d 4b 3e 06 e0 3a 3e
       0.27190474 0.3679369 0.19835337 0.1824952
000030 47 97 b6 3e 58 50 6d 3e b5 06 d2 3e c4 94 e6 3e
       0.3566229 0.2317518 0.41020742 0.45035374

weight f4 [10, 16]
000000 9f 76 20 3f 5c 52 3d 3f 39 c4 95 bf 75 39 9f 3f
       0.62681 0.73953795 -1.1700507 1.243941
000010 fd 00 14 c0 8c 1a a7 bf eb 5b 8c bf 04 4c ee 3f
       -2.3125603 -1.3054976 -1.0965551 1.8616948
000020 42 0d 56 bf 72 02 f5 3c 80 32 35 c0 b3 47 8c 3f
       -0.8361398 0.029908393 -2.8312073 1.0959381
000030 bc f5 d6 3f 19 2b ce 3e 20 34 9f bf 96 4e 17 40
       1.6793742 0.40267256 -1.2437782 2.3641715
000040 7d 83 82 bf ee e6 e4 be 9c 8e 2e bf 9b 08 95 bf
       -1.0196377 -0.44707435 -0.68186355 -1.1643251
000050 99 14 03 c0 20 03 7e c0 fe 31 f9 3f 7d 98 e0 bf
       -2.0481322 -3.9689407 1.9468381 -1.7546536
000060 8d cd 9d bf 59 d0 c8 be be 0b 8a 3f 65 14 4d c0
       -1.2328354 -0.39221457 1.0784833 -3.2043698
000070 6f cc dd 3f 02 54 01 3e 23 6b d1 3f 05 b4 e4 3e
       1.7328013 0.12629703 1.636082 0.44668594
000080 08 ef e3 bf 55 7b 26 bf 77 c2 4f 3f 71 7e ba bf
       -1.7807322 -0.6503194 0.81156105 -1.4569837
000090 53 11 89 3f 58 4a aa bf 78 5e 50 bf 75 2e fe 3f
       1.0708412 -1.3303938 -0.8139415 1.9857928
0000a0 c9 a5 f9 3f de e8 df be c9 ed 17 c0 3d 70 ab 3f
       1.9503719 -0.4373235 -2.3738883 1.3393627
0000b0 c6 d3 b5 bf e7 64 d6 be fa 9d a2 3f 27 59 71 3c
       -1.4205253 -0.41873857 1.2704461 0.014730728
0000c0 c1 2b 12 3f 8a af cc 3f c1 b2 da 3f 74 83 21 c0
       0.57098013 1.599107 1.7085801 -2.5236483
0000d0 b1 61 fe 3f b2 8f ab 3e 18 ed 9d bf c9 d6 10 bf
       1.9873563 0.33508068 -1.233798 -0.56577736
0000e0 74 ce 81 3f 31 ff 4a 3f 91 44 c7 bf 5e e5 98 bf
       1.014113 0.7929564 -1.55678 -1.1944997
0000f0 e6 e1 98 bf e5 e5 f6 3f bb 53 21 c0 d8 b5 3c c0
       -1.1943939 1.9288908 -2.5207355 -2.9485989
000100 c9 3e 4e c0 1b 96 49 c0 c7 1f e5 be 25 a0 9e 3f
       -3.222582 -3.1497867 -0.44750807 1.2392622
000110 c1 ed 96 3f 34 f1 98 3f 62 01 5e 3e 2b b4 d7 be
       1.1791307 1.1948609 0.21680215 -0.42129645
000120 c5 20 bf 3e 18 ac 19 c0 44 82 00 40 d8 a3 1e bf
       0.3732969 -2.4011288 2.0079508 -0.61968756
000130 00 ff 9b 3d 53 6c 55 c0 96 fe ea 3f 05 52 ae bd
       0.07616997 -3.3347366 1.8358943 -0.08511738
000140 2d da c8 3f 74 f9 df 3f ba 9a 17 be 79 84 8a bf
       1.5691582 1.7498002 -0.14805117 -1.0821677
000150 13 8f b7 bf f7 41 a3 be 50 32 95 bd d3 1d e4 3b
       -1.4340538 -0.31886265 -0.07284987 0.006961563
000160 e1 14 76 bf bc 04 e9 3f 05 d4 00 40 63 21 85 be
       -0.9612561 1.820457 2.0129406 -0.26002035
000170 06 27 dd bf 54 d2 bc 3f 71 d1 ee 3e af 76 39 c0
       -1.7277534 1.4751687 0.46644166 -2.8978689
000180 49 f3 76 3f 25 43 41 3f a7 69 12 c0 ae 35 a3 3f
       0.96464974 0.7549308 -2.2876985 1.2750757
000190 37 b0 b0 bf 58 51 82 3e 4f cf 12 bf 70 d5 c5 3e
       -1.3803777 0.25452685 -0.5734758 0.38639402
0001a0 93 cb 3a c0 0c 86 95 bd d3 87 f7 3f 9f 81 32 3f
       -2.9186752 -0.07300958 1.9338325 0.69729036
0001b0 2c 92 20 bf 2b 91 cb be 7b cc b8 3f 7f 63 83 3f
       -0.6272304 -0.39759192 1.4437402 1.0264739
0001c0 fb d1 0f bf 94 d5 43 c0 47 cd e3 3f 05 65 35 c0
       -0.5617978 -3.0599108 1.7797021 -2.8342907
0001d0 36 a8 2f 3f cf 53 f7 bf 2b 4b 18 3f f5 8e 3b c0
       0.68616045 -1.9322451 0.594897 -2.9306004
0001e0 9c a7 c8 3f 35 4b e2 bf fd b2 63 bf dc e7 44 c0
       1.567615 -1.7679201 -0.8894499 -3.0766516
0001f0 7a 2a c6 3f 2d 21 6d 3f 25 fd 65 bf 01 bd 48 3f
       1.5481713 0.9262875 -0.8983939 0.784134
000200 bb 4b c7 3f 70 3a 73 bf 92 f1 e7 be 20 6d b6 3f
       1.5569986 -0.95011044 -0.4530149 1.4252052
000210 e4 3c 2d 3f e9 aa 37 40 4a d1 04 bf e3 af 39 be
       0.67671037 2.8698065 -0.5188185 -0.18133502
000220 54 84 86 bf 14 cc 82 3f e9 3a a2 bf bb 3f f5 3e
       -1.0509133 1.021853 -1.2674228 0.47900185
000230 e9 48 d1 bf 12 31 b7 bf 4c 59 b7 bf 9b 07 c9 be
       -1.6350375 -1.431185 -1.4324126 -0.39263615
000240 a0 8f 97 bf 3d e2 da be 44 a5 0c bd 24 71 b5 3f
       -1.1840706 -0.4275073 -0.034337297 1.4175153
000250 c8 09 0c 3f b0 15 0a 40 5f 4d 85 3f df b6 35 c0
       0.54702425 2.1575737 1.0414237 -2.8392866
000260 62 bd 2d 3f e7 8e 1c c0 dd e5 ad be 87 f9 62 3f
       0.678671 -2.446222 -0.33964434 0.88662
000270 83 09 26 3f ee 7d d4 bf 71 14 5f c0 fc 34 9c 3d
       0.64858264 -1.6600931 -3.4856226 0.076272935

bias f4 [10]
000000 86 9e b6 be 64 89 ce 3f 48 96 cc 3e fd 2f 9c be
       -0.3566782 1.6135678 0.39958405 -0.30505362
000010 19 70 37 be 3e ea 40 be aa 2a a3 bf 75 f7 c9 3d
       -0.17913856 -0.18839356 -1.2747395 0.09861652
000020 42 f9 08 3d ad 74 39 3f
       0.033440836 0.7244366
