HW2/aML/R6_btnk_ch8(2).pt (torch, 70878 bytes, 47 tensors)

weight f4 [8, 3, 7, 7]
0	0x3f0451c2	0.5168725
1	0x3d63d56f	0.055623468
2	0xbdbf5b84	-0.09343627
3	0xbd26e4a2	-0.040745385
4	0xbcc44d88	-0.023962751
5	0x3e6b233d	0.22962661
6	0x3eb49f23	0.35277662
7	0x3db4b939	0.08824391
8	0x3ec9f2a4	0.39442933
9	0x3ea1299e	0.31477064
10	0x3e47c8b9	0.19510163
11	0x3dc056f3	0.09391584
12	0x3de5284a	0.11189325
13	0x3e5f8668	0.21828616
14	0xbe23d162	-0.15997842
15	0x3dd5548e	0.10416518
16	0x3ec384f1	0.38187364
17	0x3e53d48f	0.20686553
18	0x3eb00b64	0.3438369
19	0x3e0fc8ae	0.14041397
20	0x3e7ad81f	0.24496506
21	0xbefeb285	-0.49745575
22	0xbcfa93e5	-0.0305881
23	0x3c93ed0c	0.018057369
24	0x3d39cb84	0.045360103
25	0x3c56d2e3	0.013111803
26	0xbd61d29f	-0.055132505
27	0xbdc0b9b8	-0.09410423
28	0xbf07c9a4	-0.53042054
29	0xbe92a4a5	-0.2864124
30	0xbedd21ab	-0.4318975
31	0xbef57a00	-0.4794464
32	0xbeb8f145	-0.36121574
33	0xbe9b2dbd	-0.30308333
34	0xbe06de52	-0.13170746
35	0xbe514e3b	-0.20439999
36	0xbdcacb47	-0.09902053
37	0xbeb6060d	-0.3555149
38	0xbe803cfb	-0.25046524
39	0xbe39cb58	-0.18143976
40	0xbd6adf1a	-0.057341672
41	0x3d7f282d	0.062294174
42	0x3da23bad	0.079215385
43	0x3db7ceda	0.08975001
44	0x3d65326b	0.055956285
45	0x3e0db0e8	0.13837016
46	0x3d2b888d	0.04187827
47	0xbc9d2ed8	-0.019187376
48	0x3d352f07	0.044234302
49	0x3ecba623	0.3977519
50	0x3dae1574	0.085001856
51	0xbe5028b1	-0.20328023
52	0xbca35774	-0.019939162
53	0x3cdbc1e3	0.02682585
54	0x3e911e16	0.28343266
55	0x3ee8cca3	0.45468625
56	0xb8889328	-6.512395e-05
57	0x3ead70b3	0.33875045
58	0x3e8ad59b	0.27116093
59	0x3e86e7b9	0.26348665
60	0x3dbe23c6	0.09284167
61	0x3d8aaf43	0.0677171
62	0x3eac71e4	0.33680642
63	0xbd93522e	-0.07193409
64	0x3e356dc4	0.17717654
65	0x3e9e8950	0.30964136
66	0x3e2ea8a7	0.17056523
67	0x3e9aed97	0.30259392
68	0x3e2a7283	0.16645245
69	0x3debd8fd	0.115159966
70	0xbef7b34f	-0.4837899
71	0xbd0a8af8	-0.033823937
72	0x3b4d5957	0.0031333768
73	0x3dc6c73c	0.0970597
74	0x3da29549	0.0793863
75	0xbd80e397	-0.06293409
76	0xbe01d9d0	-0.12680745
77	0xbf13ea8f	-0.57779783
78	0xbe980b43	-0.29696092
79	0xbee63636	-0.44963235
80	0xbebcbc2e	-0.3686232
81	0xbeac6c54	-0.33676398
82	0xbea6ca08	-0.32576013
83	0xbd6fe24e	-0.05856543
84	0xbe483c7b	-0.19554321
85	0xbe6461c9	-0.22302927
86	0xbea21fa9	-0.3166478
87	0xbea7cf5e	-0.32775396
88	0xbdf03a5a	-0.1172988
89	0x3d85c2c9	0.06531293
90	0xbdafeada	-0.08589716
91	0x3e308428	0.17237914
92	0x3db9200a	0.09039314
93	0x3e463b73	0.19358616
94	0x3d16aafd	0.03678416
95	0x3d98b827	0.07456999
96	0x3ddb95cd	0.107219316
97	0x3d3f0449	0.046634946
98	0x3eeda470	0.46414518
99	0x3c4a2a56	0.012339195
100	0xbe191472	-0.14949206
101	0x3d4e618b	0.050385993
102	0xbdc7a340	-0.09747934
103	0x3e205b2c	0.1565978
104	0x3eaa0595	0.33207384
105	0x3da7a7a1	0.081862696
106	0x3ed2b597	0.41154167
107	0x3e45cd42	0.19316581
108	0x3e8c1318	0.27358317
109	0x3d98f3c3	0.07468369
110	0x3d9653c3	0.07340195
111	0x3ea7b896	0.32758015
112	0xbe5a4684	-0.21315962
113	0x3e2ac274	0.1667574
114	0x3e97f5ce	0.29679722
115	0x3e693629	0.22774567
116	0x3eb317db	0.34979138
117	0x3e7f22f9	0.24915685
118	0x3dd383f9	0.10327906
119	0xbed76f44	-0.42077076
120	0x3d9ca262	0.076481596
121	0x3d137e42	0.03600908
122	0x3dcd8da5	0.10036782
123	0x3da1384e	0.078720674
124	0x3d244070	0.040100515
125	0xbe140fed	-0.144592
126	0xbf0b3d64	-0.5439055
127	0xbe890141	-0.2675877
128	0xbeb3b069	-0.35095528
129	0xbeecc09a	-0.46240693
130	0xbee7f697	-0.4530532
131	0xbe9f6ddd	-0.31138507
132	0xbaaa1913	-0.0012977443
133	0xbddb300a	-0.10702522
134	0xbe508d05	-0.20366295
135	0xbe9f72bf	-0.31142232
136	0xbe5648b6	-0.20926175
137	0xbe23ad41	-0.1598406
138	0xbce606a0	-0.02807933
139	0xbda8c949	-0.08241517
140	0x3d4bf4e7	0.049794104
141	0x3d67c5e2	0.0565852
142	0x3d1c9270	0.03822559
143	0x3da1fda4	0.07909706
144	0x3d7731f6	0.06035038
145	0x3da047a4	0.07826164
146	0x3d18039b	0.037112813
147	0xbeeb42cc	-0.459494
148	0x3e2d361d	0.16915174
149	0xbe06f999	-0.13181151
150	0xbd096acd	-0.03354912
151	0x3eb1834c	0.34670484
152	0x3dadb602	0.08481981
153	0x3d1f1812	0.038841315
154	0xbeade592	-0.3396421
155	0x3d87f2e3	0.06638124
156	0xbea3a4ac	-0.31961572
157	0x3e06c794	0.1316207
158	0x3e1641ae	0.14673492
159	0xbd9ccf34	-0.07656708
160	0x3f114fe9	0.5676256
161	0xbe80f464	-0.25186455
162	0x3dae7b8c	0.085196584
163	0xbe650bb8	-0.22367752
164	0x3e708fd3	0.23492365
165	0x3e5cb05c	0.21551651
166	0x3ea4fad7	0.32222626
167	0x3f1e4c1e	0.61834896
168	0xbeae85e6	-0.3408653
169	0xbe6e4910	-0.23270059
170	0x3d70c77f	0.058784004
171	0xbdd73f4c	-0.1051012
172	0x3e93b153	0.28846225
173	0x3df3095e	0.11867021
174	0x3e2685f9	0.16262044
175	0xbe7ed903	-0.24887471
176	0xbc16a23a	-0.009193951
177	0x3ef323e6	0.47488326
178	0x3e3b2a08	0.18277752
179	0xbe5f524e	-0.2180874
180	0x3e2500f8	0.16113651
181	0x3ed8da78	0.42354178
182	0x3ca9c534	0.020723917
183	0x3e0e3e2b	0.13890903
184	0x3e65f747	0.2245761
185	0x3e7b33c0	0.2453146
186	0xbd5f9aea	-0.054591097
187	0xbb9a9f23	-0.0047186776
188	0x3e37cae3	0.17948489
189	0x3da71ead	0.08160148
190	0x3f04d08e	0.5188073
191	0x3e603992	0.21896961
192	0x3e4afd9a	0.19823304
193	0x3e169264	0.14704281
194	0x3e00900f	0.12554954
195	0x3f0e64e7	0.55622715
196	0xbedff293	-0.43739757
197	0x3d61a1f2	0.055086084
198	0xbe1f43dd	-0.15553232
199	0xbd42f167	-0.0475935
200	0x3eab3e1b	0.3344582
201	0x3e3d62c8	0.18494713
202	0x3ceedcbe	0.029157992
203	0xbe8d5a05	-0.27607742
204	0xbc8f8b8b	-0.017522594
205	0xbe962367	-0.29323885
206	0x3d966d1c	0.0734503
207	0x3c5a3b6d	0.013319832
208	0x3ca1300b	0.019676229
209	0x3f10e4d0	0.5659914
210	0xbe87bc19	-0.26510695
211	0x3d90f9c5	0.0707889
212	0xbe84d468	-0.25943303
213	0x3e5b03cc	0.21388167
214	0x3e60e1cf	0.21961139
215	0x3ecacc2b	0.39608893
216	0x3f21ef70	0.6325598
217	0xbeb2e041	-0.34936717
218	0xbe08e6fb	-0.13369362
219	0x3df15474	0.11783686
220	0xbde25cd9	-0.110528655
221	0x3e288108	0.16455472
222	0x3e3fab22	0.18717626
223	0x3da9c3a0	0.08289266
224	0xbe48860d	-0.19582386
225	0x3d9c61b3	0.07635822
226	0x3ee38e52	0.4444452
227	0x3e41711e	0.18890807
228	0xbe863794	-0.26214278
229	0x3e332a30	0.17496562
230	0x3efd879f	0.49517533
231	0xbd25ac36	-0.040447436
232	0x3e8242a1	0.2544146
233	0x3e805226	0.25062674
234	0x3e77b35e	0.24189517
235	0xbdcd8026	-0.10034208
236	0xbc4e8702	-0.012605431
237	0x3e2074b4	0.15669519
238	0x3e52a99c	0.20572513
239	0x3ef41d0e	0.47678417
240	0x3ea3aa66	0.3196594
241	0x3e706067	0.23474275
242	0x3d7644b4	0.060124114
243	0x3e12c7b5	0.14333995
244	0x3f0a6723	0.54063624
245	0xbee68443	-0.45022783
246	0x3e292be7	0.16520654
247	0xbb824288	-0.0039752163
248	0x3d371813	0.044700693
249	0x3e9b071c	0.30278862
250	0x3e11d459	0.1424116
251	0x3dab1076	0.08352749
252	0xbea948ef	-0.33063456
253	0x3ddce360	0.10785556
254	0xbe68c005	-0.227295
255	0x3e0f08e2	0.13968232

weight f4 [8]
0	0x3f759ef4	0.9594567
1	0x3f831d76	1.0243366
2	0x3fc27866	1.5192993
3	0x3fabf80c	1.3435073
4	0x3faff01c	1.374515
5	0x3f58c07a	0.84668696
6	0x3f148aaf	0.58024114
7	0x3f795132	0.9738952

bias f4 [8]
0	0xbe68f9e0	-0.2275157
1	0xbe91d0b3	-0.28479537
2	0x3ef011ed	0.46888676
3	0x3f736903	0.9508211
4	0x3c5e1a99	0.013556146
5	0xbe5c1bbf	-0.2149496
6	0xbf28f102	-0.6599275
7	0x3d2d118d	0.042253066

running_mean f4 [8]
0	0x3f7734e5	0.96565086
1	0x426bcc68	58.949615
2	0xc241bf3d	-48.436756
3	0xc23c122b	-47.017742
4	0xc2c21fb5	-97.06193
5	0x4138092a	11.502237
6	0x3cdbb1a5	0.026818106
7	0x41118d7c	9.097042

running_var f4 [8]
0	0x46de4853	28452.162
1	0x48194116	156932.34
2	0x47dd8b03	113430.02
3	0x47d234ef	107625.87
4	0x488e4230	291345.5
5	0x46d054ad	26666.338
6	0x45d5b8ed	6839.1157
7	0x46f2e9e0	31092.938

weight f4 [8, 8, 1, 1]
0	0xbdcc6a0f	-0.099811666
1	0x3e3cb25d	0.18427415
2	0xbe94b1c1	-0.29041865
3	0xbe9df66c	-0.30852067
4	0xbdc85638	-0.0978207
5	0xbf065890	-0.52478886
6	0xbe9cebe2	-0.30648714
7	0x3ec3201a	0.3811043
8	0x3f089e32	0.53366387
9	0x3d30832e	0.043093853
10	0x3d7fdd33	0.06246681
11	0xbf13482a	-0.5753199
12	0xbe779caa	-0.24180856
13	0xbdd5dbdd	-0.10442326
14	0x3f44608d	0.76709825
15	0x3e609ad1	0.21934058
16	0xbe42ac75	-0.190111
17	0x3ed4fb84	0.4159814
18	0x3e165cf7	0.14683901
19	0x3e6373c1	0.22212125
20	0x3ed84d0f	0.4224629
21	0x3eee53e8	0.4654839
22	0xbba62904	-0.0050708074
23	0xbeff3381	-0.49843982
24	0x3e9f2c33	0.3108841
25	0xbed842eb	-0.42238554
26	0x3f5b4c8e	0.8566369
27	0xbee45500	-0.445961
28	0xbf33568c	-0.70053935
29	0xbe93895e	-0.2881574
30	0x3e2d19ea	0.16904417
31	0xbecfc6ea	-0.40581447
32	0x3e588bfc	0.2114715
33	0xbd8d6311	-0.06903661
34	0xbf7a9982	-0.97890484
35	0x3ec996e5	0.39372936
36	0xbdc8427a	-0.097783044
37	0x3e9a67f8	0.30157447
38	0x3dde529e	0.10855602
39	0x3ec47e36	0.3837754
40	0x3d85c8fb	0.065324746
41	0xbedaadfc	-0.42710865
42	0xbd88f2a3	-0.06686904
43	0x3f246797	0.64220566
44	0xbf13f759	-0.577993
45	0xbe9cdebc	-0.30638683
46	0x3db62ac5	0.088948764
47	0x3e9d3a1b	0.30708393
48	0x3ed090ea	0.4073556
49	0xbef42b56	-0.47689313
50	0x3f078bc4	0.5294764
51	0x3eecc97d	0.46247473
52	0xbd08caa9	-0.033396397
53	0xbd26a3c1	-0.04068351
54	0x3dcc3f9a	0.099730685
55	0x3c31ffa2	0.01086417
56	0x3e64551b	0.2229809
57	0x3ed51628	0.41618466
58	0x3e70a4c2	0.2350035
59	0x3e89fd53	0.26951084
60	0x3ef8c6a9	0.48589066
61	0xbef3d91d	-0.47626582
62	0x3d9b9a1b	0.07597753
63	0xbe1bde41	-0.15221502

weight f4 [8]
0	0x3fa961ae	1.3232934
1	0x3f793f2b	0.9736201
2	0x3f781284	0.9690325
3	0x3f9e76b4	1.2379975
4	0x3f8fb949	1.122842
5	0x3f84215e	1.0322683
6	0x3f7c22c4	0.9849055
7	0x3f775a89	0.9662252

bias f4 [8]
0	0x3dcaaf00	0.0989666
1	0x3e084269	0.13306583
2	0x3db6d75d	0.08927796
3	0xbe768d1e	-0.2407727
4	0x3e9a4fa4	0.30138886
5	0x3d6165ef	0.055028852
6	0xbcf84c9e	-0.030309971
7	0x3e41f810	0.18942285

running_mean f4 [8]
0	0xbf254778	-0.6456218
1	0xbee52253	-0.4475275
2	0x3f09fc9b	0.5390107
3	0xbe9d0c47	-0.3067343
4	0xbd50e1f7	-0.050996747
5	0x3ee582ee	0.44826454
6	0x3f5eab1f	0.8697986
7	0x3f244101	0.6416169

running_var f4 [8]
0	0x3f0ece8a	0.55783904
1	0x3fc3136f	1.5240306
2	0x3ec03b40	0.37545204
3	0x3fc29033	1.5200256
4	0x3f566acd	0.83756715
5	0x3eb0359a	0.34415895
6	0x3ee3ca9c	0.44490516
7	0x3f0bf947	0.5467724

weight f4 [8, 8, 3, 3]
0	0x3f31d73e	0.6946906
1	0x3e359a23	0.1773458
2	0xbe05d7bd	-0.13070579
3	0x3e909d71	0.28245118
4	0xbdf8d082	-0.12149145
5	0x3e5bb61d	0.2145619
6	0xbe6b2578	-0.22963512
7	0xbe89aa80	-0.26887894
8	0x3e0c530c	0.13703555
9	0xbec36052	-0.38159424
10	0xbdf188fb	-0.11793705
11	0x3e31ebae	0.17375061
12	0xbe7ab15d	-0.24481721
13	0x3e9d4a72	0.3072086
14	0xbd1ffd15	-0.039059717
15	0xbe102772	-0.14077547
16	0xbd6fe3ca	-0.058566846
17	0xbd198be0	-0.03748691
18	0xbf591c48	-0.8480878
19	0xbde86a9f	-0.11348461
20	0x3d660fe3	0.056167495
21	0xbe52e3aa	-0.2059466
22	0xbdc5316c	-0.09628567
23	0xbe10c28c	-0.14136714
24	0xbd554d0f	-0.052075442
25	0xbeaef7dd	-0.3417348
26	0xbe598197	-0.21240841
27	0x3e287b4e	0.16453287
28	0xbe50ffc0	-0.20410061
29	0xbd582d05	-0.05277731
30	0x3eba7150	0.36414576
31	0xbd079aa9	-0.03310648
32	0xbe76708f	-0.24066375
33	0x3eadc3a4	0.33938324
34	0x3f2f02f1	0.68363863
35	0x3e95820a	0.29200774
36	0xbef8e8a5	-0.48614994
37	0xbe15ae64	-0.14617306
38	0x3e6ec2d0	0.23316503
39	0xbd4a6eb1	-0.04942197
40	0x3e313ee9	0.17309155
41	0x3b9dce91	0.0048158844
42	0x3f3a06bd	0.7266653
43	0x3ed20e40	0.41026497
44	0x3df21261	0.11819912
45	0x3ec18eea	0.37804347
46	0x3e450a27	0.19242154
47	0x3e4f081c	0.20217937
48	0x3cdd98eb	0.027050456
49	0x3e1ccc27	0.15312253
50	0x3e870850	0.2637353
51	0xbdbcabf6	-0.092124864
52	0x3e8ed560	0.27897167
53	0x3ef2544b	0.47329935
54	0x3f152b8a	0.5826956
55	0x3e914e6d	0.28380147
56	0x3f459754	0.77184033
57	0x3eff98fa	0.499214
58	0x3f18a9b4	0.59633946
59	0x3c9e6b79	0.019338356
60	0x3e5810f6	0.2110022
61	0x3ea4374d	0.3207344
62	0xbd860a86	-0.06544976
63	0x3d592dec	0.05302231
64	0x3ce5b54d	0.028040553
65	0x3ec7f7c3	0.39056215
66	0xb817c30b	-3.6182853e-05
67	0xbe38b915	-0.18039353
68	0x3e848496	0.25882405
69	0x3e06cfab	0.13165157
70	0x3ccd35a9	0.025050001
71	0x3db7d3ab	0.08975919
72	0x3e95262d	0.29130688
73	0x3d2e0c34	0.042492107
74	0xbf048482	-0.5176469
75	0x3ed2782d	0.41107312
76	0x3e034de6	0.12822685
77	0xbd8a44f5	-0.06751434
78	0xbf1c7d49	-0.6112867
79	0xbee6b793	-0.4506193
80	0xbebe93ef	-0.3722224
81	0xbd1b7588	-0.037953883
82	0xbcc66c6e	-0.024221625
83	0xbe1be906	-0.1522561
84	0xbdd44470	-0.10364616
85	0xbde9917a	-0.114047006
86	0xbe253b4d	-0.16135903
87	0xbf14342f	-0.57892126
88	0xbebe8a6e	-0.37214988
89	0xbeec10a2	-0.4610644
90	0xbeb93e2c	-0.36180246
91	0x3e3ba037	0.18322836
92	0x3e5f6346	0.21815214
93	0x3e89cfe1	0.26916412
94	0x3e45ca9d	0.19315572
95	0x3eb435bb	0.35197243
96	0xbe2add42	-0.16685966
97	0xba62dcda	-0.0008654125
98	0xbe56b467	-0.20967256
99	0x3e0bb21a	0.13642159
100	0x3beb0db5	0.007173265
101	0x3cd61b47	0.026136054
102	0xbf04c150	-0.5185747
103	0xbcd410a6	-0.025886845
104	0xbe30d208	-0.1726762
105	0xbece8162	-0.40333086
106	0x3e1e7594	0.1547454
107	0x3e31d03e	0.17364594
108	0xbed91a2e	-0.42402786
109	0xba945512	-0.0011316857
110	0x3e490568	0.19630969
111	0x3dbd941b	0.092567645
112	0x3ef54f21	0.47911933
113	0xbccc2924	-0.024921961
114	0xbefba645	-0.4915029
115	0xbd1133ad	-0.035449672
116	0xbed86e3b	-0.422716
117	0x3e02fec3	0.12792496
118	0x3f0fc25d	0.5615595
119	0x3e850d61	0.2598677
120	0x3d470c2e	0.0485956
121	0xbed2cf8f	-0.4117398
122	0xbf0d4092	-0.5517665
123	0x3ed584a6	0.41702765
124	0xbefff18e	-0.4998898
125	0xbf0dbabf	-0.55363077
126	0xbe56c7d8	-0.20974672
127	0xbadf88d7	-0.0017054331
128	0x3e922ee5	0.28551403
129	0xbe1c3101	-0.15253069
130	0xbd074205	-0.033021946
131	0x3e33d81e	0.17562911
132	0x3ab968e1	0.0014145636
133	0x3e84a588	0.2590754
134	0x3ebdfa27	0.37104914
135	0x3f0353cf	0.51299757
136	0x3dcf37cc	0.10118064
137	0x3e1e6541	0.15468313
138	0x3f061525	0.52376014
139	0x3e852d3c	0.26011074
140	0x3c5a1fba	0.013313228
141	0x3e6370b0	0.22210956
142	0x3dbf6c09	0.09346778
143	0xbde3f389	-0.11130435
144	0x3e8a9627	0.27067682
145	0x3e6c7596	0.2309173
146	0x3dbb793d	0.09153984
147	0xbe197843	-0.14987282
148	0x3e484eed	0.19561358
149	0xbe3d9f25	-0.1851774
150	0xbe11234d	-0.14173622
151	0x3d2f8a57	0.04285654
152	0xbe8bef8c	-0.27331197
153	0x3ecf9a6c	0.40547502
154	0x3e42f1e5	0.19037588
155	0xbdb3ecbc	-0.08785388
156	0x3eaee78a	0.34161025
157	0x3e3cdfbf	0.18444727
158	0xbd9b5a1a	-0.07585545
159	0x3e5aa6da	0.21352711
160	0xbd88748a	-0.06662853
161	0xbf19a530	-0.6001768
162	0x3df0d48a	0.117592886
163	0xbdab9ad1	-0.08379138
164	0xbebe563c	-0.37175167
165	0x3dbc8eba	0.092069104
166	0x3e1ab4d1	0.15108038
167	0x3c862a71	0.01637766
168	0x3eceee3e	0.4041614
169	0x3f161834	0.5863068
170	0x3efec21f	0.49757478
171	0x3de9dd9c	0.11419222
172	0xbe163890	-0.14670014
173	0x3e848402	0.25881964
174	0xbd028fa9	-0.031875286
175	0xbed18eea	-0.40929347
176	0xbe3d99bc	-0.18515676
177	0xbd431c04	-0.04763414
178	0xbd83f628	-0.06443435
179	0xbf15099f	-0.58217806
180	0x3e0f006f	0.13965009
181	0x3cf7b0e5	0.030235717
182	0xbd864e64	-0.065579206
183	0xbe28bc1a	-0.16478005
184	0x3daa177d	0.08305261
185	0x3e81bed6	0.2534091
186	0xbef03afc	-0.46920002
187	0xbe8f2c58	-0.2796352
188	0x3ea82278	0.32838798
189	0xb86436e6	-5.4410564e-05
190	0xbda2ae9c	-0.0794346
191	0xbd8c7261	-0.068577535
192	0xbdc8930a	-0.097936705
193	0xbe85edc0	-0.2615795
194	0xbdb5a4f3	-0.08869352
195	0x3ecf83c8	0.4053023
196	0xbdca769d	-0.09885905
197	0xbeb60d6d	-0.35557118
198	0x3e2e5bb6	0.17027172
199	0xbd01f1a5	-0.03172459
200	0x3da59164	0.08084372
201	0x3ea81f31	0.32836297
202	0xbeec598e	-0.46162075
203	0xbec764c7	-0.38944075
204	0x3e30d846	0.17270002
205	0xbe7a6436	-0.2445229
206	0xbe914272	-0.28371006
207	0xbe4f2c1c	-0.2023167
208	0xbec65979	-0.38740137
209	0x3e9fc57c	0.31205356
210	0x3ed54dd2	0.41660935
211	0x3e299981	0.16562463
212	0x3ed76904	0.42072308
213	0x3eb763c0	0.3581829
214	0x3eb5cd28	0.35508084
215	0x3ea773b6	0.32705468
216	0x3d7c3526	0.061574124
217	0x3e24c948	0.16092408
218	0x3e028bb4	0.12748605
219	0xbea82600	-0.32841492
220	0xbf0b5c22	-0.5443746
221	0xbeacb977	-0.33735248
222	0xbf36cfce	-0.71410835
223	0xbe7c3da6	-0.24632892
224	0x3eaae0a5	0.33374515
225	0xbe5e0557	-0.21681724
226	0x3e73021a	0.2373127
227	0x3f0f9a6d	0.5609501
228	0xbe0aac29	-0.13542236
229	0xbe08c702	-0.13357165
230	0x3edd4154	0.43213904
231	0xbeadbee1	-0.33934692
232	0xbe77785b	-0.24167006
233	0x3e35c3ed	0.17750521
234	0x3c7a0dc1	0.015262068
235	0xbe477661	-0.19478752
236	0xbdd96798	-0.10615462
237	0x3e988b30	0.29793692
238	0xbebda17d	-0.37037268
239	0xbe0a0069	-0.13476719
240	0x3e1ec678	0.15505397
241	0xbdfb4fa8	-0.122710526
242	0x3ec3643a	0.38162404
243	0xbd06086b	-0.03272287
244	0x3d8c79d3	0.068591736
245	0xbe92319e	-0.2855348
246	0xbf2f285c	-0.6842096
247	0x3e90281d	0.28155604
248	0x3d729ff9	0.059234593
249	0xbf488b7f	-0.78337854
250	0x3e4824a7	0.19545232
251	0x3e4713b2	0.19441107
252	0xbd4a6053	-0.04940827
253	0xbdce4eef	-0.10073649
254	0x3e8e45ef	0.2778773
255	0xbd4c872e	-0.049933605

weight f4 [8]
0	0x3f75b098	0.95972586
1	0x3fa0161e	1.250675
2	0x3f852a68	1.0403566
3	0x3f607a92	0.8768703
4	0x3fc5d088	1.5454264
5	0x3f62f960	0.88661766
6	0x3f931506	1.1490791
7	0x3f86b106	1.0522773

bias f4 [8]
0	0x3daf7303	0.085668586
1	0xbe378939	-0.1792344
2	0xbf0f5959	-0.5599571
3	0x3e9b2526	0.3030178
4	0x3d4fb4e6	0.050709628
5	0xbe8b5ed7	-0.27220795
6	0xbdf60ead	-0.12014518
7	0x3e7d09f7	0.24710833

running_mean f4 [8]
0	0x3f7c8d06	0.98652685
1	0xbedd5f9f	-0.43237016
2	0x3eec8a0f	0.4619908
3	0x3d486e1d	0.048933137
4	0xbeb2556d	-0.348308
5	0x3e99993f	0.2999973
6	0x3e976175	0.2956654
7	0xbf3d31db	-0.739042

running_var f4 [8]
0	0x40a40b28	5.126362
1	0x4088ee14	4.2790623
2	0x40ae98b3	5.45614
3	0x403a5b1f	2.9118116
4	0x40fca6cd	7.8953614
5	0x40b4103b	5.6269813
6	0x40f5191b	7.6593146
7	0x40a82219	5.2541623

weight f4 [32, 8, 1, 1]
0	0xbda8a4f8	-0.0823459
1	0xbf06b295	-0.52616245
2	0x3e55b678	0.20870388
3	0x3e5462a3	0.20740752
4	0x3ebb3f46	0.3657171
5	0x3e8a1545	0.26969352
6	0x3f44c43e	0.7686194
7	0x3e3d4b7b	0.18485825
8	0xbf27d0f0	-0.6555319
9	0x3dfd31bc	0.12363002
10	0xbb77bc77	-0.0037801543
11	0x3ebc2e13	0.36753902
12	0x3e808f59	0.25109366
13	0xbee86647	-0.4539053
14	0xbf1c7ffd	-0.61132795
15	0xbf5c82ff	-0.86137384
16	0xbed35f77	-0.4128377
17	0xbec37aad	-0.38179532
18	0xbf1093c9	-0.564755
19	0xbeb19dd1	-0.34690717
20	0xbeb9670c	-0.3621143
21	0x3ebe2708	0.37139153
22	0x3e6aba41	0.22922613
23	0x3da0a784	0.07844451
24	0xbf1c8a09	-0.61148125
25	0x3eb19e4d	0.34691086
26	0xbdfa914f	-0.12234747
27	0x3ede727e	0.43446726
28	0xbee332da	-0.44374734
29	0xbf193168	-0.5984101
30	0xbeb81e4a	-0.3596061
31	0xbd8d0d8b	-0.06887349
32	0xbe973741	-0.29534343
33	0x3d794a5f	0.06086194
34	0x3d7d5146	0.061845087
35	0x3e7ec4ba	0.24879733
36	0xbf81d42c	-1.0142875
37	0x3da08cb3	0.07839336
38	0xbf5f4ff3	-0.8723137
39	0xbeb30cfc	-0.34970844
40	0xbe8528e7	-0.2600777
41	0x3e1e65f4	0.1546858
42	0xbe7226ca	-0.2364761
43	0xbd0845d0	-0.033269703
44	0x3e843d40	0.2582798
45	0x3e22a81a	0.15884438
46	0xbf495916	-0.7865156
47	0xbf16d02d	-0.589114
48	0xbf094a53	-0.53629035
49	0x3ed106ef	0.40825602
50	0x3e0d79e3	0.13816027
51	0xbeca275d	-0.39483157
52	0x3f0b43c4	0.5440028
53	0xbde08369	-0.109625645
54	0x3e89c138	0.26905227
55	0x3dbe9c40	0.09307146
56	0x3f1ad8a7	0.60486835
57	0xbbedeaae	-0.007260642
58	0x3d8374ff	0.064187996
59	0x3a500030	0.0007934598
60	0x3e87e0ea	0.26538783
61	0x3df993dc	0.12186405
62	0xbf1fb3a0	-0.6238346
63	0x3f170885	0.58997375
64	0xbdc94b3e	-0.098288044
65	0xbf4a1f12	-0.7895366
66	0x3efc4506	0.4927141
67	0xbbb522ba	-0.0055278214
68	0xbe8ed650	-0.27897882
69	0x3d9b71de	0.07590078
70	0x3e177bad	0.14793272
71	0xbedbe206	-0.4294588
72	0xbf0065ff	-0.50155634
73	0x3e82f091	0.25574163
74	0x3e6a2ed0	0.2286942
75	0x3e869878	0.262882
76	0xbf815abd	-1.0105816
77	0xbe754963	-0.23953776
78	0x3db63001	0.08895875
79	0xbf4c8f04	-0.79905725
80	0xbe711798	-0.23544157
81	0x3efdc073	0.4956089
82	0xbf43abc1	-0.7643395
83	0x3e210f5a	0.15728512
84	0x3f32af46	0.69798696
85	0xbd706089	-0.058685813
86	0x3e9f7b8e	0.31148952
87	0x3e8519a6	0.2599613
88	0x3e5f9aaf	0.21836351
89	0xbf1e6e37	-0.61886925
90	0xbc6ab2cb	-0.014324854
91	0x3e64196d	0.22275324
92	0x3de93167	0.11386376
93	0x3edebe2c	0.43504465
94	0x3e9b3078	0.30310416
95	0xbef9f5eb	-0.48820433
96	0xbf42cdac	-0.7609508
97	0xbdb24e4c	-0.0870634
98	0x3e0542dd	0.13013788
99	0xbdd0e7ad	-0.10200439
100	0x3f41424c	0.75491786
101	0x3d8a7804	0.067611724
102	0xbf01b7a1	-0.5067082
103	0xbeebfccd	-0.4609131
104	0xbec1d677	-0.37858936
105	0xbea0e96b	-0.31428084
106	0xbcd6df93	-0.026229655
107	0x3e56b192	0.20966175
108	0xbef6d7ce	-0.4821152
109	0x3e4f3aa3	0.20237212
110	0x3e0ffe59	0.1406187
111	0x3f45583e	0.7708777
112	0x3d87e214	0.06634918
113	0x3ec1b728	0.3783505
114	0x3e6b2063	0.22961573
115	0xbebb7b8c	-0.36617696
116	0xbe267c23	-0.16258292
117	0x3f195292	0.5989162
118	0x3e8201cb	0.25391993
119	0x3f37f7bf	0.71862406
120	0x3de26a0f	0.11055385
121	0x3f150151	0.58205134
122	0x3eec727b	0.46181092
123	0xbef02c9e	-0.4690904
124	0xbf06712b	-0.5251643
125	0xbdd90209	-0.10596091
126	0xbd2b83d1	-0.041873757
127	0xbeb04c91	-0.34433416
128	0xbbc51198	-0.00601406
129	0xbdf0f635	-0.1176571
130	0xbee03720	-0.43792057
131	0x3debe66a	0.11518557
132	0xbc6841c3	-0.014175835
133	0xbd784fd5	-0.06062301
134	0x3f98340d	1.1890885
135	0xbdbd49c0	-0.09242582
136	0x3f0d9533	0.55305785
137	0xbcf103d8	-0.029420778
138	0xbcbe587c	-0.023235552
139	0x3ec92a2d	0.3928999
140	0xbf12e841	-0.5738564
141	0x3e62f1fd	0.22162624
142	0xbea00ffd	-0.31262198
143	0x3f21c6f4	0.63194203
144	0xbee6028a	-0.44923812
145	0x3efb5bfe	0.49093622
146	0xbdb2043e	-0.086922154
147	0x3e2ec1be	0.17066094
148	0x3f272454	0.6528981
149	0xbdab68a4	-0.08369568
150	0x3e07138a	0.13191047
151	0xbf22ffce	-0.63671577
152	0xbecec6b4	-0.40385973
153	0xbe6977fd	-0.22799678
154	0x3e2d9839	0.169526
155	0xbf34dd09	-0.7064977
156	0xbe80424c	-0.2505058
157	0xbf3a3305	-0.727341
158	0xbd56dff3	-0.05245967
159	0x3f31d1d6	0.6946081
160	0x3e18f3f8	0.14936817
161	0xbeb06362	-0.34450823
162	0x3e1b8377	0.15186869
163	0x3ed1d54a	0.4098304
164	0xbeb9c1df	-0.36280724
165	0xbf1e4287	-0.6182026
166	0xbedf916c	-0.43665636
167	0xbd9a2601	-0.0752678
168	0x3e470856	0.19436774
169	0xbf31e495	-0.69489413
170	0xbea15009	-0.31506374
171	0xbe57e80f	-0.21084617
172	0x3f1ef432	0.6209136
173	0xbea55c11	-0.32296804
174	0xbdf45f0f	-0.119321935
175	0x3e792345	0.2432986
176	0x3f22a1a1	0.63527876
177	0xbd81c6e7	-0.06336766
178	0xbeed9f18	-0.4641044
179	0xbe7446f8	-0.23855197
180	0xbec24589	-0.37943676
181	0x3deb20ed	0.114808895
182	0x3ee27c59	0.44235495
183	0x3e2964ac	0.1654231
184	0x3e2190aa	0.15777841
185	0xbf10c110	-0.5654459
186	0xbe2d4077	-0.16919123
187	0xbe752b0c	-0.23942202
188	0x3e39e432	0.18153456
189	0xbf260063	-0.6484434
190	0x3eec8876	0.4619786
191	0xbcb6fb1c	-0.022336535
192	0x3e8c4d69	0.2740281
193	0xbe02563a	-0.12728205
194	0x3deeff8d	0.11669836
195	0x3ef50952	0.47858673
196	0xbf340157	-0.70314544
197	0x3bf2d9fc	0.0074112397
198	0x3e88d84b	0.26727518
199	0xbe63b8c1	-0.22238447
200	0xbe7f93f2	-0.2495878
201	0xbe475ef3	-0.19469814
202	0xbf06714f	-0.52516645
203	0x3f197701	0.5994721
204	0xbdee45dc	-0.11634418
205	0xbeb0fb4d	-0.34566727
206	0xbbddc67e	-0.006768047
207	0xbe9e5432	-0.3092361
208	0x3e9cb811	0.30609182
209	0x3c82c89b	0.015964797
210	0xbf367f40	-0.7128792
211	0x3ebbb72c	0.36663187
212	0xbef1b361	-0.47207168
213	0xbe5adb21	-0.21372654
214	0x3e330e63	0.17485957
215	0xbf1ca7b7	-0.6119341
216	0x3e0c1703	0.13680653
217	0xbeeb9295	-0.4601027
218	0x3f1a7e37	0.6034884
219	0x3e516e37	0.204522
220	0x3cd88f0e	0.026435401
221	0x3f1fd0ff	0.6242828
222	0xbed3c298	-0.413594
223	0x3e606612	0.21913937
224	0x3c1342ac	0.008988064
225	0xbdfe280d	-0.12409983
226	0x3ecd4209	0.40089443
227	0xbeccd82e	-0.40008682
228	0xbd8e7b6c	-0.069571346
229	0x3f1a5b36	0.60295427
230	0xbd6c4d71	-0.05769104
231	0x3d7db6d0	0.06194192
232	0x3f0d5e70	0.55222225
233	0xbf2c23ea	-0.672423
234	0xbeb48303	-0.35256204
235	0xbe8d7f62	-0.27636248
236	0xbeded343	-0.43520555
237	0xbd189540	-0.03725171
238	0x3d8d48d4	0.068986565
239	0xbe8c88c8	-0.27448106
240	0xbeb359b3	-0.35029373
241	0xbec58d21	-0.38584235
242	0xbf1edae5	-0.62052757
243	0x3ec43bb3	0.38326797
244	0x3f1bcede	0.6086253
245	0xbe93442e	-0.28762954
246	0x3e34273e	0.17593095
247	0x3ef62f2f	0.48082873
248	0xbe08d88d	-0.13363858
249	0xbe580104	-0.21094137
250	0xbf219e50	-0.6313219
251	0x3efaff1d	0.4902276
252	0xbed5cf1b	-0.4175957
253	0x3e48e751	0.1961949
254	0x3efdb628	0.49553037
255	0xbef5be90	-0.4799695

weight f4 [32]
0	0x3f8bb0cb	1.0913328
1	0x4000506a	2.004908
2	0x400321ad	2.0489304
3	0x3fca6dbc	1.5814738
4	0x3fc09075	1.5044085
5	0x3fed0171	1.8516065
6	0x3f93c15e	1.1543386
7	0x3f97ef19	1.1869842
8	0x3f890063	1.0703243
9	0x3fa430c4	1.2827382
10	0x3f871ac6	1.0555046
11	0x3f077bc6	0.5292324
12	0x4004788b	2.0698574
13	0x3f9071c4	1.1284719
14	0x3f85a953	1.0442299
15	0x3f841508	1.0318918
16	0x3f82b7da	1.0212357
17	0x3f88abb2	1.0677397
18	0x3f01fedc	0.5077951
19	0x3fc3171b	1.5241426
20	0x3fba2a21	1.4544107
21	0x3faf6514	1.3702722
22	0x3f7a2b7e	0.97722614
23	0x3fd54291	1.666094
24	0x3ee5648e	0.4480328
25	0x3fbdc7a0	1.4826546
26	0x3f700be9	0.93768173
27	0x3f928dac	1.1449485
28	0x3f828cd0	1.0199223
29	0x3f98b80f	1.193117
30	0x3faf709a	1.3706238
31	0x3f6d8916	0.927873

bias f4 [32]
0	0xbf285efd	-0.6576994
1	0xbd8fba55	-0.07017962
2	0x3eab97ed	0.33514348
3	0xbd18366f	-0.037161287
4	0x3e770d3f	0.24126147
5	0xbd2148ad	-0.03937595
6	0x3d80265a	0.06257315
7	0x3cfa7170	0.03057167
8	0xbf2acfea	-0.667235
9	0x3d91400c	0.07092294
10	0x3e82bcec	0.2553476
11	0xbecbc5c5	-0.39799324
12	0x3e37eee5	0.17962225
13	0xbf03079c	-0.51183486
14	0xbeb7cc8d	-0.35898247
15	0x3ebf84b9	0.37405947
16	0xbec65694	-0.3873793
17	0xbe6a1e35	-0.22863086
18	0xbed5b868	-0.41742253
19	0xbae40010	-0.0017395038
20	0x3ad83dc4	0.00164979
21	0xbe145ef3	-0.14489345
22	0x3ed674ac	0.4188589
23	0x3e18c4ba	0.14918795
24	0xbd60e9a2	-0.05491031
25	0xbe686d83	-0.22698025
26	0xbe56a3ba	-0.20960894
27	0xbe119c56	-0.14219794
28	0x3e275d66	0.16344222
29	0x3e06e216	0.13172182
30	0xbedf0b45	-0.43563285
31	0x3ccc10b2	0.024910305

running_mean f4 [32]
0	0x3ef21556	0.47281903
1	0xbeed607d	-0.46362677
2	0xbe9d17db	-0.30682263
3	0xbea2593e	-0.3170871
4	0xbf232fa5	-0.63744575
5	0xbec5208d	-0.38501397
6	0x3db4255e	0.0879619
7	0x3eaa8669	0.33305672
8	0xbe6de459	-0.23231639
9	0xbf238789	-0.63878685
10	0x3eafd4e2	0.34342104
11	0x3d5b0c61	0.053478602
12	0xbe404e2f	-0.18779825
13	0x3e3cab94	0.18424827
14	0x3eb4b4d3	0.35294208
15	0xbec25d05	-0.37961593
16	0x3e314d3a	0.17314616
17	0x3e8713e9	0.26382378
18	0xbb42151e	-0.0029614638
19	0xbe85ef23	-0.2615901
20	0xbe511cd7	-0.20421158
21	0x3d9403d8	0.07227296
22	0x3c2e4e4e	0.0106387865
23	0xbdb1d78d	-0.08683691
24	0xbd2df353	-0.04246838
25	0xbe20a256	-0.15686926
26	0xbea9b78c	-0.33147848
27	0x3e8a7787	0.27044317
28	0xb9a0836a	-0.0003061549
29	0xbebbece8	-0.36704183
30	0x3eac9470	0.33707
31	0xbe2ba2ed	-0.1676137

running_var f4 [32]
0	0x3f91f458	1.1402693
1	0x3fdd5bae	1.7293603
2	0x3f061662	0.52377903
3	0x3f8abea6	1.0839431
4	0x3f80e38f	1.0069445
5	0x3f91f872	1.1403944
6	0x3ecc0a6c	0.398517
7	0x3ebcef01	0.36901096
8	0x3e9a9b97	0.3019683
9	0x3ec0daab	0.3766683
10	0x3ea8d5c9	0.32975605
11	0x3f1568e9	0.58363205
12	0x3f98033b	1.1875986
13	0x3e61bfcc	0.22045821
14	0x3f681195	0.9065183
15	0x3e948a0d	0.29011574
16	0x3f85655d	1.0421559
17	0x3f1e0026	0.61718976
18	0x3e794f4b	0.24346654
19	0x3fbc66b4	1.4718843
20	0x3f1769db	0.591459
21	0x3f1f6bf8	0.6227412
22	0x3f1462bc	0.57963157
23	0x3e9b4217	0.3032386
24	0x3f0ae1ea	0.5425097
25	0x3ef3b3f1	0.47598222
26	0x3eef20e2	0.46704775
27	0x3f239312	0.63896286
28	0x3ea92565	0.33036342
29	0x3ead4294	0.33839858
30	0x3eeff138	0.46863723
31	0x3ec5c38e	0.3862576

weight f4 [32, 8, 1, 1]
0	0xbe290338	-0.16505134
1	0xbe9af162	-0.30262285
2	0x3f0a84a3	0.5410864
3	0x3f0a8476	0.5410837
4	0x3f3336c6	0.7000545
5	0x3dacc97e	0.08436869
6	0xbe727870	-0.23678756
7	0xbe6128e9	-0.21988262
8	0xbea82f5a	-0.32848626
9	0x3ec0d9b5	0.37666097
10	0xbe27a0e8	-0.16369975
11	0x3f3d8366	0.74028623
12	0x3f54fd8d	0.8319939
13	0x3cb935bd	0.022608632
14	0x3e6412de	0.22272822
15	0x3f09c16b	0.5381076
16	0x3ee7ecd2	0.45297867
17	0x3f104e6c	0.5636966
18	0xbe20467d	-0.15651889
19	0xbe0ea2c4	-0.13929278
20	0xbee9b18d	-0.45643273
21	0x3eb61507	0.35562918
22	0x3eb71781	0.3576012
23	0xbeae8b89	-0.34090832
24	0x3db0b378	0.08627981
25	0x3db5d3ed	0.08878312
26	0x3f55d555	0.83528644
27	0x3e41db74	0.18931371
28	0x3f5ff651	0.87485224
29	0x3e91199b	0.28339848
30	0x3f037ee1	0.51365477
31	0xbea9a367	-0.3313248
32	0xbee39263	-0.44447622
33	0x3e3587e9	0.17727627
34	0x3e6e72e8	0.23286021
35	0xbecabc01	-0.3959656
36	0x3e7bd0a2	0.24591306
37	0xbee3f77d	-0.44524756
38	0x3ce6f140	0.028191209
39	0x3eb4bd27	0.35300562
40	0xbe697ac8	-0.22800744
41	0x3e31b75a	0.173551
42	0x3fa0130b	1.2505811
43	0xbe07e1c8	-0.13269722
44	0x3f8f3cee	1.1190469
45	0x3e393083	0.18084912
46	0x3ead09c3	0.3379651
47	0xbe062c1f	-0.13102768
48	0xbe741ab2	-0.23838308
49	0xbf733009	-0.9499517
50	0xbe503c34	-0.20335466
51	0x3eea9943	0.45820054
52	0xbda6a97d	-0.08137796
53	0x3e155ab5	0.14585383
54	0xbd2fee78	-0.04295203
55	0x3eb0e2fa	0.3454817
56	0xbf15f96a	-0.585837
57	0xbebf1227	-0.37318537
58	0xbe6cbb6d	-0.23118372
59	0xbd7889dd	-0.06067835
60	0x3efd38a1	0.49457267
61	0xbec71758	-0.38884997
62	0xbec7a80d	-0.389954
63	0x3e8afda9	0.27146652
64	0x3eb3d729	0.35125092
65	0x3d49c79b	0.049262624
66	0x3d798d59	0.060925815
67	0x3f2c6c92	0.67353165
68	0x3c82e42f	0.015977947
69	0xbe3c2753	-0.18374376
70	0x3f1f1c74	0.6215279
71	0xbef1ef5a	-0.47252923
72	0xbf249b07	-0.6429905
73	0xbcde4e9b	-0.027137091
74	0xbe209960	-0.15683508
75	0xbf0745d1	-0.52840906
76	0x3e8aa5de	0.27079672
77	0xbea2c55a	-0.31791192
78	0x3edd3a75	0.43208662
79	0xbef689d2	-0.48152024
80	0xbe54ad9e	-0.20769355
81	0xbf2a38d9	-0.6649299
82	0xbf455c36	-0.7709383
83	0xbdf97f43	-0.12182476
84	0xbd5eb343	-0.054370176
85	0x3ebfa367	0.37429354
86	0xbd33c4ab	-0.04388873
87	0xbd08eec0	-0.033430815
88	0x3f06dc3f	0.5267982
89	0x3d4a5a8e	0.049402766
90	0xbf52cb86	-0.823418
91	0x3eb4eac2	0.35335356
92	0x3fd37829	1.6521045
93	0x3dd77b54	0.1052157
94	0x3eafb20a	0.3431552
95	0x3d9ba5a9	0.075999565
96	0xbea6031e	-0.32424253
97	0x3dfc1dc9	0.123103686
98	0x3de71c50	0.11284697
99	0x3f39450c	0.7237098
100	0x3f0b0591	0.5430537
101	0x3f00dc94	0.50336576
102	0xbe753d45	-0.23949154
103	0x3ec5e011	0.38647512
104	0xbf2063e3	-0.62652415
105	0xbd1ef3cf	-0.038806733
106	0xbda0e77e	-0.07856654
107	0x3e865f1c	0.26244438
108	0x3f8b402a	1.0878956
109	0xbdfa26bd	-0.1221442
110	0x3e4781b1	0.19483067
111	0x3ea47658	0.3212154
112	0x3ebd96d4	0.37029135
113	0xbeb1f617	-0.34758064
114	0x3d86185e	0.065476164
115	0x3ea1920b	0.31556734
116	0xbe937c86	-0.2880594
117	0xbeee1285	-0.46498504
118	0xbe9718f2	-0.2951122
119	0xbed3d8f4	-0.4137646
120	0xbe7d632b	-0.24744861
121	0xbe91ca05	-0.2847444
122	0xbd852f17	-0.06503122
123	0x3e255d25	0.16148813
124	0x3f43d626	0.7649864
125	0xbe6944ef	-0.22780202
126	0x3e23f290	0.16010499
127	0xbf35f284	-0.71073174
128	0xbf03638e	-0.51323783
129	0x3e4b6c15	0.19865449
130	0xbf0b9bbc	-0.54534507
131	0xbb91bcd0	-0.004447557
132	0x3f04d9ea	0.5189501
133	0x3e0fcaec	0.14042252
134	0x3dfb6a30	0.12276113
135	0xbf4ed58f	-0.80794615
136	0xbf3f6081	-0.7475663
137	0x3da84f04	0.08218196
138	0x3f18a990	0.5963373
139	0x3ec1ce90	0.37852907
140	0x3f504c20	0.8136616
141	0xbed09bbd	-0.4074382
142	0xbcd69f44	-0.02619899
143	0xbe6e128c	-0.23249263
144	0x3f539fa9	0.826655
145	0xbee7db47	-0.45284483
146	0xbe8c6c19	-0.27426222
147	0xbea7f01d	-0.3280038
148	0x3f27566d	0.6536625
149	0x3e3e8d20	0.18608522
150	0xbcf87050	-0.030326992
151	0x3dac5ef3	0.084165476
152	0xbf047a0e	-0.5174874
153	0xbe18e8fd	-0.14932628
154	0x3e990510	0.29886675
155	0xbf224e90	-0.63401127
156	0x3e561bba	0.20909014
157	0x3eac8de0	0.33701992
158	0xbe6a0b51	-0.2285588
159	0xbf2827bb	-0.65685624
160	0xbe832294	-0.2561232
161	0x3ce0c802	0.027439121
162	0xbfd3dc3d	-1.6551586
163	0x3e66cc75	0.22538932
164	0xbe209e88	-0.15685475
165	0xbfa2c510	-1.2716389
166	0xbe3041ea	-0.17212644
167	0x3d6a0272	0.05713124
168	0xbeb63f44	-0.35595143
169	0x3e981fc8	0.29711747
170	0xbc09b596	-0.00840511
171	0x3e8e535e	0.2779798
172	0x3f5d6bb0	0.86492443
173	0x3e070695	0.13186105
174	0x3eba579a	0.3639496
175	0x3e466f4e	0.19378397
176	0xbe7e532d	-0.24836417
177	0xbcce04c8	-0.025148764
178	0x3e1635af	0.14668916
179	0x3d1540f6	0.036438905
180	0xbf52cee0	-0.82346916
181	0xbe487fdb	-0.19580023
182	0xbfb3d76b	-1.4050115
183	0xbdae4dea	-0.08510955
184	0xbeb3f32a	-0.35146457
185	0x3e412770	0.188627
186	0x3ee1efbc	0.44128215
187	0xbf627519	-0.88459927
188	0xbf233b3f	-0.6376228
189	0xbf193e83	-0.5986101
190	0x3e4b0059	0.19824351
191	0xbf0fd7f5	-0.561889
192	0xbe9c2514	-0.30497038
193	0x3e1c3bc8	0.1525718
194	0xbcde3fbc	-0.02713
195	0x3ce25ffb	0.027633658
196	0xbeab7a69	-0.3349183
197	0xbdc29cf3	-0.09502592
198	0x3e3289c0	0.1743536
199	0x3f8d6542	1.1046526
200	0xbea955f7	-0.33073398
201	0x3e9c2e16	0.3050391
202	0xbe3204f2	-0.17384699
203	0x3ea5270f	0.32256362
204	0x3e5f9eb3	0.21837883
205	0x3ea3b819	0.31976393
206	0x3f5fb421	0.8738423
207	0xba424026	-0.00074100716
208	0xbdb072c9	-0.086156435
209	0x3e978ef0	0.2960124
210	0x3f06f441	0.5271645
211	0x3f749a1c	0.9554765
212	0x3ee42331	0.445581
213	0x3e74a261	0.23890068
214	0x3ecc577c	0.39910495
215	0xbe10fc2c	-0.14158696
216	0xbdcb4798	-0.09925765
217	0xbf0f2ddf	-0.5592937
218	0xbe8ec816	-0.27887028
219	0x3e3bda4a	0.1834499
220	0x3ed03825	0.40667835
221	0xbe936d34	-0.28794253
222	0xbf26f777	-0.6522135
223	0x3e640209	0.22266401
224	0xbeefe0c6	-0.46851176
225	0xbf1fa293	-0.62357444
226	0xbfa05711	-1.252657
227	0xbe86197c	-0.26191318
228	0xbfaab658	-1.3336897
229	0xbe359782	-0.17733577
230	0xbea63f58	-0.32470202
231	0x3e5fb330	0.21845698
232	0x3bad75ba	0.005293575
233	0xbeab12ee	-0.3341288
234	0x3e602064	0.21887356
235	0x3f0bc6ff	0.5460052
236	0x3f898300	1.0743103
237	0x3bb174e1	0.0054155444
238	0x3edcbb01	0.43111423
239	0xbed700d5	-0.41992822
240	0x3f00e280	0.5034561
241	0x3e2269d7	0.15860687
242	0x3e025a50	0.12729764
243	0x3efcbbf5	0.4936215
244	0xbf167fcd	-0.5878876
245	0x3ef5535d	0.47915164
246	0x3d807260	0.06271815
247	0xbda8f8a4	-0.082505494
248	0x3e188dd1	0.14897849
249	0xbe5605ba	-0.20900622
250	0xbd55b87f	-0.052177902
251	0xbdedf863	-0.11619642
252	0xbebab3c2	-0.3646527
253	0xbdf93d53	-0.121699
254	0x3ea5c17e	0.32374185
255	0xbf7879a8	-0.9706063

weight f4 [32]
0	0x3f84658f	1.0343493
1	0x3f63bf2f	0.889636
2	0x3f2ec7bf	0.6827354
3	0x3f4f13d1	0.8088961
4	0x3f55585f	0.8333797
5	0x3f3af2e0	0.7302685
6	0x3fd62cfc	1.6732478
7	0x3f7c5462	0.9856626
8	0x3f5959ca	0.8490263
9	0x3f3fa743	0.74864596
10	0x3f48c60a	0.78427184
11	0x3f0d97d5	0.553098
12	0x3f56c1cc	0.8388946
13	0x3ef69e90	0.4816785
14	0x3f6b4845	0.9190715
15	0x3f9a4c93	1.2054619
16	0x3fa88cc1	1.3167955
17	0x3f9d7e7c	1.2304225
18	0x3f4f4542	0.80965054
19	0x3fd863d5	1.6905466
20	0x3fb3dc66	1.4051635
21	0x3f78c435	0.9717439
22	0x3f6be118	0.9214034
23	0x3f5be5da	0.858976
24	0x3f030b49	0.51189095
25	0x3f85b416	1.0445583
26	0x3ee7a527	0.4524319
27	0x3f6c1f17	0.9223494
28	0x3fb79090	1.4340992
29	0x3f85faf7	1.0467213
30	0x3f102015	0.56298953
31	0x3f979345	1.1841818

bias f4 [32]
0	0xbf285efd	-0.6576994
1	0xbd8fba55	-0.07017962
2	0x3eab97ed	0.33514348
3	0xbd18366f	-0.037161287
4	0x3e770d3f	0.24126147
5	0xbd2148ad	-0.03937595
6	0x3d80265a	0.06257315
7	0x3cfa7170	0.03057167
8	0xbf2acfea	-0.667235
9	0x3d91400c	0.07092294
10	0x3e82bcec	0.2553476
11	0xbecbc5c5	-0.39799324
12	0x3e37eee5	0.17962225
13	0xbf03079c	-0.51183486
14	0xbeb7cc8d	-0.35898247
15	0x3ebf84b9	0.37405947
16	0xbec65694	-0.3873793
17	0xbe6a1e35	-0.22863086
18	0xbed5b868	-0.41742253
19	0xbae40010	-0.0017395038
20	0x3ad83dc4	0.00164979
21	0xbe145ef3	-0.14489345
22	0x3ed674ac	0.4188589
23	0x3e18c4ba	0.14918795
24	0xbd60e9a2	-0.05491031
25	0xbe686d83	-0.22698025
26	0xbe56a3ba	-0.20960894
27	0xbe119c56	-0.14219794
28	0x3e275d66	0.16344222
29	0x3e06e216	0.13172182
30	0xbedf0b45	-0.43563285
31	0x3ccc10b2	0.024910305

running_mean f4 [32]
0	0x3f85e0db	1.0459245
1	0x3f956309	1.1670848
2	0xbdae7389	-0.0851813
3	0x3f91a80f	1.1379412
4	0xbe908142	-0.28223616
5	0x3f8a3408	1.0797129
6	0x3e394df9	0.1809615
7	0xbed485cd	-0.41508332
8	0x3f57accb	0.84248036
9	0xbf755b13	-0.95842093
10	0xbf60cde5	-0.8781417
11	0x3ee80877	0.45318958
12	0x3f9daa84	1.2317662
13	0x3ef0de77	0.47044727
14	0x3d76b02c	0.060226604
15	0xbcb8861a	-0.022524882
16	0xbeef43c3	-0.46731386
17	0x3f4d163e	0.80112064
18	0xbe9f4dea	-0.3111413
19	0xbf43c613	-0.7647411
20	0xbfa9ed6b	-1.3275579
21	0x3f2a8a09	0.66616875
22	0xbeb940f0	-0.36182356
23	0xbf973dfd	-1.1815792
24	0x3e4dd090	0.20099092
25	0x3f00c987	0.50307506
26	0x3fe22dbb	1.7670206
27	0xbe148e41	-0.1450739
28	0xbfefa647	-1.8722619
29	0x3f6ff1ad	0.9372814
30	0x3f46006b	0.7734439
31	0xbf096687	-0.5367207

running_var f4 [32]
0	0x3f1c2a33	0.6100189
1	0x3fbf7ee3	1.4960598
2	0x40019c72	2.0251737
3	0x3f5cf09d	0.86304647
4	0x3eebe9e6	0.46076888
5	0x3f0dbbd3	0.5536472
6	0x3fab4487	1.3380288
7	0x4018b674	2.386136
8	0x3f7a0151	0.9765826
9	0x400418b9	2.064009
10	0x3fa09b33	1.2547363
11	0x3f8332d8	1.0249891
12	0x3f8a0c67	1.0785035
13	0x3ee6063e	0.44926637
14	0x3feabb0c	1.8338332
15	0x402d8c55	2.7116902
16	0x3faa8ca3	1.3324169
17	0x3fc71ce9	1.5555698
18	0x3f292f1d	0.66087514
19	0x4004e1ad	2.0762742
20	0x4094b24d	4.646765
21	0x3f168b80	0.5880661
22	0x4013f891	2.3120463
23	0x3ff48604	1.9103398
24	0x4019befb	2.4022815
25	0x3f7ed9fa	0.99551356
26	0x3f754979	0.95815235
27	0x3fea87e8	1.8322725
28	0x4053d31e	3.3097606
29	0x3f59569c	0.8489778
30	0x3fc7dd00	1.5614319
31	0x401596d9	2.337332

weight f4 [8, 32, 1, 1]
0	0x3e3c9f41	0.18420126
1	0xbe4b7a22	-0.19870809
2	0xbc4e62d9	-0.012596809
3	0xb9f9e624	-0.0004766445
4	0xbcafabbb	-0.021444192
5	0xbd6ac2b2	-0.057314582
6	0xbe9eb0ea	-0.3099435
7	0x3f7a8898	0.97864676
8	0x3ebbb5a6	0.36662024
9	0x3e64d8fa	0.22348395
10	0x3e633972	0.22189882
11	0x3edb7682	0.42863852
12	0xbc40a1d9	-0.0117573375
13	0xbe133eb5	-0.1437939
14	0x3d982c6e	0.07430349
15	0xbf006009	-0.5014654
16	0x3c0eccb7	0.0087158
17	0x3e6bde31	0.23033978
18	0x3d0871d4	0.03331168
19	0xbe2edd8e	-0.17076704
20	0xbf077891	-0.52918345
21	0x3f46e6fe	0.77696216
22	0xbe86e948	-0.26349854
23	0x3b973892	0.004614898
24	0x3e410a21	0.1885152
25	0xbea4a0b9	-0.32153872
26	0xbec694be	-0.38785356
27	0x3edc6154	0.43043005
28	0xbeb61450	-0.35562372
29	0x3e1e26ae	0.15444443
30	0xbe07d714	-0.1326564
31	0x3d86109d	0.065461375
32	0x3eec1c71	0.4611545
33	0x3dc0bfa5	0.09411553
34	0xbeebf0ff	-0.46082303
35	0x3ea33fd7	0.31884643
36	0x3e90c2f7	0.28273746
37	0xbcb305ad	-0.021853292
38	0xbecb9cf5	-0.39768186
39	0x3cf7d6b5	0.030253747
40	0x3e44cfce	0.19219896
41	0xbdea5564	-0.11442068
42	0xbe334276	-0.17505822
43	0x3e79a4fc	0.24379343
44	0xbedf1e72	-0.43577915
45	0x3e7e2aea	0.24821058
46	0xbe51e5bd	-0.20497794
47	0xbf0ec037	-0.55762047
48	0x3e22d667	0.159021
49	0xbdf71fc0	-0.12066603
50	0xbe3c9acf	-0.1841843
51	0x3db6e666	0.08930664
52	0xbf571621	-0.8401814
53	0xbcb5b534	-0.022181131
54	0xbef120fa	-0.47095472
55	0x3e6ca66d	0.23110361
56	0x3e2f9917	0.17148243
57	0x3efe8867	0.49713442
58	0x3df3627d	0.118840195
59	0x3e858c6c	0.26083696
60	0x3ea9744b	0.33096537
61	0x3d8cb06a	0.06869586
62	0xbd84b5d4	-0.064799935
63	0x3d97e931	0.074175246
64	0xbe0b1b6c	-0.1358468
65	0xbef49696	-0.47771138
66	0x3f23fe89	0.64060265
67	0xbe130599	-0.14357604
68	0x3dbd17cd	0.09233055
69	0x3e72c1db	0.23706762
70	0xbf02b0a0	-0.5105076
71	0xbed65ca2	-0.41867548
72	0xbd228267	-0.039675143
73	0x3bf5f17c	0.007505594
74	0xbe8ade7b	-0.27122864
75	0x3e0fa9e2	0.14029649
76	0x3e4617a5	0.19344957
77	0x3f070d01	0.5275422
78	0x3eafef5a	0.34362298
79	0xbe1b67fb	-0.15176384
80	0xbd92ef3c	-0.071745366
81	0x3eec08ab	0.46100363
82	0xbe2a28cf	-0.1661713
83	0xbf5d2b02	-0.8639375
84	0xbdf0558d	-0.117350675
85	0xbcdb7987	-0.026791347
86	0x3d4cda7c	0.05001305
87	0xbd07f279	-0.033190224
88	0xbdc775fd	-0.09739301
89	0x3e6c9c60	0.23106527
90	0xbd2b9aac	-0.041895553
91	0xbeb4a14d	-0.35279313
92	0xbe3fda7e	-0.18735692
93	0x3e327755	0.17428334
94	0x3e255945	0.16147335
95	0xbf3aedcd	-0.73019105
96	0xbb60d1e9	-0.0034304804
97	0x3e88f32e	0.2674803
98	0x3bca57d8	0.0061750226
99	0xbec9456e	-0.39310783
100	0xbe2658d8	-0.16244829
101	0x3ee6f293	0.45106944
102	0xbf47dcfa	-0.7807156
103	0x3dc52c0f	0.09627544
104	0xbebbd158	-0.36683154
105	0xbe9d2d4a	-0.30698615
106	0xbc206ad5	-0.009791096
107	0xbdd9b89b	-0.10630914
108	0x3ecdc674	0.4019047
109	0x3e349db7	0.17638288
110	0x3f116865	0.5679992
111	0xbdf67226	-0.12033491
112	0x3f294d46	0.66133535
113	0x3d9cce4e	0.07656537
114	0xbe088408	-0.13331616
115	0xbe46b268	-0.19403994
116	0xbed2713f	-0.41102025
117	0x3eb0b5e9	0.34513786
118	0xbe271191	-0.16315295
119	0xbee55626	-0.4479229
120	0xbe90be8d	-0.2827038
121	0x3ef06532	0.46952206
122	0x3c19cf43	0.009387794
123	0x3e1dab68	0.15397418
124	0xbe7b52be	-0.24543282
125	0xbd7c663b	-0.061620932
126	0xbea6e999	-0.32600096
127	0x3dd4a805	0.1038361
128	0x3ee1eb77	0.44124958
129	0xbefb9137	-0.49134228
130	0xbe5fcfe7	-0.21856652
131	0xbe4e274b	-0.20132177
132	0x3d67f9f8	0.056634873
133	0x3e6dbd3b	0.23216717
134	0x3e6af10c	0.22943515
135	0xbe857877	-0.2606847
136	0x3ec07988	0.3759272
137	0x3d869e28	0.06573135
138	0xbc62674c	-0.013818573
139	0x3e1f7f9d	0.15576024
140	0xbf05c29e	-0.5225009
141	0xbe9bfdd5	-0.30467096
142	0x3dab68c4	0.08369592
143	0x3eb75787	0.35808966
144	0x3dd08aaf	0.10182702
145	0xbec810c7	-0.390753
146	0x3e8a1097	0.26965782
147	0xbe912571	-0.28348878
148	0xbd98de1c	-0.07464239
149	0x3c43097f	0.0119041195
150	0xbdd75957	-0.10515087
151	0xbec0d9a0	-0.37666035
152	0xbe618e2e	-0.22026893
153	0xbd9ca42e	-0.07648502
154	0xbce2b408	-0.027673736
155	0xbeaf0f1b	-0.34191212
156	0xbf157e81	-0.58396155
157	0xbbbfa0b7	-0.005848016
158	0x3e998de2	0.2999106
159	0xbeb68650	-0.35649347
160	0x3e9aec1f	0.3025827
161	0xbeb83d1e	-0.3598413
162	0xbf174485	-0.5908893
163	0x3e9642e0	0.29347897
164	0x3e5cea43	0.21573739
165	0xbe79fd04	-0.24412924
166	0x3e2a1de2	0.16612962
167	0x3e653c4e	0.22386286
168	0x3da937b9	0.082625814
169	0xbf2e1bac	-0.68010974
170	0x3e188124	0.14893013
171	0xbe9de02e	-0.30835098
172	0x3e92118b	0.2852901
173	0x3d1b7ebc	0.03796266
174	0xbe7f839c	-0.24952549
175	0xbd9f58b3	-0.0778059
176	0xbe906b0b	-0.28206667
177	0x3f26b0cc	0.6511352
178	0xbedc2def	-0.43003795
179	0xbec60388	-0.3867457
180	0xbebfc29e	-0.3745317
181	0xbf279830	-0.65466595
182	0xbcac0d17	-0.021002335
183	0xbea5c9cd	-0.32380524
184	0x3d204a5a	0.039133407
185	0xbe3d8e34	-0.18511277
186	0x3e93feb9	0.28905275
187	0x3e949c4b	0.29025492
188	0xbe14419d	-0.14478154
189	0x3ef5404d	0.4790062
190	0xbeb25fd7	-0.34838745
191	0x3cfa04d3	0.030519878
192	0xbe77d124	-0.24200875
193	0x3e839695	0.25700822
194	0xbe9dafde	-0.3079824
195	0xbd421ec4	-0.04739262
196	0x3e4ee249	0.20203508
197	0x3f05cd1d	0.52266103
198	0x3ea75ef0	0.3268962
199	0xbed05ea8	-0.40697217
200	0xbeddbfd3	-0.43310413
201	0xbe30fa13	-0.17282896
202	0xbe86fdde	-0.2636556
203	0x3ef8b366	0.4857437
204	0xbeced567	-0.40397188
205	0xbdd6ac80	-0.104821205
206	0x3e980624	0.29692185
207	0xbf1ddca8	-0.6166482
208	0xbeb27aa3	-0.3485919
209	0x3dada404	0.08478549
210	0x3e67af42	0.2262545
211	0xbea13a5c	-0.31489837
212	0x3e23e3e6	0.16004905
213	0xbd8362ae	-0.06415306
214	0x3ee8544f	0.45376822
215	0x3ecd840f	0.40139815
216	0x3ed19876	0.4093663
217	0x3dc32bff	0.09529876
218	0x3f09e9ef	0.5387258
219	0xbe6ccbcd	-0.23124619
220	0x3f272584	0.6529162
221	0x3f5e1fdd	0.8676737
222	0x3e0644cf	0.13112186
223	0xbd1a18a5	-0.03762116
224	0xbf0c86b5	-0.54893047
225	0x3e0882ee	0.13331196
226	0x3eeb8d14	0.46006072
227	0xbea0b5d6	-0.3138873
228	0xbf2a2316	-0.66459787
229	0xbe514772	-0.2043741
230	0x3f043253	0.5163929
231	0x3b89295f	0.00418584
232	0x3ebbc708	0.36675286
233	0xbd8fe3d5	-0.070258774
234	0xbf02f0af	-0.51148504
235	0x3e5f5c1c	0.2181248
236	0xbde72264	-0.11285856
237	0x3e082745	0.1329623
238	0xbd8e201a	-0.06939717
239	0xbe91de3c	-0.28489864
240	0xbe53825e	-0.206552
241	0xbeb3d80a	-0.35125762
242	0x3da73ccd	0.08165894
243	0xbd7da7df	-0.061927672
244	0xbd1b193c	-0.037865862
245	0xbcca0493	-0.024660384
246	0xbe9fc228	-0.31202817
247	0xbf3530a2	-0.7077733
248	0x3e06ef83	0.13177304
249	0x3f0437e9	0.5164781
250	0x3e442a7c	0.19156832
251	0xbef032cf	-0.46913764
252	0x3de5c0e1	0.11218429
253	0xbea103be	-0.31448168
254	0xbee9bb97	-0.45650932
255	0x3de708f6	0.11281006

weight f4 [8]
0	0x3f694caf	0.91132635
1	0x3f89beff	1.0761412
2	0x3f79b13b	0.9753606
3	0x3f6a6d5e	0.9157313
4	0x3f83f722	1.0309794
5	0x3f965a1b	1.1746248
6	0x3f82c67a	1.021682
7	0x3f7fd6ac	0.9993694

bias f4 [8]
0	0xbe801d7c	-0.25022495
1	0xbd23c33c	-0.039981112
2	0xbf2016b9	-0.6253467
3	0xbf31e93c	-0.6949651
4	0x3e8b9e6d	0.27269307
5	0xbdbf316c	-0.09335598
6	0xbe506562	-0.20351174
7	0xbf16d3a7	-0.58916706

running_mean f4 [8]
0	0xbf3903fd	-0.7227171
1	0xbfccb890	-1.5993824
2	0xbf38fec4	-0.7226374
3	0xbfa695e3	-1.3014492
4	0xbf96ab89	-1.1771098
5	0xbf5d8fef	-0.8654775
6	0x3efe5d85	0.49680725
7	0xbfcd05d0	-1.6017399

running_var f4 [8]
0	0x3fde9aef	1.7391032
1	0x3f88638b	1.0655378
2	0x3f233b11	0.63762003
3	0x3eff619e	0.49879164
4	0x3f4df94c	0.8045852
5	0x3f66128c	0.8987205
6	0x3fd6e00d	1.6787125
7	0x3f5266f8	0.8218837
