HW2/aML/R6_btnk_ch8(hw2).pt (torch, 58010 bytes, 42 tensors)

weight f4 [8, 3, 7, 7]
0	0xbedc1200	-0.42982483
1	0x3ed50f1d	0.41613093
2	0x3e843104	0.25818646
3	0x3d831207	0.06399923
4	0x3d89b214	0.06723419
5	0x3d290361	0.041262988
6	0x3e80bfdc	0.25146377
7	0xbf322da3	-0.69600886
8	0x3eb6c38d	0.35696068
9	0x3f08ad34	0.53389287
10	0x3d21251a	0.039342023
11	0xbe35d132	-0.17755583
12	0x3d8fb6e3	0.07017305
13	0xbda9d62c	-0.08292803
14	0xbf0a04db	-0.5391366
15	0x3ef7fb4d	0.48433915
16	0x3ee1c867	0.44098207
17	0x3f273264	0.65311265
18	0xbf0dbf82	-0.5537034
19	0x3eea71c6	0.45789927
20	0xbe3d1286	-0.18464097
21	0xbdad7f07	-0.08471494
22	0x3f158362	0.584036
23	0x3ecbc5c8	0.39799333
24	0x3e9661de	0.29371542
25	0xbe84af9f	-0.25915238
26	0x3e17aa79	0.14811124
27	0xbf01b7fc	-0.5067136
28	0x3ed2ceb4	0.41173327
29	0x3e2740e6	0.1633335
30	0x3f07958f	0.52962583
31	0x3ed291ec	0.41126955
32	0xbdab9e1e	-0.08379768
33	0x3e625a1f	0.22104691
34	0x3b52cc85	0.003216536
35	0x3ed76c23	0.4207469
36	0x3ec47ea0	0.38377857
37	0x3f349718	0.7054305
38	0x3d968fb2	0.073516265
39	0x3ed8c01b	0.42334065
40	0x3dab8be7	0.08376294
41	0x3e1595d3	0.14607935
42	0x3d9c0dd0	0.07619822
43	0x3ea7bad7	0.32759735
44	0x3f24c79b	0.64367074
45	0x3e9f6a2c	0.3113569
46	0x3eb03c79	0.34421137
47	0xbcdb6d99	-0.026785659
48	0x3e72fa61	0.23728324
49	0xbea35ef8	-0.31908393
50	0x3ea13564	0.31486046
51	0x3e5ea72f	0.21743463
52	0x3e407b38	0.18797004
53	0x3e048729	0.12942185
54	0xbd360b42	-0.04444433
55	0x3ea328b6	0.31866997
56	0xbf12c76a	-0.5733553
57	0x3e9f7ccc	0.311499
58	0x3f0539a6	0.5204109
59	0x3dd42514	0.103586346
60	0xbda1191e	-0.07866119
61	0x3dd65ddd	0.10467122
62	0xbe400604	-0.18752295
63	0xbf03cf26	-0.5148796
64	0x3f067865	0.5252746
65	0x3ebd8ccb	0.3702148
66	0x3f1b0d74	0.605674
67	0xbf1f1a18	-0.6214919
68	0x3eeb1f39	0.45922258
69	0xbe466dd4	-0.19377834
70	0xbcaf071a	-0.021365691
71	0x3f194428	0.59869623
72	0x3eef6ab1	0.46761087
73	0x3e88259b	0.2659119
74	0xbe4c2efa	-0.19939795
75	0x3e813685	0.25236908
76	0xbeeee59f	-0.46659562
77	0x3e8f6395	0.28005663
78	0x3e23c372	0.15992525
79	0x3f0470ab	0.5173442
80	0x3ef3be97	0.47606346
81	0x3d7b8e88	0.061415225
82	0x3ea63f4c	0.32470167
83	0xbd0350f1	-0.032059614
84	0x3ec5f370	0.3866229
85	0x3ed98fec	0.42492616
86	0x3f2b12a8	0.6682534
87	0x3da05f9c	0.07830736
88	0x3eb19d9b	0.34690556
89	0x3e39b555	0.18135579
90	0x3dcbd402	0.09952547
91	0x3e12abb8	0.14323318
92	0x3ea35130	0.3189788
93	0x3f22b0e7	0.6355118
94	0x3ebd1490	0.3692975
95	0x3edf9c6f	0.43674037
96	0xbd570ae1	-0.05250061
97	0x3e9bfb24	0.30465043
98	0xbea5ff28	-0.3242123
99	0x3ec2d3f7	0.3805234
100	0x3e6b7891	0.22995211
101	0x3e0e3bda	0.13890019
102	0x3e1651c2	0.14679626
103	0xbc341e23	-0.010993513
104	0x3e55fcdd	0.20897241
105	0xbf15a522	-0.584551
106	0x3ec24de4	0.3795005
107	0x3eff4461	0.49856856
108	0x3cd407d6	0.025882643
109	0xbe074bf5	-0.13212569
110	0x3d608f55	0.054824192
111	0xbe29e9a8	-0.16593039
112	0xbf03a7b0	-0.51427746
113	0x3efc36bc	0.4926051
114	0x3edce54d	0.43143693
115	0x3f38bd91	0.72164255
116	0xbf09de63	-0.5385496
117	0x3eef39c4	0.4672376
118	0xbe389bb0	-0.1802814
119	0xbe2209cb	-0.15824048
120	0x3f1dcc94	0.61640286
121	0x3ecbd0f0	0.39807844
122	0x3e9a4e99	0.3013809
123	0xbe453a2a	-0.19260469
124	0x3e038203	0.12842564
125	0xbf10e7c1	-0.5660363
126	0x3ec698ea	0.3878854
127	0x3e3f77f9	0.1869811
128	0x3f148925	0.58021766
129	0x3eb943c3	0.3618451
130	0x3c60ccff	0.01372075
131	0x3eb7cc3a	0.35898
132	0x3d0d996f	0.034570154
133	0x3ec660d9	0.38745764
134	0x3ed5612d	0.41675702
135	0x3f292e52	0.66086304
136	0x3dbfc20d	0.09363184
137	0x3ecbb2d4	0.39784873
138	0x3d71c772	0.059028096
139	0x3dea5b1f	0.11443161
140	0x3d5782a0	0.052614808
141	0x3eea26b5	0.45732656
142	0x3f265c7d	0.64984876
143	0x3ec12c40	0.37729073
144	0x3eec7ea6	0.46190375
145	0xbc8df37c	-0.017328016
146	0x3e8e83fd	0.27835074
147	0x3ef6c341	0.48195842
148	0x3e7fb77c	0.24972337
149	0x3e88220d	0.2658848
150	0x3eb007b2	0.3438087
151	0x3ebb2cc1	0.36557582
152	0x3e969e36	0.2941758
153	0x3e9adda1	0.30247214
154	0x3d9eeb05	0.0775967
155	0x3eb294ef	0.34879252
156	0x3e28ec8b	0.16496484
157	0x3e311c87	0.17296039
158	0x3e1a27d2	0.15054253
159	0x3df7e81e	0.1210482
160	0xbdcb2b70	-0.099203944
161	0xbe9097e9	-0.28240898
162	0xbd4e133a	-0.050311305
163	0xbd9cf1b0	-0.07663286
164	0x3e626511	0.22108866
165	0x3bdfa187	0.0068246755
166	0xbf099cef	-0.53755087
167	0xbe93ac7c	-0.28842533
168	0xbeb7aa6f	-0.35872218
169	0xbdac8c24	-0.08425167
170	0xbe8be059	-0.273196
171	0xbf285a50	-0.65762806
172	0xbf64b20f	-0.89334196
173	0xbe6126c8	-0.2198745
174	0xbe743e2c	-0.23851842
175	0xbe6cf655	-0.23140843
176	0xbdfc3589	-0.123148985
177	0xbf253a18	-0.6454177
178	0xbf10c428	-0.5654931
179	0xbd4a81f8	-0.049440354
180	0xbd3348bc	-0.043770537
181	0x3ca95650	0.02067104
182	0xbd8918e8	-0.066942036
183	0xbc3629f7	-0.011118404
184	0x3d9a7d6f	0.07543456
185	0x3e075294	0.13215095
186	0x3e838ba8	0.25692487
187	0x3ecb0bb0	0.39657354
188	0x3ddad863	0.10685804
189	0x3dd0f7fd	0.1020355
190	0x3e062571	0.1310022
191	0x3e96c501	0.29447177
192	0x3ea80c48	0.3282187
193	0x3c2b5717	0.010457776
194	0xbdac83f3	-0.08423605
195	0x3d3f427e	0.04669427
196	0x3eb764cb	0.35819086
197	0x3e82fbb8	0.2558267
198	0x3e9f10ff	0.31067654
199	0x3e77f6aa	0.24215189
200	0x3ef884a6	0.48538703
201	0x3eb7b89d	0.35883036
202	0x3eccfd70	0.40037107
203	0x3c7446d8	0.014909469
204	0x3ebe29ff	0.37141415
205	0x3e82eb59	0.2557018
206	0x3e032617	0.12807499
207	0x3e0b843c	0.13624662
208	0x3e112b6f	0.14176725
209	0xbcaaa265	-0.020829389
210	0xbe75789c	-0.2397179
211	0x3ce50841	0.027958037
212	0x3d1def95	0.03855856
213	0x3e6016fe	0.21883771
214	0xbde569ea	-0.11201842
215	0xbec80ccf	-0.39072272
216	0xbea3ac2d	-0.31967297
217	0xbeb1a522	-0.346963
218	0xbd27676d	-0.04087012
219	0xbe913fcb	-0.28368983
220	0xbf351d77	-0.70748085
221	0xbf730a6b	-0.9493777
222	0xbe2eecfc	-0.1708259
223	0xbe75c4a2	-0.2400079
224	0xbdcdeaab	-0.10054525
225	0xbe32cf22	-0.17461827
226	0xbef8a695	-0.48564592
227	0xbf017619	-0.5057083
228	0x3c8f6285	0.017503032
229	0x3c4b7def	0.012420162
230	0x3d54b951	0.051934544
231	0xbe45c4fb	-0.19313423
232	0xbd5efbef	-0.05443948
233	0x3d6f2539	0.058385108
234	0x3df30ebe	0.11868046
235	0x3e3f450a	0.1867868
236	0x3ea6d8cb	0.32587275
237	0x3df9e290	0.122014165
238	0x3cbf223c	0.023331754
239	0x3e74d77f	0.2391033
240	0x3e6ab3f6	0.22920212
241	0x3ea3151d	0.31852046
242	0x3b55c55f	0.0032618863
243	0xbd3437f9	-0.043998692
244	0x3c572a88	0.013132699
245	0x3ee28ec5	0.4424955
246	0x3e9747fc	0.29547107
247	0x3ea98801	0.33111575
248	0x3ea073d2	0.31338364
249	0x3ebc8157	0.36817428
250	0x3ee3791b	0.44428334
251	0x3ebe85f8	0.37211585
252	0xbd1a5f0b	-0.037688296
253	0x3ea372a4	0.319234
254	0x3e7d5b2d	0.24741812
255	0x3d9d4b25	0.07680348

weight f4 [8]
0	0x3f86d828	1.0534716
1	0x3f737251	0.9509631
2	0x3f6bb641	0.9207497
3	0x3f65be6d	0.8974369
4	0x3f95baeb	1.1697668
5	0x3f7aec0d	0.98016435
6	0x3fc95d9b	1.5731691
7	0x3f9959ba	1.1980507

bias f4 [8]
0	0xbe19d9c8	-0.15024483
1	0x3c56493b	0.013078983
2	0xbe2672d9	-0.16254748
3	0xbda798e5	-0.08183459
4	0x3f67cbd0	0.9054537
5	0xbef2524e	-0.47328418
6	0x3f1895fb	0.5960385
7	0xbc27b8bc	-0.010236915

running_mean f4 [8]
0	0x42c7564a	99.66853
1	0xc02650d0	-2.5986824
2	0x41575426	13.458044
3	0xc04b407e	-3.1758113
4	0xc200d69f	-32.20959
5	0x42999d45	76.80717
6	0xc2d933c3	-108.6011
7	0xc0beef87	-5.966739

running_var f4 [8]
0	0x48bd08ec	387143.38
1	0x470266f5	33382.957
2	0x4667065d	14785.591
3	0x46bb7e30	23999.094
4	0x47f4ffe9	125439.82
5	0x483b767e	191961.97
6	0x48b128d8	362822.75
7	0x47d7c18e	110467.11

weight f4 [8, 8, 1, 1]
0	0xbdce500b	-0.10073861
1	0xbe2492ee	-0.16071674
2	0x3eb5858c	0.3545345
3	0x3f1a8c77	0.6037058
4	0xbeb52d51	-0.35386136
5	0x3f4fe9f0	0.81216335
6	0xbe8fbad7	-0.28072235
7	0xbe15a09a	-0.14612046
8	0xbe007ff4	-0.1254881
9	0xbf043869	-0.51648575
10	0x3db734eb	0.0894564
11	0x3f04ef4f	0.51927656
12	0x3ee964d7	0.45584747
13	0x3db93c7f	0.09044742
14	0x3f659668	0.89682627
15	0xbf9c0c1b	-1.2191194
16	0xbdd9c53b	-0.10633322
17	0x3ee7a21e	0.45240873
18	0x3ea95401	0.33071902
19	0xbf193188	-0.59841204
20	0x3ea84b5c	0.32869995
21	0xbe47e496	-0.19520792
22	0x3e68d8fa	0.2273902
23	0xbef1526b	-0.47133192
24	0xbf17b91a	-0.5926682
25	0x3dbdaa20	0.092609644
26	0x3d561c5b	0.052273136
27	0x3e893637	0.26799175
28	0x3e3cecfb	0.18449776
29	0xbf1247f6	-0.57141054
30	0x3f0cb32d	0.549609
31	0x3f12735b	0.5720727
32	0x3e488f9a	0.1958603
33	0x3edd4f83	0.43224725
34	0x3dc179a6	0.09447031
35	0xbf1b91cc	-0.60769343
36	0x3f52e419	0.823793
37	0x3ed1e9a3	0.40998563
38	0x3ecf2674	0.40459025
39	0x3e955bfd	0.29171744
40	0x3eeab3bb	0.45840248
41	0xbe9be525	-0.3044826
42	0xbef61e31	-0.4806991
43	0x3e095a12	0.13413265
44	0x3d5e39a8	0.054254204
45	0x3ec54d50	0.38535547
46	0xbd5ea37e	-0.054355137
47	0xbd297400	-0.04137039
48	0xbe3f8fa1	-0.18707134
49	0x3f09c0b8	0.5380969
50	0xbc119701	-0.0088861
51	0x3dbe896e	0.093035564
52	0xbf2e2519	-0.68025357
53	0x3ecbdc30	0.39816427
54	0xbeaa6eb9	-0.332876
55	0x3e7e53dc	0.24836677
56	0x3f3eaece	0.7448548
57	0xbe2ada94	-0.16684943
58	0x3e9a0163	0.30079183
59	0x3c2b3581	0.010449768
60	0x3e3d6dcc	0.18498915
61	0xbe98436e	-0.29738945
62	0x3eeb6db7	0.45982143
63	0xbf00d8db	-0.50330895

weight f4 [8]
0	0x3f95405d	1.1660267
1	0x3fa5ce09	1.2953502
2	0x3f8adc21	1.0848428
3	0x3f94c21d	1.1621739
4	0x3fa8f792	1.3200552
5	0x3f63b4d7	0.88947815
6	0x3f7febe8	0.9996934
7	0x3f84d413	1.037722

bias f4 [8]
0	0x3e3fe175	0.18738349
1	0x3ec55bd5	0.38546625
2	0xbc9512c7	-0.01819743
3	0x3e52a950	0.205724
4	0x3dc9e1de	0.09857534
5	0xbe1147f7	-0.14187609
6	0x3e66b1c8	0.22528756
7	0x3dcb814e	0.09936772

running_mean f4 [8]
0	0xbe9ed530	-0.31022024
1	0x3f75957c	0.9593122
2	0x3eebbf25	0.4604427
3	0x3f1c475c	0.61046386
4	0x3fc85527	1.5650986
5	0x3d44b507	0.048024204
6	0xbf4be6ed	-0.7964924
7	0x3f2fcf43	0.6867563

running_var f4 [8]
0	0x400b6c94	2.178502
1	0x402b980f	2.681156
2	0x3f91ec91	1.1400319
3	0x3f5d1eb9	0.86375004
4	0x402d85c8	2.7112904
5	0x3eef8c11	0.4678655
6	0x3f687bbc	0.90813804
7	0x3f2373c0	0.63848495

weight f4 [8, 8, 3, 3]
0	0xbf1ab4ce	-0.60432136
1	0x3e488b67	0.19584428
2	0xbeb5d9d4	-0.35517752
3	0xbf140ff9	-0.5783687
4	0x3ee2f620	0.44328403
5	0x3e3af5ac	0.18257779
6	0xbea2e116	-0.31812352
7	0xbe12fa0b	-0.14353196
8	0xbdf122af	-0.117741935
9	0xbcc32cd2	-0.023825083
10	0xbe8fdfba	-0.28100377
11	0xbc1bdb3d	-0.00951272
12	0xbf29439c	-0.6611879
13	0xbfb5fefb	-1.4218439
14	0xbe8d32cc	-0.27577817
15	0x3f79a125	0.9751151
16	0xbeb2edf3	-0.34947166
17	0xbf1d3cfd	-0.61421186
18	0xbdd2f44d	-0.10300503
19	0xbec41928	-0.38300443
20	0x3e826857	0.2547023
21	0xbf60e209	-0.878449
22	0xbe4ed78e	-0.20199415
23	0x3ebcbc4b	0.36862406
24	0x3eef8851	0.4678369
25	0x3e9028b5	0.28156057
26	0x3ef2edd8	0.47447085
27	0x3f03da47	0.5150494
28	0xbd30503b	-0.043045264
29	0x3d95c0b2	0.07312144
30	0xbe36a4a8	-0.17836249
31	0x3eb95f2e	0.3620543
32	0x3e8718c8	0.26386094
33	0x3df9dc9a	0.122002795
34	0x3d1cd054	0.038284615
35	0x3db0f36f	0.08640181
36	0xbe41209e	-0.18860099
37	0xbebed562	-0.37272173
38	0xbe538c74	-0.20659047
39	0x3debdfd9	0.11517305
40	0x3e8e1ef0	0.27757978
41	0x3e93e6ec	0.28887117
42	0xbeedefa4	-0.46471894
43	0xbf09fd59	-0.539022
44	0xbe424937	-0.18973242
45	0xbf10ac38	-0.56512785
46	0x3e080b6f	0.13285612
47	0xbe10ff4f	-0.14159892
48	0xbe8f70f7	-0.28015873
49	0x3f85c478	1.0450583
50	0x3ececa76	0.4038884
51	0x3ed3c9a4	0.41364777
52	0x3f718b85	0.94353515
53	0x3dbe6481	0.09296513
54	0x3df762d4	0.12079397
55	0x3efbc102	0.4917069
56	0x3e9cd00f	0.30627486
57	0xbf48a256	-0.78372705
58	0xbe98d6b2	-0.298513
59	0xbd05ad83	-0.032636177
60	0xbf208f7e	-0.6271895
61	0xbdb3a66c	-0.08771977
62	0x3e471a29	0.19443573
63	0xbf74d993	-0.9564449
64	0xbf0c0015	-0.54687625
65	0xbefad490	-0.48990297
66	0x3df19e69	0.117977925
67	0x3e4ce170	0.20007873
68	0x3e780078	0.24218929
69	0x3ed91906	0.42401904
70	0xbcb1de2b	-0.021712383
71	0xbef7cc35	-0.48397985
72	0xbf02721c	-0.5095537
73	0x3df3c9d4	0.1190373
74	0x3c2b3264	0.010449026
75	0x3daf4b6a	0.08559306
76	0x3eac4054	0.33642828
77	0x3c342aa0	0.010996491
78	0xbdee857d	-0.116465546
79	0x3e04c77d	0.12966724
80	0xbeb9b4ea	-0.3627084
81	0xbe5bda95	-0.21470101
82	0xbf02f955	-0.511617
83	0xbcda45c1	-0.02664459
84	0xbd24f508	-0.040272743
85	0x3ef73013	0.48278865
86	0x3f1ad3e8	0.60479593
87	0xbdab3303	-0.08359339
88	0x3e9fca25	0.31208912
89	0xbe35f50e	-0.17769262
90	0x3f55cd97	0.8351683
91	0x3f509a46	0.814854
92	0xbf5da3ac	-0.8657787
93	0xbf020e84	-0.508034
94	0x3e3c7b03	0.184063
95	0x3e986f8b	0.297726
96	0x3e274c6d	0.16337748
97	0x3e748678	0.23879421
98	0x3f19d3c8	0.6008878
99	0xbda7ad69	-0.08187372
100	0x3dc051c5	0.09390596
101	0xbe9a977e	-0.30193704
102	0x3e9c5367	0.3053238
103	0x3e9115a1	0.28336814
104	0x3f310695	0.6915067
105	0x3e541cb3	0.20714073
106	0x3f1b04b4	0.6055405
107	0x3eee77f9	0.46575907
108	0xbfc0ae09	-1.5053111
109	0xbda210fb	-0.07913395
110	0x3dc70e7a	0.09719558
111	0xbea18ded	-0.31553593
112	0x3da61faa	0.08111508
113	0x3e8f8d21	0.2803736
114	0x3bbb0403	0.0057072653
115	0x3e9fe951	0.31232694
116	0xbd48c052	-0.049011536
117	0xbe363e29	-0.1779715
118	0x3e2452af	0.16047166
119	0x3e5dc69d	0.21657796
120	0x3edc29ad	0.43000546
121	0x3f241c30	0.6410551
122	0x3dff5a43	0.12468388
123	0x3e7dbfbd	0.24780174
124	0xbe1cf3cf	-0.1532738
125	0xbebfa2b0	-0.37428808
126	0xbd4a58a6	-0.049400948
127	0xbe7512e5	-0.23932989
128	0x3a446e77	0.0007493267
129	0xbd104c3d	-0.035228956
130	0xbd387476	-0.04503294
131	0x3e64eeb7	0.22356687
132	0x3e360aea	0.17777601
133	0x3e7215bf	0.23641108
134	0x3e78869c	0.242701
135	0xbf19f8c0	-0.6014519
136	0xb7ba4c9b	-2.22086e-05
137	0x3f012e30	0.504611
138	0x3d8b9453	0.068154
139	0xbe34f4a8	-0.17671454
140	0x3d83a38b	0.06427678
141	0xbe18efb8	-0.14935195
142	0xbef9e9cf	-0.48811194
143	0xbed7f4d4	-0.42178977
144	0xbe9dd766	-0.30828398
145	0x3cae5ffa	0.021286
146	0xbebae653	-0.36503848
147	0xbe7b9a74	-0.24570638
148	0xbd52e89d	-0.05149137
149	0xbe0e644f	-0.13905452
150	0x3e340099	0.17578353
151	0x3e107af8	0.14109409
152	0xbb9e1e0f	-0.0048253606
153	0xbe236da4	-0.15959793
154	0x3e0a4597	0.13503109
155	0x3f27c47a	0.65534174
156	0x3ec0eda7	0.37681314
157	0x3e3783a8	0.17921317
158	0xbef13acd	-0.47115174
159	0x3ed495d8	0.41520572
160	0x3e59cc21	0.21269275
161	0xbee359bd	-0.44404402
162	0x3f2903a0	0.66021156
163	0x3e765cfe	0.24058911
164	0xbe6288f5	-0.22122557
165	0x3f462c05	0.7741092
166	0x3f0d4566	0.5518402
167	0x3eb26e1b	0.3484963
168	0x3ba2de01	0.0049703126
169	0xbef85d53	-0.485087
170	0xbece3403	-0.40274057
171	0x3ef6c6fd	0.4819869
172	0x3e246733	0.16054992
173	0x3eece2f8	0.46266913
174	0x3eeee344	0.46657765
175	0xbe74d93a	-0.2391099
176	0x3ecb9773	0.39763984
177	0x3efd6d86	0.49497622
178	0xbe5db5c4	-0.2165137
179	0x3e533e69	0.20629276
180	0xbf3fa25d	-0.7485712
181	0xbe1e18cd	-0.15439148
182	0x3f097c3b	0.53705186
183	0xbf2c1fcd	-0.67236024
184	0xbe93cdbd	-0.28867903
185	0x3d910c24	0.07082394
186	0xbd5ee52e	-0.05441778
187	0x3e303e14	0.17211181
188	0x3ec9e11c	0.39429557
189	0x3db3468f	0.08753692
190	0x3ee1b721	0.4408503
191	0x3f088211	0.53323466
192	0x3e6696a4	0.22518402
193	0x3e8e4659	0.27788046
194	0x3df8fe02	0.12157823
195	0xbd4bdc5d	-0.0497707
196	0x3e9e1b8a	0.30880386
197	0x3d97decd	0.07415543
198	0xbe9f7218	-0.31141734
199	0xbe3d496e	-0.18485042
200	0xbefbe9ea	-0.492019
201	0xbe235e02	-0.1595383
202	0x3d9322e7	0.071843915
203	0xbf1e3822	-0.618044
204	0x3d2a6e15	0.04160889
205	0xbd8ac924	-0.06776646
206	0xbeaf166b	-0.3419679
207	0xbd1c526c	-0.03816454
208	0x3ea4c375	0.32180372
209	0x3e401a3d	0.18760009
210	0xbe3d6eb4	-0.18499261
211	0xbe203b0a	-0.15647522
212	0x3dadb288	0.08481318
213	0x3ea1db1e	0.31612486
214	0x3ea28c69	0.3174775
215	0x3ed0171d	0.40642634
216	0x3e49ebcd	0.19718857
217	0x3db9dde4	0.090755254
218	0x3e9f1100	0.31067657
219	0x3e22c7dd	0.15896554
220	0xbead5801	-0.33856204
221	0x3ed97e34	0.42479098
222	0x3eef6304	0.4675523
223	0x3e6662de	0.22498652
224	0x3f33d269	0.70242935
225	0x3e8211ac	0.25404108
226	0x3dfb7ed0	0.12280047
227	0xbdfdbf84	-0.12390044
228	0x3f235771	0.638053
229	0x3e89dae2	0.26924807
230	0x3e88aea5	0.26695743
231	0x3cf01339	0.029306041
232	0x3eab0179	0.3339956
233	0x3d79cbb0	0.060985267
234	0x3e6508d9	0.22366656
235	0xbd39b608	-0.045339614
236	0x3b8f478f	0.004372544
237	0xbe928827	-0.286195
238	0xbf31427d	-0.6924208
239	0xbde67587	-0.11252885
240	0xbedbe630	-0.42949057
241	0xbcaef526	-0.02135713
242	0xbe906880	-0.28204727
243	0xbd349927	-0.04409137
244	0xbd5d9c94	-0.054104403
245	0x3db0f05f	0.08639597
246	0xbf13e12c	-0.5776546
247	0xbdc5191f	-0.09623932
248	0xbe549160	-0.20758581
249	0x3da6786a	0.08128436
250	0x3dcfcafc	0.10146138
251	0xbe0eaf13	-0.13933973
252	0x3e947100	0.28992462
253	0x3f0223c2	0.5083581
254	0x3f363fda	0.7119118
255	0xbe405402	-0.18782046

weight f4 [8]
0	0x3fd334bd	1.650047
1	0x3f8ed312	1.1158164
2	0x3f87dcf1	1.0614301
3	0x3f82c2ed	1.0215737
4	0x3f7f42d9	0.99711376
5	0x3f928350	1.1446323
6	0x3f7548ba	0.95814097
7	0x3f7036e1	0.9383374

bias f4 [8]
0	0x3e81602d	0.2526869
1	0xbe1e6b48	-0.15470612
2	0x3e44ad65	0.1920677
3	0xbcf149bf	-0.02945411
4	0xbee81f27	-0.45336267
5	0xbf306c10	-0.6891489
6	0x3e41dc44	0.18931681
7	0xbe4b4fd8	-0.19854677

running_mean f4 [8]
0	0xbff4707c	-1.9096828
1	0x3f5e802d	0.8691433
2	0x3f7da459	0.990789
3	0x3fb7fc4b	1.4373869
4	0x3faeac46	1.3646324
5	0x3f5381ff	0.82620233
6	0xbdecc2d1	-0.11560596
7	0x4021fb34	2.5309572

running_var f4 [8]
0	0x415c953f	13.786437
1	0x40c447f6	6.1337843
2	0x40667bd8	3.6013088
3	0x4117fc12	9.499041
4	0x40ebfdc9	7.3747296
5	0x40bdf091	5.935616
6	0x410582ab	8.344401
7	0x414f3b9c	12.952053

weight f4 [32, 8, 1, 1]
0	0xbe1331db	-0.14374487
1	0x3d96012a	0.07324441
2	0x3f107dce	0.5644196
3	0x3dafaafc	0.085775346
4	0xbf678a6c	-0.9044559
5	0xbe306001	-0.17224123
6	0x3ee619a8	0.4494145
7	0xbe07b9dc	-0.13254493
8	0x3ee2a8b2	0.4426933
9	0xbd9e36f1	-0.07725323
10	0xbd888849	-0.06666619
11	0x3eb56792	0.3543058
12	0xbdfe3ae1	-0.12413574
13	0x3d712176	0.0588698
14	0xbf3d6522	-0.7398244
15	0x3efa591c	0.4889611
16	0xbf1cc2df	-0.6123485
17	0x3f13be2d	0.5771206
18	0xbf5dd6cb	-0.86655873
19	0xbdddde1f	-0.10833382
20	0x3e3d94c8	0.18513787
21	0x3edd1572	0.43180424
22	0xbdc6994a	-0.09697206
23	0x3e0cbb34	0.13743287
24	0x3df26cfa	0.11837192
25	0xbf0a7cde	-0.5409678
26	0xbe8a6ef4	-0.27037776
27	0x3f235db7	0.6381487
28	0x3e2250df	0.15851162
29	0xbd81d047	-0.06338554
30	0x3ef42135	0.47681585
31	0xbec1eb80	-0.37874985
32	0xbe8f3cf1	-0.27976182
33	0xbec24036	-0.37939614
34	0x3fbd3c1b	1.4783968
35	0x3dfbc83d	0.12294052
36	0xbcdce9bd	-0.026966924
37	0x3d17b024	0.037033215
38	0x3acb8e4e	0.0015530081
39	0x3e3add49	0.18248476
40	0xbeb0a5b0	-0.3450141
41	0xbeaf101e	-0.34191984
42	0x3c05bc1c	0.008162525
43	0xbe10c840	-0.1413889
44	0x3e74b539	0.23897256
45	0xbf104558	-0.5635581
46	0xbe32748f	-0.17427276
47	0x3f4d5805	0.8021243
48	0x3de9d505	0.114175834
49	0xbe22a3e0	-0.15882826
50	0x3f1207f1	0.5704337
51	0x3b21645d	0.0024626472
52	0x3d8844f8	0.0665378
53	0xbf732842	-0.94983304
54	0x3ef02a4f	0.4690728
55	0xbe98aac1	-0.29817775
56	0xbe81b0dd	-0.25330248
57	0x3e943daf	0.2895331
58	0x3e9c0946	0.30475825
59	0xbe52b0fc	-0.20575327
60	0xbf348ee2	-0.7053052
61	0xbf062540	-0.5240059
62	0x3f3bec52	0.7340747
63	0x3e8e2b9d	0.2776765
64	0x3e07bb29	0.1325499
65	0x3d7efa0b	0.06225018
66	0xbe68f562	-0.22749856
67	0xbd7b4078	-0.06134078
68	0x3f41ce01	0.7570496
69	0x3e987d33	0.2978302
70	0x3f1f8160	0.62306786
71	0xbefbf705	-0.49211898
72	0xbf338600	-0.7012634
73	0xbe89f37b	-0.26943573
74	0x3ebcde9f	0.36888596
75	0x3ed38cc9	0.41318348
76	0xbe4e4204	-0.2014237
77	0xbe07ca67	-0.13260804
78	0xbe90e8d5	-0.28302637
79	0x3ea9dd6f	0.33176753
80	0x3f3f1bab	0.7465159
81	0xbe23f91e	-0.16013
82	0x3e2528e8	0.16128886
83	0x3f322f6e	0.6960362
84	0x3e120e2b	0.14263217
85	0xbefda34c	-0.49538648
86	0x3f1bc401	0.60845953
87	0x3d4f38c1	0.050591234
88	0x3d34c550	0.044133484
89	0xbf01a192	-0.5063716
90	0x3c9582e5	0.018250892
91	0xbebedc7e	-0.37277597
92	0x3f223601	0.63363653
93	0xbde38020	-0.11108422
94	0x3ed85582	0.42252737
95	0x3ef9da7a	0.48799497
96	0x3e53efee	0.20696995
97	0xbd6a22e9	-0.0571622
98	0xbe6a71eb	-0.22895019
99	0xbea2a9fa	-0.31770307
100	0x3df9e4b9	0.122018285
101	0x3f76cbca	0.9640471
102	0xbf099c6f	-0.53754324
103	0x3ec7178d	0.38885155
104	0xbe33b786	-0.17550477
105	0xbe91507f	-0.28381726
106	0x3ec394cf	0.3819947
107	0x3f333bfd	0.7001341
108	0xbe82c39d	-0.25539866
109	0xbe6583d9	-0.22413577
110	0x3ecbb0f7	0.3978345
111	0xbf1e9b6c	-0.61955905
112	0xbf32f270	-0.6990118
113	0x3ee5b10a	0.44861633
114	0x3eef17ea	0.46697932
115	0x3eaaaf99	0.33337095
116	0x3ea033a4	0.312894
117	0xbf1039fe	-0.5633849
118	0x3f30bc6b	0.69037503
119	0xbebb88c5	-0.36627784
120	0x3e83b1eb	0.25721678
121	0x3f137f1f	0.57615846
122	0xbe34ca74	-0.17655355
123	0x3dec3650	0.11533797
124	0xbe421e8f	-0.1895697
125	0x3f5e5f4e	0.86864173
126	0xbf239190	-0.63893986
127	0xbd2c132e	-0.04201048
128	0xbf4cec5e	-0.8004817
129	0xbe959d10	-0.29221392
130	0xbc93c2b6	-0.018037181
131	0x3ca05108	0.019569889
132	0x3eb9f4f7	0.36319706
133	0xbf2b4a77	-0.669105
134	0x3f0b0c5a	0.5431572
135	0x3f211b75	0.6293252
136	0x3f609014	0.87719846
137	0x3dcb4e0e	0.09926997
138	0xbd9bea41	-0.0761304
139	0x3f1cbb15	0.61222965
140	0xbeffed9c	-0.4998597
141	0xbe8e0afd	-0.27742758
142	0xbeec4384	-0.4614526
143	0x3ea85b0e	0.3288197
144	0x3eb3795f	0.35053536
145	0xbe825008	-0.25451684
146	0xbe0736bf	-0.13204478
147	0x3f490bfd	0.7853392
148	0x3d91f12a	0.071260765
149	0xbf2430b8	-0.6413684
150	0x3ea3016a	0.31837016
151	0xbe290b0b	-0.16508119
152	0xbde2d2c7	-0.11075359
153	0xbf4cc8d5	-0.79993945
154	0xbed17feb	-0.40917906
155	0x3f1af166	0.60524595
156	0xbe858d20	-0.26084232
157	0x3ebc769b	0.3680924
158	0xbe92f9bc	-0.28706157
159	0xbeb3c9fb	-0.35115036
160	0x3f2bb07a	0.67066157
161	0xbe172f01	-0.14764024
162	0x3e591066	0.21197662
163	0x3ee9c9c8	0.4566176
164	0xbf293e1a	-0.66110384
165	0x3ec0af0a	0.37633544
166	0x3c9ea90b	0.019367715
167	0xbe1dd58e	-0.15413496
168	0x3e52ca03	0.20584874
169	0xbeecb74c	-0.46233594
170	0x3f4a6a11	0.79068094
171	0xbc795a74	-0.01521932
172	0x3efa5438	0.4889238
173	0x3d3db5aa	0.046315826
174	0x3f66ae9f	0.901102
175	0xbb8e013f	-0.0043336446
176	0x3e65c362	0.22437814
177	0x3f9de418	1.2335234
178	0x3c4f6c84	0.0126601495
179	0x3d5bda4c	0.05367498
180	0x3e776c07	0.24162303
181	0x3eb245f9	0.3481901
182	0xbf0c2b8c	-0.5475395
183	0xbd228f7b	-0.039687615
184	0x3f80f222	1.0073893
185	0x3eb3485b	0.3501614
186	0x3ddfd8ca	0.10930021
187	0xbdb1611e	-0.08661102
188	0x3e2b5816	0.16732821
189	0xbf3d0fd2	-0.73852265
190	0x3e481602	0.19539645
191	0x3edea17e	0.43482584
192	0xbd86e01e	-0.06585716
193	0xbf47430f	-0.778367
194	0xbefe148c	-0.4962505
195	0x3f06ef10	0.5270853
196	0x3da9a188	0.08282763
197	0x3e79c7b3	0.24392585
198	0xbe9581dd	-0.2920064
199	0xbe6a5566	-0.2288414
200	0x3e972d42	0.29526716
201	0x3ef4d00d	0.4781498
202	0x3ed4f95e	0.41596502
203	0xbe76b34e	-0.24091837
204	0x3bc59075	0.0060291835
205	0x3f94e230	1.1631527
206	0x3e3ef471	0.18647934
207	0xbe6528e0	-0.22378874
208	0xbee230da	-0.44177896
209	0xbc264426	-0.010148084
210	0x3c02c6ee	0.007981999
211	0xbee2ca12	-0.44294792
212	0x3f9459c5	1.1589895
213	0xbcf39af2	-0.02973697
214	0xbe118c21	-0.14213611
215	0x3e7753c9	0.24153055
216	0x3f9f0984	1.2424779
217	0x3ebcb523	0.36856946
218	0xbdaf90a1	-0.08572508
219	0xbeaa07e4	-0.33209145
220	0x3d5a26cc	0.053259656
221	0x3ea9363b	0.33049187
222	0xbdfe84ee	-0.12427698
223	0x3f12c274	0.5732796
224	0x3e7a66e0	0.24453306
225	0xbdd02c1b	-0.101646625
226	0xbed09d60	-0.40745068
227	0x3e0c00aa	0.13672128
228	0xbf01d32a	-0.50712836
229	0x3ebb4442	0.36575514
230	0xbf206bf2	-0.6266471
231	0x3f06711b	0.52516335
232	0xbe88859e	-0.26664442
233	0x3f552df2	0.8327323
234	0x3e5adc2a	0.21373048
235	0x3d25aaa0	0.040445924
236	0xbdd3df45	-0.1034532
237	0xbeef0bc8	-0.46688676
238	0xbed67bb8	-0.41891265
239	0x3f3eebef	0.74578756
240	0x3eaeead1	0.34163526
241	0xbf004ddd	-0.5011881
242	0x3efd32c0	0.49452782
243	0x3ecd2ee8	0.4007485
244	0xbe32d5e1	-0.17464401
245	0xbd12c70a	-0.03583435
246	0x3f58f046	0.8474163
247	0x3f06e699	0.52695614
248	0xbeb6e064	-0.3571807
249	0xbe9f2bad	-0.3108801
250	0xbf1a4570	-0.60262203
251	0x3f4f6f0d	0.81028825
252	0x3e5f84aa	0.21827951
253	0xbc465c38	-0.012106948
254	0x3d234254	0.039858177
255	0xbe2c050e	-0.16798803

weight f4 [32]
0	0x402396db	2.5560825
1	0x3fdfd99f	1.7488288
2	0x4004d757	2.0756433
3	0x3fd5f300	1.6714783
4	0x401c8d8d	2.4461396
5	0x4034d0f1	2.8252528
6	0x40253827	2.5815523
7	0x3ff39f7b	1.9033045
8	0x3fdc0c5c	1.7191272
9	0x3fc063f1	1.50305
10	0x400185d4	2.0237932
11	0x402bcf5d	2.6845315
12	0x3ffa04a8	1.9532671
13	0x3fe658a1	1.7995797
14	0x4017ecc8	2.373827
15	0x4001fd52	2.0310864
16	0x3ff36655	1.9015604
17	0x40397869	2.8979743
18	0x40008e34	2.0086794
19	0x401f269c	2.4867315
20	0x4020c55f	2.5120466
21	0x3fed1ef4	1.8525071
22	0x40232f0a	2.549746
23	0x403847f3	2.8793914
24	0x4027b035	2.6201298
25	0x3ff58f6f	1.9184397
26	0x3fbe0030	1.4843807
27	0x404e5ee4	3.2245417
28	0x401df6d9	2.4681914
29	0x3fd785ed	1.6837746
30	0x3fb40786	1.4064796
31	0x4010c2bf	2.2618864

bias f4 [32]
0	0x3ee4b513	0.446694
1	0xbe3e126f	-0.1856172
2	0x3ec0feff	0.37694547
3	0xbe35eab1	-0.17765309
4	0x3e9e8b86	0.30965823
5	0xbe45fdeb	-0.19335143
6	0x3f1c08a0	0.6095066
7	0x3e1b89c1	0.15189268
8	0x3e455c0a	0.19273391
9	0xbd45ccb1	-0.048290912
10	0x3ea58fac	0.32336175
11	0x3ea087ef	0.3135371
12	0x3e950915	0.29108492
13	0x3ca2cfa2	0.019874398
14	0xbc53d792	-0.012929814
15	0x3e09fdb1	0.13475682
16	0xbe419dd1	-0.18907858
17	0xbd80db30	-0.06291807
18	0x3e0c0171	0.13672425
19	0xbeb8abb7	-0.36068508
20	0x3eaf44e5	0.3423225
21	0x3ea717df	0.326354
22	0x3e42585c	0.18979019
23	0x3ec80d50	0.39072657
24	0x3c86b7da	0.01644509
25	0xbeb8acde	-0.36069387
26	0xbe42079c	-0.18948215
27	0x3eb52a89	0.35384014
28	0x3ebdf75a	0.37102777
29	0xbec62765	-0.3870193
30	0x3ee2a903	0.4426957
31	0x3ec056d2	0.3756624

running_mean f4 [32]
0	0x3dc440d1	0.09582675
1	0x3e084823	0.13308768
2	0xbf0b84cc	-0.54499507
3	0x3e247479	0.16060056
4	0x3ebe15ee	0.37126106
5	0xbe581152	-0.21100357
6	0x3e6dc8ee	0.2322118
7	0x3d5c3193	0.053758215
8	0x3e829553	0.2550455
9	0xbe914b59	-0.28377798
10	0x3f46c6a4	0.7764685
11	0x3e4bed7f	0.19914816
12	0xbc16395e	-0.009168951
13	0x3df0b28a	0.117528036
14	0x3c23a0a3	0.009987029
15	0x3d1c79e7	0.038202193
16	0xbe6994cd	-0.22810669
17	0x3ed9c8d3	0.4253603
18	0x3e9cb04c	0.30603254
19	0xbe9814ce	-0.29703373
20	0x3ef0481f	0.46930024
21	0x3f345115	0.7043622
22	0x3e2c0a00	0.1680069
23	0x3f310561	0.6914883
24	0xbe83ba20	-0.2572794
25	0x3ef1a2c0	0.4719448
26	0xbe3a05c0	-0.18166256
27	0x3f3c6321	0.7358876
28	0xbe02cb84	-0.12772948
29	0xbd79e7c3	-0.06101204
30	0x3f39f732	0.72642815
31	0xbe79f57d	-0.24410053

running_var f4 [32]
0	0x3ec72543	0.38895616
1	0x3eb96e71	0.36217073
2	0x3ec4b32c	0.38417947
3	0x3e9b50c8	0.3033507
4	0x3f64d808	0.8939214
5	0x3ec5501c	0.3853768
6	0x3f091e09	0.53561455
7	0x3ebc0e9e	0.36729902
8	0x3eb8c58e	0.36088222
9	0x3eb14654	0.3462397
10	0x3f1b8668	0.6075196
11	0x3f017cfc	0.50581336
12	0x3ef2dd5b	0.47434506
13	0x3e9d9cf3	0.30783805
14	0x3f03311e	0.5124682
15	0x3ef9aee2	0.48766237
16	0x3f2fb3c3	0.6863367
17	0x3ecf19d7	0.40449402
18	0x3ef2592a	0.47333652
19	0x3e9d018b	0.3066524
20	0x3e5e4665	0.21706541
21	0x3f3a8d60	0.7287197
22	0x3f455d3a	0.7709538
23	0x3ea40b55	0.32039896
24	0x3e82ec50	0.25570917
25	0x3f48d822	0.7845479
26	0x3f05fb72	0.523368
27	0x3e925a1e	0.2858438
28	0x3e8a2e03	0.2698823
29	0x3f10171d	0.5628527
30	0x3f615e1d	0.8803423
31	0x3f04b219	0.51834255

weight f4 [32, 8, 1, 1]
0	0xbe60ca95	-0.21952279
1	0x3f100a8b	0.5626609
2	0xbdf7d080	-0.12100315
3	0x3e1a3fd9	0.15063418
4	0x3f5cbe2c	0.8622768
5	0xbe9faf73	-0.31188545
6	0x3f8aecf8	1.0853567
7	0x3ee3dca9	0.44504288
8	0xbf10bcc9	-0.56538063
9	0x3e64ee6b	0.22356574
10	0x3ef33caa	0.4750722
11	0x3ef9227d	0.48659125
12	0x3ea0aacc	0.31380308
13	0x3e100f05	0.1406823
14	0xbedbd696	-0.42937154
15	0xbf11a91c	-0.56898665
16	0xbf040d54	-0.5158284
17	0x3eadb9ed	0.33930913
18	0x3dde8c48	0.108666
19	0x3eef5728	0.46746182
20	0xbf5954ef	-0.84895223
21	0x3e865bfe	0.2624206
22	0xbe14c4a1	-0.14528133
23	0x3eb2b102	0.3490067
24	0x3e7b9e81	0.24572183
25	0x3e20522f	0.1565635
26	0x3f05f28c	0.5232322
27	0xbd6d5e6a	-0.05795137
28	0x3e93c490	0.28860903
29	0xbcc1b863	-0.023647493
30	0xbfbd4eaa	-1.4789631
31	0xbe45a25e	-0.1930022
32	0x3eae9820	0.34100437
33	0x3d97d254	0.07413164
34	0x3f4efca9	0.8085428
35	0x3e9c59c6	0.30537242
36	0xbf18cb8c	-0.5968559
37	0xbe8cd1f9	-0.27503946
38	0x3e05688c	0.13028163
39	0x3e5332e1	0.20624878
40	0xbd84ef33	-0.06490936
41	0xbcc1b52b	-0.023645958
42	0x3f8829be	1.0637739
43	0xbec60856	-0.38678235
44	0x3eae0ddc	0.3399495
45	0x3dcbaf69	0.09945566
46	0x3f25d74b	0.64781636
47	0x3f473b5a	0.7782494
48	0xbd6ba8c3	-0.05753399
49	0xbd39c0a5	-0.045349736
50	0x3ea9239b	0.33034977
51	0xbf2287c2	-0.634884
52	0x3f749d25	0.95552284
53	0x3e288e40	0.16460514
54	0x3df1e4fd	0.11811254
55	0x3e9b3fa4	0.3032199
56	0xbcfa4b0e	-0.030553367
57	0xbedb6787	-0.42852423
58	0x3eb2f813	0.3495489
59	0xbd18d437	-0.03731176
60	0x3d896e54	0.067104965
61	0xbf385f51	-0.7202044
62	0xbccd71e6	-0.025078725
63	0x3f3e8664	0.74423814
64	0xbe03aaf2	-0.12858179
65	0xbefd0fe6	-0.49426192
66	0x3edbf654	0.4296137
67	0x3d1703fa	0.036869027
68	0xbf60bfd9	-0.87792736
69	0xbe1b4807	-0.15164195
70	0x3ea648d4	0.32477438
71	0xbea313b7	-0.3185098
72	0x3e9f4510	0.31107378
73	0x3e5268eb	0.20547836
74	0xbe7d81e5	-0.24756582
75	0x3f2a18d8	0.6644416
76	0x3ef0310d	0.46912423
77	0x3ebf54a1	0.37369254
78	0x3ef74853	0.48297366
79	0x3d25534e	0.04036265
80	0xbe9ee789	-0.31036022
81	0xbf853a46	-1.0408409
82	0x3d949a8d	0.07256041
83	0xbecf9ae7	-0.4054787
84	0x3ea0ed8c	0.31431234
85	0xbd2503ce	-0.04028683
86	0x3e8242db	0.25441632
87	0xbcb80747	-0.022464408
88	0xbf2a29dd	-0.6647013
89	0x3e7ec01c	0.24877971
90	0x3e382887	0.1798421
91	0xbf07b634	-0.53012395
92	0x3ef7f56a	0.48429424
93	0xbd98d5e1	-0.07462669
94	0x3f860307	1.0469674
95	0x3e23e20c	0.16004199
96	0xbf02970b	-0.51011723
97	0xbe15da21	-0.14633991
98	0xbf6a9921	-0.91639906
99	0x3e6235e9	0.22090878
100	0x3e306f58	0.17229974
101	0xbe34d94f	-0.17661022
102	0x3e6b9764	0.2300697
103	0xbe5e9ba5	-0.21739061
104	0xbf04f14d	-0.51930696
105	0xbe422a63	-0.18961482
106	0xbe1ffceb	-0.15623824
107	0x3f194461	0.5986996
108	0xbefc5458	-0.492831
109	0xbf0d4a6c	-0.55191684
110	0x3ef54fb0	0.4791236
111	0x3ea7f23b	0.32801995
112	0x3e4617e9	0.19345059
113	0xbf1e5ed5	-0.6186345
114	0x3f846ac3	1.0345081
115	0x3e102759	0.1407751
116	0x3e054428	0.13014281
117	0xbdddaea3	-0.10824325
118	0x3ee3259b	0.44364628
119	0x3e8df970	0.27729368
120	0x3e47de8f	0.19518493
121	0x3f351c5b	0.7074639
122	0x3e43af7d	0.19109912
123	0x3e6291e6	0.22125968
124	0x3ecd7e9c	0.40135658
125	0xbe91f52b	-0.2850736
126	0xbfabee01	-1.3432008
127	0x3ecfd7e3	0.40594396
128	0xbe800d6d	-0.25010243
129	0x3b62726a	0.003455306
130	0x3ea62c4c	0.3245567
131	0x3f5fb13a	0.873798
132	0x3f2482dc	0.64262176
133	0x3c75fbb8	0.015013628
134	0x3eaf7086	0.34265536
135	0x3cb49f51	0.022048624
136	0xbe1e3918	-0.15451467
137	0x3e06eb36	0.13175663
138	0x3eb0eeee	0.3455729
139	0xbeaa16f4	-0.33220637
140	0xbf00b2d2	-0.5027286
141	0xbf3bbe7b	-0.73337525
142	0x3efbbf7b	0.49169526
143	0x3eb9d03a	0.36291677
144	0xbe0f0865	-0.13968046
145	0x3f085ea1	0.5326939
146	0xbe5bea32	-0.21476057
147	0x3e85bdd8	0.26121402
148	0xbf80db4c	-1.0066924
149	0xbdc61726	-0.09672384
150	0xbe5e4ed3	-0.21709757
151	0xbdce200d	-0.10064707
152	0xbeb02e01	-0.34410098
153	0xbd4a81b4	-0.0494401
154	0x3ed274b1	0.41104653
155	0x3f4609c3	0.77358645
156	0xbe194229	-0.14966644
157	0xbd906af5	-0.070516504
158	0x3fb9b278	1.4507589
159	0x3e1910b9	0.14947785
160	0xbcd8b797	-0.02645473
161	0xbf46cc06	-0.77655065
162	0x3e8a460c	0.27006567
163	0x3f5ebedb	0.8700997
164	0xbe9c3357	-0.3050792
165	0x3e41ed10	0.18938088
166	0x3f4386c0	0.7637749
167	0xbed28e68	-0.41124272
168	0xbe29ccb6	-0.16581997
169	0xbf182d92	-0.59444535
170	0x3edb6bbb	0.4285563
171	0x3f478d9f	0.7795047
172	0x3d80ce82	0.06289388
173	0x3e43d904	0.19125754
174	0x3f50b77c	0.81529975
175	0xbdf4ea39	-0.11958737
176	0xbeed695d	-0.46369448
177	0x3ecef75a	0.4042309
178	0xbe81c2ab	-0.25343832
179	0xbdeaab76	-0.11458485
180	0xbe7d3527	-0.24727307
181	0xbee03358	-0.43789172
182	0x3f3dbe04	0.74118066
183	0x3ddae707	0.10688596
184	0xbe62053b	-0.22072308
185	0x3ebb3a14	0.36567748
186	0x3e67c0da	0.22632161
187	0xbefa8985	-0.48933044
188	0x3eef8625	0.46782032
189	0xbcda0f2b	-0.02661856
190	0xbf76a90d	-0.963517
191	0x3f0086ca	0.5020567
192	0xbcad3571	-0.021143647
193	0xbf2130d6	-0.6296514
194	0x3f3b2450	0.73102283
195	0xbddc1057	-0.10745304
196	0xbd74417b	-0.05963276
197	0xbd4238ac	-0.047417328
198	0xbf2c15aa	-0.67220557
199	0xbe98ffee	-0.2988276
200	0xbeb063cf	-0.34451148
201	0xbdc2c376	-0.095099375
202	0x3f6cd663	0.9251463
203	0x3ebaead5	0.36507288
204	0xbdd188f9	-0.102312036
205	0xbec5d4a6	-0.386388
206	0xbec9e61a	-0.39433366
207	0xbecf9c4d	-0.40548936
208	0xbeef7725	-0.46770588
209	0x3e8b3af3	0.27193412
210	0xbf2b03b9	-0.66802555
211	0x3e120606	0.1426011
212	0xbd833edb	-0.06408473
213	0xbd67919a	-0.05653534
214	0xbf1c9f52	-0.61180604
215	0xbf1bdda9	-0.608851
216	0xbec3cdae	-0.3824286
217	0x3e9e6dc3	0.30943117
218	0xbf2a74c8	-0.66584444
219	0x3ed68b65	0.41903225
220	0xbf32e868	-0.69885874
221	0x3ea5105f	0.32239053
222	0x3f336fbc	0.7009237
223	0x3f1bc2a0	0.6084385
224	0xbef08fcd	-0.4698471
225	0x3dc67969	0.09691126
226	0x3f59a704	0.8502047
227	0x3c826c56	0.0159208
228	0x3e632e5b	0.22185652
229	0xbe4b4898	-0.19851911
230	0x3f4123ad	0.7544506
231	0x3e1cdeeb	0.15319411
232	0xbde30e07	-0.1108666
233	0xbd31b8d5	-0.04338916
234	0x3edeca50	0.43513727
235	0x3f235a8f	0.63810056
236	0x3d8095d7	0.0627858
237	0xbe997899	-0.2997482
238	0x3cdd766a	0.027034003
239	0x3f1dde52	0.6166736
240	0x3e0858bb	0.13315098
241	0x3f810e13	1.008242
242	0x3e2f1062	0.17096093
243	0x3e2d138a	0.16901985
244	0x3f3e92a9	0.74442536
245	0xbe260906	-0.1621438
246	0x3f103c22	0.56341755
247	0xbd03587e	-0.032066815
248	0xbeda0d5a	-0.4258831
249	0xbe325244	-0.17414194
250	0x3f4f149a	0.8089081
251	0x3dca0c72	0.09865655
252	0x3ec3c614	0.3823706
253	0xbdf8d860	-0.12150645
254	0x3f57601c	0.84131026
255	0xbe4edd98	-0.20201719

weight f4 [32]
0	0x3f7b5f7c	0.9819257
1	0x3fa36828	1.2766161
2	0x3fea7f81	1.8320161
3	0x3f9de854	1.2336526
4	0x3f277077	0.6540598
5	0x3fa6e50d	1.3038651
6	0x3fa8da69	1.3191653
7	0x3ffc6288	1.9717569
8	0x3fa1b290	1.2632618
9	0x3f11d03d	0.5695837
10	0x4001a4c8	2.0256824
11	0x3f919bed	1.137571
12	0x3fc763bd	1.5577313
13	0x3fd22441	1.6417314
14	0x3fa0b664	1.2555661
15	0x3fa0a93e	1.2551649
16	0x3f83893f	1.0276259
17	0x3fab2dea	1.3373387
18	0x3f6c7bf0	0.92376614
19	0x3fe12651	1.7589818
20	0x3fc20b2e	1.5159662
21	0x3ef74d48	0.48301148
22	0x3fcfd686	1.6237342
23	0x3f8228e4	1.0168729
24	0x3fc55d8b	1.5419172
25	0x3faaf0de	1.3354757
26	0x401cb51d	2.4485543
27	0x3feedf61	1.866192
28	0x3fdbb45f	1.716442
29	0x3f859e3a	1.0438912
30	0x3fb0db65	1.3816954
31	0x3fd40966	1.6565368

bias f4 [32]
0	0x3ee4b513	0.446694
1	0xbe3e126f	-0.1856172
2	0x3ec0feff	0.37694547
3	0xbe35eab1	-0.17765309
4	0x3e9e8b86	0.30965823
5	0xbe45fdeb	-0.19335143
6	0x3f1c08a0	0.6095066
7	0x3e1b89c1	0.15189268
8	0x3e455c0a	0.19273391
9	0xbd45ccb1	-0.048290912
10	0x3ea58fac	0.32336175
11	0x3ea087ef	0.3135371
12	0x3e950915	0.29108492
13	0x3ca2cfa2	0.019874398
14	0xbc53d792	-0.012929814
15	0x3e09fdb1	0.13475682
16	0xbe419dd1	-0.18907858
17	0xbd80db30	-0.06291807
18	0x3e0c0171	0.13672425
19	0xbeb8abb7	-0.36068508
20	0x3eaf44e5	0.3423225
21	0x3ea717df	0.326354
22	0x3e42585c	0.18979019
23	0x3ec80d50	0.39072657
24	0x3c86b7da	0.01644509
25	0xbeb8acde	-0.36069387
26	0xbe42079c	-0.18948215
27	0x3eb52a89	0.35384014
28	0x3ebdf75a	0.37102777
29	0xbec62765	-0.3870193
30	0x3ee2a903	0.4426957
31	0x3ec056d2	0.3756624

running_mean f4 [32]
0	0x4000e7a8	2.0141392
1	0x3ba744f8	0.0051046573
2	0xbf64aecc	-0.8932922
3	0xbf3b19e9	-0.7308641
4	0xbe0ab158	-0.13544214
5	0x3fb5fede	1.4218404
6	0x3fa38548	1.2775049
7	0x3d5d7fce	0.054076962
8	0xbf5ebedc	-0.8700998
9	0x3fa2eda0	1.2728767
10	0x3e32658d	0.17421551
11	0x3fa90baa	1.3206685
12	0xbe3010e0	-0.17193937
13	0xbea8ca8a	-0.32967025
14	0x3f5a34ee	0.85237014
15	0xbeadc9ed	-0.3394312
16	0x3f9fa0ed	1.2470986
17	0xbe495091	-0.1965964
18	0xbfa7f51c	-1.3121676
19	0x3fa146d0	1.2599735
20	0x3ea0b701	0.3138962
21	0x3f66dd82	0.90181744
22	0x3e004715	0.12527116
23	0xbe23b457	-0.15986763
24	0xbf2d51b1	-0.67702776
25	0xbede2e01	-0.43394473
26	0xbf84fa78	-1.0388937
27	0xbdfe331e	-0.124120936
28	0x3f85f36e	1.0464914
29	0x3ec86964	0.39142907
30	0x3fd51c2e	1.6649225
31	0x3f9a1764	1.2038388

running_var f4 [32]
0	0x3f80998e	1.0046861
1	0x3f192bc5	0.5983241
2	0x3f68709d	0.90796834
3	0x3fe58d69	1.793378
4	0x403ff293	2.9991806
5	0x40ab5047	5.3535495
6	0x3f983794	1.1891961
7	0x3f78f095	0.972421
8	0x3fc4fcbd	1.538963
9	0x403e491d	2.9732125
10	0x403081e7	2.7579286
11	0x3f67d2a9	0.90555817
12	0x40ba9935	5.831202
13	0x40146caa	2.3191323
14	0x40555609	3.3333762
15	0x40609541	3.5091097
16	0x4007e0d4	2.1230974
17	0x3fa14442	1.2598956
18	0x3f527981	0.8221665
19	0x3f790d2b	0.9728572
20	0x3f55623e	0.8335303
21	0x3f88afc8	1.0678644
22	0x400f4914	2.2388353
23	0x3f6e91c0	0.93191147
24	0x3f03e192	0.5151607
25	0x3f0121d8	0.50442266
26	0x408d2ac4	4.4114704
27	0x3f8fe0c1	1.1240464
28	0x3f5c2bf5	0.86004573
29	0x401ea4c8	2.4788074
30	0x4054f683	3.327546
31	0x3f112476	0.5669626

weight f4 [8, 32, 1, 1]
0	0x3f3b08af	0.73060125
1	0xbe8ed1e6	-0.27894515
2	0xbdf12f37	-0.11776584
3	0x3e01cd2b	0.12675922
4	0x3eec9467	0.46206972
5	0xbf1e93a5	-0.6194404
6	0x3e88c9ac	0.26716363
7	0x3e07b7f7	0.13253771
8	0x3d4018fa	0.04689882
9	0xbdaf7734	-0.08567658
10	0x3db5d25c	0.088780135
11	0xbd67f642	-0.056631334
12	0xbec52695	-0.38505998
13	0x3f5a51c2	0.85281
14	0x3e0b0a34	0.13578111
15	0xbe6fd7ad	-0.23422118
16	0xbe86a03e	-0.2629413
17	0x3e650b91	0.22367693
18	0x3e871c52	0.26388794
19	0xbda626f2	-0.08112897
20	0x3ddd5ad8	0.10808343
21	0xbce4432e	-0.027864065
22	0xbedd091c	-0.43171012
23	0xbe673ddd	-0.22582193
24	0x3db3ba62	0.08775784
25	0xbdf40c5b	-0.11916419
26	0xbf4ae410	-0.79254246
27	0x3eb6a490	0.35672426
28	0x3dc80899	0.09767265
29	0xbeb6ee44	-0.35728657
30	0x3ea3a1c3	0.31959352
31	0x3e88bdad	0.2670721
32	0xbfafb7e2	-1.3727992
33	0x3dded2c4	0.10880044
34	0x3e0469f3	0.12931041
35	0xbe27f4d7	-0.16401993
36	0xbf520447	-0.82037777
37	0xbe4f971c	-0.20272487
38	0x3dcea4b9	0.10090012
39	0xbe6b71a1	-0.22992565
40	0x3f285f8e	0.65770805
41	0xbf28d2e8	-0.6594682
42	0x3f07b3ed	0.5300892
43	0x3e86e58e	0.2634701
44	0x3f21a553	0.6314289
45	0x3e7ef2b1	0.24897267
46	0x3ee14e0c	0.44004858
47	0x3e57aa10	0.21060967
48	0x3d2c02c8	0.04199484
49	0xbf5bee07	-0.85910076
50	0x3ee87f27	0.4540951
51	0x3d613499	0.0549818
52	0xbeaba5f1	-0.3352504
53	0x3b95f400	0.004576206
54	0x3d0ac749	0.03388146
55	0xbe1dd5ed	-0.15413637
56	0xbec4c65b	-0.38432583
57	0x3e186bf8	0.14884937
58	0xbdd4becc	-0.10387954
59	0x3d6a1d4f	0.057156857
60	0x3e80253d	0.2502841
61	0xbe3f45c0	-0.18678951
62	0xbc6a4f2c	-0.014301103
63	0x3f18496d	0.5948704
64	0xbf1db42c	-0.61603045
65	0x3e890451	0.26761106
66	0xbe851209	-0.25990322
67	0xbeb73857	-0.3578517
68	0xbe59e382	-0.21278194
69	0x3e0ca860	0.13736105
70	0xbeb2421b	-0.3481606
71	0xbf76f957	-0.9647421
72	0xbf15f374	-0.58574605
73	0xbe2412f0	-0.16022849
74	0x3d597ac1	0.053095583
75	0x3eb2743a	0.348543
76	0xbf070dcc	-0.5275543
77	0x3db4f521	0.08835817
78	0xbee9380b	-0.4555057
79	0x3dcdd12f	0.10049664
80	0xbd389439	-0.04506323
81	0x3f86069f	1.0470771
82	0x3ef6ae8b	0.4818004
83	0xbd54b5b3	-0.051931094
84	0x3df9fc31	0.12206305
85	0xbf09eddd	-0.53878576
86	0x3e331faa	0.17492548
87	0x3e9d319a	0.30701905
88	0xbe1ab2ae	-0.15107223
89	0x3da5b6cb	0.080915056
90	0xbf58bdd7	-0.8466467
91	0x3dd8ca17	0.105854206
92	0x3e6a5001	0.22882082
93	0x3e489cab	0.19591014
94	0xbe359d41	-0.17735769
95	0x3e677758	0.2260412
96	0x3f292b08	0.66081285
97	0x3ead13cd	0.3380417
98	0xbc48d900	-0.012258768
99	0xbe29382a	-0.16525331
100	0x3e5078cb	0.20358579
101	0x3eb36d6f	0.3504443
102	0xbe92cc0c	-0.286713
103	0xbee34333	-0.44387206
104	0xbe861d99	-0.26194456
105	0x3e96d6a7	0.29460642
106	0xbf2e02e9	-0.6797319
107	0x3e867613	0.26261958
108	0xbf3b29c0	-0.7311058
109	0xbeb8c12e	-0.36084884
110	0xbefb5edd	-0.49095812
111	0xbecb5e22	-0.39720255
112	0x3e1de690	0.15419984
113	0x3e7c7279	0.24653043
114	0xbeaab7dd	-0.33343402
115	0x3e6ab21b	0.22919504
116	0x3e7ad15f	0.24493931
117	0x3d9c56be	0.07633732
118	0xbeba765f	-0.36418435
119	0xbe358356	-0.17725882
120	0x3ea40deb	0.3204187
121	0x3d6d4d3a	0.057934977
122	0x3f82fd36	1.0233524
123	0x3d89eed3	0.06735005
124	0x3ea97552	0.3309732
125	0x3da03661	0.07822872
126	0x3dbb66a1	0.09150434
127	0x3e9f0628	0.31059384
128	0xbeda2a06	-0.42610186
129	0x3b99e5d9	0.0046965894
130	0x3dd0b1ce	0.101901636
131	0xbee3bc97	-0.4447982
132	0x3f03fca3	0.5155737
133	0xbf3aa738	-0.72911406
134	0xbf24e3c9	-0.6441007
135	0xbd9ac7fe	-0.07557677
136	0xbe1f42bb	-0.155528
137	0x3e590b4a	0.21195713
138	0xbf520c20	-0.8204975
139	0xbf061b8d	-0.5238579
140	0x3e396ee0	0.18108702
141	0x3dfe9712	0.12431158
142	0x3efd584d	0.4948143
143	0xbef14ad6	-0.47127408
144	0xbec0243e	-0.3752765
145	0xbf2fdd2e	-0.6869687
146	0xbeaebc64	-0.34128106
147	0x3c969a27	0.018384052
148	0xbf5c72ce	-0.8611268
149	0xbeacdb60	-0.3376112
150	0xbe894161	-0.26807693
151	0xbf34a042	-0.70557034
152	0x3e9c57cc	0.30535734
153	0xbf10b074	-0.56519246
154	0x3f6f0b60	0.9337673
155	0xbf13ad97	-0.5768675
156	0x3d32b3fd	0.04362868
157	0x3e5b523d	0.2141809
158	0xbf1a1178	-0.60182905
159	0xbe86cec2	-0.2632962
160	0x3ebd9e55	0.3703486
161	0x3ec56652	0.38554627
162	0x3ec47f96	0.3837859
163	0x3ebf8db8	0.3741281
164	0xbe3375ce	-0.17525408
165	0xbe852998	-0.26008296
166	0x3dca490c	0.09877214
167	0xbef69c3e	-0.48166078
168	0xbe21ad41	-0.15788747
169	0xbd65159c	-0.05592881
170	0x3f1ba5c1	0.60799795
171	0xbf25fa83	-0.64835376
172	0x3e8dd855	0.2770411
173	0x3f4067a5	0.7515815
174	0xbe811c50	-0.25216913
175	0x3e86f48c	0.2635845
176	0xbd8f3687	-0.06992822
177	0xbf1bb204	-0.60818505
178	0x3e77ab18	0.24186361
179	0xbcae6b14	-0.021291293
180	0x3d4fcfe9	0.050735388
181	0xbd81dc2b	-0.06340822
182	0xbe3d5039	-0.18487634
183	0x3efaa0c3	0.48950776
184	0x3d1982bd	0.037478197
185	0x3ef87ddf	0.48533532
186	0xbfa2dce4	-1.272366
187	0xbec083ef	-0.37600657
188	0x3e2db8dd	0.16965051
189	0xbd63cf6f	-0.055617746
190	0x3e7ee7ad	0.24893065
191	0x3e5db194	0.21649772
192	0xbe831811	-0.256043
193	0xbec9d787	-0.39422247
194	0x3e4fb77c	0.20284837
195	0x3ddc1bb1	0.10747469
196	0x3eb580db	0.3544987
197	0xbf12a433	-0.572818
198	0xbfa1f41a	-1.2652619
199	0xbf52f6a0	-0.8240757
200	0x3f6fb5c1	0.9363671
201	0xbebd383d	-0.3695697
202	0xbd5c556f	-0.053792413
203	0x3da433d6	0.080176994
204	0x3e8ead5d	0.2786664
205	0x3f0f0544	0.5586741
206	0x3e1bbe0e	0.15209219
207	0xbe32b145	-0.17450435
208	0x3dfda7e1	0.12385536
209	0x3dbc7816	0.09202592
210	0x3e534696	0.20632395
211	0xbf2db388	-0.6785207
212	0xbd0d2586	-0.034459613
213	0x3e8bc004	0.27294934
214	0x3e537729	0.20650925
215	0xbeb1cb65	-0.3472549
216	0xbf05d2dc	-0.5227487
217	0x3f09480d	0.53625566
218	0xbdd0956e	-0.101847515
219	0xbe24b0f8	-0.16083133
220	0xbed2df57	-0.4118602
221	0xbe67137c	-0.22566026
222	0xbe7e5701	-0.24837877
223	0x3e96c62e	0.29448074
224	0xbf2f2c9d	-0.6842745
225	0x3dc32c29	0.09529907
226	0xbe26b51d	-0.16280027
227	0xbe00eecb	-0.12591092
228	0x3e9682b1	0.29396585
229	0x3e939d5f	0.28831002
230	0xbeac87de	-0.33697408
231	0xbe549ca6	-0.20762882
232	0x3f28c744	0.65929055
233	0x3ec1ae12	0.37828118
234	0x3ddb17fd	0.10697935
235	0xbe39a604	-0.18129736
236	0xbf441654	-0.7659657
237	0xbea38341	-0.31936076
238	0x3e544eb7	0.20733152
239	0x3df7bcd8	0.12096566
240	0x3ed358e9	0.4127877
241	0x3f70969a	0.939798
242	0x3ee2d7f7	0.44305393
243	0x3e958e6f	0.2921023
244	0xbd7eeb7f	-0.062236305
245	0x3f0202fd	0.5078581
246	0x3ece5b59	0.40304068
247	0x3e7a63e4	0.24452168
248	0xbdf31a02	-0.11870195
249	0x3dd5e713	0.104444645
250	0xbed29b2b	-0.4113401
251	0xbf67d2c9	-0.9055601
252	0x3da12e3c	0.07870147
253	0x3e969467	0.29410097
254	0x3f03b565	0.5144866
255	0xbdc8e07c	-0.09808442

weight f4 [8]
0	0x3f8017b2	1.0007231
1	0x3f6979f6	0.9120172
2	0x3f92459a	1.1427491
3	0x3f578dd3	0.8420078
4	0x3fa77059	1.3081161
5	0x3f6b4027	0.91894764
6	0x3fce1163	1.6099056
7	0x3fa480c2	1.2851794

bias f4 [8]
0	0xbedaf2bc	-0.42763317
1	0x3ee9aba7	0.45638773
2	0xbe9d7db0	-0.30759954
3	0xbf34c8b0	-0.70618725
4	0x3eb59abe	0.3546962
5	0xbe788265	-0.24268492
6	0x39bedc62	0.00036403822
7	0xbe223e3a	-0.1584405

running_mean f4 [8]
0	0x3fc499c2	1.5359423
1	0xbeb111e6	-0.34583968
2	0xbff43f8e	-1.9081895
3	0xbeac991f	-0.33710572
4	0xc0caa093	-6.3321013
5	0x3fade89f	1.3586615
6	0xc021606c	-2.5215101
7	0xbda76ca5	-0.08175019

running_var f4 [8]
0	0x4147fee8	12.499733
1	0x41a8edf0	21.11618
2	0x41b5a482	22.705326
3	0x4183fbbf	16.497923
4	0x42e86802	116.20314
5	0x41357d0c	11.343029
6	0x41e3d64f	28.479643
7	0x422ace41	42.70142
