HW2/aML/R6_btnk_8ch4n8.pt (torch, 73650 bytes, 47 tensors)

weight f4 [8, 3, 7, 7]
-0.080804735 -0.09400173 -0.2551422 -0.26461342 -0.13999176 0.03878902 0.22063373 -0.17280865
0.16367514 0.11356118 0.22580795 -0.13335769 -0.22455756 -0.45619667 0.064830154 0.16511734
-0.041151445 0.18483694 0.11079008 -0.3628678 -0.13711558 0.30986127 0.055844948 -0.12412166
0.03001173 0.46921632 0.261358 0.119791724 -0.24188203 -0.08367563 -0.3871629 -0.06493575
0.13846323 0.21109538 0.22621349 -0.14943412 -0.600176 -0.6841567 -0.20830514 0.050126206
-0.0313062 0.13980131 0.38638905 0.009833593 0.021267124 -0.005819043 -0.16497755 -0.45183674
-0.10525086 -0.11600575 -0.15257542 -0.30666617 -0.24441653 -0.073997565 0.034263752 0.1697415
-0.19778085 0.09888275 0.117444515 0.32260177 -0.086059965 -0.29527625 -0.42106643 0.14759503
0.2120809 -0.041590266 0.1849693 0.056525968 -0.2985975 -0.18037134 0.18942589 -0.015221505
-0.20359625 0.09824667 0.45185882 0.17580219 0.09549198 -0.14878958 -0.0041956604 -0.4209296
-0.036624476 0.048392437 0.34725043 0.18750809 -0.08132099 -0.6366836 -0.6761888 -0.17708838
-0.025527734 0.09363634 -0.008271024 0.5039202 0.10059519 -0.031789847 -0.030711634 -0.26797855
-0.42732978 -0.23263575 -0.15897465 -0.21710789 -0.28906894 -0.35880375 -0.13403857 -0.028809577
0.22751737 -0.18587385 0.06628477 0.2376826 0.2645011 -0.08031164 -0.30647263 -0.53496563
0.05216399 0.24836883 -0.025924088 0.17449445 0.04613351 -0.24718113 -0.114351034 0.28385317
0.017700253 -0.13265644 0.12822422 0.45750478 0.24788922 0.17321047 -0.15743445 -0.09221217
-0.39430887 -0.09675845 0.07822198 0.3278557 0.21448809 -0.17684634 -0.6590932 -0.69608873
-0.11868094 0.015832117 -0.013435362 0.084120855 0.4337515 0.14916492 -0.0068553593 -0.009814442
-0.3014148 -0.4896964 -0.2376631 -0.66035604 -0.2803342 -0.19353108 -0.11715944 -0.0008697041
0.05052195 0.043922726 -0.10916327 -0.054147515 0.059615143 0.13030946 0.2822619 0.21633986
0.07777444 -0.4649638 -0.1429668 0.16326877 0.10577545 0.33889222 0.123936705 -0.16525795
-0.38774204 -0.0053691645 0.055114593 0.1501105 0.21353614 0.26975793 -0.3411141 -0.74776876
0.02205969 0.022141417 0.046167277 0.08027353 0.23624441 -0.69729555 -0.68329364 -0.46746296
-0.29649174 -0.02997132 0.03283757 -0.28505626 -0.6051523 0.17859323 -0.20976958 -0.09006114
-0.4110559 -0.4575239 -0.6923388 -0.32047996 -0.6889991 -0.23152958 -0.21891549 -0.25463375
0.060397387 0.012355417 0.09860408 -0.1303412 -0.020741023 0.04614139 0.15147993 0.3372407
0.18265079 -0.028544549 -0.45115823 -0.1601174 0.11984987 0.04769903 0.29058453 0.22899199
-0.17984945 -0.3952921 0.096506566 0.055890374 0.01934147 0.21621697 0.28146002 -0.3536892
-0.79212576 0.074709296 0.13828754 -0.07792866 0.1481204 0.3558297 -0.6645523 -0.68430144
-0.36195055 -0.29301798 0.06236032 0.099513285 -0.3363198 -0.60111666 0.23461246 -0.09242316
-0.19788627 -0.44450986 -0.5084113 -0.56093 -0.29387847 -0.57002044 -0.31135494 -0.13816947
-0.10314448 0.03847277 0.03236931 0.09490404 -0.087767825 -0.033615436 0.043380775 0.15105268
00000000: f47c a5bd fb83 c0bd 00a2 82be 697b 87be
00000010: 005a 0fbe 3ce1 1e3d cfed 613e c0f4 30be
00000020: 759a 273e c492 e83d 333a 673e eb8e 08be
00000030: 6bf2 65be 9c92 e9be acc5 843d 8514 293e
00000040: 6b8e 28bd e545 3d3e e9e5 e23d cfc9 b9be
00000050: 0768 0cbe 23a6 9e3e acbd 643d 7f33 febd
00000060: 29db f53c 1f3d f03e b7d0 853e 5d55 f53d
00000070: ecaf 77be 215e abbd 373a c6be 09fd 84bd
00000080: 4ec9 0d3e 6329 583e 82a4 673e 4205 19be
00000090: 22a5 19bf e524 2fbf f14d 55be 2351 4d3d
000000a0: ee3a 00bd 1328 0f3e c9d4 c53e 141d 213c
000000b0: 6438 ae3c acad bebb e0ef 28be 2557 e7be
000000c0: c38d d7bd 6c94 edbd bb3c 1cbe 5903 9dbe
000000d0: 5448 7abe 098c 97bd 2658 0c3d b7d0 2d3e
000000e0: 1087 4abe 0a83 ca3d c086 f03d 0f2c a53e
000000f0: 3540 b0bd 732e 97be 0596 d7be 2723 173e
00000100: bc2b 593e 8e5a 2abd 9868 3d3e c687 673d
00000110: c6e1 98be 44b3 38be dcf8 413e 9f63 79bc
00000120: 897b 50be 8d35 c93d 0a5a e73e 7d05 343e
00000130: 4d91 c33d 4c5c 18be c07b 89bb 1684 d7be
00000140: 8c03 16bd 2637 463d cfca b13e 1f02 403e
00000150: 9f8b a6bd b2fd 22bf b61a 2dbf a856 35be
00000160: 8a1f d1bc 69c4 bf3d 3083 07bc ea00 013f
00000170: da04 ce3d 1236 02bd f796 fbbc 7c34 89be
00000180: f8ca dabe 1138 6ebe 40ca 22be 8851 5ebe
00000190: d800 94be 20b5 b7be 6841 09be 1002 ecbc
000001a0: 50fa 683e b755 3ebe 4fc0 873d 1163 733e
000001b0: b06c 873e 6e7a a4bd fbe9 9cbe 82f3 08bf
000001c0: e8a9 553d 6654 7e3e c15e d4bc acae 323e
000001d0: 7ef6 3c3d 0d1d 7dbe e030 eabd 3455 913e
000001e0: 1f00 913c 17d7 07be 364d 033e 113e ea3e
000001f0: acd6 7d3e 165e 313e 7f36 21be bcd9 bcbd
00000200: dae2 c9be 4b29 c6bd d832 a03d b4dc a73e
00000210: c4a2 5b3e 3517 35be 55ba 28bf df32 32bf
00000220: fe0e f3bd 5bb2 813c fe1f 5cbc 8e47 ac3d
00000230: ad14 de3e b0be 183e eca2 e0bb c1cc 20bc
00000240: 0a53 9abe 7db9 fabe f55d 73be 180d 29bf
00000250: f787 8fbe 032d 46be 4af1 efbd dbfc 63ba
00000260: 1bf0 4e3d 51e8 333d fe90 dfbd c9c9 5dbd
00000270: 022f 743d d86f 053e a284 903e 3288 5d3e
00000280: 3548 9f3d bc0f eebe e465 12be ee2f 273e
00000290: cda0 d83d 4883 ad3e 87d2 fd3d 6139 29be
000002a0: 2086 c6be d1ef afbb d7bf 613d 91b6 193e
000002b0: 38a9 5a3e b61d 8a3e 82a6 aebe c66d 3fbf
000002c0: 86b6 b43c eb61 b53c e619 3d3d 7366 a43d
000002d0: 0eea 713e f681 32bf 55ec 2ebf 4e57 efbe
000002e0: c4cd 97be 6a86 f5bc b080 063d e5f2 91be
000002f0: 43eb 1abf 25e1 363e d6cd 56be fa71 b8bd
00000300: eb75 d2be 9340 eabe 1e3d 31bf f315 a4be
00000310: 3f62 30bf 1716 6dbe 622b 60be 5b5f 82be
00000320: 4063 773d 606e 4a3c f0f0 c93d 2a78 05be
00000330: 14e9 a9bc c1fe 3c3d 8e1d 1b3e d0aa ac3e
00000340: cf08 3b3e 42d6 e9bc 36fe e6be d1f5 23be
00000350: d973 f53d 0f60 433d 7fc7 943e e07c 6a3e
00000360: 742a 38be ba63 cabe 3ca5 c53d 4eed 643d
00000370: 0172 9e3c fb67 5d3e 871b 903e c016 b5be
00000380: c1c8 4abf 3001 993d 409b 0d3e 1099 9fbd
00000390: e0ac 173e 4f2f b63e 1920 2abf 612e 2fbf
000003a0: 9551 b9be 7406 96be 896d 7f3d 9fcd cb3d
000003b0: 1c32 acbe c8e2 19bf 403e 703e 5b48 bdbd
000003c0: b3a2 4abe cc96 e3be 3e27 02bf 1c99 0fbf
000003d0: 3d77 96be dcec 11bf ea69 9fbe 4c7c 0dbe
000003e0: 6a3d d3bd a095 1d3d ae95 043d 0d5d c23d
000003f0: 9ebf b3bd 57b0 09bd 0ab0 313d 8ead 1a3e

weight f4 [8]
0.82122785 1.5904565 1.5568596 1.0363255 0.9830315 0.8938128 1.0125508 0.77207243
00000000: fd3b 523f 1494 cb3f 2d47 c73f 50a6 843f
00000010: f4a7 7b3f ead0 643f 449b 813f 8aa6 453f

bias f4 [8]
-0.007597989 0.6966957 -0.08231718 -1.0717573 1.3122972 0.23898397 -0.29650822 -0.63377494
00000000: 8df8 f8bb a65a 323f e995 a8bd 582f 89bf
00000010: 5bf9 a73f 37b8 743e edcf 97be 133f 22bf

running_mean f4 [8]
-25.323261 -67.5178 -53.402412 21.515705 2.5969994 30.64628 16.740982 7.1938453
00000000: 0a96 cac1 1d09 87c2 129c 55c2 2a20 ac41
00000010: 3d35 2640 952b f541 88ed 8541 fb33 e640

running_var f4 [8]
24667.174 153197.44 133529.44 79486.61 23950.992 143181.16 40893.734 15292.801
00000000: 59b6 c046 5c9b 1548 5c66 0248 4e3f 9b47
00000010: fc1d bb46 4ad3 0b48 bcbd 1f47 34f3 6e46

weight f4 [4, 8, 1, 1]
-0.48819557 -1.8783666 -0.027258119 -0.28588873 0.19329208 -0.29223242 0.23129539 -0.5504864
0.53501546 -0.5238912 -0.45098966 -0.1326605 1.1834792 0.23494875 -0.067599796 0.08658338
0.46225926 -0.18800749 0.46762404 -0.23312922 0.13484925 -0.296777 0.5392661 0.021530038
0.1225227 -0.008260831 -0.26783305 -0.36392194 0.2887332 0.31114447 -0.43564767 -0.26720008
00000000: c5f4 f9be 516e f0bf 6b4c dfbc 0260 92be
00000010: 5cee 453e 7d9f 95be b3d8 6c3e adec 0cbf
00000020: c6f6 083f bc1d 06bf 1ee8 e6be 27d8 07be
00000030: 3f7c 973f 6896 703e c371 8abd a152 b13d
00000040: 3fad ec3e 0985 40be 6b6c ef3e 6db9 6ebe
00000050: ec15 0a3e 28f3 97be 580d 0a3f c35f b03c
00000060: 2eed fa3d 7058 07bc 6a21 89be fa53 babe
00000070: d7d4 933e 544e 9f3e 360d dfbe 73ce 88be

weight f4 [4]
0.7089201 0.92996615 0.7879634 1.2980739
00000000: ca7b 353f 4312 6e3f f8b7 493f 4927 a63f

bias f4 [4]
0.7204708 0.6431032 0.20963524 0.53762347
00000000: c670 383f 69a2 243f 9faa 563e b1a1 093f

running_mean f4 [4]
-1.8313421 1.3763776 0.1458724 0.27028394
00000000: 6b69 eabf 242d b03f 935f 153e a862 8a3e

running_var f4 [4]
0.9166181 3.1262546 0.48766062 0.96093994
00000000: 7ca7 6a3f 8e14 4840 a7ae f93e 2900 763f

weight f4 [4, 4, 3, 3]
0.21452333 -0.43772382 -0.52909386 0.17808153 -0.69398504 -0.20118156 -0.34141514 -0.16742261
0.8755828 0.086226076 0.1513484 -0.07838698 -0.09289593 0.54526854 -0.010400597 -0.11584206
0.3115061 -0.23916483 0.6292364 0.09252069 0.44161817 0.5947959 0.1626842 0.23522452
0.31742385 0.052772965 -0.46180844 -0.0017193783 -0.06666146 -0.5958782 -0.43221506 0.4784245
-0.1861077 -0.35699642 0.32063657 -0.11409796 0.34706202 0.35531387 -0.8049461 -0.035692617
0.5709461 -0.08270419 -0.7306503 0.04841783 0.027809925 -0.13147192 0.028651252 0.38865668
0.2549622 -0.25484532 0.14622784 0.6900166 0.21655953 0.5208435 -0.16076423 0.298913
0.21716827 -0.2703012 0.13591503 0.19691637 -0.176609 0.30908144 0.48114383 0.43295732
-0.37848517 -0.332216 0.06871425 -0.49795684 -0.027712204 -0.44696185 -0.14858425 0.37072036
0.14056295 0.24025822 0.022755452 -0.11535803 0.06843556 0.31450206 -0.17138913 0.6091376
0.30722287 -0.21026179 0.10583188 0.08665851 0.21437857 -0.038910814 -0.030616611 0.2974094
-0.23162612 -0.83863837 0.15415658 -0.115072675 -0.5268486 0.34705135 0.081376255 -0.035754696
0.6503568 0.25779828 -0.16456391 -0.605132 -0.08749359 -0.30825368 -0.48353463 -0.2535612
0.30276376 0.24625464 0.55891097 0.13810124 0.40909395 -0.08209953 -0.074723706 0.17692843
-1.1155918 -0.31513804 0.254127 0.049003415 0.15096405 0.29180872 0.3447893 -0.15346278
-0.2887641 0.27898356 -0.047457796 -1.0130696 -0.4827697 -0.029546985 -0.012611111 -0.0015196162
-0.07113046 -0.17851613 -0.06992081 -0.067222424 -0.22614238 0.094558455 0.061420377 0.6584606
0.31446242 0.22870725 -0.44093096 0.5380741 0.7899933 -0.028260214 -0.57121843 -0.080241844
00000000: 01ac 5b3e 561d e0be b272 07bf 015b 363e
00000010: 01a9 31bf 8a02 4ebe f7cd aebe d570 2bbe
00000020: 3226 603f 4c97 b03d 13fb 1a3e 5a89 a0bd
00000030: 3940 bebd b896 0b3f 4467 2abc 9a3e edbd
00000040: ba7d 9f3e a0e7 74be a315 213f 7d7b bd3d
00000050: c71b e23e 8b44 183f b096 263e b2de 703e
00000060: 6185 a23e 7728 583d 2872 ecbe c35c e1ba
00000070: ce85 88bd 798b 18bf 4b4b ddbe 0ef4 f43e
00000080: 0493 3ebe 3cc8 b6be 7a2a a43e 31ac e9bd
00000090: 1db2 b13e b3eb b53e f310 4ebf 6c32 12bd
000000a0: 8629 123f d060 a9bd e60b 3bbf c651 463d
000000b0: a4d1 e33c 93a0 06be 08b6 ea3c 02fe c63e
000000c0: 688a 823e 167b 82be c0bc 153e eea4 303f
000000d0: c8c1 5d3e 0056 053f 619f 24be 200b 993e
000000e0: 5c61 5e3e eb64 8abe 4f2d 0b3e 72a4 493e
000000f0: fdd8 34be ec3f 9e3e 7c58 f63e 95ac dd3e
00000100: cfc8 c1be 3718 aabe 0fba 8c3d 33f4 febe
00000110: b404 e3bc 2fd8 e4be 7826 18be 0fcf bd3e
00000120: bcef 0f3e 4006 763e a469 ba3c d540 ecbd
00000130: f127 8c3d 6a06 a13e a280 2fbe 71f0 1b3f
00000140: 514c 9d3e de4e 57be 62be d83d 047a b13d
00000150: 0e86 5b3e f260 1fbd b0cf fabc 0b46 983e
00000160: 662f 6dbe 01b1 56bf 39db 1d3e 39ab ebbd
00000170: 8ddf 06bf b7b0 b13e 98a8 a63d 8473 12bd
00000180: c97d 263f 23fe 833e 7183 28be eee9 1abf
00000190: d72f b3bd 6dd3 9dbe da91 f7be c6d2 81be
000001a0: da03 9b3e 2d2a 7c3e ca14 0f3f 696a 0d3e
000001b0: c374 d13e cc23 a8bd be08 99bd ba2c 353e
000001c0: b6cb 8ebf c659 a1be ef1c 823e ceb7 483d
000001d0: 5296 1a3e f467 953e 3988 b03e 5925 1dbe
000001e0: e3d8 93be efd6 8e3e 1b63 42bd 44ac 81bf
000001f0: 972d f7be 850c f2bc d59e 4ebc dc2d c7ba
00000200: d9ac 91bd efcc 36be a432 8fbd e9ab 89bd
00000210: de91 67be dda7 c13d ef93 7b3d e090 283f
00000220: 3801 a13e 3c32 6a3e b4c1 e1be 39bf 093f
00000230: 003d 4a3f f781 e7bc 5f3b 12bf d655 a4bd

weight f4 [4]
1.0014887 0.9329488 1.0876846 1.0956507
00000000: c830 803f bcd5 6e3f 4039 8b3f 483e 8c3f

bias f4 [4]
-0.052885357 -0.14253792 0.40107983 0.80936337
00000000: 519e 58bd 76f5 11be 565a cd3e 7032 4f3f

running_mean f4 [4]
-0.715954 0.49461868 0.46019566 -0.27442506
00000000: c348 37bf a93e fd3e c49e eb3e 7181 8cbe

running_var f4 [4]
3.1044395 3.205917 1.2750211 2.376601
00000000: 23af 4640 be2d 4d40 e433 a33f 3b1a 1840

weight f4 [16, 4, 1, 1]
-0.10737955 0.31966853 -0.25124443 0.9216774 0.071052335 0.30609012 -0.6283532 -0.58403313
-0.52596176 0.18617547 -0.19406739 -0.16285673 -0.31282982 -0.18548886 -0.3453405 -1.1663034
0.29094744 -0.18335362 -0.10867159 -0.8650314 -0.556925 0.27913183 -0.14479671 -0.33742675
0.4658182 -0.45266765 -0.39320496 -0.054940317 0.20932968 -0.3836203 -0.56643766 -0.15687916
0.49476883 0.28406447 0.55386686 0.24974707 0.21589255 0.34523115 0.35190558 0.7126355
-0.71164745 -0.119400606 -0.44648826 -0.32327738 -0.35153595 0.1877 0.51488924 -0.20325775
0.7698705 0.3716138 0.0044842814 -0.28485313 -0.16247459 0.77748793 0.27928782 0.39820033
0.50350016 -0.055248722 0.121488765 0.6849185 0.39669946 -0.24490725 0.41299975 0.6737884
00000000: cfe9 dbbd 98ab a33e 1ca3 80be 0df3 6b3f
00000010: e383 913d d8b7 9c3e c1db 20bf 3283 15bf
00000020: 6ea5 06bf c8a4 3e3e 9ab9 46be eac3 26be
00000030: 3b2b a0be cbf0 3dbe 78d0 b0be 6e49 95bf
00000040: 10f7 943e 0dc1 3bbe 368f debd b372 5dbf
00000050: a392 0ebf 5eea 8e3e 9745 14be 33c3 acbe
00000060: b97f ee3e 0ec4 e7be 2952 c9be 1909 61bd
00000070: 855a 563e e169 c4be 0f02 11bf eea4 20be
00000080: 5752 fd3e e670 913e 38ca 0d3f b2bd 7f3e
00000090: f012 5d3e 23c2 b03e f82c b43e 486f 363f
000000a0: 872e 36bf 4e88 f4bd 1c9a e4be 9d84 a5be
000000b0: 85fc b3be 6e34 403e c8cf 033f cd22 50be
000000c0: 3c16 453f 2a44 be3e e1f0 923b 45d8 91be
000000d0: bd5f 26be 7309 473f d0fe 8e3e eae0 cb3e
000000e0: 63e5 003f 7c4c 62bd 1acf f83d d256 2f3f
000000f0: 311c cb3e f7c8 7abe b474 d33e 667d 2c3f

weight f4 [16]
1.0212686 1.1977513 1.2605196 1.0720998 0.7485001 0.95519763 1.2010978 1.5073887
0.93572366 1.0502582 1.9370478 0.65442437 0.7131283 0.90839744 0.63714796 0.9576769
00000000: eeb8 823f ea4f 993f b558 a13f 913a 893f
00000010: b49d 3f3f d587 743f 93bd 993f 1df2 c03f
00000020: 968b 6f3f dc6e 863f 2ff1 f73f 5b88 273f
00000030: 948f 363f bc8c 683f 211c 233f 502a 753f

bias f4 [16]
-0.34536484 -0.1669839 -0.103748985 -0.86513704 -0.41745424 0.13968952 -0.5825178 -0.25290763
0.14880915 -0.04081051 0.43176758 -0.6046939 -0.21326865 -0.1087391 0.0059750536 -0.123479374
00000000: a9d3 b0be d4fd 2abe 597a d4bd 9f79 5dbf
00000010: 90bc d5be c50a 0f3e e31f 15bf 1c7d 81be
00000020: 6d61 183e ec28 27bd a410 dd3e 38cd 1abf
00000030: 1963 5abe 9bb2 debd 62ca c33b c1e2 fcbd

running_mean f4 [16]
0.7720659 -0.81397545 -0.33481306 -1.3843526 -0.8510738 -0.45486113 -0.2641572 -0.4928263
0.7029146 0.97237504 -0.7160778 0.06041139 -0.025476001 0.65053797 0.8008037 0.89628935
00000000: 1ca6 453f b260 50bf 9e6c abbe 7732 b1bf
00000010: f9df 59bf 8fe3 e8be 9d3f 87be bb53 fcbe
00000020: 36f2 333f 92ed 783f e050 37bf ef71 773d
00000030: 0cb3 d0bc a889 263f 7901 4d3f 3873 653f

running_var f4 [16]
0.28666687 0.24106474 0.23256767 0.50976276 0.21886966 0.2387902 0.1336807 0.15224911
0.6588449 0.37842235 0.76697373 0.10370145 0.922035 0.40319026 0.30559596 0.28324214
00000000: 00c6 923e add9 763e 3826 6e3e d07f 023f
00000010: 5e1f 603e 6b85 743e 98e3 083e 31e7 1b3e
00000020: 0faa 283f 93c0 c13e 6458 443f 6d61 d43d
00000030: 7c0a 6c3f f46e ce3e 1377 9c3e 1d05 913e

weight f4 [16, 8, 1, 1]
0.5893559 0.59099245 -0.08838551 -0.8447386 0.16748406 -0.049567893 0.15757756 -0.28713366
0.64064944 0.2289473 0.36692995 0.18951517 -0.5904571 -0.14760293 0.031650923 0.3569721
0.34737706 -0.19493195 -0.40593997 -0.013130826 -0.34941134 0.32254833 0.35633355 0.8795639
-0.10881632 0.07371633 -0.36257362 -0.50263447 0.26868528 0.4684774 0.30589876 -0.08027468
0.20290512 -0.42000207 -1.3864808 0.15852663 0.11290271 0.10058221 0.12829098 0.37632832
-0.21164483 0.97084624 0.8879169 -0.2657974 -0.16430995 -0.17480345 0.010410842 -0.29193327
0.20604591 0.14939779 -0.007783283 0.006532998 0.45890716 -0.45461547 -0.12170826 -0.6874298
0.20489581 0.3344984 0.55127454 0.31384775 -0.5400326 0.33932495 0.04656883 0.37800398
-0.15113093 1.3586152 0.62853396 -0.34115714 -0.13111527 0.06439294 -0.004175704 0.28010824
0.28074762 -0.13946487 0.6224117 0.15121883 0.25671884 -0.33312863 -0.064361975 -0.88388896
0.79871786 0.12323975 -0.09189262 0.64652574 0.19399582 0.30436817 -0.25736368 -0.09063782
-0.09302855 0.18560515 0.3183096 0.042597238 0.31389347 0.090762466 -0.7221445 0.3841436
0.37786987 -0.16176791 0.07293831 0.17494783 0.47859672 -0.01672568 -0.56237316 0.45747915
0.055566125 0.7621896 0.9840369 -0.8298741 -0.022103714 0.21975943 -0.08780425 -0.2500104
0.2884586 0.29810697 -0.18627873 -0.725797 -0.013239516 0.00062484556 -0.08472437 0.19587499
-0.13729835 0.8808599 0.33832335 0.08297587 -0.029687503 -1.1541488 -0.27793977 0.10246994
00000000: 07e0 163f 484b 173f 7603 b5bd ca40 58bf
00000010: f180 2b3e b407 4bbd 035c 213e 2f03 93be
00000020: 9a01 243f 2971 6a3e 3ede bb3e 4410 423e
00000030: 3228 17bf 3925 17be 66a4 013d 0cc5 b63e
00000040: 68db b13e 3e9c 47be 5dd7 cfbe ad22 57bc
00000050: 0be6 b2be 0e25 a53e 5a71 b63e 1a2b 613f
00000060: 17db debd 96f8 963d 40a3 b9be a7ac 00bf
00000070: 1e91 893e 45dc ef3e c39e 9c3e 0d67 a4bd
00000080: 5cc6 4f3e 830a d7be 3478 b1bf ce54 223e
00000090: 8939 e73d 0cfe cd3d b65e 033e 1bae c03e
000000a0: 6cb9 58be 6189 783f 864e 633f 9916 88be
000000b0: de40 28be adff 32be 3c92 2a3c 4778 95be
000000c0: b3fd 523e bcfb 183e e90a ffbb c212 d63b
000000d0: e1f5 ea3e 5cc3 e8be 2e42 f9bd 66fb 2fbf
000000e0: 35d0 513e 6043 ab3e 5420 0d3f a7b0 a03e
000000f0: 943f 0abf 00bc ad3e f5be 3e3d bd89 c13e
00000100: 11c2 1abe 1ae7 ad3f 9ae7 203f 26ac aebe
00000110: 1543 06be 72e0 833d 58d4 88bb 596a 8f3e
00000120: 27be 8f3e e1cf 0ebe 6056 1f3f 1cd9 1a3e
00000130: a770 833e d68f aabe 36d0 83bd 8c46 62bf
00000140: c678 4c3f 1f65 fc3d 3332 bcbd b682 253f
00000150: d7a6 463e 25d6 9b3e 2cc5 83be 52a0 b9bd
00000160: c185 bebd 470f 3e3e 7af9 a23e 717a 2e3d
00000170: a5b6 a03e ace1 b93d 76de 38bf 78ae c43e
00000180: 2978 c13e 7da6 25be ae60 953d 8625 333e
00000190: a10a f53e 4b04 89bc b0f7 0fbf b53a ea3e
000001a0: 4e99 633d dc1e 433f d8e9 7b3f a172 54bf
000001b0: d912 b5bc 9e08 613e b7d2 b3bd 5d01 80be
000001c0: d8b0 933e 7aa1 983e dabf 3ebe d5cd 39bf
000001d0: 8eea 58bc adcc 233a f883 adbd 7493 483e
000001e0: f097 0cbe 0980 613f b838 ad3e 41ef a93d
000001f0: 3533 f3bc 26bb 93bf 1f4e 8ebe c3db d13d

weight f4 [16]
1.0443519 0.7589375 1.0542284 0.980997 0.76891327 1.463751 1.5272098 1.1454924
0.76352614 1.1220913 0.80485797 1.0223038 0.7596215 1.6314065 1.2755262 1.8537538
00000000: 53ad 853f ba49 423f f5f0 863f 9f22 7b3f
00000010: 80d7 443f 315c bb3f 9c7b c33f 7f9f 923f
00000020: 7376 433f b0a0 8f3f 2c0b 4e3f dada 823f
00000030: 8e76 423f eed1 d03f 7144 a33f ce47 ed3f

bias f4 [16]
-0.34536484 -0.1669839 -0.103748985 -0.86513704 -0.41745424 0.13968952 -0.5825178 -0.25290763
0.14880915 -0.04081051 0.43176758 -0.6046939 -0.21326865 -0.1087391 0.0059750536 -0.123479374
00000000: a9d3 b0be d4fd 2abe 597a d4bd 9f79 5dbf
00000010: 90bc d5be c50a 0f3e e31f 15bf 1c7d 81be
00000020: 6d61 183e ec28 27bd a410 dd3e 38cd 1abf
00000030: 1963 5abe 9bb2 debd 62ca c33b c1e2 fcbd

running_mean f4 [16]
0.6584586 -0.45192343 -0.31244034 0.54743683 -0.2734971 0.63345045 0.4797974 -0.03332587
1.2090361 0.09713376 0.6940895 0.63495225 0.6270126 0.7189101 0.12114974 0.3006588
00000000: be90 283f 8262 e7be 2ef8 9fbe d224 0c3f
00000010: d007 8cbe cf29 223f 01a8 f53e b580 08bd
00000020: b2c1 9a3f 11ee c63d d9af 313f 3b8c 223f
00000030: e683 203f 7e0a 383f 5b1d f83d f3ef 993e

running_var f4 [16]
1.2619263 0.5061347 2.1262093 0.7105136 0.68839765 0.90706193 1.2695115 0.8832338
0.4639282 1.0942488 1.0827289 0.6245557 0.7908008 1.55835 0.9327136 2.9751015
00000000: cd86 a13f 0b92 013f d013 0840 38e4 353f
00000010: d43a 303f 3635 683f 5a7f a23f 9c1b 623f
00000020: ff87 ed3e 5810 8c3f dc96 8a3f e2e2 1f3f
00000030: ec71 4a3f 0378 c73f 52c6 6e3f 1068 3e40

weight f4 [8, 16, 1, 1]
-0.23735198 0.5464689 -0.25955778 -0.593513 -0.026839891 0.051265318 0.23208305 0.35318777
-0.011927047 0.28502768 -0.36694312 0.44826213 0.3992478 -0.21493518 -0.009874251 0.09034297
-0.11050852 -0.1517297 0.43248755 -0.6162176 0.11141281 -0.5715628 1.1371956 -0.17909873
0.21095212 -0.20138659 -0.14494762 -0.16108349 -0.14134464 -0.027055832 -0.20862672 0.25797772
-0.16011679 0.43888152 0.29862353 -0.13142908 -0.1269322 -0.37673476 -0.16687056 -0.31141916
0.3123705 -0.17284504 0.6103141 0.2271506 0.2274624 -0.318223 -0.16517825 -0.5568832
0.12250714 0.29859787 -0.2860792 -0.13722016 0.9273084 -0.5280318 -0.41170406 0.1918984
0.635237 0.014123996 -0.3547254 -0.55509275 0.022024445 -0.4056138 -0.026687656 -0.34280252
-0.53425866 0.11025655 -0.16501093 0.11159184 -0.17398949 -0.39779988 -0.25249836 -0.19972277
0.46030104 0.52456635 0.21724415 -0.32315928 -0.25048146 -0.20777166 0.38081664 0.41539308
0.36558464 -0.09506235 -0.29665294 0.18358779 -0.2716557 0.3782669 -0.17756444 0.35934
0.20679805 -0.43751287 -0.62162715 -0.53942394 0.12963998 0.37270543 0.14063112 -0.4492285
-0.044623956 0.19453228 0.43029132 -0.21831983 0.047324937 -0.29093108 0.014157814 -0.4416306
-0.3115446 -0.29732195 -0.45630392 -0.2217788 0.57971483 0.4268807 -0.30921036 0.2098539
0.54146993 -0.11748135 -0.36962527 0.5356102 -0.054558896 0.23023431 0.4738247 0.0990096
0.23879734 0.4084414 0.2987664 0.2879458 -0.052874118 0.38894817 -0.26952517 -0.4099462
00000000: 660c 73be 63e5 0b3f c2e4 84be 78f0 17bf
00000010: 55df dbbc 95fb 513d 2ea7 6d3e 07d5 b43e
00000020: a969 43bc 26ef 913e f8df bbbe 9d82 e53e
00000030: 356a cc3e f817 5cbe 9cc7 21bc bc05 b93d
00000040: 4a52 e2bd 085f 1bbe 026f dd3e 70c0 1dbf
00000050: 662c e43d f151 12bf a08f 913f a865 37be
00000060: d503 583e 4938 4ebe 266d 14be 12f3 24be
00000070: a6bc 10be 31a4 ddbc 3ea2 55be a815 843e
00000080: a8f5 23be 14b5 e03e 2fe5 983e 5895 06be
00000090: 84fa 01be 61e3 c0be 1ee0 2abe 5572 9fbe
000000a0: 07ef 9f3e 4afe 30be 8b3d 1c3f 2b9a 683e
000000b0: e7eb 683e 20ee a2be 7d24 29be e68f 0ebf
000000c0: 06e5 fa3d d2e1 983e f978 92be 7183 0cbe
000000d0: 1564 6d3f 182d 07bf e0ca d2be 0481 443e
000000e0: e49e 223f 5568 673c 919e b5be 8f1a 0ebf
000000f0: 9c6c b43c 9dac cfbe 12a0 dabc d083 afbe
00000100: 2dc5 08bf 30ce e13d a0f8 28be 438a e43d
00000110: 4d2a 32be 6dac cbbe 7747 81be 2084 4cbe
00000120: 94ac eb3e fb49 063f 4075 5e3e 2275 a5be
00000130: 1b3f 80be 18c2 54be 66fa c23e 67ae d43e
00000140: e92d bb3e 0db0 c2bd e5e2 97be 70fe 3b3e
00000150: 7516 8bbe 33ac c13e 74d3 35be 6afb b73e
00000160: dec2 533e b001 e0be f522 1fbf b017 0abf
00000170: 58c0 043e 3fd3 be3e 9b01 103e 4701 e6be
00000180: 9cc7 36bd 7833 473e 254f dc3e 3c8f 5fbe
00000190: cbd7 413d ebf4 94be 2df6 673c 681d e2be
000001a0: c682 9fbe 953a 98be aba0 e9be fb19 63be
000001b0: 3168 143f 1b90 da3e d250 9ebe f1e3 563e
000001c0: c69d 0a3f 109a f0bd 863f bdbe c01d 093f
000001d0: 2679 5fbd 8bc2 6b3e 2799 f23e 8cc5 ca3d
000001e0: 4a87 743e 3b1f d13e e9f7 983e a26d 933e
000001f0: 8892 58bd 3724 c73e 34ff 89be 78e4 d1be

weight f4 [8]
0.91988456 0.8911694 1.0768579 1.1494149 1.0757072 0.98317206 1.1256583 1.1304677
00000000: 8e7d 6b3f ae23 643f 7bd6 893f 0720 933f
00000010: c6b0 893f 2ab1 7b3f 9215 903f 2ab3 903f

bias f4 [8]
-0.14207043 -0.20602618 -0.3064721 -0.17592335 -0.26187226 -0.28510222 -0.22896536 -0.3419832
00000000: e97a 11be 87f8 52be e9e9 9cbe 4025 34be
00000010: 1f14 86be ebf8 91be e575 6abe 6c18 afbe

running_mean f4 [8]
-0.14594305 -0.505989 0.4591444 -0.49364138 0.09671196 -0.421119 -0.67516136 0.616344
00000000: 1872 15be 7f88 01bf fa14 eb3e 90be fcbe
00000010: ec10 c63d e99c d7be 60d7 2cbf b8c8 1d3f

running_var f4 [8]
1.1379813 0.5072679 0.56118244 1.440649 0.51339734 0.6056369 0.46689507 0.8881498
00000000: 5fa9 913f 4fdc 013f a7a9 0f3f 3067 b83f
00000010: 026e 033f 050b 1b3f df0c ef3e c95d 633f

weight f4 [8, 8, 3, 3]
0.30149284 0.13535273 0.14068279 0.19572656 0.43482614 0.38494384 0.14686805 0.55421597
0.61220825 -0.013299538 0.06414548 -0.075085446 0.10411676 -0.04758174 -0.15563829 0.0625033
0.114446305 0.08402592 0.057583682 0.08562484 -0.04829694 -0.16217859 -0.37756446 -0.29563916
-0.38412714 -0.4874146 -0.37393725 0.11930695 0.09502768 0.20400767 -0.14600758 0.106926106
-0.08769018 -0.5043482 -0.029003737 0.17866063 0.26113153 0.07010641 0.012934294 -0.013011621
0.29105556 0.38329417 -0.038610633 0.27153462 0.5056195 0.22919758 0.0024209982 -0.15793799
0.17368583 -0.11180521 -0.30679905 -0.07122401 0.08464906 -0.51431286 0.15277173 -0.034120135
-0.10244629 -0.20660163 -0.2660945 -0.5179653 -0.78990453 -0.5360572 -0.3503698 -0.553989
-0.46173546 -0.19945611 -0.79797673 -0.36645532 0.2514516 -0.4984155 -0.25140855 0.10703357
0.01902455 0.019610457 -0.2550334 0.04176776 -0.26226667 -0.16557068 -0.01941632 0.08858014
0.11594228 0.05491004 0.06434135 0.09171309 0.09331772 0.0143063385 0.0011730846 0.17134137
-0.07327367 -0.3832197 0.43121907 0.259636 -0.053911965 0.50649107 0.27511132 -0.04208348
0.30942875 0.15869068 -0.13474728 0.07350011 0.25536332 -0.17306635 0.38315395 0.271875
0.1278392 0.24788408 0.11254762 0.092201926 0.28224075 -0.23959886 -0.6041814 0.19420779
-0.303541 -0.57930154 0.31099862 -0.43584353 -0.8400005 -0.14074253 0.21520118 0.31602016
-0.016330598 -0.22995496 0.07318269 0.16869213 0.16715515 -0.0065180883 -0.015314613 -0.29703552
-0.113685586 -0.30412462 0.01886627 -0.28280798 -0.43647194 -0.4144181 -0.4240618 0.5257655
0.482746 -0.08277907 0.33807248 0.21352892 -0.21182899 0.041722424 -0.057930704 -0.48856127
-0.2996914 0.23438942 0.21408063 0.2157547 0.0733418 0.1904081 0.020901788 -0.049315248
-0.07941268 -0.027452843 -0.18514805 -0.21971455 0.13964924 -0.08723864 -0.32165027 -0.019720184
-0.19515109 -0.496439 0.30448577 0.2708703 -0.21837993 0.4564634 0.27408996 0.26532212
0.47893533 0.5183659 0.3033153 -0.6599449 -0.36594144 -0.7226562 -0.0765108 -0.45588547
-0.7008259 0.19019692 -0.09512458 -0.29300675 0.20135787 0.30664706 0.4582093 0.3328083
0.5465916 0.23334107 0.058105785 0.12604453 -0.3919528 0.1855861 -0.034873348 -0.010141572
-0.17938882 -0.02499476 -0.19913155 0.22018722 0.07576391 -0.32939452 0.028062433 -0.25320303
-0.42373914 0.039924342 -0.012319022 -0.19642662 -0.021655101 0.07366997 0.030216927 -0.2399486
-0.33854243 -0.2258857 -0.11722706 -0.19071631 -0.27748775 0.1041535 -0.19477421 -0.18617937
0.042149585 -0.19183502 -0.094988726 0.19838004 0.03685914 -0.08707965 -0.08345739 -0.02336263
-0.19415751 0.08851586 -0.08050858 -0.15050809 -0.29393822 -0.22561136 -0.07410508 -0.0026097824
-0.15329883 0.010884976 -0.30153614 -0.41175163 0.046689626 -0.35715184 -0.17077646 -0.08410453
-0.021397991 0.10174778 0.16210379 0.4541294 0.36311424 0.13091852 0.26471058 -0.1755814
-0.0982045 0.1413022 0.27840838 -0.029646644 0.33249867 0.14483109 -0.04575475 0.28698763
00000000: 455d 9a3e e899 0a3e 260f 103e 8b6c 483e
00000010: 88a1 de3e 5c17 c53e 9464 163e 19e1 0d3f
00000020: aeb9 1c3f 4ee6 59bc b55e 833d 66c6 99bd
00000030: 2b3b d53d 12e5 42bd a55f 1fbe bb01 803d
00000040: d362 ea3d c815 ac3d dedc 6b3d 135c af3d
00000050: 03d3 45bd 2512 26be 2150 c1be 045e 97be
00000060: 50ac c4be 688e f9be b474 bfbe 3457 f43d
00000070: df9d c23d 63e7 503e 0383 15be 13fc da3d
00000080: e996 b3bd f71c 01bf 3f99 edbc d0f2 363e
00000090: 08b3 853e f393 8f3d 5cea 533c b22e 55bc
000000a0: 3c05 953e 223f c43e 2f26 1ebd 9606 8b3e
000000b0: 4870 013f c5b2 6a3e 9ca9 1e3b 7fba 21be
000000c0: b3da 313e 21fa e4bd c414 9dbe e5dd 91bd
000000d0: 7d5c ad3d 02aa 03bf 3170 1c3e 8ec1 0bbd
000000e0: 5ccf d1bd 618f 53be 8a3d 88be 6099 04bf
000000f0: 2f37 4abf 0b3b 09bf ac63 b3be 39d2 0dbf
00000100: 9768 ecbe 393e 4cbe 3448 4cbf 08a0 bbbe
00000110: 44be 803e 5130 ffbe 9fb8 80be 6b34 db3d
00000120: 60d9 9b3c 1ca6 a03c bd93 82be ac14 2b3d
00000130: d147 86be 5c8b 29be f90e 9fbc 8169 b53d
00000140: 2573 ed3d 5ae9 603d 66c5 833d 13d4 bb3d
00000150: 5c1d bf3d 2265 6a3c 30c2 993a 1d74 2f3e
00000160: 8210 96bd 5f35 c4be bfc8 dc3e 03ef 843e
00000170: cbd2 5cbd 66a9 013f 64db 8c3e ba5f 2cbd
00000180: 726d 9e3e cf7f 223e 31fb 09be 3a87 963d
00000190: fbbe 823e 4e38 31be c12c c43e 3333 8b3e
000001a0: 47e8 023e 53d5 7d3e 5e7f e63d 5dd4 bc3d
000001b0: dc81 903e 6759 75be a2ab 1abf 68de 463e
000001c0: ba69 9bbe 1b4d 14bf 363b 9f3e e226 dfbe
000001d0: 460a 57bf cf1e 10be b35d 5c3e 65cd a13e
000001e0: bfc7 85bc 5079 6bbe cee0 953d a1bd 2c3e
000001f0: b82a 2b3e b095 d5bb 24ea 7abc 0a15 98be
00000200: fdd3 e8bd 39b6 9bbe 708d 9a3c 35cc 90be
00000210: 4079 dfbe 9c2e d4be a11e d9be 9198 063f
00000220: 7c2a f73e 1388 a9bd d617 ad3e 53a7 5a3e
00000230: b3e9 58be 22e5 2a3d bf48 6dbd b424 fabe
00000240: 2771 99be c803 703e f437 5b3e cdee 5c3e
00000250: 3a34 963d 57fa 423e 3a3a ab3c c9fe 49bd
00000260: 1da3 a2bd c9e4 e0bc 7397 3dbe dafc 60be
00000270: 3600 0f3e 2caa b2bd 58af a4be 398c a1bc
00000280: b0d5 47be 412d febe 8fe5 9b3e 83af 8a3e
00000290: fd9e 5fbe 92b5 e93e 8555 8c3e 4dd8 873e
000002a0: 0337 f53e a1b3 043f 254c 9b3e 26f2 28bf
000002b0: ad5c bbbe ffff 38bf b2b1 9cbd d269 e9be
000002c0: 5469 33bf fbc2 423e add0 c2bd fb04 96be
000002d0: c230 4e3e d800 9d3e 699a ea3e d965 aa3e
000002e0: 6ded 0b3f f6f0 6e3e 5500 6e3d d111 013e
000002f0: 0aae c8be 480a 3e3e 5bd7 0ebd d628 26bc
00000300: b4b1 37be d0c1 ccbc 24e9 4bbe c278 613e
00000310: 1c2a 9b3d 66a6 a8be 30e3 e53c d4a3 81be
00000320: 56f4 d8be b587 233d b9d5 49bc 0f24 49be
00000330: 0a66 b1bc 48e0 963d 7d89 f73c 16b5 75be
00000340: 6f55 adbe 954e 67be be14 f0bd 234b 43be
00000350: e012 8ebe 6e4e d53d e472 47be cea5 3ebe
00000360: 0ba5 2c3d 6670 44be 7389 c2bd 2324 4b3e
00000370: 9cf9 163d d156 b2bd b5eb aabd fc62 bfbc
00000380: 3ad1 46be ce47 b53d afe1 a4bd cb1e 1abe
00000390: 127f 96be aa06 67be 67c4 97bd e208 2bbb
000003a0: 5efa 1cbe e656 323c f262 9abe 1cd1 d2be
000003b0: 9f3d 3f3d 9bdc b6be 06e0 2ebe ff3e acbd
000003c0: d74a afbc 2461 d03d 89fe 253e a683 e83e
000003d0: 1cea b93e 810f 063e 2588 873e 9ccb 33be
000003e0: 711f c9bd 86b1 103e 8b8b 8e3e 85dd f2bc
000003f0: 443d aa3e 9a4e 143e 5569 3bbd 0bf0 923e

weight f4 [8]
1.5921098 0.7907455 1.6380823 0.8679041 0.9195257 1.1289039 1.5176489 0.8797529
00000000: 41ca cb3f 4c6e 4a3f aeac d13f f72e 5e3f
00000010: 0966 6b3f ec7f 903f 5242 c23f 7c37 613f

bias f4 [8]
0.29313698 0.2141731 0.054223362 0.10231014 -0.4153023 0.30775452 0.26979515 -0.042574666
00000000: 0d16 963e 3150 5b3e 5119 5e3d fb87 d13d
00000010: 81a2 d4be 0092 9d3e 9722 8a3e c662 2ebd

running_mean f4 [8]
-0.5584026 -0.03693358 -0.51267296 0.4310423 0.6017907 -0.3934425 -0.9172023 0.007214035
00000000: 79f3 0ebf aa47 17bd 893e 03bf 94b1 dc3e
00000010: f50e 1a3f 4c71 c9be c5cd 6abf b663 ec3b

running_var f4 [8]
13.506376 4.0580816 8.710339 6.3072906 8.26072 16.4586 21.733694 4.9619503
00000000: 1e1a 5841 cedb 8140 8c5d 0b41 53d5 c940
00000010: e92b 0441 36ab 8341 9bde ad41 4cc8 9e40

weight f4 [32, 8, 1, 1]
0.38402635 -0.19559155 0.27528822 -0.0701326 0.77573854 -0.11440946 0.24652791 0.10585287
-1.2743586 -0.41426256 0.28393266 0.0023193157 0.47079575 0.7386665 -0.1004201 -0.233606
-0.82395273 0.31017384 -0.2259685 -0.17865217 0.0027437073 1.0787724 -0.2641759 0.01554855
-0.3883191 0.5280603 -0.5886878 -0.11532677 0.14362337 0.58502793 -0.9229962 -0.639165
0.16233109 0.48829034 0.6100674 -0.39156574 -0.42967772 0.82714975 -0.85208833 -0.3329114
-0.1976124 0.656336 -0.5467249 -0.14433701 0.2346534 0.15356909 0.8612712 0.18550383
0.34142363 0.9511601 -0.43801653 -0.068586625 -0.43895546 -0.104471296 -0.3518128 -0.36165702
0.98400795 0.39671242 -0.35223418 0.09143399 -0.17616181 -0.56701624 0.7926113 0.19108073
-0.6929783 -0.22009724 0.21174167 -0.021239823 0.36577517 1.0230155 -0.5240517 -0.25761846
0.15380852 -0.32568744 0.72814816 0.3566732 -0.31928304 0.027706746 -0.2488287 0.6266878
-1.2834204 -0.1279188 0.049561284 0.08990325 0.0089533385 0.9670426 -0.5945076 0.14322019
-0.004030825 0.006815754 0.70059943 0.22441758 -0.5060149 -0.017215248 -0.6503337 0.38945633
0.43599853 0.2427045 -0.1890721 0.38738784 -0.14988458 -0.496128 1.0489742 -0.0871326
-0.4811667 -0.2125833 -0.25850937 0.876407 0.029363986 -0.046442248 -0.269702 -0.25495616
-0.37900284 -0.058409933 0.10856549 0.21435338 -0.27557188 0.032755267 -0.26890334 0.6415267
-0.77896875 -0.13823202 0.8387168 -0.26374215 0.22231068 0.12336474 -0.16044515 -0.031726286
0.38461748 0.26343548 -0.2289274 0.4228508 -0.2573797 -0.6030338 0.6650511 0.32158306
0.3104784 -0.017135601 0.12292203 -0.43913636 0.21076678 0.35208586 -0.11299061 0.5658251
0.16443375 0.7096109 -0.1462974 -0.44058627 0.2725597 -0.0009835983 0.41579714 0.32822564
0.24479948 -0.16141374 1.3414075 -0.22688651 0.47239676 -0.4309296 -0.18775992 0.047813687
0.97528034 -0.3607138 0.738754 0.032258432 0.25629383 -0.35963997 -0.6868214 -0.032862
-0.098185174 -0.13153511 -0.4388627 0.07958824 0.88894427 0.21249412 0.39219102 0.28168792
0.37365776 0.16123164 0.06491237 0.5651502 -0.36928883 -0.44916517 0.53115463 -0.05424245
-0.4170921 -0.3382904 0.58811015 -0.16815224 0.54723895 -0.25857803 0.15774235 -0.37486497
-0.003789517 -0.15251884 0.23343363 0.5189284 -0.32688782 -0.26246208 0.18101619 0.4591963
-0.8675938 -0.21817087 -0.40482602 0.07697547 0.48978236 0.42447814 0.25779685 -0.24385197
0.74646884 -0.30384198 0.62790745 0.15061589 0.33325806 -0.3421825 -0.4690002 -0.2626969
-0.8627123 -0.007826394 -0.3139449 0.20539957 0.14816046 1.0026963 -0.023916144 -0.24339697
-0.02842057 0.22606283 -0.19705899 -0.38607833 0.05377361 0.67779535 -0.22618957 0.51882803
0.5931552 0.83333814 -0.21296495 0.11165469 -0.3057829 -0.3578146 1.0285045 -0.22892502
0.4641437 -0.40086505 0.8408284 0.25304714 0.31591088 -0.33170763 -0.5784947 -0.29005894
0.6965547 0.46119466 -0.014044568 -0.4122827 0.29580763 -0.16646263 0.35163835 0.3051158
00000000: 1a9f c43e 2749 48be 94f2 8c3e aea1 8fbd
00000010: cd96 463f 824f eabd d071 7c3e 64c9 d83d
00000020: 2f1e a3bf 391a d4be 9f5f 913e a9ff 173b
00000030: 240c f13e 3f19 3d3f 0ea9 cdbd 6936 6fbe
00000040: 91ee 52bf 1bcf 9e3e 4964 67be 98f0 36be
00000050: c5cf 333b 3715 8a3f 1042 87be 58bf 7e3c
00000060: c3d1 c6be f62e 073f 3eb4 16bf 7130 ecbd
00000070: 0112 133e 64c4 153f 7b49 6cbf 51a0 23bf
00000080: 1f3a 263e 3101 fa3e 612d 1c3f 4e7b c8be
00000090: b8fe dbbe 16c0 533f 7622 5abf 5d73 aabe
000000a0: e85a 4abe a305 283f 2af6 0bbf 15cd 13be
000000b0: fb48 703e 3741 1d3e 457c 5c3f b7f4 3d3e
000000c0: 14cf ae3e 3a7f 733f b443 e0be 2577 8cbd
000000d0: c5be e0be 0cf5 d5bd cf20 b4be 1c2b b9be
000000e0: f2e7 7b3f e41d cb3e 0a58 b4be be41 bb3d
000000f0: c363 34be fa27 11bf 93e8 4a3f abaa 433e
00000100: 0767 31bf 2c61 61be cfd2 583e 23ff adbc
00000110: e246 bb3e 2cf2 823f 4128 06bf 91e6 83be
00000120: fb7f 1d3e 81c0 a6be eb67 3a3f df9d b63e
00000130: 1179 a3be 42f9 e23c f3cc 7ebe 9d6e 203f
00000140: 1f47 a4bf 25fd 02be c600 4b3d 321f b83d
00000150: 06b1 123c 1b90 773f a631 18bf 50a8 123e
00000160: 0315 84bb b056 df3b 7c5a 333f b9cd 653e
00000170: 318a 01bf fe06 8dbc 457c 26bf d266 c73e
00000180: 333b df3e 8787 783e 1e9c 41be b357 c63e
00000190: 587b 19be 7d04 febe c944 863f 9472 b2bd
000001a0: 7b5b f6be 70af 59be 575b 84be 365c 603f
000001b0: be8c f03c 3a3a 3ebd 6116 8abe 9d89 82be
000001c0: a90c c2be 413f 6fbd 9557 de3d 747f 5b3e
000001d0: c217 8dbe 632a 063d b3ad 89be 183b 243f
000001e0: 7f6a 47bf b28c 0dbe 25b6 563f 3609 87be
000001f0: 69a5 633e a7a6 fc3d bc4b 24be 6cf3 01bd
00000200: 95ec c43e 04e1 863e f26b 6abe e67f d83e
00000210: 46c7 83be 6c60 1abf ca40 2a3f 89a6 a43e
00000220: 06f7 9e3e f65f 8cbc 8cbe fb3d 7bd6 e0be
00000230: 3fd3 573e 9944 b43e 9f67 e7bd ead9 103f
00000240: 5261 283e 0fa9 353f fcce 15be 8694 e1be
00000250: f28c 8b3e 15ec 80ba 5de3 d43e 310d a83e
00000260: b7ac 7a3e a549 25be 3eb3 ab3f f054 68be
00000270: fddd f13e cea2 dcbe 2344 40be 49d8 433d
00000280: f9ab 793f 7baf b8be fb1e 3d3f 6b21 043d
00000290: f238 833e bb22 b8be 87d3 2fbf 4e9a 06bd
000002a0: 4f15 c9bd 24b1 06be 9db2 e0be 29ff a23d
000002b0: da91 633f 0f98 593e 43cd c83e 6639 903e
000002c0: 1250 bf3e e819 253e c7f0 843d afad 103f
000002d0: 6d13 bdbe faf8 e5be c0f9 073f 552d 5ebd
000002e0: 198d d5be 6634 adbe 638e 163f 1a30 2cbe
000002f0: da17 0c3f 5764 84be 3687 213e 4dee bfbe
00000300: 8c59 78bb e62d 1cbe 3a09 6f3e 7ed8 043f
00000310: d75d a7be 6e61 86be 4f5c 393e c71b eb3e
00000320: a11a 5ebf 2f68 5fbe 5b45 cfbe 51a5 9d3d
00000330: c1c4 fa3e 3355 d93e f3fd 833e 55b4 79be
00000340: 9518 3f3f 2d91 9bbe 8bbe 203f 0d3b 1a3e
00000350: cda0 aa3e 8b32 afbe cb20 f0be 3580 86be
00000360: b7da 5cbf 473a 00bc 63bd a0be 4454 523e
00000370: 60b7 173e 5a58 803f caeb c3bc 0e3d 79be
00000380: 41d2 e8bc 047d 673e d5c9 49be 0fac c5be
00000390: b841 5c3d ff83 2d3f 3d9e 67be ead1 043f
000003a0: 05d9 173f a655 553f 7c13 5abe 37ab e43d
000003b0: 948f 9cbe 7a33 b7be 09a6 833f 526b 6abe
000003c0: 3ea4 ed3e 2f3e cdbe 8840 573f 658f 813e
000003d0: 12bf a13e 95d5 a9be 3b18 14bf 9b82 94be
000003e0: 6951 323f b521 ec3e 301b 66bc b816 d3be
000003f0: 1974 973e 2e75 2abe f109 b43e 2338 9c3e

weight f4 [32]
3.6004276 4.109903 4.7669396 3.0926805 2.041528 4.081374 4.1571493 5.117798
4.626864 5.6673183 4.3500047 5.3898883 4.5541673 3.780845 4.14831 5.7613993
4.2870193 4.953765 4.446838 4.50306 5.5789695 4.528579 4.644719 4.76199
4.2433395 4.7504206 4.3914266 4.97488 4.5354657 4.833169 5.208303 4.377446
00000000: 686d 6640 5384 8340 c58a 9840 7aee 4540
00000010: 65a8 0240 9e9a 8240 5e07 8540 00c5 a340
00000020: 450f 9440 ac5a b540 3d33 8b40 f779 ac40
00000030: bdbb 9140 5df9 7140 f5be 8440 625d b840
00000040: 432f 8940 3e85 9e40 7f4c 8e40 1119 9040
00000050: eb86 b240 1fea 9040 8aa1 9440 3962 9840
00000060: 70c9 8740 7203 9840 9186 8c40 3832 9f40
00000070: 8922 9140 52a9 9a40 6baa a640 0a14 8c40

bias f4 [32]
0.1668003 0.12574336 0.48974362 1.004669 0.9592812 0.41835168 0.7862558 0.41886258
0.5822018 0.32525522 0.37650982 0.49783567 0.26341525 0.41809016 0.25852624 0.3861492
0.2716113 0.43760943 0.29895774 0.14446954 0.42715183 0.39622995 0.3833027 0.4642201
0.25046834 0.24215725 0.09432778 0.573915 0.41552407 0.5365991 0.32745862 0.13780859
00000000: b3cd 2a3e dec2 003e adbf fa3e fe98 803f
00000010: 7493 753f 3132 d63e 0f48 493f 2875 d63e
00000020: 2d0b 153f da87 a63e e5c5 c03e 51e4 fe3e
00000030: 5dde 863e ea0f d63e 8d5d 843e 59b5 c53e
00000040: a310 8b3e 580e e03e fd10 993e d3ef 133e
00000050: a5b3 da3e a7de ca3e 4040 c43e 42ae ed3e
00000060: 633d 803e 12f8 773e ec2e c13d 18ec 123f
00000070: 92bf d43e 8f5e 093f a8a8 a73e b21d 0d3e

running_mean f4 [32]
0.46325418 -0.4024341 -0.12042069 -0.58462495 0.19637874 0.4651683 -0.045420844 0.738105
-0.1561496 0.2041894 -0.5913893 -0.110933125 0.64849967 -0.4687967 -0.26819563 -0.21424074
0.37007073 0.32651204 0.4931676 0.3098094 0.2085301 0.24626993 0.40805897 -0.13431792
0.10334839 -0.2908596 0.18986638 -0.10460406 0.15701705 0.8578194 0.033559192 0.64782506
00000000: a72f ed3e d80b cebe 1f9f f6bd fba9 15bf
00000010: 8217 493e 8a2a ee3e 350b 3abd 73f4 3c3f
00000020: aee5 1fbe 0717 513e 4a65 17bf e830 e3bd
00000030: 1304 263f 1f06 f0be f050 89be ed61 5bbe
00000040: e979 bd3e 962c a73e 7780 fc3e 569f 9e3e
00000050: ea88 553e 2f2e 7c3e 1bed d03e a38a 09be
00000060: 52a8 d33d 8deb 94be 556c 423e a73a d6bd
00000070: 14c9 203e 0d9a 5b3f 5d75 093d ddd7 253f

running_var f4 [32]
0.4355099 0.39682183 0.26983643 0.46704638 0.7391501 0.21852289 0.42455155 0.23135737
0.4363364 0.27002987 0.3153407 0.222764 0.17621368 0.42708176 0.19692197 0.30657655
0.25280607 0.23188858 0.20962138 0.48758277 0.3833788 0.6651096 0.16722223 0.33186698
0.20960544 0.24361259 0.32336727 0.34165534 0.22762814 0.24123406 0.34242454 0.22636698
00000000: 27fb de3e 3b2c cb3e 0028 8a3e b420 ef3e
00000010: f138 3d3f 77c4 5f3e d25e d93e f2e8 6c3e
00000020: 7c67 df3e 5b41 8a3e 5674 a13e 3f1c 643e
00000030: 5c71 343e 76aa da3e eaa5 493e 9af7 9c3e
00000040: cc6f 813e 3374 6d3e fda6 563e 73a4 f93e
00000050: 3a4a c43e 9f44 2a3f 4e3c 2b3e 78ea a93e
00000060: cfa2 563e 9475 793e 6590 a53e 73ed ae3e
00000070: 5a17 693e 1006 773e 4552 af3e bfcc 673e

weight f4 [32, 16, 1, 1]
-0.1287202 -0.11388969 0.4162546 -0.061867144 0.002995389 -0.14537835 0.85408074 -0.49376604
0.51409554 -0.42233583 0.59904945 0.18921697 0.2229131 -0.18795031 0.12320199 -0.32237542
0.0164427 0.2039949 0.58419675 -0.30297408 -0.66177016 0.29418856 -0.34948742 -0.027808081
-0.021039983 0.09951677 -0.21454124 -0.3121711 0.48124367 -0.0333075 -0.45215914 0.79006195
-0.1200417 -0.060898077 0.24347319 0.7643673 -0.026857087 0.2972142 0.37800643 0.6397099
0.19610623 0.53131264 0.020705046 -0.27016076 -0.0917007 0.20033629 -0.36601883 0.5760581
0.1621539 -0.098064534 0.571724 0.6297312 -0.0022830267 -0.88051856 -0.2888247 0.6696128
-0.23114955 0.06462646 -0.20061111 -0.40451473 -0.46797073 0.09621493 0.20664015 -0.104193665
-0.78499794 -0.5701167 -0.69666773 -1.002655 0.25563332 0.64724314 0.3079401 0.5104661
0.1719134 0.31781447 1.0495799 -0.052854083 0.37185368 0.0633569 -0.4047446 -0.07102347
0.18940578 0.5031662 -0.20738903 -1.1145496 0.10819528 0.25792235 0.16560744 0.4250436
0.06733348 -0.1564838 -0.18277976 -0.20049101 0.13122348 -0.372641 -0.30114582 0.06985047
0.42533043 -0.058868624 0.0865725 0.6129153 -0.048902076 -0.5690318 -0.7902243 0.7690857
-0.04636334 0.32685587 -0.15401098 -0.14481491 -0.00831767 -0.07652315 0.40334296 0.4675577
-0.253676 -0.6358835 -0.41833082 -0.5388447 -0.0132597275 0.069422044 0.24682327 0.53005755
0.2596572 0.2166222 0.0052364455 0.8003977 0.23496917 -0.12584536 0.31977284 -0.10149711
-0.3678661 -0.103193596 0.44716075 -0.709256 0.26219746 -0.61631364 -0.050205365 0.25756833
0.15448956 -0.31316525 -0.53876173 -0.15251036 0.21646665 -0.2438836 -0.07284748 0.88799566
0.7370504 0.009336174 0.037306078 -0.27198598 0.104342304 0.5001882 -0.54258263 -0.33013412
0.19190852 -0.29840967 0.3108046 0.027795594 0.3672884 0.11294371 0.572003 0.6444242
-0.3159528 0.09573289 -0.31951436 0.5674767 0.2056652 0.13039495 -0.30113706 0.4489706
-0.06414932 0.106577694 -0.42281553 -0.4069838 0.34060225 0.41485497 -0.014734444 0.5462563
-0.041468885 -0.023071684 -0.48109373 -0.23085862 -0.14231022 0.24173391 -0.66310436 0.36017123
0.6555027 0.34942603 0.09498686 -0.48371413 0.010392025 0.31419653 0.6729042 0.44477656
0.2190278 0.34073374 -0.19797939 -0.32239518 0.003477382 0.11306282 -0.34208202 0.36929402
-0.2913714 0.095950015 -0.75184995 0.36519238 0.5181676 0.044030935 -0.067036785 -0.18269123
0.18774132 0.14039052 0.30209804 0.026450677 0.97065264 -0.29639375 -0.18162422 -0.23660563
-0.27124652 -0.38334417 -0.5449805 -0.24232389 0.018470636 0.21858744 -0.2071817 0.28770196
0.9296222 0.032199 0.34532452 0.6467377 -0.06504571 0.7881637 -0.26951268 -0.04631266
-0.18496858 -0.39007235 -0.5347238 -0.096081905 0.40861064 -0.120650955 -0.021901796 -0.28461853
0.15775253 0.3847363 -0.14584893 0.45449278 -0.24305344 0.27399263 0.31171462 -0.26503906
0.35442492 0.5154276 0.82104814 0.18009512 0.3059587 -0.39948818 0.062473007 -0.53039455
00000000: 3acf 03be ff3e e9bd 531f d53e 6768 7dbd
00000010: 4a4e 443b 10de 14be 09a5 5a3f e7ce fcbe
00000020: c49b 033f 673c d8be 4e5b 193f 18c2 413e
00000030: 5543 643e 0c76 40be 5351 fc3d 640e a5be
00000040: d7b2 863c 0ae4 503e eb8d 153f 6b1f 9bbe
00000050: c569 29bf e29f 963e 04f0 b2be c6cd e3bc
00000060: 0b5c acbc 73cf cb3d b3b0 5bbe e4d4 9fbe
00000070: 9265 f63e 726d 08bd 6781 e7be 8041 4a3f
00000080: 6cd8 f5bd 4370 79bd 0951 793e 93ad 433f
00000090: 6503 dcbc 762c 983e 0f8a c13e 07c4 233f
000000a0: 12d0 483e 1b04 083f a19d a93c 8352 8abe
000000b0: 94cd bbbd f524 4d3e d266 bbbe 8b78 133f
000000c0: ac0b 263e 0fd6 c8bd 815c 123f 1036 213f
000000d0: d59e 15bb aa69 61bf d5e0 93be bf6b 2b3f
000000e0: 78b2 6cbe e15a 843d 006d 4dbe 8e1c cfbe
000000f0: dc99 efbe 550c c53d 7a99 533e 7d63 d5bd
00000100: a0f5 48bf 2bf3 11bf d158 32bf 0057 80bf
00000110: 5fe2 823e bab1 253f 53aa 9d3e e8ad 023f
00000120: 110a 303e 94b8 a23e a258 863f 867d 58bd
00000130: 9b63 be3e 43c1 813d af3a cfbe c174 91bd
00000140: 97f3 413e 80cf 003f ca5d 54be 90a9 8ebf
00000150: 7d95 dd3d 660e 843e ff94 293e 519f d93e
00000160: 23e6 893d 4a3d 20be 9e2a 3bbe 844d 4dbe
00000170: 735f 063e cdca bebe c92f 9abe c30d 8f3d
00000180: e9c4 d93e 3a20 71bd ec4c b13d 04e8 1c3f
00000190: 8b4d 48bd 11ac 11bf 244c 4abf cde2 443f
000001a0: 7ce7 3dbd a759 a73e 0eb5 1dbe 5c4a 14be
000001b0: d646 08bc 2bb8 9cbd f882 ce3e b963 ef3e
000001c0: d2e1 81be 43c9 22bf 752f d6be baf1 09bf
000001d0: 543f 59bc 252d 8e3d 3dbf 7c3e dab1 073f
000001e0: caf1 843e 36d2 5d3e 7d96 ab3b dde6 4c3f
000001f0: c29b 703e 9bdd 00be 44b9 a33e b8dd cfbd
00000200: f258 bcbe 2a57 d3bd 41f2 e43e cd91 35bf
00000210: bf3e 863e bbc6 1dbf 24a4 4dbd ffdf 833e
00000220: 8332 1e3e 3257 a0be 4aec 09bf ad2b 1cbe
00000230: 6fa9 5d3e 9fbc 79be 0f31 95bd af53 633f
00000240: 56af 3c3f c0f6 183c 42ce 183d bf41 8bbe
00000250: 6bb1 d53d 550c 003f b2e6 0abf 5707 a9be
00000260: ab83 443e 27c9 98be c821 9f3e 96b3 e33c
00000270: 3a0d bc3e 084f e73d ca6e 123f fcf8 243f
00000280: 91c4 a1be 9b0f c43d 6397 a3be 2746 113f
00000290: e699 523e 4186 053e a32e 9abe 79df e53e
000002a0: b860 83bd 6845 da3d 477b d8be 2e60 d0be
000002b0: 6b63 ae3e df67 d43e bd68 71bc 74d7 0b3f
000002c0: 47db 29bd d400 bdbc eb51 f6be 3466 6cbe
000002d0: c5b9 11be 1889 773e 35c1 29bf 5d68 b83e
000002e0: 06cf 273f f8e7 b23e 7988 c23d 61a9 f7be
000002f0: 5043 2a3c 5ede a03e 7343 2c3f c1b9 e33e
00000300: d348 603e a774 ae3e 1cbb 4abe fb10 a5be
00000310: cae4 633b 7b8d e73d 6025 afbe 1b14 bd3e
00000320: a22e 95be 7181 c43d 3d79 40bf 7ffa ba3e
00000330: a2a6 043f c859 343d 954a 89bd 6913 3bbe
00000340: 433f 403e 88c2 0f3e 98ac 9a3e 17af d83c
00000350: b17c 783f ecc0 97be b3fb 39be bf48 72be
00000360: d3e0 8abe b045 c4be d883 0bbf c123 78be
00000370: bb4f 973c 63d5 5f3e 7127 54be ac4d 933e
00000380: b8fb 6d3f 19e3 033d 60ce b03e 9a90 253f
00000390: af36 85bd 19c5 493f 91fd 89be 58b2 3dbd
000003a0: 6768 3dbe 90b7 c7be a9e3 08bf 97c6 c4bd
000003b0: 6a35 d13e d917 f7bd 656b b3bc 85b9 91be
000003c0: e189 213e 28fc c43e 6c59 15be 47b3 e83e
000003d0: 00e3 78be c348 8c3e 0f99 9f3e 33b3 87be
000003e0: 2f77 b53e 10f3 033f 3630 523f db6a 383e
000003f0: 9ea6 9c3e b789 ccbe b2e3 7f3d f0c7 07bf

weight f4 [32]
2.9751563 3.1745458 2.70337 3.0861843 2.0407774 2.427101 4.1224346 3.0303311
3.1957345 2.71407 2.677534 3.2104878 2.7428904 3.3955972 3.1368017 4.021347
2.5143979 2.787303 2.7757523 2.7438722 3.2138605 2.9596393 2.7919128 3.922889
2.491059 3.3132942 2.5824425 2.9826183 2.6331189 3.84841 2.8686852 2.7090368
00000000: f668 3e40 c22b 4b40 0404 2d40 0b84 4540
00000010: 199c 0240 9f55 1b40 fcea 8340 f2f0 4140
00000020: ea86 4c40 53b3 2d40 b85c 2b40 a278 4d40
00000030: 848b 2f40 7751 5940 5cc1 4840 e0ae 8040
00000040: e5eb 2040 2c63 3240 eda5 3140 9a9b 2f40
00000050: e4af 4d40 bb6a 3d40 b3ae 3240 9d10 7b40
00000060: 836d 1f40 030d 5440 bd46 2540 38e3 3e40
00000070: 0585 2840 594c 7640 8a98 3740 dc60 2d40

bias f4 [32]
0.1668003 0.12574336 0.48974362 1.004669 0.9592812 0.41835168 0.7862558 0.41886258
0.5822018 0.32525522 0.37650982 0.49783567 0.26341525 0.41809016 0.25852624 0.3861492
0.2716113 0.43760943 0.29895774 0.14446954 0.42715183 0.39622995 0.3833027 0.4642201
0.25046834 0.24215725 0.09432778 0.573915 0.41552407 0.5365991 0.32745862 0.13780859
00000000: b3cd 2a3e dec2 003e adbf fa3e fe98 803f
00000010: 7493 753f 3132 d63e 0f48 493f 2875 d63e
00000020: 2d0b 153f da87 a63e e5c5 c03e 51e4 fe3e
00000030: 5dde 863e ea0f d63e 8d5d 843e 59b5 c53e
00000040: a310 8b3e 580e e03e fd10 993e d3ef 133e
00000050: a5b3 da3e a7de ca3e 4040 c43e 42ae ed3e
00000060: 633d 803e 12f8 773e ec2e c13d 18ec 123f
00000070: 92bf d43e 8f5e 093f a8a8 a73e b21d 0d3e

running_mean f4 [32]
0.6981009 0.040601343 0.48254552 -0.7839289 1.4479669 -0.0012655109 -0.3156346 0.16566911
-0.8217434 0.90718156 -0.17892219 0.59086525 -0.6248745 -0.7299551 -0.034191903 1.255683
0.54413646 0.70702374 0.6932316 1.2273457 -0.012070952 -0.2720746 -0.3853793 0.089012876
0.62289244 -0.3304282 -0.24020094 -0.7145943 0.029008692 0.8728313 -0.37552387 1.082432
00000000: beb6 323f 984d 263d 3510 f73e 90af 48bf
00000010: fb56 b93f 80df a5ba dc9a a1be 2aa5 293e
00000020: c75d 52bf 0d3d 683f 6137 37be f242 173f
00000030: c6f7 1fbf 56de 3abf cf0c 0cbd 38ba a03f
00000040: 874c 0b3f 82ff 343f a077 313f aa19 9d3f
00000050: 3ec5 45bc 5d4d 8bbe 7050 c5be 624c b63d
00000060: e175 1f3f e32d a9be 3cf7 75be a7ef 36bf
00000070: a3a3 ed3c df71 5f3f aa44 c0be 228d 8a3f

running_var f4 [32]
0.505976 0.39859644 1.4094175 0.81028754 1.3255835 0.7793554 0.9310027 0.8137886
0.95201164 0.756913 0.7093814 1.3576548 0.6160344 0.5416516 0.7052967 0.7989257
0.90032184 0.7751128 1.3235743 0.5581644 0.7554561 0.67007667 0.7018182 0.7433457
0.6797025 0.57444745 0.4942095 0.78694016 0.88769525 0.76624936 0.8720475 0.7694866
00000000: a587 013f d514 cc3e cb67 b43f 016f 4f3f
00000010: b8ac a93f d683 473f 3156 6e3f 7354 503f
00000020: 09b7 733f 0dc5 413f 059a 353f a2c7 ad3f
00000030: 6eb4 1d3f aea9 0a3f 538e 343f 6586 4c3f
00000040: 7e7b 663f cb6d 463f e26a a93f dde3 0e3f
00000050: 9265 413f 258a 2b3f 5caa 333f e74b 3e3f
00000060: fc00 2e3f fd0e 133f 0709 fd3e e974 493f
00000070: ff3f 633f eb28 443f 813e 5f3f 13fd 443f
