HW2/aML/R6_btnk_8ch4n8(2).pt (torch, 73003 bytes, 47 tensors)

weight f4 [8, 3, 7, 7]
-0.13302971 -0.114655904 -0.36042756 -0.20188466 -0.24348028 -0.1798074 0.087928034 -0.36022907
-0.13761787 -0.18863767 0.0074674124 0.13163118 -0.18271682 0.087559864 -0.27267125 0.05511859
-0.1811057 -0.37708613 0.22250837 0.3523383 0.35051107 -0.66352576 -0.03538495 0.05453724
0.16340803 0.6159331 0.426934 0.16932496 -0.09947377 -0.38775057 0.2855452 0.37266546
0.30976614 0.22899002 -0.42087755 -0.9295357 0.16816238 0.37421876 0.11328098 -0.24986888
-0.447789 -0.46331936 -1.1319414 -1.5795504 -1.6493473 -1.2302755 -1.180769 -0.34720653
-0.047778003 -0.1861953 -0.19679269 -0.37858826 -0.13145688 -0.24023335 -0.13507986 -0.016235424
-0.4599885 -0.15569666 -0.30101573 -0.0042064427 0.036071483 -0.14201166 0.088622205 -0.1375508
0.02280862 -0.034481164 -0.3253132 0.18352471 0.25697216 0.44077525 -0.6439367 -0.030261299
0.1043072 0.1723038 0.66603374 0.3345529 0.17446923 -0.11166193 -0.29435673 0.21251458
0.3055401 0.27056432 0.22067799 -0.3957306 -0.9931982 0.18264027 0.25466052 0.10165335
-0.24317463 -0.482364 -0.43513963 -1.057075 -1.5645794 -1.48897 -1.197307 -1.1963379
-0.30071625 -0.08391419 -0.28166425 -0.1583099 -0.24573326 -0.27236328 -0.26076433 -0.18289495
-0.018711476 -0.3515016 -0.17829423 -0.19505872 0.027538821 0.11994394 -0.09271858 -0.040651724
-0.26194206 0.06743843 -0.060300384 -0.22016916 0.21117203 0.23320727 0.29734212 -0.6710414
0.084720194 -0.008702224 0.09458888 0.74476224 0.40593904 0.14411797 -0.2010032 -0.3543553
0.30111268 0.3833628 0.326454 0.22582415 -0.40550765 -0.95774305 0.20820439 0.36223257
0.11090988 -0.10236328 -0.43805394 -0.43059728 -1.145931 -1.6134406 -1.5716813 -1.2090547
-1.0751398 -0.25718075 -0.043884818 0.20378703 0.11006982 -0.22633594 -0.025252918 -0.16613525
-0.0032205668 0.26574984 0.34925434 0.13810718 0.0972289 0.429225 -0.043291084 -0.11341361
0.5101223 0.36587396 -0.24828447 -0.016932255 0.2526353 -0.21482876 -0.20936546 0.083520256
0.48759952 0.36519107 0.3292935 -0.815374 -0.7838418 0.18867865 0.3798709 0.51663524
0.5692993 -0.08559802 -1.170063 -0.4489732 -0.15558717 -0.5259563 0.4877435 -0.010311796
-0.5444353 -0.8910511 0.5361862 0.6830429 -0.85602224 0.7313003 0.347698 0.19770479
0.24776143 -0.15899305 0.26786718 0.086380966 0.23551199 0.21008335 -0.238938 -0.06367903
-0.15905246 -0.13350254 0.25681734 0.37377843 0.115740605 0.014309607 0.361584 -0.12850736
-0.12140738 0.48569712 0.5064192 -0.11714261 -0.07785832 0.13764744 -0.22515573 -0.17162064
0.114905156 0.40080816 0.41943353 0.23394199 -0.7948875 -0.84298474 0.1811178 0.44679686
0.51102424 0.6643969 -0.00063793344 -1.1236696 -0.34802312 -0.05036469 -0.44587728 0.43704322
-0.0633507 -0.61516327 -0.93131214 0.3893177 0.83749396 -0.9075447 0.7453208 0.37324432
0.19151974 0.3404734 -0.14354019 0.23625353 0.057470843 0.3139482 0.23088914 -0.2184672
-0.070489824 -0.03823148 -0.054942116 0.22204725 0.37324476 0.099602334 0.07203258 0.34237954
00000000: f138 08be b7d0 eabd f689 b8be daba 4ebe
00000010: e552 79be 6e1f 38be 9d13 b43d f26f b8be
00000020: b3eb 0cbe 3c2a 41be 32b1 f43b 53ca 063e
00000030: 1e1a 3bbe 9652 b33d 919b 8bbe 08c4 613d
00000040: c673 39be 6f11 c1be 3cd9 633e b065 b43e
00000050: 3076 b33e d3dc 29bf cfef 10bd 7162 5f3d
00000060: 6f54 273e cbad 1d3f 1897 da3e 8663 2d3e
00000070: e7b8 cbbd 3e87 c6be fb32 923e 02ce be3e
00000080: ab99 9e3e 5c7c 6a3e 437d d7be 0df6 6dbf
00000090: c232 2c3e 9a99 bf3e dcff e73d a1dd 7fbe
000000a0: 9a44 e5be 3238 edbe 75e3 90bf b52e cabf
000000b0: d01d d3bf ab79 9dbf 7023 97bf 0ec5 b1be
000000c0: deb2 43bd fba9 3ebe 0684 49be 52d6 c1be
000000d0: a29c 06be bbff 75be 6052 0abe 2700 85bc
000000e0: 9d83 ebbe f26e 1fbe bc1e 9abe 33d6 89bb
000000f0: b1bf 133d 816b 11be 8f7f b53d 1eda 0cbe
00000100: 25d9 ba3c 1f3c 0dbd 748f a6be e7ed 3b3e
00000110: db91 833e 4bad e13e 09d9 24bf 8be6 f7bc
00000120: 039f d53d 6870 303e 3081 2a3f 854a ab3e
00000130: 10a8 323e 03af e4bd edb5 96be 6c9d 593e
00000140: c16f 9c3e 6887 8a3e 69f9 613e 349d cabe
00000150: 3d42 7ebf 0d06 3b3e dd62 823e a22f d03d
00000160: c502 79be 6af8 f6be 9fca debe 3c4e 87bf
00000170: 2344 c8bf 9296 bebf 5b41 99bf 9a21 99bf
00000180: 7bf7 99be 34db abbd 4c36 90be fe1b 22be
00000190: 80a1 7bbe 3373 8bbe e782 85be d048 3bbe
000001a0: cf48 99bc 05f8 b3be c392 36be 79bd 47be
000001b0: 1899 e13c 2ba5 f53d 3de3 bdbd 6c82 26bd
000001c0: 451d 86be 291d 8a3d 89fd 76bd 0674 61be
000001d0: 7b3d 583e e3cd 6e3e 3a3d 983e 5fc9 2bbf
000001e0: c881 ad3d c693 0ebc d1b7 c13d bda8 3e3f
000001f0: 3ed7 cf3e a993 133e c8d3 4dbe 0f6e b5be
00000200: 712b 9a3e 2148 c43e fb24 a73e 723e 673e
00000210: b39e cfbe a62e 75bf 8833 553e 8c76 b93e
00000220: b824 e33d d7a3 d1bd 9b48 e0be 3f77 dcbe
00000230: dead 92bf 3985 cebf da2c c9bf 4ec2 9abf
00000240: 2e9e 89bf 32ad 83be 91c0 33bd 8cad 503e
00000250: 496c e13d 9cc4 67be 35df cebc 5c1f 2abe
00000260: 2510 53bb 5d10 883e 77d1 b23e f86b 0d3e
00000270: f21f c73d 61c3 db3e fe51 31bd 6545 e8bd
00000280: 6097 023f d553 bb3e 493e 7ebe 83b5 8abc
00000290: 6a59 813e 12fc 5bbe e663 56be ab0c ab3d
000002a0: a5a6 f93e 53fa ba3e 2899 a83e 5abc 50bf
000002b0: dba9 48bf fa34 413e 707e c23e 3542 043f
000002c0: 99bd 113f 044e afbd a0c4 95bf d1df e5be
000002d0: 3e52 1fbe 12a5 06bf 84b9 f93e cff2 28bc
000002e0: 1d60 0bbf ed1b 64bf 8043 093f e6db 2e3f
000002f0: 4624 5bbf 7f36 3b3f 7905 b23e 2073 4a3e
00000300: 2cb5 7d3e 13cf 22be e325 893e 81e8 b03d
00000310: 0e2a 713e 1720 573e 2aac 74be 276a 82bd
00000320: a6de 22be e4b4 08be 907d 833e e35f bf3e
00000330: 6909 ed3d d872 6a3c 8a21 b93e 6f97 03be
00000340: 6fa4 f8bd 4bad f83e b0a4 013f 77e8 efbd
00000350: 2f74 9fbd 73f3 0c3e 398f 66be 52bd 2fbe
00000360: 6553 eb3d ba36 cd3e febf d63e 7d8e 6f3e
00000370: bf7d 4bbf d9cd 57bf f276 393e 8fc2 e43e
00000380: 7cd2 023f ea15 2a3f fd3a 27ba 68d4 8fbf
00000390: 1630 b2be 354b 4ebd 074a e4be 21c4 df3e
000003a0: 03be 81bd 577b 1dbf 796a 6ebf a654 c73e
000003b0: 0166 563f d954 68bf 58cd 3e3f e119 bf3e
000003c0: c01d 443e 8852 ae3e 33fc 12be 72ec 713e
000003d0: 8c66 6b3d d2bd a03e 346e 6c3e deb5 5fbe
000003e0: f85c 90bd 9d98 1cbd fc0a 61bd 5b60 633e
000003f0: f019 bf3e 4ffc cb3d d185 933d 5f4c af3e

weight f4 [8]
1.5552684 0.7622654 0.88716656 0.7418663 0.6391084 1.5492029 2.5651042 1.1450596
00000000: 0913 c73f d323 433f 591d 633f f3ea 3d3f
00000010: 9c9c 233f 484c c63f ab2a 2440 5091 923f

bias f4 [8]
0.6943193 0.1489803 -0.14335504 -0.2124729 0.33043522 1.0376699 0.95677716 0.09712842
00000000: e9be 313f 4b8e 183e aacb 12be 7f92 59be
00000010: ce2e a93e 5ed2 843f 59ef 743f 44eb c63d

running_mean f4 [8]
-107.78408 23.330172 9.780583 2.1790075 11.6248455 -136.51602 -192.33849 11.932677
00000000: 7391 d7c2 31a4 ba41 457d 1c41 dc74 0b40
00000010: 5eff 3941 1a84 08c3 a756 40c3 3fec 3e41

running_var f4 [8]
424232.2 59116.95 114086.805 50111.87 17238.004 830835.44 1.1194165e+06 140398.61
00000000: 0625 cf48 f3ec 6647 67d3 de47 dfbf 4347
00000010: 02ac 8646 37d7 4a49 c4a5 8849 a71b 0948

weight f4 [4, 8, 1, 1]
-0.1549901 -0.6793401 -0.6832749 0.45148385 0.28393394 0.288528 -0.821923 -0.9924364
0.029535035 -0.40023634 -0.071136914 -0.13431141 -0.9250354 1.4217911 1.5891969 0.29356933
0.44278085 -0.34258428 -0.098892115 0.6135302 0.44475478 -0.35002592 -0.6287343 0.5625535
-1.0363934 0.7127209 0.45784798 -0.017906751 0.5434514 -0.215776 -0.31649768 -0.37149474
00000000: bab5 1ebe 3ce9 2dbf 1beb 2ebf e428 e73e
00000010: ca5f 913e f1b9 933e 8c69 52bf 5010 7ebf
00000020: 75f3 f13c c7eb ccbe 3bb0 91bd ee88 09be
00000030: 1fcf 6cbf 40fd b53f ce6a cb3f b84e 963e
00000040: 2cb4 e23e 3567 afbe f387 cabd 5110 1d3f
00000050: e6b6 e33e 9936 b3be bbf4 20bf 8203 103f
00000060: 8aa8 84bf e074 363f 0d6b ea3e 2eb1 92bc
00000070: a21f 0b3f 62f4 5cbe fc0b a2be 8f34 bebe

weight f4 [4]
1.8122282 1.2808493 0.888513 1.1005313
00000000: 18f7 e73f dff2 a33f 9775 633f 36de 8c3f

bias f4 [4]
0.10966662 0.33168173 0.33673337 0.22178659
00000000: e598 e03d 30d2 a93e 5168 ac3e 061c 633e

running_mean f4 [4]
-1.3856654 3.5316236 -0.5115351 -1.2219328
00000000: 7c5d b1bf 1f06 6240 f7f3 02bf 4b68 9cbf

running_var f4 [4]
5.0441213 2.3234804 2.0017915 2.1930392
00000000: 7169 a140 e7b3 1440 5a1d 0040 c15a 0c40

weight f4 [4, 4, 3, 3]
-0.05588829 0.24792069 -0.39372033 -0.026912047 -1.2043827 -1.3772297 0.5816143 -0.85459894
-0.80021954 0.3109404 0.08091025 0.94714767 0.16004597 0.7232564 0.8315963 -0.10732379
-0.11533676 0.4500674 0.024745336 -0.20599525 -0.067090586 -0.045518875 0.024309758 0.33625644
-0.48681012 -0.014360231 0.18205078 0.6538048 0.1985352 1.156434 -0.1788932 0.27625963
0.56682175 -0.48417068 0.10903455 0.44765884 -0.9683429 0.4233503 0.34201294 -0.6081569
-0.02642635 -0.3261579 -0.6366176 0.06674046 -0.35189024 1.0507843 -0.033362564 0.43386254
-0.58219963 0.12106391 0.560512 0.6006916 0.26823592 -0.50704175 -0.22184268 -0.4733628
0.51536995 -0.80423325 -0.49224037 0.1686003 -0.5299961 0.22368622 0.70168626 -0.4659066
0.096254624 0.32047573 0.4476221 0.2294962 0.1322201 -0.07998941 0.26143193 0.62104523
0.40358928 -0.3116205 -0.50100505 -0.13300517 0.14013964 -0.26520976 0.62532127 0.11998193
1.4011908 -0.9355383 0.17445225 0.4410994 -0.6155106 0.15418778 0.5151678 -0.057534717
-0.6119981 -1.9018798 -0.12850796 0.49776763 0.9564225 -0.013559472 0.49807677 0.8397121
-0.40403807 0.50916415 -0.06689107 0.136813 0.04968638 0.39223874 -0.18282995 0.54880404
0.2085262 -0.8743961 -0.23038143 -0.5059178 0.47228834 0.08197141 -0.6147002 -0.0045874296
-0.62515604 0.13766879 -0.143341 -0.20686 -0.55405957 0.30199313 -0.29302 -0.2451775
0.1314633 -0.46443605 0.1158862 0.25109652 -0.30068976 -0.030695422 -0.18213043 0.3797802
0.3745137 -0.072184935 0.14044882 0.8630638 -0.027311044 -0.047402266 1.0364721 -1.1729181
0.054021 0.6510968 0.07634601 0.045559723 -0.18180566 -0.15735218 -0.24294883 -0.113137946
00000000: 1feb 64bd ecde 7d3e b695 c9be a776 dcbc
00000010: 3629 9abf 1049 b0bf ade4 143f ffc6 5abf
00000020: 30db 4cbf 9533 9f3e 46b4 a53d 4578 723f
00000030: 17e3 233e 5527 393f 7fe3 543f 93cc dbbd
00000040: ae35 ecbd 3c6f e63e bbb6 ca3c 6bf0 52be
00000050: ca66 89bd 0072 3abd 4225 c73c ce29 ac3e
00000060: 2d3f f9be 2d47 6bbc 856b 3a3e c05f 273f
00000070: d04c 4b3e 0806 943f c72f 37be e771 8d3e
00000080: 3b1b 113f 38e5 f7be 824d df3d 8a33 e53e
00000090: 52e5 77bf 5fc1 d83e 521c af3e 2cb0 1bbf
000000a0: 137c d8bc 2bfe a6be 5ff9 22bf 39af 883d
000000b0: f52a b4be 1a80 863f 2fa7 08bd 3b23 de3e
000000c0: 090b 15bf 5bf0 f73d b77d 0f3f edc6 193f
000000d0: 3856 893e 7dcd 01bf ba2a 63be 9c5c f2be
000000e0: 49ef 033f 3be2 4dbf ee06 fcbe 8fa5 2c3e
000000f0: d3ad 07bf 000e 653e b6a1 333f 4f8b eebe
00000100: 2521 c53d 6515 a43e b92e e53e 0d01 6b3e
00000110: b564 073e 7dd1 a3bd 68da 853e d2fc 1e3f
00000120: 41a3 ce3e b98c 9fbe de41 00bf 8232 08be
00000130: c480 0f3e 93c9 87be 0e15 203f 16b9 f53d
00000140: 385a b33f 707f 6fbf 9ca3 323e c8d7 e13e
00000150: 1a92 1dbf 67e3 1d3e 09e2 033f 86a9 6bbd
00000160: e8ab 1cbf cc70 f3bf 9797 03be 66db fe3e
00000170: 1bd8 743f 8c28 5ebc eb03 ff3e 5ff7 563f
00000180: 14de cebe 9558 023f 2ffe 88bd b518 0c3e
00000190: f283 4b3d 84d3 c83e c637 3bbe 6c7e 0c3f
000001a0: e487 553e 6cd8 5fbf 1ce9 6bbe d483 01bf
000001b0: c7cf f13e a0e0 a73d fe5c 1dbf 2652 96bb
000001c0: 3a0a 20bf 0cf9 0c3e fcc7 12be 1cd3 53be
000001d0: d9d6 0dbf d89e 9a3e b806 96be d00f 7bbe
000001e0: 519e 063e 90ca edbe be55 ed3d b98f 803e
000001f0: 02f4 99be f774 fbbc 6680 3abe 8d72 c23e
00000200: 42c0 bf3e b2d5 93bd d1d1 0f3e c0f1 5c3f
00000210: 69bb dfbc e128 42bd 1eab 843f 2e22 96bf
00000220: 2045 5d3d 48ae 263f 4c5b 9c3d d59c 3a3d
00000230: 432b 3abe ee20 21be 94c7 78be deb4 e7bd

weight f4 [4]
1.2994884 0.9932989 0.9486441 1.0840255
00000000: a355 a63f d648 7e3f 57da 723f 59c1 8a3f

bias f4 [4]
-0.10956895 -0.36720476 -0.18603113 0.18649036
00000000: b065 e0bd 4302 bcbe f27e 3ebe 54f7 3e3e

running_mean f4 [4]
0.6245318 0.21761858 -0.1351638 -0.4027167
00000000: 51e1 1f3f 68d7 5e3e 6168 0abe e230 cebe

running_var f4 [4]
6.281949 2.5721884 6.5589476 4.6092787
00000000: ba05 c940 bc9e 2440 e6e2 d140 367f 9340

weight f4 [16, 4, 1, 1]
0.084971525 0.4561829 0.17305782 -0.72857934 0.8032763 -0.52571017 -0.18454765 -0.5307117
-0.771409 0.12944482 -0.5417025 0.15259652 0.40242198 -0.14791906 -0.4667297 0.72624534
-0.34557176 0.5244305 0.48249575 0.8570171 -0.30643117 -0.8271505 -0.82470804 0.16602433
-0.7460954 -0.54275876 -0.9634114 0.35422784 0.46594575 1.1741279 0.057762105 0.15195471
-0.44019318 0.5896015 -0.31468388 -0.3313014 0.31535396 -1.2877045 -0.2617764 -0.18891302
1.2025516 -0.43036354 0.3818257 0.023456762 0.08734533 -0.045210946 0.96985924 -0.58744913
0.7834694 -0.19657381 -0.3023141 -0.3431236 -0.63330233 -0.21978514 -0.08142384 0.8996302
-0.101071626 -0.8417079 -0.84591955 -0.8695302 0.45464593 -0.62169486 0.19543028 0.61299586
00000000: 8d05 ae3d ce90 e93e 1236 313e 2d84 3abf
00000010: 84a3 4d3f f194 06bf 0ffa 3cbe b9dc 07bf
00000020: 0f7b 45bf 2f8d 043e 04ad 0abf 4342 1c3e
00000030: 410a ce3e 1878 17be 32f7 eebe 37eb 393f
00000040: c8ee b0be 1441 063f af09 f73e 7965 5b3f
00000050: 8ce4 9cbe 23c0 53bf 1120 53bf 4802 2a3e
00000060: 1c00 3fbf 3df2 0abf 21a2 76bf 5a5d b53e
00000070: 7190 ee3e d349 963f f597 6c3d 049a 1b3e
00000080: 0061 e1be 20f0 163f 3f1e a1be 56a0 a9be
00000090: 1376 a13e 80d3 a4bf 8e07 86be 6a72 41be
000000a0: 36ed 993f 9c58 dcbe a87e c33e 6528 c03c
000000b0: 1ce2 b23d 1d2f 39bd b248 783f 1163 16bf
000000c0: 7391 483f a54a 49be eac8 9abe e6ad afbe
000000d0: 1a20 22bf 5b0f 61be 8bc1 a6bd 2a4e 663f
000000e0: a4fe cebd 2b7a 57bf 2f8e 58bf 8899 5ebf
000000f0: 5ac7 e83e 6527 1fbf e01e 483e 4ced 1c3f

weight f4 [16]
0.47909248 0.99094796 1.4112871 0.84145695 0.5245224 1.7229855 1.8696663 1.2337494
1.4819868 0.90398175 1.3229305 1.4407108 0.9264107 1.1127827 1.8139296 1.1954421
00000000: 9c4b f53e c4ae 7d3f 0ea5 b43f b969 573f
00000010: 1a47 063f ca8a dc3f 3a51 ef3f 80eb 9d3f
00000020: beb1 bd3f 596b 673f c955 a93f 3669 b83f
00000030: 4029 6d3f aa6f 8e3f d82e e83f 3f04 993f

bias f4 [16]
0.21576926 -0.091092475 0.17120314 -0.19731088 -0.8451006 0.30956772 -0.062070705 -0.8474944
0.5700043 0.5760706 -1.1354625 -0.20666486 0.5176627 0.35912934 0.12903126 -0.2607482
00000000: 9ef2 5c3e b18e babd e04f 2f3e dd0b 4abe
00000010: 8358 58bf a97f 9e3e da3d 7ebd 65f5 58bf
00000020: cdeb 113f 5d79 133f d656 91bf f49f 53be
00000030: 8b85 043f cddf b73e c520 043e ca80 85be

running_mean f4 [16]
-0.06482115 -0.032335762 -0.23997995 0.2007288 0.28864878 -0.29876843 -0.3478124 0.3541468
-0.16433455 -0.20075513 0.329629 0.026869623 0.046220656 0.019962916 -0.5192861 0.22280274
00000000: f3c0 84bd 8172 04bd 4ebd 75be da8b 4d3e
00000010: c6c9 933e 2df8 98be 7814 b2be bb52 b53e
00000020: 5147 28be c192 4dbe 22c5 a83e af1d dc3c
00000030: df51 3d3d 4589 a33c efef 04bf 6726 643e

running_var f4 [16]
0.14553484 0.4479039 1.2275028 0.48735574 1.4877682 1.8202809 2.5958068 2.4029102
0.467361 1.0297868 2.1187553 0.30111685 0.39368322 0.47090337 4.3072457 0.6956671
00000000: 1607 153e a953 e53e d01e 9d3f b186 f93e
00000010: 306f be3f f7fe e83f b321 2640 48c9 1940
00000020: f149 ef3e 0ed0 833f b099 0740 fd2b 9a3e
00000030: d990 c93e 3f1a f13e f5d4 8940 3d17 323f

weight f4 [16, 8, 1, 1]
0.013226985 0.20022534 0.07027524 0.3427803 0.22926679 2.1127167 1.7732965 -0.22131369
-1.2249149 -0.8413606 0.23276761 -0.95284045 -0.88869643 0.5270268 1.8847702 -0.011983969
-1.0766506 -0.09908639 -0.088501036 1.2582563 0.45038858 0.4369689 -1.0326802 0.37986475
-0.1463071 0.5744862 0.27593458 -0.2904088 0.29074213 1.0253062 -0.34977505 -1.0451956
0.28817582 0.84893763 -0.2351235 -0.26933023 1.0835005 -0.30024445 0.07162132 0.10475638
0.73204625 0.34406185 -1.5117217 -0.11323395 -0.09119757 -1.170013 1.433082 0.25708905
2.3559585 -0.50647557 0.27384052 -0.12652944 0.052447416 1.4730957 1.9118105 0.19585729
-1.346278 -0.7367032 -0.10504907 -0.102952756 -0.0062096035 0.232903 0.7344676 -0.697109
-0.28621712 0.110830225 -0.07154903 0.16127521 0.24705352 0.42987922 1.2642971 1.1622303
-0.39868072 -0.57924914 1.2310952 -0.3689547 0.19798116 0.6053038 0.27632713 -0.12733626
-0.54766923 -0.51213336 -0.013365209 0.9170628 1.1066475 -0.5311749 -0.4119886 -0.28187177
0.59359634 -0.042226385 -1.3485607 0.07302564 -0.57425326 1.1016954 -0.37098086 0.08547741
0.22714673 -0.1305833 -0.13530573 -0.50278217 -0.055731248 -0.33059162 1.3479319 -0.9827985
0.73707724 0.4084354 -0.3908589 -0.56588024 -0.34915915 0.42958516 1.081633 0.2951198
-1.1098057 1.0738415 -0.2596429 -0.24637389 -0.07830806 0.23287348 -1.7226948 -0.18668066
0.4736081 -0.38588184 -0.1243653 0.68820673 -0.23123759 0.3740685 1.2819415 -0.5435778
00000000: ffb5 583c df07 4d3e 77ec 8f3d e680 af3e
00000010: eac4 6a3e c036 0740 61fb e23f 0ea0 62be
00000020: 03ca 9cbf 6963 57bf a25a 6e3e 5aed 73bf
00000030: 9c81 63bf 3aeb 063f 2640 f13f 6958 44bc
00000040: b0cf 89bf ceed cabd 0840 b5bd 8b0e a13f
00000050: 5599 e63e 63ba df3e dd2e 84bf a27d c23e
00000060: 87d1 15be 8711 133f 4c47 8d3e 76b0 94be
00000070: 27dc 943e 3c3d 833f b715 b3be f8c8 85bf
00000080: c88b 933e fa53 593f 37c4 70be a7e5 89be
00000090: 25b0 8a3f a4b9 99be 33ae 923d 838a d63d
000000a0: 6267 3b3f e028 b03e 1980 c1bf 34e7 e7bd
000000b0: cbc5 babd fcc2 95bf 3b6f b73f 2da1 833e
000000c0: 06c8 1640 62a8 01bf d334 8c3e ef90 01be
000000d0: 1ad3 563d 668e bc3f 35b6 f43f d08e 483e
000000e0: d652 acbf 9598 3cbf f823 d7bd e5d8 d2bd
000000f0: ee79 cbbb 207e 6e3e 1206 3c3f bc75 32bf
00000100: 0d8b 92be f5fa e23d 4c88 92bd 5425 253e
00000110: 99fb 7c3e 2119 dc3e 7dd4 a13f f6c3 943f
00000120: e11f ccbe ac49 14bf 8794 9d3f a1e7 bcbe
00000130: 93bb 4a3e 31f5 1a3f c07a 8d3e 7064 02be
00000140: 0d34 0cbf 2c1b 03bf c0f9 5abc a1c4 6a3f
00000150: a0a6 8d3f 14fb 07bf 2bf0 d2be 7f51 90be
00000160: eef5 173f 93f5 2cbd a39d acbf 778e 953d
00000170: 4302 13bf 5b04 8d3f 34f1 bdbe c80e af3d
00000180: 2799 683e a1b7 05be 968d 0abe 55b6 00bf
00000190: 7346 64bd 4e43 a9be 0889 ac3f af98 7bbf
000001a0: 18b1 3c3f 721e d13e a81e c8be 87dd 10bf
000001b0: fdc4 b2be 96f2 db3e f372 8a3f f119 973e
000001c0: 1d0e 8ebf a373 893f eaef 84be 7049 7cbe
000001d0: fa5f a0bd 6376 6e3e 4381 dcbf 3729 3fbe
000001e0: c37c f23e 4e92 c5be 3cb3 febd 512e 303f
000001f0: 8cc9 6cbe e885 bf3e a916 a43f ea27 0bbf

weight f4 [16]
0.93729955 2.2523086 1.0364399 0.5018861 0.84280103 2.036066 0.8185263 1.1794531
1.0975211 0.997373 0.4472763 1.4015002 1.6757174 0.9549183 0.96283424 1.3296884
00000000: ddf2 6f3f d325 1040 10aa 843f 9c7b 003f
00000010: cfc1 573f e84e 0240 f18a 513f 52f8 963f
00000020: 927b 8c3f d653 7f3f 6601 e53e 5c64 b33f
00000030: e87d d63f 8775 743f 4e7c 763f 3b33 aa3f

bias f4 [16]
0.21576926 -0.091092475 0.17120314 -0.19731088 -0.8451006 0.30956772 -0.062070705 -0.8474944
0.5700043 0.5760706 -1.1354625 -0.20666486 0.5176627 0.35912934 0.12903126 -0.2607482
00000000: 9ef2 5c3e b18e babd e04f 2f3e dd0b 4abe
00000010: 8358 58bf a97f 9e3e da3d 7ebd 65f5 58bf
00000020: cdeb 113f 5d79 133f d656 91bf f49f 53be
00000030: 8b85 043f cddf b73e c520 043e ca80 85be

running_mean f4 [16]
5.3849325 1.270927 -1.3582655 0.6878692 0.7417172 0.97257227 6.71076 -0.49559113
2.6360157 0.88504153 -1.3245579 0.91088617 1.1260359 2.6349483 -2.9441314 2.3551967
00000000: 5e51 ac40 bcad a23f a5db adbf 3218 303f
00000010: 2ee1 3d3f 7ffa 783f 8cbe d640 1fbe fdbe
00000020: 7bb4 2840 1592 623f 1d8b a9bf d62f 693f
00000030: f221 903f fea2 2840 a66c 3cc0 8bbb 1640

running_var f4 [16]
0.84371734 7.424948 4.0060945 1.5013479 3.4365628 2.6875892 1.0873067 4.0261674
4.008665 1.3338648 1.9225955 4.020937 5.3984656 0.76377213 1.5900304 2.1352384
00000000: dcfd 573f 2d99 ed40 ed31 8040 2b2c c03f
00000010: a5f0 5b40 7601 2c40 de2c 8b3f 5dd6 8040
00000020: fc46 8040 15bc aa3f 9c17 f63f 84ab 8040
00000030: 3bc0 ac40 9286 433f 1e86 cb3f bfa7 0840

weight f4 [8, 16, 1, 1]
-0.19811639 -0.22142781 1.1986815 -0.41858736 0.6636341 -1.2566947 1.2783929 0.32741928
-0.21554199 -0.07895603 -0.17609994 0.24021704 -0.18460734 0.42862737 -0.61489034 0.16742542
0.18892352 0.31654647 -1.2738873 0.8406727 -0.4498193 -0.45148477 -0.23566976 0.41322023
0.43186972 0.49829 -0.3816387 -0.5594641 0.45288873 -0.18395093 0.24861634 -0.77596235
-0.35721177 -0.19532284 -0.24776636 0.6929255 -0.029357899 0.13752457 -0.71373343 -0.44898126
0.7600511 -0.31516525 -0.5889879 -0.07848099 -0.8349173 0.21850036 0.34479013 0.68356746
0.4437364 0.42808738 -0.30907443 0.43960372 -0.22701114 -0.109528124 -0.27141088 0.09858816
0.5976194 0.408537 0.10260117 1.3766756 0.686109 -0.24031636 -0.23155832 -0.09874115
0.05226494 1.1497254 0.4845003 0.32579333 0.6154978 0.45711574 0.41796517 0.011994452
-0.16143997 -0.64106625 0.5093405 -0.55273956 -0.51098937 -0.46268502 -0.4488938 -0.4468501
0.9538878 0.6501484 -0.40559962 -0.23567446 0.39629164 0.35904065 -0.2539626 -0.23119399
-0.9432612 0.579592 0.20532109 -0.59684014 0.23440365 -0.025396574 0.30705157 -0.07123112
-0.15044767 0.40001944 0.07445806 0.034827814 -0.44444564 0.5605911 -0.016097981 -1.116857
0.022912314 0.0018450056 0.61355203 -0.85902005 0.45380333 -0.01225277 -0.5775917 0.66312844
0.6167431 -0.24031614 0.0017553722 -0.060039062 -0.07349165 -1.1733592 -0.18458907 -0.64638525
0.78900576 -0.0036897208 -0.66266525 -0.26823607 -0.41960815 -0.18752207 0.07545417 0.09737088
00000000: 06df 4abe f9bd 62be 656e 993f 1551 d6be
00000010: ede3 293f 5fdb a0bf 61a2 a33f 80a3 a73e
00000020: 0ab7 5cbe b3b3 a1bd 8b53 34be 75fb 753e
00000030: b509 3dbe 0c75 db3e 7469 1dbf 9271 2b3e
00000040: 2b75 413e 6112 a23e bd0e a3bf 5336 573f
00000050: b74e e6be 0329 e7be 6a53 71be 9a91 d33e
00000060: 071e dd3e de1f ff3e 2666 c3be 0a39 0fbf
00000070: 08e1 e73e a25d 3cbe 4895 7e3e 78a5 46bf
00000080: 76e4 b6be b602 48be 77b6 7dbe 9163 313f
00000090: fa7f f0bc 3ed3 0c3e 3cb7 36bf dfe0 e5be
000000a0: b592 423f 575d a1be e9c7 16bf a4ba a0bd
000000b0: 24bd 55bf 8fbe 5f3e 5588 b03e 47fe 2e3f
000000c0: 6b31 e33e 452e db3e 013f 9ebe bd13 e13e
000000d0: 9c75 68be 4850 e0bd 5ef6 8abe 97e8 c93d
000000e0: 96fd 183f c32b d13e 9020 d23d e836 b03f
000000f0: d7a4 2f3f 7e15 76be a01d 6dbe cd38 cabd
00000100: c313 563d 342a 933f 6c10 f83e 62ce a63e
00000110: 4491 1d3f 130b ea3e 88ff d53e 6184 443c
00000120: 8550 25be eb1c 24bf 2464 023f 5780 0dbf
00000130: 33d0 02bf 0de5 ecbe 68d5 e5be 89c9 e4be
00000140: fe31 743f 2070 263f c1aa cfbe a554 71be
00000150: bde6 ca3e 2dd4 b73e 6307 82be 1ebe 6cbe
00000160: 9179 71bf 2460 143f b13f 523e 84ca 18bf
00000170: 8307 703e 7a0c d0bc dd35 9d3e 9fe1 91bd
00000180: f40e 1abe 59cf cc3e 787d 983d 9ca7 0e3d
00000190: 618e e3be e682 0f3f eadf 83bc 2cf5 8ebf
000001a0: 9bb2 bb3c 1dd4 f13a bf11 1d3f bde8 5bbf
000001b0: e958 e83e d8bf 48bc 0ddd 13bf c9c2 293f
000001c0: e0e2 1d3f 6f15 76be 8414 e63a 85eb 75bd
000001d0: ca82 96bd a230 96bf eb04 3dbe 8179 25bf
000001e0: 48fc 493f 3ecf 71bb 6ea4 29bf 3d56 89be
000001f0: e1d6 d6be c905 40be b787 9a3d 626a c73d

weight f4 [8]
0.99648046 1.1976802 1.1486125 1.2066593 1.1310537 1.1460114 1.3285922 1.215479
00000000: 5819 7f3f 964d 993f bc05 933f d073 9a3f
00000010: 5ec6 903f 80b0 923f 4f0f aa3f d194 9b3f

bias f4 [8]
-0.2860199 0.05781155 -0.029530583 -0.58826035 -0.64801955 -0.5700546 0.074403815 -0.16296798
00000000: 3371 92be cecb 6c3d 1fea f1bc 3b98 16bf
00000010: 9ce4 25bf 19ef 11bf 0761 983d 14e1 26be

running_mean f4 [8]
-1.267506 0.4862437 -0.5241212 1.9154224 -0.8851751 0.8557141 1.0535237 -1.2142434
00000000: a33d a2bf eff4 f83e cf2c 06bf 902c f53f
00000010: d69a 62bf 1410 5b3f ddd9 863f 546c 9bbf

running_var f4 [8]
1.551537 2.465439 1.1027862 1.9672707 0.6813893 1.5103712 0.9346355 0.99743414
00000000: c498 c63f c1c9 1d40 1928 8d3f 87cf fb3f
00000010: 876f 2e3f d853 c13f 4644 6f3f d857 7f3f

weight f4 [8, 8, 3, 3]
0.098706424 0.30031258 0.28067258 -0.31538874 0.11569177 0.70241296 -0.18340747 -0.14877155
-0.18767466 0.7412681 0.08325154 -0.5273659 0.4733434 0.2948926 0.23332267 0.36096692
0.3886443 0.1300144 -1.0406299 -1.04513 -0.6364885 -0.44693398 -0.34490547 0.032267004
0.36267164 0.4463054 0.27013156 -0.4143773 0.18755417 0.8890725 -0.57045335 -0.4628304
0.03804012 -0.48385495 -0.60448796 -0.10865096 0.44463366 0.41424608 0.72815984 0.70175874
0.19436568 0.9346802 0.31423837 0.596209 0.28934142 -0.47575688 -0.033729594 -0.46352425
-0.5978955 -0.45060807 -0.4783677 -0.09272554 -0.5583832 -0.32027394 -0.86265826 -0.622097
-0.1246946 -0.18032683 -0.2137921 -0.056536064 -0.3901635 -0.3259905 0.22461675 0.4718874
0.4898565 0.83855265 0.46241567 0.5507351 0.6038734 0.3065863 0.4375244 0.14911519
0.35839126 -0.13797656 0.35871935 -0.27396357 -0.21850924 0.406514 0.42801374 -0.87372875
-0.7885222 -0.2817312 -0.43377796 0.04572043 0.13338825 -0.5992966 -0.6226603 0.19591536
0.62764317 -0.63301754 -0.84856755 -1.315431 -0.31319553 -1.0634927 -0.98930025 -0.57742256
-0.58722675 -0.6959278 0.10348175 0.5458884 0.57595176 0.061101608 0.08153666 -0.16046435
-0.026152033 0.33606616 -0.42368025 0.30678782 0.3455095 -0.3705153 -0.4523105 -0.33715022
-0.8296177 -0.7024817 -0.70095533 -0.038554695 -0.19357401 0.3601544 0.15039854 -0.36270377
-0.081248336 0.103252985 0.43877777 0.36460632 0.87248427 0.8793812 0.33178213 0.9421166
1.1620823 0.5809504 0.895325 1.5262434 -0.010483731 0.7497471 -0.23824665 0.52226126
-0.35566935 -0.32487434 0.3343823 0.36065647 0.024485003 0.2959002 -0.015427203 -0.44706592
1.0432107 0.20020454 -1.0666631 0.17176117 0.27037436 -0.22578502 -0.08707593 -0.16574253
-0.41537583 -0.3234041 -0.05394633 0.37945545 -1.1175295 0.60817796 -1.0416237 0.027313989
0.16973004 -0.81780094 -0.10631809 -0.016226336 -0.25039873 0.10348671 0.1486602 -1.47043
0.15611312 0.23899448 0.03508537 0.025026748 0.0138296895 0.41873658 0.26899678 -0.496358
0.053704947 0.4868828 0.20261878 -0.1990031 -0.2767809 -0.09057159 -0.2715803 0.30967608
-0.4363102 -0.48772314 0.4255786 0.11985725 -0.011857038 0.20985821 0.7156803 0.4753428
-0.58110005 0.5135687 1.0005395 -1.7814558 -0.6130785 -0.17020698 -0.48705536 -0.70490587
-0.026006103 -0.26824152 -1.0467017 -0.62686276 -0.19209082 -1.4255478 -2.0359747 -0.026620314
-0.22471581 0.14579915 -0.65379244 -0.19618528 0.25020885 -0.49795875 -0.23169681 -0.33785504
0.116579235 -0.57718754 -0.1402532 -0.867359 -0.5404072 0.5635546 -0.47798768 -0.0074405866
0.6864143 -0.56353676 0.15024224 -0.30428293 -0.30567884 -0.2318156 0.31203496 0.7218464
0.41142792 0.164932 -0.3188371 -0.24176542 -0.53575635 0.02088608 -0.39401045 -0.42329273
-1.0119269 -0.8392653 -0.56194365 0.020651827 0.3473709 1.0765015 -0.25629786 -0.04274893
0.45243922 -0.37504986 -0.017479373 -0.07631932 0.8296983 0.43730178 1.155639 0.36369595
00000000: 9826 ca3d 92c2 993e 51b4 8f3e a27a a1be
00000010: cfef ec3d 56d1 333f 2bcf 3bbe 9257 18be
00000020: c92d 40be bfc3 3d3f c97f aa3d 7401 07bf
00000030: 115a f23e 2afc 963e 23ec 6e3e a8d0 b83e
00000040: 63fc c63e 7f22 053e 5c33 85bf d2c6 85bf
00000050: e9f0 22bf 88d4 e4be 7397 b0be 682a 043d
00000060: 19b0 b93e 2482 e43e af4e 8a3e 4329 d4be
00000070: 330e 403e 419a 633f 3b09 12bf 1bf8 ecbe
00000080: f5cf 1b3d d6bb f7be b9bf 1abf 6584 debd
00000090: 06a7 e33e 1018 d43e af68 3a3f 76a6 333f
000000a0: cc07 473e 3447 6f3f dae3 a03e 27a1 183f
000000b0: 8f24 943e 6896 f3be 0b28 0abd 0d53 edbe
000000c0: ae0f 19bf 1ab6 e6be 9cec f4be e3e6 bdbd
000000d0: 34f2 0ebf f2fa a3be 2cd7 5cbf c041 1fbf
000000e0: e25f ffbd 99a7 38be 51ec 5abe 5c92 67bd
000000f0: 83c3 c7be 3ae8 a6be ef01 663e 3a9b f13e
00000100: 79ce fa3e 63ab 563f bfc1 ec3e fafc 0c3f
00000110: 7297 1a3f e1f8 9c3e 3303 e03e a7b1 183e
00000120: 0f7f b73e ba49 0dbe 10aa b73e f444 8cbe
00000130: e3c0 5fbe 9a22 d03e 9e24 db3e b0ac 5fbf
00000140: 97dc 49bf 123f 90be 2518 debe 5845 3b3d
00000150: ee96 083e 816b 19bf aa66 1fbf 099e 483e
00000160: 39ad 203f 700d 22bf b93b 59bf 0b60 a8bf
00000170: 2a5b a0be 8720 88bf c842 7dbf f7d1 13bf
00000180: 7e54 16bf 5328 32bf 3dee d33d 58bf 0b3f
00000190: 9371 133f ae45 7a3d b1fc a63d c450 24be
000001a0: ca3c d6bc dd10 ac3e 9eec d8be 4b13 9d3e
000001b0: 9fe6 b03e 2eb4 bdbe 3e95 e7be f49e acbe
000001c0: d361 54bf d7d5 33bf cf71 33bf 87eb 1dbd
000001d0: 4438 46be 2866 b83e 1302 1a3e 4fb4 b9be
000001e0: 8765 a6bd 4d76 d33d 7ba7 e03e aead ba3e
000001f0: 215b 5f3f 201f 613f 59df a93e 8e2e 713f
00000200: 1dbf 943f 2ab9 143f 0534 653f f25b c33f
00000210: f4c3 2bbc 6def 3f3f eef6 73be eab2 053f
00000220: 4b1a b6be ee55 a6be 2834 ab3e f7a7 b83e
00000230: c694 c83c 3b80 973e 61c2 7cbc d3e5 e4be
00000240: ee87 853f 6b02 4d3e 6b88 88bf 29e2 2f3e
00000250: 826e 8a3e 3034 67be dd54 b2bd 69b8 29be
00000260: 24ac d4be 3995 a5be d4f6 5cbd fc47 c23e
00000270: 350b 8fbf 8db1 1b3f ed53 85bf 96c1 df3c
00000280: b6cd 2d3e 675b 51bf 4cbd d9bd 18ed 84bc
00000290: 4334 80be d7f0 d33d 613a 183e 0d37 bcbf
000002a0: 1edc 1f3e f8ba 743e adb5 0f3d e504 cd3c
000002b0: ec95 623c a464 d63e f2b9 893e a322 febe
000002c0: b8f9 5b3d b448 f93e 4c7b 4f3e 78c7 4bbe
000002d0: 3ab6 8dbe 997d b9bd 930c 8bbe dd8d 9e3e
000002e0: 0d64 dfbe d9b6 f9be 70e5 d93e b877 f53d
000002f0: 0644 42bc 12e5 563e d336 373f 2260 f33e
00000300: f9c2 14bf 3d79 033f ae11 803f be06 e4bf
00000310: b6f2 1cbf bd4a 2ebe 525f f9be b674 34bf
00000320: c00a d5bc f456 89be 52fa 85bf 147a 20bf
00000330: 75b3 44be 5a78 b6bf 694d 02c0 d812 dabc
00000340: e71b 66be 5f4c 153e f15e 27bf cbe4 48be
00000350: 601b 803e 73f4 febe ee41 6dbe 56fb acbe
00000360: 18c1 ee3d 90c2 13bf 899e 0fbe 3d0b 5ebf
00000370: 2058 0abf 1d45 103f cdba f4be 2ad0 f3bb
00000380: d9b8 2f3f f243 10bf 1ad9 193e f9ca 9bbe
00000390: f081 9cbe 1261 6dbe 0cc3 9f3e edca 383f
000003a0: aea6 d23e efe3 283e 9e3e a3be 5b91 77be
000003b0: 5427 09bf 4919 ab3c bdbb c9be d3b9 d8be
000003c0: d286 81bf 17da 56bf 8adb 0fbf 052e a93c
000003d0: 99da b13e cdca 893f 7939 83be 8119 2fbd
000003e0: 1da6 e73e 8906 c0be e730 8fbc 4e4d 9cbd
000003f0: 1c67 543f 05e6 df3e fbeb 933f 5b36 ba3e

weight f4 [8]
1.1274924 0.9506664 1.8572874 0.86494815 1.1524972 0.8531825 2.2728767 0.93397796
00000000: ac51 903f e05e 733f 98bb ed3f 3e6d 5d3f
00000010: 0785 933f 2b6a 5a3f d076 1140 2e19 6f3f

bias f4 [8]
-0.63972163 0.19303657 -0.23294781 0.37416705 -0.19459058 -0.5286079 -0.13241246 -0.5430744
00000000: ccc4 23bf 61ab 453e df89 6ebe d392 bf3e
00000010: c142 47be d952 07bf 2297 07be ed06 0bbf

running_mean f4 [8]
-0.048093274 0.45010337 -2.8424742 -0.7360106 -1.0495818 0.099999316 -1.7252907 0.60495234
00000000: 74fd 44bd f373 e63e 19eb 35c0 316b 3cbf
00000010: b258 86bf 71cc cc3d 53d6 dcbf 28de 1a3f

running_var f4 [8]
19.000164 30.599466 22.645985 14.513719 17.42322 10.4128065 57.02612 15.06244
00000000: 5600 9841 b5cb f441 fa2a b541 3138 6841
00000010: c162 8b41 db9a 2641 bf1a 6442 c1ff 7041

weight f4 [32, 8, 1, 1]
0.6693021 0.25755504 1.107353 -0.23270096 -0.21334119 -0.45694524 -1.3231579 -0.09712461
-0.6334228 -0.12797308 -0.16268 -0.16688411 0.5399374 0.24925569 1.801835 0.5075874
-0.28509453 0.05778248 -1.0789504 0.40016687 0.4581105 -0.23633666 -1.9409008 0.1711767
-0.3062541 0.5438732 -0.56133264 -0.2519292 0.4576716 0.30038422 1.9160187 0.49863946
0.9374204 -0.73325807 0.22708237 0.598311 0.11966078 0.25772518 -0.075383276 -0.63348013
0.9817633 0.13132726 0.41532972 -0.76827884 -0.14766018 -0.41924047 -0.2738614 0.2999456
-0.5401466 0.1611859 0.23368233 0.247671 1.2810771 0.52144074 0.123801164 -0.10715034
0.77228034 0.57104576 -0.024076412 -0.23670901 -0.3504897 0.104827754 0.99152046 -0.55355847
-0.01858754 0.8344164 -0.5720624 0.11458086 -0.050839208 0.29057658 1.6502542 0.6931603
-0.15489192 -0.22829461 0.55070543 -0.8568777 -0.61839724 -0.45924583 0.18174775 0.93309265
-0.5974866 -0.34561095 0.18263344 0.99266285 -0.14289078 0.8272438 0.1378978 0.03827514
0.016557325 1.75129 -1.198514 -0.07945042 -0.113792166 0.24241236 -1.5020064 0.4881145
0.9028803 0.056384046 0.2152554 -0.8214876 0.27112016 -0.70168227 -0.25298503 0.2869882
-0.80959105 0.11531529 0.5999991 0.1479831 0.12439211 0.6998221 0.38632798 -0.53040195
-0.13764976 1.4856844 -0.7302006 0.76465696 0.2999062 0.082339846 -0.16744298 -0.38801733
0.2731432 1.8562871 -0.21586484 -0.38116485 -0.2156537 0.6151662 0.31138653 -0.71696323
1.2233315 0.039073598 0.7818317 -0.27184272 -0.4979562 -0.27281407 0.14381808 -0.17123501
-0.4745036 -0.09827542 -0.42872086 0.26042423 0.7197489 0.63970995 -0.04986886 0.49477938
0.44222677 -0.5519337 0.28447828 -0.36090893 -0.32885218 -0.2744142 -1.006271 0.81852883
-0.08263442 0.051938858 -0.489065 0.3927821 -0.818632 0.88428426 0.7789521 -0.028824324
-0.14810356 -0.27854192 0.26173267 1.5357505 0.03745406 0.24289861 -1.2345436 -0.3923057
0.024561582 1.1802841 -0.73046005 -0.3510693 0.58118385 0.53499943 0.1696894 -0.5832602
0.85977304 -0.15369312 0.6542839 0.44427472 0.28369212 -0.27203828 -0.38505065 -0.73122185
-0.085604206 -0.6032707 0.14988327 0.42727795 0.7351051 -0.46487108 -0.31397456 -0.659704
-0.3939088 0.39112666 -0.8840145 0.3717177 1.3140299 0.1861988 -0.0137766665 -0.23507112
-0.24775673 0.41141307 0.14019378 -0.6341228 -0.57717216 0.43645537 1.1002331 0.8839393
0.12895234 0.46531138 1.4137877 -0.1630822 0.80760705 -0.03919375 -0.22187707 -0.86350733
0.24670132 0.46087205 1.7985092 0.001965597 0.05675562 -0.51856047 0.41816023 -0.49207833
-0.4031665 -0.71170235 -0.61182034 0.2262402 1.1832242 -0.21444903 -0.3571429 -0.026409676
0.15980993 1.4949304 -0.39342752 -0.15162599 -0.09839228 0.5426683 0.7620163 -0.4664613
-0.09680534 -0.20969646 1.4774598 -0.46468994 -0.16370529 0.7335934 0.7553761 0.08319864
0.71486104 -0.35155773 0.081633426 0.6909065 -0.7666663 0.43811294 0.37053064 -0.35471717
00000000: 6257 2b3f 41de 833e bebd 8d3f 2949 6ebe
00000010: 1d76 5abe baf4 e9be 3d5d a9bf 44e9 c6bd
00000020: ff27 22bf 600b 03be 9695 26be abe3 2abe
00000030: 5639 0a3f e23c 7f3e 87a2 e63f 3ff1 013f
00000040: e9f7 91be 52ad 6c3d 0c1b 8abf ace2 cc3e
00000050: 768d ea3e 3d02 72be 706f f8bf f248 2f3e
00000060: 56cd 9cbe 463b 0b3f 7fb3 0fbf ddfc 80be
00000070: ef53 ea3e f6cb 993e 1a40 f53f ac4d ff3e
00000080: c9fa 6f3f cdb6 3bbf 4888 683e e92a 193f
00000090: b610 f53d 8ef4 833e 8c62 9abd c12b 22bf
000000a0: d754 7b3f a77a 063e 19a6 d43e ecad 44bf
000000b0: 3b34 17be b0a6 d6be 9037 8cbe 7892 993e
000000c0: 0c47 0abf eb0d 253e 6c4a 6f3e 779d 7d3e
000000d0: 56fa a33f 247d 053f 778b fd3d a371 dbbd
000000e0: 2ab4 453f 0e30 123f e53b c5bc d963 72be
000000f0: 6373 b3be efaf d63d 49d4 7d3f 02b6 0dbf
00000100: e644 98bc 509c 553f ae72 12bf 5fa9 ea3d
00000110: c63c 50bd 74c6 943e 883b d33f f472 313f
00000120: fd9b 1ebe 10c6 69be 08fb 0c3f 565c 5bbf
00000130: 484f 1ebf 4522 ebbe 151c 3a3e 29df 6e3f
00000140: e2f4 18bf ebf3 b0be 4304 3b3e 271f 7e3f
00000150: f651 12be 40c6 533f 1535 0d3e 65c6 1c3d
00000160: 3aa3 873c 452a e03f e868 99bf e7b6 a2bd
00000170: de0b e9bd f23a 783e bf41 c0bf 25ea f93e
00000180: 2a23 673f f5f2 663d e96b 5c3e 034d 52bf
00000190: 43d0 8a3e 73a1 33bf 4187 81be 1ef0 923e
000001a0: 5c41 4fbf 6c2a ec3d 8b99 193f e288 173e
000001b0: 4ac1 fe3d 8b27 333f c8cc c53e 6cc8 07bf
000001c0: 0ff4 0cbe e82a be3f 6dee 3abf 8fc0 433f
000001d0: 4e8d 993e cba1 a83d 2c76 2bbe 35aa c6be
000001e0: 6dd9 8b3e d19a ed3f ac0b 5dbe 0a28 c3be
000001f0: 53d4 5cbe 887b 1d3f 0e6e 9f3e e78a 37bf
00000200: 2096 9c3f a30b 203d 1f26 483f f82e 8bbe
00000210: 1df4 febe 49ae 8bbe 0c45 133e 3b58 2fbe
00000220: 23f2 f2be a044 c9bd 4d81 dbbe 5356 853e
00000230: 7741 383f 08c4 233f 4a43 4cbd b953 fd3e
00000240: 8c6b e23e 874b 0dbf 23a7 913e 0ec9 b8be
00000250: 505f a8be 0580 8cbe 7dcd 80bf 1b8b 513f
00000260: 3c3c a9bd d7bd 543d ba66 fabe bc1a c93e
00000270: de91 51bf 7460 623f 6869 473f fd20 ecbc
00000280: 76a8 17be 0c9d 8ebe d301 863e 7993 c43f
00000290: 6e69 193d 6aba 783e 8605 9ebf 4bdc c8be
000002a0: 5f35 c93c 8d13 973f 6eff 3abf 5bbf b3be
000002b0: 77c8 143f b9f5 083f 0fc3 2d3e 8a50 15bf
000002c0: 161a 5c3f bb61 1dbe 267f 273f fa77 e33e
000002d0: 1840 913e 9a48 8bbe 5c25 c5be 5b31 3bbf
000002e0: 4251 afbd f36f 1abf 007b 193e 2dc4 da3e
000002f0: d92f 3c3f 9503 eebe 46c1 a0be 5de2 28bf
00000300: 6aae c9be c141 c83e c64e 62bf c851 be3e
00000310: 2232 a83f e6aa 3e3e 87b7 61bc 7cb6 70be
00000320: f1b3 7dbe bca4 d23e f58e 0f3e df55 22bf
00000330: 8ec1 13bf 1477 df3e 70d4 8c3f d949 623f
00000340: 150c 043e 4b3d ee3e fff6 b43f 05ff 26be
00000350: 56bf 4e3f a089 20bd be33 63be d10e 5dbf
00000360: 459f 7c3e 6cf7 eb3e 8d35 e63f 3fd1 003b
00000370: 9578 683d 61c0 04bf 1919 d63e b1f1 fbbe
00000380: d76b cebe 2032 36bf 42a0 1cbf 83ab 673e
00000390: e473 973f 8798 5bbe 6fdb b6be 1b59 d8bc
000003a0: 37a5 233e e159 bf3f 556f c9be d843 1bbe
000003b0: e481 c9bd 4fec 0a3f 8013 433f 04d4 eebe
000003c0: e141 c6bd abba 56be 671d bd3f d7eb edbe
000003d0: 5ca2 27be c7cc 3b3f 5460 413f 0c64 aa3d
000003e0: 2201 373f 60ff b3be 6d2f a73d 40df 303f
000003f0: 3e44 44bf 5750 e03e 31b6 bd3e 7d9d b5be

weight f4 [32]
3.8181105 6.5025387 3.3807442 6.284783 5.5088716 7.1862073 6.3894305 6.1684613
5.608847 4.3271356 6.515437 6.1618185 7.503058 5.6746426 5.396347 6.3298883
7.5701885 4.991884 4.293605 5.168899 5.338006 5.383238 6.1592436 2.6211233
4.9840927 4.7028832 5.828427 5.5178094 4.4654093 5.00019 5.345057 5.09017
00000000: ec5b 7440 cc14 d040 1d5e 5840 f11c c940
00000010: ad48 b040 69f5 e540 3776 cc40 0964 c540
00000020: ad7b b340 e577 8a40 767e d040 9e2d c540
00000030: 0d19 f040 ac96 b540 e0ae ac40 728e ca40
00000040: fc3e f240 84bd 9f40 3665 8940 9f67 a540
00000050: f2d0 aa40 7c43 ac40 8618 c540 7cc0 2740
00000060: b07d 9f40 057e 9640 7982 ba40 e591 b040
00000070: a2e4 8e40 8e01 a040 b50a ab40 ace2 a240

bias f4 [32]
0.18646996 0.23469493 0.52293193 0.51475066 0.39509055 0.5299149 0.3332897 0.17031798
0.5414531 0.41212755 0.21161689 0.03515443 0.15365218 0.39839885 0.6184317 0.49853626
0.3004441 0.39842203 0.1758571 0.33270133 0.59831214 0.019597234 0.44165888 0.6184598
-0.003466296 0.3259802 -0.010594258 0.4350097 0.18455675 0.5807495 0.3563701 -0.016667135
00000000: fbf1 3e3e de53 703e dede 053f b3c6 033f
00000010: 4f49 ca3e 81a8 073f f3a4 aa3e d667 2e3e
00000020: ac9c 0a3f 6202 d33e 19b2 583e 17fe 0f3d
00000030: ff56 1d3e effa cb3e 8a51 1e3f 2540 ff3e
00000040: cfd3 993e f9fd cb3e e213 343e d457 aa3e
00000050: fc2a 193f 618a a03c 1d21 e23e 6253 1e3f
00000060: cc2a 63bb e0e6 a63e 8a93 2dbc 97b9 de3e
00000070: 72fc 3c3e 00ac 143f 2476 b63e 8489 88bc

running_mean f4 [32]
-0.276269 0.51270455 -0.6261478 0.69988114 0.099382535 -0.2588719 0.3390323 0.39681858
0.9112561 -0.3370977 0.45705444 -0.07483957 -0.33876127 0.26886225 0.68196625 0.5050173
0.11337162 0.1334285 -0.5515322 0.40133503 0.24716458 0.18338114 0.13113339 -0.18131667
0.2065984 0.3123462 0.22381122 0.53157926 -0.3447216 0.6244565 0.26262528 0.36745423
00000000: 2173 8dbe 9b40 033f 394b 20bf 692b 333f
00000010: 1289 cb3d dc8a 84be a495 ad3e ce2b cb3e
00000020: 1448 693f 1298 acbe 0a03 ea3e 7d45 99bd
00000030: 1e72 adbe 50a8 893e 5795 2e3f d048 013f
00000040: 612f e83d 7ba1 083e 3731 0dbf c97b cd3e
00000050: b618 7d3e 44c8 3b3e d547 063e 14ab 39be
00000060: 888e 533e d7eb 9f3e c52e 653e 9415 083f
00000070: 597f b0be 62dc 1f3f d276 863e f622 bc3e

running_var f4 [32]
0.46558806 0.4360537 0.7139982 0.65530753 0.93593884 0.2921633 0.49362665 0.470022
0.916236 0.47383448 0.34610328 1.525743 0.31629178 0.38412526 0.68891 0.8882248
0.4926636 0.47981635 0.44667384 0.6604906 0.7127918 0.5020689 0.5538733 0.6247556
0.4814272 0.6949212 0.8524003 0.89121103 0.5215362 0.6286481 0.6168418 0.89389855
00000000: 8f61 ee3e 6e42 df3e 96c8 363f 3cc2 273f
00000010: b099 6f3f 6e96 953e a2bc fc3e b9a6 f03e
00000020: 718e 6a3f 6f9a f23e 7334 b13e 8c4b c33f
00000030: fff0 a13e 11ac c43e 685c 303f b362 633f
00000040: 673e fc3e 7daa f53e 6fb2 e43e e915 293f
00000050: 8679 363f 9687 003f a4ca 0d3f fcef 1f3f
00000060: a07d f63e 5be6 313f e836 5a3f 6826 643f
00000070: 6583 053f 15ef 203f 58e9 1d3f 89d6 643f

weight f4 [32, 16, 1, 1]
0.76379186 -0.39470148 0.6590102 -0.2866882 -0.2319613 -0.6060344 0.3479918 1.1141902
-1.116993 -0.3437368 0.051135086 -0.14349358 0.768002 0.50505894 0.3864742 -0.511648
0.62477815 0.3132269 -0.048190244 0.40427095 -0.2541584 -0.85781187 -0.50040317 -1.05372
-0.28078392 -0.10954128 -0.53785074 -0.22428349 -0.8662282 0.72159934 -0.1967601 0.21247093
-0.16255888 -1.2088171 -0.16391644 0.3781006 0.564046 -0.69626105 0.50703543 1.2051625
-0.07936844 0.4027743 -0.0035417115 -0.8364455 0.9790458 0.16613469 0.55205244 -0.13246323
-0.032617327 -0.601454 -0.6120443 0.44528684 0.39234224 -0.16763823 -0.33083203 0.6273032
-0.84534854 -0.59048533 0.78475463 -0.016565789 -0.4297832 0.008464088 0.4538344 -0.46152654
-0.23567635 0.28121603 0.46259964 0.058617443 0.9217325 -0.16503558 -0.07731535 0.91981184
-0.44337246 0.13387352 0.81916386 -0.2265766 -0.3846767 -0.5187581 -0.7777467 0.2255392
0.76662946 0.14287974 -0.3130847 -0.09989726 0.4621641 -0.26164773 0.17934863 -0.68307185
1.2329067 -0.066227034 0.5007613 -0.08155965 0.084395856 -0.042585548 -0.7697714 -0.12150589
0.16123602 0.17218356 -0.0801946 -0.29189894 0.32402307 1.4115014 -0.19104286 -1.7477934
0.8113295 0.34102765 0.049984112 0.29539794 0.06686212 0.10841524 0.5888236 -0.06913954
-0.33547226 0.4946131 1.3127759 0.81083435 0.09169172 0.3972883 1.1356307 0.272383
0.32792595 -0.701072 0.18831733 -0.0038734581 0.2916884 0.32250768 -0.9212206 -0.020626523
-0.504567 -0.791763 -0.43063843 0.4683508 -0.19587263 -0.35315424 -0.31640506 0.24786502
-0.31897083 0.4471198 0.65149814 0.28315446 -1.0148684 0.21947356 -0.245827 0.7828533
-0.6675486 0.3934995 -0.06484188 -0.24163783 0.43659872 0.99695694 -0.19931553 0.82336885
-1.3119178 0.07291088 -0.07039713 -0.12405989 0.45289338 0.69141614 0.8379944 0.9988315
0.45842412 -0.21148975 0.22677965 -0.20561555 0.06709831 0.2017179 0.014047058 0.6828956
-0.28627986 -0.24381922 0.5399173 0.031508356 0.006566594 -0.8908699 -1.3618963 0.16899638
-0.18160978 0.04984891 0.86778784 -0.696148 0.9561692 -0.6077126 -0.24225114 1.2759646
-0.7251422 -0.5052777 0.65384835 -0.6591537 0.4643276 0.7603833 0.23128611 -0.014169379
0.39473116 0.57901126 -0.45475495 -0.33316156 -0.42721003 -0.7134174 -0.4019504 -0.45700336
1.2272758 -0.3873401 -0.4656691 -0.2527945 0.6845118 0.56262845 0.7096741 -0.20762992
0.72518516 1.0617889 0.25494936 0.43312344 0.33922777 -0.0714094 -0.03966727 -0.29971105
0.126137 -0.14670709 0.103751056 -0.0020712102 -0.2035614 0.6509123 -1.4113283 -0.349465
0.7421482 0.6613431 0.091110826 0.1350773 -0.1743721 -1.0934825 -0.5706633 0.08093164
0.2844422 -0.14523128 0.16683313 0.96210563 0.08020999 -0.45015502 -0.69871277 0.29754645
0.317966 0.48096046 0.21057832 -0.108000346 0.3415038 0.48486847 -0.06675771 -0.28306916
0.8839929 -0.04775084 0.325208 -0.62409383 1.308758 0.630109 -0.5558385 1.1066301
00000000: dd87 433f 5016 cabe e4b4 283f ccc8 92be
00000010: 4387 6dbe 1225 1bbf fb2b b23e c99d 8e3f
00000020: a0f9 8ebf 45fe afbe 0673 513d fbef 12be
00000030: c79b 443f 8b4b 013f f2df c53e 5dfb 02bf
00000040: 76f1 1f3f 475f a03e 2263 45bd 9afc ce3e
00000050: 0d21 82be 8f99 5bbf 6c1a 00bf 4ce0 86bf
00000060: e9c2 8fbe 2e57 e0bd 96b0 09bf 92aa 65be
00000070: 22c1 5dbf bcba 383f 7b7b 49be fb91 593e
00000080: d675 26be 85ba 9abf b6d9 27be 6796 c13e
00000090: 5265 103f 2a3e 32bf 13cd 013f c442 9a3f
000000a0: ec8b a2bd 6f38 ce3e 0f1c 68bb 4b21 56bf
000000b0: bfa2 7a3f 361f 2a3e 4f53 0d3f 71a4 07be
000000c0: bf99 05bd e4f8 19bf efae 1cbf a3fc e33e
000000d0: 15e1 c83e 5ba9 2bbe d162 a9be f196 203f
000000e0: c368 58bf 0c2a 17bf aee5 483f fab4 87bc
000000f0: 8b0c dcbe f5ac 0a3c fc5c e83e 354d ecbe
00000100: 2455 71be 8cfb 8f3e dcd9 ec3e d818 703d
00000110: a9f6 6b3f 16ff 28be 8357 9ebd ca78 6b3f
00000120: b701 e3be 2416 093e b9b4 513f b203 68be
00000130: 58f4 c4be 55cd 04bf 681a 47bf bff3 663e
00000140: d441 443f 114f 123e a34c a0be ef96 ccbd
00000150: c6a0 ec3e b1f6 85be 2ba7 373e ccdd 2ebf
00000160: e3cf 9d3f 0aa2 87bd e431 003f bf08 a7bd
00000170: bcd7 ac3d 2f6e 2ebd bd0f 45bf 14d8 f8bd
00000180: 0e1b 253e e350 303e 113d a4bd c773 95be
00000190: 5ae6 a53e 14ac b43f bda0 43be b2b7 dfbf
000001a0: 4ab3 4f3f 2d9b ae3e 24bc 4c3d 663e 973e
000001b0: 02ef 883d cf08 de3d 25bd 163f 0899 8dbd
000001c0: 05c3 abbe ee3d fd3e 0a09 a83f d792 4f3f
000001d0: dec8 bb3d 5f69 cb3e 595c 913f c975 8b3e
000001e0: e9e5 a73e 7479 33bf 42d6 403e d8d9 7dbb
000001f0: 2f58 953e ba1f a53e 1dd5 6bbf f4f8 a8bc
00000200: 4e2b 01bf fbb0 4abf a47c dcbe adcb ef3e
00000210: d692 48be a2d0 b4be d8ff a1be 54d0 7d3e
00000220: 2550 a3be e3ec e43e 95c8 263f 9ff9 903e
00000230: 35e7 81bf adbd 603e 13ba 7bbe 1369 483f
00000240: 77e4 2abf c478 c93e d2cb 84bd e86f 77be
00000250: de89 df3e 9238 7f3f 5f19 4cbe 4dc8 523f
00000260: ecec a7bf 4d52 953d 5f2c 90bd 1d13 febd
00000270: a4e1 e73e a600 313f cd86 563f 6cb3 7f3f
00000280: 91b6 ea3e c590 58be ed38 683e e28c 52be
00000290: d76a 893d 238f 4e3e a225 663c 3fd2 2e3f
000002a0: 4693 92be bfab 79be 0538 0a3f e80e 013d
000002b0: 952c d73b 0d10 64bf 9e52 aebf 630d 2d3e
000002c0: eaf7 39be 5f2e 4c3d 5827 5e3f c136 32bf
000002d0: 81c7 743f 0e93 1bbf af10 78be cf52 a33f
000002e0: eba2 39bf e159 01bf 9b62 273f 4cbe 28bf
000002f0: 59bc ed3e 7ba8 423f 44d6 6c3e af26 68bc
00000300: 341a ca3e 153a 143f a4d5 e8be 2794 aabe
00000310: 46bb dabe 86a2 36bf 71cc cdbe 58fc e9be
00000320: 6017 9d3f 7151 c6be 2e6c eebe 486e 81be
00000330: 2a3c 2f3f 6b08 103f 34ad 353f f09c 54be
00000340: bca5 393f b3e8 873f b988 823e 5bc2 dd3e
00000350: 43af ad3e 173f 92bd 267a 22bd ba73 99be
00000360: 0f2a 013e 623a 16be 6f7b d43d 24bd 07bb
00000370: 6672 50be 30a2 263f 68a6 b4bf 14ed b2be
00000380: 6dfd 3d3f c84d 293f 5098 ba3d b451 0a3e
00000390: 9a8e 32be 3cf7 8bbf fd16 12bf 7dbf a53d
000003a0: 68a2 913e 82b7 14be 4ed6 2a3e 8e4c 763f
000003b0: 2345 a43d b87a e6be d7de 32bf 0258 983e
000003c0: 71cc a23e 7340 f63e d8a1 573e 492f ddbd
000003d0: 96d9 ae3e ae40 f83e 44b8 88bd 71ee 90be
000003e0: 5c4d 623f 6396 43bd aa81 a63e 9dc4 1fbf
000003f0: 6285 a73f d34e 213f 6f4b 0ebf 0ea6 8d3f

weight f4 [32]
4.518331 3.7547672 4.497901 3.185776 3.0409362 3.0581613 3.0817106 3.33584
3.411064 2.46057 3.2834773 4.348167 4.937351 4.9582357 3.5506196 4.274066
4.0855484 3.3697128 4.7753515 4.489238 2.6510868 5.196598 4.029799 2.4422538
3.9636688 3.4743068 4.3439245 4.4141483 4.120501 3.5000677 3.2346096 4.5390487
00000000: 2b96 9040 1b4e 7040 ceee 8f40 c1e3 4b40
00000010: b39e 4240 eab8 4340 bf3a 4540 677e 5540
00000020: df4e 5a40 fb79 1d40 7e24 5240 2f24 8b40
00000030: c8fe 9d40 dea9 9e40 5a3d 6340 26c5 8840
00000040: d0bc 8240 60a9 5740 aecf 9840 d6a7 8f40
00000050: 68ab 2940 884a a640 1df4 8040 e34d 1c40
00000060: c0ac 7d40 0b5b 5e40 6e01 8b40 b440 8d40
00000070: 25db 8340 1c01 6040 d803 4f40 e33f 9140

bias f4 [32]
0.18646996 0.23469493 0.52293193 0.51475066 0.39509055 0.5299149 0.3332897 0.17031798
0.5414531 0.41212755 0.21161689 0.03515443 0.15365218 0.39839885 0.6184317 0.49853626
0.3004441 0.39842203 0.1758571 0.33270133 0.59831214 0.019597234 0.44165888 0.6184598
-0.003466296 0.3259802 -0.010594258 0.4350097 0.18455675 0.5807495 0.3563701 -0.016667135
00000000: fbf1 3e3e de53 703e dede 053f b3c6 033f
00000010: 4f49 ca3e 81a8 073f f3a4 aa3e d667 2e3e
00000020: ac9c 0a3f 6202 d33e 19b2 583e 17fe 0f3d
00000030: ff56 1d3e effa cb3e 8a51 1e3f 2540 ff3e
00000040: cfd3 993e f9fd cb3e e213 343e d457 aa3e
00000050: fc2a 193f 618a a03c 1d21 e23e 6253 1e3f
00000060: cc2a 63bb e0e6 a63e 8a93 2dbc 97b9 de3e
00000070: 72fc 3c3e 00ac 143f 2476 b63e 8489 88bc

running_mean f4 [32]
-0.31619734 -2.0661228 1.000608 -2.6399155 -1.4924135 1.2171891 3.72302 1.354329
-2.042804 1.2584785 -1.5550911 -0.46370393 1.6829983 0.2917424 -1.3336965 4.13108
-0.38617164 0.6223098 1.1087745 0.41585934 0.12397223 0.7673325 0.564907 1.4671711
1.338703 3.0588334 2.0825584 1.1893312 2.0488448 2.9746087 0.611022 -2.2870033
00000000: 9ee4 a1be 5b3b 04c0 ec13 803f 60f4 28c0
00000010: 6807 bfbf dacc 9b3f f645 6e40 a75a ad3f
00000020: 4dbd 02c0 d315 a13f 3a0d c7bf 9a6a edbe
00000030: 7d6c d73f 435f 953e 91b6 aabf cf31 8440
00000040: 4ab8 c5be b24f 1f3f 53ec 8d3f 84eb d43e
00000050: 27e5 fd3d e76f 443f bf9d 103f 43cc bb3f
00000060: 9f5a ab3f edc3 4340 a348 0540 013c 983f
00000070: 4620 0340 fd5f 3e40 f06b 1c3f 435e 12c0

running_var f4 [32]
1.0603594 0.71186495 1.7392257 2.5470095 3.730998 1.4265058 2.4543002 1.1432806
3.2201812 1.4838122 2.023975 1.8123646 2.5615652 0.9809134 3.0996094 1.3702732
0.75916415 1.9889692 1.5452836 1.3536304 1.5133466 1.0670631 1.2843506 1.6909994
1.5664433 1.5839272 1.3031787 0.9236728 1.6018889 1.3428602 1.0615917 1.2301558
00000000: dbb9 873f c83c 363f f39e de3f 3402 2340
00000010: acc8 6e40 be97 b63f 4113 1d40 0557 923f
00000020: 7317 4e40 8fed bd3f ce88 0140 90fb e73f
00000030: aff0 2340 241d 7b3f 0060 4640 1d65 af3f
00000040: 9558 423f 8b96 fe3f dacb c53f c343 ad3f
00000050: 57b5 c13f 8695 883f 9a65 a43f ab72 d83f
00000060: 3781 c83f 20be ca3f 8fce a63f d275 6c3f
00000070: b20a cd3f d8e2 ab3f 3de2 873f bf75 9d3f
