HW2/aML/R6_btnk_ch4n8.pt (torch, 69429 bytes, 47 tensors)

weight f4 [4, 3, 7, 7]
-0.31386545 -0.3288982 -0.26220393 -0.13422947 0.10358356 0.12705834 0.06781998 0.15811189
-0.16408315 -0.21016322 -0.24878511 -0.3248783 0.03335006 0.09874378 0.5093431 0.33473766
0.009116041 -0.1930224 -0.48023155 -0.44920972 -0.23877674 0.05824357 0.18900663 0.38837883
0.09009806 -0.15171978 -0.052706134 -0.23289324 -0.19384666 0.069411136 0.0961537 0.020855876
0.1533952 0.13246724 -0.095773414 0.029920321 -0.047841415 0.038550653 0.0055258535 0.12697196
0.048606336 -0.061570346 0.12938894 0.024129149 0.24505849 0.21495998 0.18428896 0.30185634
0.6703527 -0.34005085 -0.35299677 -0.23242109 -0.1888024 0.027840378 0.04403331 0.105906606
0.23538898 -0.09507551 -0.22402711 -0.28102857 -0.45729604 -0.010012656 0.033120252 0.50750613
0.2289136 -0.040163413 -0.20375063 -0.48986515 -0.40937006 -0.3074585 0.028661385 0.09550016
0.38924316 0.21625043 -0.14922082 0.013769105 -0.34285742 -0.1539026 -0.0741713 0.072991304
0.08915218 0.18642782 0.11512957 -0.0567277 0.053020775 -0.07342684 0.033928912 -0.0074686455
0.11031686 0.119611 -0.09680316 0.13168468 0.11936002 0.295834 0.20397025 0.2201154
0.24425463 0.6309634 -0.31718504 -0.36766317 -0.20361482 -0.09764547 0.11802814 0.05401142
0.12548831 0.19525604 -0.12563896 -0.10535596 -0.2066506 -0.32549274 -0.02328218 0.02690376
0.4015404 0.2759003 -0.019864563 -0.23939572 -0.47772804 -0.3860115 -0.23948628 0.042169496
0.19260095 0.37792635 0.18803284 -0.033978384 -0.00043475145 -0.24892451 -0.14036301 -0.057994936
0.05513298 0.07398678 0.20654568 0.06683226 0.012218589 0.05613602 -0.11265667 0.06489334
-0.14085235 0.06993304 -0.00659 -0.07656246 0.11152314 0.13602415 0.24526022 0.1663794
0.2593377 0.26247042 0.59078443 0.37505415 0.11878285 -0.032172363 -0.14790247 -0.27823964
-0.13187253 0.3306244 0.2218852 0.08235583 0.18073091 0.30559376 0.32742995 0.45644504
0.44203547 -0.093871064 0.27675372 0.20075804 0.1525061 0.11668406 0.12714821 -0.004431218
-0.24867454 0.19835076 0.0001088155 -0.02056509 0.052648593 0.15017194 -0.36249307 -0.528143
-0.15859479 -0.12520951 -0.26875064 -0.30313885 -0.49217188 -0.1861563 -0.26892045 -0.27250054
-0.2461628 -0.30391768 -0.22833715 0.09959163 0.1451705 0.03432541 0.07204419 0.09430627
0.10059828 0.13374525 0.0062486324 -0.11214517 0.25772503 0.15930307 0.060024466 -0.22094898
-0.21696867 -0.17158122 0.3579374 0.22737679 -0.009473067 0.07204649 0.27035975 0.46903417
0.5048538 0.44131672 -0.032929115 0.30363056 0.30166703 0.116234265 0.17689206 0.15338424
-0.0046115033 -0.34479824 0.12088272 0.02200617 -0.100985445 0.06835197 0.032527886 -0.33871993
-0.4580449 -0.22165225 -0.08589875 -0.18050285 -0.34142178 -0.49115726 -0.11228325 -0.18181911
-0.30664563 -0.36554328 -0.30024636 -0.2514337 0.0064939787 0.13026536 -0.017137198 0.070886776
0.08845312 0.15818904 0.12655509 0.015478086 -0.07437975 0.3389817 0.08091047 0.05429713
-0.20985194 -0.22737785 -0.15292756 0.45607036 0.10007917 -0.028198501 0.20005739 0.2694316
00000000: f9b2 a0be 5865 a8be 983f 86be 7373 09be
00000010: 9e23 d43d 951b 023e 34e5 8a3d 15e8 213e
00000020: 6a05 28be 0735 57be 86c1 7ebe 7356 a6be
00000030: 139a 083d 2e3a ca3d 4f64 023f bc62 ab3e
00000040: 725b 153c aaa7 45be e9e0 f5be d1fe e5be
00000050: e481 74be cf90 6e3d f48a 413e 97d9 c63e
00000060: 5585 b83d 6e5c 1bbe 63e2 57bd 917b 6ebe
00000070: bd7f 46be 6d27 8e3d 3bec c43d f1d9 aa3c
00000080: a213 1d3e 7ea5 073e da24 c4bd 761b f53c
00000090: 5cf5 43bd 4ae7 1d3d 3812 b53b f004 023e
000000a0: 7017 473d 3031 7cbd 897e 043e 7eaa c53c
000000b0: 9df0 7a3e 781e 5c3e 3fb6 3c3e ea8c 9a3e
000000c0: 3c9c 2b3f 251b aebe febb b4be cbff 6dbe
000000d0: 6b55 41be 8111 e43c 465c 343d 90e5 d83d
000000e0: cf09 713e f3b6 c2bd 5d67 65be fae2 8fbe
000000f0: b522 eabe 200c 24bc 1aa9 073d eceb 013f
00000100: 5468 6a3e 6482 24bd 01a4 50be 9bcf fabe
00000110: f498 d1be 336b 9dbe 48cb ea3c 9695 c33d
00000120: e14a c73e c170 5d3e 58cd 18be d097 613c
00000130: 028b afbe a598 1dbe 1fe7 97bd 777c 953d
00000140: 6b95 b63d efe6 3e3e 0dc9 eb3d 4e5b 68bd
00000150: 502c 593d d060 96bd 0bf9 0a3d 8abb f4bb
00000160: ceed e13d 9df6 f43d bc40 c6bd 59d8 063e
00000170: 0773 f43d 8e77 973e 94dd 503e ee65 613e
00000180: e31d 7a3e d186 213f 1466 a2be 593e bcbe
00000190: 6780 50be 59fa c7bd bdb8 f13d 143b 5d3d
000001a0: 0280 003e 33f1 473e 80a7 00be dec4 d7bd
000001b0: 379c 53be fca6 a6be 45ba bebc 4665 dc3c
000001c0: b496 cd3e ce42 8d3e 02bb a2bc 2724 75be
000001d0: c598 f4be 4da3 c5be e43b 75be ecb9 2c3d
000001e0: 2f39 453e 907f c13e ae8b 403e eb2c 0bbd
000001f0: 5aef e3b9 11e6 7ebe 52bb 0fbe 198c 6dbd
00000200: 1fd3 613d 6286 973d b680 533e 5adf 883d
00000210: 7a30 483c e2ee 653d 8ab8 e6bd cde6 843d
00000220: 993b 10be 0e39 8f3d edf0 d7bb c7cc 9cbd
00000230: 3e66 e43d ea49 0b3e 7f25 7b3e 5d5f 2a3e
00000240: e9c7 843e 8662 863e a63d 173f 1907 c03e
00000250: 6c44 f33d 2bc7 03bd bf73 17be 6d75 8ebe
00000260: 9809 07be 9a47 a93e e035 633e 2caa a83d
00000270: 8611 393e c976 9c3e e6a4 a73e 2ab3 e93e
00000280: 7952 e23e 793f c0bd aab2 8d3e 8493 4d3e
00000290: 8f2a 1c3e 0df8 ee3d 2433 023e c033 91bb
000002a0: 8aa4 7ebe 761c 4b3e e033 e438 1f78 a8bc
000002b0: 0da6 573d acc6 193e b198 b9be 6134 07bf
000002c0: ac66 22be ec36 00be af99 89be 0435 9bbe
000002d0: f4fd fbbe c29f 3ebe f1af 89be 3185 8bbe
000002e0: 1a12 7cbe 199b 9bbe 37d1 69be b2f6 cb3d
000002f0: 93a7 143e cd98 0c3d e78b 933d a523 c13d
00000300: 7906 ce3d 84f4 083e 54c1 cc3b 5eac e5bd
00000310: 89f4 833e 5820 233e 37dc 753d 7340 62be
00000320: 092d 5ebe fdb2 2fbe 9243 b73e 76d5 683e
00000330: ec34 1bbc 1c8d 933d 986c 8a3e 3f25 f03e
00000340: 193e 013f 44f4 e13e aee0 06bd 7775 9b3e
00000350: 1a74 9a3e 3b0c ee3d 3123 353e c210 1d3e
00000360: 181c 97bb 6589 b0be 5c91 f73d 4946 b43c
00000370: 75d1 cebd 1efc 8b3d f63b 053d b36c adbe
00000380: dc84 eabe cff8 62be afeb afbd bdd5 38be
00000390: d6ce aebe f778 fbbe c3f4 e5bd ca2e 3abe
000003a0: a800 9dbe 7d28 bbbe e4b9 99be ebbb 80be
000003b0: 71cb d43b 4864 053e 4f63 8cbc 162d 913d
000003c0: e926 b53d 4ffc 213e a897 013e cc97 7d3c
000003d0: 6954 98bd 028f ad3e 63b4 a53d ab66 5e3d
000003e0: 6de3 56be bdd5 68be 0b99 1cbe 0e82 e93e
000003f0: 4ff6 cc3d 8b00 e7bc d8db 4c3e f0f2 893e

weight f4 [4]
1.0300659 1.2546997 0.9070531 1.0407653
00000000: 33d9 833f 009a a03f a234 683f cc37 853f

bias f4 [4]
0.98134404 0.38922986 -0.22499108 -0.14048572
00000000: 5d39 7b3f 2349 c73e 1064 66be 7ddb 0fbe

running_mean f4 [4]
4.6881437 -0.7402796 11.92083 19.284603
00000000: 4605 9640 f782 3dbf b8bb 3e41 de46 9a41

running_var f4 [4]
20304.344 23563.816 7418.9663 50093.77
00000000: b0a0 9e46 a217 b846 bbd7 e745 c5ad 4347

weight f4 [4, 4, 1, 1]
0.04518134 -1.1521438 -1.141651 0.004530232 0.35046038 0.5670932 0.46813056 -0.21412043
0.32650205 -0.35003188 0.18814366 -0.8565734 0.7459462 -0.5289133 -0.024265818 0.10389008
00000000: 1210 393d 7379 93bf 9f21 92bf 5772 943b
00000010: 8b6f b33e 052d 113f cfae ef3e 6342 5bbe
00000020: 472b a73e 6137 b3be bba8 403e 6548 5bbf
00000030: 55f6 3e3f dd66 07bf 1cc9 c6bc 52c4 d43d

weight f4 [4]
1.0411096 0.90979373 1.0840946 0.6128614
00000000: 1443 853f 3ee8 683f 9dc3 8a3f 7ce4 1c3f

bias f4 [4]
1.137997 0.32671347 0.27484453 1.0193489
00000000: e3a9 913f fd46 a73e 6cb8 8c3e 067a 823f

running_mean f4 [4]
-1.1023788 0.8930632 -0.05837798 0.5651955
00000000: c01a 8dbf ca9f 643f c01d 6fbd a7b0 103f

running_var f4 [4]
10.904858 2.6057074 1.6941121 1.297719
00000000: 4c7a 2e41 e9c3 2640 aad8 d83f a81b a63f

weight f4 [4, 4, 3, 3]
1.021493 0.14032854 0.04241229 -0.47530094 -0.6741452 -0.28048846 -0.33325902 -0.46561703
-0.008224223 -0.46044612 0.0008499161 0.22891276 -0.32329473 0.1622067 0.1893995 -0.37787837
0.17152983 0.27301905 -0.03451307 0.13842048 -0.6794274 -0.04335977 -0.5066981 -0.053328525
0.05996981 0.13665293 -0.15150996 -0.017057592 0.22342747 0.041184213 0.23842788 -0.16247933
0.19942714 -0.32515645 -0.052776046 0.48367938 -0.15190905 -0.38801822 -0.29963517 -0.08126934
-0.060899496 0.001608242 0.5843389 -0.24246688 0.7246934 0.32229045 -0.104621604 0.3281513
-0.05689986 -0.21975903 -0.48013902 -1.0851637 0.04733525 -0.3414512 0.082583085 0.1025916
0.32042733 0.10693827 -0.5565803 0.59391296 -0.023736265 -0.65220904 0.020011498 -0.20518205
0.7559094 -0.3423495 -0.26698005 0.27188835 -0.7468769 -0.50830346 -0.7526469 0.23069184
0.31815016 0.31786624 0.32341236 -0.6467182 -0.8621161 -0.12642716 -0.012344797 -0.6332459
-0.008532179 -0.29067993 -0.107939765 -0.51462454 -0.23503721 -0.030779757 -0.20568274 0.46954584
0.11783547 0.29165938 0.13211493 0.17699857 0.3348105 0.019501746 -0.4193006 -0.2601559
-0.12373732 -0.14084144 -0.18897699 0.21881844 0.11856143 0.22708586 0.3010884 0.18462877
0.30190352 -0.0066524907 -0.18227997 0.22565217 0.50456476 -0.25104934 -0.4967193 -0.6361077
-0.09549051 0.36586145 0.40976682 0.26776925 0.14690389 -0.16323912 0.018507998 0.06685563
0.00218789 0.070576206 0.17886856 0.5856534 0.15793319 0.43231624 0.03699296 0.057100996
-0.16902962 0.5413986 -0.23794685 -0.013461178 0.805482 0.9463765 -0.0814265 -0.28153193
-0.22921364 0.065909974 0.026440741 -0.46767193 0.22356245 0.6290947 0.2799035 0.3813696
00000000: 48c0 823f 49b2 0f3e 82b8 2d3d a55a f3be
00000010: c894 2cbf 2f9c 8fbe eda0 aabe 5b65 eebe
00000020: e4be 06bc 98bf ebbe e7cc 5e3a 1b68 6a3e
00000030: e386 a5be 8319 263e f1f1 413e 4679 c1be
00000040: 84a5 2f3e 27c9 8b3e 945d 0dbd 19be 0d3e
00000050: f4ee 2dbf 049a 31bd f7b6 01bf 036f 5abd
00000060: e7a2 753d bfee 0b3e 6d25 1bbe 5dbc 8bbc
00000070: 2cca 643e c7b0 283d 7026 743e fb60 26be
00000080: a136 4c3e e87a a6be b22b 58bd d3a4 f73e
00000090: 0c8e 1bbe 53aa c6be c869 99be 8a70 a6bd
000000a0: c071 79bd a6cb d23a 3c97 153f 3d49 78be
000000b0: 8285 393f 4103 a53e da43 d6bd 7203 a83e
000000c0: d40f 69bd 8308 61be c8d4 f5be a5e6 8abf
000000d0: 9be2 413d b1d2 aebe 5221 a93d 8b1b d23d
000000e0: 0d0f a43e 7402 db3d 0c7c 0ebf ae0a 183f
000000f0: 8e72 c2bc 2cf7 26bf 27ef a33c 3e1b 52be
00000100: 4783 413f 6f48 afbe 9cb1 88be f334 8b3e
00000110: 5333 3fbf 2d20 02bf 78ad 40bf 7b3a 6c3e
00000120: 94e4 a23e 5dbf a23e 4e96 a53e 538f 25bf
00000130: a4b3 5cbf 1f76 01be d541 4abc 671c 22bf
00000140: 8dca 0bbc 00d4 94be 860f ddbd 6fbe 03bf
00000150: 98ad 70be d425 fcbc 7f9e 52be 5068 f03e
00000160: b953 f13d 6154 953e 2349 073e 1d3f 353e
00000170: 486c ab3e 20c2 9f3c 91ae d6be 2733 85be
00000180: fe69 fdbd bd38 10be 2f83 41be f111 603e
00000190: 56d0 f23d 3289 683e 4228 9a3e 530f 3d3e
000001a0: 1993 9a3e 23fd d9bb 9aa7 3abe 5d11 673e
000001b0: 282b 013f 8a89 80be fe51 febe f4d7 22bf
000001c0: 8790 c3bd 3152 bb3e f5cc d13e 0d19 893e
000001d0: f96d 163e 2828 27be 169e 973c 9beb 883d
000001e0: b462 0f3b 428a 903d 5229 373e 62ed 153f
000001f0: 3db9 213e 8e58 dd3e ee85 173d bce2 693d
00000200: 1a16 2dbe 1999 0a3f 57a8 73be 468c 5cbc
00000210: 1134 4e3f bb45 723f f0c2 a6bd f424 90be
00000220: fbb6 6abe cffb 863d 419a d83c b272 efbe
00000230: 8eed 643e 5a0c 213f 834f 8f3e e042 c33e

weight f4 [4]
0.992963 1.2765857 1.0206081 1.0276163
00000000: d332 7e3f 2967 a33f 49a3 823f ee88 833f

bias f4 [4]
0.029690284 -0.15635091 0.13204147 -0.8077315
00000000: 0a39 f33c 741a 20be e135 073e 7ec7 4ebf

running_mean f4 [4]
-1.2357779 -1.8940749 -0.64839756 2.0484605
00000000: f82d 9ebf 0c71 f2bf 62fd 25bf fa19 0340

running_var f4 [4]
1.0671179 3.7511117 1.731586 1.8172331
00000000: 5297 883f 3712 7040 9ca4 dd3f 189b e83f

weight f4 [16, 4, 1, 1]
0.36435673 -0.94287825 -0.13946243 0.6462546 0.41511983 -0.08184216 0.121295206 -0.50493
-0.45611554 -0.16327037 0.52424496 0.31043634 0.46054894 -0.31662768 -0.6108687 0.19207421
-0.2281496 0.19460557 -0.16934806 -0.9327554 -0.18927553 0.08346957 0.1536047 -0.94139713
0.025085328 0.07762734 0.50175434 0.7180471 0.37108597 0.036613103 0.28178605 0.3063295
-0.62145585 -0.16495809 -0.26955748 -0.016317906 0.24796084 1.2967995 0.40351877 0.17159165
0.43123662 -0.6462246 -0.2778809 -0.40539885 0.30398613 -0.8212325 -0.6985263 0.21018621
-0.81630373 0.083018355 -0.3073772 0.43532282 -0.69444203 -0.3320937 -0.3478455 0.33148876
-0.49936846 0.20949417 -0.5795862 -0.48080564 -0.23664133 1.6199846 -0.094148844 -0.290586
00000000: f78c ba3e 7860 71bf 3dcf 0ebe f170 253f
00000010: 968a d43e dd9c a7bd 9f69 f83d 1843 01bf
00000020: fa87 e9be 5930 27be eb34 063f 83f1 9e3e
00000030: 12cd eb3e 061d a2be e461 1cbf 1aaf 443e
00000040: 0ca0 69be af46 473e 9469 2dbe 0fc9 6ebf
00000050: 72d1 41be 18f2 aa3d 8d4a 1d3e 67ff 70bf
00000060: bf7f cd3c 15fb 9e3d f972 003f efd1 373f
00000070: fbfe bd3e 9ff7 153d 4346 903e 38d7 9c3e
00000080: bb17 1fbf c6ea 28be 7003 8abe 21ad 85bc
00000090: 72e9 7d3e 87fd a53f 039a ce3e b9b5 2f3e
000000a0: 0ccb dc3e fa6e 25bf 6846 8ebe 7090 cfbe
000000b0: 12a4 9b3e 4b3c 52bf 9fd2 32bf 0e3b 573e
000000c0: 48f9 50bf 8705 aa3d 8b60 9dbe a2e2 de3e
000000d0: f4c6 31bf 2f08 aabe ce18 b2be e5b8 a93e
000000e0: 39ad ffbe a485 563e c35f 14bf 282c f6be
000000f0: 1b52 72be a85b cf3f 1cd1 c0bd b0c7 94be

weight f4 [16]
0.4734031 1.3569582 0.75398433 1.0005836 1.1829678 1.4989736 0.89252883 1.1300861
0.7376263 1.0263728 1.0223612 1.0536861 1.0726819 1.2724506 1.407249 1.1417859
00000000: e461 f23e ceb0 ad3f 1e05 413f 2013 803f
00000010: 7d6b 973f 5ede bf3f c57c 643f a9a6 903f
00000020: 14d5 3c3f 2f60 833f bbdc 823f 30df 863f
00000030: a44d 893f a9df a23f bc20 b43f 0a26 923f

bias f4 [16]
-0.15350974 -0.55479187 -0.23538557 0.37043658 0.110366136 0.58471185 0.02591948 -0.30792174
0.18905284 -1.066143 -0.49026972 0.00030883623 -0.06467872 -0.25960016 0.5319423 -0.6834092
00000000: a831 1dbe d706 0ebf ea08 71be dda9 bd3e
00000010: a407 e23d adaf 153f 1755 d43c eba7 9dbe
00000020: 1197 413e 6077 88bf a204 fbbe 4ceb a139
00000030: 4776 84bd 50ea 84be 5f2d 083f e8f3 2ebf

running_mean f4 [16]
-0.008211969 0.036503553 0.073324725 -0.09410572 -0.19221792 -0.10937993 0.24866848 0.19489273
-0.21869807 0.35545635 -0.13450049 -0.21540762 -0.1715386 -0.22963873 -0.2912507 0.10722246
00000000: 7f8b 06bc c084 153d 462b 963d 80ba c0bd
00000010: c6d4 44be 9602 e0bd f3a2 7e3e f691 473e
00000020: 63f2 5fbe 60fe b53e 7fba 09be d193 5cbe
00000030: d1a7 2fbe 6a26 6bbe d01e 95be 7397 db3d

running_var f4 [16]
0.37958646 0.13936299 0.17430128 0.1205655 0.7271442 0.4354141 0.6389738 0.38898674
0.4502416 0.31812242 0.12768027 0.15138714 0.5318243 0.45441893 1.0488132 0.2825689
00000000: 2859 c23e 2cb5 0e3e 097c 323e 0beb f63d
00000010: 1f26 3a3f 99ee de3e c993 233f 4529 c73e
00000020: 1186 e63e f1e0 a23e 9ebe 023e 3b05 1b3e
00000030: a325 083f 99a9 e83e 833f 863f dfac 903e

weight f4 [16, 4, 1, 1]
-0.22944373 -0.3825572 0.26172945 0.5805222 -0.121684216 0.16391431 -0.40030363 -0.5332329
0.54096156 0.28305238 0.22164498 0.2312139 0.1773317 0.1596902 -0.94536704 -0.1855783
-0.7985118 0.23489065 0.16295144 -0.040569786 -0.41164538 -0.042269103 0.34385493 0.3159196
0.0004879548 -1.0541412 -0.17642595 -0.30271658 0.19801648 0.37880346 -0.24076228 -0.6162211
-0.37730405 0.86321443 -0.008460883 0.20281665 -0.008455259 0.5566718 0.921376 0.22872494
0.43776697 -0.25062868 -0.14697927 -0.40353185 -0.07046735 -0.13189895 0.89958036 0.38249117
0.3856013 0.061514795 0.62633157 0.5065008 0.0035484384 -0.2208481 -0.18554492 0.43972713
0.21973807 0.06921602 0.568985 0.4182757 0.22998565 0.7039507 0.073378175 -0.5741122
00000000: 4cf3 6abe 8ade c3be 6701 863e 1a9d 143f
00000010: 9335 f9bd 27d9 273e 99f4 ccbe f481 08bf
00000020: 757c 0a3f 3eec 903e e7f6 623e 56c3 6c3e
00000030: 7196 353e d485 233e 9303 72bf 3d08 3ebe
00000040: 456b 4cbf 2d87 703e bedc 263e 812c 26bd
00000050: 2fc3 d2be 5e22 2dbd c10d b03e 37c0 a13e
00000060: 2fd4 ff39 19ee 86bf 01a9 34be abfd 9abe
00000070: d5c4 4a3e 87f2 c13e 638a 76be aac0 1dbf
00000080: ff2d c1be 9ffb 5c3f 849f 0abc 2baf 4f3e
00000090: ed87 0abc 0b82 0e3f 4cdf 6b3f df36 6a3e
000000a0: fe22 e03e 6752 80be bc81 16be ba9b cebe
000000b0: 3051 90bd 8510 07be e64a 663f e2d5 c33e
000000c0: 896d c53e f0f6 7b3d 4457 203f 09aa 013f
000000d0: eb8c 683b 0126 62be 7dff 3dbe ea23 e13e
000000e0: 0403 613e 21c1 8d3d 00a9 113f 3c28 d63e
000000f0: 5c81 6b3e 1d36 343f 4c47 963d 04f9 12bf

weight f4 [16]
0.76382995 0.9191874 0.24018408 1.4108493 1.3437972 0.88221467 1.6904086 0.83630764
1.199699 0.33371297 1.2116349 0.8505485 1.2226107 0.90213597 1.1916074 1.0996547
00000000: 5c8a 433f de4f 6b3f d1f2 753e b696 b43f
00000010: 8c01 ac3f d2d8 613f 4f5f d83f 4218 563f
00000020: bd8f 993f 6ddc aa3e da16 9b3f 8cbd 593f
00000030: 827e 9c3f 62f2 663f 9786 983f 7cc1 8c3f

bias f4 [16]
-0.15350974 -0.55479187 -0.23538557 0.37043658 0.110366136 0.58471185 0.02591948 -0.30792174
0.18905284 -1.066143 -0.49026972 0.00030883623 -0.06467872 -0.25960016 0.5319423 -0.6834092
00000000: a831 1dbe d706 0ebf ea08 71be dda9 bd3e
00000010: a407 e23d adaf 153f 1755 d43c eba7 9dbe
00000020: 1197 413e 6077 88bf a204 fbbe 4ceb a139
00000030: 4776 84bd 50ea 84be 5f2d 083f e8f3 2ebf

running_mean f4 [16]
-0.2641378 -0.3402461 0.99238324 -0.031700775 -0.7839101 -0.32147118 -0.8542624 0.22214487
0.17701441 0.73832655 0.18406269 0.22879645 0.878925 -0.07327394 0.6277136 0.5990888
00000000: 123d 87be bd34 aebe d40c 7e3f acd8 01bd
00000010: 55ae 48bf df97 a4be f1b0 5abf f279 633e
00000020: 4443 353e f802 3d3f ee7a 3c3e 9e49 6a3e
00000030: 3b01 613f a610 96bd d7b1 203f e25d 193f

running_var f4 [16]
0.62842476 1.7156299 2.6468306 1.5501833 1.0552238 0.35090348 4.876498 0.71629757
1.9468338 5.6917906 0.6951536 2.4917085 4.4949346 0.3319915 2.9485765 1.1537796
00000000: 72e0 203f c399 db3f ac65 2940 686c c63f
00000010: 9311 873f 9fa9 b33e 460c 9c40 475f 373f
00000020: da31 f93f 2623 b640 96f5 313f 2778 1f40
00000030: 81d6 8f40 cafa a93e 7ab5 3c40 0daf 933f

weight f4 [8, 16, 1, 1]
0.13152488 -0.15481608 0.3241141 -0.45560572 0.04693883 -0.15855291 -0.11025044 0.07284666
-0.18233456 0.433251 0.016943172 0.56722414 -0.66139925 -0.067669936 -0.0130814975 0.5042908
-0.29536256 0.041359887 0.015703175 -0.49278823 0.4123592 0.39766487 -0.20076169 -0.52372694
0.15948397 -0.31539014 0.59033585 -0.3485075 -0.40740547 -0.19737189 -0.5095628 0.40190932
-0.12612437 0.42854944 -0.4314442 0.3372162 -0.3791027 0.16736491 0.5432996 0.24687123
0.20773895 -0.08277079 0.717039 0.15872657 -0.08513216 -0.4190846 0.48075444 0.37749475
-0.2781247 -0.07889491 0.022806322 0.5435426 0.57638735 -0.36564192 0.45757726 0.38628533
-0.7547485 0.13826564 0.14426737 -0.14417763 0.10526621 -0.23280914 0.5691682 0.30417252
0.22224438 -0.4140844 0.061147206 -0.40609336 0.3510831 0.01090024 0.1149923 -0.511709
-0.0009613348 0.19656073 -0.6011757 -0.27068618 0.36375067 0.45678177 0.44878238 0.5782819
0.23803158 0.4295119 0.3757715 -0.14020923 0.4693627 -0.22660366 -0.47517595 0.24045971
-0.15376224 0.2886732 0.34419867 -0.19168732 0.5145925 0.3738067 -0.47103173 0.6668505
-0.15011117 0.32969198 -0.042863052 0.2513418 0.41692042 0.2832866 -0.020296378 0.092238866
0.64582396 0.6115282 -0.5756755 -0.1321372 0.12436413 -0.025922168 -0.26813963 -0.27100644
0.14994814 0.4818235 -0.35684055 0.040341772 -0.53318125 -0.4955574 -0.17573093 0.2442755
-0.2458686 0.18599826 -0.2313422 0.27588534 0.6183695 -0.14901523 0.44609705 -0.23516273
00000000: 75ae 063e 1b88 1ebe 49f2 a53e 2745 e9be
00000010: ee42 403d b25b 22be fcca e1bd a130 953d
00000020: e9b5 3abe 13d3 dd3e 68cc 8a3c 9a35 113f
00000030: 7651 29bf 8996 8abd c753 56bc 3419 013f
00000040: c339 97be fc68 293d f2a3 803c bd4e fcbe
00000050: bf20 d33e bb9a cb3e 7994 4dbe f812 06bf
00000060: c44f 233e d17a a1be 4020 173f 936f b2be
00000070: 7397 d0be db1b 4abe b572 02bf 0fc7 cd3e
00000080: bf26 01be d56a db3e 41e6 dcbe 9aa7 ac3e
00000090: c019 c2be b561 2b3e af15 0b3f d0cb 7c3e
000000a0: 85b9 543e bb83 a9bd de8f 373f 3889 223e
000000b0: c559 aebd 4292 d6be 7225 f63e fe46 c13e
000000c0: 5c66 8ebe a893 a1bd 53d4 ba3c 9c25 0b3f
000000d0: 1f8e 133f 6b35 bbbe 9147 ea3e 31c7 c53e
000000e0: 3337 41bf 8295 0d3e d3ba 133e 4da3 13be
000000f0: d095 d73d 8565 6ebe 02b5 113f 80bc 9b3e
00000100: 0894 633e df02 d4be 7e75 7a3d 78eb cfbe
00000110: 2ac1 b33e ec96 323c 1581 eb3d 5cff 02bf
00000120: 1602 7cba 3747 493e a7e6 19bf 6197 8abe
00000130: 873d ba3e 4ddf e93e cec6 e53e 480a 143f
00000140: 8dbe 733e fce8 db3e 1f65 c03e 0293 0fbe
00000150: 4f50 f03e ca0a 68be 434a f3be 123b 763e
00000160: d973 1dbe f9cc 933e cf3a b03e ae49 44be
00000170: 56bc 033f 9763 bf3e 122b f1be b7b6 2a3f
00000180: beb6 19be 63cd a83e 2b91 2fbd dfaf 803e
00000190: 9876 d53e f10a 913e 9744 a6bc bbe7 bc3d
000001a0: b854 253f 1d8d 1c3f 785f 13bf f94e 07be
000001b0: 9fb2 fe3d ba5a d4bc 9949 89be 5bc1 8abe
000001c0: 018c 193e 92b1 f63e ceb3 b6be 6a3d 253d
000001d0: 917e 08bf b3b9 fdbe cff2 33be 5b23 7a3e
000001e0: fac4 7bbe 5476 3e3e f8e4 6cbe d840 8d3e
000001f0: 774d 1e3f 7397 18be d566 e43e 80ce 70be

weight f4 [8]
1.1049459 1.3260045 0.8947819 0.90972674 1.1098859 0.9868079 1.1074193 1.0041698
00000000: de6e 8d3f 84ba a93f 6d10 653f dae3 683f
00000010: be10 8e3f 719f 7c3f eabf 8d3f a388 803f

bias f4 [8]
-0.13145617 0.6004879 -0.3726137 0.15947974 0.401212 -0.117774025 -0.53137475 -0.18444213
00000000: 729c 06be 93b9 193f 39c7 bebe a84e 233e
00000010: a96b cd3e 8233 f1bd 2d08 08bf 66de 3cbe

running_mean f4 [8]
-0.60083824 -0.52393305 1.1614314 0.8936028 0.3962736 -0.59075236 0.94094396 -0.41855636
00000000: 89d0 19bf 7a20 06bf c9a9 943f 27c3 643f
00000010: 60e4 ca3e 8c3b 17bf b4e1 703f 054d d6be

running_var f4 [8]
0.61820006 1.6944034 0.48493943 0.5536207 1.1757854 1.1023145 0.4471713 0.8118721
00000000: 5c42 1e3f 36e2 d83f fb49 f83e 16ba 0d3f
00000010: 2380 963f a418 8d3f a3f3 e43e dad6 4f3f

weight f4 [8, 8, 3, 3]
0.15300189 -0.095032275 -0.07034571 0.2524416 -0.076185346 -0.088484935 0.2469487 -0.006771704
-0.17586829 0.03734584 -0.43922922 -0.36995387 -0.17293225 -0.30576703 0.16864738 0.43026435
-0.115510955 0.20740363 -0.46915174 -0.28206557 0.7483251 -0.18392956 -0.015591834 0.5374569
0.029547414 0.25420433 0.5943581 0.4013318 -0.17910361 -0.64348036 0.17541763 0.056774765
-0.49909484 0.31447646 0.066329315 0.03925963 0.5655308 0.7635659 0.4826492 0.54978883
-0.004264373 0.4705776 0.17232062 0.29175714 0.19422297 -0.24319613 -0.17120366 -0.5072557
0.13746572 0.25753462 -0.07888132 0.39348826 0.3501347 0.2935994 -0.38944864 -0.15109575
0.23025091 -0.44735327 -0.39801502 -0.07729927 -0.47002852 -0.6135691 -0.45255584 0.0338875
-0.02008153 -0.24900836 -0.0505285 -0.25540018 -0.5671885 0.21000493 0.09658632 -0.6472528
-0.33308297 -0.0067791184 0.3114175 0.32197493 -0.086285 0.156335 0.40272024 0.27822703
0.1834536 -0.08624504 -0.2615699 -0.24842875 -0.12261215 -0.5764502 -1.0782582 0.024547454
-0.8007629 -0.7828101 0.2733675 -0.0024090577 0.12875889 -0.05841046 -0.085446626 -0.049456343
-0.27992266 -0.2682372 0.122542515 0.12439148 0.17165229 0.11103484 0.29611912 0.021746041
-0.60687405 -0.49721992 -1.080285 -0.5582369 0.036208495 0.25122786 0.32915843 -0.27884147
-0.3984916 0.14685722 0.19715545 0.24328022 0.29857838 -0.31417707 -0.15932737 -0.37887028
-0.45255288 -0.16953711 -0.45502648 -0.39379174 -0.30340695 -0.20558046 -0.2139434 -0.3486136
-0.11594074 -0.54809934 -0.3879156 -0.27737305 -0.21219324 -0.26522347 -0.2638846 0.18014376
0.10434833 0.16575323 0.25040603 -0.0434944 0.12337924 0.20040438 0.3079558 -0.12944493
0.11089736 -0.15590478 -0.48189723 -0.15999821 -0.39952633 -0.14835659 0.098817386 -0.22966568
-0.07027217 -0.09679088 -0.25142154 -0.37121803 0.168961 -0.8708452 -0.85181093 0.13790835
-0.84489477 -0.6255893 0.14298658 0.13250257 0.16630104 0.28101683 0.45593306 0.08291171
0.10729463 0.13617235 0.4150119 -0.13014796 -0.9103212 -1.1285136 -0.29691008 -1.4245807
-0.8428298 -0.1520804 -0.13787775 -0.15745941 0.3479355 0.7978378 0.7906734 0.3716566
-0.22291376 0.23456347 -0.13140592 -0.22441173 -0.13793595 -0.10278166 -0.07541781 0.082738586
-0.40595585 0.34076205 0.1986593 -0.89974326 -0.7138351 -0.26681215 -0.12609051 0.100923076
0.11431656 0.35255155 0.37383437 -0.2844973 0.13468522 -0.19925708 -0.3874383 -0.02570957
0.041336875 0.027712025 0.1024566 -0.09575468 -0.18967468 -0.16736227 0.14286387 -0.34473962
0.11035534 0.008167444 -0.6026311 0.34758312 0.24238218 -0.1019688 0.15033665 0.4307883
0.22946215 0.22930396 0.107422076 0.014973584 0.030858953 -0.1157888 -0.106798686 -0.06522061
-0.4139738 -0.31020948 0.21505125 -0.04241394 -0.3151215 0.111228734 0.20706613 0.05986253
0.12183345 0.24173018 0.00019462101 -0.21298277 -0.43278587 -0.30607975 -0.4149043 -0.45752385
-0.08135597 -0.313791 -0.65588564 -0.007029023 -0.12817904 -0.30941984 -0.64307266 0.2723064
00000000: 87ac 1c3e 48a0 c2bd 6911 90bd 0740 813e
00000010: 1007 9cbd 9737 b5bd 1fe0 7c3e 2ce5 ddbb
00000020: d116 34be f4f7 183d a7e2 e0be 986a bdbe
00000030: 2715 31be 7f8d 9cbe e6b1 2c3e 9c4b dc3e
00000040: 0291 ecbd 9e61 543e a834 f0be e66a 90be
00000050: 3c92 3f3f 0858 3cbe e474 7fbc c796 093f
00000060: 6b0d f23c 1227 823e da27 183f 5d7b cd3e
00000070: f066 37be 21bb 24bf aea0 333e a88c 683d
00000080: 5c89 ffbe 0f03 a13e aad7 873d b5ce 203d
00000090: a0c6 103f 0e79 433f cc1d f73e f6be 0c3f
000000a0: 27bc 8bbb 8cef f03e d174 303e 3161 953e
000000b0: 63e2 463e 6808 79be 0350 2fbe 82db 01bf
000000c0: d0c3 0c3e 94db 833e 888c a1bd 4b77 c93e
000000d0: db44 b33e a952 963e d065 c7be d8b8 1abe
000000e0: e5c6 6b3e 7d0b e5be a0c8 cbbe 144f 9ebd
000000f0: 94a7 f0be dd12 1dbf 66b5 e7be 9fcd 0a3d
00000100: 0582 a4bc 0cfc 7ebe f9f6 4ebd d0c3 82be
00000110: 4433 11bf 880b 573e 0ccf c53d 5cb2 25bf
00000120: da89 aabe 5e23 debb 1d72 9f3e e6d9 a43e
00000130: 31b6 b0bd 4816 203e 5931 ce3e c673 8e3e
00000140: 43db 3b3e 3da1 b0bd 7dec 85be 1b64 7ebe
00000150: 141c fbbd 3e92 13bf 5d04 8abf be17 c93c
00000160: ccfe 4cbf 3e66 48bf d3f6 8b3e 48e1 1dbb
00000170: 5fd9 033e ce3f 6fbd a4fe aebd bc92 4abd
00000180: 0652 8fbe 6356 89be 92f7 fa3d f6c0 fe3d
00000190: 9ec5 2f3e 3c66 e33d ed9c 973e c124 b23c
000001a0: 195c 1bbf 9c93 febe c746 8abf 9de8 0ebf
000001b0: 5c4f 143d f0a0 803e 7487 a83e 4fc4 8ebe
000001c0: 1707 ccbe bd61 163e 1ee3 493e 731e 793e
000001d0: 44df 983e d1db a0be b726 23be 49fb c1be
000001e0: 03b5 e7be 239b 2dbe 3bf9 e8be 129f c9be
000001f0: 2858 9bbe af83 52be fb13 5bbe 7b7d b2be
00000200: 5772 edbd 3d50 0cbf e09c c6be d703 8ebe
00000210: 2f49 59be 5fcb 87be e21b 87be 9b77 383e
00000220: 94b4 d53d 37bb 293e 3835 803e 2f27 32bd
00000230: 41ae fc3d ce36 4d3e 62ac 9d3e 368d 04be
00000240: 281e e33d 81a5 1fbe 3cbb f6be 92d6 23be
00000250: b78e ccbe caea 17be c560 ca3d 7b2d 6bbe
00000260: dbea 8fbd 4c3a c6bd 53ba 80be 4a10 bebe
00000270: 1d04 2d3e b6ef 5ebf 4810 5abf d937 0d3e
00000280: 064b 58bf 9f26 20bf 136b 123e c1ae 073e
00000290: d24a 2a3e 70e1 8f3e 0f70 e93e 9dcd a93d
000002a0: 49bd db3d c470 0b3e 717c d43e 8245 05be
000002b0: cf0a 69bf 2273 90bf 9904 98be a958 b6bf
000002c0: b2c3 57bf f7ba 1bbe d32f 0dbe 0a3d 21be
000002d0: 9a24 b23e 193f 4c3f 9269 4a3f c649 be3e
000002e0: 8143 64be 6831 703e 468f 06be 30cc 65be
000002f0: 153f 0dbe 317f d2bd a774 9abd d972 a93d
00000300: 72d9 cfbe 5d78 ae3e 586d 4b3e 9355 66bf
00000310: e6bd 36bf 9a9b 88be df1d 01be c2b0 ce3d
00000320: cd1e ea3d a381 b43e 3867 bf3e a1a9 91be
00000330: ecea 093e 0c0a 4cbe 505e c6be e09c d2bc
00000340: db50 293d 5404 e33c c4d4 d13d 081b c4bd
00000350: 143a 42be 0461 2bbe e84a 123e b681 b0be
00000360: fb01 e23d bed0 053c 0846 1abf 6af6 b13e
00000370: 0933 783e 05d5 d0bd daf1 193e 4990 dc3e
00000380: 20f8 6a3e a8ce 6a3e 1b00 dc3d c353 753c
00000390: eacb fc3c ae22 edbd 45b9 dabd 6292 85bd
000003a0: 60f4 d3be c7d3 9ebe 6536 5c3e 3dba 2dbd
000003b0: 9b57 a1be e4cb e33d 2509 543e 6a32 753d
000003c0: d183 f93d 1e88 773e 2e13 4c39 2818 5abe
000003d0: 1c96 ddbe 7cb6 9cbe 566e d4be 9140 eabe
000003e0: f59d a6bd 37a9 a0be 1fe8 27bf b853 e6bb
000003f0: 5e41 03be 476c 9ebe 69a0 24bf bf6b 8b3e

weight f4 [8]
0.73747796 1.2703648 1.1743631 1.5014184 1.0024608 0.8845247 1.0548122 0.6902328
00000000: 5bcb 3c3f 509b a23f 8851 963f 7a2e c03f
00000010: a350 803f 3670 623f 1604 873f 19b3 303f

bias f4 [8]
-0.78563285 -0.45902365 -0.62275004 -0.48564076 0.5712547 -0.8044158 0.3066516 -0.11369566
00000000: 3c1f 49bf 2605 ebbe 8c6c 1fbf e8a5 f8be
00000010: bf3d 123f 32ee 4dbf 7001 9d3e 45d9 e8bd

running_mean f4 [8]
0.81368273 -3.914005 -3.8996844 -1.6231194 0.5996473 -0.41199663 -0.43252826 0.17257184
00000000: 834d 503f 0f7f 7ac0 6e94 79c0 60c2 cfbf
00000010: 7c82 193f 39f1 d2be 5874 ddbe acb6 303e

running_var f4 [8]
5.636366 10.456334 11.865357 6.723458 9.164836 4.4359455 8.651351 3.6131191
00000000: 1c5d b440 254d 2741 81d8 3d41 9126 d740
00000010: 2ba3 1241 44f3 8d40 ef6b 0a41 583d 6740

weight f4 [32, 8, 1, 1]
-0.36255255 -0.48005652 0.7542431 0.033474617 0.05238631 0.32276836 0.08705338 0.21317855
1.4122716 0.2123093 -0.4335207 -0.49016565 0.04038318 0.27758116 0.1655854 -0.40256798
-0.3431804 0.6078303 0.7135227 0.5920574 -0.050762977 0.32825458 -0.42227 -0.3099436
0.026255036 -0.44743684 1.7512685 0.33524057 -0.28447077 0.010235362 0.18919994 -0.1525305
0.45659265 0.4315687 -0.2795466 -0.4860055 -0.025589455 0.67779756 -0.06587416 -0.328625
-0.4824569 0.061647616 -0.18016334 1.474966 -0.4706203 -0.068729565 0.1394821 0.065862335
0.47168326 -0.4246151 0.15549105 0.8464645 0.17897493 -0.45555702 0.08843556 0.03202113
-0.31666893 -0.56118834 0.4857884 0.19724317 0.8456116 -0.023327764 -0.49850753 0.42483386
0.29285926 0.5161592 -0.11268736 -0.105278194 -0.34282103 0.33348686 1.1345968 -0.031510778
-0.013259429 0.7606392 -0.2167734 -0.22064288 0.18282375 -0.5282725 0.26870438 0.26608807
-0.40694422 0.6688211 0.039282586 0.34300017 0.42790863 0.16311193 -0.7321627 -0.3126691
0.9830716 0.32650986 -0.81599987 -0.36810902 0.28055206 -0.26361904 0.30335483 -0.024869816
-0.5282578 -0.4032585 0.08678677 0.33066168 -0.32164443 0.28670767 0.041690197 0.49918637
-0.29814157 -0.40317386 0.22918613 -0.15223125 -0.2333353 -0.15053457 0.38862094 0.59354275
0.21112326 0.16527134 1.265978 0.34204477 -0.33818135 -0.33573544 0.2769028 0.12253877
-0.023402568 -0.6203425 0.33028302 0.26771322 1.3166951 -0.30566052 -0.1405316 0.37313998
-0.2505072 -0.058470093 0.1263861 -0.19535 0.027666708 -0.50966674 -0.11186952 0.71794206
0.20380406 1.6255859 -0.1895989 -0.14450234 -0.15690917 -0.18687168 0.026861489 -0.004645372
-0.42422217 0.32235044 0.4896535 1.1940762 -0.113148816 0.055812847 -0.5229333 -0.034874998
0.23396441 0.07957981 0.7810613 -0.5653128 -0.7517064 0.076179266 0.20068656 -0.46989372
-0.8305972 -0.2794016 0.25278643 0.4278135 0.21784587 -0.26472518 -0.49242803 0.5897228
0.29784977 -0.025951704 -0.026731728 0.19854571 -0.1495595 0.9898337 0.32085136 -0.22911711
-0.45591825 -0.595237 0.092491195 0.06174435 -0.30056357 -0.21943812 0.2710728 0.7531013
0.060528062 -0.28654885 0.27267632 1.5621818 -0.07620367 -0.029045532 -0.121208586 0.0048481156
-0.24795741 -0.66273874 0.059859645 0.40928298 -0.3650319 0.2651543 0.54212385 0.3149183
0.9282701 -0.23765215 0.05343497 -0.19189975 0.67942494 0.021255847 -0.16570109 -0.33581245
0.288685 0.14568584 -0.1245673 0.17520356 -0.3314487 0.5701061 0.68565154 -0.16900882
-0.271101 0.16666655 1.4414968 0.63543653 -0.012840203 0.2878222 -0.25316596 -0.25897023
0.068568096 0.2847406 -0.074691795 -0.327439 0.29092222 -0.381871 0.88605946 0.30937102
0.36939722 -0.32709804 0.24900761 1.2893022 0.33751327 -0.08102984 -0.35195962 0.05497794
0.1424989 -0.18856938 -0.036692895 0.06506854 1.5529307 -0.023561303 -0.3056488 0.24585865
-0.19893837 -0.35737267 0.5315306 0.34666094 0.7056444 0.4461168 -0.34599838 0.25276086
00000000: 7da0 b9be f8c9 f5be 1316 413f ae1c 093d
00000010: 0793 563d e541 a53e 0b49 b23d 7a4b 5a3e
00000020: 51c5 b43f 9c67 593e 6df6 ddbe fef6 fabe
00000030: d568 253d 1e1f 8e3e 388f 293e 641d cebe
00000040: 57b5 afbe c49a 1b3f 6ca9 363f 1391 173f
00000050: d7ec 4fbd fc10 a83e c633 d8be edb0 9ebe
00000060: cd14 d73c 7116 e5be 9129 e03f a7a4 ab3e
00000070: 27a6 91be 38b2 273c a1bd 413e f530 1cbe
00000080: 83c6 e93e 93f6 dc3e bb20 8fbe b7d5 f8be
00000090: faa0 d1bc 2484 2d3f 08e9 86bd 8941 a8be
000000a0: 9704 f7be 3682 7c3d bd7c 38be b0cb bc3f
000000b0: 25f5 f0be 16c2 8cbd 65d4 0e3e d5e2 863d
000000c0: 7880 f13e 2667 d9be 0c39 1f3e e6b1 583f
000000d0: 3445 373e c53e e9be b41d b53d 9728 033d
000000e0: 6e22 a2be 0aaa 0fbf 42b9 f83e 1dfa 493e
000000f0: 007a 583f de19 bfbc 613c ffbe d383 d93e
00000100: a6f1 953e 0223 043f a1c8 e6bd 189c d7bd
00000110: 3d86 afbe cabe aa3e 783a 913f 7211 01bd
00000120: 133e 59bc 40b9 423f d9f9 5dbe 35f0 61be
00000130: 2636 3b3e de3c 07bf 9f93 893e b23c 883e
00000140: fe5a d0be dc37 2b3f c7e6 203d b89d af3e
00000150: d716 db3e d006 273e 046f 3bbf 2a16 a0be
00000160: 95aa 7b3f 4d2c a73e 5ee5 50bf c978 bcbe
00000170: 85a4 8f3e 13f9 86be 5351 9b3e c9bb cbbc
00000180: e73b 07bf e677 cebe 43bd b13d 7d4c a93e
00000190: 94ae a4be 59cb 923e 57c3 2a3d 5b95 ff3e
000001a0: 03a6 98be ce6c cebe c5af 6a3e 82e2 1bbe
000001b0: 73ef 6ebe bc25 1abe 53f9 c63e 6bf2 173f
000001c0: b230 583e e43c 293e 910b a23f 7e20 af3e
000001d0: 1b26 adbe 84e5 abbe 34c6 8d3e 9bf5 fa3d
000001e0: beb6 bfbc c4ce 1ebf db1a a93e b511 893e
000001f0: 7789 a83f 897f 9cbe 84e7 0fbe 340c bf3e
00000200: 7b42 80be 567e 6fbd 5c6b 013e d509 48be
00000210: 4ba5 e23c 8579 02bf d91b e5bd 0dcb 373f
00000220: 03b2 503e 3313 d03f 3726 42be 6cf8 13be
00000230: ccac 20be 4a5b 3fbe a00c dc3c 3438 98bb
00000240: a633 d9be 1e0b a53e ddb3 fa3e 7dd7 983f
00000250: 91ba e7bd 039c 643d f5de 05bf 16d9 0ebd
00000260: 5e94 6f3e bdfa a23d a2f3 473f 57b8 10bf
00000270: d56f 40bf e003 9c3d c780 4d3e e995 f0be
00000280: 05a2 54bf ba0d 8fbe 396d 813e 5f0a db3e
00000290: fd12 5f3e 0f8a 87be 871f fcbe 13f8 163f
000002a0: c47f 983e ab98 d4bc 7ffc dabc 914f 4b3e
000002b0: 2026 19be be65 7d3f a146 a43e ad9d 6abe
000002c0: 1e6e e9be 7461 18bf 066c bd3d a5e7 7c3d
000002d0: 78e3 99be 63b4 60be 0eca 8a3e 3fcb 403f
000002e0: 46ec 773d 88b6 92be 3b9c 8b3e 93f5 c73f
000002f0: ab10 9cbd e5f0 edbc 353c f8bd f1dc 9e3b
00000300: 8ce8 7dbe 3fa9 29bf 632f 753d 8a8d d13e
00000310: 76e5 babe 4ec2 873e a1c8 0a3f f93c a13e
00000320: 1ca3 6d3f 165b 73be a1de 5a3d 5e81 44be
00000330: cbee 2d3f be20 ae3c 8cad 29be 9cef abbe
00000340: 85ce 933e ab2e 153e 241d ffbd 9068 333e
00000350: a5b3 a9be 79f2 113f dc86 2f3f a610 2dbe
00000360: c0cd 8abe a3aa 2a3e f882 b83f f8ab 223f
00000370: b75f 52bc 6e5d 933e f89e 81be bf97 84be
00000380: 6e6d 8c3d 85c9 913e 03f8 98bd 16a6 a7be
00000390: c2f3 943e 9984 c3be cbd4 623f e165 9e3e
000003a0: a221 bd3e 6579 a7be dafb 7e3e db07 a53f
000003b0: 8ace ac3e f9f2 a5bd 0d34 b4be 8c30 613d
000003c0: 3beb 113e 5518 41be 4a4b 16bd a842 853d
000003d0: 6fc6 c63f a203 c1bc 007e 9cbe 5fc2 7b3e
000003e0: 80b6 4bbe 8df9 b6be 6412 083f 8b7d b13e
000003f0: 1da5 343f 6c69 e43e b326 b1be df69 813e

weight f4 [32]
4.6202164 5.106855 4.552643 6.3127313 5.0137377 5.4413147 4.99372 4.9783764
4.7288647 3.7637212 5.5239897 5.1107416 4.8293624 4.0347776 5.613798 5.4264126
3.695853 6.788933 5.148762 5.3218565 4.807486 4.903498 3.9100616 7.4505124
4.41885 4.6393433 4.759638 5.7113504 3.8306272 5.2353406 5.235227 4.060824
00000000: d0d8 9340 5b6b a340 40af 9140 e501 ca40
00000010: 8a70 a040 401f ae40 8ecc 9f40 dc4e 9f40
00000020: dc52 9740 cfe0 7040 86c4 b040 328b a340
00000030: 238a 9a40 e61c 8140 3ca4 b340 2ca5 ad40
00000040: db88 6c40 f03e d940 a9c2 a440 a64c aa40
00000050: edd6 9940 75e9 9c40 733e 7a40 996a ee40
00000060: 3867 8d40 8075 9440 f44e 9840 62c3 b640
00000070: ff28 7540 e987 a740 fb86 a740 45f2 8140

bias f4 [32]
0.22951351 0.3724117 0.83264554 0.31587496 0.57235867 0.53554434 0.19508101 0.3612536
0.2381488 0.25505728 0.4415696 0.23233029 0.4988391 0.42274657 -0.26587248 -0.3002673
0.1984647 0.4513784 0.38440493 0.6623982 0.3192595 0.33669585 0.3731128 0.3854806
0.32199422 0.35555664 0.3289292 0.59103554 -0.08416214 0.41409874 -0.39449576 0.020260444
00000000: 9705 6b3e bfac be3e 4228 553f 5dba a13e
00000010: 1986 123f 6f19 093f 51c3 473e 3bf6 b83e
00000020: 47dd 733e de96 823e 6915 e23e fee7 6d3e
00000030: d767 ff3e 3d72 d83e 7020 88be a3bc 99be
00000040: 553a 4b3e 121b e73e b9d0 c43e ee92 293f
00000050: fb75 a33e 6663 ac3e a408 bf3e b75d c53e
00000060: 6ddc a43e 850b b63e 6869 a83e 1b4e 173f
00000070: 335d acbd c004 d43e 59fb c9be 3bf9 a53c

running_mean f4 [32]
0.10898959 0.16325401 -0.21648268 -0.08669448 -0.01847766 -0.25392848 0.19319841 0.3868972
0.3487937 0.2683622 -0.062631175 0.36616054 -0.17715482 0.048014417 -0.048699085 0.88818556
-0.0044832323 -0.052302156 -0.30080652 -0.46182218 -0.08510994 0.11319053 -0.05802993 -0.06388122
0.027902616 0.4144101 0.13798554 -0.091655925 0.6494088 0.13109908 0.9809022 0.39671004
00000000: ef35 df3d 0f2c 273e a3ad 5dbe e08c b1bd
00000010: 765e 97bc ea02 82be ced5 453e 6417 c63e
00000020: 1695 b23e c566 893e c644 80bd 6579 bb3e
00000030: 1368 35be c4aa 443d b178 47bd 2160 633f
00000040: 14e8 92bb c93a 56bd 5003 9abe f573 ecbe
00000050: 1f4e aebd 70d0 e73d cbb0 6dbd 28d4 82bd
00000060: 0794 e43c 902d d43e 154c 0d3e 1ab6 bbbd
00000070: a83f 263f d63e 063e 681c 7b3f 941d cb3e

running_var f4 [32]
0.09896563 0.2684432 0.121188276 0.33283678 0.090464346 0.1685173 0.12194074 0.21336353
0.19083166 0.12507957 0.1592057 0.16341561 0.13034412 0.11666408 0.2711885 0.33434618
0.12994146 0.18158156 0.15316574 0.319684 0.17867088 0.16182426 0.1553514 0.19554232
0.110493094 0.14816698 0.10983171 0.20507002 0.20114 0.19933318 0.48066762 0.22659819
00000000: 7eae ca3d 6371 893e 8f31 f83d 9569 aa3e
00000010: 5f45 b93d cd8f 2c3e 11bc f93d f87b 5a3e
00000020: 6069 433e dc14 003e d206 233e 6c56 273e
00000030: ee78 053e 94ed ee3d 38d9 8a3e 6c2f ab3e
00000040: 600f 053e 84f0 393e 7bd7 1c3e 9fad a33e
00000050: 80f5 363e 42b5 253e 7014 1f3e 3f3c 483e
00000060: 344a e23d 16b9 173e 73ef e03d e0fd 513e
00000070: a5f7 4d3e ff1d 4c3e 111a f63e 5b09 683e

weight f4 [32, 16, 1, 1]
0.099019915 0.6041468 -0.31921256 0.14643729 0.08215355 -0.27555847 0.51160914 0.04608208
0.17689595 0.10870944 0.14579119 0.13712506 -0.4806548 0.57619977 0.75015235 0.2068288
-0.3807357 0.024854971 -0.21143058 -0.035932086 -0.86951905 0.14123923 0.31730354 -0.22696623
-0.41935813 -0.166837 0.60925406 -0.36831966 0.14928375 0.5706482 0.5413849 0.80177164
0.07228078 -0.5094411 -0.10866699 0.07032307 0.0030581255 1.1166565 0.15010512 -0.018427439
0.27506828 -0.14984299 0.32544473 -0.039192077 -0.5195165 -0.64184105 -0.15084341 0.15627019
0.2923108 0.07572525 0.5697649 -0.0016494597 -0.16924712 -0.27513576 0.21837278 -0.20297901
-0.29523656 -0.41468 -0.54978126 -0.05005009 0.6178114 -0.58155835 0.57497287 -0.17886288
0.022476537 -0.06957887 -0.26947308 -0.027032256 -0.21555728 0.5494166 0.5074546 0.07742498
0.06725081 0.293518 0.57001 -0.14371575 -0.4891055 0.6558291 1.3829005 0.36356473
0.6228555 0.008898146 0.22068343 -0.19661489 -0.07249697 -0.11313773 -0.31916544 -0.32847482
0.07861618 0.17837027 1.3681636 -0.11169541 0.31557333 0.22406146 -0.8459481 0.17674391
0.16671821 0.15226631 -0.16846699 0.029167954 0.6315107 -0.35929874 -0.35967913 -0.39380747
-0.2504478 0.5946219 0.06501359 -0.101084255 0.5400523 -0.32462472 0.26597482 -0.026141824
-0.11248742 -0.1426175 0.039347246 -0.47541675 -0.101047084 -0.14427641 0.112840824 0.88609964
-0.31860825 0.1692718 -0.21399516 0.409601 -0.35551134 0.16421257 0.23003757 0.31221133
0.15941878 0.33243936 -0.16112009 -0.37135407 -0.95116407 -0.587573 0.14785975 0.09463797
-0.17869635 0.017700912 -0.41976985 -0.14655888 0.25355214 -0.121517695 1.1011325 -0.42004457
0.19567096 0.34472662 -0.12477826 -0.34078962 -0.53842115 -0.5965814 -0.7155114 -0.10319452
-0.21520428 0.092273764 -0.4085362 0.5914422 0.29230115 -0.45203635 0.5416812 0.018085856
0.50076807 -0.6643492 0.0116494065 -0.36360767 -0.26677245 0.30451515 0.45936978 -0.08567924
-0.2621209 0.03029881 0.7158811 0.18643788 -0.29297492 0.14687102 -0.35593846 0.13236757
0.17169957 -0.121897794 -0.12352585 -0.080054 0.61057764 -0.31594038 0.21672182 -0.31967482
-0.12359405 0.111508384 -0.03573717 0.13093837 0.32905713 0.60373724 -1.2554525 0.7348863
-0.18337685 0.87213284 0.33822984 0.39132234 -0.061269913 -0.3546526 0.28927177 0.1256035
0.22621286 -0.1459461 1.063249 0.4035863 -0.13866681 -0.3585959 -0.59418327 -0.3848035
0.39147532 1.285094 -0.03331567 -0.14358719 -0.21271876 -0.34477782 -0.026988167 -0.39047247
-0.111210674 -0.02953392 -0.33237335 0.17609768 0.38887268 -0.27882975 0.039334264 0.26032916
-0.13026741 0.007023545 0.11795364 0.27939472 -0.38468918 -0.53923386 -0.41133416 -0.19447266
-0.2610363 0.032219287 -0.48000795 -0.04133026 0.12901665 0.3102302 1.3670362 -0.50169015
-0.119234025 0.3048081 0.0027588843 0.08946826 -0.12506902 0.18465035 -1.0578461 0.14452234
-0.3309803 0.5346663 -0.42514268 -0.025284056 0.54071194 -0.20323575 0.3656977 -0.325584
00000000: f4ca ca3d 5da9 1a3f d46f a3be a8f3 153e
00000010: 1f40 a83d 0016 8dbe d1f8 023f 90c0 3c3d
00000020: 3624 353e 0ea3 de3d 494a 153e 836a 0c3e
00000030: 6318 f6be d481 133f fc09 403f eeca 533e
00000040: caef c2be a79c cb3c 4281 58be 862d 13bd
00000050: cd98 5ebf 04a1 103e 9c75 a23e d669 68be
00000060: 1cb6 d6be 52d7 2abe 13f8 1b3f 6594 bcbe
00000070: d7dd 183e 0016 123f 3398 0a3f e840 4d3f
00000080: f207 943d bb6a 02bf cd8c debd 8b05 903d
00000090: d56a 483b 9aee 8e3f 28b5 193e 24f5 96bc
000000a0: c0d5 8c3e 7170 19be b1a0 a63e df87 20bd
000000b0: 09ff 04bf b24f 24bf b276 1abe 4b05 203e
000000c0: c3a9 953e d715 9b3d 1ddc 113f af32 d8ba
000000d0: 1e4f 2dbe 98de 8cbe 1d9d 5f3e bbd9 4fbe
000000e0: 3f29 97be f050 d4be 77be 0cbf 5301 4dbd
000000f0: e328 1e3f 02e1 14bf 6c31 133f d527 37be
00000100: b720 b83c 5e7f 8ebd 60f8 89be c072 ddbc
00000110: 0cbb 5cbe 91a6 0c3f 8be8 013f fd90 9e3d
00000120: cbba 893d fe47 963e 2dec 113f 392a 13be
00000130: 096c fabe 6ae4 273f e202 b13f 2825 ba3e
00000140: 7573 1f3f 88c9 113c d6fa 613e 6a55 49be
00000150: 4b79 94bd c1b4 e7bd a769 a3be da2d a8be
00000160: 8501 a13d b2a6 363e fc1f af3f 90c0 e4bd
00000170: d492 a13e 5e70 653e 0e90 58bf 5bfc 343e
00000180: 2eb8 2a3e b3eb 1b3e 9c82 2cbe a2f1 ee3c
00000190: afaa 213f 01f6 b7be dd27 b8be 22a1 c9be
000001a0: b23a 80be 2439 183f d825 853d 4305 cfbd
000001b0: de40 0a3f 3635 a6be da2d 883e 6127 d6bc
000001c0: ce5f e6bd 520a 12be 942a 213d d369 f3be
000001d0: c6f1 cebd 32bd 13be 1719 e73d 6dd7 623f
000001e0: 9f20 a3be 9655 2d3e 8c21 5bbe 39b7 d13e
000001f0: 9505 b6be 5727 283e f88e 6b3e 2ada 9f3e
00000200: ad3e 233e 7e35 aa3e aafc 24be 1f22 bebe
00000210: 7d7f 73bf 2f6b 16bf 8c68 173e 8dd1 c13d
00000220: 2dfc 36be 8101 913c 13ec d6be 8813 16be
00000230: 96d1 813e 45de f8bd e9f1 8c3f 1510 d7be
00000240: f85d 483e 0280 b03e bf8b ffbd fa7b aebe
00000250: f8d5 09bf 8fb9 18bf c12b 37bf a657 d3bd
00000260: 835e 5cbe 07fa bc3d a82b d1be c268 173f
00000270: 7fa8 953e 4f71 e7be 9eab 0a3f ca28 943c
00000280: 5632 003f ca12 2abf 27dd 3e3c c92a babe
00000290: 6696 88be 69e9 9b3e 8432 eb3e 9978 afbd
000002a0: b634 86be 3635 f83c fc43 373f 92e9 3e3e
000002b0: cf00 96be 5b65 163e 913d b6be 5d8b 073e
000002c0: 03d2 2f3e 8da5 f9bd 1ffb fcbd 5af3 a3bd
000002d0: d14e 1c3f f0c2 a1be 53ec 5d3e 6bac a3be
000002e0: e11e fdbd 825e e43d 2461 12bd b514 063e
000002f0: 2d7a a83e 868e 1a3f abb2 a0bf 8221 3c3f
00000300: 24c7 3bbe 1944 5f3f 762c ad3e 675b c83e
00000310: 29f6 7abd 0795 b5be 6e1b 943e 349e 003e
00000320: 58a4 673e e572 15be 8b18 883f dda2 ce3e
00000330: acfe 0dbe e299 b7be 651c 18bf f704 c5be
00000340: 746f c83e f67d a43f 0376 08bd 8508 13be
00000350: f2d2 59be b886 b0be 4a16 ddbc 02ec c7be
00000360: 6cc2 e3bd 1ff1 f1bc d72c aabe f352 343e
00000370: 521a c73e c6c2 8ebe f71c 213d dd49 853e
00000380: d264 05be c425 e63b ae91 f13d d30c 8f3e
00000390: fbf5 c4be 3b0b 0abf 649a d2be d723 47be
000003a0: 8da6 85be 5ff8 033d 9ac3 f5be eb49 29bd
000003b0: f11c 043e 7ed6 9e3e 0bfb ae3f c46e 00bf
000003c0: f830 f4bd cf0f 9c3e 66ce 343b 233b b73d
000003d0: 1812 00be fb14 3d3e 8067 87bf aafd 133e
000003e0: 4076 a9be e4df 083f 4dac d9be 8220 cfbc
000003f0: 196c 0a3f 081d 50be bb3c bb3e f2b2 a6be

weight f4 [32]
2.8686333 3.165606 2.8956141 3.733119 2.8461998 3.521279 3.9391384 2.3923008
2.7528272 2.8157396 3.9536777 3.5608869 3.1629784 2.9983735 3.4403944 2.8324254
2.522348 3.7879024 3.024425 5.2618685 3.2931907 2.5749595 3.0370362 2.5522492
3.1976385 2.9043562 2.221328 2.8141568 3.408743 3.0906193 2.2681255 2.5469334
00000000: b097 3740 4a99 4a40 be51 3940 6ceb 6e40
00000010: 2328 3640 a35c 6140 d81a 7c40 751b 1940
00000020: 522e 3040 1435 3440 0e09 7d40 92e5 6340
00000030: 3d6e 4a40 5ae5 3f40 6c2f 5c40 7546 3540
00000040: 266e 2140 fe6c 7240 2e90 4140 3a61 a840
00000050: a3c3 5240 23cc 2440 cd5e 4240 0d58 2340
00000060: 1ca6 4c40 f9e0 3940 3d2a 0e40 251b 3440
00000070: d828 5a40 b5cc 4540 f828 1140 f500 2340

bias f4 [32]
0.22951351 0.3724117 0.83264554 0.31587496 0.57235867 0.53554434 0.19508101 0.3612536
0.2381488 0.25505728 0.4415696 0.23233029 0.4988391 0.42274657 -0.26587248 -0.3002673
0.1984647 0.4513784 0.38440493 0.6623982 0.3192595 0.33669585 0.3731128 0.3854806
0.32199422 0.35555664 0.3289292 0.59103554 -0.08416214 0.41409874 -0.39449576 0.020260444
00000000: 9705 6b3e bfac be3e 4228 553f 5dba a13e
00000010: 1986 123f 6f19 093f 51c3 473e 3bf6 b83e
00000020: 47dd 733e de96 823e 6915 e23e fee7 6d3e
00000030: d767 ff3e 3d72 d83e 7020 88be a3bc 99be
00000040: 553a 4b3e 121b e73e b9d0 c43e ee92 293f
00000050: fb75 a33e 6663 ac3e a408 bf3e b75d c53e
00000060: 6ddc a43e 850b b63e 6869 a83e 1b4e 173f
00000070: 335d acbd c004 d43e 59fb c9be 3bf9 a53c

running_mean f4 [32]
0.97591764 0.026648143 1.4381795 0.20246312 2.3714178 -1.2516428 0.14160128 -0.40791163
-0.53161436 -0.9863068 -0.46345595 -1.450007 -0.57258195 -0.5610888 0.6297958 0.3658288
-0.9369971 -0.27466387 0.4023381 -0.5132492 -1.1721363 0.9503818 -1.6228939 -0.6607236
-0.5173836 0.10351024 0.5750716 2.7277868 0.022564983 0.43128327 -0.7921528 0.44278258
00000000: bdd5 793f 354d da3c 4416 b83f 7e52 4f3e
00000010: 4fc5 1740 d535 a0bf edff 103e cbd9 d0be
00000020: e117 08bf 9a7e 7cbf 194a edbe d499 b9bf
00000030: bb94 12bf 84a3 0fbf 4c3a 213f ea4d bb3e
00000040: 0bdf 6fbf bea0 8cbe 42ff cd3e 4d64 03bf
00000050: 9008 96bf 394c 733f fdba cfbf 2f25 29bf
00000060: 4073 04bf 2dfd d33d e437 133f 0f94 2e40
00000070: 33da b83c 29d1 dc3e 87ca 4abf 66b4 e23e

running_var f4 [32]
0.36301696 0.7058599 0.7231062 0.7225399 0.8250372 0.6393291 0.27724767 0.6729022
0.59257495 0.92404556 0.51481044 0.4724498 1.1482526 0.60613716 0.6691446 0.485172
0.67523295 0.80208004 0.33051008 1.0703759 0.9152541 0.300138 0.9218367 0.5984417
0.8198989 0.49275798 0.45866218 1.554618 0.38794315 1.4024332 0.48529482 0.30318627
00000000: 5cdd b93e 3cb3 343f 7d1d 393f 60f8 383f
00000010: a335 533f 12ab 233f 68f3 8d3e 5243 2c3f
00000020: feb2 173f 408e 6c3f 9eca 033f f1e4 f13e
00000030: f1f9 923f ce2b 1b3f 0f4d 2b3f 7768 f83e
00000040: 11dc 2c3f 1e55 4d3f 9e38 a93e 1402 893f
00000050: 184e 6a3f b0ab 993e 7dfd 6b3f 7a33 193f
00000060: e5e4 513f c64a fc3e c5d5 ea3e b9fd c63f
00000070: 7ca0 c63e ee82 b33f 9078 f83e 3b3b 9b3e
