HW2/aML/R6_btnk_8ch4.pt (torch, 54196 bytes, 42 tensors)

weight f4 [8, 3, 7, 7]
00000000: 18a9 8cbf 0a7b 5fbf 7009 91bf ce1f 04bf
00000010: 689e c1bd 614e 4fbd 5aec fb3a ba8a b1be
00000020: 70fe 4d3e 256c 15be e51f 18bf 4993 6cbf
00000030: 5883 2abf 5b10 f0bd 9796 20bd 2c65 4a3e
00000040: cd4d 463e 3def 903c 4659 00be 1c45 0fbe
00000050: 7850 a8bf 4c34 a63e 4f87 7f3d 06db 1b3e
00000060: be5f 7d3e 0547 ae3e 0fc2 e63d ed99 64bf
00000070: 370b 40bd 52d6 213e cd73 243e a74a 333e
00000080: c7ba d23e 3e8a 553e b65f f1be 9b7e c7bd
00000090: 748e f53d a8f8 143e a94e 083d a717 1e3e
000000a0: e2d6 793d f20c 43be 1b10 0cbe a560 63bd
000000b0: a7b2 2b3e 74f7 b43d 000f d23d edd6 153e
000000c0: 848c 1c3d e1e8 8bbf dfbd 5abf 095a 93bf
000000d0: c569 02bf 1acf 61be 3de6 40bd 0ac6 a03c
000000e0: ee3c a6be b694 ab3e 949f 33be 3d30 19bf
000000f0: d68f 7bbf f983 2dbf 8991 3cbe ce9b 38bd
00000100: 1dd8 a43e b9f8 4f3e f72d 92bd e3b9 6cbe
00000110: 5634 77be 122c 99bf 217b 873e f58d a13d
00000120: 289d fc3d d54d 503e 10e5 8b3e e1b7 073e
00000130: 0fc0 4dbf da0e 673c 4566 c23d 2d65 5b3e
00000140: 1c28 8a3e 51d8 bf3e ab5c 673e f651 05bf
00000150: ef99 26be abd8 7e3d dfc3 523d f41d da3d
00000160: 748c 5a3e 1140 3d3e 8c78 18be 8b3e 9dbc
00000170: 5b3f 7a3c 542a 353e 0f6c 023d 2515 f63d
00000180: 9ea5 1f3d 4a3f 393d 5224 97bf a0a6 5abf
00000190: 515d 8fbf c9f2 dcbe 57f9 7abe cd64 87bc
000001a0: 11eb 393b f37d c6be 52dd 413e 6a45 71be
000001b0: 7bcf 01bf f62d 60bf 3c03 28bf 4eee 7dbd
000001c0: c486 673b abe4 463e b548 623e 4aea 75bd
000001d0: 4dfb 6bbe 4166 8cbe c7b3 9ebf d4e4 8e3e
000001e0: a93b 233e d22c 0d3e 2392 5d3e 2266 453e
000001f0: 18a7 c93d f61e 64bf 8ba7 07bd 5544 743d
00000200: 7cfb 2a3e 1173 273e 1274 e73e 20f8 8e3e
00000210: 45a8 fdbe 8455 23be c4b1 8a3b 6080 343e
00000220: 2059 ed3d af84 253e af1e 9f3d 8f11 82bd
00000230: 703b 93bd 6f7d ff3c dddb 6b3e bbb0 c43d
00000240: f9ee 103e f407 003e 05b7 0a3e b3b6 f1be
00000250: 3635 49bd 1af2 9fbc bbb3 6d3d 4ac6 983e
00000260: d552 993d e781 cf3d 17ef 64be fbde 7a3d
00000270: a528 5bbd fa63 843d dfc2 4cbe 4c4f 9bbc
00000280: 9f37 853e 52f7 55be b51e b83d 7120 8abd
00000290: 9542 0a3d 0597 15be 6a85 f63d a678 ab3e
000002a0: 0c48 c0be 03af 0cbd 33ea 88bc 534a b3be
000002b0: 1f8c 2fbe d9aa d53d cd85 bb3e 8657 dfbe
000002c0: 6580 4d3d 08c6 433d 7c96 a1be d559 8d3e
000002d0: a00d 8a3d d7c4 ab3e 1e73 b2be 2ce7 703e
000002e0: b692 87bd 0ba6 fb3d 0f3c 3b3e a254 d1bd
000002f0: 57bb 9f3e 98ed bbbe 3f7b ad3d 9add 96be
00000300: 829f 963e 6898 f63d 2555 893e 8490 e53e
00000310: bae2 dabe 8a5f 883c 25bd 593d 2a28 673d
00000320: 9107 443e 8d75 8e3d 028e 753d 6d24 95be
00000330: 2e32 d83c ab03 25be c68a 3bbd 01f6 8bbd
00000340: 2f7c b93c dd08 923e 2e02 a2be 3b0f c5bc
00000350: a860 07be c5ea 133d a8fa 9fbd 14e7 a63c
00000360: 17fa b23e 69cb bcbe 55b1 d0bb 27d5 753c
00000370: 7947 aebe 07e6 00be 69c9 233e 9666 c23e
00000380: 7511 aebe bf7d 46bd c593 6dbd 8431 94be
00000390: d15a f43d 6ba1 563e c3a3 b93e 9f6d aabe
000003a0: e0b7 763e 251d a2bd 4559 613d c317 433e
000003b0: eb16 1bbe b388 8a3e 0ed8 b1be cc10 4d3e
000003c0: dee2 78be 2e1b 9e3e 0a28 513e 452f 543e
000003d0: b7ea 133f 3ac1 d1be 6c91 c63d dfc5 593d
000003e0: e8dc dc3d 256e a13e 9fdd 8a3d 083b bc3d
000003f0: 522b a9be 9f76 a8bc 7c69 bebc 334d d6bc
-1.0989103 -0.8729712 -1.1331005 -0.5161103 -0.09454042 -0.050611857 0.0019220219 -0.34676152
0.20116591 -0.14592035 -0.5942367 -0.9241224 -0.66606665 -0.117218696 -0.039206114 0.19765157
0.19365616 0.017692203 -0.12534055 -0.13991207 -1.3149557 0.32461774 0.0623849 0.1522027
0.24743554 0.3403856 0.112674825 -0.8929737 -0.046885695 0.15804413 0.160598 0.17508946
0.41158125 0.20853516 -0.47143334 -0.09740945 0.119900614 0.1454798 0.03327814 0.1543871
0.060995944 -0.19047907 -0.13678019 -0.05551209 0.16767369 0.088362604 0.10256767 0.14632769
0.038219944 -1.0930444 -0.8544597 -1.1511852 -0.5094264 -0.22051659 -0.047094572 0.019625682
-0.3246836 0.33511895 -0.17541343 -0.5983923 -0.9826635 -0.677795 -0.18414892 -0.045070462
0.3219613 0.20309724 -0.07137673 -0.23117785 -0.24141058 -1.1966574 0.26461127 0.07888404
0.12334663 0.2034219 0.27323198 0.13253738 -0.80371183 0.014102662 0.094921626 0.21425314
0.26983726 0.37469724 0.22593944 -0.5207819 -0.16269659 0.06221835 0.05145633 0.10650244
0.21342641 0.1848147 -0.14889735 -0.019194862 0.015273894 0.17691928 0.031841334 0.12015752
0.038976304 0.045226373 -1.1807959 -0.854105 -1.1200353 -0.4315398 -0.24509178 -0.016527558
0.002836887 -0.38767967 0.18932083 -0.23561636 -0.50707215 -0.8757013 -0.65629935 -0.061994843
0.003532813 0.19423167 0.22098048 -0.06003789 -0.23045082 -0.27421764 -1.2398614 0.27908957
0.15940727 0.13786629 0.21637778 0.19277242 0.09846324 -0.8910974 -0.033118766 0.05963548
0.16697496 0.16352488 0.45205742 0.2792368 -0.49542442 -0.1595059 0.004232617 0.17627096
0.11589265 0.16163896 0.07769524 -0.06351005 -0.07189071 0.031187741 0.2303309 0.09604021
0.14153661 0.12503034 0.13546379 -0.472097 -0.04912301 -0.019524623 0.058032732 0.29838783
0.07486502 0.10132199 -0.2235683 0.061247807 -0.05350556 0.064643815 -0.19996212 -0.01895871
0.26018998 -0.20895126 0.08990232 -0.06744469 0.033754904 -0.1460839 0.120371655 0.33490485
-0.37554967 -0.03434659 -0.016713237 -0.35017642 -0.17143296 0.10432977 0.3662552 -0.43621463
0.050171275 0.04779628 -0.31560123 0.276076 0.0674088 0.33548614 -0.34853452 0.23525685
-0.0661978 0.122875296 0.1828463 -0.102212206 0.31197616 -0.36704707 0.08470773 -0.29465944
0.2941857 0.12040788 0.26822773 0.4483682 -0.42751104 0.01664712 0.053158898 0.056434788
0.19143511 0.06956015 0.059949882 -0.29129353 0.026391115 -0.1611468 -0.04578664 -0.06834031
0.022642223 0.28522387 -0.31642288 -0.024055114 -0.13220465 0.036112566 -0.07811481 0.020373859
0.34956428 -0.3687394 -0.006368796 0.015004433 -0.34038904 -0.12587748 0.159948 0.37968892
-0.33997694 -0.048459765 -0.058002252 -0.28944027 0.11931384 0.20960014 0.36257753 -0.3328676
0.2409358 -0.07915715 0.055016775 0.19052033 -0.15145461 0.27057418 -0.3473515 0.20025939
-0.24305293 0.3088011 0.2042543 0.20721157 0.5778002 -0.40967733 0.09695706 0.05316722
0.10784322 0.31529346 0.06780552 0.09190947 -0.33040863 -0.020564375 -0.023243658 -0.026159858

weight f4 [8]
00000000: 8368 c93f 9c23 393f 8146 d73f 96fd a13f
00000010: a6e5 e23f 44e7 8f3f 6a05 153f 086d 2d3f
1.573502 0.7231996 1.6818391 1.2655513 1.7726333 1.1242452 0.58211386 0.67744493

bias f4 [8]
00000000: 9306 923e 939b 7cbf 8d46 ab3e c9ae 01bf
00000010: 3504 82be 9faf e3be 6798 da3f f009 eebe
0.2852064 -0.9867489 0.33452263 -0.50657326 -0.25393835 -0.44469926 1.707776 -0.46491957

running_mean f4 [8]
00000000: 48ea 8bc2 0c1a a840 d655 ddc2 dbb2 56c2
00000010: 07e8 c9c2 b905 47c2 8af9 88be 682d 843f
-69.95758 5.2531796 -110.66765 -53.674664 -100.95318 -49.75559 -0.26752883 1.0326357

running_var f4 [8]
00000000: 54c2 5448 9343 2f47 3a8e b348 5843 fb47
00000010: 044e b248 c35b e947 6963 8d46 ad56 0f46
217865.31 44867.574 367729.8 128646.69 365168.12 119479.52 18097.705 9173.669

weight f4 [4, 8, 1, 1]
00000000: 612c 9cbe 10c4 233f 06d1 243f b9bc 303f
00000010: d6e2 cdbe c275 a63e de60 3e3d 044a e43d
00000020: f6bf 5ebd a80a 53be ae8c edbe 54ca 31be
00000030: cd83 f4bc 687d cfbe 1a01 f13e 3e68 813e
00000040: 1d37 803f 4534 903e 4f59 04bf 8d0b 89be
00000050: 2c85 2dbe 4582 05be 2772 8dbc 25b8 da3e
00000060: 456d aa3e 9fb8 b1bd 7ce0 993e 6531 77bf
00000070: 0d99 e13e ca8c a8be aeff 3dbf 19ab c4be
-0.30502608 0.6397104 0.64381444 0.6903797 -0.40212125 0.32511717 0.0464791 0.1114693
-0.054382287 -0.20609534 -0.46396393 -0.17362338 -0.029848004 -0.40525365 0.47071153 0.25274843
1.0016819 0.28164878 -0.51698774 -0.26766625 -0.16945332 -0.13037975 -0.017266346 0.42718616
0.3328649 -0.08677792 0.3005408 -0.96559745 0.4406208 -0.32919914 -0.7421826 -0.38411787

weight f4 [4]
00000000: 5a8b 6d3f f598 833f fd73 6c3f a12e 843f
0.9279076 1.0281054 0.92364484 1.032673

bias f4 [4]
00000000: f263 173f abc1 a2be 6eef ff3e 1f92 a03e
0.5913688 -0.31788382 0.49987358 0.31361482

running_mean f4 [4]
00000000: ed4e d33e 72f6 073f a145 9a3e 6172 88bf
0.41271153 0.5311042 0.30131248 -1.0659906

running_var f4 [4]
00000000: 9e23 a93e fbd4 203e 9908 3c3f 08d8 443f
0.33034986 0.15706246 0.7345062 0.7689214

weight f4 [4, 4, 3, 3]
00000000: 8564 973d 317e 823e a2b4 f23e ee24 98be
00000010: 5c3b 0a3e dc08 50bc 2af6 d1be 90ef bbbe
00000020: a401 efbe 950a b2bd 412e d53d d04c aebd
00000030: 810d 933d b527 ab3d c23b bdbe 1239 4a3e
00000040: 19c8 623d 9c2b 2cbe 4c91 2f3e a68e 46bc
00000050: 44ca 1ebe e337 09be 5ade c9be d28f 48bf
00000060: fc0f ad3e 1c24 f1be b6a5 8ebf 6568 6ebf
00000070: a578 5cbf 7ca3 73bf 3fb5 9bbe f130 c6be
00000080: 5ce4 033d 503f c13e 6fba 0ebf 50f9 313f
00000090: a798 a53d 0bc8 6d3e 249a a33e 41be 943e
000000a0: 5bda 213e 9848 0a3e 059b e53e 3bb2 5a3e
000000b0: e424 6e3d 5448 21be d42a ab3c 42b5 a13c
000000c0: 0d46 9cbe 7e42 e3bd 1e4a 113d 9216 42bf
000000d0: 0744 f33d 4558 e2be e98f c1bd 5ab7 92be
000000e0: aa56 a8be ed8c 8dbe 67cd dcbd a9ba 9bbe
000000f0: d4ba f1be 73a9 16be fcc9 19bf c290 2abe
00000100: c448 69be 0514 b53c 7be4 54be 157c 18be
00000110: b754 34bd a01d 42bd 73c1 dbbd 8d80 1fbd
00000120: e6b1 8c3c 290a 083f c4ac c43e 608e 9abc
00000130: 8154 843e 1fce 0fbe c3d1 843e 24fd 4b3e
00000140: 658e 7c3e 6e16 69bf cf21 12bd 0f07 003f
00000150: ecd0 72be 4aa3 0f3e 0efc b03e fcb9 eebe
00000160: 7f89 fdbd 8730 3d3e 8eec b0bd 2b88 ecbe
00000170: b50f 2cbe 1aa9 7b3e eb8f 08be 8902 53be
00000180: 9749 d13d e54d 4a3e d756 643e f12b f63e
00000190: 6f0b be3e 875b 3cbf 4b13 f33d b98b 933f
000001a0: b45e fdbd 5a24 6a3d 4b4b de3e 0b6f 89be
000001b0: ed4c 66be 39c3 1b3e a2e5 36be 5bcf 973e
000001c0: 9e1d 983e 60f7 bc3d f8a7 3b3e 9d5d a53d
000001d0: 4918 bf3e 4ab1 02bf a331 673d ce89 53bf
000001e0: 293e 86bf c0bb c6bd 6f34 38bf 512d 83be
000001f0: 2cfe c0be a203 a1be fd59 d13d d7f0 003e
00000200: 77e3 8ebd a527 dbbd 9770 603c 02f8 943d
00000210: a959 8a3e f9d9 dfbb 98f2 b3bd e3bc aabd
00000220: 206e 1d3e 5291 6bbd 6ea6 03be b5c6 81be
00000230: 1447 bc3d 08bf afbe e835 f6be 80f5 21be
0.073922195 0.254869 0.47403437 -0.29715675 0.13499206 -0.012697425 -0.4100812 -0.3670621
-0.4668094 -0.086934246 0.10409213 -0.085107446 0.0718031 0.08357183 -0.36959654 0.19748333
0.05536661 -0.1681351 0.1714527 -0.012118971 -0.15506846 -0.13400225 -0.39427453 -0.7834445
0.33801258 -0.47097862 -1.1144321 -0.93128043 -0.8612159 -0.9517133 -0.30411717 -0.38709214
0.032200202 0.37743616 -0.55753225 0.69521046 0.08085757 0.23220842 0.31953537 0.29051402
0.15805952 0.13504255 0.44844833 0.21357052 0.05814065 -0.15750247 0.020894445 0.01973975
-0.30522195 -0.11096667 0.035471074 -0.7581569 0.118782096 -0.4420797 -0.09451277 -0.2865551
-0.3287862 -0.2764658 -0.10781365 -0.30415848 -0.4721285 -0.14713077 -0.6007383 -0.16656783
-0.22781664 0.022104273 -0.20790283 -0.14891084 -0.044026103 -0.047391534 -0.10730257 -0.038940955
0.017174672 0.53140503 0.3841306 -0.018866718 0.2584572 -0.14043473 0.25941285 0.19920784
0.24663694 -0.9104985 -0.035676774 0.5001077 -0.2371251 0.14027134 0.34567302 -0.4662627
-0.12379741 0.18475543 -0.08638869 -0.46197638 -0.16802867 0.24576226 -0.1333615 -0.20606436
0.10219114 0.19756277 0.22298752 0.480804 0.37118098 -0.7357716 0.11868914 1.1527015
-0.12371579 0.057163574 0.4341682 -0.26842532 -0.22490282 0.1521119 -0.17861035 0.29650387
0.29710096 0.092268705 0.18325794 0.08074496 0.37323216 -0.5105177 0.05644382 -0.8263215
-1.048772 -0.09703779 -0.7195501 -0.2562051 -0.37693918 -0.31448084 0.10222242 0.12591873
-0.06976979 -0.10700921 0.0136987185 0.07273866 0.2702153 -0.0068314043 -0.087865055 -0.083368085
0.1537404 -0.057511635 -0.12856457 -0.25346914 0.091932446 -0.34325433 -0.48088002 -0.15816307

weight f4 [4]
00000000: 094a 863f 319f 943f 4b61 583f 2160 8d3f
1.0491344 1.1611081 0.8452346 1.1044961

bias f4 [4]
00000000: 1b2d 1dbf 6140 0f3e 5207 f8be 22c5 983e
-0.6139695 0.13989402 -0.48443085 0.298379

running_mean f4 [4]
00000000: 8468 41c0 68b1 53bf 59b0 c23f ce0f e7be
-3.0220041 -0.82692575 1.5210067 -0.45129246

running_var f4 [4]
00000000: 2ab7 e640 1b31 9140 b87b 1a40 20c8 cb40
7.209859 4.5372443 2.4138012 6.3681793

weight f4 [16, 4, 1, 1]
00000000: 68ba 093f 73cc afbe 8777 053f 3a41 02bf
00000010: be10 1e3f 7e5e d0be 8ab9 593e 3812 1fbe
00000020: 7b0b 98bd be77 04bd eb95 ce3e c642 2cbf
00000030: 7f40 433e 99ec c3be 16f9 b43e 30f4 0d3f
00000040: 997d 413f 20ce 1fbe 11ce d63d b5f5 c0bc
00000050: 06ab d63e f661 113f 1942 b1be d6aa 453f
00000060: be09 a63d a89f d9be d080 343d 6b9e 4e3f
00000070: a020 5e3f fb48 c13e cf6f 17be f5d5 1ebf
00000080: f999 4c3e 4e95 563f 39e6 b03e d835 ce3e
00000090: 4499 01bf 274f 153f af2a 6e3d 9548 d2be
000000a0: eb0f 093f fe59 223f 5f6c 803e 3b13 183e
000000b0: 0c3c 3f3f dac0 88be db5d ba3d 5639 a2bf
000000c0: 3b3a eb3e 72ec a3be 47f5 4f3d e0bf 793f
000000d0: aac4 21bf 754f b83e e34f 47bf 6e79 94be
000000e0: 614e 493e 5c73 c0be e004 d13e 17ea 3ebe
000000f0: f01b 98be bf60 e7be 0915 ab3e 0728 f6be
0.5380006 -0.3433567 0.5213551 -0.5088078 0.61744297 -0.40697092 0.21262184 -0.15534294
-0.07424065 -0.032340758 0.40348753 -0.6728939 0.19067572 -0.38266447 0.35346287 0.55450726
0.7558227 -0.15605974 0.10488523 -0.023554662 0.41927356 0.567901 -0.3462074 0.772138
0.08107327 -0.4250462 0.044068158 0.80710477 0.8676853 0.37750992 -0.14788745 -0.6204522
0.19980611 0.8382157 0.34550646 0.40275455 -0.5062449 0.583239 0.058146175 -0.41071
0.53539914 0.6341857 0.2508268 0.14851086 0.74701 -0.26709634 0.09099933 -1.2673748
0.45942864 -0.3201633 0.050771024 0.97558403 -0.6319071 0.3599812 -0.7785627 -0.28998893
0.19658805 -0.37588012 0.40824032 -0.18643986 -0.29708815 -0.45191 0.33414486 -0.48077413

weight f4 [16]
00000000: ab5f 9d40 a8d5 2940 6aeb 4840 9921 d23f
00000010: 5257 4d40 0e64 2640 f819 8740 c08c 8f40
00000020: 5e79 7b40 c369 5840 6033 4040 bc96 fa3f
00000030: 02f7 cc40 8c6c 1440 2f61 2240 9a36 5240
4.917928 2.6536655 3.1393685 1.6416503 3.2084546 2.5998569 4.22192 4.4859314
3.9292827 3.3814552 3.0031357 1.957725 6.4051523 2.3191252 2.5371816 3.2845826

bias f4 [16]
00000000: 16e1 013f 8349 0e3e a6c6 2c3d f312 fd3e
00000010: 987f 533e 5d8f 40bf a3ae 293e 5a95 ca3d
00000020: 9a84 dabe 4457 313f 21ea 05bf e9bf f53e
00000030: 24bf 163f 8aa0 b03f 6085 3d3f 6c81 a3bd
0.5073408 0.1389523 0.042181633 0.4942852 0.20654142 -0.75218755 0.16570525 0.09891768
-0.42679292 0.6927378 -0.5231038 0.47997978 0.5888541 1.3798993 0.7403164 -0.0798367

running_mean f4 [16]
00000000: af99 93be 61c0 34be 7b09 91be 23e5 313e
00000010: 5835 2dbd e007 033f 4717 803e bf69 33be
00000020: a5cb f93e fb7e 10bc 2551 9a3e 22e9 28bf
00000030: 30f8 b93e c262 dabd 449b 23be 0ca9 aabe
-0.2882819 -0.17651512 -0.28327546 0.17372565 -0.0422872 0.5118389 0.2501776 -0.17520808
0.4878818 -0.008819337 0.30140033 -0.6598073 0.36322165 -0.10663368 -0.15977198 -0.33332098

running_var f4 [16]
00000000: f280 a13d 5216 cc3c dd8a 643d 3a3b 6a3d
00000010: 62d3 293c f6bb c63d 08fd 293d 177e 413d
00000020: 829b 643e 2cce ee3c f972 e53d e6d4 303e
00000030: fcd9 7c3d a490 393e 2630 283d be6b 4c3d
0.078859225 0.024912987 0.055796493 0.05718539 0.010365339 0.097038195 0.041501075 0.04723939
0.22324947 0.029151045 0.1120357 0.17268714 0.061731324 0.18121582 0.041061543 0.04990744

weight f4 [16, 8, 1, 1]
00000000: 8527 71bf 49ed 43bd 5594 8f3e 196f 203f
00000010: 49b4 3c3d 21ab c7be 4a93 a9bc 3b6f 053f
00000020: 614b 2b3e 2f34 153f 9f8c 3cbe c2e3 a5bd
00000030: 4a21 1b3f d8a6 ac3e 4803 983e 1d61 c13d
00000040: 6f09 7f3f 0d00 96be 451b 923e 68d2 553f
00000050: f92c 513f 994c 16bf 123a 843d 45fa 7b3d
00000060: 7953 483f 4b7b 443e f986 123f fe36 1d3f
00000070: 0fe6 f2be a712 b33e 5b42 44bd f9f5 81be
00000080: 0028 26bf 648d 8f3d f259 cc3e a628 80be
00000090: b549 6a3f 7c80 a4be 701e cb3c 3c6a a83e
000000a0: cbce 9b3e f723 3a3e 6380 623f f42d 823f
000000b0: fb64 853d fa77 e0be 793a 493e ddc7 2abd
000000c0: e518 403e b1c5 073f 0b52 563f 86ff 43be
000000d0: 3fcf 67bf ad31 85be d1b1 663d f74b 12bd
000000e0: 8e01 c0bd c00a 8fbd b3a3 c13f e68a 193f
000000f0: ec45 c1be 9d56 43be e90f d83e 7a6b a93d
00000100: 797a 71bf 8c2e 883e bf87 b83e 8c8f c43e
00000110: 2c19 9ebd 1db5 96be 2234 8d3c 8e43 733e
00000120: d1b9 6bbf 0c4c 013f 0582 8ebd 4b09 5a3e
00000130: 15a6 7c3e 6624 243f 7704 083e 1804 223e
00000140: 2617 2f3e ce05 6c3e 946c 94bf 240e 88bd
00000150: ac3a 5dbf 6a7f 993e 99c2 f13e 9514 da3d
00000160: 5d48 5e3e 93c0 f03d 1619 373f 7c00 9e3c
00000170: ba0d c73f 0f37 c13e 2fcc 933e 46c7 49be
00000180: d4ab ac3d 8374 8b3d 967a b33f 3ccc 3c3f
00000190: 1c11 80bf 8488 25bd 16ac 223e d69e 8c3d
000001a0: 0b46 3abe b85a 0f3f ee78 f23e d5e7 af3e
000001b0: 34cc 513e 2bb1 5d3f 8028 06be 5b5c 8dbd
000001c0: 41f8 d53e 5f30 1dbc b6b9 e03e c832 8c3f
000001d0: c81a a83f 8eb5 b43d 2cbb f53e 6009 c8bd
000001e0: 3e8f 29bf 511f ffbd 1dcc 173d 5f82 f73e
000001f0: 885c e0be bce5 14be 48ec e03d d6c5 183f
-0.94200927 -0.047833715 0.28042856 0.6266952 0.04607037 -0.38997748 -0.020700116 0.5212285
0.16727974 0.5828275 -0.18413018 -0.08100082 0.6059767 0.33721042 0.29690003 0.09442351
0.9962377 -0.29296914 0.2853643 0.8352418 0.8170925 -0.5871063 0.064563885 0.061517972
0.7825237 0.19187658 0.572372 0.61412036 -0.47441146 0.34975168 -0.047914844 -0.25382975
-0.64904785 0.0700939 0.39912373 -0.25031012 0.9151872 -0.32129276 0.024794787 0.3289355
0.30431208 0.18177782 0.8847715 1.0170274 0.06513401 -0.43841535 0.19651212 -0.04169451
0.18759497 0.5303603 0.8371894 -0.19140443 -0.9055061 -0.26014462 0.056321923 -0.035716977
-0.093752965 -0.06984472 1.5128082 0.5997757 -0.3774866 -0.19076009 0.42199638 0.08272453
-0.94327503 0.26598012 0.36041066 0.38390768 -0.07719645 -0.29435053 0.017236773 0.23756239
-0.9208041 0.50506663 -0.06958393 0.21292607 0.2467273 0.6411804 0.13282953 0.15821874
0.17098674 0.2304909 -1.1595635 -0.06643322 -0.8641765 0.29980022 0.4721878 0.10648457
0.21707292 0.117554806 0.71522653 0.01928734 1.5551064 0.3773732 0.28866717 -0.19704923
0.08431211 0.06809332 1.4021785 0.73749137 -1.0005221 -0.040413395 0.15885958 0.06866233
-0.18190782 0.559978 0.47357887 0.3435656 0.20488054 0.8659846 -0.13101387 -0.06902381
0.41790965 -0.009594052 0.43891686 1.0952997 1.3133173 0.08823691 0.47994363 -0.09767413
-0.66234195 -0.12457145 0.037059892 0.48341653 -0.43820596 -0.14540762 0.10982567 0.59676874

weight f4 [16]
00000000: fe36 6040 2189 a33f 9cd2 1a40 041a da3f
00000010: dd69 b83f b4a5 1e40 0475 4040 ec4c 9c40
00000020: 64f1 2b40 c5a5 1640 25d8 ab3f 27ea 3f40
00000030: 1242 dd40 bb1c e63f 6872 9d40 29a8 8f40
3.5033565 1.2776223 2.4191046 1.7039189 1.4407307 2.4788637 3.007142 4.88439
2.6866083 2.3538678 1.3425337 2.9986665 6.914315 1.7977518 4.9202156 4.4892774

bias f4 [16]
00000000: 16e1 013f 8349 0e3e a6c6 2c3d f312 fd3e
00000010: 987f 533e 5d8f 40bf a3ae 293e 5a95 ca3d
00000020: 9a84 dabe 4457 313f 21ea 05bf e9bf f53e
00000030: 24bf 163f 8aa0 b03f 6085 3d3f 6c81 a3bd
0.5073408 0.1389523 0.042181633 0.4942852 0.20654142 -0.75218755 0.16570525 0.09891768
-0.42679292 0.6927378 -0.5231038 0.47997978 0.5888541 1.3798993 0.7403164 -0.0798367

running_mean f4 [16]
00000000: 8cde a3be e982 273f fb40 5c3f 127d 343f
00000010: e2f1 863c 7ee8 8f3f 32cc 3e3f 3830 d63f
00000020: 3501 59be 210e 3abe 3425 813e 0b12 973f
00000030: d037 9a3f 8665 963d 0036 ba3f b9e8 abbd
-0.32005727 0.6543413 0.8603665 0.7050334 0.01647276 1.1242826 0.7453033 1.6733465
-0.21191867 -0.18169452 0.25223696 1.1802381 1.2048283 0.07343583 1.454773 -0.08393998

running_var f4 [16]
00000000: 04a5 f73d 1ea5 143f 1331 923e b59a b53d
00000010: 73eb de3d 9aa0 053e 298b fa3d ffb5 bc3d
00000020: 1831 363e ef14 e03e 0661 c23e 36e8 533e
00000030: 785f 6e3d 41d0 563e 851a cd3e 9c06 133e
0.12092021 0.5806445 0.28553066 0.08867399 0.10884752 0.13049546 0.12233574 0.092144005
0.17792165 0.4376597 0.37964648 0.2069405 0.058196515 0.2097788 0.40059295 0.1435799

weight f4 [4, 16, 1, 1]
00000000: af60 eabe 15d6 983e 0f1c da3e 7585 c6be
00000010: 7ede d8be ca25 443e 92a7 babe a7c8 d13d
00000020: 4b4b 93be 3cbb a03e 1075 5ebf d2fa ffbe
00000030: 6d3e 6e3d 48e9 e43e d835 41bf 7707 473e
00000040: 2aa4 cd3e 5597 623d 3ff3 b83e 5629 373e
00000050: e3ce ce3e c8b4 13bf 97c4 c53d dcc9 9bbe
00000060: 10c1 273d 674e cfbe 96be d3be 152e bebc
00000070: f833 283e d121 76bf 72b7 20bf d3b9 cfbe
00000080: c9d9 e5bd c395 a03e 1761 c5be d377 edbe
00000090: 73c0 f93b 3cbe 823e 9ec4 973e ac7b 953d
000000a0: 1b7b 4d3d d18e 1f3e 7df1 31be 8be6 1b3f
000000b0: ba9e 6ebd 1c3b cc3f c33d d23c ade4 983d
000000c0: 01d9 a53d a6c6 d53e f4dd c43d 8f6b 5f3e
000000d0: 46a2 b63e 14c0 05bf eb2b 573c d3ac 693e
000000e0: 3762 3dbf e9a5 09bf ad05 2abe 8710 f63d
000000f0: bc78 a7bd a191 52be c079 d1bc 25ec 08be
-0.4577689 0.29850832 0.42599532 -0.38773695 -0.42357248 0.1915504 -0.3645597 0.102433495
-0.2876838 0.31392848 -0.86897373 -0.49996048 0.058165003 0.4470923 -0.75472784 0.19436441
0.4016431 0.055320103 0.36123082 0.17886862 0.40392217 -0.57697725 0.09656637 -0.30427444
0.040955603 -0.40489504 -0.41356343 -0.023215333 0.16426075 -0.9614535 -0.62779915 -0.4057146
-0.1122318 0.3136426 -0.38550636 -0.4638048 0.0076218187 0.25535762 0.29642195 0.07298979
0.05016623 0.15581824 -0.17377277 0.60898656 -0.058256842 1.5955539 0.025664216 0.074654914
0.08098031 0.4175312 0.09612647 0.21818374 0.3567068 -0.5224621 0.013133029 0.22819833
-0.7397799 -0.53768784 -0.16603728 0.12014871 -0.08177325 -0.20563366 -0.02557075 -0.13371332

weight f4 [4]
00000000: 1d00 423f 45a5 543f 50bd 0d3f b251 903f
0.7578142 0.8306468 0.5536699 1.1274931

bias f4 [4]
00000000: cbdf 4c3f 3f46 0e3f a995 953e c659 a9bd
0.8002898 0.5557594 0.29215744 -0.08269076

running_mean f4 [4]
00000000: 317e b1bf 2223 7ec0 d5f7 a640 a21a b6bf
-1.3866636 -3.9708943 5.217753 -1.4226878

running_var f4 [4]
00000000: 8000 cc42 c66a 0842 751c 6741 e2cd 4c42
102.00098 34.10427 14.4444475 51.201057

weight f4 [4, 4, 3, 3]
00000000: cf29 b03e 0d11 05bf 9fd3 753e 363e cfbe
00000010: f8aa acbf bfa9 b1be 95b2 b6bd ce39 03bf
00000020: e542 343e 4022 4c3e 90ad bdbe 15df ea3d
00000030: 32b9 5dbe cfbf 3dbf f3fd 1ebe 73bf 783e
00000040: 9498 f0bd 4e2f 873d 4747 57bd e4c9 85be
00000050: 1239 c6be acbb b9bc ee70 54be c1ab 5cbe
00000060: 1c0a aebe a9dd 6abe 5454 8abd be1d deba
00000070: 583a 23be 367a 67be c4c0 34be 6b3a a63d
00000080: 01f7 22bc 44c9 d0be 88e7 84be 7753 bbbd
00000090: 6cbb cd3e fd82 46be 57b3 a63e 71bc 103e
000000a0: 67ca acbe 7877 543e fb42 a33e e4cb c03e
000000b0: 8cbb f23e 78ff a93e 1353 013f c2d3 903e
000000c0: f830 e63e 0721 213e ccb0 0dbf 75a2 48be
000000d0: 4057 9cbe 5219 f1be c200 43bd 5221 f9bb
000000e0: d42d e7bd 4b74 263e 45f3 1d3e 0d41 0abe
000000f0: 3fcc 14bf 4f11 63be ea2f efbe 7315 063f
00000100: 7d56 893d 4885 8b3e fd13 823e 6171 b23c
00000110: ed47 b13e b3af ca3e 98eb 9b3e 6343 2f3f
00000120: a399 953e 2a33 293f b1c4 293e c2b1 e43e
00000130: b311 643f 4fff 0c3f 96ad 803e 9b70 8b3e
00000140: 07e4 2b3d 2117 31bf 0e57 c4be f8b1 bcbe
00000150: c61e f4be 928d 033f 129e 91bd d8a8 b4be
00000160: 1281 593e e921 2fbe 9190 31bd 9ee0 40be
00000170: e5eb b3be 4cfc fa3c 50e4 0fbe 3eba c4be
00000180: 7ac7 b33e 95ef 8bbd 619e 5bbe 9b34 a03d
00000190: b456 8c3e eb87 803d b1a9 dd3d c1e8 15bf
000001a0: 4337 8cbf 6286 523f 4801 8a3e 9989 b9be
000001b0: 4e48 2d3e 71cb a33e 245c 203e 8cdf aa3d
000001c0: 5186 a43e 418f ad3d 35a7 bcbc 116d 6c3e
000001d0: 765d 453e 0e13 94bf e118 fbbe 42ff b2bd
000001e0: fb7c 4dbe b983 a83d 511c a53e 8e74 013e
000001f0: 114d 1ebf 595c 02bf 144d 073e 9f49 fa3d
00000200: 4185 9e3e 153b 83bd 750e 1ebd 11ed 593e
00000210: 92d4 d33c e277 873e de4c c53e 98f8 303e
00000220: 6922 8e3d 7771 adbe 8d2f 26be 428e 98bd
00000230: ff4e febe 9321 bfbc 44e2 413e c9da 17bf
0.34406897 -0.5197914 0.24006508 -0.4047715 -1.3489676 -0.34699818 -0.089207806 -0.5126008
0.17603643 0.1993494 -0.3704648 0.11468331 -0.21652678 -0.741208 -0.15526561 0.24291782
-0.11747852 0.066008195 -0.05255821 -0.26130593 -0.38715416 -0.022672497 -0.20746204 -0.21549894
-0.33992088 -0.22936119 -0.067543656 -0.001694612 -0.15940225 -0.22605214 -0.17651659 0.08116611
-0.009946586 -0.40778553 -0.25957894 -0.09146779 0.40182054 -0.19385906 0.325587 0.14134385
-0.3374817 0.20748699 0.3188704 0.37655556 0.47408712 0.3320272 0.50517386 0.28286558
0.44959235 0.15735255 -0.55347896 -0.19593222 -0.30535316 -0.4708963 -0.047608145 -0.007602849
-0.11288038 0.162553 0.15424831 -0.13501377 -0.58124155 -0.22174571 -0.46716243 0.5237648
0.067059495 0.27250123 0.25405875 0.021782579 0.34625188 0.39587173 0.3045318 0.684622
0.29218778 0.66093695 0.16578938 0.44666868 0.89089507 0.5507707 0.25132436 0.2723435
0.04196551 -0.69175917 -0.38347667 -0.3685453 -0.47679728 0.51387894 -0.07110228 -0.35285068
0.21240643 -0.1710278 -0.04335076 -0.18835685 -0.3514091 0.030637883 -0.14051938 -0.38423342
0.35113126 -0.06832806 -0.21447136 0.07822534 0.274099 0.06275924 0.10823382 -0.5855828
-1.0954365 0.822363 0.26954103 -0.3623779 0.16922113 0.3199115 0.15660149 0.083434194
0.32133725 0.08474589 -0.02302895 0.2308848 0.19273934 -1.1568315 -0.4904242 -0.08740093
-0.20067208 0.08228249 0.32248166 0.12642118 -0.61836344 -0.5092216 0.13212997 0.12221073
0.3096104 -0.064077534 -0.038588006 0.2128184 0.025858197 0.2645865 0.38535208 0.17282331
0.06940157 -0.3387563 -0.16229077 -0.074490085 -0.49669644 -0.02333144 0.1893397 -0.59318215

weight f4 [4]
00000000: b300 913f 6511 643f 1e8a 833f 7745 503f
1.1328338 0.8908904 1.0276525 0.81355995

bias f4 [4]
00000000: 14a3 953e 8c2a e3be fb05 353f 0fc6 08bf
0.2922598 -0.44368398 0.7071225 -0.53427213

running_mean f4 [4]
00000000: edea 5cc0 8954 b13f f354 d93f 0101 8b3d
-3.4518387 1.3853923 1.697905 0.06787301

running_var f4 [4]
00000000: bb4d a13e 4a99 0c3f 7b1a dd3f 1dcd 133f
0.31504616 0.549214 1.7273706 0.57734853

weight f4 [16, 4, 1, 1]
00000000: 029a b33e 5f63 1e3e b4f1 193f b135 b53e
00000010: 80b9 b13e 3224 fc3e 0710 373f 5a00 3c3d
00000020: db2e 18bd f100 843f f3ac 333e cf18 e7be
00000030: 703c 293f b6b2 08be 5edd 61bf bd8e f8be
00000040: 3c3f 613e a03e 793e c192 063f 45c7 ff3e
00000050: 9774 e1be dc12 ce3d 4a6e 25bf fa69 e43e
00000060: e335 833f 4a3d f23b ccd0 b6be f4cc dbbe
00000070: 78ba 29bd d8b5 c4be 7921 e0bd 1f3a 753f
00000080: 1df0 463f b108 dbbe 86e6 bd3e 7952 9bbe
00000090: 301b 17be 8927 53be bcdf f1be 8554 083f
000000a0: 0c00 7f3d 59ac 773f 6793 e63e 56fd 183c
000000b0: 1800 e4be 27a3 e03d 4076 43bf 522a bcbe
000000c0: 477e 873f ebdb 3b3f 567f 223d 61fd c93e
000000d0: 7320 56be f9c1 83be e933 06bf 7252 9e3e
000000e0: a9b3 98be 9387 9cbe 823b 58bf 0615 adbd
000000f0: d43d 653f de7c 18bf 749b e4bb 952a a23e
0.35078436 0.15467595 0.60134435 0.35392526 0.34711838 0.49246365 0.7150883 0.045898773
-0.03715406 1.0312787 0.17546444 -0.45136115 0.66107845 -0.13349423 -0.88228405 -0.485464
0.21996778 0.24340296 0.5256768 0.49956718 -0.44034263 0.10062191 -0.6462141 0.44612104
1.025082 0.00739256 -0.35706174 -0.42929804 -0.041437596 -0.38419986 -0.109438844 0.9579181
0.77710134 -0.4278007 0.37089938 -0.3033636 -0.14756465 -0.2062055 -0.47241008 0.53253967
0.062255904 0.96747357 0.45034334 0.009337744 -0.44531322 0.10968619 -0.7635231 -0.36751038
1.0585412 0.73382443 0.03967222 0.39451125 -0.20910816 -0.25733927 -0.5242296 0.30922276
-0.2982457 -0.30572185 -0.844658 -0.084512755 0.8954747 -0.5956553 -0.0069765393 0.31673113

weight f4 [16]
00000000: e2de 9c40 db1f c140 a143 b840 88af c740
00000010: 7c9a bd40 be9e 9b40 b676 9140 99ec bd40
00000020: d22c 9b40 6af9 ba40 c648 dc40 02e7 9e40
00000030: 3246 5640 ad93 8d40 0c1a b740 fc4d 8f40
4.9022074 6.0351386 5.7582555 6.240177 5.925108 4.8631277 4.545741 5.9351315
4.849221 5.842946 6.8838835 4.965699 3.3480344 4.424277 5.7219296 4.4782696

bias f4 [16]
00000000: c2ba a13d 6392 bf3e 7225 ca3e 3a26 e43e
00000010: 5dbf 603e de5e c73e c2f7 c3bd ecf6 3bbe
00000020: cf33 193f 523f 0a3f aeac 383f dac6 d23e
00000030: eaa1 27bc c89a 8b3f c3b0 43be 9419 a0be
0.07896949 0.37416372 0.39481694 0.44560415 0.21948 0.38939565 -0.095687404 -0.18355912
0.5984468 0.5400287 0.7213849 0.41167337 -0.010231474 1.090661 -0.19110398 -0.31269515

running_mean f4 [16]
00000000: f10e 3b3f a9aa 533f ff01 273e 5b54 06bf
00000010: b7df 1e3f 2627 3dbf a15f f63d aabf 91bd
00000020: 3daf 223f 4c24 eebe 55d2 f93e cc38 66bf
00000030: 8826 183f cc4b 0ebf 3033 69bf 2976 ca3e
0.73069674 0.8268228 0.16309355 -0.52472466 0.6206011 -0.7388786 0.120299585 -0.07116635
0.6354864 -0.46512067 0.48793283 -0.89930415 0.59433794 -0.55584407 -0.9109373 0.39543274

running_var f4 [16]
00000000: 2621 323d 9cac 683d 316b 543e 1678 923e
00000010: 4d78 5e3d 1d1a f13d 1a3d ba3e d43f 473e
00000020: 9175 573e 3748 a73d 920e 123e c06b 9a3d
00000030: ce6e c73e 9ef9 453d 0f11 433d 3566 8c3e
0.043488644 0.056805238 0.20744015 0.28607243 0.054313947 0.11772559 0.36374742 0.19457942
0.21040942 0.08168071 0.1426337 0.07540083 0.38951725 0.048333757 0.04762369 0.27421728

weight f4 [10, 16]
00000000: 7413 f3bb e387 b23e 2350 063f 5383 b7bf
00000010: d257 eb3d 541a 6dbe 7ccd ee3e 5626 6d3f
00000020: 1e9d aa3f 1928 42bf 5f18 1740 9dc2 febe
00000030: 2b96 0740 9a8b 94bf 5893 1bc0 ec2b 4ebf
00000040: 78b7 5ec0 c418 02c0 f3eb dbbf 3d8f 573e
00000050: 6c82 4bc0 fefa a33f 88ff 9d3f 8e76 6ebf
00000060: 6830 dd3f b7f5 a13f 02d5 0bbf 8cc6 49be
00000070: a2eb 2f3f 4dab fb3f 2d0f c4bf 1d2f 44c0
00000080: e779 88be d9b0 44bf 270a 8a3f 669c 05be
00000090: 5aa9 d0bf ca87 513f 1ecb 72bf ab69 29bf
000000a0: 8882 1abf 334b aabe 439d 02c0 002d 753f
000000b0: a635 eabd a306 5fbe 649d fc3f 1a5d aa3f
000000c0: 21cc ad3f 3e77 793f 8e56 813f 44fc 12c0
000000d0: adb0 c53f 658d f13e a882 62c0 1d5e f7be
000000e0: 1b22 4cc0 6f62 1b3f b3e1 813f f7fc a93f
000000f0: 4675 45c0 72f7 1cbe e3d1 ba3f 7aca 8e3e
00000100: e908 2dbf a56e 29c0 f0be 22c0 7674 e53f
00000110: 66c3 05bf e198 8b3e 6fd0 ca3f b405 f03f
00000120: 7e73 b4bf 4e62 dcbe 95ac afc0 37e7 83bf
00000130: 45d5 e53f 134a 99bd e4cf bd3f f0a8 983f
00000140: 1f7d ccbe 35e2 c73f 0731 c03f 6d8f 003e
00000150: 3ffa 1a3f ed8d 06c0 c3b4 693f b132 02c0
00000160: bf34 96bf 7da6 d5bf 268d d93f d276 d13f
00000170: 9477 1fbf 91fb bbbe 8612 ac3d bf97 a9bf
00000180: c38e c4be 6b5b 63be b7eb 843d 8aee e03f
00000190: 23fa 3dbf 6823 03c0 ef71 3240 745b 3dc0
000001a0: bb49 f63f 053c 1fc0 d62b efbe c709 823e
000001b0: 6d26 b73f adf2 b3bf dcc1 2abf e823 363f
000001c0: 25ec 0fc0 76af 98bf d99c a13e 32f8 a9bf
000001d0: 5ac0 babf 9598 1340 c7fb 33c0 d47b 2640
000001e0: e683 e3be 098a 1540 5db2 f93e f81b 0f3e
000001f0: 4eb5 07bf 1936 ba3e 6cf8 373e 3a54 1bc0
00000200: 278d 2a40 bde1 523f 5992 b1bf 7153 453f
00000210: d71f ac3f 88ae 2ec0 86d7 a3be 8c38 c8bf
00000220: b9e7 ea3e df9e 7ebe ff1d eabd aff9 33bf
00000230: e703 14c0 a10e 8fbe b6af 70be 3c67 0040
00000240: f7be 523f 2cfd 2a3f 7535 b6be 1242 9abc
00000250: 4c22 9d3f 47f8 5b3e 2668 c8bf cd78 a83f
00000260: ea96 11bf 9cca 4b3f 298a 4cbf 388d 0fc0
00000270: b1dc 87bf bd64 453f 3ace ccbf 650c 623f
-0.0074180905 0.34869298 0.5246603 -1.4336952 0.1149136 -0.23154575 0.46641147 0.9263662
1.3329198 -0.75842434 2.3608625 -0.49757853 2.1185405 -1.1605103 -2.4308681 -0.8053577
-3.479948 -2.0327616 -1.7181381 0.21050735 -3.1798353 1.2810972 1.2343607 -0.9314965
1.7280397 1.2653111 -0.546219 -0.19704646 0.6871892 1.9661652 -1.5317131 -3.0653756
-0.26655504 -0.7683235 1.0784348 -0.13047943 -1.6301682 0.8184782 -0.9484118 -0.6617686
-0.60355425 -0.33260497 -2.0408485 0.9577179 -0.11436014 -0.21779875 1.9735532 1.3309662
1.357792 0.97447574 1.0104539 -2.296647 1.5444542 0.47178188 -3.5392246 -0.4831399
-3.1895816 0.6069707 1.0147003 1.3280324 -3.0852828 -0.15328768 1.4595302 0.27888852
-0.6759172 -2.6473782 -2.542904 1.7926166 -0.5225128 0.27265075 1.5844859 1.875174
-1.4097745 -0.4304375 -5.489817 -1.0304936 1.795571 -0.07484832 1.4829068 1.1926556
-0.3993921 1.5615908 1.5014962 0.12554713 0.60538095 -2.1024125 0.91291445 -2.034344
-1.1734847 -1.6691433 1.69962 1.6364386 -0.62291837 -0.36715367 0.084019706 -1.3249434
-0.3839017 -0.22202842 0.064902715 1.7572796 -0.74209803 -2.049036 2.788204 -2.9587069
1.9241251 -2.4880383 -0.46713132 0.25398085 1.4308602 -1.4058434 -0.66702056 0.7114854
-2.248788 -1.1928546 0.31564978 -1.3278868 -1.4589951 2.3061879 -2.8122423 2.6013079
-0.44436568 2.33655 0.48768893 0.13975513 -0.53011024 0.36369398 0.17965859 -2.4270158
2.6648653 0.823757 -1.3872787 0.77080446 1.3447217 -2.7294025 -0.3200037 -1.5642257
0.45879915 -0.24865292 -0.114315026 -0.7030286 -2.3127382 -0.27940848 -0.23504528 2.006301
0.8232264 0.6679256 -0.3558766 -0.018830333 1.2276092 0.21481429 -1.5656784 1.3161865
-0.568709 0.7960603 -0.79898316 -2.2429943 -1.0614225 0.7710684 -1.6000435 0.8830016

bias f4 [10]
00000000: 8dc1 c9be d49c ba3f a0e0 803e a616 d4bd
00000010: ef49 acbe 9b2b 813d fab0 873c 2c0c 9cbe
00000020: ba14 4dbe e8db aebe
-0.3940548 1.457911 0.25171375 -0.10355882 -0.33650157 0.06307145 0.016563881 -0.30478036
-0.20027438 -0.3415215
