HW2/aML/resnet4_btnk_ch16.pt (torch, 68559 bytes, 27 tensors)

weight f4 [16, 3, 7, 7]
00000000: b03c 1c3e 3bc6 03bd 1d6a d6bc 3ab4 33be
00000010: 2007 9b3d 7a3b 373e 7f99 ae3e 26e9 5d3d
00000020: 116d e1bd 890b 41be be14 4d3d a0fa af3e
00000030: a0ea 01bc 76ee 46be b2e9 f53c 53b4 52bc
00000040: 38d1 fc3d c756 513e fc06 8ebd 4feb 81be
00000050: 0bba c9be 314f fa3e ee3b 453e 7689 833e
00000060: c85d 9d3e 67b0 2dbe 187e f4be 4115 7cbe
00000070: 9684 ad3e e624 64bd 31cc 16be ce0f 6c3e
00000080: 548a dbbd d523 10be e983 693e 7c83 6dbe
00000090: 475e 84be 593a 49be d036 293d c27c af3e
000000a0: 3bff 3a3d c04d 4d3e 7f49 7fbe c155 f6bc
000000b0: 99ae adbd 19f6 273e 526b 953e 31a2 313e
000000c0: 3076 883e d882 15bb 5b61 033d 689c ccbb
000000d0: 9261 f3bd 5ead 32bb 4b98 043e 1eab 993e
000000e0: 9cc7 0c3e 2bb2 4abe 853d 94bd cffd 743d
000000f0: f80a 613e b7ff 9d3d 1751 1bbe c157 4abd
00000100: 847b e2bd c811 0a3e 7be4 983e b265 c7bc
00000110: b9ec 83be 06a5 c6be a5db c23e 839b 863e
00000120: 9288 083e d354 6b3e 1587 8cbe aeb3 ddbe
00000130: fe62 87be 35fb c53e 9186 433c 163b b2bd
00000140: b884 af3d b6b9 debd 3829 d3bd 6025 863e
00000150: dea4 1bbe a242 32be b27a 90be 8b62 d63d
00000160: 5b88 9d3e 86f5 b3bb 2626 f13d b71f b0be
00000170: 01c7 97bb c249 283b 4d38 2f3e 8a5a 693e
00000180: 69a6 683d 130a 863e d113 0f3e 2e7d 13bc
00000190: 279d 823c 74aa 53bd aa8e df3d 67ee 8a3e
000001a0: c938 963e 10e0 1dbc acb6 1cbe 4f36 abbd
000001b0: 929e f83d a6b1 a13e df39 c93d c822 64be
000001c0: bdf1 90bd efd8 98bd 129a 843d da7d 803e
000001d0: 070d 62bd 785c 84be 929e e3be 0139 f33e
000001e0: 4b6f 763e bd70 073e 95cc 8e3e 913a 2ebe
000001f0: 6c35 cebe fefb 68be 4d3c bc3e 560a 93bd
00000200: 9725 1cbd 2f3d 773e 4863 90bc ca22 65be
00000210: 5c85 243e 99ab 26be ff83 8fbe 00c4 6ebe
00000220: 3bfc 9d3c 09bc 963e c5bb 573d 237f 833e
00000230: 1f45 b7be b535 2bbd 5f95 29bd cf54 1e3e
00000240: 2c5a 5a3e c3e8 723d d8df 263e 0966 873b
00000250: 8ad8 a83d 8da5 133e 881c b6bc 5eec 563c
00000260: 61fc a2bc 58ad a2bd 78f6 683d bbfe db3d
00000270: 931e cf3d 62ed 86be 486b a1be 0870 89be
00000280: 4f5d 95be 99f8 833d cb7e 4a3d 571c a8be
00000290: 16d2 01bf 4ab4 a2be 70be 24be 027c 333e
000002a0: 12b9 a53d a16e 7fbe 0e50 dabe 3def a6be
000002b0: efe7 073d bdb3 333e 22ba 083f f727 52be
000002c0: f00a 83be a3e4 b2bd 17f9 9c3d 60e3 8b3e
000002d0: c608 053f 4cac 4e3e 776f 5cbe ef7d 9e3d
000002e0: 9688 693e 8915 c73e 88d8 d93e 6aaa 4c3d
000002f0: 2f8f 703e 1845 573e 4254 9c3e 956c c23e
00000300: 5b5a 8e3e 53ea ecbc 60ed b6bd 58e0 e43d
00000310: aa53 15be 5006 0d3e ae42 053e 5e3d 203d
00000320: 6b3a 52bd ffbc c33d dadf 5ebe c286 3fbc
00000330: ed2f 113d 1418 ca3d 87e9 b4be 31fa c5be
00000340: c8ff a1be cb60 aebe 1e3a 4dbd 6aab 493d
00000350: d6da b2be 9708 0ebf fa10 cabe c8db 47be
00000360: 272c 213e f29b b83d c8ff 05be 388a d7be
00000370: 0870 8dbe fa57 253d 3dec 273e 840b f93e
00000380: 6813 99be 2e96 5abe 3648 29bd 77d0 013e
00000390: df7b 933e 8c94 043f 7925 883e d793 83be
000003a0: 5398 903d bc7b 923e 67ae e03e 2d8c e03e
000003b0: d875 c73d ddc2 023e d4b1 5b3e fba9 8b3e
000003c0: 2cd0 973e 31cc 203e c72c 7fbd 4d6f 0bbe
000003d0: d076 9e3d 2bdc cfbd aedb fe3d ae4b 9c3d
000003e0: 6331 f13d bf32 2d3d 778b a63c 7d12 c5bd
000003f0: 3a28 043c 4728 9d3d 6a79 673d 8aca 74be
0.15257525 -0.03217147 -0.026173646 -0.1754922 0.07569718 0.17893782 0.34101483 0.054177426
-0.11007131 -0.18852057 0.05006861 0.343709 -0.007929474 -0.19426903 0.030018661 -0.012860375
0.12344593 0.20443259 -0.06934926 -0.2537484 -0.39399752 0.48888543 0.19261143 0.25690812
0.30735612 -0.16961823 -0.47752452 -0.24617483 0.33890218 -0.05569925 -0.1472633 0.23052904
-0.10719743 -0.14076169 0.22804226 -0.23194689 -0.25853178 -0.19651164 0.04131204 0.3427487
0.045653563 0.2004919 -0.2493038 -0.030070188 -0.084805675 0.16402473 0.2918344 0.17347027
0.2665267 -0.0022813585 0.032075267 -0.006244231 -0.118838444 -0.002726398 0.1294872 0.30013365
0.1374802 -0.19794528 -0.072382964 0.059812363 0.2197684 0.07714789 -0.15167652 -0.049400095
-0.11058715 0.13483346 0.29861817 -0.024340484 -0.25766543 -0.38797778 0.380582 0.2629052
0.13333347 0.22981577 -0.2744681 -0.43301147 -0.26442713 0.38668218 0.011933939 -0.08702676
0.08570236 -0.10875265 -0.10310596 0.2620039 -0.1519961 -0.17408231 -0.2821861 0.10468014
0.30768093 -0.005491915 0.11774854 -0.34399197 -0.0046318774 0.0025678729 0.17111321 0.22788444
0.056799326 0.2617956 0.13972403 -0.009002013 0.015944077 -0.05167623 0.10915883 0.27135012
0.293402 -0.00963594 -0.15304059 -0.08359968 0.1213962 0.31580848 0.09825491 -0.22278893
-0.07077358 -0.07463252 0.06474699 0.25096017 -0.055188205 -0.25851798 -0.44456917 0.47504428
0.24065892 0.132266 0.2789046 -0.17014529 -0.40275133 -0.22752377 0.36764756 -0.07179706
-0.038121786 0.24144433 -0.017625466 -0.22376552 0.16066498 -0.16276397 -0.28030393 -0.23316956
0.019285312 0.29440334 0.052669305 0.25682935 -0.35794923 -0.041799266 -0.041402217 0.1546204
0.2132346 0.05930401 0.16296327 0.0041320366 0.082444265 0.14418621 -0.022230402 0.013117878
-0.019895734 -0.07943219 0.056875676 0.10741945 0.101132534 -0.26352984 -0.31527162 -0.26843286
-0.2917275 0.064439006 0.049437325 -0.32834122 -0.5071119 -0.31778175 -0.16088271 0.17527774
0.0809194 -0.24944545 -0.42639202 -0.326044 0.033180173 0.17549033 0.53409016 -0.20523058
-0.25594282 -0.08735015 0.076646976 0.2732191 0.5196651 0.20182914 -0.21526895 0.07738864
0.2280601 0.38883618 0.42548013 0.049967207 0.2349212 0.21022451 0.30533034 0.37973467
0.2780331 -0.028920328 -0.089319944 0.11175603 -0.14582697 0.1377194 0.13013718 0.039121024
-0.051325243 0.095575325 -0.2176508 -0.011689844 0.035446096 0.09867874 -0.35334417 -0.38667443
-0.31640458 -0.34058222 -0.050104253 0.04923574 -0.34932584 -0.5548186 -0.39466077 -0.19517434
0.15739499 0.09014119 -0.13085854 -0.4209764 -0.27624536 0.040367104 0.16398712 0.48641598
-0.29897618 -0.21346352 -0.04132863 0.1267718 0.28805444 0.51789165 0.2659109 -0.2569873
0.070603035 0.28610027 0.43883058 0.43856946 0.09739274 0.12769647 0.21454555 0.27278122
0.2965101 0.15702893 -0.062298562 -0.13616677 0.077375054 -0.101494156 0.12444244 0.07631622
0.11776998 0.042284723 0.020330174 -0.09622667 0.008066231 0.07673698 0.056512274 -0.23905388

weight f4 [16]
00000000: bee1 213f 746b 793f f5df 793f cb8a b23f
00000010: c2da c83f 4f1c c93f 0e5f 173f 8e9b 8b3f
00000020: 3964 4e3f 4db0 aa3f de27 593f 34dc ae3f
00000030: e297 623f 16a7 7b3f 7ea6 7a3f f138 383f
0.6323508 0.97429585 0.97607356 1.3948606 1.569176 1.5711764 0.59129417 1.0906847
0.8062168 1.3335053 0.8482646 1.3660951 0.88513005 0.9830183 0.97910297 0.71961886

bias f4 [16]
00000000: dd27 31bf cd74 e03e c06a f73c f7c3 a83e
00000010: 3524 273f 0d21 e1bd c112 31bf 6aec febc
00000020: 590e 20bf e879 953f 7540 b93d 9fc4 23be
00000030: 506e a5bd e1b8 dfbe 8dbb 28bd 756a f8be
-0.6920145 0.43839112 0.03020227 0.3296201 0.6528962 -0.10992632 -0.6916924 -0.03111859
-0.6252189 1.1677828 0.09045497 -0.15992974 -0.08077681 -0.4369574 -0.041194487 -0.4851872

running_mean f4 [16]
00000000: 1de0 5041 ef6f 203e 58ac bfc0 d0a8 fbc1
00000010: fece 4cc2 7863 22c2 6745 193e 929a 82bf
00000020: ab21 8541 e9b4 3cc2 50cf 3940 bd54 d2c1
00000030: 2ab5 5fc1 7e77 b942 f3bc ae40 c911 c240
13.054715 0.156677 -5.989788 -31.457428 -51.20214 -40.597137 0.14967881 -1.0203421
16.64144 -47.17667 2.9032784 -26.291376 -13.9817295 92.73338 5.460565 6.064671

running_var f4 [16]
00000000: 66b1 1d46 e630 0e47 11be d046 3ec6 5047
00000010: 4668 b247 b1f6 ae47 70f4 d145 882a b546
00000020: 55d3 2147 ad5d df47 e7bf 8847 129f 2f47
00000030: 3087 be46 7b32 a448 96bc db46 7a4d e145
10092.35 36400.9 26719.033 53446.242 91344.55 89581.38 6718.5547 23189.266
41427.332 114363.35 70015.805 44959.07 24387.594 336275.84 28126.293 7209.6846

weight f4 [16, 16, 1, 1]
00000000: 1d5b 5d3d 072c 17be 197e 15bf 0c3d 32be
00000010: 6d01 7dbf feb6 b43d 116f 293f 78f5 893e
00000020: 12a6 5a3e e201 59bf 0b64 5d3e 8e1c ea3e
00000030: 5d1f 403d 504f 4dbe 6179 5ebd 031d ce3e
00000040: 7510 e33e d865 8bbe 2ded 51be 905f 4dbe
00000050: fe1a 683d a939 f83d a580 6f3e ff8d 37be
00000060: e669 fa3c 6f6e e5be 1dfd 3abf ec1b 693d
00000070: e552 ffbc 68cf 90be 816f d13e 3ab7 0cbf
00000080: b4b5 89ba 14b7 503e cb92 4cbb 86ca 333d
00000090: 07d6 653e 54e4 ed3e f2a8 e03c a38b b83e
000000a0: bbcf 203d 90aa 5b3f e524 75be bf46 21be
000000b0: 37cd a53e beca 80be 3d14 aabe 9411 92bd
000000c0: 634e 63bd 5e2b bcbe a02a 2b3d 3eef fc3e
000000d0: 30c4 293f f069 01bf b129 853d 8ae2 993d
000000e0: 6c55 f33d 8071 9c3e 4fd2 f9bd d641 bebe
000000f0: 46af a5be 885e 163d a93a 5ebe 8811 363e
00000100: 47c7 783e 8cf7 9a3e 40fc 8fbe 3845 b1bd
00000110: b3c9 92be f2e2 a1be 0290 a23e 07d8 ff3d
00000120: 1a4a 803e bb69 2dbf 6223 31bf d52c 5f3e
00000130: c335 863d 0d87 143e b4e4 d93c 8a50 163e
00000140: 2059 d83d f1ac 9b3c 4f30 c6be c239 c63e
00000150: 3ba0 663f 2adb 843e 4de8 343e 59d0 923d
00000160: 5eed 0dbf 9f27 e3bd ca54 babd a21e 863d
00000170: ad76 853e 768c 50bc 9ec7 20be 9da0 abbd
00000180: a90f 1cbd b4a4 4b3d 4540 2a3e 2ee9 e73e
00000190: 6586 273d 57e1 b23e 55ad 25be 9aa6 71be
000001a0: 1b72 59bd 1727 093e 7382 9b3e f336 20bf
000001b0: 73ca 5d3d 7240 c13e 0461 a7be 9501 863d
000001c0: 8da6 fe3d a166 58be d9bd 9e3e ab4e a13e
000001d0: a4ef ec3e 3cf3 43be e3dc 42be 5a63 6fbe
000001e0: 583b cc3e 17b7 843e a51f 1e3e cd13 a93d
000001f0: d633 93be 8748 7f3e 5707 87be be3b 883e
00000200: 6fc8 073f ec55 163d 9799 d3bd c846 823e
00000210: 06ec 6bbd c7b4 07bf c90c a63e 016e f1bd
00000220: 3712 4e3e 60af 4bbe c25f 6b3d 74df e6be
00000230: 3c8f bcbe b2b7 6bbe 6351 8a3e fc5d 8f3e
00000240: 8ddc 0f3e 5b1f 71be e65b a2bc 8f3b 2fbe
00000250: 697c 063e 128a c7be f66a 523e e0d2 913c
00000260: d505 6a3e 1633 92bd d763 8abe 4911 a13e
00000270: abfc 89be afe4 a1be 9dc2 2f3f eb56 82bd
00000280: 4400 713d 4355 8f3e 0968 4d3e edde 0ebf
00000290: 7d45 66bd 4e59 36bf f240 3d3d c891 503e
000002a0: a699 423e 61e6 3b3f 0c8b 95be 45cf 03bf
000002b0: b8a2 993d e513 9abe 4d0e 6ebe 7c9b 26be
000002c0: 274a 6c3e 4010 5dbd 132d a9be 3d7e 9a3e
000002d0: 4c33 23bf 3ff8 c93e 6bb8 a23d 5470 6d3e
000002e0: 8d11 85be 0c2f fabe 1295 fb3c a134 e8be
000002f0: 2bce e23d 93bd b9be 957f 0ebf 689a b3bd
00000300: 2c1d 0e3e f0e6 c43e 3fbe c53e bf42 863e
00000310: 2776 5dbd 995d 9d3e 2cf1 963d 00af f83e
00000320: ae0d 44bd 7de6 88be 885a c33d b85e fb3c
00000330: aee8 4e3c 7e87 a1be d779 1ebe 30a1 df3e
00000340: b75c 9c3d 792c d23e 15c6 ae3e 831a 903e
00000350: e0b8 763e 9688 30be e98a 9fbe 46f6 12bf
00000360: 1a5e 283d 8f92 d5bc 8d57 213c 4114 c73d
00000370: 1b2c bdbd 2c9f 8fbe ca4b 5bbe 6f65 2f3e
00000380: e873 21be 756f 14bf eeef 95bd 5060 573e
00000390: f27a a5bd 78a7 15bd b078 623e af8f ff3e
000003a0: 7891 203e bfd3 fd3e dbd0 8b3d 58ec 3cbe
000003b0: beff 86be 5b36 153e 5fe8 4ebe 7ff0 513e
000003c0: b7b9 28bf af56 96be c0d5 b5be 7441 c5be
000003d0: 4f26 ef3d 8d4f d1be e1ea edbd 6fd2 913c
000003e0: be1d 8fbd 7759 8b3e 6ba3 a73e ca8e 643e
000003f0: 3650 2abf 0a10 3abe 2aed f9bd 8386 e93e
0.05404197 -0.14762889 -0.58395535 -0.174061 -0.988303 0.088239655 0.661851 0.2694509
0.21352413 -0.847685 0.21620195 0.4572491 0.04690491 -0.20049787 -0.054314975 0.4025651
0.44348493 -0.27226138 -0.20500632 -0.20055985 0.056666367 0.12120373 0.23388918 -0.17925261
0.030568074 -0.44810817 -0.7304247 0.056911394 -0.031167457 -0.28283238 0.40905383 -0.5496708
-0.0010506422 0.20382339 -0.0031215425 0.043894313 0.22444926 0.46463263 0.02742431 0.36044034
0.039260607 0.8580713 -0.23939855 -0.15749644 0.3238313 -0.2515468 -0.33218566 -0.07132259
-0.055494677 -0.36751837 0.041788697 0.49401277 0.66314983 -0.5055227 0.06502093 0.07513912
0.11881527 0.30555344 -0.12198316 -0.37159604 -0.32360286 0.036711246 -0.21702065 0.17780125
0.24294768 0.30266988 -0.2812214 -0.086557806 -0.2866951 -0.31618458 0.31750494 0.12492376
0.25056535 -0.67739457 -0.69194615 0.21794446 0.06553223 0.14504643 0.026598312 0.1467916
0.10563874 0.019003363 -0.38708732 0.3871594 0.9008824 0.2594846 0.1766674 0.071686454
-0.5544032 -0.110915415 -0.090982035 0.065488115 0.26067105 -0.012728801 -0.15701148 -0.08380244
-0.038100872 0.04971762 0.1662608 0.4529509 0.040899653 0.34937546 -0.16179402 -0.2359871
-0.053087335 0.13393818 0.30372962 -0.62583846 0.05414815 0.3774448 -0.32691205 0.065432705
0.12434111 -0.211329 0.31004217 0.3150533 0.4627658 -0.19135755 -0.19029574 -0.23377743
0.39889026 0.25920936 0.15441759 0.0825573 -0.28750485 0.2493001 -0.26372787 0.2660808
0.5304021 0.036703035 -0.10332029 0.25444627 -0.057598136 -0.5301022 0.3243163 -0.1178856
0.20124136 -0.19891119 0.05746437 -0.45092356 -0.3682803 -0.23019293 0.27015218 0.28001392
0.14048977 -0.23547117 -0.019819211 -0.17112564 0.13133396 -0.38972527 0.20548615 0.017800748
0.22853787 -0.0713865 -0.27029297 0.314585 -0.26950583 -0.31619784 0.6865633 -0.063642345
0.058838144 0.27994737 0.20059218 -0.5580891 -0.056218613 -0.7123002 0.046204515 0.20368111
0.19003925 0.73398405 -0.29207647 -0.51488143 0.07501739 -0.30093303 -0.23247643 -0.1627025
0.23075162 -0.053970575 -0.330422 0.30174437 -0.6375015 0.3944721 0.07945331 0.23187381
-0.25989953 -0.4886402 0.03071073 -0.45352653 0.1107448 -0.36277446 -0.55663425 -0.08769685
0.13878316 0.3845744 0.3862171 0.26222798 -0.054067757 0.30735472 0.07370219 0.48571014
-0.04786461 -0.2673835 0.09538752 0.030684814 0.012628717 -0.31548685 -0.15476166 0.43677664
0.076348715 0.41049555 0.341355 0.28145227 0.24093962 -0.17239603 -0.31160668 -0.57407033
0.041105367 -0.026070861 0.009847534 0.0972066 -0.09236928 -0.28051126 -0.2141563 0.17128538
-0.15766871 -0.5798257 -0.073211536 0.21032834 -0.080800906 -0.036536664 0.22116351 0.4991431
0.15680492 0.49575612 0.068269454 -0.18449533 -0.2636699 0.14571516 -0.2020583 0.20501898
-0.6590838 -0.2936301 -0.3551464 -0.385265 0.11677229 -0.40881005 -0.11617065 0.017800538
-0.06988095 0.27216694 0.32741866 0.22320095 -0.6652864 -0.18170181 -0.122034386 0.45610437

weight f4 [16]
00000000: 4218 553f bbd1 953f ef3f 813f 69df 9f3f
00000010: a316 813f ec22 b93f 731a 813f a36f 673f
00000020: 8c99 623f 2895 7b3f 2c71 803f 30d7 e43f
00000030: c696 3f3f f05c 823f 0d17 743f 389b b23f
0.8324014 1.170463 1.0097636 1.2490054 1.0085033 1.4463782 1.0086197 0.9040472
0.88515544 0.9827447 1.0034537 1.787817 0.74839437 1.0184612 0.9534767 1.3953619

bias f4 [16]
00000000: 7e78 07bf 8d52 453e 3e09 22be 28ee 033e
00000010: 80d7 2bbf 948a e63d 3ab7 bbbe 5007 11bf
00000020: 226c 83bf f5f6 b5be 79ee 5f3d d7fd 85bd
00000030: 03ba d5bd f9aa 06be 460c 31bf ba7c 0e3e
-0.5291823 0.19269772 -0.15823838 0.12883818 -0.671257 0.112569004 -0.36663228 -0.56651783
-1.0267375 -0.35539976 0.054670785 -0.06542557 -0.104358695 -0.13151158 -0.6915935 0.13914767

running_mean f4 [16]
00000000: faca 03c0 c2ed 8dbf 4de9 c93f d426 6b3f
00000010: a0fa 88bf 601f 433f f01c 1d3f 02ac 7a3f
00000020: ce6c 29be a332 47be 84a2 083f c7fe adbf
00000030: 35cd 993e e8b7 dc3e 838d f63e 51c4 7fbe
-2.0592637 -1.1088183 1.5774323 0.9185612 -1.0701485 0.7621975 0.6137228 0.97918713
-0.16545412 -0.1945291 0.5337298 -1.3593377 0.30039373 0.4310906 0.4815484 -0.24977233

running_var f4 [16]
00000000: 39c5 ba3f 557f f33f 15d5 983f 1b99 6f3f
00000010: b4b1 443f 8c39 5d3f c491 203f f574 473f
00000020: bb99 0b3f 883d 343f 9a75 d33f 2476 1e40
00000030: 6e44 1440 2c7f 9b3f ae26 963f b8e2 2c40
1.4591438 1.9023234 1.1940027 0.93592995 0.76833653 0.86415935 0.6272242 0.7791284
0.5453145 0.7040639 1.6520264 2.4759607 2.3166766 1.2148185 1.1730554 2.7013378

weight f4 [16, 16, 3, 3]
00000000: ec7f 2e3e 03eb 48bc ad14 5e3d 23e6 89be
00000010: 9b2c 16be fb2b 14bd b8b8 80be 91fc a8bd
00000020: c7e4 a63d eea4 a53e 5bc2 333f ce19 273f
00000030: 4a2c 303e 346d 7f3e 9778 893e 5a66 a63e
00000040: 7662 7d3e dc17 9c3e ce35 873c f095 0dbe
00000050: 3660 a03e 12de db3d 4987 01bd 8e1f 483d
00000060: e6bf 6cbb 775e 4d3d 7081 15bd 7df9 143e
00000070: 5d37 f03d 6589 b63e 8d59 003f 95c0 a33e
00000080: a408 f33d c419 523e ba82 0c3e 8f02 a7bd
00000090: 6668 5ebe 67f0 77be 6164 de3c df7d b2bb
000000a0: 0505 83be ee43 d4be 6172 1abc 23f0 49be
000000b0: 51a1 7cbf e34d 8b3e e91b d3bd 1dd1 8ebd
000000c0: d4bf 853d 986a d5be 7017 f4be 2527 023f
000000d0: 2dd0 503e 3480 7f3d dd58 7d3e 710f 443e
000000e0: 7a22 213e 3ae2 983d 12f8 28be af61 55bd
000000f0: 0871 833e 75df 78bc 79d5 323d 8ee0 d53d
00000100: 397a 293e 8a8c 1e3e f345 423e 46ee 903e
00000110: 4203 c73d 3dea 293e bbcb df3d d4d6 5d3d
00000120: b0a2 d43e 9603 d73e d9a1 843e 026b 963e
00000130: a6fe ac3e 792d 2b3e 5356 49bc 00b2 93bd
00000140: f2fa 8ebe 4c48 36bd f6ac 063e 76b6 35bb
00000150: e9b3 cbbd db0a 6c3e 4867 313e afb9 2abf
00000160: 0d21 7abe d9c9 19bf 163a 063e 8a78 983e
00000170: 0540 60bd b0fb b23d dedc a33e 7a68 26be
00000180: bfe5 733e 4877 063d 4742 58bf e05b cbbd
00000190: d203 0fbf 550d c2be f41c e63e 5284 9e3e
000001a0: db68 75be 1baa 1b3f af0b 153f b6e5 ccbd
000001b0: 7cdc bdbc 557b eabd 9983 b13d e7f6 8f3d
000001c0: edf8 ccbd b275 43bd b5da 0f3e e7aa 11be
000001d0: f09c 82be 1d59 3d3e f431 e8bd ff4f 9cbd
000001e0: ecb2 5c3e 7421 ab3d b2ad 4bbe 73c1 883e
000001f0: 2c4d debd e09c e8be 0ec1 8bbe 8078 8fbe
00000200: 5eed 433b ed45 26be 58a8 a3be 0eb3 15bd
00000210: 7948 f2be 9a66 76be 1410 1fbe 7fc7 b03c
00000220: ae5a 53be 2115 983e 0dfd 3ebb 00ff 26be
00000230: ff15 173e 5921 333e 556e 2f3e 57df 0a3e
00000240: 93cf 40bf 24f8 833c 1eca b03d bc22 6bbe
00000250: 1dc4 dabd 11fd f8be a64b 663d 1afe c63d
00000260: 17e5 acbe 45d2 413e cb60 ed3b 279d 36be
00000270: ef1d d1bd 68ca ccbc 817f 62bd 39a8 35bd
00000280: dc3d 833d 29ec 36be 054d a73e 9165 503e
00000290: 1307 083e dd0b 403e fa46 b03d 41c9 3fbe
000002a0: d3b2 f5bd 0f81 2bbe 9496 0bbd 05ca c4be
000002b0: 826e a03d 24d6 40bd 2302 2bbf e965 31bf
000002c0: f928 80bd 7a26 83bd d24b 7dbe d9d2 24be
000002d0: 6cc7 d63d 953b 6e3d d6f9 813c ef08 28be
000002e0: d2fe c3bd feef 793e 1415 1dbe 8504 1bbd
000002f0: b224 203e a7c1 523e 2047 563c dccd 56be
00000300: 6511 a23e 6f13 813e 88a7 31be a008 a5bd
00000310: acc4 d93e 84e5 8e3e c1d7 dabf ae90 1cbe
00000320: 8b2f f63e 0406 0cbf d223 213e 29ee a13e
00000330: 186e 3dbf 37b3 cebe 0bae 8a3e e935 58be
00000340: 7a44 ec3c 940c b13e ad18 973e 7248 95be
00000350: a376 923e a8ce 893e 0b8c 07be 80ba c9be
00000360: 1515 38bf 0a1f 14be 2a95 c93e e886 a0be
00000370: d4a0 9e3e 61e4 e03c 7271 c63c cdb1 debe
00000380: 82cb 8cbf 702c ff3e 583c 3e3e 4e17 89be
00000390: a4a2 cbbb b22e b53e 17e6 57bd db08 d03b
000003a0: 1182 1c3e eb1d 44bd fcef 92be 6b73 08bf
000003b0: 2afc 13be 2518 c03c 889e 09bf 87c0 a0bd
000003c0: 6915 843e 08a8 c13d 1fac 073e 1edc 84be
000003d0: abec bcbe 9bc4 3abe 6167 a03e bdf1 9cbe
000003e0: 6cb0 3abe e553 a9be ea39 993e 736b 083f
000003f0: 17bf 96bd dce7 e4bc d688 cf3d d297 913d
0.17040986 -0.012263062 0.054218937 -0.26933393 -0.14665453 -0.036174756 -0.2514093 -0.08251298
0.081491046 0.32352394 0.7021844 0.6527375 0.17204395 0.24944001 0.26849815 0.32499963
0.24744591 0.30486953 0.016505148 -0.13826728 0.31323403 0.10735716 -0.03162316 0.048858218
-0.0036125123 0.050138917 -0.036500394 0.14548297 0.1172931 0.356517 0.50136644 0.31982866
0.118668824 0.20517641 0.13721743 -0.08154785 -0.21719512 -0.242128 0.027147474 -0.005447134
-0.25589767 -0.41458076 -0.009426684 -0.19720511 -0.9868365 0.2720786 -0.10308058 -0.06973479
0.06530729 -0.41682887 -0.4767413 0.5084098 0.20391913 0.062378123 0.2474093 0.19146515
0.15735808 0.07465024 -0.16500881 -0.05209511 0.25672174 -0.015189995 0.043660615 0.10443221
0.1655053 0.15483299 0.18971996 0.28306788 0.09717418 0.16593261 0.109275304 0.054159954
0.4153037 0.41994923 0.2590473 0.29378515 0.3378803 0.16716565 -0.012288648 -0.07211685
-0.2792583 -0.04450254 0.13151917 -0.0027727163 -0.099464245 0.23051016 0.17324555 -0.6668958
-0.2442667 -0.6007362 0.13108096 0.29779464 -0.054748554 0.08739412 0.32004446 -0.16250792
0.2381811 0.0328286 -0.8447613 -0.09929633 -0.55865204 -0.37900797 0.44943964 0.30960327
-0.2396578 0.60806435 0.5822095 -0.100047514 -0.023176424 -0.11449305 0.086676784 0.07029515
-0.10008416 -0.047719665 0.14048274 -0.1422535 -0.2551036 0.18491025 -0.11337653 -0.076324455
0.21552628 0.0835599 -0.19890478 0.2671009 -0.10854563 -0.45432186 -0.27295727 -0.28021622
0.002989612 -0.16237612 -0.31964374 -0.036547713 -0.47320917 -0.24062577 -0.15533477 0.021579502
-0.2064006 0.2970362 -0.002914253 -0.16308212 0.14754485 0.1749319 0.17131932 0.1356176
-0.75316733 0.016109534 0.08632301 -0.22962469 -0.10681937 -0.48630574 0.056224488 0.09716435
-0.33768532 0.18927868 0.0072442046 -0.17833386 -0.102107875 -0.024998859 -0.05529738 -0.044349883
0.06408283 -0.17863525 0.3267595 0.20351245 0.13283949 0.18754525 0.08607288 -0.18729116
-0.11996999 -0.1674845 -0.03407915 -0.3843538 0.07833578 -0.04707922 -0.66800135 -0.6929613
-0.06257815 -0.06403823 -0.24735954 -0.16096057 0.104872555 0.05816229 0.015866201 -0.16409658
-0.095700875 0.24407956 -0.15340072 -0.037846107 0.15638998 0.20581685 0.013078481 -0.20976967
0.31653896 0.2521014 -0.17349064 -0.08058286 0.4253286 0.27909482 -1.7097093 -0.15289566
0.48083147 -0.5469668 0.1573632 0.31627014 -0.73996115 -0.40371105 0.2708591 -0.21114315
0.028841246 0.3457991 0.29511014 -0.29156834 0.28606138 0.2691548 -0.13237016 -0.394001
-0.7190717 -0.14464965 0.39371616 -0.31352925 0.30982077 0.02745265 0.024224017 -0.43495026
-1.0999606 0.4983859 0.18577707 -0.26775593 -0.0062144566 0.35387188 -0.052709665 0.006348712
0.15283991 -0.047880094 -0.2869872 -0.53301114 -0.14451662 0.023449013 -0.53757524 -0.07849222
0.25797585 0.094558775 0.13249253 -0.25949186 -0.36899313 -0.18239062 0.31328872 -0.30653182
-0.18231362 -0.3307182 0.29926997 0.53288954 -0.07360666 -0.02794259 0.10133521 0.071090356

weight f4 [16]
00000000: 1381 463f 054c 963f feed 973f e4a8 e83e
00000010: ee66 a33f 1509 aa3f 58c3 963f 0b92 1f3f
00000020: 0e0e 6e3f c0f3 723f 91fe b73f 9ebc 133f
00000030: 7c78 4f3f 916b 123f 71b3 c83f cf28 c03f
0.775407 1.1741949 1.1869504 0.45441353 1.2765787 1.3284022 1.1778364 0.6233222
0.92990196 0.94903183 1.4374563 0.5770968 0.8104322 0.57195383 1.5679761 1.5012454

bias f4 [16]
00000000: 5d37 58bf 889c f3be 8543 99be a5d8 4dbf
00000010: 7ee5 8cbe 2761 c0be ecba 84bd 528f a5bf
00000020: a182 a0bf c6a2 34bf 2285 b6be de05 98bf
00000030: b872 05bf aaa1 8abf e707 e0be 7e4e 22be
-0.8445948 -0.4758036 -0.29934326 -0.804087 -0.2751884 -0.3757412 -0.06480965 -1.2934363
-1.2539865 -0.7056087 -0.35648447 -1.187679 -0.5212817 -1.0830586 -0.4375603 -0.15850255

running_mean f4 [16]
00000000: 6840 f73f 6df8 a8bf 686c 173f 50e5 03c0
00000010: 4b2b 843e a44c 07bf 8e6f 15bf b5d1 743f
00000020: 9cbd 633f 2318 16bf b820 d9be a55c 3e40
00000030: 6a21 3ec0 7f50 063f 55ca cbbf ee94 6cbe
1.931653 -1.3200814 0.5914979 -2.0608711 0.2581428 -0.5285132 -0.58373344 0.9563249
0.88961196 -0.5863058 -0.42407775 2.9744046 -2.9707894 0.5246658 -1.5921122 -0.23103687

running_var f4 [16]
00000000: ec2c c640 dab6 e440 2756 ba40 615a 8e40
00000010: c145 a641 586f 0a41 fcc1 aa41 11d1 9940
00000020: f858 c540 a971 d440 83c4 7941 8dcc b240
00000030: 72c9 a740 249d 5640 c149 9941 3858 7a41
6.1929836 7.1473207 5.8230166 4.4485326 20.78406 8.652184 21.344719 4.806771
6.1671104 6.6388745 15.6104765 5.5874696 5.2433405 3.353341 19.161013 15.646538

weight f4 [64, 16, 1, 1]
00000000: bf20 89be 20f5 dabd a3b1 6d3e 9bdb 92be
00000010: d8d1 b03e 0368 b53e c308 e03e 711f d3be
00000020: 8582 623d b7bd bc3e c49d f83d 1766 063f
00000030: 86d8 5f3e b4bb b33e 1178 1cbe f13e 8fbe
00000040: 94f3 7b3e 2715 34be dca2 653d 8ccc a4be
00000050: cfe6 663e fd99 10bf d398 a7be f5bb 68bd
00000060: 2282 7d3f b6bc 693c 27c0 b1be 67d3 a3bd
00000070: e390 813e 10d8 61bd 2ab8 babd 9503 4ebe
00000080: 7acc 983d 09d7 a7be 661c b03e 2643 c33e
00000090: 429b c43e 9529 07be c867 52be e547 a33e
000000a0: d48b 1abd 0bd1 06bf 540a 453e 2e18 f8bd
000000b0: 8fb3 3b3f 95e1 94be dc36 3f3e fdda 7abd
000000c0: e727 d53d 062b 183e 58c1 9bbe 7ac0 373f
000000d0: 8df6 89bd 1a69 4cbe d16a edbd 9721 f43e
000000e0: 5418 b43b 7fa4 f2bd 587c 8abb c0c6 e2be
000000f0: 67ed e13d f53f babe bac3 81bd 9cd8 13bc
00000100: 1118 463f 5dc8 783e 56eb dbbd db0b c5bd
00000110: 4ca3 cb3d f384 a33e 8588 163e 08ac e83d
00000120: 67cf eabe d253 3cbe 9f67 f7be 1f18 e03e
00000130: 02b8 6dbe 1c05 843e 127a 34be 8cf3 133f
00000140: a1aa c03d 8ae9 fe3e 29b0 09be d0be 193e
00000150: 1788 813f b46a 043f 542b fa3e a159 9dbe
00000160: 3edd e7be a9ba c1bd 7aa9 1ebf 5ffd f33e
00000170: e8be 77bd 1683 dbbd c093 3cbe c157 3cbe
00000180: a718 113f b73f 103f 4fc5 efbd 52c2 263e
00000190: 963b 81be 3cf4 04be 9c55 b43c 8f1c 85bd
000001a0: cce4 2d3d 1d75 25bb 7004 c9be 5231 133a
000001b0: fd71 95be 0325 70bd d302 283d 8ce3 ab3f
000001c0: a7be c2be 0d33 b3be 44fb e3be 7222 b93c
000001d0: 4a7c 05bf 54ec b7be dd5d 863e 8acf 073f
000001e0: e56a 1fbe 960f d23e 9382 c9bd f2d9 b13c
000001f0: 228d fdbd 2946 b63e 3d7f debd 4b23 98be
00000200: 7e24 79be fa4f 993f d523 c0be 7be2 c93e
00000210: b532 6fbe 7ef1 81bd 6fc1 253f e770 25be
00000220: dd5c 70be 77e8 673e f30f 2cbb 2ee6 c23c
00000230: 5d9b 6fbe 713e e63d 6ff5 613f 4ff1 c23e
00000240: 907f f43e 085d 5a3e 47d5 983f 5457 f03a
00000250: 9e5f 50be 345a a9be c662 17bf 4d00 13be
00000260: ba84 b73d 2ee6 72bd 2112 1e3e cbe2 47be
00000270: b4f2 a03e 1345 34be e417 eb3e 7456 08be
00000280: a8ba a1be 8889 0f3e 3712 113e ad53 cd3d
00000290: 4e08 e9be ee0f 413f 3543 e23d 1774 53be
000002a0: 015b 20be 003a d33e 5752 a83f 8825 3abe
000002b0: be35 8e3d 6341 773e 9920 403f 3273 f2bd
000002c0: 5a4f 7f3e 38ec 313d db0b f5be 321e cdbd
000002d0: 466b dabe 76de 5b3f 0ad0 953e e049 6c3e
000002e0: 3980 09bf bbed 1e3d 2f16 86be 2a20 1f3f
000002f0: e94a 28be 1ea6 9c3e 57ef 20be 5434 a93e
00000300: 102d 923e 9e81 b33f f142 c13d e1ab fe3e
00000310: 9625 60bd 4f28 98be 00c1 afbe d1c9 333d
00000320: 7f3f 443e 71f2 6dbe 66c4 f3bd c05c a8be
00000330: 1fdc 1bbd 0e7b b9be 9a56 94bd 21a0 193e
00000340: d0fa c0be d17a c6bd f68c 5ebe 9a49 2b3c
00000350: b117 f0bd b18a 23bf 3a9f 2a3c 7ecc 993e
00000360: 4477 6c3f c927 c83e 6584 cfbd 706a 17be
00000370: c0e8 273e 7bfa 313d a989 02bf 711e bebd
00000380: 8000 dfbc 3ddc 47be 23ec 263e 9fd7 d73d
00000390: e2fb 103f ebc7 c63e 95a5 b2be 6c36 ca3e
000003a0: 80e3 8d3e 5bb5 843d 2c8b e03f 152e d6be
000003b0: 20c3 80be 0552 39be ff45 97be 2d8e a43c
000003c0: 5f4b a5be 2333 9ebe 77c6 babe 35e4 d93c
000003d0: 0caf b4be 0417 cabe 6343 173e d5b0 c43e
000003e0: b4cd 0d3e f2ec e23e 24f5 a13c 25c7 8abe
000003f0: 1318 8bbd e6b8 a83e 8acd 1e3f 0ef7 ebbd
-0.26782796 -0.10691285 0.23212294 -0.2868317 0.34535098 0.35430917 0.43756685 -0.41234925
0.055300254 0.3686349 0.121394664 0.52499527 0.21859941 0.35104144 -0.15280177 -0.27977708
0.24604636 -0.17586194 0.056063518 -0.32187307 0.22548984 -0.5648497 -0.32733783 -0.056819875
0.9902669 0.014266184 -0.34716913 -0.07999306 0.25305852 -0.055137694 -0.09117158 -0.20118554
0.07460876 -0.32781246 0.34396666 0.38137168 0.38399702 -0.13199456 -0.20547402 0.3189079
-0.037731007 -0.52662724 0.19242221 -0.12113987 0.7332086 -0.29078355 0.18673271 -0.061244
0.104080014 0.14860162 -0.30420947 0.7177807 -0.06736479 -0.19961968 -0.11592639 0.47681877
0.005496064 -0.118477814 -0.0042262487 -0.4429226 0.11031609 -0.3637692 -0.0633616 -0.009023812
0.7738047 0.24295183 -0.10738246 -0.09621402 0.09943256 0.3193737 0.14700516 0.11360937
-0.4586136 -0.1839135 -0.48321244 0.43768403 -0.23214725 0.25785148 -0.17624691 0.577935
0.09407545 0.4978755 -0.13446106 0.15014195 1.0119656 0.51725316 0.48861182 -0.30732444
-0.45285982 -0.09459431 -0.6197735 0.47654244 -0.060484797 -0.10718362 -0.18415737 -0.1839285
0.5667824 0.5634722 -0.117075555 0.16285065 -0.25240773 -0.12983793 0.022013478 -0.06499588
0.042454526 -0.0025246807 -0.39261198 0.0005614954 -0.2918853 -0.058629047 0.04101832 1.3428817
-0.3803608 -0.34999886 -0.44527638 0.022599433 -0.52142775 -0.35922492 0.26243487 0.53051054
-0.15568121 0.41027516 -0.09839358 0.02171037 -0.123804346 0.35600403 -0.108641125 -0.29714426
-0.24330327 1.1977532 -0.37527338 0.39430603 -0.23359187 -0.06344889 0.6474828 -0.1615635
-0.23472925 0.22647272 -0.0026254624 0.023791399 -0.2339911 0.112423785 0.88265127 0.3807473
0.47753572 0.21324551 1.1940087 0.0018336573 -0.20348975 -0.33076632 -0.5913509 -0.14355583
0.089608625 -0.059301548 0.15436603 -0.19520108 0.31435168 -0.17604475 0.45916665 -0.13314229
-0.3158772 0.14017308 0.14167105 0.100257255 -0.45514148 0.7541493 0.11047975 -0.20649754
-0.15659715 0.41255188 1.3150128 -0.1817838 0.06943844 0.24146037 0.7504974 -0.11838378
0.24932614 0.043438166 -0.47860608 -0.10015525 -0.42659968 0.85886323 0.29260284 0.23075056
-0.5371128 0.038800936 -0.261888 0.62158453 -0.16434826 0.30595487 -0.15716301 0.33047736
0.28550005 1.4023931 0.09436596 0.49740508 -0.054723345 -0.29718253 -0.34326935 0.04389364
0.19164847 -0.23237015 -0.119026944 -0.32883263 -0.03805172 -0.36226696 -0.072430804 0.1500249
-0.37691355 -0.09691394 -0.2173346 0.01045456 -0.11723269 -0.638835 0.010413939 0.30038828
0.92369485 0.39092854 -0.10132674 -0.14786696 0.16397381 0.043451767 -0.509913 -0.0928315
-0.027221918 -0.19517608 0.16301017 0.10539173 0.5663434 0.388244 -0.34891954 0.39494646
0.2771263 0.06479903 1.7542472 -0.41832033 -0.2514887 -0.18097694 -0.2954559 0.020087326
-0.32284066 -0.3089839 -0.36479542 0.026598075 -0.352898 -0.39470685 0.147718 0.38416162
0.13848001 0.443214 0.019770212 -0.2710506 -0.06791701 0.32953566 0.6203238 -0.11521731

weight f4 [64]
00000000: dba7 9b40 6e35 8840 fddf 8340 8a20 8e40
00000010: b66e 8e40 5642 a440 d34c 9240 17f3 8740
00000020: 5987 9240 a3b5 8a40 23ff 9740 fcf0 8c40
00000030: f219 8b40 4d94 a440 12e0 9c40 e721 7b40
00000040: aebf 8c40 6976 af40 db8d 7840 65b9 9640
00000050: 580b 8940 8bfc 8340 edbb 9e40 0aab 8f40
00000060: d14e 8340 2a10 8a40 ba2c 9540 c4aa a540
00000070: 1222 a840 0e0d 9e40 35d3 8f40 4777 8f40
00000080: 6e96 8c40 a66c 6640 d903 8140 2159 9740
00000090: 1127 8c40 e0f0 7b40 9028 8640 58a0 9d40
000000a0: 839e 9240 2c23 a440 046c 9040 3fe7 6640
000000b0: f25d 8740 89ac 7e40 43ac 9440 3dae 7e40
000000c0: a7e8 e83f 426e 8b40 d29e 9c40 4858 8640
000000d0: a1d7 8840 1ab9 a13f 018b 9840 c901 8e40
000000e0: a7a8 7340 888c 9140 c89b 8440 bdc1 8140
000000f0: 3a6f 8140 fa4c ab40 cbe1 8c40 94e5 7640
4.86424 4.256522 4.1210923 4.441472 4.4510145 5.1330976 4.571878 4.248424
4.579022 4.3346725 4.7498946 4.404417 4.346917 5.143103 4.9023523 3.9239442
4.3983984 5.4832044 3.8836582 4.710131 4.2826347 4.124578 4.96044 4.489629
4.103371 4.314473 4.66171 5.1770954 5.254159 4.9390936 4.494532 4.48331
4.393363 3.6003814 4.0317197 4.72963 4.379769 3.9365768 4.1924515 4.925823
4.5818496 5.1292934 4.5131855 3.6078641 4.230218 3.9792807 4.646028 3.9793847
1.8196 4.357209 4.8943872 4.1982765 4.276322 1.2634614 4.7669683 4.437718
3.8071687 4.5484047 4.1440163 4.0548997 4.0448275 5.3531466 4.4025626 3.8577623

bias f4 [64]
00000000: 6339 ab3e 110e b53e 1481 973e 50df c73e
00000010: 330e f13e 2448 a73e 625a f73e a4cc 673e
00000020: 162a 593e 0ad9 7c3e a2fd 553d 580b 793e
00000030: 1954 603e 5886 0b3e 3249 9f3e 05ce a03d
00000040: ccf2 373e 2f15 d83e c47e c13d 0a38 d03e
00000050: c2e6 d53e f256 ad3e d3ff 083f 2602 eb3e
00000060: 9899 f13d 7cf9 ca3e c95a 593e 4d5d 48be
00000070: ab8f d53e 83bf 943e 1d6a 203e ba02 773e
00000080: 7647 be3d 948c 81bd c4da 87be 85e6 7b3e
00000090: 3d60 093e b480 fc3c c248 533e 3f76 6f3d
000000a0: 0d64 d13e 2979 d83d 3fbe cb3e 3a9a 0b3f
000000b0: c95a c53e d129 1e3f eeb1 9b3e 7559 883e
000000c0: 8b81 ed3e bd17 b13e 4730 a53e 0139 973e
000000d0: 3fd4 ad3e 06e1 543e 13c5 a93e 4b1a 6e3e
000000e0: 4117 c83e ac2e ed3e edbe e33e 570f c53e
000000f0: c933 e73e 6a31 d63e 02b5 d53e 702b 363d
0.3344222 0.35362294 0.29590666 0.3903756 0.47081146 0.32672226 0.48311144 0.22636658
0.21207461 0.24692169 0.052243836 0.24320734 0.2190708 0.13625467 0.3111053 0.07851795
0.17963713 0.42203662 0.09448007 0.40667754 0.41777617 0.33855397 0.53515357 0.45900077
0.11796874 0.39643466 0.21226038 -0.19566841 0.41711172 0.29052362 0.15665479 0.24122134
0.09290974 -0.06325641 -0.26534092 0.24599655 0.13415618 0.03082309 0.20633224 0.058462378
0.40896645 0.105699845 0.39793584 0.54532206 0.38545826 0.61782557 0.30409187 0.2663075
0.46387896 0.34588423 0.32263395 0.29535678 0.33950993 0.20788965 0.33158168 0.23252217
0.3908024 0.4632467 0.44481602 0.38488266 0.45156696 0.41834575 0.4173966 0.04447502

running_mean f4 [64]
00000000: 9dd7 8b3d 5ddc 71bd ddfc f43b 029b dbbb
00000010: 43f8 173e d9de b73d dd3e 703e 7839 9cbc
00000020: 6d22 3d3e 8f2e c5bd ae94 873c 0f8d e03d
00000030: c6ff 41bc 19b9 1a3c d775 d3bb 88c0 e33a
00000040: 8eb3 b3bd 0779 ab3d bcab 16bc fa16 183e
00000050: 9abd 3a3c 7aab 773d 4c55 073d a937 a4bd
00000060: aa3e dd3d 79e9 ac3d 292c 003e 3206 fbbc
00000070: 874a b8bc 0047 18bd ed51 493e 9693 123e
00000080: a2d2 5b3d 8365 493e b47e d53d 80aa dc3c
00000090: 234f f23d 69ef a23d 6e0c 5c3c 0f1a 573c
000000a0: 5107 73bd 0f5d e2bc 7d57 a7bc ce4c 5f3e
000000b0: 4aab 98bc 18ff 8b3e 17cc c9bc 4187 b9bd
000000c0: a237 c43d 2ac3 e8bd de44 083e 9d1f 0e3e
000000d0: c778 bebd 41d6 97be c068 96bb bcc0 833d
000000e0: 38b1 b2bd 9cec 33bd 7e98 1abd 2a12 623e
000000f0: 75dd 95bd 35f6 99bc e226 8bbc e3ce b6bd
0.06828234 -0.059048045 0.0074764327 -0.006701828 0.14840798 0.08978052 0.2346148 -0.019070372
0.18470164 -0.09628021 0.016550388 0.10964405 -0.011840766 0.009443545 -0.0064532566 0.0017376104
-0.08774482 0.083726935 -0.009196218 0.14852515 0.011397744 0.060466267 0.03304033 -0.08018429
0.10802968 0.08442969 0.12516846 -0.030642603 -0.022496475 -0.037177086 0.19660158 0.14314112
0.053667672 0.1966763 0.10424557 0.02693677 0.118315004 0.0795582 0.013430698 0.013128771
-0.05933315 -0.027632264 -0.02042746 0.21806642 -0.018636364 0.2734306 -0.02463345 -0.09059001
0.095809236 -0.113653496 0.13307521 0.13879247 -0.0930038 -0.2965565 -0.004590124 0.064332455
-0.08725208 -0.04392682 -0.037743084 0.22077242 -0.0731763 -0.018794158 -0.016986314 -0.08926179

running_var f4 [64]
00000000: 487a 563d 60ca a53d 55c4 b33d 503b 893d
00000010: 3346 bd3d 9e8d 893d 450b b63d e50b da3d
00000020: b734 c03d 69ed f63d d79c b73d 9ded c73d
00000030: a7bc eb3d dc75 f33d 9ff8 e73d 8aa6 a13d
00000040: a6d8 903d 4a33 d43d 01c1 833d 866c 713d
00000050: ac57 c13d 272f 323d ad7b a33d 3dc1 233d
00000060: d454 753d fcbc 733d 1811 7c3d 1310 713d
00000070: 772d 063e 4621 683d 5167 a13d 7886 953d
00000080: 1d26 ce3d 4ba1 803d 6103 7e3d 626b 453d
00000090: 7465 993d e686 713d d04e de3d e9d9 e03d
000000a0: e895 4d3d 9e68 b13d 90ea c23d 591a c33d
000000b0: f50c ea3d 7df0 f23d d2d1 8b3d 19d2 da3d
000000c0: 7233 fa3d 3911 7c3d a8d4 b93d 1e92 3c3d
000000d0: b7c3 393d d3fe 0a3e 2f79 a93d 959e 973d
000000e0: 95f5 8b3d 82d3 2f3d 60dd ae3d 784f 653d
000000f0: 6faf 363d 0676 c73d 1c8c 4d3d 6bb3 bb3d
0.05236271 0.080952406 0.08777682 0.06700766 0.09241905 0.067164645 0.08888868 0.106468
0.093850546 0.12057001 0.08965462 0.09762118 0.11510592 0.11887714 0.113267176 0.07893093
0.070725724 0.10361345 0.06433297 0.058941387 0.0944055 0.043502 0.07982574 0.03997921
0.05989535 0.0595064 0.06153974 0.05885322 0.13103281 0.056672357 0.07881034 0.073010385
0.10065863 0.06280764 0.06201494 0.04819811 0.07490054 0.05896654 0.10854876 0.10979063
0.05019179 0.08662532 0.095173955 0.0952651 0.114282526 0.11862276 0.068271294 0.10684604
0.12216844 0.061539862 0.09073764 0.046037786 0.045352664 0.1357377 0.08275067 0.07403294
0.068339504 0.04292632 0.08538318 0.05598399 0.0446009 0.09739308 0.050182447 0.09165081

weight f4 [64, 16, 1, 1]
00000000: 2773 75bd adf6 0abe 3641 5a3d d95d ae3f
00000010: 9498 62be 811f dbbd d65c d63e e4a0 1bbc
00000020: 17f7 92be d66c a03e 182c ae3e 3d66 543f
00000030: 6e34 6bbd d368 cebd 5630 8b3c 4bfd fe3d
00000040: 8e7b e63e 2f9e 14be a747 513e ac7d ee3f
00000050: 55c3 143f 6b04 083f 3dce f73d 89ef dbbd
00000060: ba04 a4bd ebd3 ad3e 9913 663e 8eb9 bb3d
00000070: 18b0 0cbd 9b2d 86be f855 cabe 5291 743e
00000080: f7eb 093f e09c ef3e 3471 1a3e f573 24be
00000090: ad68 2ebf 132f ebbc e723 5f3e 1259 573c
000000a0: d3c5 df3d 9e19 ddbd 9e0b 923e 877c 3ebf
000000b0: 75c8 8fbe 0508 93be 0a60 57be 4e90 be3e
000000c0: 95ad c93e b6d0 6c3e 8da4 c0bc cb41 0dbe
000000d0: fcdb 1fbe 8840 55be 8bba 8b3e a8e1 ca3d
000000e0: fad8 61be 9aeb 813e f440 b43e 0c9d febd
000000f0: f881 653d 8070 f8be f6ad 2e3e 4aaf d93e
00000100: c228 02bd b29d 253e 5cf1 a13d 196b c3be
00000110: d7bc 8c3f 4050 b63d 53a7 3abe 405b 81bd
00000120: 3169 5fbe a843 87be 37a3 aabd c42f 3b3e
00000130: 6a05 8abc cdaa 163f b6bf 5c3e 90c8 fdbc
00000140: 684b a83d b6fc cd3d 8e37 6b3e ec3c 1b3e
00000150: aef8 ce3e 0512 1fbd 99ce b53e 2cac 6e3d
00000160: be1d aabe 0a37 1fbd e6b0 db3e 921b c3be
00000170: 0b4b b4bc dfb1 c03e fb8b 62be 0c46 7a3e
00000180: 25dd 31be 6260 5e3e 907d c1bd 5f9b 5d3c
00000190: 3d33 1c3f 1165 9d3e f69d 0bbe f139 debd
000001a0: de28 58bc dcef bcbe 3e71 523b a3a3 133e
000001b0: a1a8 91bc 7e22 543f b196 573d d0f8 38be
000001c0: 0d7b 033f 2765 fb3e daa0 d13b 37ee 01bd
000001d0: 97fb fdbe 5324 febd abc0 983e 6b9b 7a3e
000001e0: f7ee c0bb b88b 5e3e 468b 3e3d e5e2 99bd
000001f0: 0fe6 0abe 544b 09bf bfff 273e 5e99 643e
00000200: 0be6 013e 2df7 bb3e 687f 793e 4ae4 88bd
00000210: d345 c33f f7e3 a7be 1214 a9bd b931 dbbd
00000220: 22c2 a6be 104e d53e 0bc0 4cbd f097 85be
00000230: e982 d63e 9029 3d3e dce2 263e 32ff 67ba
00000240: bb02 45bc 27b7 cabe a144 d4bd 3ff2 283e
00000250: 96e3 083f 8c90 ae3e 3989 b4bd 4e23 34be
00000260: c1c9 893e fd8d 003f c619 83be 2234 c63e
00000270: 3973 a73d cdbe 033f 23b7 233e 6e44 e8bd
00000280: 0836 42be f562 55be 8853 993d fcd5 c03d
00000290: 903b 293f 4d3d 3d3e de4f 163d 35b6 6c3c
000002a0: 1336 75bd f59f a83e 8284 243e 8850 d23e
000002b0: 7f04 ad3f a0f9 0abe 9ea7 483e dc07 523e
000002c0: 3e62 b03d 955c e6be 01ec 99bc 1ce1 153e
000002d0: 8a5c c33f 030d 95bd f848 b33d a9fd 983e
000002e0: d79f 2d3e 4a07 e23d 809d df3d 71cc 323e
000002f0: 361b 8e3e 0f3e 7b3e 036c bb3e 75a5 673e
00000300: 7c5d ed3c 61f5 43be 5ad7 adbe c03e 3f3e
00000310: 9b46 8d3f 500e ce3e 10a6 dabd 7e2b 863d
00000320: 6dbc 483d 7ed7 223f 11ca 1e3e 3ac0 153f
00000330: 3a7e 693e 5a4d b83d 74e3 0f3e 7a80 5b3e
00000340: 8c2a 4f3f f6e6 2a3f 559d 533e 1a99 bc3e
00000350: 3a0b c43d 666d c7bd aeec 103d 0af1 1abe
00000360: c9f1 cfbd 14e6 2a3d 517c 78be 7421 55be
00000370: 734d 993d 4f0c f3be 7d45 85be 25d3 e33e
00000380: a844 61be f20e 55bd 8c3d 543d eb5a 133f
00000390: 2ca9 00bf 5a5b 153f 9960 c2bc 7304 cf3e
000003a0: 9d81 19bd 0574 94bf 23c6 453d d8b1 ff3e
000003b0: 0490 2d3f 0a7e a2be 5b3b ca3e 1f07 3dbd
000003c0: fe6a 843e d0ed 5c3e a9fd 0d3f 1863 06bd
000003d0: dc4b b3bd 3720 28be 8267 993e ff16 6dbe
000003e0: ce4d 90bd 81f9 3ebd 94cb 0d3d 202c 32be
000003f0: c6ff 6e3e fa9a e8be 2069 663e 99f3 733e
-0.05992427 -0.13570662 0.053284846 1.362239 -0.22128516 -0.10699368 0.41867703 -0.0094988085
-0.2870414 0.31333035 0.34018016 0.82968503 -0.057423048 -0.100785874 0.016990822 0.124506555
0.4501614 -0.14513467 0.2043749 1.8632102 0.58110553 0.5313174 0.12099884 -0.10739047
-0.08008714 0.33950743 0.22468413 0.09166251 -0.034347624 -0.2620667 -0.39518714 0.2388356
0.5387568 0.46799374 0.15082246 -0.16059859 -0.6812847 -0.02870897 0.2179104 0.013143795
0.10926404 -0.10795902 0.28524488 -0.74408764 -0.28082624 -0.28717056 -0.2103273 0.3721947
0.39390245 0.23126492 -0.023515964 -0.1379463 -0.15611261 -0.20825398 0.27290758 0.09906322
-0.22055426 0.25375062 0.35205805 -0.12432298 0.05603215 -0.4852333 0.17058548 0.42516547
-0.03177715 0.16173437 0.07907364 -0.38167647 1.0995129 0.08902025 -0.18227892 -0.06316233
-0.21817471 -0.26418805 -0.08331912 0.1827994 -0.016848285 0.5885437 0.21557507 -0.030979425
0.082175076 0.100579664 0.22970411 0.15159959 0.40424103 -0.038835544 0.35509184 0.058269665
-0.33225816 -0.03887085 0.429084 -0.38106972 -0.02200844 0.37635705 -0.22123711 0.24440783
-0.17369516 0.21716455 -0.09447777 0.013525813 0.61015683 0.3074117 -0.13634476 -0.10850895
-0.013193337 -0.36901748 0.0032110955 0.14417891 -0.017780604 0.8286513 0.052633945 -0.18063664
0.51359636 0.4910061 0.006397349 -0.03172132 -0.4960601 -0.12409272 0.29834494 0.2447335
-0.005887862 0.21732986 0.04651954 -0.0751398 -0.13564323 -0.53630567 0.16406153 0.2232413
0.1268541 0.36712018 0.24365008 -0.06684168 1.5255684 -0.3279111 -0.08255781 -0.10702843
-0.32569987 0.4166112 -0.049987834 -0.26092482 0.41896752 0.18472886 0.16297477 -0.0008849978
-0.012024577 -0.3959286 -0.103646524 0.1649866 0.5347227 0.34094656 -0.08815236 -0.17591593
0.2691174 0.50216657 -0.256056 0.3871165 0.08176274 0.51463014 0.1598783 -0.11341177
-0.18965924 -0.2083853 0.074866354 0.09415814 0.6610651 0.18480416 0.03669726 0.014447738
-0.059866022 0.32934538 0.16066173 0.41077065 1.3516997 -0.13571787 0.19595191 0.2051081
0.08612488 -0.4499251 -0.018789293 0.14636654 1.5262616 -0.072778724 0.08754152 0.29881027
0.16955505 0.110365465 0.109187126 0.174608 0.27755135 0.24535392 0.36605844 0.2262171
0.02897524 -0.19136573 -0.33953363 0.18676281 1.1037172 0.40245295 -0.10676205 0.06551264
0.04900782 0.63610065 0.1550677 0.5849644 0.22802058 0.08999129 0.1405161 0.21435729
0.80924296 0.6675867 0.20665486 0.36835557 0.09572454 -0.09737663 0.035381965 -0.15131012
-0.10153539 0.041723326 -0.24266173 -0.20813543 0.074854754 -0.47470328 -0.26029578 0.44497028
-0.21998847 -0.052016206 0.05181651 0.57560605 -0.50258136 0.58342516 -0.023727702 0.40433082
-0.037477124 -1.1597906 0.04828466 0.49940372 0.67797875 -0.31736785 0.3949841 -0.04614937
0.2586288 0.21575093 0.5546518 -0.032809347 -0.087547034 -0.16418539 0.29961783 -0.23153304
-0.0704609 -0.046624664 0.034617975 -0.17399645 0.23339757 -0.45430738 0.2250104 0.23823394

weight f4 [64]
00000000: 1fb0 f33f 49be 1a40 81c7 2140 53ad 1240
00000010: bdd2 f63f 163c ae3f fd58 bd3f 4cc5 0c40
00000020: 717a d63f f891 0740 ef8a a13f 190f e73f
00000030: 8989 0840 979e 2540 e8f8 673f 78a6 d93f
00000040: ebc0 e43f a049 0a40 b3f0 d73f db85 ec3f
00000050: 083e 1c40 8527 e63f 7cae 2240 2492 1c40
00000060: 4c55 b93f bdbb a43f 2f15 d93f 39c8 dd3f
00000070: 58bd 0340 48a7 da3f 54a9 b63f 7ca6 633f
00000080: edc6 603f 162c be3f 6988 613f 070b b33f
00000090: 82f4 db3f 3d80 d43f 4a26 a93f d746 643f
000000a0: d975 e73f 923f 3540 d08e fc3f 1b5a d03f
000000b0: eecc 1c40 c751 d93f 863a 1540 a7a6 2140
000000c0: 3080 c03f 8981 0940 159f f23f 0be2 bf3f
000000d0: 8f70 1140 7f16 963f ffa5 0b40 c5db bb3f
000000e0: 30ef 0940 33d9 2840 1860 eb3f a5ae 553f
000000f0: ebfe 0e40 9a24 2c40 f19b bf3f be41 1140
1.9038123 2.417864 2.5278018 2.2918289 1.9283062 1.3612087 1.4792782 2.199542
1.6756116 2.1182842 1.2620524 1.8051482 2.1333945 2.5878046 0.90614176 1.7003927
1.7871374 2.1607437 1.687033 1.847835 2.441286 1.798081 2.5418997 2.4464197
1.4479156 1.2869793 1.695959 1.7326728 2.0584316 1.70823 1.4270425 0.8892591
0.87803537 1.4857204 0.8809877 1.398774 1.7183993 1.6601635 1.321481 0.89170593
1.8082839 2.832005 1.9731083 1.6277498 2.450008 1.6978081 2.331697 2.5257967
1.503912 2.1485312 1.8954798 1.4990858 2.272495 1.1725615 2.1820066 1.4676443
2.1552238 2.6382568 1.83887 0.8346961 2.234309 2.689734 1.4969465 2.2696376

bias f4 [64]
00000000: 6339 ab3e 110e b53e 1481 973e 50df c73e
00000010: 330e f13e 2448 a73e 625a f73e a4cc 673e
00000020: 162a 593e 0ad9 7c3e a2fd 553d 580b 793e
00000030: 1954 603e 5886 0b3e 3249 9f3e 05ce a03d
00000040: ccf2 373e 2f15 d83e c47e c13d 0a38 d03e
00000050: c2e6 d53e f256 ad3e d3ff 083f 2602 eb3e
00000060: 9899 f13d 7cf9 ca3e c95a 593e 4d5d 48be
00000070: ab8f d53e 83bf 943e 1d6a 203e ba02 773e
00000080: 7647 be3d 948c 81bd c4da 87be 85e6 7b3e
00000090: 3d60 093e b480 fc3c c248 533e 3f76 6f3d
000000a0: 0d64 d13e 2979 d83d 3fbe cb3e 3a9a 0b3f
000000b0: c95a c53e d129 1e3f eeb1 9b3e 7559 883e
000000c0: 8b81 ed3e bd17 b13e 4730 a53e 0139 973e
000000d0: 3fd4 ad3e 06e1 543e 13c5 a93e 4b1a 6e3e
000000e0: 4117 c83e ac2e ed3e edbe e33e 570f c53e
000000f0: c933 e73e 6a31 d63e 02b5 d53e 702b 363d
0.3344222 0.35362294 0.29590666 0.3903756 0.47081146 0.32672226 0.48311144 0.22636658
0.21207461 0.24692169 0.052243836 0.24320734 0.2190708 0.13625467 0.3111053 0.07851795
0.17963713 0.42203662 0.09448007 0.40667754 0.41777617 0.33855397 0.53515357 0.45900077
0.11796874 0.39643466 0.21226038 -0.19566841 0.41711172 0.29052362 0.15665479 0.24122134
0.09290974 -0.06325641 -0.26534092 0.24599655 0.13415618 0.03082309 0.20633224 0.058462378
0.40896645 0.105699845 0.39793584 0.54532206 0.38545826 0.61782557 0.30409187 0.2663075
0.46387896 0.34588423 0.32263395 0.29535678 0.33950993 0.20788965 0.33158168 0.23252217
0.3908024 0.4632467 0.44481602 0.38488266 0.45156696 0.41834575 0.4173966 0.04447502

running_mean f4 [64]
00000000: 1543 8c3f 2290 0c40 debb d8be 92fb e93e
00000010: 7c6b 2b3f 6707 363f ec49 b23e c3ff 903e
00000020: 9e31 0e40 caaa 9b3f 224a a93f 7182 dd3f
00000030: f0da 0740 3b97 453f cc4e bebf 4d98 e03d
00000040: 02ee f03f 3129 273f d7dc d83d 3f85 0940
00000050: 80d3 28be 7f12 0d40 bb47 323f c969 f83f
00000060: 3447 b83f 2f51 8e3f 6c36 de3f 5896 983f
00000070: 2504 373f 92c5 9e3f 6e8b c03f 84e9 e33f
00000080: 2f30 c13e 559b b43f 2a76 7a3f d0db 0340
00000090: dd17 f03e f5a8 363e 3d64 ddbd da64 b23f
000000a0: d5e5 dd3f abcb 0e3f d745 0840 77ca 02c0
000000b0: eb32 223f b733 2cbf 5f13 0940 bfc8 2a3e
000000c0: 6b31 a2bf 3490 e03f 25ad 0040 a93f b03f
000000d0: 78b0 3040 710e 9abe 458a 2340 4e95 1540
000000e0: 3136 f43f 0c8e b93f 7cfe 153f 948f 0a40
000000f0: bd84 aa3f 9cbb e93f d2db 063f 8744 653e
1.0957972 2.1962972 -0.4233083 0.45699745 0.66960883 0.71105045 0.34822023 0.2832013
2.2217784 1.2161496 1.3225749 1.7305433 2.122738 0.77183884 -1.4867797 0.10966549
1.8822634 0.6529723 0.10588997 2.1487577 -0.16486931 2.204254 0.696407 1.9407283
1.439673 1.1118525 1.7360358 1.1920881 0.714907 1.2404044 1.504255 1.7805638
0.37732074 1.4109904 0.97836554 2.0602913 0.46893206 0.1783789 -0.108101346 1.3937027
1.7335764 0.5577952 2.1292627 -2.0436075 0.63358945 -0.6726641 2.1418073 0.16678141
-1.2671331 1.7544007 2.010568 1.3769428 2.7607708 -0.30089143 2.5553143 2.3372378
1.9079038 1.4496474 0.5859144 2.1650133 1.3321759 1.8260379 0.5267917 0.22389422

running_var f4 [64]
00000000: adbb b93f bd9e c33f ded6 983f 17d7 7f3f
00000010: 6c6e 343f db97 ad3f 08da 573f 7fbd ac3f
00000020: 91d5 443f 32a8 db3e f3a9 0340 cdc0 0e40
00000030: 3f06 873f 5232 913f a94f 0340 cc61 723f
00000040: 40c4 743f 9651 5d3f b824 643f 1c8b 9b3f
00000050: f210 263f 088b 5d3f 94fb 3440 86ee e53f
00000060: 5584 883f 3555 933f c2ef 7c3f ecf2 793f
00000070: fee2 b83f 29bd ea3f f8b6 a93f 364f 9a3f
00000080: 1d11 853f f34d af3f 0ec5 1c3f 4e4a de3f
00000090: 3b28 783f 3aa5 c73e 282d 2440 fc49 cc3f
000000a0: e1f9 ed3f 3505 473f 8aa9 a73f 110f df3f
000000b0: fa53 b93f 005c e73f 716e 0740 fa6d c33f
000000c0: f8d4 2c40 a5fc b73f f02d 983f 9905 853f
000000d0: f8d8 963f bfaf 1140 284a 1540 00e2 0e40
000000e0: 2cbb 6f3f 2471 a83f 8bd7 893f f1b3 0c40
000000f0: f96d a23f b986 a13f 21f3 dd3f 1773 f53e
1.4510399 1.5282818 1.1940572 0.99937576 0.7048099 1.3561968 0.84317064 1.349533
0.76888376 0.4290176 2.0572479 2.2305176 1.0548781 1.1343482 2.051737 0.94680476
0.95611954 0.86452615 0.8911853 1.2151828 0.64869606 0.8654027 2.827855 1.7963417
1.0665385 1.1510378 0.9880334 0.97636294 1.4444273 1.8338977 1.3258963 1.2055423
1.0395848 1.3695663 0.6123818 1.7366426 0.96936387 0.38993245 2.565256 1.5960078
1.8591882 0.7774232 1.3098614 1.7426473 1.4478753 1.8074951 2.1161158 1.5267937
2.7004986 1.4373976 1.1889019 1.0392333 1.1784964 2.2763517 2.3326511 2.232544
0.93644977 1.3159528 1.0768903 2.1984828 1.2689811 1.2619239 1.7339822 0.4793937
