HW2/aML/resnet6_btnk_ch4.pt (torch, 49140 bytes, 42 tensors)

weight f4 [4, 3, 7, 7]
0	0xbee0141f	-0.4376535
1	0x3e3db194	0.18524772
2	0x3e916f44	0.284052
3	0x3e6b0e5e	0.229547
4	0xbd6516e6	-0.05593004
5	0x3cad4e3d	0.021155471
6	0x3dd378a4	0.10325745
7	0xbe543a31	-0.20725323
8	0x3e65418e	0.22388288
9	0xbe54df50	-0.20788312
10	0xbd69ad32	-0.057049938
11	0x3e2badc4	0.16765505
12	0x3e1a3cc9	0.1506225
13	0x3c9d32d7	0.019189281
14	0xbe8efb7f	-0.2792625
15	0xbe6a04f9	-0.2285346
16	0xbefbd587	-0.49186346
17	0xbeba515e	-0.36390203
18	0x3e71f242	0.2362757
19	0x3e1e9773	0.15487461
20	0xbe4502f8	-0.19239414
21	0x3edd2ad4	0.43196738
22	0x3ef3fa77	0.47652027
23	0x3e98477b	0.29742035
24	0x3dad1756	0.084517166
25	0x3e146596	0.14491877
26	0xbe999dd5	-0.3000323
27	0xbf6b6384	-0.91948724
28	0x3e3de370	0.18543792
29	0xbdae60a1	-0.08514524
30	0xbe888914	-0.26667082
31	0xbe9b05ba	-0.30277807
32	0xbe827c65	-0.2548553
33	0xbd9f1044	-0.07766774
34	0x3dd9374d	0.10606251
35	0xbf0dda2e	-0.5541104
36	0xbeabada0	-0.33530903
37	0xbce8d34c	-0.028421067
38	0x3d6fa0e3	0.058503043
39	0x3b38c4d4	0.002819349
40	0x3d7301ae	0.059327774
41	0x3e7c6644	0.24648386
42	0x3e35f8a8	0.17770636
43	0x3e46f0de	0.19427821
44	0x3e83e049	0.25757053
45	0x3e288cc1	0.16459943
46	0x3cd7ac7e	0.026327368
47	0xbc8df57f	-0.017328976
48	0x3e36a8ab	0.17837779
49	0xbeb7299e	-0.3577394
50	0x3e2afc5a	0.16697827
51	0x3eb73856	0.35785168
52	0x3e107411	0.14106776
53	0x3d367fef	0.0445556
54	0x3c4f7413	0.012661952
55	0x3e0100c4	0.12597948
56	0xbd88a7f3	-0.06672659
57	0x3dcead22	0.10091616
58	0xbe6fe31a	-0.23426476
59	0xbc87be13	-0.016570127
60	0x3e2a6dbb	0.16643421
61	0x3e0fb2ce	0.14033052
62	0x3d4aeefd	0.049544323
63	0xbe9fcb7b	-0.3120993
64	0xbe56c3b1	-0.20973088
65	0xbee3a948	-0.4446509
66	0xbe7c0c9d	-0.24614187
67	0x3e77dff0	0.24206519
68	0x3e324e22	0.17412618
69	0xbe1a1f3c	-0.15050977
70	0x3ec875fa	0.3915251
71	0x3ef4be59	0.47801474
72	0x3e83b4b2	0.25723797
73	0x3d87d4cc	0.06632385
74	0x3e19eeef	0.15032552
75	0xbe5c8c5e	-0.21537921
76	0xbf72a363	-0.9478056
77	0x3e0218b4	0.12704736
78	0xbe227470	-0.1586473
79	0xbea9161a	-0.33024675
80	0xbec60dba	-0.38682348
81	0xbe4ad26e	-0.19806835
82	0xbd57b385	-0.052661438
83	0x3e487a58	0.1957792
84	0xbf11febd	-0.57029325
85	0xbe65c03c	-0.22436613
86	0xbd91d318	-0.07120341
87	0x3ddf020e	0.10889064
88	0x3dc4cc6b	0.09609302
89	0xbd0fc856	-0.035103165
90	0x3e78d619	0.24300422
91	0x3e632740	0.22182941
92	0x3e16450e	0.1467478
93	0x3e924fc5	0.28576484
94	0x3e095dc8	0.13414681
95	0x3d9fc418	0.07801074
96	0xbcfaa601	-0.030596735
97	0x3e0642a0	0.13111353
98	0xbec4f8d1	-0.38471082
99	0x3e1e61f2	0.1546705
100	0x3ea973a5	0.33096042
101	0x3e853829	0.2601941
102	0xbdaee785	-0.085402526
103	0xbbb79480	-0.0056024194
104	0x3e71ea69	0.23624577
105	0xbdffe735	-0.12495271
106	0x3df20f8a	0.1181937
107	0xbe5a87e7	-0.21340905
108	0xbdc2962b	-0.095012985
109	0x3e8731a2	0.26405054
110	0x3e5b3b24	0.21409279
111	0x3d8e6b2d	0.06954036
112	0xbe9b9460	-0.3038664
113	0xbe167997	-0.1469482
114	0xbee3a455	-0.44461313
115	0xbe88122b	-0.2657636
116	0x3e5dc3ff	0.21656798
117	0x3e30017a	0.17188063
118	0xbdf233f4	-0.118263155
119	0x3edf5481	0.4361916
120	0x3ee7ac5a	0.4524868
121	0x3e937db1	0.28806832
122	0x3c7f16a3	0.015569362
123	0x39ec0ef3	0.00045024566
124	0xbeaa5700	-0.332695
125	0xbf6f8317	-0.935594
126	0x3e504cae	0.20341751
127	0xbd1a2f6f	-0.037642892
128	0xbeaed38a	-0.34145766
129	0xbeb1c285	-0.3471872
130	0xbe419562	-0.18904641
131	0xbd661d8c	-0.05618052
132	0x3e08bd1a	0.13353387
133	0xbf27c41c	-0.65533614
134	0xbec384fd	-0.381874
135	0xbd8760b2	-0.0661024
136	0xbb038f16	-0.00200743
137	0x3b9708f4	0.0046092216
138	0x3d792be7	0.060832884
139	0x3e685f17	0.22692524
140	0x3e9e38d1	0.30902722
141	0x3e397bef	0.18113683
142	0x3e474010	0.19458032
143	0x3e157d52	0.14598587
144	0x3da3800d	0.07983408
145	0xbac05a5d	-0.0014675368
146	0x3dc5cfcf	0.09658777
147	0x3dcdb1ac	0.10043654
148	0x3ef26b6d	0.47347584
149	0x3e3e6b00	0.18595505
150	0xbe43274d	-0.19057961
151	0xbf1b46d2	-0.6065494
152	0xbf1d3340	-0.61406326
153	0xbf74bd47	-0.95601314
154	0x3dd86249	0.105656214
155	0x3e642d00	0.22282791
156	0xbc9d63a2	-0.019212548
157	0xbd8d483c	-0.06898543
158	0x3e0c1243	0.13678841
159	0x3b2eca43	0.002667085
160	0xbf27cb08	-0.65544176
161	0x3e61eb12	0.22062328
162	0x3eae2198	0.34010005
163	0x3d6aecdb	0.05735479
164	0xbb91b5e0	-0.00444673
165	0x3caf4a0b	0.021397611
166	0x3d872e0e	0.06600581
167	0xbf294766	-0.6612457
168	0x3e917d42	0.28415877
169	0xbd9488f5	-0.07252685
170	0xbd10a59b	-0.035314184
171	0xbc9593cd	-0.018258953
172	0xbc2cf6fd	-0.0105569335
173	0xbe487d6a	-0.19579092
174	0xbf15f499	-0.5857635
175	0x3da0a237	0.0784344
176	0x3d9739f4	0.073841006
177	0x3b49944f	0.0030758565
178	0xbe24ded2	-0.16100624
179	0x3d12ab21	0.035807732
180	0xbea91583	-0.33024225
181	0xbe8314de	-0.25601858
182	0x3db12d2d	0.08651195
183	0xbd93487d	-0.071915604
184	0x3caa4564	0.020785041
185	0x3dd4317c	0.10361001
186	0xbe8794c4	-0.26480687
187	0xbf44268a	-0.76621306
188	0x3de6f0a2	0.11276366
189	0xbe3282cb	-0.17432706
190	0xbe83e516	-0.25760716
191	0xbe964a12	-0.29353386
192	0xbef6c73c	-0.4819888
193	0xbf0adbd3	-0.54241675
194	0xbeb63a56	-0.35591382
195	0x3eed8cac	0.46396387
196	0x3dee0f73	0.116240405
197	0x3ecde3a0	0.40212727
198	0x3e3c312a	0.1837813
199	0xbe1f923f	-0.15583132
200	0xbf0e0a6a	-0.5548464
201	0xbf21f4c4	-0.6326411
202	0xbf7c1c9f	-0.9848117
203	0x3c296307	0.010338551
204	0x3e8cb14b	0.27479014
205	0x3d5aaaf4	0.05338569
206	0x3d694f1a	0.056960203
207	0x3d34a6de	0.04410445
208	0xbce00a20	-0.027348578
209	0xbf18eefa	-0.5973965
210	0x3e6aaea3	0.22918181
211	0x3e67e1ca	0.22644725
212	0x3ded6e3f	0.115932934
213	0x3d115cb8	0.035488814
214	0xbc936d5e	-0.017996486
215	0x3d94ac26	0.07259397
216	0xbf478e97	-0.7795195
217	0x3e9157f7	0.28387424
218	0x3b8a1d3d	0.0042149113
219	0xbbceb43b	-0.0063081062
220	0xbcb9227d	-0.022599453
221	0xbc4e63d4	-0.012597043
222	0xbd5b1a95	-0.053492147
223	0xbf2e3b72	-0.68059456
224	0xbd3ecc79	-0.04658172
225	0x3d9bc29d	0.07605479
226	0x3cc0996f	0.023510663
227	0xbdd76541	-0.105173595
228	0x3d206e31	0.039167587
229	0xbe9e4229	-0.3090985
230	0xbe792b1c	-0.24332851
231	0x3e00108c	0.12506312
232	0x3dafa20a	0.085758284
233	0x3d9b9957	0.07597607
234	0x3d6e95f8	0.05824849
235	0xbe6bf1f5	-0.23041518
236	0xbf5460d8	-0.8296027
237	0x3cf8ad54	0.030356087
238	0xbd9282d9	-0.071538635
239	0xbea82e60	-0.3284788
240	0xbe98403d	-0.2973651
241	0xbee1a861	-0.44073775
242	0xbef9e7ae	-0.4880957
243	0xbeac8ac0	-0.33699608
244	0x3f0c6202	0.5483705
245	0x3e2d2a9e	0.16910788
246	0x3f000407	0.50006145
247	0x3dacc50b	0.084360205
248	0xbe5f1f7e	-0.21789357
249	0xbf127228	-0.5720544
250	0xbf220d08	-0.63301134
251	0xbf626a82	-0.8844377
252	0x3d82306d	0.06356893
253	0x3e717ec8	0.2358352
254	0xbd8f6c69	-0.070030995
255	0xbcb3e232	-0.021958444

weight f4 [4]
0	0x3f350374	0.70708394
1	0x3f9befd4	1.2182565
2	0x3f81c59a	1.0138428
3	0x3f9646e4	1.1740384

bias f4 [4]
0	0x3ffb7340	1.9644547
1	0xbd012d79	-0.031537507
2	0x3e93cade	0.28865713
3	0xbd3364f4	-0.04379745

running_mean f4 [4]
0	0xc0bc7190	-5.8888626
1	0xc27c736e	-63.112724
2	0x4235cae6	45.448143
3	0xc1379107	-11.472907

running_var f4 [4]
0	0x45b2c088	5720.0664
1	0x48419586	198230.1
2	0x47794dfe	63821.992
3	0x47454eeb	50510.918

weight f4 [4, 4, 1, 1]
0	0x3e844da7	0.25840494
1	0xbec3776e	-0.38177055
2	0x3f5ebb9c	0.8700502
3	0xbe023165	-0.12714155
4	0x3ed1c101	0.40967563
5	0xbf25982a	-0.6468531
6	0x3d1524ab	0.036411922
7	0x3f06af3c	0.52611136
8	0xbb3d44cb	-0.0028880115
9	0xbf109c0a	-0.56488097
10	0xbede9a47	-0.4347708
11	0xbf591b42	-0.8480722
12	0x3e58197b	0.2110347
13	0x3e59840a	0.21241775
14	0xbf2d6aee	-0.67741287
15	0x3ef19509	0.47184017

weight f4 [4]
0	0x3f9391b2	1.1528838
1	0x3f466855	0.7750295
2	0x3fb88b17	1.4417447
3	0x3f647d12	0.8925334

bias f4 [4]
0	0x3ecdec75	0.40219465
1	0x3f25e5e4	0.6480391
2	0x3f16dc2b	0.589297
3	0x3d561c21	0.05227292

running_mean f4 [4]
0	0x3f5b3060	0.8562069
1	0x3f5e121e	0.86746395
2	0xbefd216f	-0.4943957
3	0x3e919a70	0.2843814

running_var f4 [4]
0	0x3fcb2ea9	1.5873615
1	0x3f244e77	0.6418223
2	0x40294ce9	2.6453192
3	0x3eed73ca	0.46377403

weight f4 [4, 4, 3, 3]
0	0xbf575fa0	-0.8413029
1	0xbe7c8022	-0.24658254
2	0x3c34a12a	0.011024753
3	0x3d920844	0.07130483
4	0x3e56f8ab	0.20993297
5	0x3e0df07c	0.13861269
6	0xbdea2589	-0.114329405
7	0xba113369	-0.0005538972
8	0xbda49c18	-0.08037585
9	0x3ee0806d	0.4384798
10	0x3edfb82f	0.43695208
11	0x3eba9300	0.36440277
12	0x3cfa6f7e	0.030570742
13	0xbc37eee3	-0.011226389
14	0x3dec55ea	0.11539824
15	0xbe4f0b42	-0.20219138
16	0x3bcd3407	0.0062623057
17	0x3ebff7a6	0.37493628
18	0xbe5fa65d	-0.21840806
19	0xbd0f1742	-0.03493429
20	0xbf25831d	-0.6465319
21	0x3eea23a7	0.45730326
22	0xbebbe671	-0.3669925
23	0xbe41dfb8	-0.18932998
24	0x3d3b66dd	0.045752395
25	0xbedeae80	-0.43492508
26	0x3ea9a1a9	0.3313115
27	0xbd5f6006	-0.054534934
28	0xbeb1c69a	-0.34721833
29	0x3ce477d4	0.02788917
30	0xbf236634	-0.63827825
31	0x3e8b7b1c	0.27242362
32	0x3e269e29	0.16271271
33	0x3edd6d9e	0.43247694
34	0x3db71472	0.089394465
35	0xbe6744aa	-0.22584787
36	0x3ee63f21	0.4497004
37	0x3ea20a55	0.31648508
38	0x3efbce91	0.49181035
39	0xbd774e42	-0.060377367
40	0xbd93226d	-0.071843006
41	0xbe14331b	-0.1447262
42	0xbe7493fc	-0.23884577
43	0xbd8c0d65	-0.06838492
44	0x3e2df964	0.16989666
45	0x3eade0b3	0.33960494
46	0x3d42976a	0.04750768
47	0x3debc3ac	0.11511931
48	0x3db5832b	0.08862909
49	0x3d090183	0.033448707
50	0x3e6ed2d4	0.23322612
51	0x3f35d3e1	0.71026427
52	0x3d9e73ab	0.07736906
53	0x3ec2f27a	0.3807562
54	0x3f17f045	0.59351
55	0x3ee0fdef	0.43943736
56	0xbee52f23	-0.44762525
57	0x3f0a9780	0.5413742
58	0x3f8ff18c	1.1245589
59	0x3f21534a	0.63017714
60	0x3dcbd61b	0.09952947
61	0xbf07334c	-0.5281265
62	0x3e3f55f5	0.18685134
63	0x3f0fe53c	0.5620916
64	0x3d2bf548	0.041981965
65	0xbed417a3	-0.41424283
66	0x3eec55fa	0.46159345
67	0x3e1eb8a6	0.15500125
68	0xbd898b6f	-0.06716048
69	0xbe7beb4a	-0.24601474
70	0xbe1c42b2	-0.15259817
71	0x3d3f92a3	0.046770703
72	0x3ebc05d7	0.36723205
73	0x3e90079f	0.28130814
74	0x3e804707	0.2505419
75	0xbda98fdb	-0.082793914
76	0x3c95f550	0.01830545
77	0x3d42547c	0.04744385
78	0xbf25e5e7	-0.6480393
79	0xbef2e37f	-0.4743919
80	0xbe8f99aa	-0.28046924
81	0x3e54c585	0.20778473
82	0xbe8cc470	-0.2749362
83	0x3ece37ee	0.40277046
84	0x3bfc9604	0.007708313
85	0x3ea1aafd	0.31575766
86	0xbd8a6879	-0.06758208
87	0xbf190ced	-0.5978535
88	0x3ef3ec56	0.47641248
89	0xbdacfd1e	-0.08446716
90	0xbe1f66df	-0.15566586
91	0xbe872eb7	-0.26402828
92	0xbf38c045	-0.7216838
93	0xbdb3a29c	-0.0877125
94	0x3e38aa61	0.18033744
95	0xbd7f1bbe	-0.062282316
96	0xbd2e3ebc	-0.042540297
97	0xbf1f0a0f	-0.62124723
98	0x3df481fe	0.119388565
99	0x3efc37a3	0.49261197
100	0x3ecd9573	0.40153083
101	0xbe5b7d75	-0.21434577
102	0xbec7b1e9	-0.39002922
103	0xbd501300	-0.05079937
104	0x3e9d8f14	0.30773222
105	0x3ea4e0e9	0.32202843
106	0x3f136f92	0.5759212
107	0x3e18e8ae	0.1493251
108	0x3ec1a8e0	0.37824154
109	0x3ddb29f7	0.107013635
110	0x3dacd6b8	0.08439392
111	0x3e8cdaa4	0.2751056
112	0xbea45d80	-0.32102585
113	0xbe36e58a	-0.17861
114	0xbecd97df	-0.4015493
115	0xbeae4cca	-0.3404296
116	0xbf2e17bd	-0.6800497
117	0x3d90ca4f	0.07069837
118	0x3dcaf6cc	0.09910354
119	0xbe8268bf	-0.2547054
120	0xbd876ad8	-0.06612176
121	0x3e2859cc	0.16440505
122	0xbea8a0cb	-0.32935175
123	0x3ec411f6	0.38294953
124	0x3f28a833	0.6588165
125	0x3b26cd25	0.0025451866
126	0xbf0e0001	-0.55468756
127	0x3d811e57	0.06304615
128	0xbea6e2ae	-0.32594818
129	0x3eb70f63	0.35753927
130	0x3e05d3d8	0.13069093
131	0xbe97fc91	-0.2968488
132	0xbf0d7bb1	-0.55266863
133	0xbe383a9c	-0.17991108
134	0x3e1e9250	0.15485501
135	0x3f1d2066	0.6137756
136	0x3e395021	0.18096973
137	0xbe0d3460	-0.1378951
138	0xbe91a570	-0.2844653
139	0x3e428abe	0.18998238
140	0x3e9b3f8b	0.30321917
141	0xbecc664f	-0.39921805
142	0xbe19174a	-0.1495029
143	0x3dd85aef	0.10564219

weight f4 [4]
0	0x3f3a836f	0.728568
1	0x3f97ed6e	1.1869333
2	0x3f5cba05	0.86221343
3	0x3f95efb7	1.171378

bias f4 [4]
0	0xbec0b4c1	-0.37637904
1	0xbf59f70c	-0.8514259
2	0x3e27e4d2	0.16395882
3	0xbe05f479	-0.1308154

running_mean f4 [4]
0	0xbe9a47f3	-0.30133018
1	0x40777802	3.8666997
2	0xbf77c1ac	-0.96779895
3	0xbf58ed2e	-0.8473691

running_var f4 [4]
0	0x3f6a49b9	0.9151874
1	0x40044e94	2.067296
2	0x3f72dd43	0.9486887
3	0x3f945bf6	1.1590564

weight f4 [16, 4, 1, 1]
0	0xbe0a1543	-0.13484673
1	0xbf1e3fd3	-0.6181614
2	0x3eeb535b	0.45962033
3	0x3e98b01c	0.2982186
4	0x3ecfdda0	0.40598774
5	0xbe67ab47	-0.22623931
6	0xbf30bb8a	-0.6903616
7	0x3ee00599	0.4375427
8	0x3f603faf	0.87597173
9	0xbecf9ffc	-0.40551746
10	0x3e3ef522	0.18648198
11	0xbe445fb8	-0.19177139
12	0xbce80d41	-0.028326632
13	0x3f12f2d3	0.5740177
14	0x3ec39cdb	0.3820561
15	0xbe948012	-0.2900396
16	0xbf11ee48	-0.57004213
17	0xbe7afcf3	-0.24510555
18	0x3ee6b47e	0.4505958
19	0xbf840d3c	-1.0316539
20	0xbee05dfd	-0.43821707
21	0xbf270c11	-0.65252787
22	0xbd7548bc	-0.059883818
23	0x3f134b55	0.5753682
24	0xbf0cbed6	-0.5497869
25	0x3f12eea1	0.5739537
26	0xbeafaab5	-0.34309927
27	0xbdf50d2d	-0.11965404
28	0xbdc4a139	-0.09601063
29	0x3e383862	0.17990258
30	0x3f137c61	0.5761166
31	0xbf4423c5	-0.7661708
32	0x3df561d0	0.11981547
33	0xbf4f8f02	-0.8107759
34	0x3eb56088	0.3542521
35	0xbe5c64f1	-0.21522881
36	0xbf242711	-0.6412211
37	0xbecedd69	-0.40403298
38	0xbd838c77	-0.06423276
39	0x3f12df8a	0.57372344
40	0x3e2ba062	0.167604
41	0xbfa33c18	-1.2752714
42	0x3edfd33d	0.4371585
43	0x3d3f3333	0.046679687
44	0xbe2713c8	-0.1631614
45	0x3e5c77ed	0.21530123
46	0x3f169377	0.58818763
47	0xbe87aa36	-0.26497048
48	0x3ee58c74	0.4483372
49	0x3f26fc47	0.65228695
50	0x3def19ce	0.11674844
51	0x3ee303ae	0.44338745
52	0x3e449d32	0.1920059
53	0xbe58236f	-0.21107267
54	0x3e3fd154	0.18732196
55	0x3f6351d9	0.88796765
56	0x3e3b3d05	0.18284996
57	0x3f0557cb	0.52087086
58	0xbdae6061	-0.085144766
59	0xbf0f67b0	-0.5601759
60	0x3ea2d966	0.31806487
61	0x3f1d47a0	0.61437416
62	0x3e669388	0.22517216
63	0xbe240be5	-0.16020162

weight f4 [16]
0	0x3fa960c8	1.323266
1	0x40025d8c	2.0369596
2	0x3f9eb4d5	1.2398936
3	0x3fb6023a	1.421943
4	0x3fafa520	1.3722267
5	0x3f89ffbf	1.0781173
6	0x408e207e	4.4414663
7	0x4004ff42	2.0780797
8	0x3fdb2576	1.7120807
9	0x3fe982d2	1.8243048
10	0x400b6c3b	2.1784809
11	0x3fbcfbf5	1.4764391
12	0x40152b43	2.3307655
13	0x40032e6b	2.0497081
14	0x3f82b8bd	1.0212628
15	0x400185c8	2.0237904

bias f4 [16]
0	0x3e4bf139	0.19916238
1	0x3f0e9044	0.5568888
2	0xbea229df	-0.3167257
3	0xbfd25d93	-1.6434807
4	0x3e8be917	0.2732627
5	0xbece7a39	-0.40327623
6	0x3f0ee209	0.5581365
7	0xbdb24273	-0.087040804
8	0x3da52f90	0.080657125
9	0x3f76d3c4	0.9641688
10	0x3f001687	0.50034374
11	0xbf0bc9aa	-0.5460459
12	0x3ea4a0c8	0.32153916
13	0x3e958d03	0.29209146
14	0x3c2723f4	0.010201443
15	0xbe4da391	-0.20081927

running_mean f4 [16]
0	0x3ccfcfc0	0.025367618
1	0xbdee6f5d	-0.116423346
2	0x3ca69843	0.020336276
3	0x3e264dc8	0.16240609
4	0xbe02974d	-0.12753029
5	0xbdc3f0e3	-0.0956743
6	0xbd2287e3	-0.039680373
7	0x3d883856	0.0665137
8	0xbdaddabe	-0.084889874
9	0xbd93e812	-0.07221998
10	0xbde23983	-0.11046126
11	0x3e0c6fe3	0.13714556
12	0x3e82531d	0.25454035
13	0x3e163dcb	0.1467201
14	0x3c951424	0.01819808
15	0x3e381cb1	0.17979695

running_var f4 [16]
0	0x3e9e49c1	0.30915645
1	0x3e2cbe20	0.16869402
2	0x3e19dd9e	0.15025946
3	0x3ebfa045	0.37426963
4	0x3ea0e1d0	0.3142228
5	0x3f0aa108	0.54151964
6	0x3e20fee1	0.15722229
7	0x3e198ed0	0.14995885
8	0x3ed7695d	0.42072573
9	0x3ecf319e	0.40467542
10	0x3f8041d9	1.0020095
11	0x3e27aee1	0.16375305
12	0x3f3afa60	0.7303829
13	0x3e5b77d8	0.21432436
14	0x3e8eaca7	0.27866098
15	0x3f037148	0.5134473

weight f4 [16, 4, 1, 1]
0	0xbe38ee95	-0.18059762
1	0x3e87605e	0.2644071
2	0xbef553d5	-0.4791552
3	0x3f094f56	0.5363668
4	0x3f014407	0.50494426
5	0xbf42d7ca	-0.7611052
6	0x3e56ac46	0.20964155
7	0xbf2b6660	-0.66953087
8	0xbf7ba6e9	-0.9830156
9	0xbf3d7f9f	-0.7402286
10	0xbe9cd5f4	-0.30631983
11	0x3e52d007	0.20587169
12	0x3ebbbd63	0.36667928
13	0xbf324e11	-0.6965037
14	0xbf1b7571	-0.60726076
15	0x3e613ed7	0.21996628
16	0x3edfd5b3	0.43717727
17	0xbf283c80	-0.65717316
18	0xbf0ef47e	-0.55841815
19	0x3e9bcf1d	0.30431452
20	0xbda34e16	-0.07973878
21	0x3f244517	0.6416792
22	0x3edd2ff6	0.43200654
23	0x3f1d2c68	0.61395884
24	0x3f5fcd2c	0.8742244
25	0xbcd78185	-0.026306877
26	0x3e2fb527	0.17158948
27	0xbe4aa999	-0.19791259
28	0x3f37a1ce	0.7173127
29	0x3e84bac7	0.2592375
30	0xbe9d719b	-0.30750737
31	0xbf0a5134	-0.54030156
32	0x3e46ca1c	0.19413036
33	0x3f05e1bb	0.5229756
34	0x3ef35dd8	0.47532535
35	0xbf243294	-0.64139676
36	0x3e2609c4	0.16214663
37	0xbecde774	-0.40215647
38	0xbf45229a	-0.7700592
39	0x3eef6e18	0.46763682
40	0xbf18163d	-0.5940893
41	0xbf5a2ea1	-0.852274
42	0xbeb06c9e	-0.34457868
43	0xbd464c29	-0.048412476
44	0x3ef73fc8	0.4829085
45	0x3ecb1538	0.39664626
46	0x3dda1adc	0.10649654
47	0x3e1b16e9	0.15145458
48	0x3e3802d1	0.17969824
49	0xbf720958	-0.9454551
50	0xbe6471b0	-0.22308993
51	0x3ee6b900	0.4506302
52	0x3f828b5b	1.0198778
53	0x3f83107e	1.0239408
54	0x3c668254	0.014069159
55	0xbc841bbb	-0.016126504
56	0x3e3523aa	0.17689386
57	0x3f267dbc	0.65035605
58	0xbfa2f205	-1.2730108
59	0xbd9848bd	-0.07435749
60	0x3f2d91fb	0.67800874
61	0xbf0ae8b0	-0.542613
62	0x3e7679a7	0.24069844
63	0x3e5d6fa9	0.21624626

weight f4 [16]
0	0x3fb06db1	1.3783475
1	0x3f93eb3f	1.1556166
2	0x3f4f6232	0.8100921
3	0x3ef97e11	0.48728994
4	0x3fb35a5f	1.4011954
5	0x3f6ecffd	0.93286115
6	0x40681952	3.6265454
7	0x3f66d3cf	0.90166944
8	0x3f78bff7	0.97167915
9	0x4004e5d8	2.0765285
10	0x3ffb8963	1.9651302
11	0x3fb1db67	1.3895081
12	0x3f9c1061	1.2192498
13	0x3fcfe5cf	1.6242007
14	0x3fcac2b1	1.5840665
15	0x3f9f2be2	1.2435267

bias f4 [16]
0	0x3e4bf139	0.19916238
1	0x3f0e9044	0.5568888
2	0xbea229df	-0.3167257
3	0xbfd25d93	-1.6434807
4	0x3e8be917	0.2732627
5	0xbece7a39	-0.40327623
6	0x3f0ee209	0.5581365
7	0xbdb24273	-0.087040804
8	0x3da52f90	0.080657125
9	0x3f76d3c4	0.9641688
10	0x3f001687	0.50034374
11	0xbf0bc9aa	-0.5460459
12	0x3ea4a0c8	0.32153916
13	0x3e958d03	0.29209146
14	0x3c2723f4	0.010201443
15	0xbe4da391	-0.20081927

running_mean f4 [16]
0	0xbedd6f2c	-0.4324888
1	0x3f64354a	0.8914381
2	0xc015deaa	-2.3417153
3	0x3ed465ed	0.41484013
4	0x3f205dc8	0.626431
5	0x3e9bb391	0.30410436
6	0x3ff2d62d	1.8971611
7	0x3fa99e7b	1.3251489
8	0x3f189b90	0.5961237
9	0xbc66e13c	-0.014091786
10	0xbfcd8415	-1.6055933
11	0x3f9832c0	1.1890488
12	0x3e3e169a	0.1856331
13	0x40196440	2.3967438
14	0xbdba9984	-0.09111312
15	0x3fc084e9	1.5040561

running_var f4 [16]
0	0x3e8e8b6f	0.27840754
1	0x3eb84fba	0.35998327
2	0x3f854dcc	1.0414367
3	0x3f3b102d	0.7307156
4	0x3f0a6363	0.540579
5	0x3fe9b653	1.8258766
6	0x3eddb803	0.43304452
7	0x3f228f45	0.6349986
8	0x3efe8dd9	0.49717596
9	0x3f715087	0.942635
10	0x3f8e33c1	1.1109544
11	0x3ed3647b	0.41287598
12	0x3ea6871d	0.32524958
13	0x3f486476	0.7827829
14	0x40518b2b	3.2741191
15	0x3f3e5657	0.74350494

weight f4 [4, 16, 1, 1]
0	0x3eb66eee	0.35631508
1	0xbddcb985	-0.107775725
2	0xbe123437	-0.14277731
3	0x3e20cb3e	0.1570253
4	0x3e251fe1	0.16125442
5	0x3d490478	0.049076527
6	0xbd456b3a	-0.048197962
7	0xbe23a6d2	-0.15981606
8	0xbf64059e	-0.8907107
9	0xbe55ee65	-0.20891722
10	0xbf45e6ad	-0.7730511
11	0x3e91bbfb	0.2846373
12	0xbd50f973	-0.051019143
13	0x3e10527c	0.14093965
14	0xbf94dbe5	-1.1629606
15	0x3f245fb6	0.64208543
16	0xbee23497	-0.44180748
17	0xbcc5002e	-0.024047937
18	0x3e51dc2b	0.20494144
19	0xbef86065	-0.48511043
20	0x3ec42ed0	0.38316965
21	0xbf747242	-0.95486844
22	0xbd92de18	-0.07171267
23	0xbd506967	-0.05088177
24	0x3d5d7d15	0.054074366
25	0xbefe22ae	-0.49635834
26	0x3f085eba	0.5326954
27	0xbe8abf02	-0.27098852
28	0x3e05da8e	0.13071653
29	0x3e8dbcc2	0.27683073
30	0x3e28d0ee	0.1648595
31	0x3e9f4804	0.3110963
32	0x3ea4a63c	0.32158077
33	0xbebdfba4	-0.3710605
34	0x3f414737	0.7549929
35	0xbebc666f	-0.367969
36	0xbf532cfa	-0.82490504
37	0xbda61741	-0.08109904
38	0x3db478a9	0.088120766
39	0x3f501d50	0.8129473
40	0x3e8c43a1	0.27395347
41	0x3f04836c	0.51763034
42	0xbf004638	-0.50107145
43	0xbd8b9168	-0.068148434
44	0xbe9747fd	-0.2954711
45	0x3c92b763	0.017909711
46	0x3f65a440	0.8970375
47	0x3d79e2b4	0.061007217
48	0xbea41bcc	-0.32052457
49	0xbe8a3a27	-0.26997492
50	0x3f2b58aa	0.66932166
51	0xbf0352ca	-0.512982
52	0xbde5c4e9	-0.11219198
53	0x3e6d2d05	0.23161705
54	0x3d0071dd	0.03135859
55	0x3e289bff	0.16465758
56	0xbe4c7322	-0.19965795
57	0xbf075e20	-0.52878
58	0xbd4b71a8	-0.049668938
59	0xbe830738	-0.25591445
60	0x3ee289c1	0.44245723
61	0xbe49755c	-0.19673675
62	0x3e77ecad	0.24211378
63	0x3e994ac2	0.29939848

weight f4 [4]
0	0x3f935579	1.1510459
1	0x3f6856ec	0.9075763
2	0x3f4d9e52	0.803197
3	0x3f8fd975	1.1238238

bias f4 [4]
0	0xbd0b3d84	-0.033994213
1	0xbf37c047	-0.71777767
2	0xbe942df0	-0.28941298
3	0x3d296ea7	0.041365292

running_mean f4 [4]
0	0xbfe1dc44	-1.7645345
1	0xbd1803b0	-0.03711289
2	0xbe181f63	-0.14855723
3	0xbfef3650	-1.868845

running_var f4 [4]
0	0x40c66bf6	6.200679
1	0x3f39815b	0.72463006
2	0x4000ba85	2.0113842
3	0x4083597c	4.1046734

weight f4 [4, 4, 3, 3]
0	0xbd409b7b	-0.047023278
1	0x3e7067d7	0.23477112
2	0xbec3df01	-0.38256076
3	0x3e29d5d9	0.16585483
4	0xbeb390a4	-0.3507129
5	0xbf4ed044	-0.8078654
6	0xbe6732c7	-0.22577964
7	0xbf02c6f9	-0.5108486
8	0xbf1ee9f8	-0.6207576
9	0xbe28505e	-0.16436908
10	0xbeed9698	-0.46403956
11	0xbed49e43	-0.41526994
12	0xbd1e3db9	-0.038633082
13	0xbda5296f	-0.080645435
14	0xbd060707	-0.032721546
15	0x3ef0d986	0.47040957
16	0xbe8410a5	-0.2579395
17	0x3ecd2935	0.400705
18	0x3ed16b17	0.40902016
19	0x3f037e2e	0.5136441
20	0x3e7d83c7	0.247573
21	0x3eb38946	0.3506567
22	0x3e7b0c5a	0.2451643
23	0xbe8ab87c	-0.27093875
24	0x3ecdfbc7	0.40231153
25	0x3eebe484	0.4607278
26	0xbe63bb1b	-0.22239344
27	0xbeb7a2a1	-0.35866264
28	0x3eb2a1a7	0.34888956
29	0xbcce6d39	-0.025198566
30	0x3ef56b77	0.47933552
31	0xbc4cd7f4	-0.012502659
32	0x3e38b37d	0.1803722
33	0x3de7cc88	0.11318308
34	0x3f130a62	0.5743772
35	0xbe330267	-0.17481385
36	0x3e947cc4	0.2900144
37	0xbe73d162	-0.23810342
38	0xbf06d1bd	-0.52663785
39	0x3de8e381	0.11371518
40	0xbe7dce31	-0.24785687
41	0xbca2ab7e	-0.019857164
42	0x3d83a7d3	0.06428494
43	0xbe8442a5	-0.25832096
44	0x3e0eb91d	0.13937803
45	0x3e6cf117	0.23138843
46	0x3e8399c7	0.2570326
47	0x3f3500b7	0.70704216
48	0x3e777224	0.24164635
49	0x3e87fc8d	0.26559868
50	0x3f200bb9	0.6251789
51	0x3e5d3abd	0.21604438
52	0x3edd9a34	0.4328171
53	0x3f0acbbd	0.5421713
54	0xbc34977d	-0.011022446
55	0xbcc30d08	-0.023809925
56	0xbd84285a	-0.06453009
57	0xbe4310c5	-0.19049366
58	0xbe8eebaf	-0.27914187
59	0x3dae72c6	0.08517985
60	0xbe60be89	-0.21947683
61	0xbf948246	-1.1602256
62	0xbe63e5f5	-0.2225569
63	0x3f133460	0.5750179
64	0xbd312f73	-0.04325814
65	0xbeb2c84c	-0.3491844
66	0x3db8a8b2	0.09016551
67	0xbe0f0146	-0.1396533
68	0xbf046cf6	-0.5172876
69	0x3db4a0fd	0.088197686
70	0xbe3af187	-0.18256198
71	0xbf30f6c5	-0.6912654
72	0x3e458a92	0.19291142
73	0x3b3c7ef8	0.0028762203
74	0x3edaf361	0.42763808
75	0x3e095234	0.13410264
76	0x3ce9b725	0.028529713
77	0x3ef6d279	0.48207453
78	0x3d86f4b2	0.06589641
79	0x3e8d4d8c	0.27598226
80	0x3f430916	0.7618574
81	0xbe7d413a	-0.24731913
82	0x3ca9ec44	0.020742543
83	0x3ed75ed6	0.42064542
84	0x3b9440a7	0.0045243087
85	0xbb80fb11	-0.0039361794
86	0x3e2683ab	0.16261165
87	0x3df03603	0.11729052
88	0xbe0127c7	-0.1261283
89	0x3d76ad8b	0.060224097
90	0xbd4d39f2	-0.05010409
91	0x3dcc983f	0.09989976
92	0x3d2e94ff	0.042622562
93	0x3d12e8c3	0.03586651
94	0xbd832626	-0.064037606
95	0xbc9ee629	-0.019396858
96	0xbe4ab575	-0.19795783
97	0xbd3fdd61	-0.046841983
98	0x3e3736d4	0.17892009
99	0xbeeb09d3	-0.45905933
100	0xbeeb9c8d	-0.46017876
101	0xbe7a6d5d	-0.24455781
102	0xbec8f694	-0.39250624
103	0xbed803b8	-0.42190337
104	0xbec422c9	-0.3830779
105	0xbe4d188a	-0.20028892
106	0xbd81ce13	-0.06338134
107	0x3df00d5f	0.117213
108	0xbeddfe46	-0.43358058
109	0xbe191534	-0.14949495
110	0xbdf68a1c	-0.12038061
111	0xbf196759	-0.5992332
112	0xbea71d38	-0.3263948
113	0xbd900a38	-0.07033199
114	0x3c76e7e8	0.015069939
115	0x3ea62e81	0.32457355
116	0x3e0a39fd	0.13498683
117	0x3ebd92bd	0.37026015
118	0x3f0ea246	0.5571636
119	0x3f8519be	1.0398481
120	0x3e75874c	0.23977393
121	0xbdee94dd	-0.11649487
122	0x3e8aa5cc	0.27079618
123	0x3f1ab226	0.6042808
124	0x3df18cc9	0.11794431
125	0x3eda412f	0.42627856
126	0x3e0a524b	0.13507955
127	0xbcace891	-0.02110699
128	0x3e01867d	0.1264896
129	0x3b2d15cf	0.0026410704
130	0x3c60e455	0.013726314
131	0x3efa96a9	0.4894307
132	0x3fa9a376	1.3253009
133	0x3ee1402c	0.43994272
134	0x3e1a76e3	0.15084414
135	0xbe8b107f	-0.27161023
136	0x3c9df661	0.019282522
137	0xbea9f97e	-0.3319816
138	0xbee95f3f	-0.4558048
139	0xbdf1c299	-0.11804695
140	0xbe1b028a	-0.15137687
141	0xbea91c42	-0.33029372
142	0x3cf62689	0.030047672
143	0x3d0022ad	0.03128307

weight f4 [4]
0	0x3f8a4c15	1.0804468
1	0x3fc7da63	1.5613521
2	0x3f308eba	0.68967783
3	0x3f5ac3e1	0.8545514

bias f4 [4]
0	0xbf389467	-0.72101444
1	0x3e94ff48	0.29101014
2	0xbd7c6a5b	-0.061624866
3	0xbf4cb0f1	-0.7995749

running_mean f4 [4]
0	0xbe008a76	-0.12552819
1	0xbe8d558c	-0.2760433
2	0xbc17bce0	-0.00926134
3	0x3e077e11	0.13231684

running_var f4 [4]
0	0x3ff49237	1.9107121
1	0x4060abe2	3.510491
2	0x3f648fa0	0.89281654
3	0x4063e672	3.5609403

weight f4 [16, 4, 1, 1]
0	0x3fec55ff	1.8463744
1	0xbdd5b418	-0.10434741
2	0xbccdcce5	-0.025122115
3	0xbd9a2cb2	-0.07528056
4	0x3fc90708	1.5705271
5	0xbebc54ac	-0.3678335
6	0xbd6f21a9	-0.05838171
7	0xbe0e4bb6	-0.13896069
8	0x3e32003e	0.17382905
9	0xbd53f41d	-0.051746476
10	0x3f1f90f4	0.62330556
11	0xbeabf7aa	-0.3358739
12	0x3e168824	0.14700371
13	0x3fa75210	1.3071918
14	0x3e5dd231	0.21662213
15	0x3e12ffe1	0.14355423
16	0xbc0c9de2	-0.008582564
17	0xbe03151a	-0.12801018
18	0x3f1dea08	0.6168523
19	0xbeeb08f9	-0.45905283
20	0xbdbd9864	-0.09257582
21	0xbe49988b	-0.19687097
22	0xbf0e0935	-0.554828
23	0x3f44a70b	0.7681739
24	0x3cc9e7b9	0.024646627
25	0x3f9268f7	1.1438283
26	0xbe21693f	-0.15762804
27	0xbd871af3	-0.06596937
28	0x3f621f8b	0.8832938
29	0x3cae8c78	0.021307215
30	0x3e149778	0.14510906
31	0x3eea2750	0.45733118
32	0xbccc11af	-0.024910776
33	0xbe50333a	-0.20332041
34	0xbf02bd5e	-0.510702
35	0x3f1a6b06	0.60319555
36	0xbe053107	-0.13006984
37	0xbf6e827b	-0.9316785
38	0x3e908e84	0.2823373
39	0xbe6a8131	-0.22900845
40	0x3fafde05	1.373963
41	0xbeb1985d	-0.34686556
42	0x3dfffa5d	0.12498925
43	0xbde874e9	-0.11350424
44	0x3bcbd831	0.0062208404
45	0xbe3e346c	-0.18574685
46	0x3f80ba9a	1.0056946
47	0xbd74da91	-0.059778754
48	0x3edfae2f	0.4368758
49	0x3ecf1160	0.40442944
50	0xbb880fc0	-0.004152268
51	0x3eb8056d	0.3594164
52	0x3d405e29	0.046964798
53	0x3f7a1b0f	0.9769754
54	0xbe9105f0	-0.28324842
55	0x3e203723	0.15646033
56	0xbc7fdf58	-0.015617214
57	0xbea03b67	-0.3129532
58	0xbec0a23b	-0.37623772
59	0x3f44f562	0.76936924
60	0x3e9399cc	0.28828275
61	0xbe0ebfa3	-0.13940291
62	0xbd14877f	-0.03626203
63	0x3f22dc91	0.6361781

weight f4 [16]
0	0x411dffaf	9.874923
1	0x40cd444d	6.4145875
2	0x40c05759	6.0106626
3	0x40eba175	7.363459
4	0x40cf8e9d	6.486159
5	0x40dbd234	6.8694096
6	0x40aa8288	5.328434
7	0x40d987f4	6.797846
8	0x40e5d820	7.1826324
9	0x40b5a0d4	5.6758823
10	0x40f502a9	7.6565747
11	0x40aafe99	5.343579
12	0x40b4fdc3	5.655977
13	0x40ea615d	7.324385
14	0x40e73ec1	7.2264104
15	0x40b86553	5.7623687

bias f4 [16]
0	0x3e1b2a02	0.15152743
1	0x3f6c5448	0.92316103
2	0x3e79f467	0.24409638
3	0xbe009f76	-0.1256083
4	0x3ee72270	0.4514346
5	0x3f047849	0.5174604
6	0x3eb183eb	0.34670958
7	0xbf357a57	-0.708898
8	0xbe5c0093	-0.21484594
9	0x3f86e907	1.0539864
10	0x3f574883	0.8409502
11	0x3dd7f457	0.10544651
12	0xbe49dd74	-0.19713384
13	0x3da34e4e	0.0797392
14	0x3e76752a	0.24068132
15	0xbd12f058	-0.03587374

running_mean f4 [16]
0	0x3c98a0dd	0.018631393
1	0xbe127782	-0.14303401
2	0xbad6a79e	-0.0016376858
3	0x3f3af92c	0.73036456
4	0xbd72cbbd	-0.05927633
5	0xbda4cb73	-0.08046617
6	0x3f1888fa	0.5958401
7	0x3dd267b1	0.10273684
8	0xbdb5a694	-0.08869663
9	0xbf008688	-0.5020528
10	0xbe01092d	-0.12601157
11	0xbcfe5b7a	-0.031049479
12	0x3e88b099	0.26697233
13	0x3f036b84	0.5133593
14	0xbe021a21	-0.1270528
15	0xbc065b73	-0.008200514

running_var f4 [16]
0	0x3ed416cf	0.41423652
1	0x3ea8c861	0.32965377
2	0x3d72dcc0	0.059292555
3	0x3ea93e48	0.3305533
4	0x3d8a2049	0.06744439
5	0x3e1ac103	0.1511269
6	0x3e75d4b6	0.24006924
7	0x3e426405	0.18983467
8	0x3dcd6665	0.10029296
9	0x3e251318	0.16120565
10	0x3e81f9bd	0.25385848
11	0x3e305243	0.1721888
12	0x3dbaeccc	0.09127197
13	0x3e310600	0.17287445
14	0x3e29aa9a	0.16568986
15	0x3e10bbfb	0.14134209

weight f4 [10, 16]
0	0x3fca85ac	1.5822043
1	0x3e8909ec	0.26765382
2	0x3f7e0a21	0.99234205
3	0x40171c0b	2.3610866
4	0x3f2b0d3c	0.6681707
5	0xc02a0e2a	-2.6571145
6	0xbeaf70db	-0.3426579
7	0xbf7ee36c	-0.9956577
8	0xc00ee536	-2.23274
9	0xbeeb86db	-0.46001324
10	0x3f05be1d	0.52243215
11	0x3f338e9b	0.70139474
12	0x3e6c8388	0.2309705
13	0x3f66897c	0.90053535
14	0xc00bdc92	-2.1853375
15	0xbf9a7e04	-1.2069707
16	0xbd8a3aa0	-0.06749463
17	0x3f9613f6	1.1724842
18	0xbece9c67	-0.403537
19	0xbfac06d6	-1.3439586
20	0xbe14394d	-0.14474984
21	0x3f1c0e72	0.6095954
22	0xbfcf74de	-1.620754
23	0xc069efe9	-3.655268
24	0x3fdbb6ec	1.7165198
25	0x3fe798bd	1.8093487
26	0x3f7003f1	0.93756014
27	0xc03167f0	-2.7719688
28	0xc0119096	-2.2744498
29	0xbf0588e0	-0.5216198
30	0x3e1ea442	0.15492347
31	0xc00fa6c6	-2.244554
32	0xbfd15fcc	-1.635736
33	0xbf9764b7	-1.1827611
34	0x3ff903ab	1.9454244
35	0xbe388368	-0.18018878
36	0x3fd84b67	1.6898011
37	0x40046277	2.0685098
38	0xbfdeb698	-1.7399473
39	0x3fa79231	1.3091489
40	0x400393e1	2.0559008
41	0xbf574364	-0.84087205
42	0xbf913b6e	-1.1346262
43	0x3f86c623	1.0529217
44	0xbe9847b0	-0.29742193
45	0xbef9f7f8	-0.48821998
46	0x40118ff4	2.2744112
47	0x3ed6e0fe	0.4196853
48	0xbfa85348	-1.3150415
49	0xbf5d5245	-0.8645366
50	0xc00fd881	-2.2475893
51	0xbedfa4fd	-0.43680564
52	0xbfd5bdea	-1.6698582
53	0x400dc179	2.2149336
54	0x3f9ccf25	1.2250715
55	0x3ff5c640	1.9201126
56	0x3fe42fa1	1.7827035
57	0xbf7258f8	-0.94667006
58	0xbf8b36b4	-1.0876069
59	0xbf8d45a5	-1.1036879
60	0x3f8e1be9	1.1102268
61	0xbde8a8c4	-0.113603145
62	0x3fd2bb14	1.6463342
63	0x3fc66b03	1.5501407
64	0x3ffe01a3	1.984425
65	0x3f57e529	0.84334046
66	0x401e346e	2.47195
67	0xc07a5671	-3.911526
68	0x3f51a383	0.81890124
69	0xbfa7a707	-1.3097848
70	0xc01dfcc9	-2.4685538
71	0x3faf2204	1.3682256
72	0xbed3b283	-0.4134713
73	0x3eaab49f	0.33340928
74	0x3f81e2f5	1.0147387
75	0x4004f5c7	2.077501
76	0xc014c2ee	-2.3243976
77	0xc04dcacb	-3.2155025
78	0xbfc2b4a5	-1.5211378
79	0xbec1f44e	-0.37881702
80	0xbf2d729a	-0.67752993
81	0xbf5f7ec2	-0.8730279
82	0xbfc7ee0a	-1.5619519
83	0x401f2e10	2.4871864
84	0xbf2f3589	-0.68441063
85	0x3eb6bc24	0.35690415
86	0x3f6c2a69	0.9225221
87	0x3c80e060	0.01573199
88	0xbeebb3a9	-0.46035507
89	0xbf7ed60b	-0.99545354
90	0xbf1af1ff	-0.60525507
91	0xbfaa7194	-1.3315911
92	0x3fc164a9	1.5108844
93	0x402c2491	2.6897318
94	0x3d4fa033	0.050689887
95	0xbd5cb432	-0.053882785
96	0xbffdd8d4	-1.9831796
97	0xbf249dd0	-0.643033
98	0x4012ad33	2.2918212
99	0x3fc58fb8	1.5434484
100	0x402a1509	2.657534
101	0xc05ca30f	-3.4474523
102	0x3f0c5dae	0.54830444
103	0xc098006a	-4.7500505
104	0xc00e8a8a	-2.2272058
105	0x3effd24f	0.4996514
106	0xbe8b153c	-0.27164638
107	0x3ffca967	1.9739197
108	0xbffb8270	-1.9649181
109	0x3fbf40c8	1.4941645
110	0xc027836a	-2.6173959
111	0xc03493dc	-2.8215246
112	0x3f6e4f67	0.9308991
113	0x3df0bdff	0.11754989
114	0xbf233e85	-0.6376727
115	0xc0658761	-3.5863879
116	0xbfe1008a	-1.757829
117	0x3fc9ae31	1.5756284
118	0xbfdabdeb	-1.7089208
119	0x3fb8d256	1.443919
120	0x4028ccc3	2.6374977
121	0x3e16ae85	0.14715011
122	0x3f36cba1	0.71404463
123	0xbfc8d26c	-1.5689216
124	0x3ed928e4	0.4241401
125	0xc00bdd38	-2.1853771
126	0x3f53c3ef	0.82720846
127	0x3f5e6731	0.8687621
128	0xbfdaf113	-1.710482
129	0xbe9513a7	-0.29116556
130	0xc006109f	-2.0947645
131	0xbebba46e	-0.36648887
132	0xbf39463c	-0.72372794
133	0xbf49d3cb	-0.78838795
134	0x403a7b60	2.9137802
135	0xc00aba8b	-2.1676357
136	0xbff02d83	-1.8763889
137	0x3f1dafff	0.61596674
138	0xbe58440d	-0.2111971
139	0x3ea1f5f2	0.31632954
140	0xbe4ad0a1	-0.19806148
141	0x3eae2e32	0.3401962
142	0xbe839891	-0.25702336
143	0x3f785887	0.9701008
144	0x3fdc2a39	1.7200385
145	0x3f38001f	0.71875185
146	0xbfe3c7cf	-1.7795352
147	0x3f22026e	0.6328496
148	0xc012e76c	-2.2953749
149	0xc00141c5	-2.0196393
150	0x3ec4de96	0.3845107
151	0x3fe1da9a	1.7644837
152	0xc0324daa	-2.7859902
153	0x3d5591a9	0.052140865
154	0x3f85815a	1.04301
155	0xbf62cc2d	-0.885928
156	0x3fd91228	1.6958666
157	0xbfa286f7	-1.2697438
158	0xc015837b	-2.33615
159	0x3f0a4038	0.5400424

bias f4 [10]
0	0xbeea4e8b	-0.4576305
1	0x3fa1e512	1.2648032
2	0xbe03677a	-0.12832442
3	0xbeafe930	-0.34357595
4	0xbe22a433	-0.1588295
5	0xbeefbe0d	-0.46824685
6	0x3eda198b	0.42597613
7	0xbf1811db	-0.59402245
8	0x3f6d4662	0.9268552
9	0xbe30fef8	-0.17284763
