HW2/aML/resnet4_btnk.pt (torch, 387498 bytes, 27 tensors)

weight f4 [64, 3, 7, 7]
000000 a9 91 1c be e2 0f 9d 3e 6a 29 a2 3e 6d 4e c4 3e
       -0.1528994 0.3067618 0.3167222 0.38341084
000010 46 57 1e bd 34 15 f3 3c 85 59 d2 bc 4e 02 84 bd
       -0.03865745 0.029673196 -0.025677452 -0.06445752
000020 4a 50 c6 bd f9 b9 d3 bd 85 b1 41 3e 5c a1 3f 3e
       -0.09683283 -0.10338206 0.18915375 0.18713897
000030 36 60 0f 3e 21 a7 61 3c c5 6e 3f 3d 5a 7e 9e 3e
       0.14001545 0.013772757 0.046736497 0.30955774
000040 f2 5d 99 be 13 5b 64 3d ee c6 15 3e ba f9 1c 3e
       -0.29954487 0.055750918 0.14626667 0.15329638
000050 33 43 7a 3e d5 a3 85 3e a6 bb 58 3e 36 5b a0 be
       0.24439697 0.26101556 0.21165332 -0.31319588
000060 00 a8 03 3f f0 1d 88 3e b5 d7 95 3e c1 de d9 3e
       0.5142822 0.2658534 0.29266134 0.4255276
000070 4b b2 23 3e c4 ad 23 3e 10 2d 04 be 6c 73 b0 3e
       0.15985982 0.15984255 -0.12907815 0.3446306
000080 a4 a1 5a 3e c7 19 70 3e ac 98 88 3e 4c 81 2e bd
       0.21350724 0.23447333 0.2667898 -0.042603776
000090 6d e3 d2 3d 16 65 02 3e f8 c6 c6 3e 59 6d e0 3d
       0.10297284 0.12733874 0.38823676 0.109583564
0000a0 2f 8f 23 bd b5 91 2a 3e ce 3f ed bc c0 54 4f 3e
       -0.039931472 0.16657145 -0.028961089 0.20247173
0000b0 22 c8 4c bb 87 db 76 3e f7 15 b8 3d 8f fb 26 be
       -0.0031247218 0.2410718 0.089885645 -0.163069
0000c0 21 10 fd 3c 5c fe e7 bd 3e 36 72 3e c6 c4 90 3e
       0.03089148 -0.11327812 0.23653504 0.28275126
0000d0 58 2e 9a 3e 1a c1 f2 3c d2 c1 a5 bc 63 2c 5b bd
       0.30113482 0.029633094 -0.020234022 -0.053509127
0000e0 e8 04 e4 bd ac 24 cd bd 56 a8 50 bc 9f 6f 8a 3d
       -0.11133748 -0.1001676 -0.012735447 0.06759571
0000f0 bb 68 43 3e 2c 81 b8 3d 23 ca 26 3c 9a 0d dd 3d
       0.1908292 0.090090126 0.010180029 0.1079361
000100 7c ca 87 3e 32 45 41 be 44 88 07 3e 4c 6d 9c 3d
       0.2652167 -0.18874052 0.13235575 0.07638034
000110 b5 9a 40 3e 2e d6 75 3e e0 2e 98 3e cd ca da 3d
       0.18809016 0.24007484 0.29723263 0.106832124
000120 52 d5 5c be 78 f8 07 3f a9 35 85 3e ff 32 69 3e
       -0.2156575 0.5311351 0.26017502 0.2277336
000130 7e 05 df 3e 5a ed 83 3d 35 f0 99 3e cc 16 9f bd
       0.43558878 0.064417556 0.30066076 -0.0776802
000140 06 a7 e7 3e 00 be 18 3e 75 8e 0f 3e 6e 74 9c 3e
       0.45244616 0.14916229 0.14019187 0.3055758
000150 16 0b ae bc fb 68 21 bd 68 7b b1 3b ef a7 c3 3e
       -0.02124552 -0.039406758 0.0054163225 0.3821406
000160 05 ac d0 3d 3f 2f 87 bd d8 9c aa 3d c9 74 94 3d
       0.1018906 -0.06600808 0.08330697 0.072488375
000170 10 6f bf 3d ec 28 ac 3c c5 c5 71 3e 37 e5 4f 3d
       0.09347355 0.021015607 0.236106 0.050755706
000180 7b 46 d5 bd b5 7c 1f 3d c2 f4 50 be 2c c4 3a 3e
       -0.10413834 0.03893729 -0.20405868 0.18238896
000190 07 31 b3 3e 70 0c 9c 3e 31 80 c6 3d 1e 56 be 3c
       0.34998342 0.3047824 0.09692419 0.023234423
0001a0 fa 4a a3 bd 79 a5 85 bd 5a 57 92 bd 25 2a da bc
       -0.07973285 -0.06525702 -0.07145567 -0.026631424
0001b0 19 3a 8f 3d 25 54 07 3e 41 66 26 3e e0 30 85 3c
       0.06993503 0.13215692 0.16249944 0.016258657
0001c0 a1 f9 04 3d 66 33 9c 3e 64 e3 6c be 66 99 26 3e
       0.032464627 0.30507964 -0.23133618 0.16269454
0001d0 ba 77 5e 3d 8d f3 9c 3d 2d b4 52 3e 34 fd 85 3e
       0.0543134 0.07663641 0.20576544 0.2616974
0001e0 23 20 5a 3e 67 79 86 be e2 95 09 3f e3 9e b9 3e
       0.21301322 -0.26264498 0.5374433 0.36254033
0001f0 be a4 4b 3e 32 ed bf 3e 6f 02 f2 3d bd 1d 1e 3e
       0.19887063 0.37485653 0.118168704 0.15441032
000200 cd bf 6a bd 97 85 c2 3e e4 b4 30 3e 48 b0 1a 3e
       -0.05731182 0.37992546 0.17256504 0.15106308
000210 9c a0 9f 3e df 48 b9 bd 82 dc 69 bc 96 21 d0 3d
       0.31177223 -0.09047102 -0.014273765 0.10162656
000220 b5 7b 86 3e 6b 8f c9 3c 06 01 85 bd 37 53 04 3e
       0.26266256 0.02460452 -0.06494336 0.12922369
000230 dd c2 60 bc 4d 8e cb 3d 43 d4 9b 3d 8d 70 a0 3e
       -0.013718334 0.09939251 0.07608845 0.3133587
000240 89 55 e8 3d 29 96 d9 bd c7 6a a4 3d fe 3c 86 be
       0.113444395 -0.10624344 0.08028179 -0.26218408
000250 72 69 9b be cd a6 1b be 5d 30 66 3d b3 db cb 3e
       -0.30353886 -0.15200348 0.056198467 0.39816055
000260 da f0 c4 3e 91 fa 1d be 81 d1 70 bd 67 b8 bf be
       0.38465005 -0.15427615 -0.05879355 -0.37445375
000270 92 2d a9 be 32 99 63 3b 2b 1d ae 3d e3 b9 a8 3d
       -0.3304258 0.0034728763 0.08501657 0.0823858
000280 85 8b 01 be c9 08 89 be ea cd a2 bd 15 7f 8f be
       -0.12650879 -0.26764515 -0.07949431 -0.28026643
000290 5f 6c 7d 3d 01 24 93 3e 0a c0 df bc f2 b2 bc be
       0.06187093 0.28738406 -0.027313251 -0.36855274
0002a0 5b 6e a7 bc 32 79 89 be 12 39 97 bd 5b e3 ef bd
       -0.020438364 -0.26850277 -0.07383932 -0.117132865
0002b0 c2 ed 7d 3d 9c ca 93 be b4 db 27 be d9 d7 83 be
       0.06199432 -0.28865516 -0.16392404 -0.25750616
0002c0 9b 45 8e be 59 ee a8 bc 66 52 37 be 7d 91 99 be
       -0.2778748 -0.020621466 -0.17902526 -0.2999381
0002d0 b8 12 24 bf 34 48 d0 bc 5b 06 dc be b0 aa 2d be
       -0.6409106 -0.025425054 -0.429736 -0.16959643
0002e0 af c8 2a bd 7f f9 b5 be ac cf 29 bf bb 71 ae be
       -0.041695293 -0.35541913 -0.6633251 -0.34071144
0002f0 98 99 14 3e 2a c7 94 3e a4 dc 6b 3e 0d 69 62 be
       0.14511716 0.290582 0.23033386 -0.22110386
000300 13 93 a1 3d a4 63 10 3e 48 82 7e 3e 45 0b ee 3d
       0.0788938 0.1410051 0.24854386 0.11623243
000310 20 43 37 be 96 8f 27 be 32 81 8b be d2 80 1f bd
       -0.178967 -0.16363367 -0.27247006 -0.038941212
000320 c2 70 ad 3e ee be c2 3e 58 92 6e be 5d 60 16 bd
       0.3387509 0.38036293 -0.23298013 -0.036712993
000330 56 ba a3 be dd e2 68 be 78 87 00 3e c6 dc 1a 3e
       -0.319781 -0.22742791 0.12551677 0.15123281
000340 bb 65 d7 3d ae 30 eb bd 73 d0 64 be 8e 9a 3a be
       0.105174504 -0.11483894 -0.22345142 -0.1822302
000350 75 9f 8f be f3 18 d6 3d a3 68 79 3e c6 38 16 bb
       -0.28051344 0.104539774 0.24356322 -0.0022922023
000360 29 94 e3 be b3 c3 99 bd 7b 8f 60 be 8e 55 e3 bd
       -0.44448975 -0.0750803 -0.21929733 -0.11100303
000370 8e b3 5d bd 6c 7b e5 3d 0a 6c 87 be 88 9c 3c be
       -0.054126315 0.112051815 -0.26449615 -0.18419087
000380 d3 8c 71 be 20 14 71 be 36 24 17 be de 4b 92 bd
       -0.23588876 -0.23542833 -0.14759907 -0.07143377
000390 39 bf c6 be f6 b5 2c bf 4f 90 ae 3d df 21 fe be
       -0.38817766 -0.6746515 0.085236184 -0.49635217
0003a0 ec 33 83 bd 34 55 f2 bd b3 a8 ab be df 70 06 bf
       -0.06406388 -0.118326575 -0.33527145 -0.5251598
0003b0 6a 08 b9 be 96 4b 0e 3e a8 23 b8 3e f0 c6 63 3e
       -0.36139232 0.13896021 0.35964704 0.22243857
0003c0 48 9f 61 be c6 3d 4e 3c 85 a9 41 3e 0d 6d 90 3e
       -0.22033417 0.01258797 0.18912323 0.282082
0003d0 04 21 1f 3d 96 27 7a be d9 8b 6b be a1 01 8d be
       0.038849846 -0.24429163 -0.23002566 -0.27540305
0003e0 56 88 e2 bc bd 84 93 3e 58 ae af 3e ee 11 29 be
       -0.0276529 0.2881221 0.343127 -0.16510746
0003f0 ed 5b af bc 6d 69 96 be 96 f0 a6 be 43 3e 09 3e
       -0.021406138 -0.29377308 -0.32605428 0.13402657

weight f4 [64]
000000 82 58 08 3f 5a 44 e8 3f ec 8a 42 3f e9 02 28 3f
       0.5326005 1.8145859 0.7599323 0.6562944
000010 b8 5c d3 3f 9c d0 9f 3f 60 67 d6 3f 22 8d 4e 3f
       1.651267 1.2485538 1.6750298 0.806841
000020 09 fc 95 3f ea 47 b6 3f d7 b0 28 3f 54 ab 90 3f
       1.171754 1.4240696 0.65894836 1.1302285
000030 cd c6 33 3f 57 3c 62 3f e2 4c 3c 3f 90 7d 37 3f
       0.7022522 0.8837332 0.73554814 0.7167597
000040 31 12 37 3f 34 ab 31 3f 1a d9 22 3f da 18 be 3f
       0.7151213 0.6940186 0.6361252 1.4851334
000050 6a 42 e6 3f 36 22 f1 3f 8b ff 56 3f d4 64 52 3f
       1.7989018 1.8838565 0.8398368 0.821851
000060 ca ae f5 3f 34 b0 78 3f e6 c9 50 3f 2a 9c 22 3f
       1.9193966 0.97143865 0.8155807 0.6351954
000070 9d 0b 8d 3f 80 4a e0 3f 99 b9 f4 3f f3 53 71 3f
       1.1019169 1.7522736 1.911914 0.9426872
000080 e7 25 cc 3f 1a f8 41 3f 10 4e 6c 3f 26 91 09 3f
       1.5949067 0.757692 0.92306614 0.53737104
000090 8e 63 35 3f fa 68 ee 3f c8 96 71 3f f5 8c bd 3f
       0.70855033 1.8625786 0.943707 1.4808642
0000a0 de ec 49 3f 8c d7 42 3f 11 f5 be 3f 77 7f e1 3f
       0.78877056 0.7611015 1.4918538 1.7617024
0000b0 eb 12 02 40 59 3b af 3f ab b3 fa 3f 0c 75 a6 3f
       2.0324047 1.3689986 1.958608 1.300447
0000c0 95 85 7c 3f 63 4b 39 3f a5 02 46 3f a0 e6 4f 3f
       0.9864133 0.72380656 0.77347785 0.8121128
0000d0 44 9a ca 3f 84 74 96 3f ec 22 53 3f d4 7d 2f 3f
       1.5828328 1.1754308 0.8247516 0.68551373
0000e0 71 f1 cf 3f 6e 3d 58 3f 99 5b 45 3f b7 41 12 3f
       1.6245557 0.84468734 0.7709289 0.5713152
0000f0 58 24 e2 3f 9b f0 c5 3f 54 5f f2 3f e6 e3 f2 3f
       1.7667341 1.5464052 1.8935342 1.8975799

bias f4 [64]
000000 93 e6 2f bf 22 c4 73 3e 51 a4 07 bf c4 3b a3 bf
       -0.68711203 0.23805287 -0.529851 -1.2752614
000010 41 17 d1 3e 43 0f a2 bd 9c 07 b8 3c 5d 1b 15 bf
       0.40838054 -0.07913067 0.022464566 -0.5824488
000020 2d 01 e3 3d e5 49 3d 3e 35 b4 1c bf 41 18 dd be
       0.11084209 0.1848522 -0.61212474 -0.43182567
000030 80 f8 1c be 84 82 e5 bd 37 03 b1 bf c8 c7 4a 3f
       -0.1532917 -0.112065345 -1.3829106 0.7921109
000040 70 2b dd be 07 78 dd be 37 71 cd be f0 ac 3a bd
       -0.43197203 -0.43255636 -0.4012544 -0.045575082
000050 63 1e 41 3e 70 1b 6d be fd 22 5b bf ed 50 59 be
       0.18859248 -0.23154998 -0.8560026 -0.21222277
000060 83 b2 af bd 8a b4 9e 3e 50 ad 87 be 4c a6 48 bf
       -0.0857897 0.30997115 -0.26499414 -0.7837875
000070 66 00 39 be 02 62 b7 3e 1b 24 83 3e 86 a2 1e be
       -0.18066558 0.35816962 0.25613484 -0.15491685
000080 ca d4 cc 3e 3f c5 23 bf d6 9d 2e 3f 6e c6 ef be
       0.40006095 -0.6397285 0.6820959 -0.46831077
000090 92 a3 62 be e2 c1 0e 3e 35 c9 a5 be 31 ec 65 3d
       -0.2213271 0.13941148 -0.3238007 0.056133453
0000a0 27 36 82 bf c5 e0 f8 be 3b 08 e2 bc 72 07 87 be
       -1.0172776 -0.48608986 -0.027591815 -0.26372868
0000b0 1b 92 c1 3e 0c 8a 7b be 3c e2 41 be 00 e5 dc 3d
       0.37806782 -0.2456438 -0.18933958 0.10785866
0000c0 08 46 06 bf 11 4e b0 bd e8 09 95 be cf 82 59 bf
       -0.5245061 -0.0860864 -0.2910912 -0.84965223
0000d0 2b cc 45 3e ce e9 0e 3a b4 7f aa bd dd ad 08 3f
       0.19316165 0.000545171 -0.08325139 0.53390294
0000e0 4c a1 6a 3d a6 b9 19 be a1 3b ab 3f 86 89 49 bf
       0.05728273 -0.15012226 1.3377572 -0.7872547
0000f0 17 39 21 bb 72 62 ab 3d e6 ef 29 3e ea 1e ea 3d
       -0.0024600679 0.08368386 0.1659542 0.11431678

running_mean f4 [64]
000000 05 00 87 42 b6 58 59 c2 4e 71 a5 40 88 0f e4 40
       67.50004 -54.33663 5.170081 7.126896
000010 a6 4e 77 c2 fc 76 23 c2 b0 87 48 c2 6c a9 e3 bd
       -61.826805 -40.866196 -50.132507 -0.11116299
000020 25 40 45 c2 f8 65 0d c2 50 86 18 42 7e 7f 68 c1
       -49.31264 -35.34958 38.131165 -14.531126
000030 4b f0 35 c0 61 6c b4 c1 0a c8 36 40 8b 3a 8a c1
       -2.8427913 -22.55292 2.8559594 -17.278585
000040 74 f5 b8 3f 33 32 d8 c0 9d d5 3b c1 a4 c0 11 c2
       1.4449906 -6.756128 -11.739652 -36.438126
000050 9d 42 67 c2 43 0d 2a c2 9a 10 38 c0 0b 87 78 c1
       -57.815052 -42.51295 -2.8760133 -15.532969
000060 e7 c4 4a c2 a9 2f 6c c1 dd 2d 38 c0 4e 83 84 c0
       -50.692287 -14.761636 -2.8777993 -4.1410284
000070 2c 1c 04 c2 97 b4 87 c2 07 d0 3b c2 99 da a8 c1
       -33.02751 -67.852715 -46.95315 -21.106737
000080 c0 33 c2 c2 57 f6 a0 42 94 00 d1 c1 c7 45 55 c1
       -97.101074 80.48113 -26.125282 -13.3295355
000090 23 90 4d c0 f3 a3 7a c2 19 28 39 c1 39 54 4a c2
       -3.2119224 -62.660107 -11.572289 -50.58225
0000a0 14 ca 56 41 d7 91 31 40 e7 fa 06 c2 a5 98 37 c2
       13.4243355 2.7745264 -33.74502 -45.899067
0000b0 d3 d8 9b c2 dc 0b 31 c2 4e a1 89 c2 62 cf f9 c1
       -77.923485 -44.26158 -68.81505 -31.226261
0000c0 2a 13 64 bf f7 67 cc c0 d5 15 e6 c0 80 12 26 41
       -0.8909174 -6.387691 -7.190165 10.379517
0000d0 c6 09 3e c2 bf ae 0b c2 47 0b 66 c1 e2 50 61 c1
       -47.509544 -34.92065 -14.377753 -14.082247
0000e0 dc 62 24 c2 54 a8 d3 3e a1 d0 2f c1 79 10 46 41
       -41.096542 0.41339362 -10.988435 12.379022
0000f0 63 51 a6 c2 d0 a5 38 c2 3e e2 88 c2 21 7a 42 c2
       -83.15896 -46.161926 -68.44188 -48.619267

running_var f4 [64]
000000 47 5f 19 48 d8 db d0 47 2b 88 71 46 81 ce c0 45
       157053.11 106935.69 15458.042 6169.813
000010 82 7e 09 48 8b 5e 8d 47 84 c0 ac 47 db e8 77 46
       140794.03 72381.086 88449.03 15866.214
000020 33 c2 b4 47 03 bf 59 47 a4 42 d8 47 b9 91 35 46
       92548.4 55743.01 110725.28 11620.431
000030 d5 d7 fd 46 ca bb 50 47 e0 4d e9 45 b8 11 c3 46
       32491.916 53435.79 7465.7344 24968.86
000040 83 ab bb 46 11 28 ec 45 3d ac 56 46 1c 45 63 47
       24021.756 7557.0083 13739.06 58181.11
000050 83 f4 eb 47 52 72 83 47 46 fe 41 46 6f 97 20 47
       120809.02 67300.64 12415.568 41111.434
000060 c3 00 bb 47 fa 8e 98 46 94 fe a0 46 fe ad 4d 45
       95745.52 19527.488 20607.29 3290.8745
000070 66 74 4a 47 18 45 1d 48 09 a6 c3 47 f2 84 2a 47
       51828.4 161044.38 100172.07 43652.945
000080 df db 9a 48 e9 19 87 48 c4 14 9f 47 58 4a 6a 47
       317150.97 276687.28 81449.53 59978.344
000090 33 e7 48 46 bd 57 01 48 b7 57 89 46 54 d8 a4 47
       12857.8 132446.95 17579.857 84400.66
0000a0 d4 5b 8c 46 d2 d2 d2 46 bc ba 46 47 1a b4 a4 47
       17965.914 26985.41 50874.734 84328.2
0000b0 9d 9c 49 48 86 40 73 47 43 a0 1d 48 a3 ec 27 47
       206450.45 62272.523 161409.05 42988.637
0000c0 78 1e 8a 46 15 74 fe 46 d6 9c 25 47 a5 6d c4 46
       17679.234 32570.041 42396.836 25142.822
0000d0 cc 7b da 47 2b fd 72 47 ff 3c 35 47 63 93 57 46
       111863.59 62205.168 46396.996 13796.847
0000e0 cd 56 8e 47 72 be a2 46 80 d3 06 47 23 79 99 46
       72877.6 20831.223 34515.5 19644.568
0000f0 dd bf 5d 48 0b 0e a8 47 cc e5 2e 48 ae 89 91 47
       227071.45 86044.086 179095.19 74515.36

weight f4 [64, 64, 1, 1]
000000 c1 90 be 3d 29 80 92 bf 08 d4 79 be e5 7a 0b bd
       0.09304953 -1.1445361 -0.2439729 -0.03405275
000010 92 f4 79 3e a1 c2 67 be bc 3e de 3d d8 4f 04 3c
       0.24409702 -0.22632839 0.108518094 0.008075677
000020 64 df 41 bd bb 41 88 be a5 3b 85 3e 81 de 2e 3e
       -0.047332183 -0.26612648 0.26022068 0.17077066
000030 7f ee ba bd e2 6f 62 be 46 b1 b4 bc b3 66 63 be
       -0.09127521 -0.22112992 -0.022057187 -0.22207145
000040 f1 30 4e 3e 72 66 ae bd c5 28 1b bd 7d ce 46 be
       0.20135857 -0.08515634 -0.037880678 -0.19414707
000050 85 12 9e be 96 26 9d bd 5e 99 cd be f4 e6 4b be
       -0.30873504 -0.07673375 -0.40156072 -0.1991232
000060 6e aa 82 3d 07 e6 77 be d6 87 5a 3e 44 66 a8 bd
       0.06380163 -0.24208842 0.2134088 -0.082226306
000070 ac 30 88 be d2 f5 2d be fd 04 1c bf 91 c1 72 be
       -0.26599634 -0.16988304 -0.6094511 -0.23706652
000080 fb f9 72 be 28 10 ac 3c 52 d4 8b bd 24 04 2a 3d
       -0.23728172 0.021003798 -0.06827606 0.041507855
000090 81 c6 6d be c6 ed d1 be 6e 31 f2 3c ca 8d bd 3d
       -0.23220254 -0.4100172 0.029564586 0.0925556
0000a0 9e c0 9c be b3 f1 46 3e 56 8b d7 3d 9e e3 d3 bd
       -0.30615705 0.19428138 0.10524623 -0.10346149
0000b0 26 60 f2 bd 41 f6 d1 bd 0f b6 8d be 4d 85 9e 3c
       -0.11834745 -0.10252047 -0.27677962 0.019350672
0000c0 ae 11 8f be bf 7e d3 3d b4 b7 13 be d6 40 7c 3e
       -0.27943176 0.10326909 -0.14425546 0.24634108
0000d0 60 9c 61 3e df f2 89 be 32 dc 2d 3d 7b 24 4c 3d
       0.22032309 -0.26943108 0.042446323 0.049839478
0000e0 1a 43 67 3e a9 3b 8f be c5 49 f3 bd 11 0c 90 be
       0.22584191 -0.27975205 -0.11879305 -0.28134206
0000f0 35 5a c1 bd 21 0c d9 be 1f 94 20 bf bc 4f 0d 3e
       -0.09441034 -0.42392066 -0.62726015 0.13799948
000100 b7 60 4c be b9 fd 1c bf 9e ed 69 be 08 f8 42 bd
       -0.19958769 -0.6132465 -0.2284455 -0.047599822
000110 28 d5 7d 3a 60 f5 d6 bd 8a 14 86 bf fa 05 48 be
       0.0009682947 -0.1049602 -1.0475018 -0.1953353
000120 71 6b e6 be 08 6e be be 4f 17 b2 be 35 56 94 3d
       -0.45003846 -0.37193322 -0.34783408 0.07243005
000130 d8 b5 54 3e b7 4e d3 be 46 a9 b3 bd 68 91 a4 3d
       0.20772493 -0.41270992 -0.08772521 0.080355465
000140 99 e0 61 3e c9 a1 76 3d 6e b8 d9 be d4 7d 03 bd
       0.22058333 0.060212884 -0.4252352 -0.03210242
000150 29 87 90 3c 1b f1 77 be 3b dd 3f bd 42 eb 8c be
       0.017642574 -0.24213068 -0.04684184 -0.27523237
000160 91 1d 56 bf bb 78 11 3e 8d 1e 5d be 78 e3 fa 3c
       -0.83638865 0.14206211 -0.21593685 0.030626044
000170 e5 fc c7 3c c4 f4 47 3f f7 ad a2 be 87 d1 cd be
       0.024412582 0.7810786 -0.3177335 -0.4019892
000180 f2 eb 18 3e 0e d5 20 be 56 28 8f 3d f1 ea cc 3d
       0.14933756 -0.15706274 0.06990115 0.10005749
000190 8b 42 04 be 1c f4 c7 be e1 a7 e6 be 58 1f d7 3e
       -0.12916009 -0.39053428 -0.45049956 0.420161
0001a0 82 f1 a6 3d 45 f1 bc be 5f a5 8c be 6d 13 23 3e
       0.08151533 -0.36902824 -0.27469918 0.15925379
0001b0 44 fe 52 3f 46 38 48 bd 9f da 07 bf 1e e3 e6 be
       0.8241923 -0.04888179 -0.53067964 -0.45095152
0001c0 e7 5b 17 3f 0e 16 0e bf ee 55 76 bb 6d 8f 8f 3b
       0.59124607 -0.555024 -0.003758784 0.0043811114
0001d0 42 b2 3a 3e dd d5 da bd 0b 53 ed 3d 46 9e 55 be
       0.18232062 -0.106853224 0.11588105 -0.20861158
0001e0 41 59 ef bd 4c d7 c4 3d f2 18 81 bc 3c 49 79 be
       -0.11686946 0.09611377 -0.015758965 -0.24344343
0001f0 6d 3c aa be 4f c7 0e bf 31 02 0c be 54 a9 aa bd
       -0.33249226 -0.5577287 -0.13672711 -0.08333078
000200 fc 56 82 be 4f 08 61 3d 16 f6 ab bd 1a 15 68 3d
       -0.2545699 0.054939564 -0.083965465 0.05666075
000210 16 c0 2e be ee 86 60 3d 82 b6 f0 3c 33 ed 34 be
       -0.17065462 0.05481618 0.029383902 -0.1766861
000220 3b f2 1b bd ba 52 04 3f 7e 8c 07 be 65 87 d0 bd
       -0.038072806 0.5168873 -0.13237187 -0.101820745
000230 ff 1a 39 3d fb 39 bc 3c fa c3 02 3e ed de 34 3e
       0.04519176 0.022976866 0.12770072 0.17663164
000240 12 df 7d be 6a f7 43 be ca 18 de 3d 58 6e 41 3f
       -0.24792126 -0.1913735 0.10844572 0.75558996
000250 b6 b3 97 be 9d b8 57 be 6f 73 e8 bd e2 47 14 3e
       -0.29629296 -0.21066518 -0.11350142 0.14480546
000260 dc 49 d9 3e 6b 21 5d 3f df c2 ea 3d 60 3a 8f 3d
       0.42439163 0.86379117 0.1146295 0.06993556
000270 c2 de 6c 3d 17 8c 0f bf 35 35 bb be 68 a4 29 3e
       0.057829626 -0.56073135 -0.3656403 0.16566622
000280 a6 18 41 3e 01 a6 95 bb 15 eb e5 bd a1 b5 cf bc
       0.18857059 -0.0045669083 -0.11226479 -0.025355162
000290 c0 5b 6f 3e 7a 18 bf bd 6c 2e 03 3f 89 75 f7 bd
       0.23374844 -0.093308404 0.5124271 -0.12082965
0002a0 b4 39 46 be c3 59 a8 bd f0 1c 3a 3e e4 82 a9 bd
       -0.1935795 -0.08220246 0.18175101 -0.082769185
0002b0 60 71 d2 be 3c 95 83 be 09 ab 17 bf ad d0 22 3d
       -0.41102123 -0.25699794 -0.59245354 0.03974979
0002c0 97 7d a0 3e 2c f5 3c 3c f1 2c 31 3e 4a e3 10 3e
       0.31345817 0.011533063 0.173023 0.14149204
0002d0 53 a7 86 3e 81 c0 8f 3e b7 87 9b be 94 47 fc 3d
       0.26299533 0.28076556 -0.3037698 0.1231834
0002e0 df b1 4c bf 70 08 67 3d 6f 0a 20 bc 63 b3 ef 3d
       -0.7995891 0.05640453 -0.009768113 0.11704137
0002f0 bb 91 d1 3e a2 7f 8e 3e 80 40 10 be 71 dd 9c 3e
       0.40931496 0.2783175 -0.14087105 0.30637696
000300 61 05 63 be e4 96 92 be 4a d7 0e bd 6d 12 49 be
       -0.2217002 -0.28630745 -0.034873284 -0.19635935
000310 43 03 03 3e 39 20 2a 3e 52 08 07 3f 0d b4 3a be
       0.12794213 0.16613854 0.5274707 -0.18232746
000320 68 90 ad 3d 6b 07 c5 be 14 dc 1c 3c b2 01 30 be
       0.08474809 -0.38482222 0.009573955 -0.17188147
000330 f2 60 10 be 49 00 4e 3d 5b a9 5b be d1 ff 22 be
       -0.14099482 0.05029324 -0.21451323 -0.15917899
000340 3f 4b 51 bd 7b d0 eb bd 1b 62 c0 bd a9 bd e5 be
       -0.05109715 -0.11514374 -0.09393712 -0.44871262
000350 1f 1f 01 3f 2e fe 9d bd 3e f4 40 be c1 4e 4b 3e
       0.5043811 -0.077144966 -0.18843171 0.19854261
000360 a3 25 0a bf 95 7a 25 be 87 25 aa 3d 74 68 bc 3c
       -0.5396368 -0.16160043 0.08307939 0.022999026
000370 f0 58 70 bc 9e 63 00 3f 37 7b 0c 3f 12 38 0f 3e
       -0.014669642 0.50152004 0.5487551 0.13986233
000380 67 0c 4c 3f 9d b8 14 be a8 cd 50 be b8 25 6f 3d
       0.79706424 -0.1452355 -0.20390952 0.05838558
000390 40 95 85 be a2 1d 92 3f 60 55 a9 be ce 16 1d bf
       -0.2609043 1.1415293 -0.33072948 -0.6136292
0003a0 82 1d 21 3c cc a7 8f 3e ae a3 1b bd 9b 70 c3 bd
       0.009833695 0.28057706 -0.037997894 -0.09542962
0003b0 12 1b 00 bf 76 a9 bf 3d 9a ae 05 be 96 75 3e 3e
       -0.50041306 0.09358494 -0.13054886 0.18599543
0003c0 e5 9e 7e be d6 9c 32 bb 5d f0 76 be 4b e4 07 3e
       -0.24865301 -0.0027254126 -0.24115129 0.1327068
0003d0 74 d9 fe 3a 47 45 3d 3e 57 b4 88 bd 10 c3 e1 3d
       0.0019443468 0.18483458 -0.06675022 0.11023533
0003e0 70 d5 b4 bd 14 65 07 be 3e 92 f1 3d e2 b1 e7 3c
       -0.088297725 -0.13222152 0.117954716 0.028283063
0003f0 55 9d af 3f 19 57 2a bd da 54 45 bf 87 10 52 be
       1.3719889 -0.04158697 -0.770826 -0.20514117

weight f4 [64]
000000 05 2b cb 3f 55 d7 a8 3f 3d ba 60 3f 72 59 b2 3f
       1.5872504 1.3190714 0.8778418 1.3933547
000010 14 b6 4b 3f 1c e5 9e 3f 7b 0a c0 3f 5a 66 31 3f
       0.79574704 1.2413669 1.5003198 0.692968
000020 e0 37 49 3f 68 54 4c 3f e4 e3 83 3f a0 2d 9d 3f
       0.78600883 0.79816294 1.0303922 1.2279549
000030 7f d9 91 3f 46 25 b4 3f da a9 3c 3f 78 aa b7 3f
       1.13945 1.4073875 0.7369667 1.4348898
000040 6b 36 bc 3f 91 54 4d 3f 1f 28 b5 3f ef c9 be 3f
       1.4704107 0.80207163 1.4152869 1.4905375
000050 5f c4 8c 3f eb cb 4d 3f 01 e3 c3 3f 46 50 2a 3f
       1.0997428 0.8038928 1.5303651 0.6652874
000060 02 01 4d 3f 9c 8b 9e 3f a7 f7 b0 3f c5 ad 6a 3f
       0.8007966 1.2386355 1.3825577 0.916714
000070 db fd 69 3f f6 18 5a 3f db 3c 58 3f 7e 8e 48 3f
       0.9140298 0.8519434 0.8446786 0.78342426
000080 21 71 1d 3f 49 46 43 3f 68 b1 6e 3f 32 55 ac 3f
       0.61500746 0.7627912 0.9323945 1.34635
000090 55 38 bc 3f 92 25 aa 3f 1e 67 53 3f c1 11 27 3f
       1.4704691 1.3292716 0.8257922 0.65261465
0000a0 95 d9 3e 3f ad 59 51 3f 0a da b9 3f 59 42 81 3f
       0.74550754 0.8177746 1.4519665 1.0098373
0000b0 71 f8 29 3f 77 25 35 3f 57 be 43 3f 29 22 ec 3e
       0.66394717 0.7076029 0.7646231 0.46119812
0000c0 63 83 46 3f 73 db 45 3f b2 a9 4f 3f 43 8e ce 3f
       0.7754423 0.7728798 0.8111831 1.6137165
0000d0 5c 66 7a 3f 12 5e 95 3f f7 ec bb 3f 97 d6 4e 3f
       0.9781244 1.1669333 1.4681691 0.8079619
0000e0 a9 f4 5e 3f fd 5c b6 3f 75 4b 69 3f b3 6e 51 3f
       0.8709207 1.4247128 0.91130763 0.8180954
0000f0 78 90 52 3f fd 67 53 3f 25 cb 9a 3f 3c 8c 7a 3f
       0.8225169 0.8258055 1.2093245 0.9787023

bias f4 [64]
000000 41 c4 f6 bd 0e 13 be bd ec a9 03 bf b8 c7 96 be
       -0.12049151 -0.09280978 -0.51431155 -0.29449248
000010 4c b1 48 be 64 8b 5e be d6 93 39 bd a2 15 9b bf
       -0.19598883 -0.21732861 -0.045307003 -1.2115977
000020 34 16 47 be 47 bc 1c bf 39 95 63 bf 24 53 81 be
       -0.19442064 -0.6122479 -0.8889957 -0.25258744
000030 06 b1 19 3d 74 2a 50 be 7b bb 68 bf bd 82 6e be
       0.03752234 -0.20328695 -0.9091107 -0.2329206
000040 64 c2 bb bd 74 ee 90 bf d2 4c 03 be 9c 0d 7d bd
       -0.091679364 -1.132277 -0.12822273 -0.061780557
000050 31 46 75 be f9 30 3e be 08 a1 a0 be 85 63 b9 be
       -0.23952557 -0.18573369 -0.31372857 -0.3620874
000060 01 88 3e be 67 28 3e be a2 a7 e3 bd f9 3e d4 be
       -0.18606569 -0.185701 -0.11115958 -0.41454294
000070 b8 4c ba bf a7 2d 3f be 51 0c 50 be b2 85 3b be
       -1.4554663 -0.18669759 -0.20317198 -0.1831272
000080 5a 2e 4d bf da 80 84 bf 90 df 09 bf 4c 50 9e bd
       -0.8014885 -1.0351822 -0.53856754 -0.07730159
000090 06 04 f1 bd b9 9a 71 bd 8a 45 20 bf 53 10 26 bf
       -0.117683455 -0.058985446 -0.6260611 -0.6486866
0000a0 db f4 27 bf f6 55 b4 bf dd d9 26 be 26 9c bb bf
       -0.65607995 -1.4088733 -0.16294046 -1.4657028
0000b0 9d 6a 5b bf 1e 64 98 bf c1 ae 41 be eb 46 92 bf
       -0.85709554 -1.1905553 -0.1891432 -1.1427892
0000c0 f2 7b 4c bf fa 08 3f be ac c2 40 be 99 db 1a be
       -0.79876626 -0.18655768 -0.18824261 -0.15122832
0000d0 df bc a8 be fc 5d e9 bd bb 8e 95 bd d0 ac 41 be
       -0.32956597 -0.11394879 -0.07302614 -0.18913579
0000e0 ed 23 16 bf 15 e2 b3 bd 58 61 1b bf 01 44 4b bf
       -0.5864857 -0.08783356 -0.6069541 -0.7940064
0000f0 0a f2 21 be e4 01 eb be 1c 6d e8 bd 10 56 96 3d
       -0.15814987 -0.4589988 -0.11348936 0.07340634

running_mean f4 [64]
000000 49 b5 34 c0 3e d2 9a bf 7b 5c 3a 3e 5e 87 2e 3f
       -2.8235648 -1.2095411 0.18199341 0.68175304
000010 3d 4d 2f bf 9c 69 44 3f 37 22 86 bf ad 8d f3 bd
       -0.6847723 0.7672365 -1.0479192 -0.11892257
000020 ae 70 f2 bf dc 8a 0a 3f 5f 35 9a 3f 8c 09 b3 3f
       -1.8940637 0.5411813 1.2047538 1.3987288
000030 3c c5 06 40 64 c5 16 3f 13 5c b0 be 26 82 56 3f
       2.1057882 0.58894944 -0.34445247 0.8379234
000040 43 71 ef be 41 fe e1 bd 53 47 b6 3e e8 9b 33 3e
       -0.467661 -0.11034823 0.3560129 0.17539942
000050 e4 9f c3 bf 54 bc 9d bf c4 91 3f 3f 57 ae 34 bf
       -1.528317 -1.2323098 0.74831796 -0.7057852
000060 43 e8 0f c0 46 59 cf 3f 58 ef 97 3f a4 ca 60 3e
       -2.2485511 1.6199119 1.1869917 0.21952301
000070 f5 53 0c c0 20 3a 57 bf ca 80 af be 82 a0 ab 3e
       -2.1926243 -0.84073067 -0.34277946 0.33520895
000080 d6 33 8c 3e 69 d3 54 bf 55 01 a5 bf 9f fe 86 bf
       0.27383298 -0.83135086 -1.2891032 -1.0546454
000090 cf 6f 50 3f e6 11 f0 3e b3 65 1f be 9a 5d ca bf
       0.81420606 0.46888655 -0.15566139 -1.5809815
0000a0 0f 47 8d be 4b 24 31 bf 57 70 0b bf 4a 51 1b c0
       -0.27593276 -0.69196004 -0.5446829 -2.4268365
0000b0 1d 01 6c bf 46 3c b6 3f 37 f6 a4 bf 65 81 59 bf
       -0.921892 1.4237144 -1.2887639 -0.84963065
0000c0 32 c7 b7 be bc a6 8a bf 35 db 3c be 32 57 1f bf
       -0.3589416 -1.0832133 -0.18442996 -0.62242424
0000d0 54 f8 4d bd ba e9 b4 bf ce d7 ad be 42 bd eb bf
       -0.050285652 -1.4133828 -0.33953708 -1.8417132
0000e0 86 28 9a bf 04 68 87 3f c9 72 27 3f f4 22 f8 3f
       -1.2043617 1.0578618 0.65409523 1.9385667
0000f0 9f 2f 20 c0 68 40 4d 3f ea f9 dc bf 9b e9 70 3f
       -2.5029066 0.801764 -1.7263768 0.94106454

running_var f4 [64]
000000 7f a0 a3 40 5f 50 f0 40 e5 3f 13 40 62 e0 53 40
       5.113342 7.509811 2.3007748 3.3105702
000010 37 f6 2a 41 28 68 69 40 85 2b d7 40 49 8c 87 3f
       10.685111 3.6469822 6.7240624 1.0589687
000020 f2 e3 79 41 b7 aa fb 3f 4d 30 a1 3f b7 fa 10 40
       15.618151 1.9661473 1.2592865 2.2653024
000030 75 1a 4a 40 9e 6c 73 40 fd 45 e3 3f b7 79 00 41
       3.1578648 3.8035045 1.7755734 8.029716
000040 56 75 96 40 7e b2 92 3f 3e d5 a8 40 44 45 9c 40
       4.701823 1.1460721 5.2760305 4.8834553
000050 48 07 e4 40 ff f7 07 41 e0 7e 05 41 5b 95 4c 41
       7.125889 8.498046 8.343475 12.786464
000060 21 ba 44 41 b0 3f 21 40 e3 dd 80 40 90 ec 7e 40
       12.295442 2.5195122 4.027086 3.9831886
000070 c0 79 88 3f 68 a5 d0 40 14 1c 44 41 ee 4a 22 41
       1.0662155 6.520191 12.256855 10.143293
000080 e4 c9 b7 3f 6d 93 28 3f d1 a6 66 40 b3 25 d8 40
       1.4358487 0.65849954 3.6039317 6.754602
000090 08 92 22 40 79 c4 e6 3f 1b a8 84 3f 2a 4b 45 40
       2.540163 1.8028709 1.0363802 3.0827127
0000a0 c7 bc 70 3f e4 6a cb 3f b5 86 97 40 36 42 7d 3f
       0.9403805 1.5891995 4.7351937 0.98929155
0000b0 a9 66 61 3f 83 2d f6 3f 5d 0f bc 40 3c 50 13 40
       0.8804727 1.9232639 5.8768754 2.301772
0000c0 c2 0c bb 3f d6 64 1c 41 94 8d ac 40 f3 a7 c0 40
       1.4613268 9.774618 5.3922825 6.0205016
0000d0 8d fc 92 3f 06 22 68 40 df ad 4e 40 64 bc 1c 41
       1.1483322 3.6270766 3.2293622 9.795994
0000e0 e6 28 33 40 b2 c5 84 40 59 92 b4 3f 1e 32 9d 3f
       2.7993712 4.1491327 1.4107162 1.228092
0000f0 36 e4 4f 41 51 f1 34 40 91 ba ca 40 73 2a 0e 40
       12.993216 2.8272288 6.335274 2.221341

weight f4 [64, 64, 3, 3]
000000 54 9a 37 bf 46 21 9c 3e 78 22 99 bd 86 55 f6 be
       -0.7171986 0.30494136 -0.074772775 -0.48112124
000010 e5 e5 1c bf eb 21 ca be 94 50 06 be 9d 31 7e 3d
       -0.6128829 -0.39479002 -0.13116676 0.062059034
000020 f4 ea 91 bd 4b 67 2f be 97 11 dd 3d 55 7c 8e 3e
       -0.07124892 -0.17129247 0.107943706 0.27829233
000030 1c 2a be be f0 91 00 3e 3c 17 ff 3e 7d 52 13 3e
       -0.37141502 0.1255567 0.49822414 0.14386936
000040 1f d0 9c be 0b db 31 3e 1e 3b ac 3d 7f c4 51 be
       -0.30627534 0.17368715 0.08409713 -0.20485114
000050 5b a1 b2 be 96 40 1a 3d be dd 10 be 74 0b b7 be
       -0.3488873 0.03765925 -0.14147088 -0.35750926
000060 4a 05 7a 3e ee f1 a6 3d df 84 d6 3c c0 ca a0 3e
       0.2441608 0.08151613 0.026186405 0.31404686
000070 e1 11 10 3d d5 6d b2 be 3a 71 55 3e f1 98 d6 3e
       0.0351733 -0.3484942 0.20843974 0.4191356
000080 a8 46 0b 3f 1b d3 cd be bd d6 37 bf 3f 49 0f bf
       0.5440469 -0.40200123 -0.7181204 -0.5597114
000090 e3 5b e7 3c 07 8e 56 3c 59 7a b7 bd de 2d a9 bd
       0.028242057 0.013095385 -0.08958883 -0.082607016
0000a0 99 6c 81 bd 8c 58 15 bd 6f f5 2f 3d 1c e7 02 3e
       -0.063195415 -0.036461398 0.042958673 0.12783474
0000b0 10 64 c4 3d 2b 75 16 bf 7e 99 9b be 7d bb 93 be
       0.09589398 -0.58772534 -0.30390543 -0.2885398
0000c0 e6 c8 af 3e 5c 0d c3 3e 4c 4b 2f 3f c5 cd 79 3e
       0.3433296 0.3809613 0.6847427 0.24394901
0000d0 69 b0 09 bd 01 30 49 be 68 9a c6 bf 40 32 02 3e
       -0.033615503 -0.19647218 -1.5515871 0.12714481
0000e0 08 f0 38 3f 8e c1 1f bf 39 92 ac 3e 4b 29 bf 3d
       0.7224126 -0.62404716 0.3370531 0.09334048
0000f0 20 24 16 bf b3 be 1f 3e b8 b8 9d 3d 49 1a dd be
       -0.5864887 0.1560009 0.07701248 -0.43184116
000100 f5 7a 64 3c 2c fa 80 3d 8b c0 b6 be 28 88 c2 3d
       0.013945331 0.062977165 -0.35693774 0.09498626
000110 27 f7 cf bc ce 34 0c bf 9b 16 8a be f0 c2 a6 be
       -0.025386406 -0.54768074 -0.26970372 -0.325706
000120 4e e5 9c 3b c4 5c 87 bc ed 62 b0 bd e0 9d 92 bd
       0.0047880774 -0.016523726 -0.086126186 -0.071590185
000130 1c f4 2a bd 5b 82 3c 3c 90 5f cb 3b 92 4d 2b 3e
       -0.041736707 0.011505689 0.0062064603 0.1672881
000140 78 79 1c 3e 5a 82 8a be b7 1c a0 3e d2 e7 dd 3e
       0.15280712 -0.27052575 0.31271908 0.43340927
000150 69 ed 97 be 25 a7 07 be 8c 42 32 3e 9b fe 9b be
       -0.29673317 -0.13247354 0.17408198 -0.30467686
000160 d9 e5 dd be 31 8f a9 3c bc 93 16 bf 71 b2 d8 3d
       -0.43339422 0.020698162 -0.58819175 0.1058091
000170 f2 76 cc 3e 9c bf 35 bf 72 66 96 be 30 4f 82 3e
       0.39934498 -0.709955 -0.29375035 0.2545104
000180 4e a8 a3 be ab bf 1b bf f6 a3 ed be ca 81 d6 be
       -0.31964344 -0.6083934 -0.46414155 -0.41895896
000190 00 b7 8c bc 32 d9 06 3f 77 d6 0d be 6f e6 48 bf
       -0.017177105 0.52675164 -0.13851343 -0.78476614
0001a0 e3 6c c2 be fb 21 a1 3e 69 3a d1 be b9 b9 a3 be
       -0.379737 0.31471238 -0.40864876 -0.31977633
0001b0 5c bd 01 be b9 9c c7 be cb e3 37 bd 00 2b 4d be
       -0.12669891 -0.38986757 -0.044894975 -0.20035934
0001c0 23 5c bf be 61 6d b7 bc 6c 5e b1 3c e2 32 d3 bd
       -0.37374982 -0.022391023 0.02165147 -0.103124395
0001d0 52 90 76 be f5 6e 4b 3e ad 6c 99 3c 88 34 4e bd
       -0.24078491 0.19866545 0.018728578 -0.050343066
0001e0 3c ce ad 3e fe cb 80 bc 5d 21 a6 3d 65 cb 42 3c
       0.33946407 -0.015722271 0.08111832 0.011889313
0001f0 d2 c3 28 bd c2 55 dc 3e a6 ef 64 3e e1 d7 29 bd
       -0.041202374 0.43034178 0.22357044 -0.041465644
000200 bf 05 cc be 3a 23 9b be 41 64 39 be d9 fb b3 be
       -0.39848134 -0.30300313 -0.1810465 -0.35153082
000210 1f 4c 7c be 62 84 92 be 8a ab f4 be 84 3d b1 3e
       -0.24638413 -0.28616625 -0.47787124 0.34617245
000220 20 42 de bc aa 36 49 be 3e 95 fa 3d 08 9e 35 bd
       -0.02713114 -0.19649759 0.12235497 -0.044340163
000230 da fe 82 3e b3 2d c3 3d cb a3 0d be 37 fb 8d 3e
       0.2558506 0.09530201 -0.13832013 0.27730724
000240 cc 18 f8 be 1e 50 6e be e5 79 66 3e 92 cc ed 3e
       -0.4845642 -0.2327275 0.22507437 0.46445137
000250 7c c3 1e bf b3 c2 0a bf 30 a1 ee 3e 8c c5 b1 3d
       -0.62017035 -0.5420334 0.4660735 0.08680257
000260 ad 4e d6 be 79 e3 89 3e 2a 66 55 3e 91 e6 df 3e
       -0.418569 0.2693136 0.20839754 0.43730596
000270 19 30 f2 3d e8 6a 5f 3d fa 6b 6a be c5 06 ea 3c
       0.1182558 0.054545313 -0.22892752 0.028567681
000280 bb 2a cc 3d 69 64 16 bf 7e 10 0e bf a6 b8 ee 3d
       0.09969088 -0.58746964 -0.55493915 0.11656313
000290 f5 b1 e7 3e b0 ba cf be be 84 78 be e8 5e bf 3d
       0.45252958 -0.4057212 -0.24269387 0.09344274
0002a0 8c c3 8a bd 58 e7 8b be 17 8a ac bc 76 87 a6 3d
       -0.06775579 -0.2732494 -0.02106194 0.08131306
0002b0 7f 4b 8d bd c9 3c db 3d de 4c 06 3f ce de e5 3e
       -0.06899165 0.10704953 0.5246104 0.4489655
0002c0 5f 6d 58 3e 75 79 99 be cd 70 7e 3e f3 cf f8 3c
       0.21135472 -0.29975477 0.24847718 0.030372595
0002d0 9a 19 86 be 5b b5 0f be f6 c8 97 bb 31 2d 7a 3d
       -0.26191407 -0.14034025 -0.0046321107 0.061078254
0002e0 ff 68 31 3d 58 dd ec bc 1a 92 8c 3e ed bb 7e 3e
       0.043313023 -0.028914139 0.27455217 0.24876375
0002f0 d1 fe 46 bc 12 0d 69 3d 71 96 d7 3c cf 42 79 bd
       -0.012145714 0.05689723 0.026316853 -0.06085473
000300 67 3f a8 3c 93 b0 0f bd ec 2f 24 bc ab 28 1d 3d
       0.020538045 -0.035080504 -0.010021191 0.038368862
000310 cd 2e ee 3d 4f 5b e8 3d 9a 19 ed bc ed 9e 75 bc
       0.1163002 0.11345541 -0.028942872 -0.014991504
000320 d4 cc 14 be e6 11 81 3d e4 c2 b9 be 12 63 0e bf
       -0.1453126 0.06302242 -0.36281502 -0.5561992
000330 27 18 e3 3d 2d 60 77 be e4 6b 32 be 1b d7 9e bc
       0.11088591 -0.24157782 -0.1742397 -0.01938968
000340 e3 1e 57 3c 54 14 3a 3e db a1 56 bc 74 4c 98 bd
       0.013129923 0.18171817 -0.013100113 -0.07436457
000350 7a c1 8f 3d df 8f 74 3d 8f 22 37 bc 2e 05 53 3d
       0.070193246 0.05970752 -0.011177673 0.05151861
000360 e5 73 5d 3d ac 2e c4 bc 51 3a 9f bd 50 dd 18 bd
       0.054065604 -0.023948036 -0.07774795 -0.037320435
000370 52 a8 bc bd 5f 3a 38 bc 46 14 a8 39 6a ab 26 3e
       -0.09211792 -0.0112443855 0.00032058562 0.16276327
000380 47 b4 21 3e 7d 38 ae 3e 2c 17 d7 bd f2 21 2b be
       0.15791427 0.34027472 -0.105024666 -0.16712168
000390 32 d1 04 3e e1 8c 1e be da 2d 58 be 0a 1f 06 bd
       0.12970427 -0.15483429 -0.21111241 -0.032744445
0003a0 97 73 ba be 41 7c b5 be 01 4a 7f be b2 ec 85 be
       -0.36416313 -0.3544636 -0.24930574 -0.26157147
0003b0 34 6f 8e be 92 34 8a 3e 78 14 68 bf cd 05 6d bf
       -0.27819216 0.26993233 -0.9065623 -0.92586976
0003c0 92 f1 2b 3f 00 26 c7 be ae 00 f8 be 03 5d 93 3b
       0.6716548 -0.3889618 -0.4843802 0.004497172
0003d0 d1 99 80 be 22 8b 60 be d2 f7 5e bd 38 c1 08 be
       -0.25117353 -0.21928075 -0.05443556 -0.13354957
0003e0 fe 6d 89 be 89 b3 9d 3d 97 fd d9 bd a7 42 a5 be
       -0.2684173 0.07700259 -0.106440715 -0.32277414
0003f0 b5 dd 6e 3d 93 6b 18 3e 0b af 17 be 3c 1b 94 be
       0.058316905 0.14884786 -0.14812867 -0.28927028

weight f4 [64]
000000 72 fe d1 3f 0d a9 a9 3f 94 77 6d 3f 9c e8 bb 3f
       1.6405776 1.3254715 0.92760587 1.4680362
000010 27 5b 75 3f 8f d3 37 3f af d9 a0 3f 3e e6 77 3f
       0.9584221 0.7180719 1.2566432 0.96835697
000020 0d bd b5 3f bc 80 a3 3f 6e b0 85 3f 03 17 64 3f
       1.4198319 1.2773662 1.0444467 0.89097613
000030 55 06 bd 3f 70 61 77 3f b9 1d 38 3f dc 26 2f 3f
       1.4767557 0.9663305 0.71920353 0.6841867
000040 f0 d9 a4 3f 57 33 04 3f 99 7b 2f 3f 6f d4 70 3f
       1.2879009 0.5164084 0.6854797 0.9407415
000050 58 60 15 3f a7 44 a6 3f d0 2f 33 3f b7 1c 7c 3f
       0.58350134 1.2989701 0.6999483 0.98481315
000060 86 54 7b 3f d4 11 10 3f 50 7c c2 3f de 89 a4 3f
       0.9817585 0.56277204 1.5194187 1.2854574
000070 4a 05 af 3f 07 7a 97 3f ac 25 ba 3f 42 67 0a 3f
       1.3673489 1.1834115 1.4542747 0.5406381
000080 12 b1 97 3f b0 dd 5a 3f b4 81 08 3f 58 1b 0b 3f
       1.1850913 0.8549452 0.5332291 0.543386
000090 6a 0d e1 3f da bc 7a 3f 45 f6 8d 3f e1 58 98 3f
       1.7582219 0.97944415 1.109078 1.1902124
0000a0 97 b5 39 3f f8 f6 25 3f 2a db af 3f e7 61 69 3f
       0.7254271 0.6482997 1.3738759 0.9116501
0000b0 4d 2b a3 3f 74 fb 9a 3f b4 96 ca 3f 82 94 db 3f
       1.2747589 1.2107987 1.5827241 1.7154696
0000c0 87 fc 18 3f 76 c7 3e 3f 38 2b db 3f 7c 5b af 3f
       0.59760326 0.74523103 1.7122564 1.3699794
0000d0 d9 f4 bd 3f 8a 90 c1 3f 67 43 c0 3f 66 23 6e 3f
       1.4840347 1.5122235 1.502057 0.93022764
0000e0 53 34 09 3f 8f a2 a2 3f 4c 82 57 3f 2b 41 bc 3f
       0.53595465 1.2705859 0.8418319 1.4707388
0000f0 d9 ff 84 3f 60 4a ac 3f eb 5d bb 3f 72 0b d6 3f
       1.0390579 1.3460197 1.4638036 1.6722243

bias f4 [64]
000000 80 80 08 bf 58 1a bf be 04 7a e9 be 16 09 5d be
       -0.53321075 -0.37324786 -0.45600903 -0.21585497
000010 1e 06 e8 bd 6b e9 1b bf 0c c0 a8 be b8 6e 2f be
       -0.11329292 -0.6090304 -0.3295902 -0.1713208
000020 52 6f a3 bb c9 66 d1 be 7f 89 cd be dc 82 b8 bd
       -0.0049876356 -0.4089873 -0.40143964 -0.090093344
000030 cb 84 1b bd ce 4f ff bd 04 8b 33 bf 06 ab b2 be
       -0.037968438 -0.124663934 -0.70133996 -0.34896106
000040 9a 6c 0f be 8c f8 14 bf 1b af 83 bf db 7b 0d bf
       -0.14006272 -0.5819175 -1.0287813 -0.55267113
000050 c1 29 45 bf 81 ca d9 bd 13 34 0d be 05 af db be
       -0.77016836 -0.10634328 -0.13789396 -0.42906967
000060 36 fe 36 be 81 2a dc be 2d 4a 32 be a0 9d 04 be
       -0.17870411 -0.43001178 -0.17411108 -0.12950754
000070 a2 cd c7 be dd 94 12 be ea 99 09 bd f4 0b 62 bf
       -0.39024073 -0.143146 -0.03359405 -0.8829949
000080 eb eb 94 bb 5a 81 21 bf 2c 2e a5 bf f5 71 80 bf
       -0.004544725 -0.63088 -1.2904716 -1.0034777
000090 e4 1b 0d be 32 0e 08 bf fc ea fe bd e4 0c 02 bf
       -0.1378017 -0.5314666 -0.124471635 -0.5080092
0000a0 1b f7 07 be 2f 7d 43 be 55 73 4b be 46 f6 96 be
       -0.13277857 -0.19090723 -0.19868214 -0.29484767
0000b0 ca 80 2c be 17 8c d6 bd 2f 75 86 3c 46 ae 9f bd
       -0.16846004 -0.10475939 0.0164133 -0.07796912
0000c0 6a 01 3a bf 0d 1a 65 bf 06 49 13 be af d8 2f bd
       -0.7265841 -0.89492875 -0.14383325 -0.042931255
0000d0 41 b8 f0 bd 07 fc 02 be 89 aa 89 bd a4 f8 8d be
       -0.11753894 -0.12791453 -0.0672198 -0.2772876
0000e0 19 5a 90 bf 1b 4e 14 bd d4 e4 d7 be 3d e8 27 be
       -1.1277496 -0.0362073 -0.4216677 -0.16397186
0000f0 a8 1b 07 bf f2 ac 2a bd de e4 d3 be f4 44 cb bd
       -0.52776575 -0.04166884 -0.4138555 -0.09925261

running_mean f4 [64]
000000 4e b9 18 c0 cb 12 29 c0 50 14 b5 bf 74 3f 0c c0
       -2.38631 -2.641772 -1.4146824 -2.1913729
000010 63 6b b3 c0 76 4e 10 bf a5 57 08 c0 78 03 84 c0
       -5.6068587 -0.5636972 -2.1303494 -4.1254234
000020 43 68 fc bf b7 d8 46 c0 1c 94 36 c0 ef 89 df c0
       -1.9719318 -3.1069772 -2.8527899 -6.9855876
000030 30 45 f7 bf fd 57 46 c0 b5 1d a0 3f b7 b9 bc bf
       -1.9317989 -3.0991204 1.2509066 -1.4744176
000040 c4 2c b6 bf d2 25 c2 bf 31 2f 64 be ad 3d de 3d
       -1.4232411 -1.5167792 -0.22283627 0.108516075
000050 6f 7c 20 bf 60 fe 46 c0 c7 f3 81 c0 f5 dd 19 bf
       -0.6268987 -3.1092758 -4.061008 -0.60104305
000060 00 90 6d c0 82 74 0c c0 27 0f c3 bf c1 b5 20 c0
       -3.711914 -2.194611 -1.5238999 -2.5110934
000070 07 3e 01 c0 ba c6 19 c0 7a 6d ee bf 87 84 21 3f
       -2.0194108 -2.4027543 -1.862716 0.63092846
000080 5e 11 b7 bf 18 fa 22 be de dc 02 40 74 98 8d be
       -1.4302175 -0.15915716 2.0447307 -0.27655375
000090 44 46 4b c0 1e bb d9 bf b4 b2 56 c0 1a 71 6d c0
       -3.1761637 -1.7010229 -3.3546572 -3.7100282
0000a0 b1 dc 95 c0 17 2c 41 c0 76 91 10 c0 e2 7f 99 bf
       -4.68319 -3.018316 -2.2588782 -1.1992152
0000b0 cb 62 3b c0 b5 2d 52 c0 0b d6 b4 bf 97 06 1d c0
       -2.9279048 -3.2840397 -1.4127821 -2.4535272
0000c0 8d 2f ef bf 62 4f fb be cb 41 1f c0 cf b9 e7 bf
       -1.8686386 -0.49084002 -2.4883907 -1.8103579
0000d0 21 2f 86 c0 99 46 20 c0 a9 78 12 c0 1c df 3c c0
       -4.193253 -2.504309 -2.2886145 -2.9511175
0000e0 0d e1 f2 3f 1f e8 e2 bf 87 a0 29 c0 a8 62 cc bf
       1.897493 -1.7727088 -2.6504228 -1.5967607
0000f0 d6 f0 ba bf 47 d6 6a c0 be 22 5c bf e2 dc 5d bf
       -1.4604747 -3.6693285 -0.8599051 -0.86665165

running_var f4 [64]
000000 fc 17 5b 42 13 b2 30 42 dc e7 94 41 f4 20 09 42
       54.773422 44.1739 18.613213 34.28218
000010 19 82 02 43 a3 5a 94 41 19 44 1b 42 5e 02 30 43
       130.5082 18.544256 38.8165 176.00925
000020 68 0e 2b 42 1d ee 0d 42 13 de f2 41 f0 98 30 43
       42.76407 35.482533 30.358435 176.59741
000030 90 48 44 42 7c 11 00 43 ae 8c 87 41 90 d3 51 41
       49.07086 128.0683 16.943691 13.114151
000040 57 0b 82 42 23 af 80 41 64 1c 8d 41 c8 b3 0c 42
       65.02215 16.085516 17.638863 35.175568
000050 50 ba 0a 42 c9 23 b9 42 5b e0 2b 43 5d f6 d2 41
       34.681946 92.56989 171.87639 26.370295
000060 2d 2f e8 42 f4 25 87 41 21 3c 88 42 9e 6e a6 42
       116.09214 16.893532 68.11744 83.21605
000070 77 15 02 42 80 74 d4 42 08 ff 4a 42 29 7a 99 41
       32.52096 106.22754 50.749054 19.184649
000080 9d 7a 3d 42 e8 2c ab 41 ae 11 f5 41 a0 a3 3c 41
       47.36974 21.396927 30.633633 11.7899475
000090 c1 8c b4 42 1c d4 a5 41 86 eb ca 42 f5 1a 43 42
       90.27491 20.728569 101.46001 48.776325
0000a0 d9 c4 52 43 eb 72 ea 42 9f d0 e1 42 1e a5 c2 41
       210.76894 117.22445 112.90746 24.330624
0000b0 65 51 bd 42 33 f1 06 43 18 24 6d 42 d2 70 a4 42
       94.65897 134.94218 59.285248 82.22035
0000c0 11 3f 5b 41 f4 9e 4d 41 af a0 68 42 fa 5a 3c 42
       13.702897 12.851307 58.156918 47.088844
0000d0 eb 3e 0b 43 8d dc 86 42 f8 04 66 42 86 c4 b0 42
       139.24577 67.43076 57.504852 88.383835
0000e0 8c c3 d2 41 f8 5e 83 42 f6 94 b6 41 d4 ad 93 42
       26.345482 65.685486 22.822735 73.83951
0000f0 81 19 c6 41 fa 98 aa 42 bf f6 a6 41 95 eb 59 42
       24.762453 85.29878 20.870481 54.48006

weight f4 [256, 64, 1, 1]
000000 29 33 d9 3e 22 3e 19 be 70 58 8d bd 93 b4 39 bd
       0.42421845 -0.14965108 -0.06901634 -0.045338225
000010 75 9b 00 3e 24 c7 35 3e 22 de 04 be 41 8e ca bd
       0.12559302 0.17751747 -0.12975362 -0.09890414
000020 48 c1 95 3e a2 ac 34 be 25 9a 33 bd 8a 62 78 3e
       0.29249024 -0.17643979 -0.043848176 0.2425634
000030 40 23 77 bd cd bc 33 bd 20 c2 a8 3d fb 04 9f bc
       -0.06033635 -0.043881226 0.082401514 -0.019411555
000040 2b 6f 85 be 31 6a ab 3d 8e e7 a5 bb 2f fe 85 be
       -0.26061377 0.08369864 -0.005063004 -0.2617049
000050 81 c2 94 3c a9 e4 7d be a0 9f 91 3c a4 f9 12 bc
       0.018159153 -0.24794258 0.01777631 -0.008970652
000060 3e 37 5b 3e df a0 8e bd 29 f8 fc 3e 30 34 12 3e
       0.21407792 -0.069642775 0.4940808 0.1427772
000070 3c 1f e2 3d 5d f2 83 3e 21 b6 42 bc 9e 33 cd 3d
       0.11041114 0.25770846 -0.011884243 0.10019611
000080 95 33 ba bd 7c 8e b4 bc e4 99 de 3e cd 5e 24 be
       -0.0909187 -0.022040598 0.43476784 -0.16051789
000090 01 1e b8 3e 01 29 0b 3d fa df 0b 3f 2d ab 25 3d
       0.3596039 0.03397465 0.54638636 0.04044645
0000a0 21 3c cf 3c 9f 47 aa 3d a0 0d af be ec 49 7e bc
       0.025297226 0.08314442 -0.34190083 -0.015520554
0000b0 0d 79 4d 3f 96 d6 89 3e 98 ab 70 be 70 00 67 3d
       0.80262834 0.2692153 -0.23502958 0.0563969
0000c0 4f a4 d1 bd 29 59 59 3e 97 db 94 3e 47 3a 54 3e
       -0.102364175 0.21225418 0.29073784 0.20725356
0000d0 c4 00 17 3e d4 9d 72 3d 55 93 53 be 3a 48 dc bd
       0.14746386 0.059232548 -0.20661671 -0.107559636
0000e0 96 90 8b 3e 70 1c 50 be db 74 7c 3e 8b 67 82 be
       0.27258748 -0.20323348 0.24653952 -0.25469622
0000f0 4f 3f fe 3e d4 94 c5 be 96 0d 89 bd b7 40 0a 3e
       0.49657676 -0.3859011 -0.066920444 0.13501249
000100 54 e8 29 3e a0 27 63 be 9b 8a 84 be 40 aa d3 bd
       0.16592532 -0.22183084 -0.25886998 -0.10335207
000110 58 1e 2c 3e 93 6f 9b 3e c0 7d 50 bd 05 d6 5e 3e
       0.1680845 0.30358562 -0.050901175 0.2176133
000120 ff ad b4 bd eb 25 36 bd 6a d3 01 be 5d 5f 1d 3e
       -0.088222496 -0.044469755 -0.12678304 0.1536841
000130 53 c3 df 3d ca ed 47 be 93 68 fa bd 40 ab e7 3a
       0.10925927 -0.19524303 -0.12226977 0.0017674938
000140 ed 98 60 bd 19 7f 53 3c 0e 74 f4 bc bf c2 04 bf
       -0.05483334 0.01290872 -0.029840495 -0.5185966
000150 3d 8d 12 be 24 5e d9 bd cc 58 ae 3d 58 49 c4 bd
       -0.1431169 -0.10613659 0.085130304 -0.09584302
000160 17 3f d8 3e 53 49 40 3d 10 35 53 be 0a c5 26 3f
       0.42235634 0.046944927 -0.2062571 0.6514441
000170 db 05 a7 3e cd e3 96 3d 1f 81 5c be 1c 11 02 be
       0.32621655 0.07367668 -0.21533631 -0.12701839
000180 af 05 6e be 19 7e 4c bd 38 57 c6 3e 16 a4 ac bd
       -0.23244356 -0.049924944 0.38738418 -0.084297344
000190 57 20 cf 3d 6d f6 7c 3d f6 99 cb 3e 6d 16 c6 3e
       0.1011359 0.061758447 0.397659 0.38688985
0001a0 91 e3 73 3d e9 49 34 3e 41 b6 b9 be 88 31 61 3d
       0.059543196 0.1760632 -0.3627186 0.054978877
0001b0 02 1a 6b 3f fe 95 33 3f ba be dd be e9 bb 37 3d
       0.9183656 0.70150745 -0.43309575 0.04485694
0001c0 a8 b7 ce 3d e3 62 d9 3e 9b ea 81 3f 0b e3 a7 be
       0.100936234 0.42458257 1.0149721 -0.32790408
0001d0 dd 2e 0b bd 41 ca d9 3d 9e 96 34 bd 89 74 57 3c
       -0.03398024 0.1063428 -0.044088952 0.013150343
0001e0 b4 81 95 3e b6 2f 17 3f d6 05 61 bd 29 2b 02 bf
       0.29200518 0.59057176 -0.054937206 -0.5084711
0001f0 f8 8f ac 3e 86 d4 49 be d7 ef 0d be f4 e2 54 bd
       0.3370359 -0.19709978 -0.13861023 -0.051974252
000200 91 2a d4 be b1 dc 57 3e 2a e9 46 be 2b dd 63 be
       -0.41438726 0.21080281 -0.19424883 -0.22252338
000210 2b c3 cc be 69 0a ec bd bf ca 22 be a0 b1 d0 3d
       -0.3999265 -0.11525423 -0.15897654 0.10190129
000220 83 2a 30 be a1 5a 05 3e 3a 69 89 3d e9 30 bf be
       -0.17203717 0.13022853 0.067095235 -0.37342003
000230 ad 0d 23 be b2 b5 9b 3e 7d 55 fc bd 6b 32 9a 3a
       -0.15923186 0.3041206 -0.12320993 0.0011764293
000240 18 6b f5 3d ea ff 68 3e 5e 7b 2b be eb dd 0d 3d
       0.11983317 0.22753873 -0.1674628 0.034635466
000250 29 9a b8 bc 66 d0 a9 be f4 bb 81 be 22 b5 9b 3e
       -0.022534447 -0.33166808 -0.2533871 0.3041163
000260 4f 81 ab ba b9 31 7f 3d 3f e7 02 40 79 e6 c8 be
       -0.0013084802 0.06230328 2.0453641 -0.39238337
000270 05 1b 5b be b5 5a 09 3e 09 0a 16 bc 7e 74 10 3e
       -0.21397026 0.13413508 -0.009157666 0.14106938
000280 f4 9b 85 3e 53 38 19 3e 40 c3 1c 3d 75 80 36 3d
       0.26095545 0.14962892 0.038272142 0.0445561
000290 2d ea a9 be ad f7 03 be 98 2e ce 3e cb 6d d3 bc
       -0.33186474 -0.1288745 0.40269923 -0.02580919
0002a0 77 f9 92 be f8 7d 13 be 64 b2 04 be 5a 6a ec bd
       -0.28705952 -0.14403522 -0.12958676 -0.115437225
0002b0 1a a1 99 3e d9 ed 13 3f 1b 48 7b be cb 3e 5e 3e
       0.30005723 0.577848 -0.24539225 0.21703641
0002c0 b8 4c 37 be 25 1a c5 3d 21 ed 35 3f 5c f5 69 3e
       -0.1790036 0.09624127 0.71064955 0.22847503
0002d0 f3 a6 dc 3d b1 bc 1b 3f bc da b4 3e ad ae 9d be
       0.107740305 0.60834795 0.3532313 -0.3079733
0002e0 2e 8b 0c 3d 49 e1 09 be 25 f2 ec 3d 79 7c 7c 3e
       0.03431242 -0.13464846 0.11569623 0.24656858
0002f0 8a 5f 97 be e9 f3 7a be f1 bf f2 bd 71 93 06 3e
       -0.29565078 -0.24507107 -0.11853016 0.13142182
000300 d2 89 7f 3e f9 22 a7 bd ca d3 3b 3e c7 24 ce 3d
       0.24954918 -0.081609674 0.1834251 0.100656085
000310 47 b6 50 3e 72 ea c2 bd 5f 50 89 be a5 60 a2 be
       0.20382033 -0.09517373 -0.2681913 -0.3171436
000320 62 20 96 3d f6 f9 2d be 13 d4 98 3e 03 a2 ff 3d
       0.07330395 -0.16989884 0.298493 0.12482073
000330 8a cd 0d be 05 e6 f8 bd 62 49 a9 3d f4 62 58 be
       -0.13847938 -0.12153248 0.0826595 -0.21131498
000340 b7 a7 3a be c8 b4 80 3e b6 95 a6 3d 53 72 5d bd
       -0.1822804 0.25137925 0.08134024 -0.054064106
000350 13 80 bb bd c7 87 15 3e cf 37 4a 3e d5 40 16 be
       -0.091552876 0.14602576 0.19747852 -0.14673169
000360 06 c3 91 bc 73 cd 2d be 64 3b f7 3c 20 46 e7 bd
       -0.01779319 -0.16972904 0.030179687 -0.11292672
000370 c1 59 33 be 3f af c0 3c 9c 09 24 3f ac 97 8e 3c
       -0.17514707 0.023521064 0.6407716 0.017406307
000380 69 a9 f5 3c 3f a2 e6 bd ac ab 02 be 42 66 ce 3c
       0.029988008 -0.11261415 -0.127608 0.025195245
000390 4b 07 19 3d 5a fa 00 3f 0f d7 dc 3d 76 e5 1d bf
       0.03736047 0.50382006 0.10783207 -0.61678255
0003a0 42 fa 6e 3e f1 5e fc bc dd e0 96 3e 72 7e 89 3b
       0.23337653 -0.03080699 0.29468432 0.0041959817
0003b0 5d f2 48 be a3 65 83 be 77 6a 39 3e e4 72 d5 bd
       -0.19623704 -0.2566348 0.1810702 -0.10422304
0003c0 4c 2f 28 3d 7a ce 41 be 24 a9 fd bc 3b 59 8b 3d
       0.04106073 -0.18926421 -0.030964442 0.06804129
0003d0 96 48 db 3b 6e 84 9c 3e a4 69 67 be a6 c9 b0 be
       0.0066920025 0.30569786 -0.22598892 -0.34528846
0003e0 d6 01 c9 bd 41 11 10 bf 17 07 26 3f ce b2 63 3e
       -0.09814803 -0.5627633 0.6485457 0.22236177
0003f0 a8 f5 88 3e f1 8a 85 bd 2e 3f 37 be 56 80 6a bd
       0.2674992 -0.065206416 -0.17895195 -0.057251297
