HW2/aML/resnet10_btnk_ch2.pt (torch, 55561 bytes, 72 tensors)

weight f4 [2, 3, 7, 7]
0	0x3d97bdce	0.07409249
1	0xbe7209bf	-0.2363653
2	0x3b909d40	0.004413277
3	0x3e54ded8	0.20788133
4	0x3edeab0c	0.43489873
5	0x3e4fddc1	0.20299436
6	0x3ea544b0	0.32278967
7	0xbe5964a2	-0.21229795
8	0xbdb44cda	-0.08803721
9	0xbdb8f862	-0.0903175
10	0xbe831476	-0.25601548
11	0x3e7127c5	0.23550327
12	0xbabd0587	-0.0014421203
13	0x3e840ea8	0.25792432
14	0xbe74978f	-0.2388594
15	0x3e9b3693	0.30315074
16	0xbe7846be	-0.24245736
17	0x3c257300	0.010098219
18	0x3ecd492a	0.40094882
19	0x3e29623c	0.1654138
20	0x3dacda5b	0.084400855
21	0xbe33afef	-0.17547582
22	0x3dd1caff	0.102437966
23	0xbe92e3ca	-0.28689414
24	0x3e447055	0.19183476
25	0x3f338835	0.7012971
26	0x3c1d762a	0.009610692
27	0x3e5cf2ef	0.21577047
28	0xbf1fb5d1	-0.62386805
29	0xbed49776	-0.41521806
30	0xbd020606	-0.031744026
31	0x3e4b5a19	0.19858588
32	0x3f18d1fd	0.59695417
33	0x3dca11b5	0.098666586
34	0x3e18b966	0.14914474
35	0xbf142be9	-0.578795
36	0xbebe49db	-0.37165722
37	0x3d4f7f43	0.050658476
38	0x3cc9217b	0.024552098
39	0x3e69a893	0.22818212
40	0x3c52d6c4	0.012868587
41	0xbdb1b349	-0.08676774
42	0x3ec386cd	0.38188782
43	0x3e91fe3e	0.28514284
44	0x3e0e8994	0.1391967
45	0x3ebc246d	0.3674654
46	0x3ee54759	0.44780996
47	0x3f04e991	0.51918894
48	0x3f03e829	0.51526123
49	0x3d0fe4b5	0.03513022
50	0xbe9d1406	-0.3067934
51	0xbd34904e	-0.044082932
52	0x3e325356	0.17414603
53	0x3f03e731	0.51524645
54	0x3e4769b5	0.19473918
55	0x3ed8a4ac	0.42313135
56	0xbe36578a	-0.17806831
57	0x3c35f4e9	0.011105754
58	0xbdf845ae	-0.12122665
59	0xbe76fe40	-0.24120426
60	0x3ea71456	0.32632703
61	0x3dcbace2	0.09945084
62	0x3e84a03c	0.259035
63	0xbe79ef98	-0.24407804
64	0x3ea282f0	0.31740522
65	0xbe902d47	-0.28159544
66	0x3b89690a	0.00419343
67	0x3edf7d7c	0.43650424
68	0x3e6926eb	0.22768752
69	0x3e2ca788	0.16860783
70	0xbdcbed5d	-0.09957383
71	0x3e347fbd	0.17626853
72	0xbe84fb4a	-0.25972968
73	0x3d4e95d7	0.050435867
74	0x3f471aa2	0.77775013
75	0x3d7626dc	0.060095653
76	0x3ea292ea	0.31752712
77	0xbf01e66b	-0.50742215
78	0xbee13d17	-0.4399192
79	0x3bd93a55	0.006629268
80	0x3e7c1438	0.24617088
81	0x3f0d9026	0.5529808
82	0xbc05eb3c	-0.00817376
83	0x3dd8cbda	0.105857566
84	0xbf03a8a9	-0.5142923
85	0xbe9ea509	-0.30985287
86	0x3c470bad	0.01214878
87	0x3d547c14	0.051876143
88	0x3e6eb741	0.23312093
89	0x3d228789	0.039680038
90	0xbd866418	-0.0656206
91	0x3ee5ae8a	0.44859725
92	0x3e7eb54a	0.24873844
93	0x3e645238	0.22296989
94	0x3e914c97	0.28378746
95	0x3ebf22e3	0.37331304
96	0x3eeafff4	0.45898402
97	0x3f05b42a	0.52228034
98	0x3d546504	0.05185415
99	0xbe66b9de	-0.2253184
100	0xbd752a78	-0.059854954
101	0x3dff1a62	0.12456204
102	0x3ed4aa10	0.41535997
103	0x3e8e89af	0.2783942
104	0x3eaf6ce0	0.34262753
105	0xbdb4ca5f	-0.08827662
106	0xbc659f72	-0.0140150655
107	0xbc82428c	-0.015900873
108	0xbe4d3039	-0.20037927
109	0x3e86ea29	0.26350525
110	0x3da14229	0.07873947
111	0x3e6edfd7	0.23327576
112	0xbe259c6d	-0.16172953
113	0x3e887663	0.26652822
114	0xbe834b0c	-0.25643194
115	0xbd267db4	-0.040647224
116	0x3ed69a69	0.4191468
117	0x3e5ee81c	0.2176823
118	0x3da778e1	0.08177353
119	0xbd6b1332	-0.057391353
120	0x3e62749f	0.221148
121	0xbea898cb	-0.32929072
122	0x3e1ab154	0.15106708
123	0x3f378546	0.71687734
124	0x3dfc11da	0.123080924
125	0x3e96da09	0.29463223
126	0xbf189ce0	-0.5961437
127	0xbed9d27b	-0.42543396
128	0x3d377ae7	0.044794943
129	0x3e0fa5de	0.14028117
130	0x3f14cf7f	0.58129114
131	0x3c220c6e	0.009890659
132	0x3e1494a7	0.14509831
133	0xbee385af	-0.4443793
134	0xbe86fce2	-0.2636481
135	0x3c8ec0df	0.017425952
136	0x3e12446a	0.1428391
137	0x3e155fc2	0.1458731
138	0x3dc8a0e9	0.09796316
139	0xbd9577bd	-0.07298229
140	0x3ed35efa	0.412834
141	0x3e9c09ce	0.3047623
142	0x3e07edf6	0.13274369
143	0x3ea515e6	0.3224327
144	0x3edd9730	0.4327941
145	0x3ebf1a1a	0.373246
146	0x3ef9dff0	0.48803663
147	0x3ee075c8	0.4383986
148	0xbdb72409	-0.0894242
149	0xbf3bb0db	-0.73316735
150	0xbf61ffd4	-0.8828099
151	0xbddb1f28	-0.10699302
152	0xbe75e596	-0.24013361
153	0xbe6022e5	-0.21888311
154	0x3f43871a	0.76378024
155	0x3eb79043	0.3585225
156	0xbceac5a3	-0.028658694
157	0xbcf47474	-0.029840685
158	0x3cf4c1d7	0.029877586
159	0xbe1ecb65	-0.15507276
160	0xbdcc56eb	-0.09977516
161	0x3eec026d	0.460956
162	0x3ec83cfd	0.3910903
163	0x3ea60b0a	0.32430297
164	0x3e8a1dd8	0.26975894
165	0x3eb9add6	0.3626544
166	0x3e6a3855	0.22873051
167	0x3e9b4151	0.3032327
168	0x3e850d08	0.25986505
169	0x3dd62615	0.10456482
170	0x3e9c53eb	0.30532774
171	0x3eaee336	0.34157723
172	0x3ed736cb	0.4203399
173	0xbd6cc5a1	-0.05780566
174	0x3e5f90cc	0.2183258
175	0x3ea31728	0.31853604
176	0x3eb46bf2	0.35238606
177	0x3e5ffa8a	0.21872917
178	0x3eb1a2db	0.3469456
179	0x3ed9e63f	0.42558476
180	0x3d135f53	0.03597958
181	0x3dce155f	0.1006267
182	0x3e218b9b	0.15775912
183	0x3d4357e5	0.047691245
184	0x3d81acd2	0.06331791
185	0x3d9df3de	0.077125296
186	0x3e25b854	0.16183597
187	0x3d3300ec	0.04370205
188	0x3df4a343	0.11945202
189	0xbea6d209	-0.3258212
190	0xbe084376	-0.13306984
191	0xbe39a516	-0.18129382
192	0xbe17d7ec	-0.14828461
193	0x3e2d3e85	0.1691838
194	0x3e3ec560	0.1862998
195	0x3e149393	0.1450942
196	0x3ee61330	0.44936514
197	0xb9821ac3	-0.0002481547
198	0xbf3d31df	-0.7390422
199	0xbf698194	-0.91213346
200	0xbdd04b98	-0.10170668
201	0xbe72b657	-0.2370237
202	0xbe42999f	-0.19003914
203	0x3f51d10e	0.8195962
204	0x3ecf8268	0.4052918
205	0xbe260f7d	-0.16216846
206	0xbc90db4b	-0.017682692
207	0x3cc7aff6	0.024375897
208	0xbe1442e1	-0.14478637
209	0xbda60297	-0.08105963
210	0x3eb84a60	0.35994244
211	0x3e93b050	0.28845453
212	0x3ec0c9e5	0.37654033
213	0x3e888b14	0.26668608
214	0x3ebd836f	0.37014338
215	0x3eba025e	0.3632993
216	0x3ea37c4e	0.31930774
217	0x3e77e722	0.24209264
218	0x3d809860	0.06279063
219	0x3e82871e	0.2549371
220	0x3e970734	0.29497683
221	0x3ec8635b	0.39138302
222	0xbcf59c6e	-0.029981818
223	0x3dff94d2	0.12479557
224	0x3e93c468	0.28860784
225	0x3ea9718b	0.3309444
226	0x3e3c187e	0.18368718
227	0x3e663c90	0.2248404
228	0x3eba7465	0.36416927
229	0x3db90c10	0.09035504
230	0x3e03bcde	0.12865016
231	0x3e8a9613	0.27067623
232	0xbd1f21fd	-0.038850773
233	0x3e1cedc1	0.15325071
234	0x3d83ea40	0.06441164
235	0x3e7ad47a	0.24495116
236	0xbd8df412	-0.06931318
237	0x3e07ff6d	0.13281031
238	0xbed7faf0	-0.42183638
239	0xbdd381af	-0.103274696
240	0xbe64478b	-0.22292916
241	0xbe16b063	-0.14715724
242	0x3e820baa	0.25399524
243	0x3e2a37ed	0.16622896
244	0x3e2dd5f2	0.16976145
245	0x3f0843ff	0.53228754
246	0xbbe51c6f	-0.006991915
247	0xbf49b281	-0.78788
248	0xbf665705	-0.8997653
249	0xbdc76a9e	-0.097371325
250	0xbeac84ab	-0.33694968
251	0xbeace71b	-0.3377007
252	0x3f38ccb9	0.7218738
253	0x3ef1aa74	0.47200358
254	0xbe0c7c4a	-0.13719288
255	0xbd0babd1	-0.034099404

weight f4 [2]
0	0x3f8a668f	1.0812548
1	0x3f7f9958	0.9984336

bias f4 [2]
0	0xbe30052d	-0.17189474
1	0x3e815d56	0.25266522

running_mean f4 [2]
0	0x42577931	53.86835
1	0x426e476a	59.56974

running_var f4 [2]
0	0x48107b9c	147950.44
1	0x480c2493	143506.3

weight f4 [2, 2, 1, 1]
0	0x3f188957	0.59584564
1	0xbebc949b	-0.36832127
2	0xbdf4e640	-0.11957979
3	0x3f5a06d0	0.85166645

weight f4 [2]
0	0x3f80b49d	1.0055119
1	0x3f8f8a15	1.1214014

bias f4 [2]
0	0xbdc7e7ea	-0.09761031
1	0x3e73e550	0.23817945

running_mean f4 [2]
0	0x3d355e5e	0.04427945
1	0x3ea3e2a1	0.32008842

running_var f4 [2]
0	0x3eb4b277	0.35292408
1	0x3fa9dffd	1.3271481

weight f4 [2, 2, 3, 3]
0	0xbef8ef56	-0.486201
1	0xbf6ca499	-0.92438656
2	0xbe467800	-0.19381714
3	0x3ef9229c	0.48659217
4	0x3e85258c	0.26005208
5	0x3e988d50	0.29795313
6	0xbed753db	-0.42056164
7	0xbea2528e	-0.3170361
8	0xbe97b26e	-0.2962832
9	0xbea74eda	-0.32677346
10	0xbe65b74f	-0.22433208
11	0x3e692855	0.22769292
12	0x3c85dd7c	0.016340964
13	0x3e99552c	0.29947793
14	0x3f12b720	0.57310677
15	0x3e1d1233	0.15338974
16	0xbe092ebc	-0.13396734
17	0x3da068eb	0.078325115
18	0x3e855318	0.26039958
19	0x3d1f35fd	0.038869847
20	0x3e0925bb	0.133933
21	0x3dc3de46	0.0956388
22	0x3ef2ea85	0.4744455
23	0x3ec16ce9	0.37778404
24	0xbeda3ae6	-0.4262306
25	0x3d0cd101	0.03437901
26	0x3e06f26e	0.13178417
27	0x3ed938de	0.424262
28	0xbdafafce	-0.08578454
29	0xbe061dde	-0.13097331
30	0x3e513bd5	0.2043298
31	0xbf5bc0e9	-0.8584123
32	0xbed6f222	-0.41981608
33	0x3f47e1af	0.7807874
34	0xbe80801d	-0.25097743
35	0xbd4424d7	-0.047886696

weight f4 [2]
0	0x3f923fd2	1.1425726
1	0x3f917976	1.1365192

bias f4 [2]
0	0x3ca660f0	0.020309895
1	0x3deb9ae0	0.115041494

running_mean f4 [2]
0	0xbdccfd90	-0.10009301
1	0x3dbfdc2d	0.09368167

running_var f4 [2]
0	0x3f25925e	0.64676464
1	0x3f833d8e	1.025316

weight f4 [8, 2, 1, 1]
0	0x3e309a5e	0.17246386
1	0xbf39c95b	-0.7257287
2	0x3fa3a095	1.2783381
3	0x3db97647	0.09055763
4	0xbf08ea73	-0.5348274
5	0xbea1b6f0	-0.31584883
6	0x3f40ee8d	0.75364
7	0x3f14595e	0.57948864
8	0xbe9edf4f	-0.31029746
9	0x3eea0bb9	0.4571207
10	0xbefff9fc	-0.4999541
11	0x3ea1a44d	0.31570664
12	0xbf89fbb0	-1.0779934
13	0xbe80cfea	-0.25158626
14	0x3ca1ff02	0.019774918
15	0xbf1e5583	-0.6184923

weight f4 [8]
0	0x3ff88590	1.941576
1	0x400e23bf	2.2209318
2	0x3f20471a	0.6260849
3	0x3f4c225b	0.7973992
4	0x3f94f90c	1.1638503
5	0x4028cd6b	2.6375377
6	0x3f4d3fb8	0.8017535
7	0x3f966e31	1.1752378

bias f4 [8]
0	0xbed00453	-0.406283
1	0x3f04d7a9	0.5189157
2	0xbd2073e7	-0.039173033
3	0x3f0504e5	0.51960593
4	0xbebc32f3	-0.3675762
5	0x3f461b8d	0.7738579
6	0x3ea44b1c	0.32088554
7	0x3f0e818f	0.5566644

running_mean f4 [8]
0	0xbdd1ae6b	-0.10238346
1	0x3e96b39a	0.294339
2	0xbe35ccbd	-0.17753883
3	0x3e8da14c	0.27662122
4	0x3cd02103	0.025406366
5	0xbd39908a	-0.04530386
6	0xbe909e5f	-0.28245828
7	0xbdebcadf	-0.11513304

running_var f4 [8]
0	0x3ed65753	0.41863498
1	0x3ec6158f	0.38688323
2	0x3e2f58bb	0.17123692
3	0x3ef08e6b	0.46983656
4	0x3e374512	0.17897442
5	0x3dee432d	0.116339065
6	0x3eb33783	0.3500329
7	0x3ea05178	0.31312156

weight f4 [8, 2, 1, 1]
0	0x3eb178ed	0.34662572
1	0xbf0edcd0	-0.55805683
2	0x3f551443	0.8323404
3	0xbd5fc27f	-0.054628845
4	0x3ee5321a	0.44764787
5	0xbe99d041	-0.30041698
6	0xbec736b5	-0.38908926
7	0xbf5e1d82	-0.86763775
8	0xbeba2478	-0.36355948
9	0x3f44bc4a	0.76849806
10	0x3ec74561	0.3892012
11	0x3f1af526	0.60530317
12	0xbd1a43b2	-0.037662216
13	0xbf557f5d	-0.83397466
14	0xbf20acb6	-0.62763536
15	0xbed4eed7	-0.4158847

weight f4 [8]
0	0x3fb62fb4	1.4233308
1	0x3f3109bb	0.6915547
2	0x3fe3a78e	1.7785509
3	0x3f6e63a3	0.93120784
4	0x3fb8adb7	1.4428014
5	0x40322a18	2.7838192
6	0x3fa6cfb9	1.3032142
7	0x3fdaf113	1.710482

bias f4 [8]
0	0xbed00453	-0.406283
1	0x3f04d7a9	0.5189157
2	0xbd2073e7	-0.039173033
3	0x3f0504e5	0.51960593
4	0xbebc32f3	-0.3675762
5	0x3f461b8d	0.7738579
6	0x3ea44b1c	0.32088554
7	0x3f0e818f	0.5566644

running_mean f4 [8]
0	0xbdf8cd25	-0.12148503
1	0x3e78c006	0.24292001
2	0x3c8262e4	0.015916295
3	0xbefa93d1	-0.489409
4	0x3e5017a6	0.20321521
5	0x3ec1e26b	0.37868056
6	0xbeb911b2	-0.36146313
7	0xbec19905	-0.37812057

running_var f4 [8]
0	0x3e7e8670	0.24855971
1	0x3fc73d50	1.5565586
2	0x3e301a96	0.17197642
3	0x405f45a9	3.4886267
4	0x3f137a13	0.57608145
5	0x400bedfe	2.186401
6	0x3fdfbf26	1.7480209
7	0x401e0124	2.4688196

weight f4 [2, 8, 1, 1]
0	0x3d25b57b	0.040456276
1	0xbe237b18	-0.15964925
2	0xbed978fa	-0.4247511
3	0x3f8f3e37	1.1190861
4	0xbbda43b2	-0.006660902
5	0xbe016f89	-0.12640204
6	0x3f286ea7	0.6579384
7	0x3ea52e22	0.3226176
8	0xbed68108	-0.41895318
9	0x3e4db8a2	0.20089963
10	0xbf0977b4	-0.5369828
11	0xbe21c6b5	-0.15798457
12	0x3eab572e	0.3346495
13	0x3d888088	0.066651404
14	0xbfa68599	-1.3009521
15	0xbf6a442c	-0.9151027

weight f4 [2]
0	0x3ea2f667	0.31828615
1	0x3f03f041	0.51538473

bias f4 [2]
0	0x3f715f7b	0.94286317
1	0x3fc4afec	1.5366187

running_mean f4 [2]
0	0x3ff80a74	1.937819
1	0xc0242ef0	-2.5653648

running_var f4 [2]
0	0x401414e0	2.313774
1	0x401116ca	2.267016

weight f4 [2, 2, 3, 3]
0	0xbf0d127f	-0.5510635
1	0x3e6a2ffa	0.22869864
2	0xbe0b75f9	-0.13619222
3	0xbe5f5987	-0.21811496
4	0x3f16a5aa	0.58846533
5	0x3e84b425	0.2591869
6	0xbe0c3c55	-0.1369489
7	0x3ec029fd	0.37532035
8	0xbeab401a	-0.33447343
9	0x3ee5979b	0.44842228
10	0x3eac1bc0	0.33614922
11	0x3dc6c61d	0.09705756
12	0x3f7d4019	0.9892593
13	0xbf3de89f	-0.74183077
14	0xbdf03874	-0.117295176
15	0xbb424370	-0.0029642247
16	0xbcf3efc4	-0.029777415
17	0x3eef00ad	0.46680203
18	0x3e130ea5	0.14361055
19	0xbf3c5fc6	-0.7358364
20	0x3db8af1a	0.09017773
21	0x3f21284b	0.6295211
22	0xbf6b336f	-0.91875356
23	0xbe9dba92	-0.30806404
24	0xbe9244d9	-0.28568152
25	0x3ec1e06f	0.37866542
26	0x3dd255b4	0.10270253
27	0xbd480cb7	-0.04884025
28	0xbd1e50f7	-0.038651433
29	0x3f4a713f	0.7907905
30	0xbe6da4eb	-0.23207442
31	0xbe9e7bb2	-0.30953747
32	0xbe4015d3	-0.18758325
33	0xbe4d6690	-0.20058656
34	0x3ed64e4b	0.41856608
35	0x3ea703dc	0.32620132

weight f4 [2]
0	0x3f9db5f6	1.2321155
1	0x3f78e98a	0.9723135

bias f4 [2]
0	0x3dbef1ed	0.093234874
1	0x3ec48d61	0.38389114

running_mean f4 [2]
0	0x400d5443	2.208268
1	0xbe615c93	-0.2200797

running_var f4 [2]
0	0x3f0d3b71	0.55168825
1	0x3eb43c69	0.3520234

weight f4 [8, 2, 1, 1]
0	0xbef0a8a2	-0.47003657
1	0x3f0beb8c	0.5465629
2	0x3ef7e45c	0.48416412
3	0x3ed7e372	0.42165715
4	0xbe62ae5e	-0.22136828
5	0xbefb93f6	-0.49136323
6	0xbe86016b	-0.26172957
7	0xbecbbc6c	-0.39792192
8	0xbed346f7	-0.4126508
9	0x3ed9399f	0.42426774
10	0x3c9b5777	0.018962605
11	0x3f4d2089	0.8012777
12	0x3f41446e	0.7549504
13	0xbeac72f2	-0.33681446
14	0xbf65a492	-0.8970424
15	0x3ea325a2	0.3186465

weight f4 [8]
0	0x3f94a9f4	1.1614366
1	0x4035365d	2.831443
2	0x3f97998f	1.1843737
3	0x3edf4589	0.4360774
4	0x3fc400dd	1.5312763
5	0x407191f8	3.7745342
6	0x3f9e67df	1.2375449
7	0x3f47e760	0.78087425

bias f4 [8]
0	0xbf7d861f	-0.9903278
1	0x3f1cd255	0.6125844
2	0x3ebbd3e5	0.366851
3	0xbe67bf6a	-0.22631612
4	0xbe5b3355	-0.214063
5	0x3eb8fbc0	0.3612957
6	0xbe4cf769	-0.20016254
7	0xbd408829	-0.047004852

running_mean f4 [8]
0	0x3e0a5c9e	0.13511893
1	0x3eb78a8d	0.35847893
2	0xbea10808	-0.3145144
3	0xbe8ff34f	-0.28115317
4	0x3db7d44f	0.089760415
5	0x3ed261ae	0.4109015
6	0x3d4f6369	0.050631914
7	0xbdddd69d	-0.1083195

running_var f4 [8]
0	0x3e89821f	0.26857087
1	0x3f0cd3a0	0.55010414
2	0x3e9aa643	0.30204973
3	0x3e883576	0.26603287
4	0x3e440d85	0.19145782
5	0x3edec5c2	0.43510252
6	0x3f0dddcb	0.55416554
7	0x3f509cab	0.81489056

weight f4 [2, 8, 1, 1]
0	0x3edcdcd3	0.43137226
1	0xbe7c7203	-0.24652867
2	0xbec0cf5c	-0.37658203
3	0x3d7ecc49	0.06220654
4	0x3c8f1a26	0.017468523
5	0x3cf9759c	0.030451588
6	0x3e5f485e	0.2180495
7	0xc0061185	-2.0948193
8	0xbf1c18b5	-0.609752
9	0x3e7809c5	0.24222477
10	0xbf25f566	-0.64827573
11	0x3d29d1a7	0.041459706
12	0xbf5129df	-0.81704515
13	0x3e5e5569	0.21712269
14	0x3b541a8c	0.0032364456
15	0xbe1bc100	-0.15210342

weight f4 [2]
0	0x3f5b6188	0.85695696
1	0x3fa3e98f	1.2805651

bias f4 [2]
0	0xbe22ac47	-0.15886031
1	0xbe21cb6c	-0.15800256

running_mean f4 [2]
0	0xc0783048	-3.8779469
1	0xbe37856e	-0.17921993

running_var f4 [2]
0	0x3f381c35	0.7191804
1	0x4026d26f	2.6065938

weight f4 [2, 2, 3, 3]
0	0xbedc1bbf	-0.4298992
1	0x3e365635	0.17806323
2	0x3ed6871c	0.41899955
3	0xbea23172	-0.3167835
4	0x3e644e7e	0.22295567
5	0x3f1bc0a8	0.60840845
6	0xbea48ac4	-0.3213712
7	0x3eb5248e	0.35379452
8	0x3ebc1a9f	0.3673906
9	0x3e242d06	0.160328
10	0xbebd42ec	-0.3696512
11	0xbebfadd8	-0.3743732
12	0xbecc4140	-0.39893532
13	0xbdc2f022	-0.09518458
14	0xbea96d62	-0.33091265
15	0xbdf9f2fa	-0.12204547
16	0xbe87d45b	-0.26529202
17	0xbea9ba20	-0.33149815
18	0x3e2db7f8	0.1696471
19	0x3dc5c014	0.096557766
20	0x3e4a4aa7	0.1975504
21	0x3ca3d793	0.020000255
22	0x3e6302e1	0.22169067
23	0x3e4bb526	0.19893321
24	0xbe17d28e	-0.14826414
25	0xbd71ee88	-0.05906537
26	0x3ec641d1	0.3872209
27	0x3f1793c0	0.59209824
28	0x3dac2765	0.084059514
29	0xbf4771b0	-0.7790785
30	0x3f2b5ecc	0.66941524
31	0xbed80d42	-0.42197615
32	0xbe35c106	-0.17749414
33	0x3e6b2729	0.22964157
34	0xbd471b5e	-0.048610084
35	0x3e326895	0.17422707

weight f4 [2]
0	0x3fb6da88	1.428544
1	0x3f331098	0.69947195

bias f4 [2]
0	0xbe4706fc	-0.19436258
1	0xbe1c4618	-0.15261114

running_mean f4 [2]
0	0xbec56294	-0.38551772
1	0x3e98d70f	0.29851577

running_var f4 [2]
0	0x4047dc9a	3.1228395
1	0x4002fd5a	2.0467134

weight f4 [8, 2, 1, 1]
0	0x3f11e24a	0.56985915
1	0x3f0580a2	0.52149403
2	0x3d808d02	0.06276895
3	0x3f5d102b	0.86352795
4	0x3fb8cc31	1.4437314
5	0x3d70c6fd	0.05878352
6	0x3f82b7eb	1.0212377
7	0xbeb706da	-0.35747415
8	0x3f5a3d96	0.8525022
9	0xbeaadb5e	-0.3337049
10	0xbe977a36	-0.29585427
11	0x3f0a6255	0.5405629
12	0x3f1b9ac5	0.60783035
13	0xbf34308e	-0.7038659
14	0xbf934cba	-1.150779
15	0xbe4cdd7e	-0.20006368

weight f4 [8]
0	0x4078b331	3.885937
1	0x405f28b4	3.4868593
2	0x401adb2e	2.4196277
3	0x4070d71a	3.7631288
4	0x40458b5e	3.0866313
5	0x409e0905	4.938601
6	0x3f9c5c34	1.2215638
7	0x3f0c03cb	0.5469329

bias f4 [8]
0	0x3e02b7e1	0.12765457
1	0x3efe6a5c	0.4969052
2	0x3dbd16af	0.09232842
3	0xbe019355	-0.12653859
4	0xbdea745c	-0.11447975
5	0x3e92097a	0.28522855
6	0xbea5d2e8	-0.3238747
7	0xbee1fe3f	-0.44139287

running_mean f4 [8]
0	0x3e1f213a	0.15540019
1	0x3e071989	0.13193335
2	0x3e5b1373	0.21394138
3	0x3dc417b7	0.09574836
4	0x3d980373	0.07422533
5	0x3d0cbf85	0.034362335
6	0xbc5a282e	-0.013315244
7	0xbe4552b3	-0.19269828

running_var f4 [8]
0	0x3dee16d6	0.11625449
1	0x3e7a9600	0.24471283
2	0x3e0ec957	0.13943993
3	0x3dd187d9	0.10230989
4	0x3d9fa719	0.07795543
5	0x3dc6ffb6	0.09716742
6	0x3e34a230	0.17639995
7	0x3dd66dea	0.10470183

weight f4 [2, 8, 1, 1]
0	0xbcab13e6	-0.020883512
1	0xbe812084	-0.2522012
2	0x3f0592b5	0.5217698
3	0x3dc18c07	0.09450536
4	0xbec80d12	-0.39072472
5	0xbd26886a	-0.04065744
6	0x3f341aa0	0.70353127
7	0xbf3e31a7	-0.74294513
8	0x3d2df050	0.042465508
9	0xbd8eb924	-0.069689065
10	0xbb2a75ac	-0.002601008
11	0xbdb89274	-0.09012309
12	0x3e756c33	0.23967056
13	0xbeb09a06	-0.3449251
14	0xc013b714	-2.3080492
15	0x3eb707b7	0.35748073

weight f4 [2]
0	0x3e83e1a8	0.257581
1	0x3e73a952	0.2379506

bias f4 [2]
0	0x3fa091eb	1.2544531
1	0x3f7e56a9	0.9935098

running_mean f4 [2]
0	0xbf6a1b06	-0.91447484
1	0xbffed6ad	-1.9909264

running_var f4 [2]
0	0x4091e643	4.559358
1	0x418cd76b	17.605185

weight f4 [2, 2, 3, 3]
0	0x3e93ce1f	0.28868195
1	0x3f1cada1	0.61202437
2	0x3f056427	0.52105945
3	0xbdcb8219	-0.099369235
4	0xbe013d7b	-0.12621109
5	0xbd0dd6de	-0.03462874
6	0x3e38089e	0.17972037
7	0x3ea863a3	0.32888517
8	0x3eaf20d2	0.34204727
9	0x3e7d2231	0.24720074
10	0x3eab39e6	0.3344261
11	0x3dc981d4	0.09839216
12	0xbe9d3a15	-0.30708376
13	0xbdd97890	-0.106186986
14	0xbf05fb47	-0.52336544
15	0xbe979121	-0.29602912
16	0xbe1ce05d	-0.15319963
17	0xbe631ed1	-0.22179724
18	0x3e7ea076	0.24865898
19	0x3e99baa6	0.30025214
20	0x3ebcf487	0.3690531
21	0xbdf8ea90	-0.12154114
22	0xbe6e5047	-0.23272811
23	0x3ba3a967	0.0049945596
24	0x3ee0da17	0.4391639
25	0x3efcb18a	0.49354202
26	0x3f285095	0.6574796
27	0xbe948878	-0.29010367
28	0xbe5426ee	-0.20717975
29	0xbe540ae7	-0.20707284
30	0xbef2a7ec	-0.4739374
31	0xbeca7ddd	-0.3954915
32	0xbeecb2a9	-0.46230057
33	0x3e1c4c50	0.15263486
34	0x3d557948	0.052117616
35	0x3e816022	0.25268656

weight f4 [2]
0	0x3f999046	1.1997154
1	0x3f7c369a	0.98520815

bias f4 [2]
0	0xbe764bf8	-0.24052417
1	0xbe282731	-0.164212

running_mean f4 [2]
0	0x3fc06396	1.5030391
1	0x3f811d35	1.0087038

running_var f4 [2]
0	0x3e88cc22	0.2671824
1	0x3e8a3d1a	0.26999742

weight f4 [8, 2, 1, 1]
0	0x3f01a04b	0.5063521
1	0xbed03a10	-0.40669298
2	0xbedabc63	-0.42721853
3	0x3ebe4a5e	0.37166113
4	0x3f81efde	1.0151327
5	0xbe599891	-0.21249606
6	0x3f055328	0.5208001
7	0x3eee1423	0.46499738
8	0xbe5d1d3d	-0.21593185
9	0x3f3cc30c	0.7373512
10	0xbea3daf9	-0.32003
11	0xbf2bb59f	-0.67074007
12	0xbf17dda0	-0.5932255
13	0x3f1abd07	0.6044468
14	0xbf01f880	-0.50769806
15	0x3f2c10f9	0.672134

weight f4 [8]
0	0x4121dd63	10.1165495
1	0x407a3671	3.9095728
2	0x40abb518	5.365856
3	0x40bb2ed2	5.8494654
4	0x40d04ff8	6.509762
5	0x40a53816	5.1630964
6	0x4103f2db	8.246791
7	0x410db2dc	8.856167

bias f4 [8]
0	0xbeb73d35	-0.35788885
1	0x3e2f55c4	0.1712256
2	0xbf2a52a4	-0.6653235
3	0xbf366bcf	-0.7125825
4	0x3e00021e	0.12500808
5	0x3de67cb7	0.11254256
6	0xbf9e040c	-1.2344985
7	0xbf680495	-0.9063199

running_mean f4 [8]
0	0x3c865a11	0.016400369
1	0xbc213f98	-0.009841822
2	0x3decc7ce	0.11561547
3	0x3e0c8825	0.1372381
4	0x3d8ff766	0.070296094
5	0xbe0bb297	-0.13642345
6	0xbb96b2d6	-0.0045989556
7	0x3c76ada3	0.015056047

running_var f4 [8]
0	0x3c0efa62	0.008726688
1	0x3bceb453	0.0063081174
2	0x3d894c8b	0.067040525
3	0x3da19885	0.07890419
4	0x3cfe397a	0.031033266
5	0x3da4c19e	0.08044742
6	0x3c5ffd0a	0.013671169
7	0x3c7230d4	0.014782149

weight f4 [10, 8]
0	0xbf18a0b0	-0.5962019
1	0xbf01c162	-0.50685704
2	0x3f87a4cc	1.0597167
3	0x3f8fe603	1.1242069
4	0x3f871d9b	1.055591
5	0x3e16edf8	0.14739215
6	0xbfef0a50	-1.8675022
7	0xbfc07c8b	-1.5038007
8	0xbef03716	-0.46917027
9	0xbffe246f	-1.9854869
10	0x3f8ddfd2	1.108393
11	0x3ffb15cc	1.9616027
12	0x4006e2b7	2.1075876
13	0xc0164bc2	-2.348374
14	0xbeae5185	-0.3404657
15	0x3d15ea49	0.036600385
16	0xbfa5d29b	-1.2954897
17	0x3f93d099	1.1548034
18	0xbfe9c1cb	-1.8262266
19	0xc013df0e	-2.3104892
20	0xbf57ddbc	-0.84322715
21	0x3f0c9719	0.54918057
22	0x3f3437d1	0.7039767
23	0x3f4a8ea9	0.7912393
24	0xc01d5eb8	-2.4589062
25	0x3fbbac44	1.4661946
26	0xc032b1b8	-2.792097
27	0xbffbf5f8	-1.9684439
28	0xc010e585	-2.2640088
29	0x3ff9f19b	1.9526857
30	0xbfbace07	-1.4594125
31	0xbfa26fa9	-1.2690326
32	0x40638852	3.5551953
33	0xbfab3fcb	-1.3378843
34	0x3e8e459f	0.27787492
35	0xbf9a0838	-1.2033758
36	0xbfa3317b	-1.2749475
37	0xbfd0f052	-1.632334
38	0x404694fb	3.102843
39	0x3ff3df88	1.9052591
40	0x40077005	2.1162121
41	0x3fba82f7	1.4571217
42	0xbe71c66c	-0.23610848
43	0xbf2867a7	-0.6578316
44	0xc0809f67	-4.0194583
45	0x3ec5499f	0.3853273
46	0xc059e17b	-3.4043872
47	0xbfd5e7bd	-1.6711346
48	0x402b8323	2.679879
49	0xbfa98fc8	-1.3247004
50	0x3ff8e6a7	1.944539
51	0x3fef3df3	1.869078
52	0xbf2a17f3	-0.66442794
53	0xbf08f181	-0.53493506
54	0xc0719715	-3.7748463
55	0xc0391bca	-2.892321
56	0xc0b00519	-5.5006223
57	0x40085cce	2.1306643
58	0xbfcedf82	-1.6161959
59	0xbfb3eef6	-1.40573
60	0x400fba4d	2.245746
61	0xbfce5454	-1.6119485
62	0x40241a64	2.5641108
63	0x3ffd0a41	1.9768754
64	0xbe24a89e	-0.16079947
65	0xbf47af72	-0.78002083
66	0xbee2c2ec	-0.4428934
67	0xbcd25657	-0.025675936
68	0x3ed0d055	0.40783945
69	0x3f94cdf1	1.1625348
70	0xbfe142ce	-1.7598512
71	0xbf899a65	-1.0750242
72	0xbfb5e17e	-1.420944
73	0xbf1b0e8d	-0.6056908
74	0xbfda5fa6	-1.706044
75	0x3ec5ff44	0.38671315
76	0x3f65c1b5	0.897487
77	0xbe92ef01	-0.2869797
78	0x4007f5dc	2.124381
79	0x3fcd04ad	1.6017052

bias f4 [10]
0	0x3f10a53d	0.56502134
1	0x3fc87ff6	1.566405
2	0x3e7228f6	0.23648438
3	0xbe32fa03	-0.17478184
4	0xc006f5be	-2.108749
5	0x3f3252d8	0.6965766
6	0xbf278e24	-0.65451264
7	0xbe28e568	-0.16493762
8	0x3f09fe2c	0.5390346
9	0xbed54b8d	-0.41659203
