HW2/aML/resnet6.pt (torch, 659179 bytes, 27 tensors)

weight f4 [64, 3, 7, 7]
000000 2c a1 26 be bd 7d de 3e cc e0 f2 3c ec 35 a8 bd
       -0.1627242 0.43455306 0.029648207 -0.0821341
000010 63 35 1e be 17 6b 76 be 23 da 07 3f 8c 9f 55 be
       -0.15450053 -0.24064289 0.53067225 -0.20861644
000020 f7 c9 4d 3e b5 de 4a 3e 5b cf 25 3e f7 f1 d1 be
       0.20096575 0.19811518 0.16192381 -0.41004917
000030 46 79 86 bf b9 15 02 3d db 82 bd be d2 02 97 3d
       -1.050576 0.031758998 -0.37013897 0.07373585
000040 a5 75 26 3d 3a 82 41 bd 78 3e 42 bd b9 6a 86 be
       0.04063954 -0.047243334 -0.047422856 -0.26253298
000050 c2 29 66 3e 9d 82 99 be 2c f6 d1 be fa a0 1b 3e
       0.22476867 -0.29982463 -0.41008127 0.15198126
000060 b7 89 9b 3d d2 26 c3 bb 62 a5 0c bf a8 f1 ca 3d
       0.075946264 -0.0059555555 -0.54939854 0.099093735
000070 6f 15 46 be c5 15 11 bf f2 90 80 bd b5 52 79 3c
       -0.19344114 -0.5667384 -0.06277646 0.015217473
000080 d2 74 e7 3c 00 ef e4 be 58 40 c1 bd fa 48 0d 3e
       0.028253946 -0.44713593 -0.09436101 0.1379737
000090 0f 76 e0 be 30 54 13 bf 9a 8e c5 3c 27 83 87 bd
       -0.43840072 -0.57550335 0.02411585 -0.06616812
0000a0 e5 6c a0 bd ec 46 08 be 87 5d 84 3e 1e 6d 6f bd
       -0.0783327 -0.13308305 0.25852606 -0.05845367
0000b0 ae 1d 9b bd 13 d8 1b bc af ca 09 be 32 d9 68 3d
       -0.0757402 -0.009511965 -0.13456224 0.05684776
0000c0 b1 b2 3d be f5 c9 20 bd 40 e9 e1 3e a1 ee 8c bd
       -0.18525197 -0.0392551 0.44123268 -0.06881452
0000d0 7e e1 ef bd ad 61 17 be c3 df 6b be 06 17 06 3f
       -0.11712931 -0.14783354 -0.23034577 0.5237888
0000e0 d6 07 5e be 40 e9 7d 3e eb f2 7d 3e 62 ea 0c 3e
       -0.21682677 0.24796009 0.24799697 0.13761285
0000f0 9a 8b d0 be db a4 77 bf 5e 33 d1 bc d1 00 df be
       -0.40731508 -0.96735924 -0.02553719 -0.4355531
000100 9a 22 9d bb 13 66 23 3e f7 c4 59 3d a5 16 27 be
       -0.0047953846 0.15956907 0.053166356 -0.16317232
000110 89 ee a8 be 5d c8 61 3e 98 85 46 be 94 37 db be
       -0.32994488 0.22049089 -0.193869 -0.4281584
000120 92 39 ba 3d cb f7 8d 3c 03 e6 91 bd cb fc 0c bf
       0.09093012 0.017330071 -0.071239494 -0.5507323
000130 d4 e4 36 3e d3 7b 01 be 27 05 e9 be 3b c4 3c be
       0.17860729 -0.12644891 -0.45511743 -0.18434231
000140 b4 c6 bb 3d 9e 83 90 bd 9a 9b 0a bf 97 8e 6c bd
       0.09168759 -0.07056354 -0.5414368 -0.05775317
000150 52 cc 47 3e ad cf ba be 36 4a 01 bf 2a 53 87 3d
       0.19511536 -0.3648657 -0.5050386 0.06607659
000160 16 70 9f bd b1 fa db bd 80 ad 72 be 87 8f 27 3e
       -0.077850506 -0.10741175 -0.23698997 0.16363345
000170 3b 6d 01 3d ce dc 0a be 42 bf f0 bd f7 ad 38 be
       0.03159831 -0.13560793 -0.117552295 -0.18035112
000180 0d 8d f1 3c aa 55 65 be c7 69 09 be 24 1e d8 3e
       0.029486204 -0.2239596 -0.13419257 0.42210495
000190 4a 02 af 3a 58 47 bf ba 83 53 8a be a9 ee 48 be
       0.0013352123 -0.0014593406 -0.2701684 -0.19622292
0001a0 87 6c ef 3e b2 d8 91 be fc 52 43 3e f7 3c 9b 3e
       0.46762487 -0.28485638 0.19074625 0.3031995
0001b0 98 d5 5b 3e c1 f8 8c be d5 3a 88 bf 26 7d f3 3d
       0.21468198 -0.27533534 -1.0642954 0.118891045
0001c0 1c e2 c3 be 66 4a ec bc 14 89 cf 3d 32 15 47 bd
       -0.38258445 -0.02884407 0.101335675 -0.048604198
0001d0 ac 8d 01 be 23 6a ca be 98 55 00 3e 51 5e 74 be
       -0.126517 -0.395341 0.12532651 -0.23864104
0001e0 19 1b c5 be 19 dd 3e 3e 5f d8 85 3d 4a 72 9d bd
       -0.38497236 0.1863903 0.0653541 -0.076878145
0001f0 86 a2 1a bf 7f 89 4c 3d 73 32 02 be b4 c8 e2 be
       -0.6040424 0.049935814 -0.12714557 -0.4429375
000200 c1 b5 ba bd d6 f8 2b 3c 32 49 33 bd bc 97 07 bf
       -0.09116698 0.010496339 -0.043770976 -0.52965903
000210 67 60 f6 3b 84 a5 50 3e 6d 9c 96 be 32 93 09 bf
       0.0075188163 0.20375639 -0.29416218 -0.5374023
000220 6a 30 e7 3c 79 f2 1f bd 10 32 23 be c8 e5 56 be
       0.028221328 -0.0390496 -0.15937066 -0.20986092
000230 2e 00 9f 3e ff cd 2b bd e5 7b 27 be f1 85 d3 bd
       0.31054825 -0.0419445 -0.16355856 -0.10328282
000240 3d e5 36 bd 9b 43 e0 bb ac 19 4c be 1c 00 a4 3d
       -0.044652212 -0.0068439967 -0.19931668 0.08007833
000250 8c 8a 26 bd 66 33 88 bd 59 71 1b be cf f2 1e be
       -0.040659472 -0.066504285 -0.15179957 -0.15522312
000260 27 42 16 bd d5 94 76 3e df c8 f3 3d 47 85 b1 bd
       -0.03668418 0.24080212 0.119035475 -0.08667999
000270 25 3d d9 bd d8 d9 b1 bc 08 1e 59 3d 77 e5 20 3e
       -0.106073655 -0.021710321 0.053007156 0.15712534
000280 e5 60 ba 3d dc 73 8e 3e 43 31 47 3e 81 ea 35 3e
       0.091005124 0.2782277 0.19452386 0.17765237
000290 a2 31 27 3e 4c 4c 9d 3e 56 61 d4 3d 33 bd 96 3d
       0.16327527 0.30722272 0.10370128 0.07360306
0002a0 80 1e c0 3d 27 33 4d 3e 06 d1 69 3e be 0a 9f 3e
       0.093808174 0.20039044 0.22833642 0.31062883
0002b0 c5 31 11 3e 2d 28 52 3d 00 40 04 bd 08 88 5e bd
       0.14179142 0.051307846 -0.032287598 -0.05432895
0002c0 1d 75 88 bc 49 c0 47 3b c5 a7 e1 bd a0 68 a5 bd
       -0.016657406 0.00304796 -0.110183276 -0.08076596
0002d0 c6 d7 90 bd 3e 1d e0 bd c3 6e 81 be 78 70 76 be
       -0.070724055 -0.109430775 -0.25279817 -0.24066341
0002e0 4e ff 47 be 01 03 95 be cb d5 37 be 4c 36 18 bd
       -0.19530985 -0.29103854 -0.1795265 -0.037161157
0002f0 ee d8 92 bc 5a 31 11 be 4f 2e 8a be 7e 07 5d be
       -0.017925706 -0.14178982 -0.26988456 -0.2158489
000300 46 31 db bd c5 7c 8d bc 33 d0 7b bc 3c be 23 3c
       -0.107027575 -0.017271409 -0.015369463 0.009994086
000310 28 0c ca 3d f0 c6 01 bc 62 77 fb bc 2c dc 94 be
       0.098656 -0.007920966 -0.030696575 -0.29074228
000320 f8 4f 76 be d6 95 05 be f9 38 67 3e 1f e2 93 3d
       -0.24053943 -0.13045439 0.22580327 0.072208636
000330 d2 ac 79 3d c5 42 5f be 73 ec 1d be fc 59 2a 3e
       0.06095583 -0.21802814 -0.1542223 0.16635889
000340 bd 6e 05 3e 35 7d 5c 3e bc fd a2 3e f7 9b 0c 3e
       0.13030525 0.21532138 0.3183421 0.13731371
000350 85 01 94 3d 34 46 24 3e 72 e0 9d 3e 48 dd 4f 3e
       0.07226852 0.16042405 0.308353 0.20299256
000360 bd 9a f9 3d 4e 0d 36 3e 89 45 0a 3e 21 91 84 3e
       0.12187717 0.17778513 0.13503088 0.25891975
000370 e3 13 74 3e e2 15 39 3e 72 7a 0b 3d d8 59 a3 bd
       0.23835711 0.18074754 0.03405232 -0.07976121
000380 49 dd 5f 3d f4 a8 d4 3c 3c 31 8e bd 34 5c 21 3c
       0.054654393 0.02595947 -0.069429845 0.009848643
000390 4f 0f 42 bd 88 f7 30 be 7e 6c d5 bd bd cc 40 be
       -0.04737788 -0.17281926 -0.10421084 -0.18828101
0003a0 30 a1 26 be 13 db 94 be 14 61 84 be ee 71 71 be
       -0.16272426 -0.2907339 -0.25855315 -0.23578617
0003b0 0e a0 25 bd cf 4d 37 3d 93 22 c4 bd d7 83 83 be
       -0.040435843 0.04475194 -0.09576907 -0.25686523
0003c0 56 06 4f be f5 3f 03 be 71 57 bb bd 93 21 9a bd
       -0.2021726 -0.12817366 -0.091475375 -0.07525935
0003d0 ad 30 9d bd c3 e9 b2 3a b9 19 87 bc 93 a8 0c 3d
       -0.076753 0.0013649989 -0.016491758 0.034340452
0003e0 eb 20 6e be 44 f0 ff bd 7e 5d f0 bd 9d 5c 63 3e
       -0.23254745 -0.12496999 -0.11736582 0.22203298
0003f0 f3 c1 02 3e 12 01 d6 bc 7f 55 b8 bd 59 3c a6 bc
       0.12769298 -0.026123557 -0.09000682 -0.020292448

weight f4 [64]
000000 cf 1c b9 3f 08 d7 2e 3f b0 4e 88 3f cd 26 92 3f
       1.4461917 0.6829686 1.0649014 1.1418091
000010 48 b3 57 3f 2d 54 c9 3f 10 e9 3f 3f 60 43 8d 3f
       0.84257936 1.5728813 0.74965 1.1036186
000020 34 7d 69 3f a3 62 c6 3f 3c 38 b7 3f 57 cb 5f 3f
       0.9120667 1.5498852 1.4314036 0.87419647
000030 8b ae c2 3f 1c 84 0b 3f 16 99 46 3f 65 fa b6 3f
       1.5209516 0.5449846 0.7757734 1.4295164
000040 ae 69 d1 3f 87 dd a2 3e 35 d9 7e 3f 60 5b d2 3f
       1.6360376 0.31809637 0.9955018 1.6434135
000050 28 db dd 3f 65 88 38 3f 64 54 a2 3e 4b 6b e0 3f
       1.7332506 0.7208312 0.3170501 1.7532743
000060 27 33 c4 3f 10 57 cd 3f e0 85 39 3f 06 54 c7 3f
       1.532811 1.6042194 0.724699 1.5572517
000070 eb d1 90 3f b7 09 f9 3e 71 8b cd 3f 28 82 6c 3f
       1.1314062 0.48640224 1.6058179 0.923861
000080 bf cb f0 3f 6f 25 bd 3e e3 33 78 3f 91 87 31 3f
       1.8812178 0.36942622 0.9695417 0.6934748
000090 db 10 d3 3f 98 fd 96 3f 7a 40 ee 3f 9c 4d 3b 3f
       1.6489519 1.1796141 1.8613427 0.731653
0000a0 c0 b0 5f 3f b7 fe e2 3e 55 13 8d 3f 42 8b 54 3f
       0.87379074 0.44334957 1.1021525 0.8302499
0000b0 ef 51 33 3f 6c e9 d5 3f 92 ee aa 3f 4b fc 3d 3f
       0.70046896 1.671186 1.3354056 0.74213094
0000c0 ec 4b bf 3f 9c dc fa 3e 3e 21 dc 3f b4 8f 5b 3f
       1.4945045 0.48996437 1.7197645 0.8576615
0000d0 fb 59 b8 3f 17 63 69 3f 92 30 b0 3f 49 00 40 3f
       1.440246 0.91166824 1.3764822 0.75000435
0000e0 24 4f f4 3e e6 d0 3d 3f 8b 76 4f 3f 1a 38 2d 3f
       0.4771663 0.7414688 0.8104026 0.6766373
0000f0 f2 97 c8 3e 03 3d 15 3f 79 b3 83 3f 59 df e2 3f
       0.39178425 0.5829622 1.0289146 1.772441

bias f4 [64]
000000 2c f1 90 be a9 9f b2 3d 7c 68 32 bc 7d 78 a6 be
       -0.28309 0.08721859 -0.010889169 -0.325138
000010 01 96 c3 be d5 f6 1d be 12 c9 af be b3 5c 9d be
       -0.3820038 -0.1542619 -0.34333092 -0.30734786
000020 f2 80 03 bf 98 43 83 bd b8 cb c0 ba f9 28 09 3e
       -0.5136863 -0.06409377 -0.001470915 0.13394536
000030 c7 4f 78 3d 47 4f a8 bd cb 5b 25 be 87 65 c9 3d
       0.060622957 -0.08218246 -0.16148297 0.09833818
000040 d9 fe 97 3d eb 1b 96 bf 52 cb a1 be e5 54 39 3e
       0.07421655 -1.172727 -0.31600434 0.18098791
000050 e0 53 dc bd 91 ec 05 bf e6 3a 68 bf 47 3f 80 be
       -0.107581854 -0.52314097 -0.9071487 -0.25048277
000060 e8 0b fa bc 6a 42 47 be 4b fa ce bd 0f e6 a5 bd
       -0.030523255 -0.19458929 -0.10106333 -0.08100521
000070 74 00 73 3d a3 29 92 bf d7 64 a4 bc 06 bc df be
       0.059326604 -1.1418957 -0.020067615 -0.43698138
000080 67 f9 8a be 8c ca 92 bf f3 f9 cc bd d0 f2 6a 3e
       -0.27143404 -1.1468062 -0.100086115 0.22944188
000090 71 c2 91 bc 34 a9 93 be 70 15 72 bd 7f 98 32 bf
       -0.017792912 -0.2884003 -0.059102476 -0.6976394
0000a0 a8 b0 07 bf 31 47 75 bf 37 fb b3 be d9 f2 68 be
       -0.5300393 -0.95811754 -0.351526 -0.22748889
0000b0 9f 09 df be 2e 48 16 be 42 93 eb 3c 87 38 00 bf
       -0.43562028 -0.14675972 0.028756741 -0.50086254
0000c0 5e 1b f5 bd 09 95 7c bf 94 55 fb bd aa f4 d1 bd
       -0.119681105 -0.9866491 -0.12272182 -0.10251744
0000d0 79 9d 38 be 34 10 54 3e b4 13 de bd 8b ac 29 be
       -0.18028821 0.20709306 -0.10843602 -0.16569726
0000e0 09 eb 4b bf e9 e1 d3 be 2e 74 bc bd 74 ae 0a bf
       -0.7965551 -0.41383293 -0.09201847 -0.54172444
0000f0 88 d0 45 bf 39 08 e4 be 7d b8 12 3e 7a 86 54 be
       -0.7727132 -0.44537523 0.14328189 -0.20754424

running_mean f4 [64]
000000 ea 81 6f c2 54 1b 38 c0 ab f1 15 c2 49 e1 05 c2
       -59.87687 -2.876668 -37.486004 -33.470005
000010 ad 37 0e c1 8d e9 33 c2 07 f9 81 c1 9a 0d a4 c1
       -8.888593 -44.978077 -16.246595 -20.506641
000020 60 d5 de c0 03 ed 3d c2 23 77 2a c2 4d 17 92 c1
       -6.9635468 -47.481457 -42.616344 -18.261377
000030 05 9e 15 c2 a8 14 ea 3f 4e 1d b2 c1 f5 08 f4 c1
       -37.404316 1.8287554 -22.264309 -30.504374
000040 a8 34 2a c2 1b ba 3e 42 4e 12 aa c1 49 b2 2f c2
       -42.551422 47.681744 -21.258938 -43.924107
000050 f6 5b 60 c2 54 69 aa c0 cd 46 07 42 0c 55 49 c2
       -56.089806 -5.3253574 33.81914 -50.333054
000060 a4 a2 19 c2 ee 59 27 c2 86 fa 95 c1 ba 6f a5 c2
       -38.40883 -41.837822 -18.747326 -82.718216
000070 88 5a e5 c1 ad 8d f0 40 73 59 33 c2 c4 f3 c9 c1
       -28.669205 7.5172944 -44.837353 -25.244026
000080 01 1f 8d c2 ea 7c 50 42 a0 cc 24 c2 3b 48 85 c1
       -70.560555 52.121986 -41.19983 -16.660269
000090 81 32 a3 c2 30 2a 02 c2 57 d9 73 c2 8d f9 84 c0
       -81.59864 -32.5412 -60.962246 -4.1554627
0000a0 2c 30 8e c1 fb 86 03 42 a7 11 a8 c1 de ec 75 c1
       -17.773521 32.881817 -21.00862 -15.370329
0000b0 19 a0 86 3f 95 68 4c c2 b0 f1 01 c2 74 9e 56 c1
       1.0517608 -51.10213 -32.486023 -13.413685
0000c0 a1 59 83 c2 89 c4 3e 41 e7 55 6a c2 24 c2 98 c1
       -65.67506 11.922982 -58.58389 -19.094795
0000d0 c9 3f 95 c2 26 be d7 c1 02 ee 0f c2 16 6b 0e c1
       -74.62458 -26.967846 -35.98243 -8.901144
0000e0 a3 9e cc 40 46 3f 8c c0 d7 74 86 c0 5f 79 35 c1
       6.394365 -4.382724 -4.2017627 -11.342132
0000f0 d4 ce 52 41 87 18 37 c0 79 d9 d7 c1 30 30 c0 c2
       13.175495 -2.860872 -26.981188 -96.09412

running_var f4 [64]
000000 8a d7 fb 47 eb 81 50 46 e2 16 8f 47 bb e5 50 47
       128943.08 13344.4795 73261.766 53477.73
000010 8e 79 fc 46 00 41 99 47 77 d4 a1 46 0f 12 fe 46
       32316.777 78466.0 20714.232 32521.03
000020 90 bf 5a 46 ab 12 82 47 39 b7 a1 47 2c d8 e8 46
       13999.891 66597.336 82798.445 29804.086
000030 63 72 8d 47 17 b3 02 46 13 4a 3c 47 0f 26 28 47
       72420.77 8364.772 48202.074 43046.06
000040 a4 f8 95 47 20 66 9f 47 47 fc e6 46 fe 02 9e 47
       76785.28 81612.25 29566.139 80901.984
000050 0d 38 d1 47 90 a1 a8 46 74 c6 15 47 b2 6a b1 47
       107120.1 21584.781 38342.453 90837.39
000060 e5 d2 84 47 3d f6 94 47 47 37 db 46 19 1e 51 48
       68005.79 76268.48 28059.639 214136.39
000070 5d 9b 5b 47 bc af 82 45 8d 38 9d 47 fc af 34 47
       56219.363 4181.967 80497.1 46255.984
000080 9a 96 2d 48 0e 2a be 47 fe cf b1 47 5f bc 53 47
       177754.4 97364.11 91039.984 54204.37
000090 6f c0 61 48 87 0c 46 47 1f e1 01 48 e5 9a fd 45
       231169.73 50700.527 132996.48 8115.362
0000a0 0f ce ac 46 0f 0c be 47 26 4e 8b 46 62 fa c7 46
       22119.03 97304.12 17831.074 25597.191
0000b0 8b a5 9c 46 ea 51 b3 47 54 dc 2c 47 73 1d bd 46
       20050.771 91811.83 44252.33 24206.725
0000c0 c8 80 06 48 bf f0 e1 45 fc 27 f0 47 f2 9c 1c 47
       137731.12 7230.0933 122959.97 40092.945
0000d0 e6 20 37 48 56 ea 44 47 b7 2c 5c 47 0f b7 b6 45
       187523.6 50410.336 56364.715 5846.8823
0000e0 4c 57 54 45 8a 90 20 46 9e c2 1c 46 bd a0 5e 47
       3397.456 10276.135 10032.654 56992.74
0000f0 db 36 06 46 a1 2e 2b 46 c1 f6 27 47 05 d0 91 48
       8589.714 10955.657 42998.754 298624.16

weight f4 [64, 64, 3, 3]
000000 d0 80 68 be c5 87 35 3d 36 b7 b0 3d 10 54 9d 3e
       -0.22705388 0.044318933 0.08628695 0.30728197
000010 49 2f f9 3e 26 78 d9 3e 51 97 d8 3e ce 59 3b 3f
       0.48668888 0.42474478 0.42302945 0.73183906
000020 97 3c 48 3f 04 88 9c 3d 66 8f 67 bd 89 fa c9 3c
       0.7821745 0.076431304 -0.05653324 0.024655597
000030 d6 65 46 3e 17 9a f1 3c 0c c9 61 3e a5 30 20 be
       0.19374785 0.029492421 0.2204935 -0.15643556
000040 28 76 3c be b6 a0 ca 3c 6b 4b 26 be ea e5 51 be
       -0.18404448 0.024734836 -0.16239707 -0.20497862
000050 ac d8 99 be dd 11 87 bd ea 5f 13 be de 18 6a be
       -0.3004812 -0.06595204 -0.14392057 -0.22861049
000060 99 ad b6 3a 97 2e 3c 3d 27 6b 04 be 94 79 97 3e
       0.0013937234 0.04594287 -0.129315 0.29584944
000070 c4 70 aa 3e 34 ab b1 3e 09 30 44 bd ac f8 c2 3b
       0.33289158 0.3470093 -0.047897372 0.005950054
000080 40 b6 ec 3d 92 a7 da 3b b0 d7 c1 bd 85 fb 4b be
       0.11558199 0.006672808 -0.09464967 -0.19920166
000090 20 74 8b 3d 85 f5 f6 bd 3a 67 28 be 5c 7f 5b 3e
       0.068092585 -0.12058548 -0.16445628 0.21435302
0000a0 46 e4 74 3e ad 8b dc 3d 68 9b 07 be fe 21 39 3d
       0.23915204 0.107688285 -0.13242877 0.045198433
0000b0 e5 b5 48 3c 3a 79 d5 3d 49 01 ea bb 5c 4e a0 3d
       0.012250398 0.10423513 -0.0071412665 0.07827446
0000c0 69 9a 19 be df 6d 28 be b1 72 a1 bd d4 7a e3 bd
       -0.15000309 -0.16448162 -0.07883204 -0.11107412
0000d0 6e 54 c1 bc a3 c0 06 3d 6a ca 8a be 2f 8c 86 bd
       -0.02359983 0.032898556 -0.27107555 -0.06569707
0000e0 39 bb 4e bd 1d fa c7 bd 0e d7 56 bd 44 e8 0b be
       -0.05047152 -0.09764502 -0.052451186 -0.13662821
0000f0 bd 37 92 ba 10 33 29 3d 35 1b c0 bd c1 96 ea bc
       -0.0011155527 0.041308463 -0.09380189 -0.028636338
000100 db 40 2e be 39 ed 23 3c 28 dd ae bc 0e f8 e0 bd
       -0.17016928 0.010005289 -0.02134569 -0.10984813
000110 29 df 2c bd 3d 29 3e bd 22 f5 e2 bd e9 0b 28 3c
       -0.04220501 -0.046426047 -0.110819116 0.010256746
000120 26 b3 79 be e8 15 e6 bd 9a 2f 82 3e bd ba ac 3e
       -0.24384746 -0.11234647 0.25426942 0.3373622
000130 3e 22 26 3e 2b 13 53 3e 01 7b 34 3e 95 7c b4 3e
       0.16224 0.20612781 0.17625047 0.352513
000140 0d 2f be 3e 42 c0 05 bf 73 c5 5c 3d d4 3f 8a 3e
       0.37145272 -0.5224649 0.05389924 0.27001822
000150 d5 21 91 be 6c e3 bd be 87 c1 62 be e9 dc 7c 3e
       -0.28346124 -0.37087572 -0.22144137 0.24693646
000160 ca 0a 60 3c dc 48 89 bd b9 09 84 bd d4 d5 85 be
       0.013674447 -0.0670335 -0.06447167 -0.261397
000170 ed 55 c6 bc 9b 09 85 be a4 f7 18 bf 39 50 d7 be
       -0.024210894 -0.2598389 -0.5975287 -0.42053393
000180 1b 53 6e be 0c 92 ab be e1 d0 42 be 69 b7 9c bc
       -0.2327389 -0.33509862 -0.19024993 -0.019130426
000190 32 74 0c be 32 f4 1c 3d 7d 3f 8f 3d 92 fb 1e be
       -0.137162 0.03831882 0.06994531 -0.15525654
0001a0 4c f6 66 3d 6c 6b 93 3d eb ef 18 3c 37 7d 0e 3e
       0.05638723 0.071982235 0.009334545 0.13914953
0001b0 96 5e fb 3e 0c a7 a3 3d 7e d1 f5 bd e6 02 9b bd
       0.490956 0.07990846 -0.12002848 -0.07568912
0001c0 de db b5 bc ce cb a4 be 25 e7 3a bf 80 98 bf be
       -0.022199567 -0.3218674 -0.7300895 -0.37421036
0001d0 f5 43 a1 be 66 5e f3 3d ba 85 bb bd 98 1b b7 3d
       -0.3149716 0.118832394 -0.09156366 0.0894081
0001e0 a5 58 b1 bc a7 26 22 be 0b 92 47 3d 08 80 af bd
       -0.021648714 -0.15835057 0.04872326 -0.08569342
0001f0 b6 bc 0f be f4 3f 14 3e 2a e0 6d bc 91 d6 6c bd
       -0.14036831 0.14477521 -0.014518777 -0.057821814
000200 31 7b 7a 3d 1d 67 1d bd 10 c6 6a 3b 03 f2 ee 3c
       0.06115264 -0.038428415 0.003582362 0.029168135
000210 60 b3 6d be 6f 2f 56 bd 09 6d 59 3d d6 58 70 3e
       -0.23212957 -0.05229133 0.0530825 0.23471388
000220 d7 23 7d 3d a7 74 dd bd 5a 3d 8b be e4 a5 cd bc
       0.061801758 -0.10813265 -0.27195245 -0.025103517
000230 7d 46 16 be af de c5 be c6 8c 87 be 8d d9 d1 be
       -0.14675327 -0.38646457 -0.2647459 -0.4098629
000240 87 d1 73 bf 3e a6 0e bf e6 c4 c7 be a3 c8 5b bf
       -0.9524159 -0.55722415 -0.3901741 -0.8585302
000250 45 42 ac be 6c 4e dd bd 27 4a a6 be 10 7d 7e bd
       -0.3364431 -0.108059734 -0.3247845 -0.062130988
000260 81 8e 5e be e9 f1 4e 3e c2 a2 f8 3d bf b3 02 3d
       -0.21734048 0.20209469 0.121404186 0.0319097
000270 7a d3 38 3e b8 6c c4 3d 97 24 ff ba 60 ec 41 bd
       0.18049422 0.09591049 -0.0019465861 -0.047344565
000280 32 63 8b 3c fe d9 6b bd e3 52 38 be 61 35 6f bd
       0.017015073 -0.05758094 -0.18000369 -0.058400515
000290 68 bf 51 3e 70 9a 52 be d3 c7 8e bd 16 cc 99 3d
       0.20483172 -0.20566726 -0.06971707 0.075096294
0002a0 bd 22 30 3c 6d d1 ad 3c 2e be 83 bd 94 9e 06 bf
       0.01075047 0.021218026 -0.06432758 -0.5258572
0002b0 14 e4 e5 be 3e b1 72 be 7f 42 e0 be d3 6a 02 be
       -0.44900572 -0.23700425 -0.43800732 -0.12736063
0002c0 b5 56 2c be 01 37 50 be d4 ec 7f 3e 2f af a0 3e
       -0.16829951 -0.20333482 0.24992687 0.31383654
0002d0 00 a7 6c be 12 2f 7a be 19 85 84 be 3c 84 c7 3c
       -0.2311058 -0.24432018 -0.25882795 0.024355046
0002e0 7c 0d 65 be 14 a8 82 be 82 c8 30 3f d0 8b c6 3e
       -0.22368425 -0.25518858 0.6905595 0.38778543
0002f0 bf 65 b7 3e fc de 21 3e ee c8 4f bd c5 69 8c be
       0.35819814 0.15807718 -0.05072873 -0.27424446
000300 b5 2a 9c ba cd 2b 0d bd 45 ea 17 be 73 07 a2 be
       -0.0011914583 -0.0344656 -0.1483546 -0.31646308
000310 15 3d 21 be 78 e6 94 be 73 31 17 3e 15 d7 02 3e
       -0.15745957 -0.29082084 0.14764957 0.1277736
000320 54 f4 01 3e 6f 07 16 3d 95 bc f6 3c 46 59 90 3d
       0.1269086 0.036628183 0.03011922 0.070482776
000330 5e 22 c5 bd 8f bd 76 bc 8b c8 f8 bd 2a 07 ac be
       -0.09625696 -0.015059843 -0.121476255 -0.33599216
000340 57 ce 70 bd 8b 6c 9c 3d 49 ee b9 3d f0 dd 2d 3b
       -0.05879053 0.076378904 0.090786524 0.002652999
000350 2b d1 c3 bc fd e7 45 3f 64 c1 25 3f ed 39 ba 3e
       -0.02390345 0.7730711 0.64748216 0.3637232
000360 13 77 ae be 8d 67 45 be d2 20 be bd dd 7a 7e 3d
       -0.3407522 -0.19277783 -0.09283604 0.06212889
000370 18 9a a5 3c c9 58 4d be ca 21 ab 3e 7f a9 03 3e
       0.02021508 -0.200534 0.33424217 0.12857626
000380 30 8e 35 bf 1e e4 d8 be b6 4b 7b be 54 06 81 bc
       -0.70920086 -0.4236154 -0.245406 -0.015750088
000390 97 da e6 3d d3 5b ab 3d 7c 5f 0f bc fd 9f 21 3e
       0.112721615 0.083671235 -0.008750793 0.15783687
0003a0 e0 d0 60 3e f0 30 7e be dc 4a e0 3c 75 93 ab bd
       0.2195468 -0.24823356 0.027379446 -0.083777346
0003b0 99 87 10 3c 55 4e b8 3e 4c 93 a3 3d 04 cc 0b 3e
       0.0088213915 0.35997263 0.07987079 0.13652045
0003c0 56 af 76 bd ff f6 86 bd 59 2d 83 3c 9b ff c3 bd
       -0.060225807 -0.065900795 0.016012834 -0.09570237
0003d0 7a 4d df bd 18 f1 b3 3d 74 d6 d4 37 74 18 3e be
       -0.10903449 0.08786219 2.5372232e-05 -0.18564016
0003e0 85 bc ac bd 38 41 11 3f 5e 0e d4 3e 10 3e 0b 3f
       -0.08434395 0.5674014 0.4141721 0.54391575
0003f0 bc ab 21 3e f4 6d 03 3d ef 5a dc bd 9d ca d4 3d
       0.15788168 0.03208728 -0.10759532 0.10390208

weight f4 [64]
000000 f2 e2 78 3f 86 04 be 3f 0a 4b c2 3f 7b f5 b5 3f
       0.9722129 1.484513 1.517915 1.421554
000010 80 3b 44 3f 67 4e fa 3e f9 29 3d 3f 2d 33 55 3f
       0.7665329 0.4888794 0.7389217 0.83281213
000020 5a 7f 46 3f 88 c3 20 3f 8e f3 99 3f 73 cb 96 3f
       0.77538073 0.62798357 1.2027452 1.1780838
000030 7e 09 9a 3f 07 7a 7e 3f 35 2e 70 3f 71 1e a0 3f
       1.2034147 0.9940495 0.93820506 1.250929
000040 36 99 44 3f 19 02 94 3f ad 85 21 3f 56 91 63 3f
       0.7679628 1.156314 0.630946 0.8889364
000050 a0 61 1e 3f 5d 39 16 3f 1e 13 a5 3f a3 15 5e 3f
       0.61867714 0.5868128 1.2896459 0.86751765
000060 c0 57 a3 3f 8e 24 a1 3f a1 e8 7a 3f 3c e2 27 3f
       1.2761154 1.2589281 0.98011214 0.6557958
000070 9a 2e 4a 3f d5 17 77 3f b3 a0 a6 3f 3f fc a4 3f
       0.7897736 0.9652074 1.3017792 1.2889479
000080 6c 62 ac 3f e6 2d 4c 3f ac 2c 38 3f 81 19 a2 3f
       1.3467536 0.79757535 0.71943164 1.2664033
000090 68 83 a8 3f 7b 5d 49 3f 62 cf 46 3f e3 45 4a 3f
       1.3165102 0.78658265 0.7766019 0.7901289
0000a0 bc 1a 7f 3f 5f 81 58 3f a6 9d 95 3f 47 08 87 3f
       0.9965017 0.84572405 1.1688735 1.0549401
0000b0 a8 4a ef 3e d6 80 13 3f f7 9d c1 3f 48 a9 15 3f
       0.46736646 0.57618463 1.5126332 0.5846143
0000c0 41 43 95 3f 83 86 65 3f f4 12 aa 3f 80 2d a5 3f
       1.1661149 0.89658374 1.3287034 1.290451
0000d0 19 ed ba 3f 31 ff 5e 3f 17 f9 9f 3f ee 0d 11 3f
       1.4603606 0.8710814 1.2497891 0.5666188
0000e0 a2 b4 0a 3f 6f 7d a9 3f d4 dc df 3f 71 0e 1d 3f
       0.54181874 1.3241404 1.7489266 0.6135016
0000f0 95 2c 3a 3f 49 c3 44 3f 4e a6 a4 3f 0a 3a b1 3f
       0.72724277 0.7686048 1.2863252 1.3845837

bias f4 [64]
000000 8b 59 3a bf 44 10 a4 bd 75 20 4e be 97 93 ec bd
       -0.7279288 -0.08010915 -0.20129569 -0.11551588
000010 46 64 1a be d9 bb 8a bf 83 5b ac bf 22 49 9f be
       -0.15077314 -1.0838577 -1.3465427 -0.31110483
000020 d1 c3 38 bf 7e 3f 70 bf e1 30 dd bd b5 1d 9d bd
       -0.7217379 -0.9384688 -0.108003385 -0.07671682
000030 c9 a0 39 be 57 d6 25 be eb 12 30 be 26 8f b5 be
       -0.18127741 -0.16195045 -0.17194717 -0.35460776
000040 37 80 75 be cf 77 9b be 8f f3 58 bf 72 70 46 bf
       -0.23974691 -0.30364844 -0.8474664 -0.7751533
000050 82 41 aa bf cb 35 c8 bf f4 98 17 be 66 73 0f be
       -1.3301241 -1.5641416 -0.1480444 -0.14008865
000060 ef e2 48 be 4f 6c 93 bd 8e 70 cb be 00 93 86 bf
       -0.19617818 -0.071983926 -0.3973431 -1.0513611
000070 a0 bb 1a be 90 09 aa be b5 3c e3 bd 60 63 88 bd
       -0.15110636 -0.3321042 -0.11095563 -0.06659579
000080 b9 55 31 bd 1f 40 24 be 36 5e 53 be a5 a8 10 be
       -0.043294642 -0.16040085 -0.20641407 -0.14126833
000090 0d b9 56 be bd 69 76 bf b9 8f 37 bf 70 e6 71 bf
       -0.20969029 -0.96255094 -0.7170368 -0.94492245
0000a0 09 5e cc bc f0 9e ae be c7 c5 b3 3c 8a 45 30 be
       -0.024947183 -0.34105635 0.021944894 -0.17214027
0000b0 30 18 83 bf 44 79 33 bf d9 a1 fe be 57 9f b4 bf
       -1.0241756 -0.7010691 -0.49732855 -1.4111127
0000c0 dc d6 3a be bd 02 18 be f9 b6 ef bd ec 71 7f 3c
       -0.18246025 -0.14844795 -0.11704821 0.015591126
0000d0 e3 8e 82 bd 04 b5 1b be d5 58 3a be d5 31 a3 bf
       -0.0637491 -0.1520577 -0.18197949 -1.2749583
0000e0 29 1c 9d bf 86 2a a8 be 93 9c f3 bd 76 93 7b bf
       -1.2274219 -0.32844943 -0.118950985 -0.9827188
0000f0 2a c9 37 bf 48 9b 4d bf 16 28 cb bd 5d 5e 55 be
       -0.71791327 -0.80315065 -0.09919755 -0.20836778

running_mean f4 [64]
000000 c0 06 25 c0 82 23 69 c0 13 08 12 c1 90 39 6b c0
       -2.578537 -3.6427922 -9.126971 -3.6753883
000010 27 ea d0 c0 78 8e 78 40 29 78 0e 40 40 47 bb c0
       -6.528583 3.8836956 2.226084 -5.8524475
000020 32 7c c3 3e 83 a3 e0 bf c2 e7 31 c0 be dd df bf
       0.3818069 -1.75499 -2.7797704 -1.7489545
000030 a9 66 ba c0 16 e5 d1 c0 8f 7c 65 c0 8d 0e 36 c0
       -5.8250318 -6.5592146 -3.5857275 -2.844638
000040 a7 89 99 c0 ca 11 64 c0 5b 31 41 40 7b ec b5 3e
       -4.7980533 -3.5635858 3.0186374 0.35531983
000050 7d 2c e5 3f 53 42 84 bf 5a ce 8a c0 c0 b1 63 c0
       1.7904202 -1.033274 -4.3376894 -3.557724
000060 64 94 4b c0 f3 09 03 c0 61 16 3f c0 25 d3 6e c0
       -3.180932 -2.0474823 -2.985741 -3.7316372
000070 b1 11 d2 c0 08 39 9b bf fd 0d 6c c0 17 a4 dd bf
       -6.5646596 -1.212678 -3.6883538 -1.7315701
000080 4f c6 14 c0 ce 18 9e c0 90 50 90 c0 f6 65 c5 bf
       -2.3246038 -4.940528 -4.5098343 -1.5421741
000090 92 51 9f bf 15 48 5a c0 e2 b4 a7 3f ce 0c 9a 40
       -1.2446768 -3.4106495 1.3102076 4.814063
0000a0 95 d2 a1 c0 f5 4d 93 bf 61 be 84 c0 82 d8 af c0
       -5.056956 -1.1508166 -4.1482396 -5.495179
0000b0 fc a5 fb 40 d7 68 58 3f c2 36 1f c0 31 af bd bf
       7.864012 0.8453497 -2.4877172 -1.4819089
0000c0 d6 3b 13 c1 6c b0 2f c0 0b 31 08 c0 7c 01 54 c0
       -9.202108 -2.745143 -2.1279933 -3.3125906
0000d0 95 03 d6 c0 9a 87 a6 c0 30 c5 d3 bf 40 da fe be
       -6.6879373 -5.204053 -1.6544552 -0.49775887
0000e0 11 6e ba 3f 5e cf 96 c0 07 94 dc c0 ad 98 dc bf
       1.456484 -4.7128134 -6.8930697 -1.7234093
0000f0 ec 36 d7 bf 8d 08 82 3e 95 16 71 3f d3 09 13 be
       -1.6813636 0.2539715 0.9417508 -0.14359216

running_var f4 [64]
000000 3e bd 52 42 9d 5c ea 42 38 15 6a 43 44 85 97 42
       52.684807 117.180885 234.08289 75.760284
000010 73 9a aa 43 5d 62 5f 42 c3 db 07 42 83 de 42 43
       341.20663 55.846058 33.96461 194.86919
000020 2c 56 87 41 70 ea 31 42 e7 6e eb 42 d6 61 e6 42
       16.917076 44.478943 117.716606 115.191086
000030 0b 8a 5d 43 cd 23 91 43 4c 24 14 43 10 35 bd 42
       221.53923 290.2797 148.14178 94.60364
000040 5a 51 33 43 cc 90 63 42 8c d6 b1 41 a0 a1 bb 41
       179.31778 56.891403 22.22976 23.453918
000050 db 8c 4d 42 41 b7 be 41 69 ab 10 43 05 24 01 43
       51.387554 23.83948 144.66957 129.1407
000060 0f 41 5a 43 0a 54 c4 42 bc ce b0 42 f9 88 2a 42
       218.25414 98.16414 88.40378 42.633762
000070 e4 72 c1 43 42 ea 8f 42 cd 3c 50 42 9f c9 8c 42
       386.89758 71.957535 52.059376 70.39379
000080 f6 94 82 42 2d 32 99 43 24 f1 84 43 87 cd f6 42
       65.29094 306.392 265.8839 123.40142
000090 44 e0 d1 42 1e eb 9d 41 e6 1b c9 41 cd a2 55 42
       104.93802 19.739803 25.138622 53.408985
0000a0 33 df 4d 43 6e b6 8a 42 85 17 22 43 d9 1b 4e 43
       205.87187 69.35631 162.09187 206.10878
0000b0 c2 6c b8 42 6d 71 2a 42 14 46 0a 42 6b 7e 2a 42
       92.21242 42.610767 34.568436 42.623455
0000c0 f5 eb dd 43 fe 77 de 42 74 82 96 42 fb 0a 94 42
       443.8434 111.23436 75.25479 74.02145
0000d0 fd 0b 82 43 69 b4 73 43 05 4a 2a 43 da 76 48 42
       260.09366 243.70473 170.28914 50.116066
0000e0 43 1d 3f 42 f3 11 67 43 a2 a7 3c 43 dd 35 ac 41
       47.778576 231.07011 188.65482 21.5263
0000f0 fe c6 a9 42 f2 78 fc 41 26 93 8e 42 12 01 cc 42
       84.88866 31.559055 71.2874 102.00209

weight f4 [64, 64, 3, 3]
000000 5f 03 d0 3e f8 17 b4 3e 79 c6 18 3f 8e f9 12 3e
       0.40627572 0.35174537 0.59677845 0.1435301
000010 d4 1c 0e be 80 b1 69 3d ec 34 c3 3d 80 ff d4 bd
       -0.13878185 0.057054043 0.095315784 -0.10400295
000020 03 8c 42 be 10 d5 ec bd 13 de 12 3e 80 46 4e bd
       -0.18998723 -0.11564076 0.14342527 -0.050360203
000030 60 54 a5 bc 1e c9 30 bd ed aa 82 3c 6b ba ac be
       -0.020181835 -0.04316055 0.015950644 -0.33735976
000040 b2 50 8c be f5 21 53 be b1 19 de be f2 a9 e7 be
       -0.27405316 -0.20618422 -0.43378976 -0.45246845
000050 6b af 11 bf 4d d6 d4 be 86 f2 10 bc c5 d7 7d be
       -0.5690829 -0.4156975 -0.008846885 -0.24789341
000060 bf 59 10 3e f2 57 92 3e 51 e9 d4 3d f7 0f ac bd
       0.14096735 0.28582722 0.10396064 -0.084014826
000070 99 8d c6 bd 71 56 08 bc 01 b6 83 3e a6 a0 3d 3e
       -0.09694976 -0.0083213905 0.25724795 0.18518314
000080 22 80 d2 3d 77 12 ff 3d 41 bb a4 bd 1e c5 8a be
       0.10278346 0.12454694 -0.08043528 -0.27103513
000090 07 7b 09 3e 3f a1 f9 3d 84 73 bc 3c 0a 73 bf 3d
       0.13425837 0.121889584 0.0230043 0.09348114
0000a0 99 08 2d 3e 29 6f fe 3d ea 45 c1 3c 0c f8 b8 3b
       0.16897811 0.12423546 0.023592908 0.005644804
0000b0 d9 27 16 3d 4b d7 e4 3d 7c 2d 82 bc e7 c9 5e 3c
       0.036659095 0.111738764 -0.01589083 0.013597942
0000c0 5f 1d 81 bd e5 d2 4c bb 04 bd 34 bb 86 18 7c be
       -0.0630443 -0.0031253633 -0.0027578482 -0.2461873
0000d0 0b e1 44 be 51 68 9e be 54 61 76 be e5 1e 5e be
       -0.19226472 -0.30938962 -0.24060565 -0.21691473
0000e0 24 dc 8c bd e9 f0 fb 3d b6 ef 5a 3e 31 77 95 3e
       -0.06877926 0.12301809 0.21380505 0.29192498
0000f0 0f 57 53 3f b2 6e 0d 3f 94 6b b3 3e a6 29 82 bd
       0.82554716 0.5524703 0.35043013 -0.063556
000100 f5 b8 f4 3c f9 d9 24 bc 45 37 b5 bd df 4d 8d bd
       0.02987335 -0.010061734 -0.088484325 -0.06899618
000110 fb 44 b1 bd 57 67 7e 3d 9d 7b e3 3c 0c f2 2e bd
       -0.08655735 0.06211027 0.027768904 -0.042711303
000120 cc db e2 be cd ac c1 be 0d 45 ba bd 1b 4c 5b 3e
       -0.44308317 -0.3782715 -0.09095202 0.2141575
000130 27 54 1c 3e 78 3d f8 3d 2a c1 87 3d 1f 53 06 3e
       0.15266477 0.12121099 0.0662864 0.13117646
000140 75 b8 c2 3d fe b3 c8 3e f0 3f 87 3e 4d a4 cf 3e
       0.09507839 0.39199823 0.26415968 0.4055504
000150 b5 9f 9b 3d 1d 99 09 bd e8 9c 24 3e 2e 3f 91 be
       0.07598821 -0.033593286 0.1607548 -0.28368515
000160 b6 4a 77 be 62 42 35 3d 21 02 23 be b4 b1 a7 bd
       -0.24149594 0.04425276 -0.15918781 -0.08188191
000170 b6 57 1c 3d ce 37 c9 bd 17 c5 83 bd 42 04 a3 bb
       0.038169585 -0.09825097 -0.06434076 -0.004974873
000180 45 00 0a be 63 10 67 bd 2b 8a 07 bd 20 32 ff bd
       -0.13476665 -0.056412112 -0.03309075 -0.124607325
000190 73 b1 e2 bc b3 0c 72 3c bf 0c ab bd 83 a8 22 be
       -0.027672505 0.014773536 -0.083520405 -0.15884595
0001a0 35 9c 23 be 7f bf 12 3e 77 71 44 3e 62 e4 a2 3e
       -0.15977557 0.14330862 0.19183908 0.31814867
0001b0 33 38 fe bb 56 dd e1 bd f4 1b 92 be 58 3b 14 bd
       -0.0077581643 -0.110285446 -0.28536952 -0.036189407
0001c0 a1 6a 7d bd 24 e4 24 3e 9b cc 95 bc a7 3b 1f 3e
       -0.061869267 0.16102654 -0.01828604 0.155501
0001d0 fd 9c e7 3e 92 6a 82 3c e4 95 4b 3b 20 82 b0 bd
       0.4523696 0.015919957 0.0031064684 -0.086185694
0001e0 fe 46 35 3e a4 17 e7 3d e4 0b 2b 3e 3c 5c 01 3e
       0.17702863 0.11283806 0.16703755 0.12632841
0001f0 8b f1 9e 3d 20 0f 81 3e 7c 89 03 3e f5 5f 0e 3e
       0.077609144 0.25206852 0.12845415 0.13903792
000200 b3 38 4b bd 3f 81 61 3e 9f a1 3e 3e d0 23 12 3e
       -0.04961462 0.2202196 0.18616341 0.14271474
000210 dd ab 8e 3e a8 0c 64 3e 25 ab ec 3b 30 4d 73 be
       0.27865496 0.22270453 0.0072225505 -0.23759913
000220 5b 81 c6 3a f2 65 7b 3e 77 ff 38 3c 1a 68 91 3d
       0.0015144752 0.24550608 0.011291376 0.07099934
000230 71 4b 9e bd 88 90 3d 3e 19 e2 34 be 0d 83 2a bf
       -0.07729233 0.18512166 -0.17664374 -0.6660622
000240 2e 94 21 3d 12 9d 27 3d b8 d7 a1 bd bd 69 8c 3d
       0.039447956 0.04092128 -0.07902473 0.068561055
000250 8a dc f9 3d 41 35 e1 3d 0f e3 ea 3d 41 3c 02 3e
       0.122002676 0.109964855 0.11469089 0.12718298
000260 02 4e a7 bd fb 86 d0 be d9 53 92 be 09 c0 52 3d
       -0.08169176 -0.40727982 -0.28579596 0.05145267
000270 7a 2c 81 be 6e b1 1e be 92 c1 60 bd b6 da 0e bc
       -0.25229245 -0.15497372 -0.054872103 -0.008719137
000280 9c e0 3f 3d 3a 70 fb bd 17 15 8c be 44 2d 8c be
       0.046845064 -0.12277265 -0.2735984 -0.27378285
000290 6d 8a 93 be 4f 64 63 3c 5d 57 23 bd a5 ad 71 bd
       -0.28816548 0.013878896 -0.039878238 -0.05900349
0002a0 c1 84 92 3d 57 51 35 3e ad 1a 2c 3e dc 92 2e 3d
       0.07154227 0.1770681 0.16807051 0.042620525
0002b0 f2 66 31 3e 90 75 c8 3e 41 e9 7a 3d 88 f3 00 3e
       0.17324427 0.39152193 0.061257605 0.125929
0002c0 25 62 50 3e 14 d5 cb be fd bb 86 be 3b 88 e8 bd
       0.20349939 -0.39811003 -0.263153 -0.11354109
0002d0 31 3b 00 3e cc 47 84 bd 78 39 90 be 87 8d 2a be
       0.1252258 -0.06459007 -0.28168845 -0.16655551
0002e0 19 6e 7f be b5 2e f2 be 2d b7 d4 bd 5d e8 a6 bd
       -0.24944343 -0.4730126 -0.103865005 -0.081497885
0002f0 c4 fe 7e be 6b 50 2e 3e f9 b5 05 3d db a5 3f bd
       -0.24901873 0.17022865 0.032644246 -0.04678903
000300 bc 66 a7 3e a2 9c 88 3e df c3 f5 3c 93 0c 19 bd
       0.32695568 0.26682 0.030000625 -0.037365507
000310 51 32 35 3d c1 99 35 bd 1f 2b cd 3d 18 9d 0d be
       0.04423744 -0.044336084 0.1001799 -0.13829458
000320 bd c7 d6 be 62 d7 49 bd c7 a5 c5 be e3 f7 a5 be
       -0.41949263 -0.04927767 -0.3860304 -0.32415685
000330 92 62 8c 3d a4 8e f3 bd 04 ce 60 be b3 8c 9b 3d
       0.06854738 -0.11892441 -0.21953589 0.075951956
000340 7e af 8a 3c f8 ce ab bd fa 39 47 3e 63 df 86 3d
       0.016929384 -0.083890855 0.1945571 0.065855764
000350 eb 06 03 bc ea b9 df 3d 02 61 2b 3b 74 53 dd 3c
       -0.007997255 0.10924132 0.002615035 0.027017333
000360 2a ff e4 3d c7 c6 eb 3d e5 14 0f be 44 7e 39 bd
       0.11181481 0.11512523 -0.13972814 -0.045286432
000370 6c 20 82 bd 23 c0 e1 3d 40 9a c3 be 93 ff b3 be
       -0.0635384 0.11022975 -0.3820362 -0.35155925
000380 a5 b7 da be 28 e2 0b be 0a 2e 93 be b9 35 c4 be
       -0.42718235 -0.1366049 -0.28746063 -0.38322237
000390 e9 ad 3a 3e b7 6a 23 3e 79 ef fa bd 41 ad 14 3f
       0.18230404 0.15958677 -0.12252707 0.58076864
0003a0 93 9d 14 3f 9f 76 a8 3e 17 5b 09 be b8 33 03 be
       0.5805294 0.32903 -0.13413654 -0.12812698
0003b0 f2 df ea bd 8c 39 12 be ed 6e 73 be 6b 44 a3 be
       -0.114684954 -0.14279765 -0.23772784 -0.31888136
0003c0 3c 66 4c 3d b3 ec 9e bd 86 c6 83 bd 42 f8 50 3d
       0.049902186 -0.077599905 -0.0643435 0.051018007
0003d0 b2 e0 52 be b1 61 86 be 73 f5 13 be 0a bd 3e be
       -0.20593527 -0.26246408 -0.144491 -0.186268
0003e0 ab a6 33 be de 9c 0f be 22 19 ff bd 60 69 e7 bd
       -0.17544048 -0.14024684 -0.124559656 -0.112993956
0003f0 aa 83 22 3e b4 bf 85 3e 4d 72 d9 3d 4a ec 8f 3d
       0.15870538 0.2612282 0.10617504 0.070274904

weight f4 [64]
000000 b6 4e fe 3f 21 fe db 3f 4a 32 e1 3f 58 a2 0b 40
       1.9867771 1.7186929 1.7593472 2.1817837
000010 2f cd d6 3f d1 56 d3 3f eb 48 04 40 4e 4e 02 40
       1.6781367 1.6510869 2.0669506 2.0360293
000020 34 f2 fa 3f d5 d9 cc 3f 46 a5 05 40 ae b8 e9 3f
       1.9605165 1.6003977 2.0882125 1.8259485
000030 76 17 f9 3f 40 05 ea 3f 73 24 fc 3f 49 93 03 40
       1.9460285 1.8282852 1.9698623 2.0558646
000040 9f 69 d2 3f 0c 90 b6 3f e9 e2 bd 3f d0 89 04 40
       1.6438483 1.426271 1.4834872 2.0709114
000050 a4 c6 d2 3f 9a d6 a8 3f ea 86 ce 3f 9d 0b ed 3f
       1.646687 1.3190491 1.6134923 1.8519169
000060 b3 ab e0 3f 15 5a fa 3f df af a5 3f 7e f7 ce 3f
       1.7552398 1.9558741 1.2944297 1.6169279
000070 6d d1 06 40 5a 01 fb 3f 18 13 05 40 6c e2 d6 3f
       2.1065323 1.9609787 2.0792904 1.6787848
000080 c6 21 0a 40 d9 e0 f4 3f 8e bb ea 3f ed 9e e4 3f
       2.1583114 1.9131118 1.8338487 1.7861
000090 b7 b2 9c 3f 6c 86 c5 3f cb c3 cd 3f 79 8a cf 3f
       1.224204 1.5431647 1.6075376 1.6214134
0000a0 1b 3c 00 40 63 2f bf 3f bb 7e e6 3f 52 a1 cd 3f
       2.0036685 1.4936336 1.8007425 1.6064856
0000b0 aa f2 d1 3f ed 19 f9 3f 28 d9 ed 3f 20 80 f3 3f
       1.640218 1.9461037 1.8581896 1.9023476
0000c0 e3 ba a2 3f 76 b2 f0 3f b8 a5 da 3f 0b c3 de 3f
       1.2713283 1.8804462 1.7081823 1.7403272
0000d0 d7 72 f2 3f e2 76 ed 3f 0c dd 09 40 17 ed df 3f
       1.8941296 1.8551905 2.1541166 1.7494229
0000e0 03 b0 e0 3f d5 85 0b 40 5e 3a e6 3f d7 0a e3 3f
       1.7553715 2.1800435 1.7986562 1.7737683
0000f0 42 6e cc 3f 25 fb 14 40 6f 6f 0b 40 f3 79 91 3f
       1.5971148 2.3278286 2.1786764 1.1365341

bias f4 [64]
000000 3c cf ba be e4 8d 5d 3e 24 1d c7 3d b6 9e 8a be
       -0.36486232 0.21636158 0.09722355 -0.27074212
000010 0a 48 00 3d fd 68 07 3c c6 f8 a6 be 87 38 c1 be
       0.0313187 0.008264777 -0.32611674 -0.3773844
000020 f0 b1 65 be e6 74 db 3d 1b 3e f0 3d 3e 4f 42 3e
       -0.22431159 0.10715656 0.11730596 0.18975541
000030 8c dd 77 3d d4 08 21 3e c2 4b 11 be 2e cd 0b 3e
       0.060514018 0.15726024 -0.14189056 0.13652489
000040 83 c7 92 3d 0b c0 ef bd bd b8 59 be 3e dc 61 3e
       0.0716696 -0.11706551 -0.21261878 0.22056672
000050 a3 b9 8f bd 27 ef 5a be 25 2e a5 3e 78 cf b9 be
       -0.07017829 -0.21380292 0.32261768 -0.362911
000060 d5 98 04 3d e1 e1 3b bf a7 3a 53 be c2 df 24 3d
       0.032372314 -0.7339154 -0.20627843 0.040252455
000070 b9 3c 92 bb 3e 08 99 3e 07 2a aa 3d 9f 06 05 be
       -0.004462805 0.298891 0.08308797 -0.12990807
000080 e7 70 e6 be 65 f1 d5 3d 28 a3 6c bd e4 11 03 3e
       -0.45008013 0.10446433 -0.057772785 0.12799793
000090 12 ed df 3d 5b 4f 4d be 17 c2 34 3d f9 33 98 be
       0.109338894 -0.20049803 0.04413041 -0.29727152
0000a0 7d 2a 71 be 8b 8b eb bd 01 88 1a 3e 0c c5 12 3e
       -0.23551364 -0.11501225 0.15090944 0.1433298
0000b0 81 ca 43 3e 3d 2b 1a 3d 8c 4b 02 be 4b 7a b9 bc
       0.19120218 0.03763889 -0.12724131 -0.022641322
0000c0 eb f9 3e bc dd 8a 44 3e ec 91 d2 3d 27 8c 9e 3c
       -0.011656265 0.19193597 0.10281739 0.01935394
0000d0 58 ad a4 be df 30 8d 3e 92 f1 8d 3b 94 5e a5 3e
       -0.321635 0.27576348 0.004331776 0.3229872
0000e0 ff f9 ba 3d 0a 86 10 3e 72 a9 4b 3e ff 30 38 bd
       0.09129714 0.14113632 0.19888857 -0.0449686
0000f0 c8 26 6a 3e 1d fb 59 be 50 39 31 3e cd 1e b1 3c
       0.22866356 -0.21287198 0.17307019 0.021621132

running_mean f4 [64]
000000 20 e2 22 bf 8d b2 ef 3e c7 db 6d 40 e3 a3 40 bf
       -0.6362629 0.4681591 3.7165391 -0.7525007
000010 06 b1 6e 3f f5 ba a3 40 78 f2 58 bf a2 cc f3 be
       0.93238866 5.116572 -0.8474498 -0.4761706
000020 9c f8 f9 bb 65 3f bd bf 92 26 38 3f 5c 93 a4 3e
       -0.0076285135 -1.4784971 0.71933854 0.32143676
000030 83 aa dd 3e e5 76 2d c0 42 a1 f3 bd 55 c8 a6 bf
       0.43294153 -2.7103817 -0.11895992 -1.3029886
000040 5f 03 d8 bf 84 1a 33 c0 f0 6d 04 bf 63 ba bf 3f
       -1.6876029 -2.7984934 -0.5173025 1.4978756
000050 08 a1 02 bf 53 15 e5 bf b5 9e 19 40 2c 62 61 40
       -0.51026964 -1.7897133 2.4003117 3.521617
000060 b1 21 2e c0 0f 00 61 be 84 b2 66 3e fe f9 06 c0
       -2.7208064 -0.21972679 0.22529036 -2.1090083
000070 26 13 25 c0 1b e3 ba bf 9c e1 98 c0 d1 97 06 40
       -2.5792937 -1.4600557 -4.77754 2.1030161
000080 23 88 15 bf c5 45 53 3f 89 9a d4 bf a2 6e b1 3f
       -0.58410853 0.82528335 -1.660966 1.3861887
000090 43 dd 45 c0 67 51 e7 bf 44 98 83 c0 69 bd 27 c0
       -3.0916297 -1.8071717 -4.112337 -2.6209357
0000a0 37 2a 31 c0 a4 34 80 be ec ec 8d 40 a3 fe f2 3e
       -2.7682016 -0.25040162 4.435171 0.47459897
0000b0 b2 a2 65 40 9e cf 08 40 5a cd e0 bf 0e de b0 3f
       3.5880551 2.137672 -1.7562668 1.3817766
0000c0 dc 79 d6 c0 39 66 f6 bd e9 32 be bf 11 57 fd bc
       -6.7023754 -0.12031216 -1.4859287 -0.030925306
0000d0 50 83 2a 3e b2 37 4d 40 7f 49 18 40 da e5 34 3e
       0.16651654 3.2065244 2.3794858 0.17665806
0000e0 ba f8 7f 3e 10 5b a8 be 26 aa 81 40 eb d3 f7 3f
       0.24997225 -0.32881975 4.05202 1.9361547
0000f0 2b 24 80 bf 10 ec 60 40 03 73 93 40 f5 a9 84 c0
       -1.0011038 3.514408 4.6077895 -4.1457467

running_var f4 [64]
000000 96 05 e0 40 a2 d2 b2 40 35 05 07 41 23 7b d5 40
       7.000682 5.588212 8.438771 6.6712813
000010 af 54 8d 40 96 66 03 41 f0 2d 8d 40 a0 43 f9 40
       4.4165874 8.212545 4.4118576 7.789505
000020 dd ac 25 41 c5 97 54 40 24 12 88 40 56 07 97 40
       10.354703 3.3217633 4.2522144 4.7196455
000030 e7 f0 b0 40 b8 02 a7 40 60 e8 1a 41 22 70 91 40
       5.529407 5.219082 9.681732 4.544938
000040 d0 a5 b2 40 90 de a9 40 97 4d 2c 41 57 c4 c2 40
       5.582741 5.3084183 10.768943 6.0864673
000050 4a 7f 2b 41 b2 0c 88 40 7b d9 ae 40 b8 35 4e 41
       10.718576 4.2515497 5.464048 12.888115
000060 a8 ab 57 41 4f d9 d0 40 14 43 a8 40 72 d9 37 41
       13.479408 6.526527 5.2581882 11.490587
000070 96 f3 c0 40 b8 98 79 40 e6 bc 4f 41 8f d5 aa 40
       6.0297346 3.8999462 12.983618 5.338569
000080 43 25 ab 40 34 27 d8 40 83 d7 8a 40 e1 ba cc 40
       5.3482985 6.7547855 4.3388076 6.3978124
000090 5f ad 8e 41 df 39 b9 40 25 3e 89 41 87 91 3f 40
       17.834654 5.7883143 17.155344 2.9932573
0000a0 be 1f ad 40 41 db ad 40 94 b3 0d 41 91 ab ac 40
       5.410125 5.4330144 8.856342 5.395943
0000b0 8b c1 d1 40 1e 05 bc 41 21 46 56 40 c3 11 ff 40
       6.554876 23.502499 3.3480303 7.970918
0000c0 6a 5a d3 41 64 16 40 40 00 df 5b 41 13 93 cc 40
       26.419147 3.0013666 13.741943 6.3929534
0000d0 ac 2e 4f 41 7e 78 0b 41 b3 96 1a 41 ea 02 ac 40
       12.9488945 8.716917 9.661792 5.3753557
0000e0 c4 bc d3 40 09 a9 db 40 d7 b5 42 41 4f e2 00 41
       6.6167927 6.864384 12.1693945 8.055251
0000f0 93 c7 89 40 41 70 0a 41 bb 17 e1 40 f1 ea 72 41
       4.305612 8.652406 7.034147 15.182359

weight f4 [64, 64, 3, 3]
000000 86 8a af be a3 e4 96 be 25 f4 86 be bd f1 aa 3d
       -0.34285372 -0.2947131 -0.26358142 0.08346889
000010 c1 eb 9c 3e eb cb e9 3e 4c 53 b8 3e 24 d4 d9 3e
       0.30648616 0.4566339 0.3600105 0.42544663
000020 33 9d 28 3f af 21 1a be f9 f7 f6 bd 06 95 a3 bd
       0.65864867 -0.15051912 -0.12059016 -0.07987408
000030 68 bd 09 3b 84 22 7c 3d 0b 8a a0 3d 68 69 5f 3e
       0.0021017436 0.061556354 0.078388296 0.21817553
000040 17 4e 79 3e 4a 9a 35 3e e6 2c be bc 33 8a 1f 3d
       0.24346195 0.17734638 -0.023214769 0.038950156
000050 7c a6 77 bc ae 28 49 3b 08 86 04 3d 7f b6 40 3c
       -0.015115377 0.0030694413 0.032354385 0.01176226
000060 dd fe 94 3d 09 8a 35 3e e0 b0 25 3e 0a b8 8d be
       0.07275174 0.17728437 0.16180754 -0.27679473
000070 db f0 23 be 1d 42 7c 3c c5 09 fd bd 0e 83 97 3c
       -0.16009848 0.015396622 -0.12355379 0.018495109
000080 f6 68 0e 3e 49 2f 24 3c 0e b4 d9 3d 7b 29 f4 3d
       0.13907227 0.010021039 0.10630046 0.11921974
000090 ee b3 8e be 1e ee 69 bd c4 46 7b bd e5 73 83 be
       -0.2787165 -0.057111852 -0.061346784 -0.25674358
0000a0 95 6f ef bd 02 45 bf bd 71 ce 82 be 24 ca bd bd
       -0.116912045 -0.09339334 -0.25548127 -0.09267071
0000b0 64 42 50 bd 0f de 69 3e 3c b5 49 3e 39 48 ca 3e
       -0.050844565 0.22838615 0.19698042 0.39508227
0000c0 ba c6 4b 3e 0c 29 84 3e 48 3b f6 3e 79 af 5d 3e
       0.19900027 0.25812566 0.48092103 0.21648969
0000d0 17 87 89 3e b8 d2 d6 3e 3b 68 3b be cd ad 34 be
       0.26860878 0.4195764 -0.1830148 -0.17644425
0000e0 a7 f7 45 3d 24 c2 b8 be 21 19 8d be f1 3e 2b be
       0.048331883 -0.36085618 -0.27558234 -0.16723229
0000f0 88 e2 24 be 3b ea 7b be 50 01 65 be 3b 0f 2a 3e
       -0.1610204 -0.2460107 -0.22363782 0.16607372
000100 70 c4 43 3e 18 9f 71 ba bd 55 40 3e b0 4c 8f 3e
       0.19117904 -0.0009217127 0.18782707 0.27988195
000110 dc de 68 3e a7 78 ee 3d e3 28 57 3e 8c 31 8f 3e
       0.22741264 0.11644106 0.21011691 0.2796749
000120 78 b7 ce bd aa 36 6a bd 58 82 94 bd e2 31 b9 3d
       -0.10093588 -0.057181038 -0.072514236 0.090427175
000130 1e c8 05 3e fe 82 81 3e cd 79 60 3e ed b5 9d 3e
       0.1306462 0.25295252 0.21921463 0.3080286
000140 0a 6d ca 3e 28 8b dd bd ca d2 a9 3c 06 b3 ec bc
       0.39536315 -0.108175576 0.020730395 -0.028893959
000150 3f 64 27 be dc 80 0c be 10 88 c9 bd d3 78 28 be
       -0.16346835 -0.13721031 -0.09840405 -0.16452341
000160 b5 1d 80 bd df 70 33 3d 8b 5d 05 be 2e 50 f7 bd
       -0.06255666 0.043808814 -0.13023965 -0.1207584
000170 18 fc 5c 3d 86 da 2b be b8 69 96 bd 43 3c bb 3d
       0.053951353 -0.16782579 -0.07344383 0.091423534
000180 e0 d6 8c 3d 68 75 ed 3c eb 6d a2 3d 8f 8c 9a bd
       0.06876922 0.028986648 0.079311214 -0.07546341
000190 7b 3e 03 be 5a 98 64 be 3c 2a d5 bc 30 bf 9c bd
       -0.12816803 -0.22323743 -0.026021115 -0.076536536
0001a0 e0 03 35 be b2 00 7f 3d e7 8c 7a bc d9 d1 08 bd
       -0.1767726 0.062256522 -0.015292383 -0.03340325
0001b0 03 93 98 3e b6 02 40 3e b8 54 1b 3e 45 37 9f 3e
       0.2979966 0.18751034 0.15169036 0.31096855
0001c0 80 a1 0e 3d 64 ba 02 bd 1d a3 af 3e d1 4a dd 3d
       0.034821987 -0.031916037 0.34304133 0.10805286
0001d0 8f cd ab 3d 8e 7e 4f be ef cc 4b be a3 87 14 bd
       0.083888166 -0.2026312 -0.19902395 -0.036262166
0001e0 02 7a 06 be 8a 6a 96 bd cf 42 93 3d 09 f2 c7 bd
       -0.1313248 -0.073445395 0.07190477 -0.097629614
0001f0 e6 a1 11 bd f2 dc e8 bd 13 70 98 be 4c 2e 33 be
       -0.03555479 -0.11370267 -0.29773006 -0.1749813
000200 79 9d bf bd bd e0 58 bc ed 55 ac 3d dd 7c 57 3d
       -0.093562074 -0.0132371755 0.084148265 0.052609313
000210 2b 9e cc 3e 44 0e b9 3e 17 d5 a3 3e aa ca 69 be
       0.39964423 0.36143696 0.31998512 -0.22831216
000220 a2 ac 16 be 7a 7d 3c be b6 9f 4b bd 09 0a c9 3b
       -0.14714292 -0.1840724 -0.04971286 0.0061352295
000230 34 7a 6a b9 fa 39 5d bc 54 46 01 3e ed 35 cc 3d
       -0.00022361503 -0.013502592 0.12624484 0.09971223
000240 e6 eb 95 be 89 24 9f 3d 29 57 94 3e a3 f9 0c be
       -0.2928154 0.077706404 0.28972748 -0.13767104
000250 0a 41 f3 3d d1 18 7f 3e 8d 35 13 3e aa 3f 8c 3e
       0.118776396 0.2491181 0.14375897 0.27392322
000260 74 49 a5 3e 86 a6 74 be a4 fa bf bd 19 1e 91 bc
       0.32282603 -0.23891649 -0.09373978 -0.017714547
000270 a4 51 82 be 2c fe 44 be 50 d6 00 be 7a a1 b2 be
       -0.25452912 -0.19237584 -0.12581754 -0.34888822
000280 56 2c 90 be c8 2e 2d be d4 6c 45 3b d1 bd ad 3d
       -0.28158826 -0.16912377 0.003012468 0.0848347
000290 b3 04 45 3d 18 4d 12 be 06 4d d5 bd ee 78 06 3d
       0.048100185 -0.14287221 -0.10415082 0.03283017
0002a0 07 2e 2d be d2 3a f0 bd 8a 19 83 3d c6 a2 6c 3e
       -0.1691209 -0.11729969 0.064013556 0.23108968
0002b0 52 53 76 3e a7 24 08 3f 92 ff 92 3e bd fc 6b 3e
       0.24055222 0.5318093 0.2871061 0.23045631
0002c0 35 40 10 3f f0 3b 1b 3f e0 bd 12 3f 6e f2 40 3f
       0.5634797 0.6063833 0.57320976 0.7536992
0002d0 ea 89 24 be b0 13 ad be f6 9f bc be a6 5f 80 3d
       -0.16068235 -0.33804083 -0.3684079 0.062682435
0002e0 6b b6 38 3e 0e fd ac 3e a5 f4 0e 3e 6d 86 e7 3e
       0.18038337 0.33786815 0.13960512 0.45219746
0002f0 f7 78 26 3f 88 d3 a2 be 3c 49 3d be 32 af 47 be
       0.6502833 -0.3180201 -0.18484968 -0.19500425
000300 d3 c4 2d be b4 c2 10 be 9c af 55 be b6 35 9f bd
       -0.16969614 -0.14136773 -0.20867771 -0.077739164
000310 2a 78 97 bd 45 f2 71 bd 56 b4 d6 bd ac 3f 9b bd
       -0.07395966 -0.059068937 -0.10483615 -0.07580504
000320 14 78 20 bd be de 2f bd c8 cb 02 be 15 26 58 bd
       -0.039177015 -0.042937033 -0.12773049 -0.052770693
000330 93 40 e6 bc 55 d0 01 be 7f 2f 56 bd 75 d7 c6 bd
       -0.028106963 -0.12677129 -0.05229139 -0.09709064
000340 7f da a8 be 2b 3e 19 bf 27 49 46 bd eb 39 c0 be
       -0.329792 -0.59860486 -0.048409607 -0.37544188
000350 af bb 2e bf 8d 52 a8 bd 63 79 a2 be 46 63 22 bf
       -0.6825513 -0.0821887 -0.31733236 -0.6343273
000360 d9 db 0a bf d5 54 e8 be 1b 14 a3 be c9 7d a6 be
       -0.5424171 -0.45377222 -0.31851277 -0.3251784
000370 d8 83 9c be 6a 06 89 be 58 cc a4 3d c8 0b 37 bd
       -0.3056934 -0.26762706 0.08046788 -0.04468897
000380 d2 c6 20 bd 4f 29 00 be df f7 6f 3d 23 94 88 3d
       -0.03925211 -0.12515758 0.058585998 0.0666888
000390 76 be 59 3d 98 eb 91 3e 96 9a cd 3e ab 4b 39 3e
       0.053160153 0.28500056 0.40157002 0.18095271
0003a0 78 78 f2 3e 93 6f 04 3f 86 79 3b be d6 cc 3f be
       0.47357535 0.5173275 -0.18308076 -0.18730482
0003b0 ab 2f 5b be 52 01 38 3c 96 39 3b 3d 9c b8 03 3e
       -0.21404903 0.011230784 0.045709215 0.12863392
0003c0 91 10 4d 3e 33 39 8c 3e ac be a5 3e 23 e2 d4 be
       0.20025851 0.2738739 0.32372034 -0.4157878
0003d0 c8 31 0d bf 1a 74 47 bf 9a 82 8a be 3d 5e b7 be
       -0.55154085 -0.7791153 -0.27052766 -0.35814086
0003e0 73 01 f8 be 4a b0 8a 3d 48 98 39 3e 57 15 57 3e
       -0.48438606 0.06771906 0.18124497 0.21004234
0003f0 f0 ab ad be 5c 65 ac be d2 7b f5 be e3 90 80 be
       -0.3392024 -0.3367108 -0.4794603 -0.2511054

weight f4 [64]
000000 ab de 37 3f 31 f5 54 3f 6c f7 8c 3f 4c 6a 9b 3f
       0.7182414 0.8318663 1.1013007 1.2141814
000010 f8 bb 8b 3f c0 5c 6a 3f f8 00 81 3f 43 9f 49 3f
       1.0916739 0.91547775 1.0078421 0.7875864
000020 d6 5e f5 3e d1 30 2a 3f c8 34 23 3f c5 c9 80 3f
       0.47923917 0.6648074 0.6375241 1.0061575
000030 2c 18 90 3f 7e d3 a9 3f 66 c3 62 3f aa d6 a8 3f
       1.1257377 1.3267667 0.88579404 1.319051
000040 f3 44 42 3f 0d cb a6 3f ce 3f 41 3f 3b 85 31 3f
       0.7588646 1.3030716 0.75487983 0.6934392
000050 50 b0 81 3f 9a f7 87 3f 1e 93 c5 3f 6b e3 ae 3f
       1.0131931 1.0622437 1.5435522 1.3663152
000060 18 45 40 3f 9f 34 b3 3f df 52 30 3f 22 1d a6 3f
       0.7510543 1.4000434 0.6887645 1.2977641
000070 37 8c 99 3f 76 11 45 3f 3c 7a 7a 3f 44 d1 75 3f
       1.1995915 0.7697977 0.97842765 0.9602244
000080 8d a0 83 3f 81 c5 af 3f 4a eb 30 3f 8b ca c7 3f
       1.0283371 1.3732148 0.6910902 1.5608686
000090 cc 45 9c 3f 0d 0d 32 3f ef 67 3d 3f 17 ff 34 3f
       1.22088 0.69551164 0.73986715 0.70701736
0000a0 8a 25 9c 3f e7 a7 29 3f 20 bf a0 3f 45 52 8d 3f
       1.2198956 0.66271824 1.2558327 1.1040732
0000b0 ab cc 90 3f 30 00 b4 3f f5 d7 92 3f e8 a1 88 3f
       1.131246 1.4062557 1.1472155 1.067441
0000c0 08 b3 8f 3f 5a 6c b0 3f 30 30 94 3f ae 77 80 3f
       1.1226511 1.3783066 1.1577206 1.0036523
0000d0 8a 92 b7 3f 62 72 5e 3f 04 c0 98 3f ad d1 75 3f
       1.4341595 0.86893284 1.1933599 0.96023065
0000e0 0b ca 88 3f 97 3e ba 3f 0c 9f 34 3f ff 32 54 3f
       1.0686659 1.4550351 0.70555186 0.82890314
0000f0 96 92 9c 3f 0b 79 4c 3f 5f 33 4f 3f 70 02 94 3f
       1.2232234 0.79872197 0.8093776 1.1563244
