HW2/aML/resnet4.pt (torch, 360239 bytes, 17 tensors)

weight f4 [64, 3, 7, 7]
00000000: 5bdc 78be 742e 8abe 41c3 a2be e104 97bd
00000010: c09f 9bbd 2a21 de3d 26d0 ef3c f21f db3d
00000020: c033 47be 4f03 a9bd aeb6 68be b14b 1bbc
00000030: b193 11be 0ba0 16be 99d1 af3e b493 743d
00000040: 833d 36be 439f 67be 85e6 12be efbd 7cbe
00000050: 70fa 8abe 3373 ad3e c83c 793e b36b c23c
00000060: 4965 f3bd 1d54 5cbe 29b8 1bbe ab77 10be
00000070: d19a c5bc f08c 883e 5ccb e53e b8ff b93e
00000080: dbfd 063e d5eb f7bd e194 2cbe b6fa 07be
00000090: 174a 07bc 6dce 353e fd46 953e c6f2 b43e
000000a0: 205f 193e 02b3 79bd 4952 42be 6831 52be
000000b0: 7d53 68bd 8c69 85bd 25aa 07bc 8f8b ca3d
000000c0: d5d4 f13c 3f12 5ebe 53f4 98be db58 a9be
000000d0: cd66 30be ba19 f7bd 224a 56bd b330 543d
000000e0: a451 b03d 59b2 4bbe 4b30 8cbd 0809 25be
000000f0: b275 edbd bf90 0fbe 55c2 90bd 038f 903e
00000100: 081f e23d 1431 40be 03ec 46be ea5c 35be
00000110: f941 66be 25a7 4fbe f91a 5f3e c618 b63e
00000120: a0c2 d9bc 2168 93bd 6ad2 54be 12b6 08be
00000130: 764d 1abe d212 923d 90fa be3e c11e c73e
00000140: 953f aa3e 6bb2 c83d f1a5 68bd d879 c1bd
00000150: 264e e4bd 1390 a9bb 9259 3c3e 890b ae3e
00000160: 3846 b63e d128 373e 0f4f f4bd 1e0a dfbd
00000170: 057e 08be bb55 b8bd 2162 82bd 35e7 db3c
00000180: 7a0b 0d3d 457e 333d 1c89 64be 5d54 a0be
00000190: eaf2 97be fca9 87bd f05a 6fbc 74a3 693d
000001a0: ca6f 38bd cdb6 2a3e 0abe 22be 27cb bfbd
000001b0: 002d dabd 5255 97bd 694a 7f39 cfa3 00bd
000001c0: 87aa c13e 091f 193d f209 18bd 0e93 8cbe
000001d0: 37f3 5cbe 6e5c 48be 462a 5abe b7e2 9f3e
000001e0: 65d8 923e 072e e23c d41e 94bd 9a66 4fbe
000001f0: 142f 06be a1b8 4abe cb65 b83c bcd6 ac3e
00000200: 7681 003f 8d0f a53e 5a81 e23d 1deb 2fbe
00000210: e77e 17be c4c2 7cbe 8d57 35bc 2de1 803e
00000220: 92dd 963e c8d7 743e 2a70 b23d 052a f4bd
00000230: 7006 cdbd d0ac 10be fba9 7abd d754 883d
00000240: 0b45 043d 86cc d53c eb50 e13d e144 cd3c
00000250: 34d6 cc3d 699f 94bc 897b 26be 8442 163e
00000260: 9df5 1d3e 81d9 e93d 2e1d 1abe 4247 79be
00000270: 1473 40be eabf 8e3d b33b 8b3e cb7a 4e3c
00000280: 4ee8 efbd f214 33be ba03 afbe fff0 fa3d
00000290: e675 b13e 4346 bd3d 31dd eabc 9c4f 31be
000002a0: 8a0b 71be 7aad 203e d447 163f 1272 703e
000002b0: 223b c9bd 71ed 543d 7d07 52be f4a7 2f3e
000002c0: cd8e b03e 8157 443e a356 fbbd daab 47be
000002d0: c405 43be 39a4 81be b69a 703e 66fe 1d3e
000002e0: 412f 28be 26aa 67be 56d4 0ebe 139c d2bd
000002f0: f8ef 7abe 7fa2 1f3d 6acf 5bbe e57b 7ebe
00000300: d4ae 49be 6143 f0bc fe42 0f3d 07c3 1fbe
00000310: cd16 a23d a041 e73c c117 0bbe 767a 38be
00000320: beb6 f23d 46fc 2a3e 2c90 003b bbcf 5dbe
00000330: eb0c 06be 577c 7cbe 30f2 813d dc35 873e
00000340: 4440 ea3d 2b57 48be 240d 81be 6a45 a8be
00000350: fdd2 403e 4255 c33e 89b0 363d 3cc4 30bd
00000360: 45c2 04be 6235 03be a86c 1b3e 44f5 ed3e
00000370: 2791 9e3d 2747 46bd 2dcb 743b 8ac1 6abe
00000380: df88 2d3e b2dc d03e 76a4 d13d 0f6b 25be
00000390: 5d91 7fbe 9954 81be fdfc 3abe b2fa 633e
000003a0: d80f f13d d542 8cbe ad40 aebe 1ae7 09be
000003b0: b9b3 bb3c 2180 7dbe 0349 0e3e b82a 20be
000003c0: d37c 8bbe a99a 0abe c404 5b3d 580a 003d
000003d0: 5eae 64bd 75cb 11bd 608a fc3d 6aa6 d8bd
000003e0: 06ea 2dbe f009 353e eb92 3a3e d79c 163d
000003f0: 1f24 30be 2ca8 65be 4ad4 8abe fc88 003e
-0.24302809 -0.26988566 -0.31789592 -0.073739775 -0.07598829 0.10846169 0.029274058 0.106994525
-0.19453335 -0.08252584 -0.22725937 -0.009478495 -0.14216496 -0.14709489 0.34339598 0.059711173
-0.17796902 -0.22619347 -0.14345749 -0.24681829 -0.27144194 0.33876953 0.24339592 0.023732996
-0.11884553 -0.21516462 -0.1520697 -0.1410815 -0.024121674 0.26670027 0.44881713 0.3632791
0.13182776 -0.12105528 -0.16853668 -0.13279232 -0.0082574105 0.17754526 0.29155722 0.3534147
0.14977694 -0.06096173 -0.18976702 -0.2052666 -0.056720246 -0.06514272 -0.008280312 0.098899
0.029520432 -0.21686648 -0.29873905 -0.33075604 -0.17226715 -0.12065454 -0.052316792 0.051804256
0.08609322 -0.19892253 -0.06845149 -0.16116726 -0.11594714 -0.1402006 -0.07068316 0.2823411
0.11041075 -0.18768722 -0.19425969 -0.17711225 -0.22486104 -0.20278604 0.21787633 0.35565776
-0.026582062 -0.071975954 -0.20783392 -0.13350704 -0.15068612 0.07132496 0.3730054 0.3889065
0.33251634 0.097996555 -0.05679888 -0.09447068 -0.11147718 -0.0051746457 0.18393543 0.33993176
0.35600448 0.17886664 -0.11929142 -0.108906016 -0.13329323 -0.09000727 -0.06366373 0.026843647
0.034434773 0.043821592 -0.22317928 -0.31314364 -0.29677516 -0.06624219 -0.0146090835 0.057040647
-0.045028485 0.16671295 -0.15892807 -0.0936492 -0.10653114 -0.073893204 0.00024346415 -0.03140622
0.37825415 0.037383113 -0.03711886 -0.27455944 -0.21577154 -0.19566509 -0.21305189 0.31227657
0.2868072 0.027609838 -0.072324425 -0.20253983 -0.13103896 -0.19796993 0.022509476 0.3375758
0.5019754 0.32238427 0.11059828 -0.17179532 -0.14794503 -0.24683672 -0.011068237 0.25171795
0.2946592 0.23910439 0.087128 -0.11922077 -0.100109935 -0.14128423 -0.061197262 0.06656807
0.032292407 0.026098501 0.11001762 0.025057258 0.100017935 -0.018142419 -0.16258062 0.14673811
0.15425725 0.11418439 -0.15050194 -0.24343589 -0.18793899 0.069701985 0.27193984 0.012602518
-0.117142305 -0.17488459 -0.3418253 0.122529976 0.34660262 0.09241917 -0.028669925 -0.17315525
-0.23539558 0.15691176 0.5870335 0.23481014 -0.09825732 0.051984254 -0.20510669 0.17153913
0.34483948 0.19174005 -0.12272384 -0.1949915 -0.19045168 -0.25320604 0.23496518 0.15429077
-0.16424276 -0.226235 -0.13948187 -0.10283675 -0.24505603 0.038973328 -0.21465841 -0.2485195
-0.19695598 -0.029329004 0.034975998 -0.15601741 0.07914505 0.028229535 -0.1358328 -0.18015465
0.118512616 0.16697797 0.0019617183 -0.21661274 -0.13090865 -0.24656807 0.06345022 0.2640828
0.11438039 -0.19564502 -0.25205338 -0.3286546 0.18830486 0.38150984 0.04460195 -0.043155894
-0.12964733 -0.12813333 0.15178168 0.46476185 0.07742529 -0.0484077 0.0037352548 -0.22925392
0.16946743 0.40793377 0.102364466 -0.16154121 -0.24957795 -0.25259855 -0.1826057 0.22263601
0.117706 -0.2739474 -0.3403372 -0.13467064 0.022912847 -0.24755909 0.1389504 -0.15641296
-0.2724367 -0.1353556 0.05347134 0.031259865 -0.055830352 -0.035594422 0.123310804 -0.10578616
-0.16983804 0.17679572 0.18220107 0.036770668 -0.17201279 -0.22427434 -0.2711509 0.12552255

weight f4 [64]
00000000: 9f58 7b3f 9a25 2d3f 65ca 433f 7b5e 9e3f
00000010: 1990 f33e 0e9e 0640 1763 f03f f4ab f63f
00000020: 83b7 943f d906 d03f f915 fc3f 665d 0c3f
00000030: 1b2d 8f3f ee6a 473f 930a 5c3f 273f fb3f
00000040: 3b30 923f aadf ef3f c0dc 8f3f 5258 8e3f
00000050: 4fa7 0e40 166c 4d3f c7a7 0740 f69d 3e3f
00000060: beec 863f 9aa9 a03f b5fa 0b3f a3d3 e83f
00000070: d01d c63f bde9 833f 9ec2 da3e 5748 353f
00000080: ac2f 613f ddd1 833f 4ea7 993f 3ca9 623f
00000090: 2bd9 023f 7788 7c3f 59db 883f 1071 ac3f
000000a0: d1e9 0f40 50f6 c93f e5b9 6f3f a349 ac3f
000000b0: c28c 2e3f f76d d33f e49b 133f 65c3 733f
000000c0: b18b 1340 4abd 523f df30 4d3f cca7 713f
000000d0: 7dd2 323f d02f 663f 7be0 ac3f 748a 9a3f
000000e0: c302 723f c059 0840 2469 ac3f bc96 573f
000000f0: 0dec 5c3f f458 973f e2b1 1b40 5aec 7b3f
0.981821 0.676355 0.76480705 1.2372583 0.47570875 2.103397 1.878024 1.9271226
1.1618503 1.625209 1.9694206 0.54830015 1.118564 0.77897537 0.85953635 1.9628648
1.1420969 1.8740132 1.1239243 1.1120703 2.2289617 0.8024305 2.1196153 0.7445978
1.0540998 1.2551758 0.54679424 1.8189586 1.5477848 1.0305706 0.42726606 0.70813507
0.87963367 1.029842 1.2004182 0.8853948 0.5111262 0.9864573 1.069194 1.3472004
2.248646 1.5778294 0.9364303 1.3459972 0.6818353 1.6517934 0.57659745 0.95220023
2.305401 0.8232008 0.80152696 0.9439666 0.6985243 0.89916706 1.3506006 1.2073503
0.94535464 2.130478 1.3469586 0.8421438 0.86297685 1.1824021 2.432732 0.9840752

bias f4 [64]
00000000: 005c fc3d d424 c03c 21ce afbe 9fac 873c
00000010: 631c 85bf fea6 223e d8ab bebd b2cd 03be
00000020: 0dff 8c3d a3ad 8abd a2c6 14be 4e3a 8bbf
00000030: 1d96 02bf 3228 f73d 6374 16bf f6ed 09be
00000040: 8450 74bd c909 c03d 2710 23be 119a 87bc
00000050: b307 7f3d 01e3 3fbe ea08 2bbe 537c 38bf
00000060: 4007 ea3d e2cf 2cbd 3b03 a3bf 741c 0ebe
00000070: b028 0ebc c407 773c d88c 9ebf e8e2 49bf
00000080: 8da7 873b a71c 1a3e 3122 4cbf 9d5d e3bd
00000090: c73a 7abf 6108 54be b422 46be 8732 673c
000000a0: 52dd 83bd 4dd7 73be 6e23 46be 2dd0 debd
000000b0: 8f65 fc3c 2e13 95bd c7da 3b3e 73b7 ecbe
000000c0: 8b63 573e 6bf2 69bf d007 99bf b830 65bf
000000d0: cb73 8fbf 4f6d 35be 843c e93d cf12 27bd
000000e0: 12c8 943d 08f2 353e cb7c b3bd 67e3 213c
000000f0: d4ef 69be 51b5 653e ee5e d73b b52a 36bf
0.12322235 0.023455061 -0.3433695 0.016561804 -1.0399288 0.15884015 -0.0931012 -0.12871435
0.068845846 -0.067714 -0.14528897 -1.0877168 -0.51010305 0.120682135 -0.5877134 -0.13469681
-0.0596471 0.09376866 -0.1592413 -0.016552957 0.062263202 -0.18738939 -0.16702619 -0.72064704
0.11427164 -0.04219044 -1.2735361 -0.13878042 -0.008676693 0.015077535 -1.2386732 -0.78861856
0.0041398467 0.15049993 -0.7973967 -0.1110184 -0.9774594 -0.20706321 -0.19349176 0.014111168
-0.06438698 -0.238126 -0.19349453 -0.1087955 0.030810146 -0.07279049 0.18345176 -0.4623371
0.21034066 -0.91385525 -1.1955509 -0.89527464 -1.1207212 -0.17717479 0.113884956 -0.04078942
0.07264723 0.17768109 -0.08764037 0.009880877 -0.22845393 0.22432448 0.006572596 -0.71158916

running_mean f4 [64]
00000000: 9737 4ec1 2737 1ec1 0a9e b5c1 ddb1 c1c1
00000010: 6924 19c1 4016 32c2 179f 17c2 3f74 f9c1
00000020: 5bc6 b1c1 c952 1ec2 2f6c 8bc2 bd44 2f40
00000030: 3d15 94c1 af7e acc0 e71b 84c0 4277 4ac2
00000040: 4ab7 27c2 3c55 3ec2 a9e0 bdc1 41ac 85c1
00000050: 36c7 48c2 9f1e 12c2 efa1 51c2 302a cd3e
00000060: 7fe4 52c1 05f2 0ec2 0e12 6e42 f60e 17c2
00000070: dacc 06c2 f9b5 3fc2 8edb 9f41 172a 26c1
00000080: 0192 b9c1 bffe e5c1 101e c2c1 85a5 a5c1
00000090: b5de 0ac1 cfae c9c1 b842 6ac1 9017 1ec2
000000a0: 54bc 64c2 fe87 00c2 026d ecc1 99ec 02c2
000000b0: c2ed 19c1 9304 39c2 6aa1 85bf 8d5f ebbf
000000c0: 8d0d 5cc2 2fb6 1bc1 8092 2cc0 7133 2ec1
000000d0: c5f6 0f40 e481 cfc1 4659 efc1 ebb7 a6c1
000000e0: 292f 59c1 7db6 4ec2 95d4 f1c1 f3d5 9bc1
000000f0: 7752 b9c1 9048 16c2 f61c 82c2 1954 f3c1
-12.888572 -9.888465 -22.702168 -24.211847 -9.571389 -44.52173 -37.90536 -31.18176
-22.221853 -39.580845 -69.711296 2.7385705 -18.51037 -5.3904643 -4.128406 -50.616463
-41.928993 -47.583237 -23.734697 -16.709108 -50.194542 -36.529903 -52.40814 0.4007125
-13.180785 -35.736347 59.51763 -37.76461 -33.70005 -47.927708 19.982204 -10.385276
-23.196291 -28.749388 -24.264679 -20.70582 -8.679372 -25.210356 -14.641289 -39.52301
-57.183914 -32.132805 -29.553226 -32.731052 -9.620546 -46.254467 -1.0439885 -1.8388535
-55.013233 -9.731978 -2.6964417 -10.887559 2.2494366 -25.938423 -29.91859 -20.839804
-13.574014 -51.67821 -30.2288 -19.479467 -23.165266 -37.57086 -65.056564 -30.416063

running_var f4 [64]
00000000: 4ff6 8f46 71ff 4b46 dc51 b846 b7ab 4c47
00000010: 0e8d f645 e6be b747 9dbd 7447 de84 3747
00000020: 791d 1947 49ae 9347 8e77 2a48 9ba7 8f45
00000030: fdb1 a146 4a43 5846 62e9 b545 1f90 ba47
00000040: 6c4f 9747 b5dc a347 7b9b e246 6373 2347
00000050: 5b99 af47 e988 8d47 496f ab47 2b6f 8845
00000060: f7cd 9d46 e0bd 9247 ce08 de47 af6b 8347
00000070: df3a 7547 0fc3 f547 29f3 ba46 62c1 4e46
00000080: 81fb 1d47 9c1d 6747 97d8 0d47 36d2 a247
00000090: ab1e c546 7f96 1747 f904 6946 ca1e 6947
000000a0: d8dc e347 f1af 1d47 55ca 5947 fd2b 4547
000000b0: 1ba9 4a46 b871 9547 e53d 3845 65c5 2c46
000000c0: 411f d947 9baf 3446 a8e4 7145 44d0 3c46
000000d0: 1085 3345 7350 5e47 e260 8447 8731 f246
000000e0: f245 8246 d277 e047 6eef 3347 29d7 a246
000000f0: e623 4247 29d2 a147 7012 0248 9526 7447
18427.154 13055.86 23592.93 52395.715 7889.632 94077.8 62653.613 46980.867
39197.473 75612.57 174558.22 4596.9507 20696.994 13840.822 5821.173 95520.24
77470.84 83897.414 29005.74 41843.387 89906.71 72465.82 87774.57 4365.896
20198.982 75131.75 113681.61 67287.37 62778.87 125830.12 23929.58 13232.346
40443.504 59165.61 36312.59 83364.42 25231.334 38806.496 14913.243 59678.79
116665.69 40367.94 55754.332 50475.99 12970.276 76515.44 2947.8684 11057.349
111166.51 11563.901 3870.291 12084.066 2872.3164 56912.45 67777.766 31000.764
16674.973 114927.64 46063.43 20843.58 49699.9 82852.32 133193.75 62502.582

weight f4 [64, 64, 3, 3]
00000000: 3d12 44bf c5cc 31bf 923b 8a3d 158d 2b3f
00000010: da3d a6bd 8380 9bbe 2757 423e 8e97 1b3d
00000020: 5d96 4c3e c931 94bd 99d3 9c3e 7f28 433e
00000030: db75 a1be 409d 8b3e 746d 973e 8a98 8bbe
00000040: 9737 a3be 1ceb 3ebe 9eae 41bf 4b11 f7be
00000050: e804 36bf 4fd7 53be 87be 1f3e 2659 b2be
00000060: 514e 5abe 2673 f5bd 90ba ff3d 762d 743d
00000070: 9861 06bf 9ee2 c4be e467 433e 4d56 8a3d
00000080: 0797 20be 5a52 cbbd ca50 98be 3c7b 93bc
00000090: b830 833d a4f3 4bbb bf80 0fbd 64ee 99be
000000a0: 7a69 a03d 5330 60be b65a 3b3c b33a fa3c
000000b0: 4c81 febd 308d 04bf 0a66 90be 6e21 57be
000000c0: d17e 7abe 0c8e dcbe 2ed7 1abf 1b8a 03bf
000000d0: ecb5 68bf 6200 09be 3ea4 003e f8cc b23e
000000e0: cfe9 423e 72e2 db3e 7ec6 083d f178 55bf
000000f0: d6d6 843f cbc5 443d 229b 16bf 997c 74bf
00000100: c085 6bbf 24f7 db3e be3b 943e b770 b9be
00000110: f5a0 87be 66e2 c23d feae ee3b 0940 4c3f
00000120: 7e52 78be 88df 9fbd cfd5 1f3f 5fd4 8a3e
00000130: 065a f5bd 5c2b 42be db86 cd3e 7dee 09be
00000140: 8113 7ebe 973f dd3e 2fc3 413e 6908 0c3d
00000150: e068 9f3e f750 6a3e e5d1 47be 726d 0a3c
00000160: 836e fdbc b433 2fbe 5b29 263f e125 7f3d
00000170: c8d3 933d 72d4 1a3e 8d9c 533e 6b38 09bd
00000180: 4a0c 983e 99ad 29bf 40c4 5dbe 4da7 e73e
00000190: df48 e53e eac0 a23d d687 e5bd ead7 843e
000001a0: f276 4bbc 14d7 d3be c022 ddbd 165b 1dbe
000001b0: 1dd3 ef3e 913e d03e e74a f43d 514d 803e
000001c0: fbed 863e 2808 21bd 9105 073e 091c 9bbd
000001d0: f25e 11be 5409 0abf efca 0f3d 783d 98be
000001e0: 62cf 24bf 6e5f 033f e51e 2b3e 02ea e2be
000001f0: f926 03be 9646 0bbe 711c 043e 7946 b23e
00000200: 9719 6bbe a32c 8ebe 28eb 373c b66d 27bd
00000210: 5b02 8cbe 6fbc 70be 13ee 49bc 2c79 5fbf
00000220: 79dd 023e 9da4 f83e 5955 5fbe 427c 973e
00000230: 6238 04bf a446 38bb 8e96 ee3e bfea 3abe
00000240: 0174 6c3d cd07 c0bc 0bb2 2d3e 0e2e 63bf
00000250: d853 e1bc dbb4 dd3d e7b2 31bf 12bd 00bf
00000260: 37ca 19be 2f69 f0bc eee6 34bc db99 56be
00000270: 0f7b 823e e7ab 103e b25d b1be 6dbc 453e
00000280: 5b5f 813e 2416 de3d 69ff d23e 6ec5 4d3e
00000290: cb1e 3ebe 733b eebd d39c 463e 7540 16be
000002a0: 5d37 1abf f7a9 77be 4af8 27be 5a17 a0be
000002b0: 12e9 06bf 24d9 31be 8d46 253e 2e36 8e3d
000002c0: f679 08bf 1766 2fbe 2c2c 61be 3a48 d03d
000002d0: e3af 62be 101c 43bf 6b3c 03bd 3cdc da3e
000002e0: 1a7a 84be 4ce8 d9be f8e3 783f b185 c83e
000002f0: d89c 1c3e fa2d 34bf 6001 06bf 391b d3be
00000300: 7c09 c5be 7fda 8d3e 855c 12bf dd42 0bbf
00000310: 9b62 81be f8cf afbe 3d66 84bf 811d 03bf
00000320: cf83 f53e f940 9e3e f4b7 77bc 0455 9dbe
00000330: 9fd4 5f3f 1148 5f3e 13a1 fc3d c375 1dbd
00000340: 38aa 983e 01ba fabe b8aa b1be 835f c83e
00000350: 9287 b93d ee32 33be e0c0 ccbd 6476 33be
00000360: 42fa a03e 714d 3c3e 9425 ffbe c8e5 c43e
00000370: feb7 c33e d73c c1be 7638 c63d 2120 193e
00000380: 6a24 b2be fd23 d93e bb90 423e 6e8a 2dbc
00000390: 02e1 d5bd e630 813e 81f5 333e 5cb7 debe
000003a0: 74dc 8abe cb76 a4bd bdce e33c 78dc 9d3d
000003b0: cf75 45bd 74b3 0dbe 7949 a2bc dbee 05be
000003c0: 7a5b 153c 22ac 323c 9b07 efbd 4d24 c43c
000003d0: 3a37 503e a469 d33e 61bb 243f ed3e e5be
000003e0: dc06 f0be 818f 463f d9e1 d33d 3da3 8abe
000003f0: c2d1 00be 9952 21bd 453b ea3e 1d92 10bf
-0.7659033 -0.6945308 0.067496434 0.6701215 -0.08117266 -0.30371484 0.18978558 0.03798633
0.19979234 -0.07236058 0.30630186 0.19058417 -0.3153523 0.2726841 0.29575694 -0.27264816
-0.3187835 -0.18644375 -0.7565707 -0.4825538 -0.71101236 -0.20687602 0.15600024 -0.3483364
-0.21318938 -0.119848534 0.12486756 0.059613667 -0.52492666 -0.38454145 0.190826 0.06754742
-0.15682612 -0.09927817 -0.29749137 -0.018003099 0.06405777 -0.0031120563 -0.03503489 -0.3006469
0.07832618 -0.21893434 0.011435201 0.030545568 -0.12427005 -0.51777935 -0.2820285 -0.21008846
-0.24462439 -0.43077123 -0.6048459 -0.5138261 -0.9090259 -0.13379052 0.12562653 0.34922004
0.19034503 0.42946202 0.033392422 -0.83387667 1.0378063 0.048040193 -0.58830464 -0.9550262
-0.9200096 0.4296199 0.2895183 -0.36218807 -0.26489988 0.09515838 0.0072840443 0.7978521
-0.24250218 -0.07806307 0.6243562 0.2711515 -0.11980061 -0.18961853 0.4014195 -0.13469882
-0.24812128 0.43212578 0.18922113 0.034187708 0.311347 0.22882448 -0.19513662 0.008448945
-0.030936485 -0.17109567 0.64906853 0.062291984 0.072181284 0.15120104 0.20665188 -0.03350107
0.29696876 -0.66280514 -0.21656895 0.45244828 0.4478216 0.07946952 -0.11207549 0.2594598
-0.0124184955 -0.4137503 -0.10797644 -0.15366778 0.46840754 0.40672734 0.11928349 0.25058988
0.2635344 -0.03931442 0.13185717 -0.07573707 -0.14196375 -0.53920484 0.035105642 -0.29734397
-0.6437894 0.5131749 0.16711004 -0.4431916 -0.12807836 -0.13601145 0.12901475 0.3481939
-0.2295898 -0.2776843 0.011225499 -0.040876113 -0.27345547 -0.23509382 -0.012324828 -0.8729427
0.12779798 0.4856309 -0.21809901 0.2958699 -0.51648533 -0.0028118277 0.4659924 -0.18253611
0.057727817 -0.02344122 0.16962449 -0.8874215 -0.0275058 0.10825511 -0.6941361 -0.502885
-0.15018545 -0.02934703 -0.011041386 -0.20957129 0.2548451 0.14128076 -0.34641796 0.1931016
0.25268063 0.10844067 0.41210487 0.20094845 -0.18566434 -0.11632433 0.19395761 -0.14673026
-0.6024073 -0.2418593 -0.16403309 -0.31267816 -0.5269939 -0.17367989 0.16140194 0.06943928
-0.533111 -0.17128788 -0.21989506 0.10170026 -0.22137408 -0.76214695 -0.03204004 0.4274615
-0.25874406 -0.4256004 0.9722285 0.39164498 0.15294206 -0.70382655 -0.5234585 -0.41231707
-0.38483799 0.27705762 -0.57172424 -0.543989 -0.25270543 -0.34338355 -1.0343701 -0.51216894
0.47952124 0.30908945 -0.015119541 -0.30728924 0.8743381 0.21804835 0.1233541 -0.038442384
0.29817367 -0.48970035 -0.3470056 0.3913537 0.09059061 -0.17499897 -0.099977255 -0.17525631
0.31440932 0.18388917 -0.49833357 0.3845656 0.38226312 -0.3774173 0.09678738 0.14953662
-0.34793407 0.4241027 0.19000523 -0.010592086 -0.104433075 0.2523262 0.17574121 -0.43499267
-0.27121317 -0.080304705 0.027808541 0.07708067 -0.048208054 -0.13837987 -0.019810425 -0.13079397
0.009116048 0.0109052975 -0.116713725 0.02394309 0.20333567 0.41291535 0.6434842 -0.4477457
-0.46880233 0.7756272 0.103458114 -0.27077666 -0.12580016 -0.039385412 0.45748344 -0.5647295

weight f4 [64]
00000000: 7432 bd3f b8fa 413f f7b6 903f 534d 2a3f
00000010: 7890 9f3f 9c7a a03f 6cf0 2a3f e9f0 923f
00000020: 573b 4e3f f1cd bf3e cd41 b73f 06f5 bb3f
00000030: 28d3 8a3f ec05 233f b386 a63f 8124 b03f
00000040: b161 123f 7ef8 bb3f 08f7 a03f 950b 843f
00000050: 26fa 723f b2a7 ad3f 5871 e23f 4b5a 5b3f
00000060: 633d 8b3f aa5d 8b3f 05e7 b43f f6b1 a23f
00000070: fe44 a53f 45dc 483f 428a 493f 55d4 463f
00000080: f5f4 ae3f 3c47 003f 2948 0e3f 2525 dd3e
00000090: d3b3 c53e 8267 053f 11da 943f 0abd 323f
000000a0: d987 c23f 657e a53f 634a c13f 37f1 623f
000000b0: 1eef 7c3f d6f7 a23f 0309 033f 5e1d c23f
000000c0: 6c24 423f 656c b33e f766 d93f b538 6f3f
000000d0: 69fb e83f 7c1f af3f f7ea 023f 2eea 863f
000000e0: 45a5 553f f241 ed3f 0ded b63f 9050 a53f
000000f0: 8e17 7d3f a15d aa3f cedc c13f 83c1 123f
1.4781022 0.7577319 1.1305836 0.6652424 1.2465963 1.2537417 0.66773105 1.147977
0.80559295 0.37461808 1.4316956 1.468415 1.084569 0.6368091 1.3009857 1.376114
0.57180315 1.4685209 1.2575388 1.0316035 0.94912946 1.3566802 1.769084 0.8568465
1.0878109 1.0887959 1.4133002 1.2710559 1.291168 0.78461105 0.7872659 0.7766774
1.3668505 0.50108695 0.5557886 0.43192402 0.38613757 0.52111065 1.1629049 0.698197
1.5197707 1.2929198 1.5100826 0.88649315 0.98802364 1.2731884 0.51185626 1.5165212
0.75836825 0.35043636 1.6984547 0.93445903 1.8201724 1.3681483 0.5113978 1.0540216
0.83455306 1.853575 1.4291092 1.2915211 0.98864067 1.3309823 1.5145509 0.57326525

bias f4 [64]
00000000: 4f01 3cbe 47f1 45bf e982 24bf 007c 57bf
00000010: c9d3 81be 5d24 ccbe e02a 86bf a3aa 4ebe
00000020: 47c5 e3be 1e7a 6cbf a9c2 eabe 6a61 3ebe
00000030: 78da b7be 7bb6 66bf af01 b43d 7d23 82be
00000040: 9125 80bf 7b5f 31be 9a58 ecbe 8273 31bf
00000050: 71c9 77bf 0728 d1bd 121e 35be 084e b5be
00000060: dcf9 b9be b8a8 a9be 6c30 5dbe 9653 333d
00000070: 48f3 7abe 330d 63be b235 3fbf 5cec 81be
00000080: dde3 88be 8507 44bf 3043 60bf be50 1cbf
00000090: 1c02 71bf 21ec 69bf a91a 06be 3c83 6dbf
000000a0: 5b51 493d 5e30 50be 679f 2d3c 2477 1a3e
000000b0: 5fc1 14be 378c e7bd 3146 82bf 296b 80be
000000c0: 3c98 8bbf 87be 2fbf 6472 75be 77ed 93be
000000d0: 5ffa 34be 7836 0dbf ae22 0bbf e117 9fbe
000000e0: d75e cebe 3d96 81be a561 24be 72ea fabc
000000f0: b5d3 8ebe a1e1 61be 4035 40be 2984 a0bf
-0.18359874 -0.77321285 -0.64262253 -0.84173584 -0.25356892 -0.39871493 -1.0481834 -0.2018228
-0.44486448 -0.92373836 -0.4585164 -0.18591848 -0.35908866 -0.90122193 0.087893836 -0.254177
-1.0011464 -0.17321579 -0.46161348 -0.69316876 -0.9679175 -0.10212713 -0.17687252 -0.35411096
-0.3632344 -0.33136535 -0.21600503 0.043780886 -0.24506867 -0.22173004 -0.7469131 -0.2537564
-0.26736346 -0.76573974 -0.8760252 -0.610607 -0.94143844 -0.9137593 -0.13096108 -0.9277837
0.049149852 -0.2033095 0.0105970865 0.15084511 -0.1452689 -0.11306041 -1.0177671 -0.25081757
-1.0905833 -0.68650097 -0.23969418 -0.2889211 -0.17673634 -0.5516124 -0.5434979 -0.31072906
-0.40306732 -0.25309935 -0.16052873 -0.03062937 -0.27895895 -0.22058727 -0.18770313 -1.2540332

running_mean f4 [64]
00000000: 456b b5c0 777b 18c0 d9eb 4bbf b4b6 9540
00000010: 9964 55c0 ea7f aac0 b848 d7bf 55d4 05c0
00000020: e768 f2bf 839b 8bc0 0036 1e40 11c7 96c0
00000030: fca1 45be eef0 9d40 998c 7fc0 0642 37bf
00000040: bdd0 f640 6470 a8c0 4745 7ec0 b0c6 03c1
00000050: db39 48c0 ffa5 02c0 11b5 03c0 f356 7cc0
00000060: 03d5 aec0 b556 2dc0 031d f0bf d57e b7c0
00000070: 5c8d 9cc0 4024 10c1 841b 66be 9a30 40c0
00000080: 149c d53e e1f0 aabf 7711 523f 2191 e5be
00000090: 3b76 863f 86ab 3d3f 9565 3cbf 28b1 20c0
000000a0: 6288 94c0 38de 8ec0 2fd0 a6c0 7d6d ecbf
000000b0: e5ee b7c0 9aa9 f8bf 1e6a e3c0 90c2 ab3e
000000c0: ad64 bb3f 793b 993e a7be 9cc0 2787 d2bf
000000d0: 4320 1ac0 621f cc3e dcb9 6e40 6b22 c0bf
000000e0: d933 4a3f 469b f6c0 e3e2 f93d 9d09 77bf
000000f0: 1fc1 49bf 400b 79c0 41a9 57c0 14ac 41c1
-5.6693444 -2.3825357 -0.7965675 4.6785526 -3.334265 -5.3281145 -1.6819067 -2.0910847
-1.8938264 -4.3627334 2.472046 -4.7118 -0.19300073 4.9356604 -3.9929564 -0.7158512
7.7129807 -5.2637196 -3.9729784 -8.236008 -3.1285312 -2.0413816 -2.0579264 -3.942807
-5.4635024 -2.7084172 -1.8758854 -5.7342324 -4.892256 -9.00885 -0.22471434 -3.0029664
0.4172064 -1.335476 0.820579 -0.44837287 1.0504831 0.7408985 -0.735925 -2.5108128
-4.6416483 -4.4646263 -5.212913 -1.8470913 -5.747912 -1.9426758 -7.1067038 0.33546877
1.4640099 0.29928187 -4.898273 -1.6447495 -2.408219 0.39867693 3.730094 -1.5010504
0.78985363 -7.7064543 0.12201478 -0.96499044 -0.78810304 -3.8913116 -3.3697054 -12.104511

running_var f4 [64]
00000000: d0c4 8143 d32c 4f42 d585 4e42 a36a 7542
00000010: 6f25 5f43 d707 4143 b21d 6a42 0b45 2443
00000020: 8b5d 9742 1df3 fe41 2597 cb42 ea3b b343
00000030: 5e8a 5a43 2bf4 5442 dd9b 0f43 b4a4 8a43
00000040: 4399 2f42 28f5 5343 6220 d842 8924 7642
00000050: 50d2 ad42 126c ed42 bc2e 2543 2f2f ab42
00000060: 84e1 5e43 6034 6343 1434 c342 59dd 6843
00000070: 0a0b 9043 b4d9 bf43 25a7 4642 820f b142
00000080: e50d 0843 1b88 6a42 7f35 2c42 30bb 4142
00000090: 5db1 3142 e468 2b42 d9ab a343 5ae1 de41
000000a0: 66d7 0643 448e 6443 3633 c342 fa51 e542
000000b0: e418 d043 a37e 1043 49d2 3642 ea66 7842
000000c0: 6fc3 1e42 971c 1c42 1a0f c643 7aa4 8a43
000000d0: 793a cf42 8a7a 9e42 6464 8d42 f013 4543
000000e0: 14ff 8b42 4083 4e43 25f7 a142 4bb3 8b42
000000f0: 20b5 3343 9127 4143 e2b9 2643 be57 ed41
259.5376 51.793774 51.630695 61.354137 223.14622 193.03062 58.529 164.2697
75.6827 31.868708 101.795204 358.46808 218.5405 53.238445 143.60884 277.28674
43.89967 211.95764 108.06325 61.53568 86.91077 118.711075 165.18256 85.592155
222.88092 227.20459 97.601715 232.86464 288.08624 383.7008 49.663227 88.53029
136.05428 58.632915 43.052242 48.4328 44.423206 42.852432 327.34256 27.860035
134.8414 228.55573 97.60002 114.66011 416.19446 144.49467 45.705357 62.100502
39.690853 39.02792 396.11798 277.28497 103.614204 79.239334 70.696075 197.07788
69.9982 206.5127 80.982704 69.85018 179.70752 193.15456 166.7261 29.667843

weight f4 [64, 64, 3, 3]
00000000: 3634 003f 7bfc a93e d5a9 da3e fb88 113f
00000010: 5f9f 003f 7646 233f 02fe ec3e 2b9b c43e
00000020: 4335 4d3f 7dc3 98be e9d5 64be ca88 29be
00000030: 7991 5fbd bece dbbc 495f 7f3c 0e03 efbd
00000040: ea06 f9bd 5834 19be f545 73be b754 88be
00000050: f92f e93c 9d28 93bc d0c1 26be 9d7e 293d
00000060: 97f7 163e 3c54 023d 5c36 753e d647 21be
00000070: cba5 7cbe 4249 60be 44a1 26be 3336 44be
00000080: 7946 5fbe 9235 c0bd a1fa 2abe 32c5 26be
00000090: aa94 6fbe b203 2fbe 5f06 edbd 7bcc f3bd
000000a0: e78d 3bbe cc07 1abe 0657 b5bd 2e9b 02be
000000b0: a137 1dbd f695 ff3e e1cb 243e 33c3 643e
000000c0: 8654 0e3f 47ca 803e d337 923e 8f86 183f
000000d0: 9756 933e 04c6 983e 8b4e 113e 643c b13d
000000e0: 7aab 823d 9973 a33d 3d00 4f3d fe6c a73d
000000f0: dd37 8c3d 7b94 183e f282 143e f030 56be
00000100: 3dcf fdbe a4b8 9dbe 3e6a a8bd 01a1 b5be
00000110: 4ada 13be 6850 373e cf34 04be ba1d 94bd
00000120: 7dee bfbd 13dc 043c cb89 313e f08a 5a3d
00000130: c5a6 3f3c c802 b43d ff66 f23d f3fc bf3d
00000140: ade9 193e 3884 f53e 6612 ca3e 64f2 d53e
00000150: 48af 6e3e c72b f63d 6fef 723e 475e 883e
00000160: fa11 6c3e 8c95 823e 4c34 eabd 02ab bfbd
00000170: 77dd 0a3e 6046 93be 7b56 8abe 74b5 73bc
00000180: 5be4 9bbe 3ba9 94be 8386 1cbe db5f 15bd
00000190: a9f9 82be e3d2 de3a a570 0e3e 63b0 0abe
000001a0: 216f 07be 3872 97bc 7105 01be 1a42 a3be
000001b0: 2a65 8c3e 25f6 253e d610 5e3d 932e 263e
000001c0: 7fa5 623e b45a 843d 6bc8 e5bd 901e 5fbd
000001d0: c4ec 31bd 3768 aabc e5d8 133d 5d71 1f3c
000001e0: 05ac 3cbd 0c82 ac3d f037 3e3d 39b2 ce3c
000001f0: 4d02 e73d 3c5b 363e 0f1f 05be 2d0e 1abe
00000200: 2de0 0bbe be98 87be 3cff 1fbe 53f7 09be
00000210: 4f04 d8be 30f5 9bbe d0d9 43be e06c 313e
00000220: c002 c93d 818f 993d ace6 813d cb88 713e
00000230: 4ff3 aa3e ef86 0fbd 519c 3c3e 35ff 853e
00000240: d359 53be d2bc 1bbe 4ff8 76bd 0a44 9cbd
00000250: eb54 cabb 0668 3f3e b2f3 4e3c f5c2 1b3c
00000260: 974f 1f3d 87f2 ae3e b393 483e fff3 b73e
00000270: 13c4 553e 1027 453c 75ca 3b3e ce95 9d3e
00000280: f636 493e b8c4 5a3e 64f9 dfbe 6b15 67be
00000290: c5fa 75be f7ab 99be 09a5 e3bd b2ca 35be
000002a0: a4f1 78be 1d18 b2bd 4e1b 29be 5f4c 15bd
000002b0: 31d3 293e 3067 703e 40fc 34be 6278 f1bb
000002c0: 31ee 723d 6f4b adbd 8c08 843d 7acd 8d3e
000002d0: 0c7b db3e 86cf b03e 7201 bf3e 81a0 9c3e
000002e0: 058e 643e 3c87 a63e e419 403e fc55 673e
000002f0: f13f 7a3e 5b0b 683e 8dc5 593d d317 e53e
00000300: ef36 a63e 5bdd 173d 732b 5c3e eb36 133f
00000310: 2677 803e 4399 f23e 5bd8 43bf 9351 efbe
00000320: c727 c9be f677 e7be 9d77 8fbe b307 d7be
00000330: a71b e4be da4f 14bf ec40 3fbf 1e38 9cbc
00000340: 097b 80bd c41e b73c 3815 0cbd 190f 06bd
00000350: 6d34 9fbc d24e e83c 50dc 82bc c57c 91ba
00000360: 07a7 a5be d703 94be 8e66 fbbd 5bcb 81be
00000370: 4c4e fabd 7d53 e3bd 9bf7 a5bd 68a1 21be
00000380: 1498 88bd c09b 053f f6f8 7a3e f6e0 a53c
00000390: 7f4c 883e c64a 963d 6558 52bd f2b3 c73d
000003a0: 6880 0fbd 5c97 c9bb b893 95bd 6e37 cfbd
000003b0: 83fa dfbd 2182 ebbd d05e bdbd 8310 b53d
000003c0: 4c10 17be 125f edbd 5abf 9f3c 2996 953d
000003d0: cd21 4dbd 0558 0cbb 5d95 df3c 01bb 0cbc
000003e0: c736 863d 2e2f 873e 7300 b93e 25d5 f53e
000003f0: 4c0a 0ebe 5a06 aabe 9a1f bdbe 9245 883d
0.5007967 0.3320044 0.42707697 0.5684964 0.5024318 0.6377939 0.46287543 0.38399634
0.80159396 -0.29836646 -0.22347225 -0.16556087 -0.054582093 -0.02683198 0.015586683 -0.116705045
-0.12159522 -0.14961374 -0.23757155 -0.26627132 0.028465258 -0.017963702 -0.16284871 0.041380513
0.14742886 0.031818613 0.23946518 -0.1575006 -0.2467262 -0.21902946 -0.16272455 -0.191613
-0.21804227 -0.09385218 -0.1669717 -0.16286162 -0.23396555 -0.17091253 -0.11573481 -0.11904236
-0.1831585 -0.15042037 -0.08854489 -0.12754509 -0.03838313 0.499191 0.16093399 0.22340088
0.5559772 0.25154325 0.28558215 0.5958032 0.28777 0.29838574 0.14190118 0.08654097
0.06380363 0.07981033 0.050537337 0.081750855 0.068465926 0.14900391 0.14503077 -0.20917106
-0.49572173 -0.30804932 -0.08223389 -0.354744 -0.1443874 0.17901766 -0.1291077 -0.072322324
-0.0937166 0.00810911 0.1733772 0.053355157 0.011697476 0.08789593 0.11836051 0.09374418
0.15030546 0.47952437 0.39467162 0.41786492 0.23309052 0.120200686 0.23724149 0.26634428
0.23053733 0.2550472 -0.11435756 -0.09358789 0.13561045 -0.2876463 -0.27019104 -0.014874805
-0.3044766 -0.29035363 -0.15285687 -0.036468368 -0.255811 0.0017000105 0.13910158 -0.13543849
-0.13225986 -0.018487081 -0.12599732 -0.3188637 0.27420932 0.16207178 0.054215275 0.16228704
0.22133444 0.06462613 -0.11219867 -0.054472506 -0.043438688 -0.020801647 0.03609552 0.009731618
-0.046062488 0.08423242 0.046440065 0.025231468 0.11279736 0.1780824 -0.13000129 -0.1504447
-0.13659735 -0.2648372 -0.15624708 -0.13473253 -0.42190787 -0.304605 -0.19126058 0.17326689
0.09814978 0.07498074 0.06342825 0.23587339 0.33388755 -0.035040792 0.18419005 0.2617127
-0.20639734 -0.15208748 -0.0602954 -0.07630165 -0.006174674 0.18692026 0.012631344 0.009506931
0.038894262 0.3416941 0.19587593 0.35928342 0.20875578 0.012033239 0.1833895 0.30778354
0.19649872 0.21364105 -0.43744957 -0.22566764 -0.24021442 -0.3001401 -0.11115462 -0.17753103
-0.24310929 -0.086960055 -0.16514322 -0.036449786 0.1658447 0.23476863 -0.1767435 -0.007369087
0.05930919 -0.084616534 0.06446943 0.2769583 0.42867315 0.34533328 0.3730579 0.30591205
0.22319801 0.3252505 0.18759876 0.22591394 0.24438454 0.22660582 0.053166915 0.4474474
0.32463786 0.037076335 0.2150095 0.57505673 0.25090903 0.47382554 -0.7650201 -0.46741924
-0.3928816 -0.4520871 -0.28020945 -0.41998062 -0.44552347 -0.57934344 -0.7470844 -0.019069728
-0.06273467 0.022353537 -0.034199923 -0.032729242 -0.019434178 0.028357897 -0.015974194 -0.0011099806
-0.32353994 -0.2890918 -0.1227542 -0.2535046 -0.12221965 -0.110999085 -0.081038676 -0.15784228
-0.066696316 0.5219078 0.24509034 0.020248871 0.26620862 0.07338481 -0.05135383 0.09751119
-0.035034567 -0.0061520766 -0.07303566 -0.10117994 -0.10936453 -0.114994295 -0.092466 0.0884104
-0.1475231 -0.11590399 0.019500423 0.073040314 -0.050081063 -0.0021414768 0.027292902 -0.008589507
0.06553417 0.26403183 0.36133155 0.4801418 -0.13871115 -0.3320797 -0.36938173 0.066538945

weight f4 [64]
00000000: d191 8740 dfa7 7f40 cace 8b40 787b 7740
00000010: 8407 8640 3b46 7240 662e 6140 ae4d 7d40
00000020: f175 6140 4ed9 7540 9b8d 7e40 ec67 7b40
00000030: d6a5 7940 be9a 6e40 24a3 5f40 ecf0 8140
00000040: 6a9a 8040 2788 8440 054b 7140 39ba 5d40
00000050: 58c7 8340 1eba 8140 329b 7340 4c31 8240
00000060: 2124 5f40 e3e4 7a40 ba96 7d40 975e 8440
00000070: 8e3e 7640 082c 7a40 5e3b 8340 448a 7240
00000080: 74cb 7740 bdfc 8940 180e 6940 31ba 8f40
00000090: 779c 8340 10b5 6240 ec4a 8740 fba3 7a40
000000a0: a52d 7c40 ff56 7e40 32e6 8540 c937 6840
000000b0: f540 6040 7d62 8540 7040 7840 1d58 8240
000000c0: e258 6c40 fe4f 7640 1837 6340 05ec 8140
000000d0: 3f07 8740 e5dc 6a40 5397 7d40 d9c4 8540
000000e0: 8ad4 6340 133c 6640 54fa 6240 9070 8e40
000000f0: 26f8 7240 83b1 8140 5123 9440 3600 6d40
4.23655 3.994621 4.368993 3.866911 4.1884174 3.7855365 3.518457 3.9578662
3.5228236 3.8413882 3.977393 3.928218 3.9007468 3.7281947 3.4943323 4.0606594
4.0188494 4.14162 3.7702038 3.4644911 4.118084 4.0539694 3.8063474 4.0685177
3.4865801 3.9202201 3.9623246 4.1365466 3.847568 3.9089375 4.100997 3.789689
3.8717928 4.312102 3.6414852 4.4914784 4.1128497 3.5423012 4.2278957 3.9162586
3.940286 3.9740598 4.18435 3.6284049 3.5039647 4.1682725 3.878933 4.073256
3.692925 3.8486323 3.5502377 4.060061 4.2196345 3.6697323 3.962361 4.1802793
3.5598474 3.5974166 3.5465288 4.4512405 3.7963958 4.052919 4.629311 3.7031379

bias f4 [64]
00000000: c1a5 ae3e 88a6 0a3e 8725 b53e 169f 4a3e
00000010: 0535 4cbc 4dc6 db3e 15ab 3c3d 320f 303e
00000020: 1230 ba3d bdbf df3d 820b e93d aed1 ea3d
00000030: e230 8e3e 3c72 243e cd64 c83e 6f3e a13d
00000040: e259 413e 3a5a d23e c121 0d3e e261 5f3e
00000050: 0223 d83e 6256 063d 21e3 26bd b94b 2f3e
00000060: 9deb 723e 139d 2e3d c0f2 763e 23b5 d53d
00000070: 558c 1f3e 463c fa3d 17bd 053f 2c80 a63e
00000080: 0040 213e 27f3 753e 2821 203f d63a 973e
00000090: 0219 c73e e4ec 233e f1c5 eb3b 092a ad3e
000000a0: 5791 a83e 35d9 893e 7571 b43d ad0f 143d
000000b0: d748 243e 5432 293e 3472 cb3e 8ea5 7a3e
000000c0: a85d ab3e 62be 833d 8c70 9f3e 25f0 933e
000000d0: d540 ad3e 75a2 133e 0a83 3a3e f35b 193e
000000e0: ffdc 273e 2b05 f33e bec9 843e 7173 a53d
000000f0: 1309 033e 1697 aa3e 27d6 963e ac9e 123e
0.34110835 0.13540089 0.35380194 0.19787249 -0.012463813 0.4292473 0.046061594 0.17193297
0.090912 0.10925243 0.11379148 0.114657745 0.2777167 0.16059202 0.39139405 0.078732364
0.18881944 0.41084462 0.13782407 0.21814683 0.4221421 0.032797225 -0.04074395 0.1711873
0.23722692 0.042630266 0.2411604 0.1043494 0.15580876 0.122185275 0.52241653 0.32519662
0.1574707 0.24018537 0.6255059 0.29537076 0.38886267 0.16008335 0.0071952273 0.33821133
0.32923386 0.26923528 0.08810703 0.036147762 0.16043411 0.16523105 0.39735568 0.24477217
0.33469892 0.06432797 0.31140554 0.28894153 0.33838525 0.14417441 0.1821405 0.14976482
0.16392897 0.4746488 0.25935167 0.08078659 0.1279643 0.33318394 0.2946026 0.14318341

running_mean f4 [64]
00000000: e220 90be de96 f5bf fccd eb3e e6d2 30be
00000010: fd71 15bf d3f9 173f 273e ae3f 3b01 2abf
00000020: bd2e 0f3e a728 df3e b4a9 6f3f d1b0 3f3d
00000030: 7be7 a0bf 4139 b0bf a161 5540 1973 bd3f
00000040: 5efa babe 10d0 663f bdc1 46be 1cae 003f
00000050: 28bb fa3f 60fb adbf 8104 993f 8b7e 87bf
00000060: 4cd9 653f 4270 b2bd 715b 12bf c5b4 6b3e
00000070: 589d 17bf c783 1d3f c3f2 dd3f bf00 ba3f
00000080: 83c9 21bf 34b9 cdbe 41b7 ec3f 0978 fc3f
00000090: 8e70 343f a65f bdbe e67a 933e ff0b 0240
000000a0: 3d75 423f d2ad 093f 2030 063f 8c6f 15bf
000000b0: c866 a33d dc50 fb3e a70c 1b40 2543 813e
000000c0: c856 4c3f 91d9 e4bc 4c91 89bf 5299 3d3e
000000d0: 667f e33e a6d8 a33f b15d d83f 4d03 aabf
000000e0: ece5 723e f4f7 ba3f e7bb 0d3f d043 6abe
000000f0: ffa9 1540 32a2 3040 c8c7 103f ddc8 3040
-0.28150088 -1.9186666 0.4605559 -0.17267951 -0.5837706 0.59365577 1.3612717 -0.6640813
0.13982673 0.43585703 0.9361832 0.046799485 -1.2570642 -1.3767473 3.3340838 1.480075
-0.3651914 0.9016123 -0.19409843 0.5026567 1.9588366 -1.3592339 1.19545 -1.0585493
0.89784694 -0.08712818 -0.5717078 0.23018177 -0.5922446 0.615292 1.733971 1.4531478
-0.6319811 -0.4018036 1.8493425 1.9724132 0.70484245 -0.36987036 0.28804702 2.0319822
0.7596014 0.53780854 0.5241718 -0.5837333 0.07978588 0.49085128 2.4226472 0.2524654
0.7981992 -0.027935775 -1.0747466 0.18515518 0.44433135 1.2800491 1.6903592 -1.3282257
0.2372052 1.4606919 0.5536484 -0.22877431 2.3385007 2.7598996 0.5655484 2.7622597

running_var f4 [64]
00000000: 9583 3940 a54a 8e40 26c1 6f40 96af 6e40
00000010: 757d 5d40 938f 4c40 bb2c 9140 a779 a240
00000020: 09a0 7b40 4f5a af40 4a86 d440 ea46 8340
00000030: 661c 5040 342d 6340 4c92 7240 25ad 9040
00000040: 2a40 8440 a004 5d40 0613 8340 5ecc 9540
00000050: 92d0 9a40 15f1 e040 a129 c040 2c8e 3c40
00000060: 6b88 6340 e823 6d40 3ee4 1e40 e15b 7f40
00000070: 4ad4 4640 2fad 8040 098e 9e40 c968 a440
00000080: e844 7d40 def7 8040 df54 5e40 bd80 9640
00000090: 99d3 c940 aa44 4740 6b52 b940 8d00 a440
000000a0: 70a2 8a40 162d 6e40 54db 8640 9de4 8140
000000b0: 2134 1c40 bc3e 9140 40ee 5a40 d3a5 9040
000000c0: bbb6 6740 1ede 7240 e232 0e40 2e3e 5040
000000d0: d44b 4840 f2d2 2a40 6106 8840 b67a a140
000000e0: 8575 6540 c347 6d40 b88c c440 67fa 6640
000000f0: 4c1c 8840 71c4 6940 1d81 bc40 9b33 5e40
2.8986561 4.446612 3.7461638 3.729467 3.4607823 3.196263 4.5367103 5.07735
3.9316428 5.479774 6.6413927 4.1024065 3.2517333 3.549634 3.7901793 4.521136
4.1328325 3.4534073 4.096072 4.681197 4.8379602 7.029429 6.0050817 2.9461775
3.5552013 3.7053165 2.4826808 3.9899828 3.106707 4.0211406 4.9548383 5.137791
3.9573307 4.030257 3.4739301 4.703215 6.30708 3.113566 5.791311 5.125067
4.332329 3.7215018 4.2142735 4.059157 2.4406817 4.538908 3.4207916 4.520242
3.620528 3.794807 2.2218556 3.2537951 3.1296282 2.669125 4.2507787 5.0462294
3.5852978 3.707505 6.1421776 3.6090333 4.253454 3.6526148 5.890761 3.4718997

weight f4 [10, 64]
00000000: cc15 3abf 411c 5abe 7ea6 c83f 7b3a d4be
00000010: c1b0 cd3e e54f 8b3f 37dc 723d 85fc 29bf
00000020: 11fb 3d3e 381d 5ebf bab4 c9bf caa4 adbf
00000030: 09f7 8cbf e264 52bb 0f10 2b3f 9734 0cbe
00000040: a21a 09bd b594 863f 77c3 163f a5b1 8c3d
00000050: 092b 4dbf 94a0 a1be b47b a9bf d498 863e
00000060: f81d a1bf 71f7 773e 30e9 133f 9b5c 3cbf
00000070: 6501 97bf 5d89 533e 0632 bf3e 6036 313f
00000080: a28f d7be 2547 39bf 9553 973f 7c03 853f
00000090: 3d06 71bf 10ac 6abd b62b aebf cf3e f13e
000000a0: 6e2c 573e 78b1 a9bf 3bbb abbe 6a71 2b3f
000000b0: 8281 a8bf 850c ba3f 9af0 95bc 363a ddbf
000000c0: ee7e 17bf b9bc 50bd 901e 0d3f 2d01 193e
000000d0: bc13 4e3f 6788 1f3e 24b6 753f 6c40 2abf
000000e0: fe0e 78bf b90e 94bd 54fc 0abf 3a84 fabc
000000f0: ca89 5e3f f318 1c3f adac 73bf 5632 123f
00000100: 2887 8fbe 485c 93bf cc1e 7fbf 0027 a7be
00000110: 11ca 94bf c31b 44be a292 96bf 0f56 4d3d
00000120: b7e5 803e 0eff ca3e dbda 0b3f 1548 56bf
00000130: c4ef 8bbf 175b 55bf c7ef 61bf 6462 23be
00000140: b38d 07bf e5f4 8e3f dfc9 b0bf 6582 50bf
00000150: 3374 a63f e659 9d3e b2f8 5b3f 2a74 eebf
00000160: 12ba ee3d 0c88 25bf 2124 89bf 08df 493d
00000170: cc66 f1bc 7ee6 85bd 3ff6 a5be ba53 8bbf
00000180: 048e 4e3f ff6b c33e 804a 0d3f 07dd 1f3f
00000190: 862c 0ebf ec09 063f 7507 b83e 5223 d63e
000001a0: 4a84 aa3f de68 35bf 753d b73e 6705 133f
000001b0: 7992 20bf c331 413f 0803 9ebf 404e a7bf
000001c0: 48b4 973f 94f2 d9bf 4614 22bf ecf0 6abf
000001d0: 12ba b8bf 38a9 e63e bc5a 8f3f 6581 f63e
000001e0: fd32 aabe 5014 973f e272 c9bd 5ae4 94bf
000001f0: e6f6 693f d244 2cbf de17 403f 3686 97bf
00000200: 7266 68bf a953 2f3e a86d 9fbd dd00 353f
00000210: 99bd 8abf fac7 3fbf 71ed 183f 20b5 6bbf
00000220: 4bcb 36bf 4dec f13e 3128 8fbe 15cb e4be
00000230: dd50 a33e f72c abbe 76da d13e cf8f bbbf
00000240: b5b9 8c3f c23d 9e3f 5a64 15bd 5510 a43d
00000250: 1090 283f d009 9abe f1f4 d3be 1c65 563f
00000260: 9c5b 1e3f f3c6 d43f 73f5 863f dd67 4bbf
00000270: 5721 413f cfe6 803e a775 6d3d d4a6 123f
00000280: 2bc5 56be 0925 64be a75c 6dbd 14aa 493f
00000290: 83b8 e33e 0e44 8bbf 2873 a33f 7e68 3abe
000002a0: a1f3 88bf 1e86 6c3f 7900 8bbf b253 8fbe
000002b0: b34b 7f3e 9484 64bf 5e43 d33e 9a52 0b3e
000002c0: 7f05 24bf c817 98b9 6c5a 18bf 735f abbf
000002d0: b50f 9fbf 2bec 4f3f deed bfbf 2698 87bf
000002e0: 7066 193d c2e5 5fbf 7db2 0fbd faa8 40bf
000002f0: 2d0b b9be 2f0a 793e cbb9 6a3f a34d 343f
00000300: f863 8f3f 829d 8abf 334c 1d3f 6bc4 653f
00000310: 8aba 453f 0465 bebf 28fd 823f f7a5 df3f
00000320: 9f0e f8be 4d40 983f c90f cb3f a9f4 953f
00000330: 825c 213f 9371 a3bf ea3b 16bf 4792 8ebf
00000340: f444 d83e d154 a5be 1738 b7bd 664b fabe
00000350: bae8 a4be 6ad2 ffbe b4f7 70be 060d 74bf
00000360: a90a 863f 5a25 6abe a988 aabf a10f 7ebe
00000370: 18bd 7ebf de87 983f 01fb b9bf 008c b4be
00000380: 8058 80bf aa33 3dbf 1415 47bf 3b78 96bd
00000390: f62c 093e a48f b9bd 3b11 663f b899 63be
000003a0: 6216 9fbe a1e3 b23f ddd1 c7bf 80c1 60bf
000003b0: f18e 7c3f 59df d4bd 2d3e 163e ff3d a53e
000003c0: 952a eabe 3ff2 043d ebda 483f aef4 ee3e
000003d0: 726d 2bbf 1da3 44bf a203 b6be 3acb 13bf
000003e0: 02a3 af3f a9de 4ebf dcd3 9a3f e125 68bf
000003f0: 75f5 873d d830 1bbf b358 4ebf 28c4 a3bd
-0.7268951 -0.2129984 1.5675809 -0.41450867 0.40173915 1.0883757 0.059292044 -0.6640094
0.18552805 -0.86763334 -1.5758278 -1.3565915 -1.1012889 -0.0032103588 0.6682138 -0.13691936
-0.033472665 1.0514132 0.58892006 0.068698205 -0.8014379 -0.31567824 -1.3240876 0.26288474
-1.2587271 0.24215485 0.5777769 -0.73578805 -1.17973 0.20657869 0.37342852 0.69223595
-0.4210177 -0.7237418 1.1822382 1.0391688 -0.94150144 -0.057292998 -1.360709 0.47118232
0.21013042 -1.3257284 -0.33541283 0.6696993 -1.3164523 1.4535071 -0.018303204 -1.728339
-0.59178054 -0.05096123 0.5512476 0.14941855 0.8049886 0.15579377 0.9598105 -0.6650455
-0.96897876 -0.072293706 -0.5429127 -0.030580629 0.86929 0.6097557 -0.9518536 0.57108057
-0.28032804 -1.1512537 -0.9965637 -0.32646942 -1.1624166 -0.19151215 -1.1763499 0.0501309
0.2517526 0.39647716 0.5463082 -0.8370374 -1.0932546 -0.8334212 -0.88256496 -0.15955502
-0.5295059 1.1168486 -1.3811606 -0.81448966 1.3004211 0.3073265 0.85926354 -1.86292
0.11656584 -0.64660716 -1.0714151 0.049284965 -0.029467963 -0.065381035 -0.32414433 -1.0884926
0.8068545 0.38168332 0.551918 0.62446636 -0.5553669 0.5235889 0.3594319 0.41823822
1.3321621 -0.7086314 0.35789075 0.5743012 -0.627235 0.75466555 -1.2344675 -1.3070755
1.1851892 -1.7027154 -0.63312185 -0.9177387 -1.4431784 0.4505098 1.1199565 0.48145595
-0.33242026 1.1803074 -0.09836365 -1.1632187 0.9139236 -0.6729251 0.7503642 -1.1837833
-0.9078132 0.17121758 -0.07784587 0.7070444 -1.0839111 -0.74914515 0.59737307 -0.9207325
-0.7140395 0.47250596 -0.2796035 -0.4468619 0.3189763 -0.33432743 0.40986985 -1.4653262
1.0994173 1.2362597 -0.036472656 0.080109276 0.6584482 -0.3008561 -0.41397813 0.8374803
0.61858535 1.6623214 1.0543655 -0.7945536 0.754415 0.25176093 0.05797353 0.5728581
-0.20973651 -0.22279753 -0.05794969 0.78775144 0.4447671 -1.0880144 1.2769518 -0.18203923
-1.069935 0.92392147 -1.0859519 -0.27993542 0.2493122 -0.892648 0.41262335 0.13605729
-0.64070886 -0.00029009418 -0.5951297 -1.3388504 -1.2426668 0.8121974 -1.4994466 -1.0593307
0.037451208 -0.8745996 -0.03508233 -0.7525784 -0.3614134 0.24320291 0.9168975 0.70430964
1.1202383 -1.0829318 0.61444396 0.89752835 0.7723776 -1.4874578 1.0233507 1.7472523
-0.48448655 1.1894623 1.5864192 1.1715289 0.6303178 -1.2769035 -0.5868517 -1.113839
0.42240107 -0.32291272 -0.08946245 -0.4888565 -0.32208806 -0.4996522 -0.23531991 -0.9533237
1.0472003 -0.22865811 -1.3322955 -0.2481065 -0.99507284 1.1916463 -1.4529725 -0.35263062
-1.0027008 -0.7390696 -0.7776654 -0.07347151 0.13396057 -0.090606004 0.8987004 -0.22226608
-0.31071764 1.3975717 -1.561092 -0.8779526 0.9865561 -0.10394163 0.14672156 0.32273862
-0.45735613 0.032457586 0.7845904 0.4667105 -0.66963875 -0.7681139 -0.35549647 -0.57731974
1.3721621 -0.808085 1.2095904 -0.906828 0.06638614 -0.60621405 -0.80604094 -0.07996398

bias f4 [10]
00000000: ce8b 313e 8144 1f3f dcdb 833c 3057 a9be
00000010: 6a34 68be 7ad6 033c 8ab6 82bd c1c2 64bd
00000020: 77c7 0dbe db27 433e
0.17338488 0.62213904 0.016096048 -0.3307433 -0.22676244 0.008046741 -0.06382473 -0.055849794
-0.13845621 0.19058172
