HW2/aML/resnet6_ch4.pt (torch, 31045 bytes, 27 tensors)

weight f4 [4, 3, 7, 7]
0.02983676 -0.010137158 -0.046327937 -0.010202484 0.13435 -0.03170165 0.0212308 0.051254336
-0.10152642 -0.30177107 -0.38279152 -0.30619186 -0.22461322 -0.19780356 0.24815147 -0.09064387
-0.38835874 -0.36919302 -0.099616215 0.047839455 0.12023431 0.13746117 0.25467455 -0.13707729
-0.025669739 0.20440862 0.08590637 0.010388002 0.3246541 0.8059147 0.51684046 0.15981026
-0.07698429 -0.10764518 -0.086514376 0.06604757 0.052992277 0.20778657 0.16312152 0.16949743
0.0280918 -0.06364922 -0.14813985 -0.27584013 -0.26428533 -0.13139956 0.13037343 0.13026592
0.1357479 0.058623467 -0.012635323 -0.056321748 -0.048836187 0.008247353 -0.029691141 0.013627259
0.102876484 -0.055831976 -0.24449213 -0.3138682 -0.3029671 -0.35431027 -0.12852192 0.19527692
-0.08904273 -0.51177335 -0.30613396 0.034665022 0.001201373 0.015287204 0.20537409 0.13914603
-0.2195805 -0.065305494 0.143457 0.17276864 0.069347605 0.2560458 0.7588021 0.57014966
0.11015853 -0.035625633 -0.06068555 -0.01597734 0.01803541 0.014202575 0.31543145 0.2276667
0.14948732 0.043306023 -0.082098864 -0.19105297 -0.2783999 -0.17336842 -0.08455315 0.102607235
0.18114853 0.1471205 -0.06583739 -0.055472743 -0.039385814 -0.07465732 0.14804468 0.0446039
0.08741201 0.14404677 -0.027657645 -0.26589528 -0.45113435 -0.2873285 -0.2816404 -0.22113973
0.23317964 -0.017291991 -0.36008167 -0.38584468 -0.040493753 0.05679437 0.106158644 0.26641807
0.16832402 -0.13227679 -0.031027019 0.18209091 0.13141647 0.051624622 0.32623947 0.7378929
0.56437546 0.24381895 -0.0055340026 -0.17018156 -0.020358881 0.04298861 -0.005212021 0.20438926
0.23524348 0.18894191 -0.09943808 -0.081535116 -0.12223946 -0.21414997 -0.25332054 -0.118603244
0.09073822 0.1388019 0.122807525 0.17621678 0.027372431 0.29447755 0.11463665 -0.030381909
0.051551547 0.17793933 -0.049661096 -0.23150606 -0.1844581 -0.16456425 0.08706015 0.2417138
0.53133714 -0.0550378 -0.066102356 0.24256313 0.3306871 0.20381597 0.080669545 0.18329854
0.53227687 0.5208493 0.24093774 0.030332103 0.29084966 0.00976884 -0.04694253 0.34770158
0.11452554 -0.0034864903 0.09667511 0.13912976 -0.1873644 -0.26750386 -0.35813212 -0.0043482166
-0.06675705 -0.24031772 -0.31760386 -0.27324608 -0.0048627304 -0.6864361 -0.31274238 -0.3030495
-0.525506 -0.10814868 -0.11028186 -0.045583755 0.073640026 0.06007914 0.24946287 0.14149944
-0.058713943 0.031120155 0.109558314 -0.070016004 -0.2005814 -0.19738162 -0.18229431 0.040171675
0.29374492 0.5655748 -0.0067544724 -0.07338578 0.21488038 0.35615212 0.22869664 0.14144598
0.19080146 0.47988355 0.3973506 0.1318514 0.07810764 0.23372832 0.008480161 -0.15849628
0.30555835 0.074772015 -0.044547908 0.14228597 0.090304695 -0.18633804 -0.18633072 -0.39220092
-0.080277175 -0.16506708 -0.3085567 -0.30032983 -0.2794624 -0.06590804 -0.6198984 -0.29493824
-0.34710023 -0.5388473 -0.088925004 0.01876968 -0.10823138 0.23299213 0.050841607 0.24121526
0.23676386 0.08680831 0.07532757 0.25310183 -0.11935585 -0.12123749 -0.15214083 -0.1703759
00000000: 396c f43c 5316 26bc 5dc2 3dbd 5228 27bc
00000010: 0c93 093e 97d9 01bd 37ec ad3c 11f0 513d
00000020: 15ed cfbd bd81 9abe 40fd c3be 2ec5 9cbe
00000030: 0201 66be 048d 4abe 6b1b 7e3e 7ea3 b9bd
00000040: f5d6 c6be de06 bdbe 9603 ccbd 4ef3 433d
00000050: 683d f63d 9fc2 0c3e b464 823e fd5d 0cbe
00000060: 5849 d2bc 7e50 513e aeef af3d 7032 2a3c
00000070: 1039 a63e 6d50 4e3f a84f 043f 4da5 233e
00000080: f0a9 9dbd 1375 dcbd 732e b1bd f343 873d
00000090: 6e0e 593d 01c6 543e 5409 273e bc90 2d3e
000000a0: c620 e63c 865a 82bd f9b1 17be eb3a 8dbe
000000b0: 6850 87be 9b8d 06be 9d80 053e 6e64 053e
000000c0: 7f01 0b3e 291f 703d 6304 4fbc a2b1 66bd
000000d0: 7408 48bd e81f 073c d63a f3bc de44 5f3c
000000e0: e8b0 d23d 12b0 64bd 255c 7abe 55b3 a0be
000000f0: 811e 9bbe 2868 b5be 409b 03be acf6 473e
00000100: 095c b6bd 9403 03bf 97bd 9cbe e9fc 0d3d
00000110: 6377 9d3a 2e77 7a3c 964d 523e 4c7c 0e3e
00000120: b6d9 60be e3be 85bd 64e6 123e 43ea 303e
00000130: 1e06 8e3d 6f18 833e db40 423f 54f5 113f
00000140: cc9a e13d 2fec 11bd 6991 78bd e9e2 82bc
00000150: ffbe 933c ebb1 683c 3b80 a13e 7621 693e
00000160: 3413 193e a861 313d 7323 a8bd 64a3 43be
00000170: 6f8a 8ebe 7e87 31be 342a adbd be23 d23d
00000180: 007f 393e c2a6 163e c1d5 86bd 6337 63bd
00000190: 0553 21bd f0e5 98bd 0699 173e 94b2 363d
000001a0: 1105 b33d ff80 133e 4992 e2bc 6d23 88be
000001b0: 15fb e6be b91c 93be 2c33 90be 7472 62be
000001c0: a5c6 6e3e efa7 8dbc a05c b8be 6f8d c5be
000001d0: c7dc 25bd 37a1 683d b469 d93d f367 883e
000001e0: 225d 2c3e 9173 07be 602c febc 0a76 3a3e
000001f0: 0a92 063e 5774 533d dc08 a73e 8de6 3c3f
00000200: e97a 103f adab 793e 9456 b5bb 1344 2ebe
00000210: abc7 a6bc d314 303d 9ac9 aabb 6b4b 513e
00000220: abe3 703e fd79 413e 31a6 cbbd e2fb a6bd
00000230: af58 fabd 214a 5bbe 3bb3 81be 42e6 f2bd
00000240: f6d4 b93d 1622 0e3e 8382 fb3d 2c72 343e
00000250: 263c e03c c3c5 963e 9fc6 ea3d 7be3 f8bc
00000260: b727 533d ba35 363e 6f69 4bbd ed0f 6dbe
00000270: 96e2 3cbe 8883 28be 984c b23d d383 773e
00000280: b605 083f 516f 61bd ac60 87bd 7862 783e
00000290: d24f a93e 22b5 503e 1336 a53d 9db2 3b3e
000002a0: 4c43 083f 6156 053f 62b8 763e 087b f83c
000002b0: 3fea 943e 7c0d 203c cf46 40bd f105 b23e
000002c0: 5e8c ea3d 9a7d 64bb 9afd c53d 0878 0e3e
000002d0: 74dc 3fbe 44f6 88be 185d b7be 7c7b 8ebb
000002e0: ecb7 88bd d915 76be f99c a2be e9e6 8bbe
000002f0: 8a57 9fbb 47ba 2fbf c51f a0be 4e29 9bbe
00000300: 9087 06bf 0e7d ddbd 75db e1bd 08b6 3abd
00000310: 95d0 963d 8b15 763d 3273 7f3e 3be5 103e
00000320: 087e 70bd b2ef fe3c 1c60 e03d 8d64 8fbd
00000330: 3665 4dbe 681e 4abe 5cab 3abe 0e8b 243d
00000340: bc65 963e 83c9 103f 9f54 ddbb 494b 96bd
00000350: 9a09 5c3e 9259 b63e 742f 6a3e 37d7 103e
00000360: 7561 433e 4cb3 f53e 8a71 cb3e 0e04 073e
00000370: e6f6 9f3d 7a56 6f3e 60f0 0a3c d94c 22be
00000380: 2572 9c3e 1222 993d de77 36bd 6ab3 113e
00000390: abf1 b83d 66cf 3ebe 7bcd 3ebe 8fce c8be
000003a0: 5c68 a4bd 5807 29be 25fb 9dbe d5c4 99be
000003b0: b215 8fbe cbfa 86bd a9b1 1ebf 2502 97be
000003c0: 1fb7 b1be e6f1 09bf 501e b6bd dfc2 993c
000003d0: 6aa8 ddbd 7d95 6e3e 4a3f 503d 2201 773e
000003e0: 3a72 723e 8ec8 b13d 5745 9a3d 9096 813e
000003f0: d770 f4bd 5c4b f8bd ceca 1bbe 0577 2ebe

weight f4 [4]
1.0575119 0.92980325 1.1961153 1.1461605
00000000: 8d5c 873f 9607 6e3f 4e1a 993f 63b5 923f

bias f4 [4]
0.65827173 0.07613632 0.84845805 -1.8653356
00000000: 7f84 283f 5ced 9b3d 8c34 593f 51c3 eebf

running_mean f4 [4]
7.5403705 3.422634 10.024173 10.730154
00000000: b74a f140 6f0c 5b40 0363 2041 b6ae 2b41

running_var f4 [4]
14842.844 37284.38 52451.324 28096.3
00000000: 60eb 6746 61a4 1147 53e3 4c47 9a80 db46

weight f4 [4, 4, 3, 3]
0.106855094 -0.06784059 0.17393817 0.6876906 0.17618074 0.4696192 0.73420715 0.038138147
0.24493213 -0.0031462903 -0.19204551 -0.0961255 0.5925191 0.49431235 0.33999896 0.6590937
-0.14947225 0.06732796 0.085479245 0.22549838 0.35638502 -0.26906714 -0.5472298 -0.4787775
-0.20154335 -0.13814159 -0.23183037 0.47350854 -0.11264414 0.30718738 -0.18691325 0.150019
0.30461305 -0.002988971 0.1698919 -0.24073564 0.11538422 0.10352574 0.5276383 -0.31503415
0.020380992 0.27412394 -0.36124852 -0.07075997 0.086857095 -0.21308288 -0.22356322 0.21217722
-0.49116546 -0.2302011 0.4515467 0.23946089 0.29656854 0.32991984 -0.41378886 -0.34216753
-0.6327827 0.41719547 -0.034204584 -0.0754313 0.035627227 0.069454625 -0.25263748 -0.07974612
-0.38722035 -0.013115878 0.25479043 0.049468435 -0.21772563 -0.24362148 0.054200303 -0.10870712
-0.005043125 0.27038574 0.009548776 -0.26870447 0.077622205 -0.46877787 -0.2851668 -0.35567668
-0.23854935 0.10973904 -0.33085474 -0.381678 0.34995547 0.076643705 -0.44066262 0.8499891
-0.003354207 0.13497053 -0.13539821 -0.2990699 -0.43220332 -0.0020378884 0.35310182 0.55753815
0.19030288 -0.28613696 -0.43406263 -0.37325785 -0.66919273 -0.12514345 0.22204785 -0.6877291
-0.00030028602 -0.5677744 0.259376 -0.16270669 0.19837242 0.029779894 -0.09851128 0.108491234
0.36674917 -0.13220632 0.20339163 0.091762595 -0.16138949 0.3769086 -0.17087518 0.06964725
0.1756274 0.22041962 0.033854432 0.011280275 0.0894111 -0.5391876 0.16736118 -0.020225938
0.13972741 -0.13879156 -0.3481229 -0.0152457245 -0.3737201 -0.07883429 0.20470758 0.04571458
0.025587188 0.27884698 -0.2907088 -0.29429346 0.0776066 -0.31364867 -0.5391582 -1.0974462
00000000: d8d6 da3d 02f0 8abd d91c 323e 7e0c 303f
00000010: b968 343e ee71 f03e 00f5 3b3f bf36 1c3d
00000020: 7dcf 7a3e fe31 4ebb 94a7 44be 72dd c4bd
00000030: 55af 173f 8216 fd3e 5814 ae3e 5dba 283f
00000040: 410f 19be 3ee3 893d be0f af3d 0ce9 663e
00000050: 1978 b63e 2bc3 89be 4117 0cbf 5322 f5be
00000060: 6161 4ebe fd74 0dbe f164 6dbe b66f f23e
00000070: f9b1 e6bd aa47 9d3e 3066 3fbe 959e 193e
00000080: 3ef6 9b3e 9de2 43bb 24f8 2d3e 6783 76be
00000090: 904e ec3d 4e05 d43d 4e13 073f 284c a1be
000000a0: 0af6 a63c f959 8c3e 91f5 b8be 9aea 90bd
000000b0: 22e2 b13d 6632 5abe c2ed 64be fc44 593e
000000c0: 0a7a fbbe d6b9 6bbe 2131 e73e 3c35 753e
000000d0: d5d7 973e 41eb a83e 22dc d3be 9530 afbe
000000e0: 0cfe 21bf a59a d53e 1b1a 0cbd ba7b 9abd
000000f0: dbed 113d 3a3e 8e3d b359 81be ef51 a3bd
00000100: bf41 c6be fbe3 56bc e473 823e 6a9f 4a3d
00000110: 78f3 5ebe e977 79be 2301 5e3d d7a1 debd
00000120: cc40 a5bb 0070 8a3e 7872 1c3c a293 89be
00000130: 64f8 9e3d a703 f0be 6201 92be 411b b6be
00000140: 4846 74be ddbe e03d cb65 a9be 4c6b c3be
00000150: 5d2d b33e 60f7 9c3d 889e e1be e398 593f
00000160: 41d2 5bbb b735 0a3e d4a5 0abe b11f 99be
00000170: c149 ddbe 188e 05bb c3c9 b43e d2ba 0e3f
00000180: c2de 423e 8b80 92be 753d debe a71b bfbe
00000190: 3750 2bbf 9b25 00be 8360 633e 040f 30bf
000001a0: b56f 9db9 aa59 11bf eecc 843e 959c 26be
000001b0: 2422 4b3e f7f4 f33c 48c0 c9bd a730 de3d
000001c0: 8cc6 bb3e 1861 07be e545 503e 07ee bb3d
000001d0: 4943 25be 2afa c03e e7f9 2ebe 38a3 8e3d
000001e0: abd7 333e aeb5 613e f2aa 0a3d e7d0 383c
000001f0: 2b1d b73d 3308 0abf bb60 2b3e deb0 a5bc
00000200: b414 0f3e 601f 0ebe 2a3d b2be 34c9 79bc
00000210: 3e58 bfbe df73 a1bd dd9e 513e 363f 3b3d
00000220: 399c d13c 08c5 8e3e c9d7 94be a2ad 96be
00000230: 36f0 9e3d 8f96 a0be 4606 0abf 1e79 8cbf

weight f4 [4]
0.64115435 0.84741795 0.7425397 1.0229172
00000000: b122 243f 62f0 583f 1517 3e3f f3ee 823f

bias f4 [4]
-1.4612548 0.20667146 0.60528237 -0.7700361
00000000: 660a bbbf afa1 533e c9f3 1a3f 1621 45bf

running_mean f4 [4]
1.8371952 -0.99933547 -2.0142746 -0.40772232
00000000: 3629 eb3f 73d4 7fbf e0e9 00c0 fbc0 d0be

running_var f4 [4]
21.128374 4.8195844 18.29573 7.177137
00000000: e906 a941 093a 9a40 a85d 9241 1bab e540

weight f4 [4, 4, 3, 3]
0.31146318 0.11759202 1.3657988 0.32800773 0.04083697 0.2577683 0.41803455 0.067641445
0.29896605 -0.31579956 -0.052448716 0.042529523 0.097445555 -0.15429655 -0.039306425 -0.38667238
-0.009811317 0.002210733 0.29090592 -0.20327657 0.2587795 0.04619767 -0.45369157 -0.14697841
0.49520501 -0.003214386 -0.13577865 0.10050655 0.3303911 0.4848542 -0.2956474 0.10716682
-0.16105962 -0.88961434 -0.1161743 -0.7648937 0.2740479 -0.18542542 0.003225879 0.06283919
-0.07605894 -0.37432182 0.20150015 0.07123913 -0.11162146 -0.34931543 0.6072737 0.35400006
0.005752896 0.08017991 -0.34807953 0.37423354 -0.049997453 -0.114190735 -0.21227658 -0.2006488
-0.49103087 0.17804699 0.10041974 0.43405366 -0.34646937 0.28762913 0.75261104 0.19095366
-0.0100943865 0.81433433 0.06059761 0.6526519 0.9369683 0.17644404 0.49030307 0.7631131
-0.67601645 -0.31679794 -0.12843439 -0.006169113 0.221983 0.46168226 -0.5362252 -0.15716115
-0.10887525 0.23204413 -0.29567695 -0.079773724 0.08745165 0.030654162 -0.23540418 -0.24352343
0.198411 -0.074251704 -0.016636373 -0.17646068 -0.13033456 -0.11120112 -0.532184 -0.501503
-0.0612516 -0.31959403 0.028346507 0.021638561 0.041737005 0.24480432 -0.11436 0.23103864
0.528448 -0.16023582 0.31275022 0.087254986 -0.026198179 0.4354994 0.015379494 -0.027584428
0.18053931 -0.10964834 -0.031510342 -0.063140586 -0.20683789 0.6501181 0.041575387 0.584673
0.4912579 -0.32850906 0.091934144 0.9307147 0.010253379 0.1742904 -0.401349 -0.18046951
0.37355876 0.043552794 -0.062915966 -0.20041505 0.0023865872 -0.42177877 -0.65719664 0.2121444
0.17501856 0.10230313 0.018127127 0.10813807 0.05912174 0.24249598 0.1281623 -0.060055036
00000000: 1a78 9f3e 16d4 f03d 7fd2 ae3f a1f0 a73e
00000010: ab44 273d 35fa 833e a008 d63e 9987 8a3d
00000020: 1412 993e 7bb0 a1be 77d4 56bd 7033 2e3d
00000030: 8991 c73d eaff 1dbe c6ff 20bd ecf9 c5be
00000040: a5bf 20bc f2e1 103b 9ff1 943e bc27 50be
00000050: bf7e 843e c539 3d3d 434a e8be 8281 16be
00000060: 838b fd3e 73a8 52bb 8f09 0bbe 61d6 cd3d
00000070: 0629 a93e cf3e f83e 195f 97be 477a db3d
00000080: d0ec 24be c4bd 63bf cbec edbd 13d0 43bf
00000090: 0250 8c3e 29e0 3dbe 4569 533b d5b1 803d
000000a0: cac4 9bbd 1ca7 bfbe 0e56 4e3e d2e5 913d
000000b0: cb99 e4bd 79d9 b2be 4a76 1b3f 7f3f b53e
000000c0: ca82 bc3b 5d35 a43d 7b37 b2be 8a9b bf3e
000000d0: 21ca 4cbd d5dc e9bd 085f 59be e176 4dbe
000000e0: 6668 fbbe f351 363e dda8 cd3d 483c de3e
000000f0: 6f64 b1be 2044 933e 1eab 403f 5b89 433e
00000100: ed62 25bc 3778 503f 3335 783d 3214 273f
00000110: 28dd 6f3f bfad 343e 0109 fb3e 615b 433f
00000120: 6a0f 2dbf 5733 a2be 4e84 03be 4526 cabb
00000130: 834f 633e 9e61 ec3e 0e46 09bf daee 20be
00000140: fdf9 debd fa9c 6d3e f862 97be 6860 a3bd
00000150: da19 b33d 701e fb3c cb0d 71be 355e 79be
00000160: 412c 4b3e 4711 98bd 0149 88bc 1cb2 34be
00000170: 6c76 05be 6abd e3bd 363d 08bf 8062 00bf
00000180: f5e2 7abd d4a1 a3be ef36 e83c 5a43 b13c
00000190: 6cf4 2a3d fcad 7a3e 9335 eabd 6595 6c3e
000001a0: 5e48 073f dc14 24be cc20 a03e beb2 b23d
000001b0: 909d d6bc c7f9 de3e 46fa 7b3c bdf8 e1bc
000001c0: 4cdf 383e 4f8f e0bd fd10 01bd da4f 81bd
000001d0: 50cd 53be 246e 263f f44a 2a3d 21ad 153f
000001e0: 2886 fb3e 5732 a8be f847 bc3d 5243 6e3f
000001f0: cafd 273c 2f79 323e 9e7d cdbe 00cd 38be
00000200: 1843 bf3e 6a64 323d 16da 80bd 9a39 4dbe
00000210: 4a68 1c3b 63f3 d7be 0a3e 28bf 623c 593e
00000220: 1138 333e 4e84 d13d 577f 943c 7e77 dd3d
00000230: a329 723d de50 783e fa3c 033e 45fc 75bd

weight f4 [4]
4.3332176 5.6410728 4.138609 4.7412763
00000000: b8a9 8a40 ab83 b440 7c6f 8440 89b8 9740

bias f4 [4]
0.89840937 -0.8018902 1.0948415 0.41390443
00000000: 28fe 653f ad48 4dbf c423 8c3f 48eb d33e

running_mean f4 [4]
-0.082298055 0.6158411 -1.4544309 -0.14393461
00000000: e28b a8bd c3a7 1d3f cb2a babf 9863 13be

running_var f4 [4]
0.47928888 0.38566512 0.15775459 0.60704947
00000000: 5a65 f53e e675 c53e 6b8a 213e 9867 1b3f

weight f4 [4, 4, 3, 3]
-0.14474425 0.13496158 -0.09664689 0.03372296 -0.027484737 -0.2878045 0.2776553 0.13060969
0.113342844 -0.066653565 -0.26516718 -0.8557236 0.024853155 -0.07918994 -0.44655502 -0.016660873
-0.45365325 -0.28217044 -0.23181406 -0.7956594 -0.87920743 0.14138025 -0.10471038 0.27162477
0.43171325 0.31014982 0.61417663 -0.028868163 0.28536263 0.12692618 0.18483457 0.05695945
-0.1057979 0.62795144 0.055297125 0.34510726 -0.19463916 0.3156814 0.21154599 -0.20720983
0.19335642 -0.42345223 -0.50468856 -0.12071331 -0.009825165 0.08953808 0.2692414 0.54205126
-0.09001002 0.14405642 -0.08484737 -0.3442471 -0.12440806 0.10939131 -0.43342 -0.24881779
-0.13600384 0.2082377 0.28592482 0.048845336 0.42988896 0.21793808 0.35710353 -0.08231434
0.050096467 -0.10816222 -0.100655 -0.2203735 -0.37215704 -0.3390994 -0.32929862 -0.045826267
-0.12193987 -0.17060176 -0.31156805 0.2727495 -0.3901993 -0.528436 0.31751102 -0.7061176
-1.0268127 -0.46697032 0.18397611 -0.31554934 -0.14817958 0.43482614 0.022633454 0.23532125
0.065672025 0.087409995 0.38327417 0.19774212 -0.103971064 0.24352632 0.31813958 0.011412316
-0.57215834 -0.0028382114 -0.50509787 -0.6099327 0.15785673 0.3012796 -0.40423366 0.1527588
-0.02073578 -0.36727083 0.15544932 0.21517397 -0.39238608 0.2020789 -0.31352228 -0.28509957
0.20509748 0.14128944 -0.7408394 -0.16736746 -0.024479354 0.20983374 -0.006807244 0.17340435
0.1197478 0.051321715 0.62395245 -0.3944745 -0.24403128 0.2508972 0.05933572 -0.0021671169
0.14853337 0.25905392 0.049425516 0.20556237 0.1708356 0.02184728 0.12250746 0.41899958
0.12654985 -0.20553517 0.5333763 0.37376738 -0.3866586 0.47199646 0.6476108 -0.2702067
00000000: d637 14be 5e33 0a3e ceee c5bd 1621 0a3d
00000010: ac27 e1bc 1d5b 93be d628 8e3e 8cbe 053e
00000020: 4b20 e83d aa81 88bd fec3 87be b410 5bbf
00000030: d898 cb3c 562e a2bd dca2 e4be 627c 88bc
00000040: 3d45 e8be a578 90be aa60 6dbe 56b0 4bbf
00000050: bd13 61bf fcc5 103e 6572 d6bd 6712 8b3e
00000060: 8509 dd3e f5cb 9e3e ae3a 1d3f ed7c ecbc
00000070: 0d1b 923e f0f8 013e 4645 3d3e 504e 693d
00000080: 92ac d8bd 6dc1 203f 3d7f 623d e6b1 b03e
00000090: 7d4f 47be fea0 a13e 839f 583e d02e 54be
000000a0: 3aff 453e bbce d8be 4533 01bf 8a38 f7bd
000000b0: bbf9 20bc be5f b73d 02da 893e dfc3 0a3f
000000c0: 2c57 b8bd 8783 133e 75c4 adbd 2841 b0be
000000d0: a7c9 febd 8d08 e03d 3ae9 ddbe 17ca 7ebe
000000e0: 9744 0bbe 433c 553e bd64 923e 0c12 483d
000000f0: 681a dc3e 292b 5f3e 46d6 b63e 6c94 a8bd
00000100: f431 4d3d 2784 ddbd 3524 cebd 97a9 61be
00000110: 5e8b bebe 709e adbe d499 a8be 53b4 3bbd
00000120: 9cbb f9bd 3ab2 2ebe d985 9fbe d3a5 8b3e
00000130: 34c8 c7be 9547 07bf ce90 a23e 1fc4 34bf
00000140: 996e 83bf bc16 efbe 3c64 3c3e af8f a1be
00000150: 63bc 17be 88a1 de3e cb69 b93c 0ef8 703e
00000160: 0e7f 863d 0304 b33d 833c c43e e97c 4a3e
00000170: c8ee d4bd f75e 793e 31e3 a23e b9fa 3a3c
00000180: f878 12bf 4901 3abb 184e 01bf 8d24 1cbf
00000190: 32a5 213e 5241 9a3e b7f7 cebe ce6c 1c3e
000001a0: 15de a9bc ec0a bcbe 1b2e 1f3e 9156 5c3e
000001b0: d4e6 c8be c5ed 4e3e fe85 a0be 92f8 91be
000001c0: 1305 523e 2eae 103e a7a7 3dbf 6062 2bbe
000001d0: ed88 c8bc a8de 563e 4d0f dfbb e990 313e
000001e0: 563e f53d b836 523d 59bb 1f3f 90f8 c9be
000001f0: 56e3 79be 9975 803e 030a 733d 3006 0ebb
00000200: 2219 183e b7a2 843e 6972 4a3d f17e 523e
00000210: 87ef 2e3e 11f9 b23c 31e5 fa3d 1d87 d63e
00000220: 4996 013e d077 52be 598b 083f 705e bf3e
00000230: 1ef8 c5be 85a9 f13e d2c9 253f 8858 8abe

weight f4 [4]
1.0422039 1.0519136 1.3655195 0.80388767
00000000: f066 853f 1ba5 863f 58c9 ae3f 95cb 4d3f

bias f4 [4]
-0.22496504 0.20424306 0.5779405 -0.6838067
00000000: 3c5d 66be 1825 513e e9f3 133f f50d 2fbf

running_mean f4 [4]
-0.85189074 -1.3662747 -5.77195 2.6587782
00000000: 8315 5abf 17e2 aebf d0b3 b8c0 6c29 2a40

running_var f4 [4]
141.42383 96.41956 244.9309 122.050224
00000000: 806c 0d43 d1d6 c042 4fee 7443 b719 f442

weight f4 [4, 4, 3, 3]
-0.08550029 -0.15742363 -0.13408963 -0.047644958 -0.06522926 0.039565347 -0.11884281 0.06595653
-0.0017466054 -0.4999684 -0.21078317 -0.5827781 -0.16797042 -0.33723646 -0.6519594 0.40986365
0.02003724 -0.44328454 -0.50748813 -0.7660648 0.02102838 -0.83202857 -1.2373791 -0.9596773
0.14646526 -0.67604554 -0.36970398 0.037205044 0.034708943 0.28395322 -0.020645542 -0.019661782
0.0926759 -0.38320938 -0.4407921 -0.50422186 -0.57495487 -0.332417 -0.5612271 -0.17927496
-0.16355734 -0.2679641 -0.0766801 -0.06758155 -0.27033997 0.22355662 0.04439102 -0.02639876
-0.0015980714 -0.14484514 -0.04789977 -0.49620542 -0.34162876 0.013251595 0.087546885 -0.1839528
-0.2360104 -0.4821754 -0.69153446 -0.45960584 -0.2767034 -0.58406293 -0.0367819 0.027476996
-0.11875976 -0.0015115048 0.11106359 0.08494846 0.3390912 0.37155086 0.2983202 0.45556295
0.4658306 0.16144261 0.36255902 -0.061156716 0.06047473 0.34716856 -0.25115794 -0.26701203
-0.112616934 0.74229866 -0.053715423 0.336551 0.6655178 0.26948047 0.49722242 0.41473562
-0.04478346 1.0205474 -0.367972 0.16606745 0.15084065 -0.18858805 0.11301483 0.0010779526
-0.1689506 -0.028155006 -0.14556324 -0.46010956 -0.4353006 -0.6820505 0.064307675 -0.010695243
-0.08329837 0.2264863 0.18570195 0.23260777 0.3779471 0.05729387 0.5395567 0.39462233
-0.06971015 0.23073639 0.54219586 -0.038835473 0.40585256 -0.30518603 -0.014331317 -0.29962054
-0.13597284 -0.043996725 -0.17389712 0.09681332 -0.01612559 -0.049308326 0.083267845 0.5201578
0.2149916 0.34577814 0.59355545 0.56089085 0.1731753 0.51286674 0.32844496 0.3876293
0.15001085 0.5354487 -0.00718699 -0.18226245 0.019295903 0.21214363 -0.11625621 -0.035138216
00000000: c71a afbd a933 21be cb4e 09be 5c27 43bd
00000010: eb96 85bd 460f 223d dc63 f3bd 3814 873d
00000020: 5aee e4ba dcfb ffbe 8bd7 57be f230 15bf
00000030: 7000 2cbe 42aa acbe d0e6 26bf a6d9 d13e
00000040: 2325 a43c 31f6 e2be beea 01bf d31c 44bf
00000050: b643 ac3c d3ff 54bf 7062 9ebf 69ad 75bf
00000060: fdfa 153e 5211 2dbf d749 bdbe 5164 183d
00000070: f72a 0e3d 5162 913e d720 a9bc bf11 a1bc
00000080: ddcc bd3d 0534 c4be 81af e1be af14 01bf
00000090: 3e30 13bf 9032 aabe 94ac 0fbf db93 37be
000000a0: 937b 27be 9732 89be 750a 9dbd 3268 8abd
000000b0: 006a 8abe 07ec 643e 5cd3 353d 3642 d8bc
000000c0: 6176 d1ba 4952 14be 8d32 44bd a30e febe
000000d0: f7e9 aebe 381d 593c c84b b33d 1f5e 3cbe
000000e0: b6ac 71be b2df f6be 6708 31bf 7551 ebbe
000000f0: 11ac 8dbe 2685 15bf 9ea8 16bd 7017 e13c
00000100: 5138 f3bd af1d c6ba 4f75 e33d 75f9 ad3d
00000110: 5d9d ad3e ea3b be3e 6dbd 983e 8c3f e93e
00000120: 5981 ee3e 3651 253e 56a1 b93e 777f 7abd
00000130: 5ab4 773d 14c0 b13e c697 80be cdb5 88be
00000140: b5a3 e6bd 4907 3e3f b404 5cbd 6a50 ac3e
00000150: 605f 2a3f 58f9 893e f093 fe3e 3a58 d43e
00000160: dd6e 37bd 4ca1 823f d366 bcbe 960d 2a3e
00000170: f975 1a3e 3a1d 41be 5274 e73d 164a 8d3a
00000180: 6301 2dbe 54a5 e6bc 880e 15be 7b93 ebbe
00000190: b8df debe dd9a 2ebf beb3 833d 1a3b 2fbc
000001a0: 5698 aabd 06ec 673e a728 3e3e bb30 6e3e
000001b0: 4882 c13e faac 6a3d 6320 0a3f f00b ca3e
000001c0: 32c4 8ebd 2946 6c3e 59cd 0a3f f211 1fbd
000001d0: e8cb cf3e 5841 9cbe e6cd 6abc dd67 99be
000001e0: 773c 0bbe e935 34bd 1612 32be 1046 c63d
000001f0: d019 84bc 87f7 49bd 5588 aa3d 1029 053f
00000200: c226 5c3e d509 b13e 40f3 173f 8b96 0f3f
00000210: de54 313e 3c4b 033f f029 a83e 5977 c63e
00000220: 729c 193e 2a13 093f d880 ebbb 02a3 3abe
00000230: 7112 9e3c 2e3c 593e bc17 eebd 17ed 0fbd

weight f4 [4]
8.667439 8.053431 11.554188 8.896424
00000000: d5ad 0a41 dada 0041 f4dd 3841 c157 0e41

bias f4 [4]
0.25016493 0.71931636 1.2592174 0.73256373
00000000: 9e15 803e 1e25 383f 092e a13f 4c89 3b3f

running_mean f4 [4]
-5.0447636 -2.5644472 1.0439233 2.5572946
00000000: b46e a1c0 e71f 24c0 479f 853f b7aa 2340

running_var f4 [4]
0.7756538 0.6296526 0.47036842 0.5402909
00000000: 3f91 463f ea30 213f 21d4 f03e 8150 0a3f

weight f4 [10, 4]
0.12210757 0.86365426 0.8275339 -1.7150598 -5.694873 -0.22257191 3.3203394 -0.93806857
-1.3324277 0.53966695 -0.22370987 1.7385931 0.33401424 0.9026365 -3.5619495 3.070966
0.8652579 -4.449707 2.6062908 -1.917615 0.5575142 3.4078207 -2.934017 -0.6668465
1.4051968 1.8656737 0.69087505 -7.16364 -2.7813594 -2.9827104 0.85649955 3.412174
3.4507568 -0.83741033 -2.1028078 -1.0658581 1.848613 -4.200167 -0.11726357 1.0767674
00000000: 8913 fa3d 7218 5d3f 43d9 533f 1487 dbbf
00000010: 663c b6c0 e4e9 63be 7180 5440 4325 70bf
00000020: fe8c aabf 9d27 0a3f 3314 65be 388a de3f
00000030: ea03 ab3e 3013 673f fbf6 63c0 b58a 4440
00000040: 8b81 5d3f 0064 8ec0 78cd 2640 6974 f5bf
00000050: 40b9 0e3f bc19 5a40 efc6 3bc0 74b6 2abf
00000060: 7ddd b33f 65ce ee3f 30dd 303f 8a3c e5c0
00000070: cb01 32c0 bae4 3ec0 8e43 5b3f 0f61 5a40
00000080: 33d9 5c40 8660 56bf 6794 06c0 0a6e 88bf
00000090: 5a9f ec3f c567 86c0 e227 f0bd 84d3 893f

bias f4 [10]
-1.0631425 2.800132 -1.0978137 -0.83981514 -0.4502263 0.07833913 0.58770514 -1.2336438
1.2314795 0.4697322
00000000: 0e15 88bf 5d35 3340 2985 8cbf 20fe 56bf
00000010: 1084 e6be 4470 a03d d873 163f 0ae8 9dbf
00000020: 1fa1 9d3f bd80 f03e
