HW2/aML/resnet10_btnk_ch4n4n8n8.pt (torch, 111893 bytes, 87 tensors)

weight f4 [4, 3, 7, 7]
000000 80 21 7e 3e 9f e0 a0 3d 6a 54 67 3e ee c6 80 be
       0.24817467 0.07855343 0.22590795 -0.2515177
000010 23 49 cc be 3a 8f 68 be cb 82 8b bd e3 ef cb 3e
       -0.3989955 -0.22710887 -0.06812056 0.39831457
000020 c8 67 d5 3d 25 fc 73 3e dd f2 c2 3b af 36 49 bd
       0.10420185 0.23826654 0.0059493617 -0.049124416
000030 67 96 42 3d b3 6a b6 bc 19 2f f6 3d 5b 98 3b 3e
       0.047506716 -0.022267675 0.12020702 0.18319838
000040 e2 d0 bf 3e 43 3e ab 3e 6a a6 20 3f eb c5 d4 3e
       0.37464052 0.3344594 0.6275393 0.4155725
000050 c5 80 4c 3e fb d3 06 3e 1a 76 74 3e f5 02 94 3e
       0.19970997 0.13166802 0.23873177 0.28908506
000060 81 1f 7f 3e 00 aa 8f 3e 97 1f 53 3e 93 5a bb 3e
       0.24914362 0.28059387 0.2061752 0.3659254
000070 5d ed d7 3d 2d 6d af bc 29 72 da 3d c9 31 4b 3d
       0.1054332 -0.021414364 0.106663056 0.049608026
000080 84 6b 3c 3d 8d 51 a7 3d 3c 10 8f 3e ff c8 89 be
       0.046000972 0.081698515 0.27942073 -0.2691116
000090 20 33 db bd ba d5 80 be c1 6a 0a be d1 82 9f be
       -0.10703111 -0.2516306 -0.13517286 -0.31154492
0000a0 cf b1 7f bc 28 94 93 3e 6c 66 d4 be 09 85 07 bf
       -0.015606358 0.28823972 -0.41484392 -0.5293737
0000b0 2d 59 d2 be 8e 89 ac be 34 7d af bd 37 d3 86 be
       -0.4108366 -0.33698696 -0.085688025 -0.2633302
0000c0 d6 25 55 ba 16 f4 a9 3e 47 ca b7 3c d5 6e 3f 3e
       -0.0008130943 0.33194035 0.02243532 0.18694623
0000d0 ce 9f 8b be 0d b2 94 be cd fe 5c be 71 14 bc 3c
       -0.2727036 -0.29042092 -0.21581574 0.022958966
0000e0 7a d9 b2 3e 40 6a 8f 3d c2 f9 82 3e 90 aa e6 ba
       0.34931546 0.070026875 0.25581175 -0.0017598439
0000f0 a8 95 4d bd 13 d9 06 3e 58 09 18 bd 5f f0 19 3e
       -0.05019155 0.13168745 -0.037118286 0.150331
000100 4c f2 44 3e 4a ba a9 3e 92 bc af 3e 54 2a 15 3f
       0.19233054 0.3314994 0.34323555 0.5826771
000110 99 2a 9f 3e 6e b3 38 3e 85 90 e3 3d df 40 b2 3e
       0.31087187 0.18037197 0.11111549 0.34815118
000120 91 7a 9d 3e f1 b7 7b 3e 0e b9 52 3e fe c2 93 3e
       0.30757573 0.24581887 0.20578405 0.28859705
000130 d4 90 c5 3e a6 09 0e 3c c4 96 84 3d ca e9 b3 3d
       0.38587058 0.008669293 0.06474069 0.08784826
000140 b1 1e 27 3d 94 0d d0 3d c4 eb 3b 3e 96 b2 80 3e
       0.040800754 0.1015884 0.18351656 0.2513625
000150 f5 77 2f be d9 53 2d be 74 f9 17 be 18 c5 9e bd
       -0.17135604 -0.16926517 -0.14841253 -0.077524364
000160 0a db 8d be 9d 84 aa bd 91 f0 21 3e bc 19 a9 be
       -0.27706176 -0.08326075 0.15814425 -0.33027446
000170 f8 c4 00 bf a2 5c e2 be 3e 36 bd be 9b 2e af bd
       -0.5030055 -0.44211298 -0.36955446 -0.08553811
000180 9a d0 3d be af 20 21 3b 63 b6 77 3e eb c4 1b bc
       -0.18536606 0.0024586131 0.24190669 -0.009507398
000190 35 d6 91 3e 01 c0 35 be 00 3d 98 be 14 66 3c be
       0.2848374 -0.17749025 -0.2973404 -0.18398315
0001a0 33 41 38 3d e0 5a a3 3e f1 83 1e 3e 7c 66 2f 3e
       0.044984054 0.3190527 0.15480019 0.17128938
0001b0 c5 3a f7 3d b3 e4 a4 bd 9d c8 c0 3c 5b be 0f bd
       0.12071756 -0.080514334 0.02353316 -0.035093646
0001c0 2b a1 a9 3d 2f e4 1f 3e 54 c6 c6 3e c5 4f ca 3e
       0.082826935 0.15614389 0.38823187 0.39513984
0001d0 37 20 06 3f a6 3b c6 3e 24 99 49 3e 5e 0e 6f 3d
       0.52392906 0.38717383 0.19687325 0.05836331
0001e0 39 d0 c1 3e 5e d9 a5 3e df 78 45 3e b9 d1 91 3e
       0.37854174 0.323924 0.1928439 0.28480318
0001f0 4b e7 5c 3e b8 f9 82 3e d2 93 68 3d 0b 9d d4 bb
       0.21572606 0.25581145 0.056781597 -0.0064884475
000200 e5 f0 e7 3d 81 f9 29 bd 77 76 39 bd a6 9c db 3c
       0.11325244 -0.04149771 -0.045278993 0.026808094
000210 bd 5b 45 3e f6 c2 6b be 63 e7 37 bd c5 d1 37 be
       0.19273277 -0.2302359 -0.044898402 -0.17951114
000220 be 52 8e bc ca fb 38 be 61 c0 9d bc 14 e7 17 3e
       -0.017373439 -0.180648 -0.019256772 0.14834243
000230 d0 e9 c6 be 56 c6 15 bf 76 65 d6 be d5 28 a8 be
       -0.3885026 -0.5850576 -0.41874284 -0.32843652
000240 a5 6f 3d be fd 74 6f be e0 a1 16 3d 21 8e 22 be
       -0.1849962 -0.23384471 0.03677547 -0.1587453
000250 8e b7 13 bd b2 a6 c7 bc 1f 81 91 bd 8d 25 9f bd
       -0.036063723 -0.024371479 -0.07104706 -0.07770834
000260 8c 96 8b 3e 02 e8 9b 3e f5 8d e7 bd d2 96 1b 3e
       0.27263296 0.30450445 -0.11306373 0.15194252
000270 d6 f4 2b 3e 08 7d cf bc 58 9f 83 3d 0f 9f a9 3e
       0.16792616 -0.025328174 0.06426877 0.33129165
000280 d1 06 45 3e f8 85 8a be 78 e5 38 3e 83 54 10 3e
       0.19240882 -0.27055335 0.18056285 0.14094739
000290 bd 91 d7 3d 31 8e 9b 3e 46 1d d6 3e f0 8d 48 3f
       0.10525844 0.3038192 0.4181921 0.7834158
0002a0 4a 33 42 be d1 80 87 3d 00 3a 46 bd f7 e0 5a 3d
       -0.18964878 0.06616367 -0.048395157 0.0534372
0002b0 7d 6e d5 3e 76 db 90 3e c4 12 17 3f 84 89 96 be
       0.41685858 0.28292435 0.5901301 -0.2940179
0002c0 3d ff d6 bc 0a 5e 10 be 03 c0 8f 3d 4f 86 3a 3e
       -0.026244754 -0.14098373 0.07019045 0.18215297
0002d0 21 62 f8 3e 88 81 e3 3e f1 2c 9d be c5 77 7d 3e
       0.48512366 0.44434762 -0.3069835 0.2475272
0002e0 ce 7d a1 3d df bd 89 3e 33 55 0d 3e 18 f9 79 3e
       0.078853235 0.26902673 0.13802032 0.24411428
0002f0 37 45 d9 3e d1 f1 46 be 5f d4 21 be 45 98 b2 bd
       0.4243562 -0.19428183 -0.1580367 -0.08720449
000300 c9 4e c7 3e 6f 50 b8 bc 26 75 dd bd ba dd de 3e
       0.38927296 -0.022499291 -0.1081336 0.4352854
000310 fb ee 0a be 22 d5 ad 3d 1f 37 d6 bd 02 33 17 be
       -0.13567726 0.084879175 -0.10459732 -0.14765552
000320 1e f9 af bd 3e 90 98 3e 85 fc 9d 3e 47 99 cb bd
       -0.08592437 0.29797548 0.3085672 -0.09941345
000330 ff 66 0b 3e 46 6f 52 3d 6d 44 9e bc f0 4f 8c 3d
       0.13613509 0.05137565 -0.019319737 0.06851184
000340 0b 67 a6 3e ae 11 2e 3e b9 7d 61 be d3 bd 0a 3e
       0.3250049 0.16998932 -0.22020616 0.13548975
000350 08 f8 12 3e 7a 5b c8 3d f5 19 a1 3e 0a cc db 3e
       0.14352429 0.09783073 0.31465116 0.42929107
000360 0f 8a 2a 3f ee 55 9a be 51 25 b9 3d cc 7f a7 3b
       0.6661691 -0.30143684 0.09040321 0.00511167
000370 06 24 ac bc 4f 38 d6 3e 06 a6 b4 3e 87 c6 23 3f
       -0.021013271 0.41839835 0.35282916 0.63974804
000380 1a 0e 80 be 48 13 a8 3d 1a 52 d6 bd 67 75 f4 3d
       -0.2501076 0.082068026 -0.104648784 0.11936455
000390 a1 9c 3e 3e 34 56 02 3f 96 bf cf 3e 10 25 62 be
       0.18614437 0.50912786 0.40575856 -0.2208445
0003a0 9e 08 27 3e 68 ba 19 3e 8b 15 63 3e 4d 76 7f 3d
       0.16311881 0.15012515 0.22176187 0.06236868
0003b0 a9 3f 8d 3e dd 1b c6 3e 8d c4 98 be c8 21 fa bc
       0.2758763 0.38693133 -0.29837456 -0.030533686
0003c0 51 07 54 be aa 7f cc 3e 1e 43 09 bd 91 92 a7 bc
       -0.20705916 0.3994115 -0.033511274 -0.02045563
0003d0 56 30 d7 3e 46 57 c5 bd a9 da 41 3d 47 b1 62 bd
       0.42029065 -0.09635787 0.04732767 -0.055344846
0003e0 06 b3 c8 bd 64 29 ce bd af ff 9a 3e f6 10 b3 3e
       -0.09799771 -0.100664884 0.30273196 0.34973878
0003f0 bf c7 0b be 98 85 e8 3d d4 7d e2 3c 91 8c a0 bd
       -0.13650416 0.11353606 0.02764789 -0.07839311

weight f4 [4]
000000 89 b7 70 3f 0c d9 88 3f 59 78 88 3f 33 08 bb 3f
       0.9403005 1.0691237 1.0661727 1.4611877

bias f4 [4]
000000 97 dc 08 3e d9 ba 42 3e 35 7e 7f 3e a3 7e ba be
       0.13365398 0.19016589 0.24950488 -0.3642474

running_mean f4 [4]
000000 72 92 d4 41 7a 23 89 42 18 98 49 c2 43 ba 83 c2
       26.571507 68.56929 -50.39853 -65.86379

running_var f4 [4]
000000 1e dd 70 47 fc 03 55 48 3a 00 fd 47 fa 62 4a 48
       61661.117 218127.94 129536.45 207243.9

weight f4 [4, 4, 1, 1]
000000 63 84 33 3f 5b 4a 93 3e de a1 53 be c4 cd b2 3e
       0.7012388 0.28767666 -0.20667216 0.34922612
000010 75 ff ed be cf 60 97 3d b3 62 29 3f 71 36 f1 bd
       -0.4648396 0.07391512 0.6616623 -0.11777962
000020 7a 0a 92 3e af 0b 19 bf a6 8e dd bd 32 4b 80 3e
       0.28523618 -0.5978345 -0.10818224 0.2505737
000030 73 8e d3 be 6e a1 18 3f ce 8e dd 3e 99 c9 26 be
       -0.41319618 0.5962132 0.43273014 -0.16287841

weight f4 [4]
000000 be e1 8a 3f ca b1 9a 3f 41 11 a0 3f 14 25 6e 3f
       1.0850141 1.2085507 1.2505265 0.93025327

bias f4 [4]
000000 ab d5 e1 3e d7 6c 21 be 7a f7 ef bd 64 9f 33 3e
       0.44108328 -0.15764175 -0.11717124 0.17541271

running_mean f4 [4]
000000 e5 50 86 3e 3d ee 18 3e 24 45 2d be cd ff 85 3e
       0.26233593 0.1493463 -0.16920906 0.26171723

running_var f4 [4]
000000 7f 8a 13 40 8e 0d c8 3e f8 42 e9 3e 92 da cc 3e
       2.3053281 0.3907284 0.45558906 0.40010506

weight f4 [4, 4, 3, 3]
000000 5c 52 c2 bd 31 32 a3 3d 38 a9 b9 bd db fb 8e 3d
       -0.09488365 0.079685576 -0.09065479 0.06981631
000010 da 40 c2 3d d3 2d 91 3d 31 76 de 3e ed bc c2 3e
       0.09485026 0.070888184 0.43449548 0.38034764
000020 cb 9d e7 3e fa 09 87 3e 5c 4d 83 3d 87 39 cf 3d
       0.45237574 0.263748 0.064112395 0.10118394
000030 a1 0a 9c 3d 26 39 70 3e 26 8c 2d bd b0 52 5b 3e
       0.07619215 0.234593 -0.042369984 0.21418262
000040 63 c5 09 bf 37 e5 23 bf 0c f6 2a 3f d0 19 03 be
       -0.53816813 -0.6402163 0.6678169 -0.12802815
000050 3d dc ed 3d 4d d2 5d bc 21 40 f3 be ea d8 70 3e
       0.11614273 -0.013538909 -0.47509864 0.23520246
000060 7a 69 00 3f fa a1 ac 3d 20 52 c2 be 77 c9 8e 3e
       0.50160944 0.08429332 -0.3795328 0.2788808
000070 66 83 ba be 08 60 e1 be 3c aa cf 3e 07 5e b0 bb
       -0.36428374 -0.4401858 0.40559566 -0.0053823027
000080 36 9a 23 3f fc 06 eb bd d6 14 ea be ed e9 bc 3d
       0.6390718 -0.114759415 -0.45719022 0.09224305
000090 19 df dd bd 9b 50 54 bd 11 fd 8d be a0 44 33 3e
       -0.10833568 -0.051834684 -0.27732137 0.17506647
0000a0 2a 0e c4 bd 50 04 f0 be fc a2 74 be b8 6c c8 be
       -0.09573014 -0.4687829 -0.23890299 -0.39145446
0000b0 d1 21 3c 3e c7 b7 ef bd 5c 89 de 3e 50 db d8 3e
       0.18372275 -0.117049746 0.43464172 0.42354822
0000c0 17 49 d2 bd 2a 4b 4c 3e 59 1b 30 3f e6 8f c4 be
       -0.10267847 0.19950548 0.6879173 -0.38391036
0000d0 3d 0e 5a bd 9c d0 65 3e 9f f3 57 be 85 df 9e 3d
       -0.053236235 0.2244286 -0.21089028 0.07757477
0000e0 a1 3f 1a 3e 6e 5e a8 be df 3d aa 3e 00 e6 68 3e
       0.15063335 -0.32884544 0.3325033 0.22743988
0000f0 6c 38 0a 3e 5a e8 6e bd bf 93 ea be 52 3f b3 3e
       0.13498086 -0.058327056 -0.45815846 0.35009247
000100 41 65 6c 3e 6b d1 cf bd 12 a5 dc 3e 11 48 ad 3e
       0.230855 -0.10147365 0.4309469 0.33844045
000110 c7 ad 01 3f e3 77 a8 3d ac 93 50 3d 75 80 af 3e
       0.5065579 0.082259916 0.05092208 0.34277692
000120 2e 63 9c 3f a0 07 a7 3e 2c 51 88 3c 39 fa 70 3e
       1.2217767 0.32623005 0.016640268 0.23532952
000130 cc b0 03 bf 64 91 85 bc 5c b7 2b 3d 6f 34 ad 3c
       -0.51441646 -0.01630468 0.041922912 0.021143166
000140 a7 c5 bf 3d 77 ac 93 3d 42 b1 ce 3e c8 fa 3d 3e
       0.09363871 0.072106294 0.40369612 0.18552697
000150 62 8d 56 be 97 58 f2 3d cb 60 19 3c 55 32 af be
       -0.20952371 0.118333034 0.009361456 -0.34218088
000160 1f 06 37 bd b1 cf 55 3e 70 03 6b 3e f0 08 6f bd
       -0.044683572 0.20880009 0.2295053 -0.058358133
000170 2f 0f 53 3e fc 4e de bd c1 18 d6 3e aa 05 58 be
       0.20611261 -0.10854909 0.4181576 -0.2109591
000180 0f 1e 86 be cb 6f 5f bc 57 32 99 3d 4e c7 5c bd
       -0.26194808 -0.013637493 0.07480305 -0.05390101
000190 0a e7 d1 3e aa 7a 1c 3d 6f 5d 2d 3e df 6d d7 bd
       0.4099658 0.03820292 0.16930173 -0.10519003
0001a0 30 25 23 be 36 3f 34 3e 97 ed cf 3e 3f 8b a6 3e
       -0.15932155 0.17602238 0.40610954 0.3252811
0001b0 ef 28 84 3d 73 dd c1 3d 27 d5 01 3e ff 35 df be
       0.0645312 0.09466066 0.12678967 -0.43595883
0001c0 11 81 20 be 0a cf 9f 3d f4 52 23 3f 32 f3 07 3e
       -0.15674235 0.078031614 0.6379845 0.13276365
0001d0 1b 78 68 be 76 47 3d 3f 79 4e 70 bf 76 c0 32 3f
       -0.22702067 0.73937166 -0.9386974 0.6982492
0001e0 fa 97 47 3e 51 ec 81 3d c5 7e 60 3e 83 7e fd 3e
       0.19491568 0.06343902 0.21923359 0.49510583
0001f0 d2 6c 80 ba 5a 95 b8 bd f0 cd a6 3e 07 0f 37 3e
       -0.0009798056 -0.090128615 0.32578993 0.17876826
000200 47 8d 60 3e 84 f1 6b 3e 88 98 70 3e 6d 1c c7 be
       0.21928893 0.2304135 0.23495686 -0.38888875
000210 3a de 0b bf 84 2e 77 bf a5 10 5e bf e3 f3 a2 3e
       -0.54635966 -0.9655535 -0.8674415 0.31826696
000220 3d d6 74 be 6f 10 9a 3d 4d 34 bc be 9d 20 b3 be
       -0.2390985 0.07522666 -0.36758652 -0.3498582
000230 2a 2c 9d 3e a1 e7 7a 3d da d8 90 3d 68 02 ab 3d
       0.30697757 0.061256055 0.07072611 0.08350068

weight f4 [4]
000000 de 02 88 3f 3f 3d 79 3f 2f 7b 95 3f 26 0f 52 3f
       1.0625875 0.9735908 1.1678218 0.82054365

bias f4 [4]
000000 3c 4b 6b 3e 2a ce 7c 3f 85 d3 af 3e f2 39 2b 3d
       0.22977918 0.9875208 0.34341064 0.041803308

running_mean f4 [4]
000000 dc 97 2a 3f e2 3e 59 bd 6f b8 6a 3f 15 2c 14 3d
       0.6663797 -0.053038485 0.91687673 0.036174852

running_var f4 [4]
000000 98 c8 1d 40 9c 80 9d 3f 0b 03 8c 40 6a ca d6 3e
       2.4653683 1.2304873 4.3753715 0.41951305

weight f4 [16, 4, 1, 1]
000000 c7 ef ce 3d 29 56 30 bf a2 98 10 3f 0f 82 f2 3d
       0.10104328 -0.6888147 0.564829 0.11841213
000010 0c af 0b 3e 56 3c 4b be bc b7 83 bf e3 3c be 3e
       0.13640994 -0.19847235 -1.0290446 0.37155828
000020 d7 dd 33 3f 63 5a 05 3e 44 9c 18 bf 9e db f3 3e
       0.70260376 0.13022761 -0.5961344 0.47628492
000030 00 ed 93 3e e4 af b2 3e bd 55 fb be c1 01 98 be
       0.28891754 0.3489982 -0.4908885 -0.29688838
000040 60 ae b6 be bf d4 c9 3e db 6f 2c 3f 4d 1e 26 3e
       -0.35679913 0.39420125 0.6735818 0.16222496
000050 de 0a 59 3e 5e 59 2d bf e7 20 2d be c1 9b 05 3f
       0.21195552 -0.6771449 -0.16907082 0.52190787
000060 33 58 3e bf 44 a5 81 be 55 e5 8a 3e be c7 d2 3d
       -0.7435333 -0.253214 0.2712809 0.10292004
000070 b2 a8 20 be 8f b7 a3 bd b2 88 6d 3f ff d9 8f 3e
       -0.15689352 -0.079939954 0.92786705 0.28096005
000080 1a e0 c7 3e e2 a5 c1 3e 4e eb ce 3e 63 f7 06 3f
       0.39038163 0.3782187 0.40413898 0.5272123
000090 d6 07 3e bc 6b be 46 3e 9c cb 42 3f 3f bf c5 be
       -0.011598548 0.19408576 0.76091933 -0.38622472
0000a0 05 95 c8 3d dd ed a2 3f f5 a0 17 3e c0 22 29 3d
       0.09794048 1.272884 0.14807494 0.041292906
0000b0 12 88 33 bc 6a 7e 47 bf ff 98 b5 bd 00 ec ac 3e
       -0.010957735 -0.7792727 -0.08867072 0.33773804
0000c0 e1 1d 68 be a0 58 de 3d 24 3f 80 bf f8 63 c5 3d
       -0.22667648 0.108567476 -1.0019269 0.09638208
0000d0 03 d7 d2 be b6 7b 0a 3f 92 58 63 be ec f0 84 3e
       -0.41179666 0.5409502 -0.22201756 0.2596506
0000e0 15 59 26 3f fc 4f 16 be f9 22 9f be 55 69 5b be
       0.6497968 -0.14678949 -0.3108137 -0.214269
0000f0 26 33 1d bf 38 c3 94 be 4f b9 72 3e 09 80 c9 3e
       -0.6140617 -0.2905519 0.23703502 0.39355496

weight f4 [16]
000000 fd 08 8d 3f b4 bb d0 3f 0a 9c 86 3f 18 fb a7 3f
       1.1018368 1.6307282 1.0516369 1.3123503
000010 8d 06 9c 3f 37 a9 70 3f 4e d9 95 3f c7 f2 9c 3f
       1.2189499 0.940082 1.1706941 1.226159
000020 bb 58 7d 3f a9 ba b6 3f d9 06 9e 3f f3 86 81 3e
       0.98963517 1.4275714 1.234584 0.2529827
000030 5c b9 76 3f a3 8b c2 3f 0a e2 a3 3f b6 0b 9b 3f
       0.96376586 1.5198864 1.2803357 1.2112949

bias f4 [16]
000000 0d 5f 20 bf b0 60 70 3e 7a 41 8a bc 70 f7 dc 3d
       -0.62645036 0.23474383 -0.016876925 0.107893825
000010 7d 1d 3b 3d a5 19 76 be 77 42 cc be fa 48 4b bf
       0.04568242 -0.2403322 -0.3989446 -0.7940823
000020 b2 79 b0 3d 38 8a 66 3e 9a b6 c9 3d 60 f4 20 be
       0.086169615 0.22513664 0.098492816 -0.15718222
000030 f4 62 89 bf 68 7b f0 3e 67 44 c8 3a 6e d5 a5 be
       -1.0733323 0.46969151 0.0015279175 -0.32389396

running_mean f4 [16]
000000 fa aa ea be 14 cb f2 be 95 70 27 3e 3b d3 5c 3e
       -0.4583357 -0.4742056 0.1635154 0.21564953
000010 0e 91 13 3f fe 94 1e bf 2a 2f ae be dc a1 79 3e
       0.5764321 -0.61946094 -0.34020358 0.2437815
000020 6b 28 32 3f a1 55 ce 3e 79 45 af 3f cd 7a 45 bf
       0.6959292 0.40299705 1.3693076 -0.77140504
000030 75 a6 94 be c1 54 d0 3e 69 a3 fd bd 52 ef 9f be
       -0.29033247 0.40689662 -0.12384684 -0.31237274

running_var f4 [16]
000000 29 29 0b 3f 1f f7 97 3f 8c 9a 0b 3f 4c 80 84 3e
       0.5435968 1.187229 0.54532695 0.25879133
000010 db 54 34 3f 54 b6 ad 3e d3 bf f7 3e 7a 35 8d 3f
       0.7044198 0.33928168 0.48388538 1.1031945
000020 fc 3a c2 3f 52 76 3d 3f d6 b2 ca 3f 43 34 de 3e
       1.5174251 0.7400867 1.5835826 0.43399248
000030 6a 98 cd 3f 8e b2 a4 3e 08 03 76 3e e8 37 9e 3e
       1.6062138 0.32167476 0.24024594 0.30902028

weight f4 [16, 4, 1, 1]
000000 04 f2 6f 3e 36 18 ff be 44 e5 0d bf 15 d1 76 be
       0.23432165 -0.4982316 -0.55427957 -0.24103196
000010 63 8e 1d bf ce 9a 89 bd fd b3 22 3f e9 22 f2 bd
       -0.6154539 -0.0671898 0.6355589 -0.11823065
000020 29 23 b2 be a9 0d 64 be ae 4d 9f 3e d3 ae 90 be
       -0.3479245 -0.22270836 0.31113952 -0.2825838
000030 8f 05 8c bd e9 53 02 3d 8e af 0c be 33 29 df 3f
       -0.06836998 0.031818304 -0.13738844 1.7434448
000040 e8 9b da be e0 26 dc 3d ee 2b 03 be 2a 95 93 3f
       -0.42697072 0.10749602 -0.12809727 1.1529896
000050 39 f1 50 be 40 51 2d 3f f3 06 e6 3d 61 03 60 3e
       -0.20404519 0.677021 0.11231794 0.21876289
000060 78 92 45 3f e7 c0 d2 3c e5 7e da be cd e7 0f 3e
       0.7717662 0.025726749 -0.42674938 0.14053269
000070 fb d9 b6 3e 31 0e 04 3f a7 11 d9 be 29 06 e4 3e
       0.3571318 0.51584154 -0.4239628 0.4453595
000080 e2 ab 0d bd 71 e6 9f 3e 43 a5 66 3f 73 10 e6 be
       -0.03458775 0.312305 0.9009592 -0.44934425
000090 49 ef 99 3e 2c 36 e2 3e 85 ae 53 3f f6 06 06 bf
       0.30065373 0.44181955 0.8268817 -0.5235437
0000a0 ee 17 bf bd 8b b5 7f 3f 3a d3 e3 bd 05 85 a9 3e
       -0.09330736 0.9988639 -0.11124273 0.33109298
0000b0 6f ca 40 3f de 5a 9d be d3 36 02 3e 0d 2d 8a be
       0.7530889 -0.3073339 0.12716226 -0.26987496
0000c0 a5 0d 0e 3e d1 cd 6f 3f 60 49 61 3e e0 04 04 be
       0.13872392 0.93673426 0.22000647 -0.12892485
0000d0 33 7d ad 3d f9 5b e2 3d f6 ca 22 3f 83 fc d1 3e
       0.084711455 0.11052699 0.63590944 0.41012964
0000e0 0b d2 bc 3e 79 fa b7 bd f3 01 8d 3e 69 01 d8 3d
       0.36879 -0.08983321 0.2754055 0.10547144
0000f0 35 81 66 3d f2 22 08 3e a2 61 f5 be e7 23 9b 3f
       0.056275565 0.1329458 -0.4792605 1.2120332

weight f4 [16]
000000 8d 98 8e 3f 93 72 64 3f 3f 3b 6f 3f 30 a4 95 3f
       1.1140305 0.89237326 0.9344978 1.1690731
000010 80 f7 3d 3f 06 29 86 3f 91 82 4d 3f 73 21 20 3f
       0.7420578 1.0481269 0.80277354 0.6255104
000020 d7 c9 76 3f 56 79 f8 3e 97 1d 88 3f 3f 97 75 3f
       0.96401733 0.48530072 1.063403 0.9593391
000030 fd 4e a1 3f 19 d3 ae 3e 47 ab cc 3e e0 e0 5e 3f
       1.260223 0.3414543 0.39974424 0.8706188

bias f4 [16]
000000 0d 5f 20 bf b0 60 70 3e 7a 41 8a bc 70 f7 dc 3d
       -0.62645036 0.23474383 -0.016876925 0.107893825
000010 7d 1d 3b 3d a5 19 76 be 77 42 cc be fa 48 4b bf
       0.04568242 -0.2403322 -0.3989446 -0.7940823
000020 b2 79 b0 3d 38 8a 66 3e 9a b6 c9 3d 60 f4 20 be
       0.086169615 0.22513664 0.098492816 -0.15718222
000030 f4 62 89 bf 68 7b f0 3e 67 44 c8 3a 6e d5 a5 be
       -1.0733323 0.46969151 0.0015279175 -0.32389396

running_mean f4 [16]
000000 91 8e b4 be ec af 19 3d c6 ac 97 bd 19 3c 25 3c
       -0.3526502 0.037521288 -0.07406001 0.010085129
000010 98 87 d3 bd ac f9 73 3e a0 5a ab 3d 46 d3 0c 3e
       -0.10328597 0.23825711 0.08366895 0.1375247
000020 4c af ef 3e c4 12 16 3f af 2f 96 3e 21 52 2e 3e
       0.46813428 0.58622384 0.29333255 0.17023517
000030 e3 b0 ef 3e a5 7c b8 3e 89 73 50 3e a7 f5 a3 bd
       0.4681464 0.36032596 0.20356573 -0.08005839

running_var f4 [16]
000000 d1 3a dc 3e b2 8a 83 3f c5 66 48 3f 24 bb b4 3e
       0.43013623 1.0276701 0.78281814 0.35299027
000010 94 0b 18 3e 99 f0 50 3f cb 98 b5 3f a8 03 ee 3f
       0.14848167 0.8161712 1.4187254 1.8594866
000020 79 8a a4 3e 39 1f a4 3f 4a db 15 40 46 87 ec 3e
       0.32136896 1.2822028 2.3415093 0.46196955
000030 3e dc 36 40 87 cf 68 3e 64 48 57 3e 5c 0c cf 3e
       2.8571925 0.22735415 0.21023709 0.40439117

weight f4 [4, 16, 1, 1]
000000 f7 4a e3 be de da 28 bf ff 2d b3 3e 81 e3 b6 bd
       -0.4439313 -0.65958965 0.3499603 -0.08930112
000010 ce c3 5d be 18 58 d7 3e 19 36 ee 3e 9e 9f 81 be
       -0.21656725 0.42059398 0.46525648 -0.2531709
000020 0c 88 aa 3e f0 7c 7b be 0a 8a 60 3e fe 8f 78 3e
       0.3330692 -0.24559379 0.21927658 0.24273679
000030 e3 ad 68 bf 61 35 45 be 23 d0 8a 3d 86 1a b4 3e
       -0.9089033 -0.19258644 0.0677798 0.35176486
000040 94 67 9f be d0 c9 74 3e 00 f2 60 bf c6 07 88 ba
       -0.3113371 0.2390511 -0.8786926 -0.0010378293
000050 b3 e8 a5 be ae 8b 39 be e0 13 ba 3d 56 3c 7c 3e
       -0.32404098 -0.1811969 0.09085822 0.24632391
000060 bc 32 e5 be 09 7e a2 be b1 66 c6 bd aa c4 2e 3e
       -0.4476527 -0.31736782 -0.096875556 0.17067209
000070 c6 62 b3 3e e0 cf 94 bd 6e 9b b6 be a7 a2 9c be
       0.35036296 -0.072662115 -0.35665458 -0.30592844
000080 43 2f 96 bd 16 34 10 be ea 7e d8 3e 79 f7 5c bf
       -0.07333233 -0.14082369 0.42284328 -0.86315113
000090 af a0 56 be e0 3d 12 3e 48 31 80 3d 88 b1 77 be
       -0.20959733 0.14281416 0.062594 -0.24188817
0000a0 96 91 2b 3e 2c 2d cb 3e 6d 50 e5 3e ad e0 75 be
       0.16754755 0.396829 0.44787923 -0.24011488
0000b0 c0 be fb be 2c df 9a 3e f1 7a 16 bc 58 e0 69 bd
       -0.49168968 0.30248392 -0.009184585 -0.057098716
0000c0 3c cb 3d 3e 85 cf 47 be 75 cf 1a 3e 0a b7 4e bd
       0.18534559 -0.19512756 0.15118201 -0.05046753
0000d0 db 60 ad 3e 1d ee be be 8a 5c 4a 3e ce f2 11 bd
       0.33862957 -0.3729104 0.19761863 -0.035631947
0000e0 b3 07 8f be e9 e5 6d be 52 70 9b be f2 a5 eb 3d
       -0.27935562 -0.23232235 -0.3035913 0.11506261
0000f0 69 b2 ba be 04 31 a4 be 61 98 f5 3e 6d 33 cc 3e
       -0.3646424 -0.32068646 0.47967818 0.39882985

weight f4 [4]
000000 ce 63 43 3f 80 59 b4 3f 03 dc ab 3f d3 31 8d 3f
       0.76324165 1.4089813 1.3426517 1.103083

bias f4 [4]
000000 2d 60 e2 bd 67 99 3e 3e 67 3c f1 3e dd c3 2a 3e
       -0.110535 0.18613206 0.47116396 0.16676278

running_mean f4 [4]
000000 d8 47 25 bf bb 85 fc be 03 86 5f 3e 99 b9 33 bf
       -0.6456275 -0.49320778 0.21828465 -0.70205075

running_var f4 [4]
000000 c2 be 8a 3f c3 1f ac 40 1b e5 1b 40 d5 e7 e4 3f
       1.0839465 5.378877 2.4358585 1.788325

weight f4 [4, 4, 3, 3]
000000 55 4e 45 3d 7a b8 b4 3d 49 fc c9 bd 75 3b 89 3e
       0.048170406 0.088242486 -0.09862573 0.26803175
000010 78 d7 32 3e f9 b0 a8 3e 28 a0 b8 3e d2 ec 0c 3f
       0.17465007 0.3294752 0.3605969 0.5504886
000020 aa 59 13 3f 4e 35 33 3c 5f 78 b4 bd 01 09 09 bf
       0.5755869 0.010938002 -0.088120215 -0.53529364
000030 b0 d9 72 3e 6f 80 8f 3e 22 3d 49 bf 55 12 d2 be
       0.23715854 0.28027675 -0.78608906 -0.4102961
000040 7a 98 2a be 64 57 73 bf 79 d9 33 3e f9 3c 8a 3d
       -0.16659728 -0.9505522 0.17563428 0.06749911
000050 f0 50 4f bc d0 7b 3c 3e da 91 e7 3d ee 5d b0 bd
       -0.012653574 0.18406606 0.11307116 -0.08611666
000060 9a 3e bb 3d 77 18 81 3c 1d 25 37 be 9f 6a 74 3e
       0.091428 0.015758736 -0.17885251 0.23868798
000070 3d 27 7e 3e 26 8a 0f be 0c 2f ef 3e 09 c8 fb 3e
       0.24819656 -0.14017543 0.4671558 0.49176052
000080 51 39 b7 3e 12 9b 07 3f b2 99 55 3f 51 54 cd 3e
       0.35785916 0.52970994 0.83437645 0.4010339
000090 89 7c 4d be 6c f1 4e be f8 88 93 be a5 60 64 bc
       -0.20067038 -0.20209283 -0.28815436 -0.0139390575
0000a0 e6 b6 35 3d 9f aa b6 be 43 d1 0c 3e cd bf 2e bd
       0.04436388 -0.3567705 0.13751702 -0.042663384
0000b0 79 b8 91 be 1d fd 96 be d7 56 3d be 2d 58 94 be
       -0.28461054 -0.29489985 -0.18490158 -0.28973523
0000c0 7e 86 c4 be 87 23 71 3e a1 87 ca be c0 d9 8b be
       -0.3838386 0.23548709 -0.39556602 -0.27314568
0000d0 a6 61 2e 3e 84 80 3d be 0d 14 27 3f 69 17 e3 3e
       0.17029437 -0.18506056 0.6526497 0.44353798
0000e0 69 0a ca be 76 fe 4d 3f 2b e5 c8 3d bf 44 9b be
       -0.39461067 0.804664 0.09809335 -0.30325887
0000f0 83 7f bf 3e 42 62 10 3e 3b d2 80 be a5 03 bd bd
       0.3740197 0.14099982 -0.25160393 -0.09229211
000100 36 86 3f 3e fe 78 e0 3d 8d 45 e9 bd 7d a7 73 3e
       0.18703541 0.109605774 -0.11390219 0.2379436
000110 80 30 7b 3e 8c 89 d2 3d 36 b2 d4 3e 2c 4a 53 3d
       0.2453022 0.10280141 0.41542214 0.051584408
000120 7c bd ec bd ab 19 c8 3c 2f e6 46 3e 3e b2 27 bf
       -0.11559579 0.024426302 0.19423746 -0.6550635
000130 46 7c 02 bf 4d 26 c1 3e 8b 4d 75 be 05 cb b5 3d
       -0.50970876 0.37724534 -0.23955362 0.088766135
000140 f5 c2 6f be 06 dd 1d 3e c7 67 44 be 25 73 a5 be
       -0.23414214 0.15416345 -0.19180213 -0.3231441
000150 76 c5 47 3e 34 74 67 be a5 c1 6f be 39 c2 bd 3e
       0.19508919 -0.22602922 -0.23413713 0.37062243
000160 03 30 d8 3e 7b 80 53 3e a6 74 13 3e d1 65 10 be
       0.4222413 0.2065448 0.14399967 -0.1410134
000170 19 06 82 3d 16 1e 0f bf f8 42 17 3e 95 62 16 be
       0.06348819 -0.5590528 0.1477164 -0.14686044
000180 1f 97 eb be 85 7c f1 bd 25 46 5a be 89 a6 f0 3d
       -0.46013734 -0.11791328 -0.2131582 0.11750514
000190 5b 9b c0 3e e0 6e a1 3e 24 18 92 bd 18 46 ac be
       0.37618527 0.31529903 -0.07133511 -0.33647227
0001a0 6b 0e c9 3e 88 3e 80 bf c7 b0 e9 be ed 38 7f bc
       0.39268813 -1.0019083 -0.45642683 -0.015577537
0001b0 f7 08 ed 3d 3d 4d 1b 3e 9c b2 50 3e 33 84 12 3d
       0.115739755 0.15166183 0.20380634 0.035770606
0001c0 15 9b 11 bd c7 f7 75 3e 6e bf 24 be 4e 40 d7 3d
       -0.03554829 0.24020301 -0.1608865 0.10510312
0001d0 7f 9c 62 3e 0f 8f c0 be 5d 91 d7 3e b7 a1 70 3e
       0.22130011 -0.37609145 0.4210309 0.2349919
0001e0 ac 67 39 3e ff 14 05 3f a5 05 f1 bd 51 e4 af 3e
       0.18105954 0.5198516 -0.11768655 0.3435388
0001f0 57 93 2f 3f 1d eb 5d bf 92 f9 bc 3d fb e0 de 3e
       0.685842 -0.8668688 0.09227289 0.4353102
000200 36 d8 52 3e af 67 66 3e f8 d7 27 3e 6a 4f 37 3f
       0.2059029 0.2250049 0.1639098 0.7160555
000210 76 ea 74 3c 56 e1 34 3f 47 18 4d 3f 48 6c bf bd
       0.014948478 0.70656335 0.8011517 -0.09346825
000220 61 28 ca bc 03 e3 a5 be e8 b7 96 bd da 7f 0a 3d
       -0.024677457 -0.3239976 -0.07359296 0.033813335
000230 0f f0 c9 bd f6 83 01 3d 32 c9 c9 3c 30 08 6f bd
       -0.09860241 0.03161999 0.02463207 -0.058357418

weight f4 [4]
000000 c7 3d 7e 3f 27 ef 68 3f ce b8 8c 3f f0 73 93 3f
       0.99313015 0.9098992 1.0993898 1.1519756

bias f4 [4]
000000 a9 32 a5 3e 96 27 61 3e ca 3d 32 bd f0 7e 24 3f
       0.32265213 0.21987757 -0.043515958 0.6425619

running_mean f4 [4]
000000 44 f9 f2 3e af cc 70 3e f6 ba 65 bf 1c 6d 06 40
       0.474558 0.2351558 -0.89738405 2.1004095

running_var f4 [4]
000000 1d 02 b7 40 17 79 91 40 da b1 aa 40 b3 b9 85 41
       5.719008 4.5460315 5.3342104 16.715673

weight f4 [16, 4, 1, 1]
000000 30 63 6a bd 47 e2 1d 3e 80 67 12 bd 56 21 7d 3f
       -0.0572235 0.15418349 -0.035743237 0.9887899
000010 6b a4 25 3e cb 5d 4d 3f 4a cf 1d bf ab 7c fb be
       0.16176002 0.8022124 -0.61644423 -0.49118552
000020 13 a3 4d bf 72 31 a9 3e 68 07 d4 be d6 7b 9c be
       -0.80326957 0.33045536 -0.414119 -0.3056323
000030 ab 06 56 3f d1 9c 50 be 5a 04 bb 3e f2 45 37 3d
       0.83603925 -0.2037232 0.36526757 0.04474444
000040 74 25 10 3f 91 58 ed 3e 72 04 2b 3f 7f 73 02 3f
       0.5630715 0.46356633 0.6680366 0.50957483
000050 34 16 a3 3c dc fb 3a 3f cb 84 12 3f 1d 27 0f 3f
       0.019908048 0.73040557 0.57233876 0.5591906
000060 58 7b bd 3e 75 22 89 be 25 86 5f 3e 00 c4 01 3f
       0.37008166 -0.267841 0.21828516 0.506897
000070 c5 52 7e 3d db b8 06 bf 70 70 c7 3e 67 c3 32 3f
       0.062090654 -0.5262582 0.3895297 0.6982941
000080 f0 87 80 bf 3f bb e8 be 7f 3d 52 3d 64 19 64 3d
       -1.0041485 -0.45455357 0.05132818 0.055688277
000090 bd 5f d5 3e c0 3b bb be 31 57 91 3b df 73 91 be
       0.41674605 -0.36569023 0.004435443 -0.28408715
0000a0 a5 de 2e be cf e2 92 be f9 1f d5 be 43 44 82 bf
       -0.1707712 -0.28688666 -0.41625956 -1.0177082
0000b0 4a a7 39 bc e9 38 37 3e 7e 07 dd be 3b ca 8b 3f
       -0.011331389 0.17892803 -0.4316978 1.0921091
0000c0 45 c7 0a bf fd 8f 57 3e 5d 0b 88 be 56 d2 e6 3e
       -0.5421031 0.21051021 -0.2657117 0.4508235
0000d0 82 69 80 3e d3 c0 75 3d 10 34 0b 3f 6e 60 52 bf
       0.25080496 0.059998345 0.54376316 -0.8217839
0000e0 05 64 4e bd 66 6d 4c 3f 9f b9 f4 be e5 28 84 be
       -0.050388355 0.7985443 -0.47797868 -0.2581245
0000f0 4a 8c 0c 3f 1c fd a1 3d 1a 9a 4b 3f 3a ae 8c be
       0.54901564 0.07909605 0.79532015 -0.27476674

weight f4 [16]
000000 5b 8d 4c 3f e1 28 a0 3f 65 47 7f 3f bf 6f a2 3f
       0.7990319 1.2512475 0.99718314 1.2690352
000010 a7 bd a7 3f b9 3c 83 3f 59 88 84 3f 5c 13 79 3f
       1.3104752 1.0252906 1.035411 0.97295165
000020 5c 4b 02 40 1e 4b 9b 3f 01 a2 62 3f ef a7 83 3f
       2.0358496 1.2132299 0.8852845 1.0285624
000030 de eb 8f 3f ad 4f b7 3f 1f a7 1f 3f 32 f9 43 3f
       1.1243856 1.432119 0.6236438 0.76552117

bias f4 [16]
000000 d5 1a c6 bc 5d c0 31 be 78 d9 c7 3e a6 b2 b3 3d
       -0.024182716 -0.17358537 0.39033103 0.08774309
000010 27 20 1d be 46 23 85 3d 8c f0 50 3d bf e4 54 3f
       -0.15344296 0.065008685 0.051010653 0.8316154
000020 b0 82 60 3f 99 b9 d8 3e fe 09 e6 3c b8 88 03 3d
       0.87699413 0.423291 0.028080937 0.032112807
000030 d5 fa 19 3e 1f 27 c4 3e c6 c9 85 3d 51 79 3b bd
       0.15037091 0.38311097 0.06532626 -0.045769993

running_mean f4 [16]
000000 1b b4 23 3f 36 a4 4b be ee c0 f3 be ad bd ac 3e
       0.63946694 -0.1988686 -0.4760813 0.3373846
000010 34 ec 47 3f 00 47 2c 3f d3 be dc 3e e3 3c d9 3e
       0.7809479 0.6729584 0.43114337 0.42429265
000020 a2 49 c9 be 8f 75 09 be 34 78 5f bf d5 5b 25 3f
       -0.3931399 -0.13423751 -0.8729279 0.6459325
000030 fb 4e e2 3d 47 98 a2 be 56 a8 c4 bd e5 9d 55 3e
       0.110502206 -0.31756803 -0.0960242 0.20861013

running_var f4 [16]
000000 33 de b5 3f 95 1a c0 3e 7d 7a 3f 3f 13 71 0f 3f
       1.4208435 0.3752028 0.7479628 0.5603191
000010 43 45 dc 3f d1 6f a5 3f cb 84 02 3f 87 e5 cd 3e
       1.7208637 1.2924749 0.50983876 0.40214178
000020 0a 6d c2 3f e9 ec 34 3e 7d 5e 05 40 d5 b1 f6 3f
       1.5189526 0.17668499 2.083892 1.927302
000030 9d 3a 80 3e 61 13 34 3f 73 36 98 3e 12 55 4b 3e
       0.25044718 0.7034207 0.2972904 0.1985667

weight f4 [16, 16, 1, 1]
000000 e2 35 b1 3e a7 ab 5c 3b 06 04 9b 3e 7a 1b 58 be
       0.34611422 0.0033671649 0.30276507 -0.21104231
000010 4b 0b 17 bf 78 64 1b 3f 85 83 47 be b8 ce b3 3e
       -0.59001607 0.6070018 -0.19483764 0.3511865
000020 8f 0f f4 3d 58 25 59 3d ea 53 38 bc e5 90 a6 3e
       0.1191703 0.05301413 -0.011250475 0.3253242
000030 59 83 72 bf db ba 79 bc 0b 55 3d 3e 10 de d1 be
       -0.9473167 -0.015242304 0.18489473 -0.40989733
000040 19 b8 3a 3f b3 a5 be 3d a7 31 94 be 39 87 e2 bd
       0.7293716 0.09308948 -0.28944132 -0.11060948
000050 7f 95 9c be fa cc 0a be e8 84 b5 bd ee 2e 94 3e
       -0.30582806 -0.13554755 -0.088632405 0.28942055
000060 1d 44 2b be f7 b0 55 be 45 be f6 be 3f 01 c8 3e
       -0.16725202 -0.20868288 -0.4819204 0.3906345
000070 07 41 99 be d0 eb 9d 3d 1c 8c 45 3e 7f 83 4e be
       -0.29932424 0.07710993 0.19291729 -0.2016735
000080 bd be 77 be f8 41 84 be ad 65 22 be fb 27 ff 3d
       -0.24193855 -0.2583158 -0.15859099 0.124587975
000090 18 e8 09 be f0 9d 5f 3c ca 72 63 3c c1 9f 28 3f
       -0.13467443 0.013648495 0.013882348 0.65868765
0000a0 df 03 cb 3e 49 b4 4d 3f e8 8c c2 bd 4a 1a 90 3e
       0.3965139 0.8035322 -0.09499532 0.28145057
0000b0 f5 91 25 3e 91 d7 88 be 34 be dc bd e3 dc 05 bf
       0.1616896 -0.26726964 -0.10778466 -0.5229017
0000c0 33 cb 5b 3e dc b7 4a be 30 ad 5e 3e dd eb a4 be
       0.21464233 -0.197967 0.21745753 -0.322112
0000d0 91 57 d8 bd e5 a7 1a 3e 0d e2 d4 3e b2 f0 cd be
       -0.10563577 0.15103109 0.41578713 -0.40222698
0000e0 09 e0 ee 3c 36 b7 0c bf 35 b3 8f be de 35 2a 3e
       0.029159563 -0.5496706 -0.28066412 0.16622111
0000f0 56 65 12 bf e9 df 1c 3e f5 ca 11 be 23 05 0f 3f
       -0.57185876 0.1531979 -0.14237578 0.55867213
000100 68 5b 2e 3e 88 f5 cb 3e 21 cb 94 3d 32 30 f0 3d
       0.17027056 0.39835763 0.07265306 0.117279425
000110 1d 77 79 bd fe 89 0c be b1 39 d5 be b2 c3 94 bf
       -0.06090461 -0.13724515 -0.41645578 -1.1622221
000120 34 ad 9b bd 4b f1 9d be 69 5c f3 bd b9 33 7a 3e
       -0.07601395 -0.30848154 -0.1188286 0.24433793
000130 72 a6 0b bf a3 07 1d 3f 11 35 a3 3d f9 dc 8f be
       -0.5455085 0.6133978 0.07969106 -0.28098276
000140 17 35 13 3d fe 98 10 3f da 86 8f 3d 52 00 83 be
       0.035939302 0.5648345 0.07008143 -0.25586182
000150 f5 93 a4 be 01 9b 4d bf c4 78 aa be dd 11 9b be
       -0.32144132 -0.8031464 -0.33295262 -0.30287066
000160 09 3f 72 be 09 72 a6 3e 87 bf a3 be 36 60 fb be
       -0.23656859 0.32508877 -0.3198206 -0.4909684
000170 6d f7 84 bf 63 62 b1 be 79 4d df bd 03 05 a9 3e
       -1.0388008 -0.34645376 -0.109034486 0.33011636
000180 6f 4c 21 bf 21 2d bc 3e b9 e3 dc 3c 7d d8 ea 3e
       -0.63007253 0.3675318 0.026964055 0.45868292
000190 15 16 3e be b1 bd 99 3d 58 ce 21 3e 5b 01 c7 3e
       -0.18563111 0.07506884 0.1580137 0.38868222
0001a0 37 19 88 3e fb b9 6d 3e 7d ff 1f be fa 64 85 bd
       0.26581737 0.23215477 -0.15624805 -0.065134004
0001b0 a2 66 e3 be 53 3e 0e bf 04 4e 92 3e 4f b3 1a 3f
       -0.4441424 -0.5556385 0.28575146 0.60429853
0001c0 36 cd 89 be 58 66 a8 3e 7c 16 07 bd 05 37 b2 be
       -0.26914376 0.32890582 -0.032980427 -0.34807602
0001d0 16 e6 43 bf c6 a6 5f 3d f8 ee d7 3e 79 ea fc be
       -0.7652296 0.054602407 0.42174506 -0.49397638
0001e0 76 25 20 bf 61 e2 bd be eb 8f d4 bd 70 a4 d0 bd
       -0.6255716 -0.37086776 -0.10379013 -0.10187614
0001f0 ff 6b ad 3e 20 f9 b3 3d da 85 20 be 67 0f da 3e
       0.33871457 0.08787751 -0.1567606 0.42589876
000200 e4 cc e2 3d e7 94 28 3f 28 d1 f7 be 94 13 28 3f
       0.11074236 0.65852207 -0.4840176 0.65654874
000210 ea 88 5d bf 5c f4 52 be a6 fe 77 bd 45 04 b2 bd
       -0.8653704 -0.20601028 -0.060545586 -0.086922206
000220 c7 fd cc bb 25 d2 8a be ea 99 c9 bd 5f 0e 98 be
       -0.0062558386 -0.27113453 -0.0984381 -0.29698464
000230 4b 6c 8b bd dd cf a0 be 02 13 4d 3c e1 2b 9e be
       -0.068077646 -0.31408587 0.012516739 -0.30892852
000240 e1 5d 62 be 80 40 c8 3e 85 48 b8 3d ea 2d 41 be
       -0.22106124 0.3911171 0.08998207 -0.18865171
000250 02 31 9f 3c 1f 48 be be 51 cc ce 3e dd 6c 2f bf
       0.019432548 -0.371644 0.40390256 -0.6852549
000260 4d 8e ad 3e bb 83 8d be 41 ff 07 bf 3a f4 11 3e
       0.3389763 -0.27639565 -0.5312386 0.14253321
000270 74 6b 28 bf 20 c8 4d be 3d 97 83 bd 39 a0 97 3e
       -0.6578896 -0.20095873 -0.06425331 0.29614428
000280 29 38 c5 be 51 29 2a 3f 74 71 8e be e3 8d 14 3f
       -0.3851941 0.66469294 -0.27820933 0.58029
000290 d3 3a 34 3f d1 44 ae bd 5b b3 3e bd 14 74 7a 3e
       0.7040226 -0.085092194 -0.046557765 0.24458343
0002a0 86 d7 aa 3e 53 09 63 3d 58 a8 48 3f 59 a3 25 3e
       0.33367556 0.055428814 0.7838187 0.16175593
0002b0 1b 49 9f 3e b9 3d 0e 3e 81 b6 94 3e c2 c0 e1 3d
       0.31110463 0.13890733 0.2904549 0.11023094
0002c0 50 c7 13 bf a5 18 92 bc df ed 44 bc 75 5c fd bd
       -0.57726 -0.017834017 -0.0120196035 -0.123711504
0002d0 9e 24 cb 3e a7 c5 d1 bd 0e 85 c2 be ed 37 e4 bd
       0.39676374 -0.10242777 -0.37992138 -0.111434795
0002e0 f0 45 80 3e de 53 2f bd 92 53 e8 3e 5c a8 14 bf
       0.25053358 -0.04280459 0.4537626 -0.58069396
0002f0 89 7b 77 3e 0a 08 71 3f e5 67 e3 bd 37 71 3d bd
       0.24168219 0.9415289 -0.11103801 -0.04625055
000300 cf c3 dc be de d0 ea 3e cd 5a f6 3d 1b 52 ec be
       -0.4311814 0.45862478 0.120290376 -0.46156392
000310 f8 99 50 3e f6 be ff bd f4 15 e8 bd 94 51 b5 be
       0.20371234 -0.12487595 -0.11332312 -0.35413802
000320 6e f5 2a bf 51 05 9a bd 0d b5 ae be 8a ca 14 be
       -0.66780746 -0.07520545 -0.34122506 -0.14530388
000330 54 9f 99 3d af 33 64 be 3d 35 e4 be f8 6f 03 be
       0.075010926 -0.2228534 -0.44571868 -0.12835681
000340 1a dc 3d be ba 7f a1 3e b4 88 09 be f0 65 38 3f
       -0.18540993 0.3154276 -0.13431054 0.72030544
000350 54 fd bb 3d 19 8e 36 be ae fe e1 bc c6 c4 7f 3e
       0.09179178 -0.17827643 -0.027587261 0.24977407
000360 bf cf 9c be 41 b6 ee be 48 00 28 3d d0 66 87 3c
       -0.30627248 -0.46623424 0.041015893 0.016528517
000370 b9 65 12 3e 82 e7 5b bf 01 36 b3 3e 86 15 71 3e
       0.14296617 -0.8590013 0.3500214 0.23543367
000380 24 d0 b4 be b1 2e 61 3f 26 c5 1d be ec fc 61 bf
       -0.3531505 0.8796187 -0.15407237 -0.88276553
000390 55 92 2f be 67 50 40 3e 43 ad 19 bf f1 1c 3d be
       -0.17145665 0.18780671 -0.6003 -0.18468072
0003a0 be bc 1d be 35 49 b8 3d 55 5d 86 be 51 f9 2e bf
       -0.1540403 0.08998338 -0.26243082 -0.68349177
0003b0 2a 57 b4 be 18 46 87 bd c9 b9 aa be d7 58 8f be
       -0.3522275 -0.06605166 -0.33344868 -0.27997467
0003c0 d0 73 a8 3d 30 29 0d 3e ba 4e 59 3e 43 1e 8e be
       0.082252145 0.13785243 0.21221438 -0.27757463
0003d0 a7 94 82 3e 0e 7d 3e bf 45 ba 4f be 54 a8 84 3e
       0.25504038 -0.7440957 -0.202859 0.25909674
0003e0 96 d5 35 be db f1 12 bf 5d 7e c9 be c9 ca f6 be
       -0.17757258 -0.5740029 -0.3935422 -0.48201588
0003f0 e2 20 54 be d1 20 0c 3a ce 63 8f be 4b 87 9b 3e
       -0.20715669 0.0005345466 -0.28005832 0.30376658

weight f4 [16]
000000 e1 1e 14 3f 21 2d 0f 3f 0e dc 76 3f 47 b1 a9 3e
       0.5785962 0.55928236 0.96429527 0.33143064
000010 d2 5f 98 3f 68 7f 8c 3f c0 32 39 3f dc d8 85 3f
       1.1904242 1.0976381 0.72343063 1.0456805
000020 6b e0 d6 3f 6a f2 71 3f 9f 51 a1 3f 4b 02 17 3f
       1.6787237 0.9451052 1.2603034 0.58987874
000030 44 42 92 3f b1 09 dc 3e ae 32 d7 3f 34 af c1 3f
       1.1426473 0.42976144 1.6812341 1.5131593

bias f4 [16]
000000 d5 1a c6 bc 5d c0 31 be 78 d9 c7 3e a6 b2 b3 3d
       -0.024182716 -0.17358537 0.39033103 0.08774309
000010 27 20 1d be 46 23 85 3d 8c f0 50 3d bf e4 54 3f
       -0.15344296 0.065008685 0.051010653 0.8316154
000020 b0 82 60 3f 99 b9 d8 3e fe 09 e6 3c b8 88 03 3d
       0.87699413 0.423291 0.028080937 0.032112807
000030 d5 fa 19 3e 1f 27 c4 3e c6 c9 85 3d 51 79 3b bd
       0.15037091 0.38311097 0.06532626 -0.045769993

running_mean f4 [16]
000000 ca 20 b3 3d e0 2d 52 be 5e d0 98 3d e9 20 f5 be
       0.087464884 -0.20525312 0.07461618 -0.4787667
000010 42 42 f8 3e 83 d6 db be 5e f6 7f 3e 74 78 f3 be
       0.4848805 -0.42937097 0.24996325 -0.47552836
000020 b2 fd 74 bd 6b 6d ac be 3b 09 e1 3f 9c cc 8d 3f
       -0.059812255 -0.3367723 1.7580942 1.1078067
000030 f6 6c 2d bf ca 14 0c bf 22 65 9e bd 34 b8 11 bf
       -0.67744386 -0.5471922 -0.07734133 -0.56921697

running_var f4 [16]
000000 b9 a3 dc 3f 17 1b 21 40 8b bd c8 40 76 33 40 40
       1.7237464 2.5172784 6.2731376 3.003141
000010 99 5a dd 40 d6 86 be 40 c3 f1 1c 40 75 bf 1c 41
       6.9173093 5.9539595 2.452256 9.796742
000020 82 26 a3 40 a1 e9 87 40 61 57 38 41 01 5a 9f 40
       5.0984507 4.247269 11.521333 4.979737
000030 3f bd 1b 41 a6 9d 0d 40 cf 2c e4 40 9e a3 e5 40
       9.733703 2.212747 7.13047 7.176223

weight f4 [8, 16, 1, 1]
000000 3e 6f c8 bd df 24 ce be 99 de 0e 3f 87 1c 34 be
       -0.09786843 -0.40262505 0.5580841 -0.17589007
000010 43 b3 11 bf 25 06 b2 be 4b 75 f5 3c ce 3b e5 be
       -0.56914157 -0.34770313 0.029963156 -0.4477219
000020 e4 2f cf be 4b e1 a2 3e c2 c6 35 3f 12 44 65 3f
       -0.40466225 0.3181251 0.71006405 0.8955699
000030 71 9a c4 3d 6c 3f b7 be 76 98 94 3e 94 48 2f be
       0.0959977 -0.35790575 0.29022568 -0.1711753
000040 90 51 29 bd d8 02 12 3f 51 3d dd 3e b0 c6 a6 be
       -0.04133755 0.5703559 0.43210843 -0.32573462
000050 3e cc 8f be 9e 66 10 3e 0d 66 04 be ed f1 32 be
       -0.28085512 0.14101645 -0.12929554 -0.174751
000060 72 80 28 bf a6 d6 75 be ce c7 92 3e 79 79 22 3d
       -0.6582099 -0.24007663 0.28668064 0.039666627
000070 fa df 5f be ae 09 b2 be c5 43 a2 3e 0e 4a b9 be
       -0.21862784 -0.3477301 0.3169233 -0.36189312
000080 8b df 55 3b c1 fc 30 bf 9f 06 c6 be da c3 ca 3e
       0.0032634463 -0.6913567 -0.38676926 0.39602548
000090 2b b9 f4 3e 59 e5 b4 bd ea 70 f4 3e bf 10 f3 3d
       0.47797522 -0.08832807 0.47742397 0.118684284
0000a0 08 d7 42 3e 33 41 3d 3f f3 78 ac 3e fb c3 c9 bd
       0.1902734 0.7392761 0.33686027 -0.098518334
0000b0 54 25 9b be 30 c5 a0 bd 73 0c 6c 3e 05 7a 71 3e
       -0.30301917 -0.078501105 0.23051624 0.23581703
0000c0 9d 25 05 3f e5 79 94 3e 43 8b f4 bd 30 a4 90 be
       0.5201052 0.28999248 -0.119406246 -0.28250265
0000d0 95 64 38 bf ee 5e ad 3e 19 9d fb 3e 40 6d c2 3e
       -0.72028476 0.33861488 0.49143293 0.37973976
0000e0 e8 60 02 be a3 23 4b be f0 13 83 be e1 75 5a 3e
       -0.1273228 -0.19837813 -0.2560115 0.2133403
0000f0 e9 db 35 be ed 25 19 3e b2 d5 dc be 5a 22 74 bd
       -0.1775967 0.14955874 -0.43131787 -0.059603073
000100 61 88 eb bd cb a9 97 be d4 b6 c6 be 74 b9 c9 3e
       -0.115006216 -0.2962173 -0.38811362 0.39399302
000110 39 d1 ee bd b0 e8 32 3d a7 59 39 3e 99 02 f6 be
       -0.11661 0.04367894 0.18100606 -0.48048857
000120 db 19 84 bf df aa d8 be 89 52 84 3d 95 71 fa b9
       -1.032039 -0.42317864 0.06461055 -0.0004776834
000130 99 74 0a be 96 55 29 bf c3 3e a5 be 8c dd 8e 3e
       -0.13521041 -0.6614622 -0.32274446 0.27903402
000140 2c 79 2d 3f 34 8a 57 bd 82 65 bc 3d 46 e6 98 3e
       0.6776302 -0.052622035 0.091990486 0.29863185
000150 a4 51 7f be bf bf d7 bc 9c 7b 89 3e 46 19 2b bf
       -0.24933487 -0.026336549 0.2685212 -0.6683544
000160 4a 8d 47 be 52 32 d4 3c 16 a7 13 bf a5 7e 62 3d
       -0.19487491 0.0259029 -0.5767683 0.05529656
000170 92 a2 19 bf c8 fb 5f be 9a df 70 be 3b 3b c1 be
       -0.6001369 -0.2187339 -0.23522797 -0.37740502
000180 a1 22 eb 3d dd bd ac 3e 3e c0 77 bd dd f5 57 3e
       0.11481214 0.33738604 -0.06048607 0.21089883
000190 cd a4 3c 3f fa a2 e7 3e 69 bf dd bd 9b 85 4f 3e
       0.73688966 0.4524153 -0.10827524 0.2026581
0001a0 4e c0 d2 bd f9 70 ce be 22 9e 08 bf 7e d7 0f 3f
       -0.102905855 -0.40320566 -0.5336629 0.5618819
0001b0 13 5d 09 3f 3f ac 09 3d a1 6b 84 3c e5 b3 f8 3a
       0.53657645 0.033611532 0.016164603 0.0018974511
0001c0 7d 1c a3 bd 02 74 e3 3e 07 4e 3f be 70 aa 77 3e
       -0.07964418 0.44424444 -0.18682109 0.2418611
0001d0 89 69 b1 be 4a 60 1c bf 71 cc b4 bd 56 ac fa be
       -0.3465083 -0.61084425 -0.088280566 -0.48959607
0001e0 3a 89 10 bf 64 95 be 3e bb e6 ad 3e 5f 53 fc bd
       -0.5645939 0.3722335 0.33965096 -0.12320589
0001f0 b2 8c ca be fb a8 ef 3e c0 aa 03 bf d1 60 b3 3e
       -0.39560467 0.4680861 -0.5143242 0.35034803

weight f4 [8]
000000 8b fc 50 3f cc a3 95 3f 14 69 51 3f 7d 54 86 3f
       0.8163535 1.1690612 0.8180096 1.0494534
000010 f8 7d 85 3f a5 53 6f 3f bd cd ae 3f d4 b5 7c 3f
       1.0429068 0.93487006 1.3656536 0.9871495

bias f4 [8]
000000 0c b5 14 3e d8 cd d6 3d 06 8e 40 be 02 37 2b 3e
       0.14522189 0.1048848 -0.18804178 0.16720203
000010 80 f1 a7 3e 1f 16 2e be 04 5e b8 3e 5b a1 9f bb
       0.32801437 -0.17000626 0.36009228 -0.00487153

running_mean f4 [8]
000000 d0 e8 92 bf a9 a0 11 c0 d6 a6 a9 3f 01 67 26 3e
       -1.1477299 -2.275431 1.3254039 0.1625023
000010 bd 9b 9f c0 9f f8 01 c0 75 b2 a4 3e 5c 91 f5 bf
       -4.987761 -2.0307996 0.32167402 -1.9184985

running_var f4 [8]
000000 4e a0 01 40 81 4d 84 3f bf 87 e2 3f ac e6 9d 3f
       2.0254092 1.0336152 1.7697676 1.233602
000010 20 a6 fa 3f c7 6c e9 3f 66 7b 3a 40 07 19 b8 3f
       1.9581947 1.8236321 2.9137816 1.4382638

weight f4 [8, 8, 3, 3]
000000 18 f0 be bd 0c a9 b4 3e ae ec 98 3e d5 ec f8 3d
       -0.09323138 0.35285223 0.29868072 0.12154547
000010 74 6e f0 3e 3a 2f 8f 3e c9 a3 0e bd 1f 54 b4 3d
       0.4695927 0.27965719 -0.034824166 0.08805107
000020 b6 be 43 be 13 93 7a bb 59 63 8d 3e 3c 73 c5 3e
       -0.19115719 -0.0038234636 0.2761486 0.3856448
000030 a7 70 c5 3e 22 49 ee 3e 85 a9 d8 3e 84 37 cb 3e
       0.3856251 0.4654017 0.42316833 0.39690793
000040 3a a8 00 3f cf c9 8f 3e 25 83 85 3e b1 c3 1f 3c
       0.50256693 0.28083655 0.26076618 0.009751246
000050 f2 f5 81 3e d9 f5 e6 be 13 92 31 be cb aa 30 bf
       0.25382954 -0.45109442 -0.17340879 -0.6901061
000060 a3 36 19 bf f1 1a 10 bf f0 76 30 bf c6 52 30 be
       -0.59848994 -0.5629111 -0.68931484 -0.17219076
000070 58 75 98 3d 9b e8 a6 3e 7f dc 4a be fa 8c 1a 3e
       0.074442565 0.3259934 -0.19810675 0.15092841
000080 ed 4b 84 3d 86 cd 59 be e6 e0 5c be cb d4 c8 be
       0.06459794 -0.21269807 -0.21570167 -0.39224848
000090 0e 3e 88 be 24 ec 9b be 74 a7 fe bd 8f 79 18 3d
       -0.26609844 -0.30453598 -0.12434283 0.037225302
0000a0 8c 84 87 3e da de 09 be 6a ba 02 bd 0e 6f 92 bd
       0.26468313 -0.13463917 -0.03191606 -0.07150088
0000b0 7e 70 a3 bd 46 d5 b5 bc af c9 17 3e f0 e8 0f 3e
       -0.079804406 -0.022196423 0.1482303 0.14053702
0000c0 02 30 28 bf 42 f7 53 be bf bc 51 3d a2 48 21 bf
       -0.65698254 -0.2069979 0.051205393 -0.63001454
0000d0 c3 08 08 bf 1f 69 dd bd cd f9 32 be 25 c6 0e be
       -0.5313837 -0.10811066 -0.17478104 -0.13942774
0000e0 10 b1 88 be fc 83 c4 3b f6 9a 65 3e d2 b2 5d bb
       -0.26697588 0.005997179 0.22422394 -0.003382851
0000f0 d7 04 c7 3d 22 8b eb 3e f6 ca 38 3e d0 af 11 be
       0.0971772 0.46004587 0.18046173 -0.14227223
000100 e3 8d 67 3e b9 5c 8b 3d 85 31 bf be 07 1d cc bc
       0.22612719 0.06804795 -0.37342468 -0.024916185
000110 bb 0e 8c 3e 53 93 13 be 20 c3 de 3e 2f 0a e6 3e
       0.27354988 -0.14411668 0.43508244 0.44929644
000120 1b d3 29 3e d8 98 6f b9 46 f7 9d be ad 95 6e 3e
       0.16584437 -0.00022849755 -0.30852717 0.23299284
000130 94 41 41 3e 48 27 19 be 93 13 da bd 6d ed 82 bd
       0.18872672 -0.14956391 -0.10648265 -0.063929416
000140 73 31 fb bc 38 9d 6f 3e e7 c4 63 3d f8 ed 54 3c
       -0.030663228 0.23399818 0.055607703 0.012996189
000150 6c 0e 62 be ff 9c 47 bf d7 d0 9c be 96 42 a2 be
       -0.22075814 -0.7797393 -0.30628082 -0.31691426
000160 a8 a5 53 bf 0b 3f 29 be 68 8f 7a be 21 8e 8c be
       -0.82674646 -0.16527955 -0.24468768 -0.27452186
000170 0b 8d e4 bd 2b fa 2d bf 75 32 d0 be 58 db ea bd
       -0.11159714 -0.6795985 -0.40663496 -0.11467618
000180 fb 56 2d bd fb 80 2a bd 40 01 9f 3d 9d d3 9e 3e
       -0.04231928 -0.04162691 0.0776391 0.31020823
000190 ab 0b 26 bb 05 c1 36 be d9 77 60 3e 49 21 3d 3e
       -0.0025336544 -0.17847069 0.21920718 0.18469729
0001a0 2a 1f b8 be a1 44 9f 3d 13 aa 57 be 57 2f 06 bf
       -0.35961276 0.07776762 -0.21060972 -0.52415985
0001b0 a9 c3 84 3e 3a 5e 2b 3e 0d 1c 17 3e 3a 47 95 3e
       0.25930527 0.16735163 0.14756794 0.29155904
0001c0 8b 5b a5 3d 67 a8 08 3e c9 e1 94 3e 2e 72 1a 3e
       0.08074101 0.1334549 0.2907851 0.15082619
0001d0 9f c5 f2 3a 2f c3 a1 3e 06 53 de bc 6a 66 0a 3e
       0.001852203 0.31594226 -0.027139198 0.1351563
0001e0 ae b9 5e 3e 37 66 e0 3d c2 52 96 bd 73 da e3 3d
       0.21750519 0.10956996 -0.073400036 0.1112565
0001f0 52 e5 3a 3e 64 3b 87 3d 70 76 4f 3e ea 11 3f 3e
       0.18251541 0.06603125 0.20260024 0.18659177
000200 da 56 ab be 33 17 0a 3f 93 ed ca 3e bb e2 f5 be
       -0.334647 0.5394165 0.3963438 -0.48024544
000210 84 15 c0 3e 93 c5 39 3e a1 76 0b bf 3f 9f 8e 3d
       0.37516415 0.18141775 -0.5447789 0.069639675
000220 62 13 ff 3c 6c 09 7a 3e e9 72 9d 3e 2b 38 e8 3e
       0.031137172 0.24417657 0.30751732 0.45355353
000230 94 38 43 3f 6b 20 e9 3e a6 dc 4a 3f 7d 43 1e 3e
       0.76258206 0.45532545 0.7924293 0.15455432
000240 3a f3 5e be db 6c 0c be 1c 98 fb be d4 3f 23 be
       -0.21772471 -0.137134 -0.49139488 -0.15942317
000250 fd 11 6c 3e b2 65 ee 3d a8 55 5c 3e 1d 86 81 3e
       0.23053737 0.116404906 0.2151705 0.25297633
000260 ee 20 5c 3e 28 77 57 bf a5 b0 69 be 7e 75 1b 3e
       0.21496937 -0.84166193 -0.22821291 0.15181538
000270 15 d6 24 bf 0c 43 b0 3e a6 33 11 3f e1 ef 6f bd
       -0.64389163 0.34426153 0.56719434 -0.058578376
000280 21 4f b0 bb be 45 1e 3e ae 47 77 be f5 50 fc 3e
       -0.0053805267 0.15456292 -0.24148437 0.49280515
000290 7d bc 9d 3e fc e6 a4 bc 76 b7 03 be ae 98 81 3e
       0.30807868 -0.020129673 -0.12862954 0.25311798
0002a0 63 be 8a 3e f0 87 dd 3e 98 65 9d 3e 66 4c 5b be
       0.2709838 0.43267775 0.30741572 -0.21415862
0002b0 9a 2c aa be 32 45 06 bf 64 41 4e bf 77 16 85 be
       -0.33237153 -0.52449334 -0.8056853 -0.25993702
0002c0 30 0c 99 be 9a 80 35 3d b7 fe 79 be dd af 76 be
       -0.2989211 0.044312097 -0.24413572 -0.24090524
0002d0 aa 04 0c bf 69 9f 12 be 0d e2 13 3e 4a 7d 3a be
       -0.54694617 -0.14318623 0.144417 -0.18211856
0002e0 5f 75 8a be e6 fe d0 3e f8 00 4f be 0b 36 8d 3e
       -0.27042672 0.40819472 -0.20215213 0.27580294
0002f0 2e 03 1c 3f 5e 87 64 bf 2d 00 70 3d fe 65 3a 3e
       0.6094235 -0.89269054 0.058593918 0.1820297
000300 ae 35 fd be 35 5f dd be 2f e6 94 3e fc 96 26 3e
       -0.49455017 -0.432367 0.29081866 0.16268533
000310 05 47 ab bb d4 53 16 3e 39 12 c4 be 3c 24 08 bd
       -0.005226972 0.14680415 -0.38295153 -0.03323768
000320 d8 a6 90 be 9b 8f ae bd 96 f0 80 be 96 64 a0 be
       -0.28252292 -0.08523484 -0.25183553 -0.3132674
000330 79 e9 0d be 0e 80 29 be 04 37 0f be 83 80 90 3c
       -0.13858594 -0.16552755 -0.1398583 0.017639404
000340 0e 8f f2 3e ee 5b b1 3e ac a7 47 be 18 b5 86 3d
       0.47374767 0.3464045 -0.19497555 0.0657751
000350 81 74 7c 3e 1a b9 8f 3d 2e ba 2e 3e b7 3f 23 be
       0.24653818 0.07017727 0.1706321 -0.15942274
000360 72 9f 29 3e 33 b6 06 3d 52 a9 2f 3e 3c 49 27 3f
       0.1656473 0.032888602 0.17154434 0.6534612
000370 6d 90 22 3e ff dd 26 be 46 91 97 3e 51 3f 2a 3f
       0.15875407 -0.16295622 0.29603022 0.66502863
000380 2c 5c 46 3e 3c a9 ac be ea 0d b4 3e ee 8e f8 3e
       0.19371098 -0.33722866 0.35166866 0.48546547
000390 3c 31 53 bd ef 53 0e 3e de e9 ad 3e 8a 4c 19 3c
       -0.051560625 0.13899206 0.3396749 0.009356627
0003a0 43 45 db bd af 78 8a bc 94 31 9e 3d ad 4e 2e 3e
       -0.1070657 -0.01690325 0.077243 0.170222
0003b0 0c 87 90 bd ac 94 58 bc 32 bd 29 3c 86 df 34 3f
       -0.07057008 -0.01321904 0.010360049 0.7065357
0003c0 a8 8b 8d be cf 5c 9d 3b af 66 cf 3e 3d b9 0c bf
       -0.27645612 0.0048023234 0.4050803 -0.5497015
0003d0 ba d7 a2 be 5e ec 88 3e 89 f7 82 be bd c2 09 bd
       -0.3180521 0.26742834 -0.2557948 -0.033632983
0003e0 92 f3 65 3e 96 26 9d 3d 71 3b a5 3e 0b c3 21 3e
       0.22456196 0.07673375 0.32271913 0.15797059
0003f0 05 0f d6 be 7f 5e ff bd 5b 24 c3 3e 3a b1 6c be
       -0.41808334 -0.124691956 0.38113675 -0.23114482

weight f4 [8]
000000 b0 8c 52 3f f2 cb 6d 3f 06 93 70 3f 09 5a 86 3f
       0.8224592 0.9288932 0.9397434 1.0496227
000010 0a 76 8b 3f c3 48 ab 3f e4 9d 73 3f 0f 86 90 3f
       1.0895398 1.338158 0.95162797 1.1290911

bias f4 [8]
000000 85 24 1a 3f 17 d1 9e 3e 4a 70 3d 3f e6 65 b6 3e
       0.60211974 0.31018898 0.73999465 0.35624617
000010 f5 b2 89 3b 61 94 b3 3e 25 8c 3f 3f 21 8a c7 3e
       0.0042022415 0.35074142 0.7482322 0.38972571

running_mean f4 [8]
000000 7b 65 7e 3e 29 d6 04 3f c6 8a 9f bf 99 e2 45 3f
       0.24843399 0.5188928 -1.2464225 0.77298886
000010 8c e8 4e 3e 21 00 d3 bf 67 b0 fd 3e aa 92 2d be
       0.20205897 -1.6484414 0.49548647 -0.16950479

running_var f4 [8]
000000 e2 58 e8 40 28 95 2f 41 4a b3 a0 41 a8 7d 36 41
       7.26085 10.973915 20.087543 11.405678
000010 39 c3 0e 41 f1 9a d5 41 77 a7 25 41 86 d3 6a 41
       8.922662 26.700655 10.353385 14.676641
