HW2/aML/resnet4_ch16.pt (torch, 51036 bytes, 17 tensors)

weight f4 [16, 3, 7, 7]
0.1828742 0.06630826 0.06941191 0.091245025 0.19189426 0.13807994 0.3912205 -0.12993385
0.15133953 0.17904955 0.10625028 0.27011198 0.01119806 0.0656147 -0.24599451 -0.058321454
-0.028977485 0.09565356 0.11063481 -0.09825382 -0.12145399 -0.48314765 -0.11133931 -0.13316408
-0.24392548 -0.38145238 -0.33807385 -0.07090585 -0.25067592 -0.23681968 -0.31938124 -0.26487023
-0.143257 0.050217785 -0.0547298 0.0027761476 -0.14432634 -0.012069309 -0.0885023 -0.022321256
0.09204616 0.096665144 -0.031555057 0.044774964 -0.018026218 0.15230212 -0.07185704 0.03700323
-0.042889632 0.045366902 0.100446686 0.08811304 0.141195 0.13619319 0.23463073 0.34677836
-0.20894843 0.05189335 0.20279245 0.22184245 0.360346 0.15393305 -0.05206645 -0.2164637
0.05153582 0.03335755 0.047750477 0.080756634 -0.12812226 -0.06867326 -0.48410875 -0.18984209
-0.22922093 -0.16991632 -0.353999 -0.40893248 -0.13910903 -0.1517747 -0.30073962 -0.33647195
-0.28374153 -0.20234677 -0.065420285 0.035069626 -0.048992973 -0.028613832 0.018956816 -0.0034052364
0.002771035 0.061587207 0.022268804 -0.012929355 0.09823776 -0.06282887 0.09166658 0.048254035
0.013317933 -0.051300593 0.071335636 0.08033669 0.19548598 0.19157039 0.2015795 0.17008862
0.36643663 -0.15380548 0.08677641 0.21845534 0.22705302 0.27383658 0.14829506 -0.05073946
-0.27555254 0.016990444 0.020212235 0.10727798 -0.010955079 -0.06694418 -0.2163629 -0.38031042
-0.23904699 -0.2558552 -0.2797847 -0.31070518 -0.36129197 -0.1280306 -0.23049329 -0.292527
-0.32642913 -0.30247715 -0.27399787 -0.01887232 -0.044496488 0.05758028 -0.06621488 0.017397314
-0.14573793 0.09448082 -0.016708925 0.026298601 0.088623814 0.087845385 0.06685077 0.051665876
0.0013227216 -0.08358686 0.0752496 0.037478816 -0.0076579032 -0.022691863 -0.040137272 -0.088963374
-0.061909165 -0.049317107 -0.017230937 0.077987395 0.05896244 -0.11613442 -0.12313017 0.0056001367
0.07061135 0.20829512 0.06284406 0.05026267 0.08499168 -0.03289966 -0.03083315 0.27576
-0.108473785 0.21334878 0.28126544 0.20890635 0.26941243 0.09116866 0.47657016 -0.26455352
0.05395845 0.12223861 0.14372805 0.17426598 0.08420692 0.14547107 -0.30916896 -0.16617952
-0.120990895 0.00247546 -0.08685686 -0.27658993 -0.079728186 -0.36278275 -0.3384007 -0.34936967
-0.31716055 -0.37741622 -0.30481702 0.0072893095 -0.05070458 0.058708645 -0.045388017 -0.030016992
0.062183112 -0.006723737 0.060178928 0.052758906 0.098432906 -0.03617874 -0.035002112 -0.114413224
-0.0012886357 0.10467066 0.14364424 0.06526938 0.0330169 0.003832115 0.015341539 0.07837551
0.33916134 -0.09525587 0.15552472 0.28360513 0.1150155 0.25635397 0.15576306 0.47179428
-0.21505935 0.06847528 0.06974367 0.039427534 0.22481999 0.005824589 0.13694923 -0.22553264
-0.08418006 -0.066953294 0.050871298 0.0037264016 -0.1533212 -0.12077746 -0.22484939 -0.28590134
-0.28911787 -0.45062816 -0.33025515 -0.28293273 0.060390927 0.05302171 -0.08916994 -0.07716287
-0.04833014 0.021269605 -0.1451385 0.019366754 -0.03396414 -0.03423738 0.088780046 -0.101976976
00000000: 6043 3b3e a0cc 873d d527 8e3d acde ba3d
00000010: ee7f 443e d464 0d3e 0e4e c83e 610d 05be
00000020: c0f8 1a3e c458 373e bf99 d93d 1e4c 8a3e
00000030: 1178 373c 0061 863d fce5 7bbe 7ae2 6ebd
00000040: 3162 edbc 03e6 c33d 8194 e23d 4c39 c9bd
00000050: dfbc f8bd 215f f7be dd05 e4bd 2a5c 08be
00000060: 9ac7 79be ba4d c3be 0418 adbe 1637 91bd
00000070: 9858 80be dc80 72be f085 a3be 129d 87be
00000080: f7b1 12be 2ab1 4d3d 5b2c 60bd 07f0 353b
00000090: 49ca 13be 5abe 45bc b240 b5bd 11db b6bc
000000a0: b282 bc3d 60f8 c53d e03f 01bd f465 373d
000000b0: b8ab 93bc 16f5 1b3e c929 93bd b390 173d
000000c0: 0aad 2fbd a5d2 393d feb6 cd3d 9c74 b43d
000000d0: 6c95 103e 3a76 0b3e 0a43 703e ef8c b13e
000000e0: 94f6 55be 1f8e 543d d3a8 4f3e ab2a 633e
000000f0: 457f b83e a0a0 1d3e a143 55bd a9a8 5dbe
00000100: 3917 533d eda1 083d 0196 433d bc63 a53d
00000110: 7b32 03be 91a4 8cbd 1add f7be f765 42be
00000120: e4b8 6abe 8bfe 2dbe 5b3f b5be 995f d1be
00000130: 9972 0ebe d46a 1bbe 8bfa 99be 0d46 acbe
00000140: 9246 91be fe33 4fbe 12fb 85bd 2ba5 0f3d
00000150: dbac 48bd 8e67 eabc 534b 9b3c 632a 5fbb
00000160: 419a 353b de42 7c3d 116d b63c a5d5 53bc
00000170: e130 c93d 6cac 80bd b0bb bb3d 06a6 453d
00000180: 7633 5a3c 9220 52bd 6b18 923d 9087 a43d
00000190: 7a2d 483e 072b 443e db6a 4e3e b62b 2e3e
000001a0: 959d bb3e 2f7f 1dbe d5b7 b13d c2b2 5f3e
000001b0: 9680 683e 4f34 8c3e a9da 173e 2ed4 4fbd
000001c0: 3915 8dbe 8b2f 8b3c 2194 a53c 8fb4 db3d
000001d0: ef7c 33bc 081a 89bd 3c8e 5dbe 0cb8 c2be
000001e0: bcc8 74be 74ff 82be f13f 8fbe c014 9fbe
000001f0: 43fb b8be 741a 03be 6f06 6cbe 19c6 95be
00000200: b821 a7be 49de 9abe 7349 8cbe 209a 9abc
00000210: f341 36bd 4dd9 6b3d ab9b 87bd d084 8e3c
00000220: 533c 15be 297f c13d 28e1 88bc 2a70 d73c
00000230: 6780 b53d 48e8 b33d 0ee9 883d 999f 533d
00000240: 2c5f ad3a 962f abbd 761c 9a3d 6383 193d
00000250: 26ef fabb 49e4 b9bc fb66 24bd 6e32 b6bd
00000260: 7794 7dbd bc00 4abd e527 8dbc dbb7 9f3d
00000270: 9982 713d e2d7 edbd ac2b fcbd 5a81 b73b
00000280: af9c 903d 514b 553e 63b4 803d 3be0 4d3d
00000290: 1e10 ae3d cbc1 06bd cd95 fcbc 6a30 8d3e
000002a0: 8127 debd 1a78 5a3e 0602 903e 8ceb 553e
000002b0: 6df0 893e a2b6 ba3d 0101 f43e 8f73 87be
000002c0: 8903 5d3d 3d58 fa3d 722d 133e c872 323e
000002d0: ad74 ac3d 5ef6 143e 654b 9ebe f72a 2abe
000002e0: 13ca f7bd 543b 223b 02e2 b1bd 329d 8dbe
000002f0: 8848 a3bd a9be b9be db42 adbe 95e0 b2be
00000300: de62 a2be b33c c1be fa10 9cbe 29db ee3b
00000310: 9baf 4fbd 7a78 703d c9e8 39bd 32e6 f5bc
00000320: b8b3 7e3d cb52 dcbb 2e7e 763d b919 583d
00000330: 3197 c93d 2930 14bd 605e 0fbd 7b51 eabd
00000340: 70e7 a8ba 925d d63d 7a17 133e f4ab 853d
00000350: bb3c 073d 3924 7b3b 145b 7b3c 5783 a03d
00000360: 8ea6 ad3e 8215 c3bd df41 1f3e b134 913e
00000370: 3f8d eb3d d440 833e 5a80 1f3e 058f f13e
00000380: 8538 5cbe c53c 8c3d c5d5 8e3d c47e 213d
00000390: 3637 663e 32dc be3b 6b3c 0c3e 07f2 66be
000003a0: 9866 acbd cf1e 89bd 6c5e 503d a536 743b
000003b0: 3c00 1dbe 2c5a f7bd eb3e 66be a961 92be
000003c0: 4207 94be bcb8 e6be 3417 a9be 8fdc 90be
000003d0: 7a5c 773d 4b2d 593d bb9e b6bd 9107 9ebd
000003e0: d3f5 45bd 983d ae3c 309f 14be 07a7 9e3c
000003f0: fb1d 0bbd 7f3c 0cbd 50d2 b53d 4ed9 d0bd

weight f4 [16]
1.7658728 1.4186959 2.1117902 1.2374763 1.4019482 1.6177126 2.0470471 1.4287202
1.1646452 1.0664636 0.9513382 1.4069945 1.3223038 1.2429456 0.99338925 1.4628872
00000000: 1f08 e23f d497 b53f 9227 0740 a065 9e3f
00000010: 0a73 b33f 3511 cf3f d202 0340 4ee0 b63f
00000020: 1813 953f e181 883f e68a 733f 6518 b43f
00000030: 4041 a93f d718 9f3f c24e 7e3f e33f bb3f

bias f4 [16]
-0.052999783 -0.27470776 0.20235334 0.5730274 -0.56330425 -0.0012358372 0.3628498 0.15763105
-1.125556 0.03680867 0.16623901 -0.37418568 0.1308931 -0.03872453 -0.72471285 -0.87966615
00000000: 4d16 59bd 7fa6 8cbe b735 4f3e ecb1 123f
00000010: b534 10bf d1fb a1ba 73c7 b93e 096a 213e
00000020: 3812 90bf b0c4 163d 8f3a 2a3e 4495 bfbe
00000030: d708 063e 9d9d 1ebd c886 39bf cd31 61bf

running_mean f4 [16]
-20.331497 -7.593105 -35.10729 7.2837334 -0.7852315 -21.02297 -47.995636 -17.195011
8.721361 19.961489 -5.0615063 -0.94509584 2.393408 -0.3943674 9.906331 -11.525324
00000000: e8a6 a2c1 b7fa f2c0 dd6d 0cc2 5814 e940
00000010: ee04 49bf 0b2f a8c1 88fb 3fc2 628f 89c1
00000020: b28a 0b41 21b1 9f41 dcf7 a1c0 cdf1 71bf
00000030: 992d 1940 86ea c9be 5580 1e41 ba67 38c1

running_var f4 [16]
31964.898 18064.492 66277.8 14079.2705 12648.255 32075.662 83549.734 63325.957
5867.0527 56696.035 5011.432 9607.854 19009.174 33589.11 7859.972 38058.53
00000000: ccb9 f946 fc20 8d46 e672 8147 15fd 5b46
00000010: 05a1 4546 5397 fa46 de2e a347 f55d 7747
00000020: 6c58 b745 0978 5d47 759b 9c45 6a1f 1646
00000030: 5982 9446 1c35 0347 c79f f545 88aa 1447

weight f4 [16, 16, 3, 3]
0.21470882 0.008122272 0.2234331 -0.023972338 0.09137974 0.1319744 -0.12257844 0.00039723312
-0.14117055 0.29142782 0.14481387 0.40437952 -0.16432138 0.011738955 -0.04932533 -0.34900847
0.15849373 -0.29871792 -0.23866907 -0.21035954 -0.3728807 0.08294278 0.0072139287 0.35693637
0.27697587 0.28041172 0.5432677 0.21026517 0.146597 0.18339895 -0.16654587 -0.3244705
-0.14107025 -0.28027365 -0.19426805 -0.35927293 0.058983866 0.033924107 0.13938488 -0.057675857
-0.07218056 0.090917595 -0.07941966 0.036697973 -0.05219679 0.042177737 0.0731706 0.06479898
0.23595259 0.10214245 0.094901875 0.15189654 -0.04895568 -1.2322257 -0.12621698 -0.68135244
0.02891273 0.5741535 0.09656183 0.32943264 0.07939394 -0.23492475 0.10729783 -0.28705168
-0.076610334 -0.058328763 -0.39155695 -0.17786548 -0.005602789 -1.0357397 -0.3240531 -0.43179464
0.25380322 0.07445142 0.24852976 -0.06395816 -0.101681985 0.07668084 -0.25988942 0.05524484
-0.17238897 0.04545488 -0.168794 -0.18094751 0.1522679 0.14738397 0.16865128 -0.16913328
0.11030959 0.2586308 0.14170109 -0.20271307 -0.16894054 0.40656173 0.22000885 0.17386402
-0.4670956 0.03598674 0.15531658 0.013526183 -0.14925988 0.10071916 -0.49347985 0.012876109
0.054260936 -1.0779655 -0.50064903 -0.5799287 0.08563445 0.016194556 0.20291562 -0.4197436
-0.032049734 -0.037528764 -1.076449 -0.43543136 -0.6755378 -0.23060726 -0.12791589 -0.41643864
0.4283049 0.0921917 -0.18875608 0.2219319 -0.086599134 -0.7477906 -0.005604249 0.00868005
0.023101758 0.20204857 0.05513675 0.094783455 -0.100070424 -0.08480355 -0.4127879 -0.15621619
-0.00059683505 -0.10812648 -0.13799351 0.16697489 0.29860315 -0.50349885 0.052522764 0.3324971
0.69652414 0.43202823 0.04361495 0.086700425 -0.24902408 -0.33192033 -0.17326577 -0.21259233
-0.06647051 0.15803309 -0.012067672 -0.17424166 -0.12540865 -0.04062555 0.01778571 -0.16272306
-0.043607507 0.056968544 -0.8674975 -0.41216996 -0.34290117 0.20658597 0.17203087 -0.015634088
-0.11418419 -0.25867134 -0.45795763 -0.046082497 -0.14682598 0.008685694 0.24334909 -0.09180024
0.0027884492 0.28433508 0.013884288 0.11838301 -0.11026358 0.00015717262 0.36484504 0.27693713
0.16299403 0.19221406 0.3970132 -0.048356462 0.036355473 -0.20064902 -0.33951128 0.19442403
-0.4732639 -0.20911515 0.3253312 -0.20870519 0.17845394 0.5354877 0.27569696 0.14771894
-0.00787689 -0.173971 -0.21485575 -0.388465 -0.18887044 -0.006309444 -0.20432563 0.4190806
0.058477 -0.30569008 0.26506698 0.005371744 -0.2727198 -0.20049265 -0.12035877 -0.06319067
-0.6684701 -0.16589616 0.32510155 -0.26977378 -0.028982861 0.23847438 0.1744007 0.1835484
0.17414856 0.006999332 0.083352804 -0.2154114 -0.1137821 -0.098506846 -0.17963982 -0.07231486
-0.06597054 -0.114069484 0.15957005 0.3250058 0.1588551 -0.20208992 -0.20240138 0.21667202
0.35560134 0.20969866 0.3997308 0.29984438 0.26767418 0.0219837 0.05544482 -0.047698464
-0.21859017 -0.054644037 0.1586472 0.13549127 0.18064609 0.09663081 -0.32012615 0.31038806
00000000: a1dc 5b3e 4713 053c a6cb 643e a361 c4bc
00000010: 4d25 bb3d 4c24 073e 680a fbbd ba43 d039
00000020: 038f 10be 0736 953e 164a 143e d50a cf3e
00000030: dd43 28be bf54 403c 5b09 4abd 3db1 b2be
00000040: 2e4c 223e 8ef1 98be aa65 74be 7e68 57be
00000050: 38ea bebe e7dd a93d d262 ec3b 5dc0 b63e
00000060: c8cf 8d3e 2092 8f3e 9813 0b3f c14f 573e
00000070: 861d 163e efcc 3b3e 008b 2abe ff20 a6be
00000080: b874 10be 0780 8fbe 34ee 46be 9ff2 b7be
00000090: 1199 713d 01f4 0a3d e9ba 0e3e 853d 6cbd
000000a0: 67d3 93bd 0133 ba3d c6a6 a2bd 9d50 163d
000000b0: 4dcc 55bd 90c2 2c3d 78da 953d 54b5 843d
000000c0: 8e9d 713e 1030 d13d ea5b c23d c48a 1b3e
000000d0: c085 48bd 92b9 9dbf 063f 01be 1d6d 2ebf
000000e0: 64da ec3c b9fb 123f 35c2 c53d 65ab a83e
000000f0: 4a99 a23d 1d90 70be f7be db3d 70f8 92be
00000100: e1e5 9cbd 24ea 6ebd 277a c8be 5e22 36be
00000110: 9a97 b7bb 1e93 84bf 4aea a5be 3014 ddbe
00000120: 7ff2 813e fc79 983d 967e 7e3e 7ffc 82bd
00000130: a53e d0bd d80a 9d3d 3a10 85be 6a48 623d
00000140: bc86 30be e52e 3a3d 56d8 2cbe 4e4a 39be
00000150: 1eec 1b3e d3eb 163e ecb2 2c3e 4631 2dbe
00000160: ffe9 e13d 426b 843e 171a 113e 0494 4fbe
00000170: c0fe 2cbe dc28 d03e 004a 613e 6909 323e
00000180: 2827 efbe d566 133d 4f0b 1f3e ec9c 5d3c
00000190: 95d7 18be d945 ce3d 64a9 fcbe 51f6 523c
000001a0: b740 5e3d c6fa 89bf 892a 00bf 3576 14bf
000001b0: 1d61 af3d 72aa 843c 1dc9 4f3e a2e8 d6be
000001c0: 9546 03bd c3b7 19bd 15c9 89bf dcf0 debe
000001d0: 0cf0 2cbf 4f24 6cbe 62fc 02be 7237 d5be
000001e0: c84a db3e 01cf bc3d 4649 41be 1e42 633e
000001f0: e35a b1bd 346f 3fbf d9a3 b7bb c536 0e3c
00000200: e63f bd3c d2e5 4e3e 13d7 613d d41d c23d
00000210: b9f1 ccbd 7cad adbd f058 d3be 23f7 1fbe
00000220: ec74 1cba 6a71 ddbd 2c4e 0dbe 77fb 2a3e
00000230: 83e2 983e 4de5 00bf 1c22 573d 0f3d aa3e
00000240: 684f 323f ce32 dd3e 97a5 323d fe8f b13d
00000250: 2b00 7fbe 76f1 a9be 956c 31be ceb1 59be
00000260: b121 88bd 6dd3 213e 7cb7 45bc 686c 32be
00000270: 206b 00be fa66 26bd 56b3 913c e0a0 26be
00000280: c99d 32bd d957 693d 5114 5ebf f107 d3be
00000290: be90 afbe 468b 533e dc28 303e 0f13 80bc
000002a0: 67d9 e9bd 9270 84be 6c79 eabe 00c1 3cbd
000002b0: 8d59 16be 714e 0e3c 8130 793e c401 bcbd
000002c0: 6abe 363b 5e94 913e ed7a 633c cb72 f23d
000002d0: dfd1 e1bd b4ce 2439 f8cc ba3e b4ca 8d3e
000002e0: e8e7 263e c3d3 443e 5045 cb3e 6d11 46bd
000002f0: 7ae9 143d f076 4dbe 6cd4 adbe 1817 473e
00000300: a54f f2be 4822 56be d091 a63e d0b6 55be
00000310: a1bc 363e b915 093f 2728 8d3e a243 173e
00000320: 120e 01bc 7425 32be 2503 5cbe e2e4 c6be
00000330: 4167 41be 74bf cebb bd3a 51be bb91 d63e
00000340: 9485 6f3d 6983 9cbe dcb6 873e 7405 b03b
00000350: eea1 8bbe f24d 4dbe a97e f6bd 1c6a 81bd
00000360: db20 2bbf afe0 29be b673 a63e ca1f 8abe
00000370: 776d edbc a132 743e 1996 323e 1df4 3b3e
00000380: 0054 323e a75a e53b e0b4 aa3d ce94 5cbe
00000390: 9706 e9bd f5bd c9bd 80f3 37be d019 94bd
000003a0: 901b 87bd 439d e9bd 5566 233e 2967 a63e
000003b0: e9aa 223e a9f0 4ebe 4f42 4fbe 45df 5d3e
000003c0: 6111 b63e 3fbb 563e 84a9 cc3e 3485 993e
000003d0: 970c 893e 2917 b43c 1c1a 633d 775f 43bd
000003e0: 1ad6 5fbe 6dd2 5fbd 6974 223e 39be 0a3e
000003f0: 4afb 383e 60e6 c53d 93e7 a3be 2feb 9e3e

weight f4 [16]
1.3262199 0.5397894 0.45246226 1.288857 1.1137692 1.4586022 1.1382397 1.3660381
0.67833346 1.3962862 0.47442424 1.289943 0.7811586 1.101049 1.0801625 1.3907247
00000000: 93c1 a93f a32f 0a3f 22a9 e73e 44f9 a43f
00000010: fd8f 8e3f 7ab3 ba3f d7b1 913f 56da ae3f
00000020: 43a7 2d3f 82b9 b23f bce7 f23e da1c a53f
00000030: 03fa 473f 2cef 8c3f c442 8a3f 4403 b23f

bias f4 [16]
-0.12566891 -1.0811597 -1.2395109 -0.16480686 -0.7224212 -0.14189593 -0.36309174 -0.3489279
-0.015176845 -0.25354293 -1.1691134 -0.19808654 -0.5416231 -0.10010715 -0.1708751 -0.21543033
00000000: 5aaf 00be 7163 8abf 4ba8 9ebf 21c3 28be
00000010: 99f0 38bf 2b4d 11be 29e7 b9be ada6 b2be
00000020: 4da8 78bc 61d0 81be 82a5 95bf 33d7 4abe
00000030: d0a7 0abf fa04 cdbd e2f9 2ebe c599 5cbe

running_mean f4 [16]
-3.5484405 -0.43154445 -2.4588544 -2.5579996 -1.6255279 -6.563936 -1.4072993 -1.9870044
-1.199971 -1.1659554 2.518819 -4.2234263 1.1976179 -1.2617064 -0.42444667 -3.4452055
00000000: a619 63c0 65f3 dcbe df5d 1dc0 44b6 23c0
00000010: 4c11 d0bf c40b d2c0 6222 b4bf 2956 febf
00000020: a698 99bf 073e 95bf 5534 2140 4f26 87c0
00000030: 8b4b 993f 987f a1bf 1351 d9be 3f7e 5cc0

running_var f4 [16]
166.42398 22.759438 18.114338 88.01487 61.476616 214.24324 62.99233 92.5608
63.164738 58.743652 12.580651 114.36111 30.01584 80.73622 46.427868 131.56892
00000000: 8a6c 2643 5413 b641 2aea 9041 9d07 b042
00000010: 0ee8 7542 453e 5643 25f8 7b42 211f b942
00000020: b1a8 7c42 80f9 6a42 594a 4941 e3b8 e442
00000030: 7120 f041 f278 a142 23b6 3942 a591 0343

weight f4 [16, 16, 3, 3]
0.100510746 0.03705008 0.034761846 -0.29266906 -0.0938732 -0.046590075 -0.36925745 0.03835409
0.001532105 -0.3443262 -0.25645128 -0.5254955 -0.06508672 -0.09585195 -0.469045 0.07794486
-0.006895512 -0.3402529 -0.25394452 -0.17999603 -0.06520425 0.07335023 0.11877009 0.16616544
0.17456737 0.18294784 -0.092981905 0.28527233 0.26275042 -0.34291038 0.10386726 0.29622418
0.0025630184 -0.40872604 0.2577324 0.0811699 0.797149 0.2029964 0.40799224 0.4819811
-0.040730618 0.22515385 0.49092418 0.089720346 0.5687047 -0.45296 -0.35560197 -0.42411718
-0.14740486 -0.07041011 -0.19994769 -0.3740615 -0.34377334 -0.3576926 0.3008778 0.15506607
0.20391962 0.20026337 0.14594378 0.13752358 0.34558877 0.28354743 0.39494827 0.046335623
-0.24165332 -0.26486105 0.32283425 -0.055521805 -0.085655056 0.04365187 -0.0145505285 -0.32373625
-0.0033788192 0.07150381 -0.24967362 -0.15284798 -0.017151877 -0.11840536 -0.3982566 0.07414492
0.40387335 0.2694335 -0.038417522 0.50151396 0.2043567 -0.15621273 0.3916169 0.45608434
0.28089163 0.61338365 0.016693696 0.12883483 0.018093394 -0.018069308 -0.03486774 0.041113004
-0.044903457 -0.09755916 -0.06525209 0.40116066 0.21863647 -0.2765336 0.40645745 0.2687473
-0.16993341 0.009668147 0.07101361 -0.37400615 0.6024095 0.009705303 -0.02928088 0.5649907
0.08606824 -0.0392918 0.6410707 0.31524816 0.17552912 0.1880121 0.101672515 0.51652485
-0.1081532 0.089113146 0.54496485 -0.058040656 -0.15038958 0.7199483 -0.2851693 -0.2906876
-0.36220884 -0.17320275 -0.19720204 -0.3251523 0.09003587 0.13835754 -0.51740503 0.31738758
0.30767718 0.24227235 0.3897395 0.13300799 0.2650076 0.6024993 0.5420828 0.49472097
0.49245146 0.51990443 0.6151964 0.40141734 0.48337403 0.51508564 0.70111483 0.7398656
0.84643203 0.1641269 0.16886567 0.43300202 0.16202226 -0.045989335 0.15712257 0.41651982
0.015055786 -0.0138299465 0.50594527 0.29951578 0.5890211 0.20434377 0.15451938 0.22011046
0.15938781 -0.034894153 -0.018971298 0.30416486 0.32341117 -0.07120185 0.22256576 0.24644719
0.20572987 0.20017476 0.18665104 0.01789067 0.080455676 0.063108385 0.18281065 -0.05676066
0.021939276 -0.035665788 0.21082734 0.27187723 0.07514272 0.24276954 0.3148868 -0.04338516
0.47053137 0.3183929 -0.10989918 0.23600878 0.17475161 -0.13687456 -0.12736544 -0.15209359
-0.21753249 -0.12215873 -0.2687097 -0.25124526 0.033521958 -0.20251052 -0.22258922 -0.19568989
0.13151269 0.21669719 -0.09114561 0.21083148 0.1530666 0.14907363 0.22128 0.07212756
0.042228106 0.027782107 -0.35897365 0.07853619 0.21283561 -0.08209654 -0.171396 0.29001114
-0.24628395 -0.6832994 -0.21633127 -0.41764846 -0.19709074 0.090669826 -0.072142534 -0.28957313
-0.09551268 -0.23182487 0.14068119 0.0048838807 0.24917673 0.27333322 0.15892692 0.29689598
0.18015806 0.1342979 0.15416841 -0.34935448 -0.13396458 -0.2887338 -0.22363685 0.007263941
0.013612082 -0.21363877 0.08637264 0.043106847 -0.26680985 -0.11229911 -0.19227163 -0.4071553
00000000: 94d8 cd3d d3c1 173d 7062 0e3d b8d8 95be
00000010: 9840 c0bd 3cd5 3ebd 500f bdbe 2e19 1d3d
00000020: ead0 c83a 864b b0be 954d 83be e086 06bf
00000030: 304c 85bd 074e c4bd ab26 f0be 8ea1 9f3d
00000040: bff3 e1bb a135 aebe 0405 82be e150 38be
00000050: ce89 85bd a538 963d bc3d f33d 4627 2a3e
00000060: cac1 323e ae56 3b3e 4c6d bebd 370f 923e
00000070: 3987 863e f391 afbe 5cb8 d43d b2aa 973e
00000080: 50f8 273b 8a44 d1be 80f5 833e 683c a63d
00000090: f511 4c3f 4ade 4f3e 5ce4 d03e 3ac6 f63e
000000a0: 26d5 26bd bb8e 663e 6a5a fb3e 4dbf b73d
000000b0: a296 113f 60ea e7be 7611 b6be e325 d9be
000000c0: 4df1 16be 2d33 90bd 16bf 4cbe fd84 bfbe
000000d0: 0f03 b0be 7c23 b7be a80c 9a3e a4c9 1e3e
000000e0: 4ed0 503e d711 4d3e 4972 153e fbd2 0c3e
000000f0: 03f1 b03e 212d 913e a936 ca3e 6cca 3d3d
00000100: f873 77be de9b 87be 884a a53e d56a 63bd
00000110: eb6b afbd 4ecc 323d 5765 6ebc c2c0 a5be
00000120: 2e6f 5dbb 9770 923d 71aa 7fbe 2e84 1cbe
00000130: 1882 8cbc 827e f2bd 4ae8 cbbe 4bd9 973d
00000140: 7dc8 ce3e 30f3 893e b15b 1dbd 3863 003f
00000150: e242 513e 3bf6 1fbe 0382 c83e e383 e93e
00000160: 07d1 8f3e b606 1d3f 38c1 883c 47ed 033e
00000170: 9938 943c 1606 94bc 7ad1 0ebd 1c66 283d
00000180: b0ec 37bd 19cd c7bd e3a2 85bd ee64 cd3e
00000190: 3de2 5f3e d095 8dbe 311b d03e 3f99 893e
000001a0: 0603 2ebe 2667 1e3c 956f 913d bc7d bfbe
000001b0: 8237 1a3f fe02 1f3c 75de efbc 3ba3 103f
000001c0: 8c44 b03d 70f0 20bd 361d 243f 3568 a13e
000001d0: e8bd 333e 3e86 403e ae39 d03d f93a 043f
000001e0: 6d7f ddbd f480 b63d d182 0b3f 0abc 6dbd
000001f0: baff 19be 884e 383f b601 92be 01d5 94be
00000200: 7073 b9be 105c 31be 55ef 49be 5d7a a6be
00000210: ba64 b83d 99ad 0d3e a874 04bf a080 a23e
00000220: dd87 9d3e 3e16 783e f08b c73e 3f33 083e
00000230: 13af 873e 653d 1a3f f0c5 0a3f 114c fd3e
00000240: 9922 fc3e 7518 053f 837d 1d3f 9386 cd3e
00000250: cd7c f73e a7dc 033f 437c 333f d567 3d3f
00000260: c5af 583f e210 283e 1feb 2c3e 71b2 dd3e
00000270: 2ae9 253e 505f 3cbd bde4 203e 1642 d53e
00000280: 8bac 763c 0097 62bc a185 013f 225a 993e
00000290: 16ca 163f 7e3f 513e 543a 1e3e a364 613e
000002a0: 8f36 233e 2ced 0ebd b269 9bbc 7fbb 9b3e
000002b0: 2696 a53e 47d2 91bd 47e8 633e a75c 7c3e
000002c0: daaa 523e 9dfa 4c3e 7321 3f3e 748f 923c
000002d0: f2c5 a43d f83e 813d b732 3b3e de7d 68bd
000002e0: ffb9 b33c 4a16 12bd 1fe3 573e 7e33 8b3e
000002f0: 6de4 993d 9498 783e d838 a13e a3b4 31bd
00000300: 7de9 f03e 6504 a33e d212 e1bd 49ac 713e
00000310: 16f2 323e d828 0cbe 166c 02be 6cbe 1bbe
00000320: d6c0 5ebe 5b2e fabd 5194 89be 38a3 80be
00000330: 524e 093d eb5e 4fbe 6eee 63be ee62 48be
00000340: 43ab 063e dee5 5d3e 8daa babd 35e4 573e
00000350: 7ebd 1c3e c2a6 183e 3997 623e 9db7 933d
00000360: 61f7 2c3d 4d97 e33c 65cb b7be 95d7 a03d
00000370: 94f1 593e 3b22 a8bd 6f82 2fbe 577c 943e
00000380: dc31 7cbe b6ec 2ebf f285 5dbe 05d6 d5be
00000390: 28d2 49be 1ab1 b93d 77bf 93bd ee42 94be
000003a0: 279c c3bd 8063 6dbe bb0e 103e f608 a03b
000003b0: 2f28 7f3e 55f2 8b3e bdbd 223e c002 983e
000003c0: 5b7b 383e 6485 093e 53de 1d3e 97de b2be
000003d0: 032e 09be ebd4 93be 0f01 65be 5b06 ee3b
000003e0: 3605 5f3c 1fc4 5abe 24e4 b03d ce90 303d
000003f0: 4d9b 88be 13fd e5bd dbe2 44be a976 d0be

weight f4 [16]
5.8405123 6.503601 5.829068 5.947993 6.2684126 5.6971216 7.0657024 5.9884787
5.9889455 6.3031983 6.6498 5.7857637 5.9319234 6.6731386 6.468682 6.201471
00000000: 7ae5 ba40 801d d040 ba87 ba40 f555 be40
00000010: d696 c840 d24e b640 3c1a e240 9ea1 bf40
00000020: 71a5 bf40 cdb3 c940 29cb d440 fa24 b940
00000030: 51d2 bd40 5a8a d540 71ff ce40 7372 c640

bias f4 [16]
0.49142677 0.111422986 0.75770104 0.43164623 0.24997456 0.45779875 0.805654 0.43224323
0.5594589 0.44881865 0.32806984 0.2595102 0.3639523 0.21510878 0.47637483 0.34454793
00000000: 4a9c fb3e bc31 e43d b2f8 413f bc00 dd3e
00000010: 55f9 7f3e 9964 ea3e 573f 4e3f fc4e dd3e
00000020: b338 0f3f 8fcb e53e c5f8 a73e 85de 843e
00000030: f557 ba3e 7a45 5c3e 67e7 f33e 9668 b03e

running_mean f4 [16]
0.12859736 0.8090597 -0.4215121 0.81969136 0.20788462 0.87068236 0.8283937 0.1744278
0.104693204 0.32046798 -0.47918063 -0.042318504 -0.8705826 -0.5296049 0.9826108 0.67298853
00000000: 07af 033e 891e 4f3f 6fd0 d7be 4bd7 513f
00000010: b5df 543e 0ae5 5e3f 9c11 543f 349d 323e
00000020: 6469 d63d 6114 a43e 2a57 f5be 2b56 2dbd
00000030: 80de 5ebf 3094 07bf 628c 7b3f fa48 2c3f

running_var f4 [16]
0.50896007 0.41604957 0.3811874 0.34850317 0.4523009 0.50867087 0.5593974 0.38183925
0.38957554 0.31982714 0.3046107 0.406773 0.3437931 0.3994168 0.3300958 0.48560053
00000000: 354b 023f 7304 d53e ff2a c33e 026f b23e
00000010: fc93 e73e 4138 023f ab34 0f3f 6f80 c33e
00000020: 7276 c73e 62c0 a33e eff5 9b3e 8d44 d03e
00000030: a605 b03e 5c80 cc3e 5102 a93e a2a0 f83e

weight f4 [10, 16]
-0.28651163 0.92176765 -1.1260794 1.3485775 0.11106857 1.249373 -2.1042745 2.0680804
-0.69258904 0.40677685 -3.2201867 0.93219334 -1.6797746 -1.808483 1.8686816 0.083816834
0.19020842 -2.447218 1.4343785 -1.1201829 -2.798906 1.5292652 2.2743688 -0.54378015
-1.9626691 -1.2394303 -0.11866081 -2.695503 -1.9475012 0.35220385 0.8856714 1.8485159
-0.15180442 2.7409976 -1.4628638 -0.055530675 -1.590107 -1.5117102 1.0173478 0.88292164
0.23877342 1.976703 0.6918597 0.21376891 -0.5111456 -2.4749658 -2.4156702 0.8010966
1.9324018 -0.9249858 -0.9679962 -0.93664396 1.3956468 -2.4645581 0.27039877 1.6642485
1.2419094 -2.6131644 1.7349784 -0.60492396 2.3981295 -2.1374707 -1.8989457 -1.3395103
-2.9961095 0.44921416 -0.12952913 -2.703899 -1.9696354 -0.53878266 0.2106655 -2.972508
0.0890166 2.6573017 -0.44504896 -0.8882807 1.3923341 2.7228098 0.49943143 2.0127935
2.283695 -1.8119693 -0.4757803 1.8088343 -1.0799037 -1.4485083 -1.4121628 0.26575378
-1.7880244 -2.3966806 1.0015374 2.1308675 0.032941584 1.6263406 0.033260427 -1.6115376
0.41159478 1.0871062 -1.6153828 1.8450173 0.9620719 2.1926203 -0.78132915 -2.5127993
-1.2449099 -1.5575739 -1.8831683 0.88157845 -3.0601923 2.1516404 -1.4453093 2.1913707
-0.89097047 -1.9769744 1.8252748 -2.1860769 -1.7944916 -1.9161797 1.2164563 2.0281081
-1.9204549 1.7979957 0.3874383 -2.7737768 1.2562757 -1.8659043 1.8774904 -1.5329885
-1.5812446 0.8507299 -0.44409087 0.8621054 2.0619597 1.1700411 -1.6048781 -1.2885783
2.530396 -1.2789645 0.9541454 0.7324883 -0.0060818596 -0.2556751 -2.1200442 -1.6555616
-2.1505017 -0.87384 1.8113985 -0.42916688 2.3265517 -1.3524776 0.057066575 -1.2625084
1.6650435 0.07278518 -1.984408 -0.28222352 0.7911909 0.25383803 1.7422237 -3.2612336
00000000: a7b1 92be f7f8 6b3f 5f23 90bf 309e ac3f
00000010: eb77 e33d 74eb 9f3f 6fac 06c0 6e5b 0440
00000020: 844d 31bf 0e45 d03e 8a17 4ec0 39a4 6e3f
00000030: db02 d7bf 5f7c e7bf f530 ef3f 29a8 ab3d
00000040: ffc5 423e 389f 1cc0 b799 b73f 2762 8fbf
00000050: 4721 33c0 f6be c33f 428f 1140 2d35 0bbf
00000060: be38 fbbf a7a5 9ebf 7004 f3bd 1f83 2cc0
00000070: b847 f9bf 1054 b43e 5cbb 623f 2b9c ec3f
00000080: 9e72 1bbe 816c 2f40 1f3f bbbf 2274 63bd
00000090: a088 cbbf b87f c1bf 7438 823f 2707 623f
000000a0: 0581 743e 9b04 fd3f b81d 313f 3de6 5a3e
000000b0: 70da 02bf d765 1ec0 579a 1ac0 ab14 4d3f
000000c0: f158 f73f dfcb 6cbf 99ce 77bf e6c7 6fbf
000000d0: 8ea4 b23f 52bb 1dc0 b571 8a3e 1806 d53f
000000e0: e3f6 9e3f 163e 27c0 c613 de3f 4cdc 1abf
000000f0: f47a 1940 52cc 08c0 a710 f3bf 1375 abbf
00000100: 42c0 3fc0 66ff e53e 49a3 04be ae0c 2dc0
00000110: 031d fcbf a9ed 09bf b2b8 573e 923d 3ec0
00000120: 564e b63d 3b11 2a40 75dd e3be 5d66 63bf
00000130: 0138 b23f 8442 2e40 7ab5 ff3e 9cd1 0040
00000140: 0f28 1240 9cee e7bf 7a99 f3be e287 e73f
00000150: 493a 8abf b868 b9bf c0c1 b4bf e110 883e
00000160: fcdd e4bf 3763 19c0 6132 803f 2260 0840
00000170: c1ed 063d ee2b d03f 163c 083d dd46 cebf
00000180: 8dbc d23e 4c26 8b3f ddc4 cebf 8729 ec3f
00000190: 584a 763f e453 0c40 3005 48bf b4d1 20c0
000001a0: 3559 9fbf 955e c7bf a90b f1bf 20af 613f
000001b0: 31da 43c0 7ab4 0940 e5ff b8bf 6b3f 0c40
000001c0: a416 64bf 7f0d fdbf 9ba2 e93f afe8 0bc0
000001d0: e7b1 e5bf 6045 f5bf d7b4 9b3f 86cc 0140
000001e0: 77d1 f5bf b924 e63f 505e c63e 8f85 31c0
000001f0: a4cd a03f f4d5 eebf 9b51 f03f f838 c4bf
00000200: 3966 cabf 6fc9 593f e15f e3be f1b2 5c3f
00000210: 26f7 0340 e8c3 953f a56c cdbf 22f0 a4bf
00000220: 02f2 2140 1cb5 a3bf df42 743f 5a84 3b3f
00000230: 564a c7bb d9e7 82be ceae 07c0 71e9 d3bf
00000240: d2a1 09c0 fab3 5fbf e8db e73f c3bb dbbe
00000250: 39e6 1440 fc1d adbf a4be 693d e099 a1bf
00000260: 2520 d53f 6510 953d 1501 febf 9a7f 90be
00000270: 7d8b 4a3f 0ff7 813e 3001 df3f 0db8 50c0

bias f4 [10]
0.0622909 0.99678975 0.06152557 -0.75510377 -0.4968724 0.3759398 -0.29225245 0.101789236
-0.35785165 0.2687899
00000000: be24 7f3d 9d2d 7f3f 3c02 7c3d 7b4e 41bf
00000010: 0f66 febe 2e7b c03e 1da2 95be e076 d03d
00000020: 5538 b7be d49e 893e
