HW2/aML/resnet10_btnk_ch4.pt (torch, 60011 bytes, 72 tensors)

weight f4 [4, 3, 7, 7]
00000000: 4f2d 8a3d 174f 4a3e 4fbc de3d bae0 073c
00000010: 6d7a ecbd 8014 c3be fcf4 4ebe b8f5 50bf
00000020: 5183 33bf e5b0 c3be e24e 9dbe b326 23be
00000030: ac40 323e e293 113e b563 c13d ca7d 97bd
00000040: 4fed f7be 6891 08bf a9bd 58be 651c 963e
00000050: a1e2 9b3c d640 a03e 82d3 8abd 8fa3 71bd
00000060: 4d89 b6be eeeb 60bf 20a7 6bbe 4218 62be
00000070: c026 663e 5f16 bc3d ea55 163e f206 733e
00000080: 25f3 04bf 53a5 f9be 5f06 86be a734 9c3e
00000090: a169 a53e 6a93 643e b874 853e defb 763d
000000a0: 525b 11bd 4f0c 2fbf 3787 a23d fdce a93d
000000b0: 992d 833c 1288 ed3e f805 cc3e 2769 b93e
000000c0: dfb0 babd 5ab7 053e d321 423e b921 d63d
000000d0: 2df5 863d 7707 c63c a7ee 6abe 34e7 52be
000000e0: 6dc9 54bf d509 39bf 53f9 b8be 89f0 9bbe
000000f0: 8171 d8bd af6f 8b3e 051c cf3d 6016 0e3e
00000100: 6f19 73bd a9d2 cabe 9a62 00bf 6bf3 edbd
00000110: 6dc2 863e d1fe f4bc 02f2 b63e e85c 79bd
00000120: 07a0 02be 3934 d6be e62a 79bf 0209 62be
00000130: 267c d4bd f656 773e fcc3 903d 8aee 303e
00000140: ca43 773e e8ef 10bf b872 d7be 1e83 76be
00000150: 25ff a83e ab5e 953e 04c0 483e c2c5 5d3e
00000160: 311a a33d 9df9 f4bd 7f1e 1dbf f8c8 0d3e
00000170: d262 1b3e 77e1 2c3e 9949 d83e b96b ba3e
00000180: 71e8 a93e 704d 83bd 234a bb3d c3d9 303e
00000190: 3a78 113e f5eb 5cbc 536f 69bd c221 bdbe
000001a0: a681 06be 34b9 4dbf 3caa 33bf 86d6 cdbe
000001b0: 870c dcbe e997 c1bd 6c1b 893e c928 083e
000001c0: bd27 963d 071d 88bd 2298 02bf 0c7f e0be
000001d0: afa1 b7bd 676c 893e 42b0 553d b51b a73e
000001e0: 5880 0bbd 8571 c3bd a767 bbbe 90c1 60bf
000001f0: 2cbd 8cbe 0ad8 e0bd a247 623e 405e ac3d
00000200: 0715 373e a3a4 8c3e 1287 20bf 576d d9be
00000210: e5c9 aebe abb4 533e 3a07 8d3e d149 903e
00000220: 1d2a 9b3e 992f 2a3c 2c47 87bc 534d 1fbf
00000230: bf5b 8e3d 64b9 8a3c b98d 883d 6672 9a3e
00000240: 87ad ff3e f487 aa3e 795e 1dbe cbcb 023e
00000250: cf05 a43e 172a 763e 35b9 233e 6161 1fbd
00000260: 3103 4b3e 71fe 473e 1a17 283e 390e 3f3e
00000270: e840 863e 04eb 2dbe 0c4d 1abf c6a4 cfbe
00000280: 91af 293e 3659 583e a4c1 113f 246f 7c3e
00000290: ef5c d5be d156 a7bd 4163 3ebf 1caf 8c3e
000002a0: 6588 d13e 4e81 743e 77e2 7cbe 4c34 85be
000002b0: ef7b 963d ed78 b3be 0bf3 dc3d f00a b13e
000002c0: 2414 933d 28de 8dbe 0046 543e b352 23bd
000002d0: e90a 31bd c8dc be3d a3ba 163e 77e1 1bbe
000002e0: af7b d33c 5051 4e3e e4b3 15bf 7c0f d439
000002f0: 118f 1f3c f3a1 27bd e14d d0bd 92f1 1ebe
00000300: c110 b7be 8600 25be 41e6 593e b0e2 203e
00000310: c731 ec3d 8767 cc3e 4aba ac3e 24a8 583e
00000320: 3cbf 92bc dad5 cb3d 7431 f63d c75d 103e
00000330: 0434 a83e 8e40 363e 96ef 2cbe aecb 2dbf
00000340: 0988 b6be 3a73 dc3b 8e66 033e 0122 283f
00000350: 9715 5d3e 7875 edbe a104 4abe f074 3bbf
00000360: d516 783e e595 ce3e f6df 8c3e cef3 a5be
00000370: 0ab1 a7be 36eb b23d 3aac a1be 8f59 e73c
00000380: e2bc 623e 6308 85bd c235 62be 2b0b 2d3e
00000390: 8037 90bd 3502 d03c 2f8f ef3d b0ce 0f3e
000003a0: 9ef5 c0bd 7195 ff3d 7033 2c3e 7432 07bf
000003b0: d80e 063e b447 4abd e7a9 dcbc b400 6ebe
000003c0: ec89 99bb 0259 a1be 2d60 17bd 51d7 263e
000003d0: 97f6 ca3d 4759 2e3e 8a61 cc3e c964 a33e
000003e0: 03b6 473e ffdc 13be 5ed2 3d3e 07a4 d33d
000003f0: 7be4 f83d 3265 9e3e acad 203e 2f3a d5bd
0.06746923 0.19756733 0.10875761 0.008293325 -0.11546788 -0.38101578 -0.20210642 -0.8162494
-0.7012225 -0.38220897 -0.30724245 -0.15932731 0.17407483 0.14216569 0.09442846 -0.07397039
-0.4842324 -0.5334687 -0.211661 0.29318538 0.019028964 0.31299466 -0.06778623 -0.058993872
-0.35651627 -0.8786 -0.23012972 -0.22079566 0.2247572 0.091839544 0.14681211 0.23733118
-0.5193351 -0.48758945 -0.26176736 0.3050892 0.3230715 0.22321859 0.26065612 0.060298793
-0.03548748 -0.68378156 0.079359464 0.08291433 0.016012954 0.46392876 0.39848304 0.36213037
-0.09115767 0.13058224 0.18958215 0.10455651 0.06589732 0.024173481 -0.22942601 -0.2059601
-0.8311985 -0.7228063 -0.3612772 -0.3045695 -0.10568524 0.27233645 0.10112766 0.13875723
-0.059350427 -0.39613846 -0.50150454 -0.11618694 0.2632021 -0.029906662 0.35731512 -0.060879618
-0.12756358 -0.41836718 -0.9733108 -0.22073749 -0.10375242 0.24154267 0.07068631 0.17278495
0.24146953 -0.5661607 -0.4207971 -0.24073455 0.3300716 0.29173788 0.19604498 0.2165747
0.0796398 -0.119616725 -0.6137466 0.13846195 0.15174416 0.16882883 0.4224365 0.3641031
0.3318515 -0.064112544 0.09145 0.1727057 0.14206019 -0.013483991 -0.056990933 -0.36939818
-0.13135394 -0.8036072 -0.7018163 -0.4020273 -0.42978308 -0.09452803 0.26778734 0.13296808
0.07331798 -0.066461615 -0.51013386 -0.4384693 -0.089663856 0.26840517 0.052170046 0.32638326
-0.034057945 -0.095431365 -0.36602518 -0.8779535 -0.27488077 -0.10978706 0.22097638 0.08416414
0.17879115 0.27469358 -0.627061 -0.42466232 -0.34138408 0.20674388 0.27544576 0.28181317
0.30305567 0.010387325 -0.01651343 -0.6222736 0.06951093 0.016934104 0.066676565 0.30165404
0.49937078 0.3330685 -0.1536807 0.12773053 0.32035682 0.24039494 0.1598862 -0.038911227
0.19825436 0.19530655 0.16415063 0.1865777 0.26221395 -0.16984183 -0.60273814 -0.405554
0.1657088 0.21127781 0.569361 0.24651772 -0.41672465 -0.08170856 -0.743702 0.27477348
0.40924373 0.23877451 -0.24695764 -0.26016462 0.07347857 -0.35053197 0.10788544 0.34578657
0.07181576 -0.27708554 0.20729828 -0.03987379 -0.043223295 0.093194544 0.14719634 -0.15222727
0.025815813 0.20148206 -0.58477616 0.00040447328 0.0097386995 -0.04092593 -0.10171104 -0.1552184
-0.3575497 -0.16113481 0.21279241 0.15711474 0.11532932 0.39922735 0.33735877 0.2115789
-0.017913453 0.09952898 0.12021151 0.14098273 0.32852185 0.17798063 -0.1688827 -0.67888916
-0.35650662 0.0067276033 0.1283209 0.65676886 0.21590267 -0.46378684 -0.19728328 -0.7322531
0.2422746 0.40348735 0.2751462 -0.3241257 -0.32752258 0.08736269 -0.3157671 0.028240947
0.22142366 -0.0649574 -0.2209082 0.16898791 -0.07041836 0.025391677 0.11697232 0.14043689
-0.09421848 0.124796756 0.16816497 -0.5281136 0.130916 -0.049384788 -0.026936485 -0.23242456
-0.004685631 -0.3151322 -0.036956955 0.16293074 0.099103145 0.17026244 0.39918166 0.3191283
0.19503026 -0.14439772 0.1853728 0.1033402 0.12152954 0.3093658 0.1569125 -0.10411488

weight f4 [4]
00000000: b6ea 583f 332e 713f 430e 223f 1b92 be3f
0.8473314 0.9421112 0.6330301 1.4888338

bias f4 [4]
00000000: 81af 743f 6a02 84bd 0ce9 cb3d e67f 29be
0.955803 -0.06445773 0.099565595 -0.16552696

running_mean f4 [4]
00000000: e70d 1ec2 9706 3840 752d 8240 ba07 f8c1
-39.513577 2.8754022 4.068049 -31.003773

running_var f4 [4]
00000000: 8871 ad47 f535 0747 55a4 1946 4082 9c47
88803.06 34613.957 9833.083 80132.5

weight f4 [4, 4, 1, 1]
00000000: d04b 67bf ca12 e43e 93b0 bebe a93e cc3e
00000010: bd97 efbd b7af 043f 093d 433e c3fe 29bf
00000020: 7480 0c3f d9a6 cc3d c8a5 483f 3968 ef3d
00000030: ca04 4dbe a317 85be 3ba8 013d 1ea3 643f
-0.90350056 0.44545585 -0.3724409 0.39891556 -0.11698864 0.5183062 0.19066252 -0.6640436
0.54883504 0.09992761 0.7837796 0.11689801 -0.20021358 -0.25994596 0.031654578 0.893114

weight f4 [4]
00000000: 82a9 a83f cd7c 743f e3c2 6a3f 8152 8c3f
1.317673 0.9550293 0.91703624 1.0962678

bias f4 [4]
00000000: 788d 953d d2d1 543e 030c 833e e670 803e
0.07302374 0.20783165 0.25595102 0.25086135

running_mean f4 [4]
00000000: 832f 70bf a4bd 1dbd de3b 5c3f 22d6 27be
-0.938225 -0.038510934 0.8602885 -0.16390279

running_var f4 [4]
00000000: 9bb7 1a3f 943a e23e de8b 883f eeff d03e
0.6043641 0.44185317 1.0667684 0.4082026

weight f4 [4, 4, 3, 3]
00000000: 1c62 643e 26bf 653e 1093 663e e416 793e
00000010: 99cc b0be 360b 803d a5be e63e e130 81ba
00000020: 209f c33e 0c40 aa3e 6d8e 5a3e 17fb 6a3e
00000030: 84be ab3e e2ab 59be 9d81 2cbf af32 68bd
00000040: 258b e2bc df34 2abe 3349 ac3e 75ac 2b3e
00000050: 67f7 143f 35b1 4d3e e005 6a3e 7dc2 973e
00000060: 08f7 903e 1e92 a63e 4022 273f 0b7e eebd
00000070: 4776 e73d 5810 063f cf71 a53e 619f acbd
00000080: 548f 09be 1d8c e13d 2cf4 f8bc b73d a2be
00000090: a9b0 59be d343 bf3b ae6a 8abe dea4 eabd
000000a0: 4b15 8bbf 8cc2 0bbf c4af 8b3e 6a82 c3be
000000b0: bd01 a13e 2f27 8dbe 3d2b b3be d65f 48be
000000c0: 6e94 3a3e 5a55 463e 4714 93be f6dd a7be
000000d0: 7523 963d 26ed 11be a9ca f43d 4280 953a
000000e0: d327 923e 0d08 a0bb 5b16 5dbe 56a9 213e
000000f0: 7755 12bf 3a1a fcbd 73d8 343e 49d3 c43e
00000100: 0d84 8cbd d4ad 49be 23c1 edbd 28e6 33bf
00000110: e06e d33e fafd 293e 72e3 403e 8855 603e
00000120: e495 02be bc5b 183d 1ffa c23b 94df 533c
00000130: 0764 4ebe e414 e0be 5ea0 8ebe fd77 d2bd
00000140: 0920 abbe 4db5 003f 9e26 573e 95b6 993e
00000150: 8057 e6be e4c4 02be 197a df3e d673 1abe
00000160: 7d4a f83e d0a2 183f cded d03d 0da6 833e
00000170: 1259 a53e ca60 9d3d f227 89be 0e6a 21bd
00000180: 9229 df3e 6664 943e 18ce f83e bdeb c83d
00000190: cbbd a63e 0f37 093f 59d7 47be 09c3 e0bc
000001a0: 7689 3c3f 8092 8bbe 6316 58bc 49a8 343f
000001b0: d2b2 9f3e 17bf 98be 5758 9a3e ff94 d1bd
000001c0: 9fcf 943c 887b aabe a256 c6be fa07 a0be
000001d0: 572a 5dbf b823 623e 32f8 4f3e 2b93 ea3e
000001e0: 893f f53d a1d8 29bf 42a0 68bf ea22 973d
000001f0: 4971 5fbe 8a3a a5be caa1 d23e 3d61 f83e
00000200: 3db9 5c3e b14a 333e 08a8 97bd d8ef 9b3d
00000210: f9b8 933d 8a97 ff3d dc73 853e f960 733e
00000220: aa45 0a3e 6a11 e03e f578 b53b 0e49 debe
00000230: 04d6 31be 1152 3bbe a769 dbbe 631a f23c
0.22303051 0.22436199 0.22517037 0.24325138 -0.34531096 0.06252138 0.45067325 -0.0009856486
0.3820734 0.3325199 0.21343394 0.22947346 0.3354379 -0.21256974 -0.67385274 -0.05668896
-0.02765424 -0.16621731 0.33649597 0.16765006 0.58190006 0.2008713 0.22853804 0.2964057
0.2831347 0.32533354 0.65286636 -0.116451345 0.113018565 0.5236869 0.32313392 -0.084288366
-0.13433582 0.110130526 -0.030389868 -0.3168771 -0.21258797 0.0058369427 -0.27034515 -0.11457227
-1.0865873 -0.5459373 0.27282536 -0.38185436 0.3144664 -0.27568957 -0.34993926 -0.19567809
0.18220684 0.19368497 -0.28726408 -0.3278653 0.07330982 -0.14250621 0.11952717 0.0011406022
0.28546008 -0.004883772 -0.21590559 0.15787253 -0.5716166 -0.1230969 0.17660694 0.38442448
-0.06861124 -0.19695216 -0.116091035 -0.70273066 0.41295528 0.1660079 0.18836764 0.21907628
-0.12752491 0.03719686 0.005950227 0.012931723 -0.20155345 -0.43765938 -0.27856725 -0.10276792
-0.33422878 0.50276643 0.21010825 0.30022112 -0.44988632 -0.1277042 0.4364784 -0.1508325
0.4849433 0.5962343 0.10201607 0.25712624 0.32294518 0.07684477 -0.26788288 -0.039407782
0.43586403 0.28982848 0.48594737 0.098105885 0.32566676 0.5359964 -0.19515742 -0.02743675
0.7364725 -0.27260208 -0.013188931 0.7056928 0.31191117 -0.2983329 0.30145523 -0.10233497
0.018165408 -0.33297372 -0.3873797 -0.31256086 -0.8639273 0.22083938 0.20309523 0.45815405
0.11975009 -0.66346174 -0.90869534 0.07379706 -0.21820559 -0.32271224 0.4113906 0.48511687
0.21555038 0.17508961 -0.07405096 0.07614106 0.07213015 0.12480076 0.26064956 0.23767461
0.13503137 0.43763286 0.005538101 -0.4341511 -0.17366797 -0.18293025 -0.42854044 0.029553598

weight f4 [4]
00000000: 943a 473f cfa1 823f 42bf 693f 7841 963f
0.7782376 1.020563 0.9130746 1.173873

bias f4 [4]
00000000: c36b 80bf 99d6 083f 4ad0 9abd c323 463c
-1.0032886 0.5345245 -0.07559259 0.012093487

running_mean f4 [4]
00000000: 6c5d 953f a599 1abf c3b8 943f 788b 52be
1.1669135 -0.6039069 1.1618885 -0.20561016

running_var f4 [4]
00000000: 12ba 2b41 b9f2 dc40 db5c ab40 73ce 9840
10.732927 6.904629 5.355085 4.7752013

weight f4 [16, 4, 1, 1]
00000000: 00fc ed3d dae6 5e3f ba7e 333f 9fcd 5bbe
00000010: 32bb 133f f4b0 8cbe 9ea9 c33e 0493 833e
00000020: 8599 57be 1b59 3abf d31b f6be acd3 ee3d
00000030: 5c16 ebbe 07be f33d 3f59 a03e a2bd efbe
00000040: 0486 063f df6b 9abe 34ca c8be 6b95 013f
00000050: ca2e febe bf3d 523f 2d4b 8cbe 0000 abbd
00000060: a0a8 583f 4f25 523d f7da 45bb 1f6b cb3e
00000070: a334 94be 4a7b 3c3f 3a86 f63e 4f45 2cbe
00000080: 4985 e73d e629 cabe c992 9abe 95ec 0a3f
00000090: 6eec 83be 84c0 62be 6466 d03e 44c4 d6be
000000a0: c95a 10bf a0ed 44bf 80d1 3d3e 5f1f 94be
000000b0: c3ee 89bd d12d 74be c7c1 acbf f351 0ebe
000000c0: 68ee 85bd 5f06 493f 57d6 34bb 63bb 1d3f
000000d0: 9b57 493f bdea 13bf 8c2f 8e3e 121a bdbe
000000e0: af12 d63e b35a 953d 7120 17bd 1141 e13e
000000f0: 1872 543e 59de 01be 8bcc 8dbe 1bd5 593f
0.11620331 0.87071 0.70115244 -0.21465157 0.5770751 -0.27478755 0.38215345 0.25698102
-0.21054657 -0.72792214 -0.48068103 0.11661467 -0.45915496 0.11901479 0.3131809 -0.46824366
0.5254824 -0.30160424 -0.3921677 0.5061862 -0.49645072 0.8212547 -0.27401105 -0.083496094
0.846323 0.05130511 -0.0030190328 0.39730164 -0.2894641 0.73625624 0.48149282 -0.16823314
0.11304719 -0.3948509 -0.30190113 0.54267246 -0.2576632 -0.22143751 0.40703118 -0.41946614
-0.5638853 -0.76925087 0.18536949 -0.28930184 -0.06734993 -0.23845603 -1.3496636 -0.13898449
-0.06539613 0.78525347 -0.0027593577 0.61614054 0.786493 -0.5778006 0.2777065 -0.36933953
0.4181113 0.0729269 -0.036896173 0.43994954 0.20746648 -0.12682475 -0.27695116 0.850908

weight f4 [16]
00000000: ffc0 1840 42ab 883f 5f1e d13f c5f3 ba3f
00000010: 73b6 0140 b7a2 b33f 4ba8 bf3f 9f9b 913f
00000020: 59e3 6f3f e736 c63f c05d dd3f 04db 1d40
00000030: 1d3b f73f dc6a 0f40 4038 d93f f116 b73f
2.3867795 1.0677264 1.6337394 1.4605643 2.0267608 1.4034032 1.4973234 1.1375617
0.9370628 1.5485505 1.7294235 2.4664927 1.9314915 2.2408972 1.6970291 1.4303876

bias f4 [16]
00000000: 8e7d 2a3f be57 bdbf 5253 333f 26bf 9fbe
00000010: 87f5 6fbe fcff 8d3e 4165 693d c3c0 81bd
00000020: 8d84 ac3e c2a5 d53e 4ffd de3e 0b25 013f
00000030: 3293 b03e aae5 e43c 4916 213e 36c6 dc3e
0.6659783 -1.4792402 0.7004901 -0.31200522 -0.23433505 0.27734363 0.05698133 -0.063355945
0.33694878 0.41728026 0.43552634 0.5044715 0.344873 0.027941544 0.15731157 0.43119973

running_mean f4 [16]
00000000: dde3 373f 6257 4dbb 17e6 19bf 1cee 613b
00000010: ff6f 0bbe de62 e53e 19ff 4c3e 385d 0b3f
00000020: d725 60be f28f 39be cfdb 1cbf cc9e eebe
00000030: 2da4 273f 684b a7be b558 343e bcca 1f3d
0.71832067 -0.0031332602 -0.60116714 0.00344742 -0.13616942 0.44801992 0.20019187 0.54439116
-0.21889435 -0.18121317 -0.612729 -0.46605527 0.6548489 -0.32674718 0.17611964 0.039011702

running_var f4 [16]
00000000: 154c a43e 9461 e13e 4643 423e 93b1 c63d
00000010: 2021 083e 24f1 a63e 1b60 943e 29e4 e33d
00000020: a538 c13d facd 9f3d bd2a 823d a703 b13f
00000030: 3894 a03d 5853 b43e 9195 e93d 420d 333e
0.32089296 0.4401976 0.18970975 0.09701838 0.13293886 0.3260585 0.28979573 0.111275025
0.09434632 0.07802959 0.06355808 1.382924 0.078407705 0.35219836 0.11405481 0.17485526

weight f4 [16, 4, 1, 1]
00000000: edd4 80bc 71b6 90bd cea9 733f 9783 623e
00000010: 37cc 89bf b4ae 42bd 3608 ac3c 8a49 9a3e
00000020: b454 26bf d13e babe 4f00 48be 2a38 9c3e
00000030: 3dbe 7abe c3cd 8d3e c65a 573f bb0e 2bbd
00000040: c533 7f3f b53f 5d3e b303 c8bd a0af 823e
00000050: 7b81 c23d a7d4 00bf f7c3 a7be a158 b83e
00000060: b417 1f3f a450 07bf c1c6 c4bd 8729 c33e
00000070: 474e 65be 2d59 e4be 1d85 0c3f ab63 5a3e
00000080: c7c0 00bf b37c 01bf eafc 6d3e f201 c6be
00000090: d3ce a53e 3b6d 433e 9c9d 383e 5a28 89bf
000000a0: 8d18 443f 4c13 03be 16ba f2be dae7 9dbe
000000b0: 4436 8a3f 3353 6bbc 5a37 d53e 53f8 0fbf
000000c0: e337 803f 2a69 14be 224f 83be 4a31 e63e
000000d0: 577c 2abe 5845 b83d 917a 023f b5e0 b23e
000000e0: f2e3 9b3e ac7b 4e3f b6c7 823e 5459 a4be
000000f0: 0c03 3bbe ca89 743d 50aa 143e 942e 483f
-0.01572653 -0.07066048 0.95180976 0.2212051 -1.0765446 -0.04752989 0.021000009 0.3013423
-0.64972997 -0.3637605 -0.19531368 0.305116 -0.24486633 0.27696046 0.84122884 -0.041762095
0.9968837 0.21606334 -0.097663306 0.25524616 0.09497353 -0.5032448 -0.32766697 0.36005118
0.62145543 -0.5285742 -0.09608222 0.3811762 -0.22393142 -0.44599286 0.54890615 0.21327083
-0.50294155 -0.505809 0.2324101 -0.3867336 0.32384357 0.19084637 0.18028873 -1.0715439
0.7659996 -0.1280033 -0.47407597 -0.3084095 1.079781 -0.014363098 0.41643792 -0.5623829
1.0017055 -0.14493242 -0.2564631 0.4495948 -0.16648994 0.08997601 0.5096827 0.34937063
0.30447346 0.8065746 0.25542992 -0.32099402 -0.18262881 0.05970172 0.14518094 0.7819607

weight f4 [16]
00000000: cc94 b43f 67c8 813e a0e0 6e3f b439 a03f
00000010: 24f7 fe3e 0292 b13f af77 273f 7905 913f
00000020: 0a83 fd3f bf9d 0b3f b651 ba3f 470f a93f
00000030: 40c3 a93f 6932 443f d531 0840 b89f ab3f
1.4107909 0.25348207 0.933115 1.251761 0.49797928 1.3872683 0.65417 1.1329795
1.9805615 0.54537576 1.4556186 1.3207787 1.326271 0.7663942 2.1280415 1.3408117

bias f4 [16]
00000000: 8e7d 2a3f be57 bdbf 5253 333f 26bf 9fbe
00000010: 87f5 6fbe fcff 8d3e 4165 693d c3c0 81bd
00000020: 8d84 ac3e c2a5 d53e 4ffd de3e 0b25 013f
00000030: 3293 b03e aae5 e43c 4916 213e 36c6 dc3e
0.6659783 -1.4792402 0.7004901 -0.31200522 -0.23433505 0.27734363 0.05698133 -0.063355945
0.33694878 0.41728026 0.43552634 0.5044715 0.344873 0.027941544 0.15731157 0.43119973

running_mean f4 [16]
00000000: 2eb9 813e f9b4 93bf 519d 52bf e11c 733c
00000010: 08d0 943f 6ae7 89bd ed05 163f 30fc 36be
00000020: 820b 2cbf b132 a03e 44f6 243f 262a 9c3f
00000030: 15cf 883f 4700 4c3c dfb0 113f d422 73bd
0.25336593 -1.1539603 -0.82271296 0.014838428 1.1625986 -0.06733592 0.5860279 -0.1786964
-0.6720506 0.31288674 0.6443827 1.2200363 1.0688196 0.012451238 0.5691051 -0.059359387

running_var f4 [16]
00000000: bc6f 893f 4295 893e b4b2 dc3e 5775 8e3f
00000010: 2210 b03e 9c22 193f 7d9f ca3e 5372 a73e
00000020: c573 1c3f f4ac 133f eb7f 0f3f 539d 0f3f
00000030: b369 4c3e 84ef 133f 9ee4 a33f 83f5 103f
1.0737224 0.26871687 0.4310509 1.1129559 0.34387308 0.59818435 0.39574805 0.3270441
0.6111415 0.5768578 0.5605456 0.5609943 0.19962196 0.57787347 1.2804143 0.5662462

weight f4 [4, 16, 1, 1]
00000000: 52e0 afbe 18b3 a2bf a441 eebe 0d91 10be
00000010: 3676 a23e 6c7a 32bf 8c68 123f 4777 83be
00000020: 88a3 913d 5138 5c3e 014e ce3c 5133 d7be
00000030: a82d 10be 0e2b 4a3e 2229 21bc b82a c33e
00000040: f03c 7f3d 78d4 163b 9cb4 b2be aa21 843e
00000050: 78e3 593e 82dc b3be 0b39 c4be 261e 71be
00000060: 8f23 1cbe 97eb c03e 888f 293f c308 133e
00000070: 18cf 93be 45ff 81be 20d7 643d 624a e33e
00000080: 5a38 eb3e a5f4 093f 0a74 b8be 3d4a 843d
00000090: 70c3 89be 3de4 053e 1f41 563f 8332 03bf
000000a0: 0340 aabe 6305 8ebd 914a e6be 7c2b f1be
000000b0: c80d 0d3e bac5 343e 3a75 503d 53f2 9cbd
000000c0: 80c7 0b3c ee64 fbbe 8fe4 30bc a58f 063e
000000d0: 5b6c b0bd cd98 09bf 9bd2 8ebd 458b 0c3e
000000e0: 8e3e a1be 0153 4cbe 6fb1 0bbf d0c1 50bf
000000f0: 73cf ac3e b6c1 edbe 0321 95bd 568a 8f3e
-0.3435083 -1.2710905 -0.46534455 -0.14117832 0.31730813 -0.6971805 0.57190776 -0.2567694
0.07111269 0.21505858 0.02518368 -0.4203134 -0.14079916 0.19742987 -0.009836467 0.3811853
0.062313974 0.0023014825 -0.3490342 0.25806934 0.21278179 -0.35129172 -0.3832477 -0.23546657
-0.1524794 0.3767974 0.66234636 0.14358811 -0.28868937 -0.25390068 0.05586922 0.44392687
0.4594143 0.5388892 -0.3602603 0.06459472 -0.2690692 0.13075347 0.83693117 -0.5124895
-0.33251962 -0.06934621 -0.44978765 -0.47103488 0.13774788 0.17653552 0.050893046 -0.07663407
0.008531451 -0.4910044 -0.01079668 0.13140734 -0.08614417 -0.5374878 -0.069737636 0.13725002
-0.31493038 -0.19953538 -0.5456762 -0.81545734 0.3375202 -0.46436852 -0.07281687 0.2803523

weight f4 [4]
00000000: 712f 9f3f 0dfb 403f 03af 8f3f d832 623f
1.2436353 0.75383073 1.1225284 0.8835883

bias f4 [4]
00000000: 05a2 863e c9e7 c5be b7c5 ca3e 30bd b9bd
0.26295486 -0.386534 0.3960397 -0.09069288

running_mean f4 [4]
00000000: 336a f4bf 6796 a83e 562e a4bf 768b 31c0
-1.909491 0.32927248 -1.2826641 -2.774137

running_var f4 [4]
00000000: 5e05 5040 8185 7d3f ccbd f240 a582 0840
3.2503276 0.99031836 7.5856686 2.132974

weight f4 [4, 4, 3, 3]
00000000: 21a3 05bf aa97 1a3e 705c f83e 728e 8bbe
00000010: 7026 3e3e ea46 4a3e 5db0 c8be 3573 383e
00000020: 15c4 a13d ca73 d3bd 429b 39be 08ff b23e
00000030: 1439 df3d 972b 21be fc94 973e 2466 0d3f
00000040: ee6c 723b 21a5 ea3e 1399 16be 1e96 81be
00000050: 4055 563c 58b7 3ebf 5b97 8abd d75b ffbe
00000060: 2bb9 f2bd 657e ca3d 76f9 8bbc 0110 6a3e
00000070: 326f 14be e4d1 c7be 27e2 0c3e 9580 25be
00000080: 5a1e 2f3e f8c8 b33d 0048 053d 473c 0a3d
00000090: 2694 d23e 4c26 46be da69 8abd 71e9 0a3d
000000a0: 0f46 f4be a46c 33be abc3 b43e 06db 773e
000000b0: df66 043f c4f6 123e 3030 febd 5e4c 62bd
000000c0: 0496 913d e142 443e cae2 34be e62d 313e
000000d0: bf5b ad3e 20bf 563e 50c6 58be 48be 403e
000000e0: 0b16 babe 8381 c43d e840 96bd bbcc 1fbf
000000f0: 050a 583e cc54 c1bd 3b91 39bf 771d cfbd
00000100: 3b9f 183e b8a9 b3be 5912 f93c 524b 7b3e
00000110: e2ce 10bf 558a f03e 1387 d83e de2c 5a3e
00000120: e025 1cbf 81b5 9a3b ad62 023f 280a 0ebe
00000130: 43c5 e4be f739 1bbf 64f0 043e 50d7 e13d
00000140: 9777 3ebf a8e5 413e 5315 d63e b11b 74bf
00000150: 9100 c5bb 7c33 6c3e 3b5d bb3e 2d86 5bbd
00000160: e98b f9be 6ffa 32bf 35eb 04bf 7740 efbe
00000170: 56f6 98bf c373 3639 3fed 4c3c 6130 333c
00000180: 2061 673e aa4e 9f3d 302b 33be 2851 7c3e
00000190: 7baf 063e f271 66be 96e4 56bd 3478 1bbf
000001a0: c35a 85be 7bae 873e 97b1 e43e bab9 e83e
000001b0: 294f 783e c873 33be 8832 523d 9010 70bc
000001c0: f166 6bbe 89c2 363f a55f e03c dbfa 333e
000001d0: 281a dd3e 0da1 09bc 4c0c a6be 3870 8d3e
000001e0: 605e ee3b 79f6 a3be be19 24be 3a29 d43e
000001f0: 5fd6 87bc a961 103f f9f9 ca3e 7e95 dd3e
00000200: 0d1a b13e df0d 9ebe ba9e 9fbe 1599 293a
00000210: 0dd3 653e 01a7 a03e 23b5 2a3d 524e 4f3f
00000220: a092 2fbd 9270 143e dc6b f4bd f189 81be
00000230: fa24 ec3d 214b ad3e 481a c2be fa4e e03e
-0.5220204 0.15096918 0.48508024 -0.27257115 0.1856935 0.19753614 -0.39197055 0.18012698
0.07898728 -0.103248194 -0.18125632 0.34960198 0.10899559 -0.15739284 0.29605854 0.5523398
0.0036991197 0.45829108 -0.1470683 -0.25309843 0.013081849 -0.7449851 -0.0676715 -0.49874756
-0.11851724 0.09887389 -0.017086726 0.22857668 -0.14495543 -0.3902732 0.13758145 -0.16162331
0.17101422 0.08778566 0.032539368 0.03374889 0.41128653 -0.19350547 -0.06758471 0.033914033
-0.477097 -0.17521912 0.35305533 0.24204645 0.5171947 0.14351946 -0.12411535 -0.05524861
0.07108691 0.19166137 -0.17664638 0.17302665 0.3385906 0.20971346 -0.211694 0.18822587
-0.36344942 0.09595015 -0.07336599 -0.6242177 0.21097572 -0.09440002 -0.7248723 -0.10113042
0.14904492 -0.35090423 0.030404257 0.24540451 -0.5656568 0.4698054 0.42290553 0.21306178
-0.6099529 0.004721344 0.5093182 -0.13871062 -0.4468175 -0.6063532 0.12982327 0.11027396
-0.7440123 0.18935263 0.41813144 -0.95354754 -0.0060120304 0.23066515 0.36594567 -0.053594757
-0.48739555 -0.6991338 -0.519214 -0.4672887 -1.1950176 0.00017399997 0.012507736 0.010936827
0.22595644 0.07778676 -0.17496943 0.24640334 0.13152878 -0.22504404 -0.05246409 -0.6073029
-0.26045808 0.26500306 0.4466674 0.45454198 0.24248947 -0.17524636 0.05131772 -0.014652386
-0.22988488 0.7139059 0.027389357 0.17576163 0.43184018 -0.008400214 -0.32431257 0.2762468
0.007274434 -0.3202398 -0.16025445 0.41437703 -0.016581712 0.5639902 0.3964384 0.43278116
0.34590188 -0.30869958 -0.31175786 0.00064696494 0.2244379 0.31377414 0.04167665 0.8097888
-0.042864442 0.14496067 -0.11934635 -0.25300553 0.1153049 0.3384638 -0.37910676 0.43810254

weight f4 [4]
00000000: f22e b73f eda4 963f 09c3 863f fd91 383f
1.4311202 1.1769081 1.052827 0.7209776

bias f4 [4]
00000000: 43e3 253d c988 393d f3d6 e23e 0389 bf3c
0.040499937 0.045296464 0.44304618 0.023380762

running_mean f4 [4]
00000000: e0ff 01bf 3800 95be 6e15 b3bf 9600 773f
-0.5078106 -0.2910173 -1.3990915 0.9648527

running_var f4 [4]
00000000: 7ada 1d40 b011 4940 eb9d 3c41 57af bb40
2.4664598 3.1417046 11.788554 5.865154

weight f4 [16, 4, 1, 1]
00000000: 0d33 5bbe 6994 18be 1aca 0cbf 9f3a 013f
00000010: ac5e d63e d35b a53e 5d9e e03e ab2d 7b3e
00000020: 68a8 73bd c2fb 9f3e c383 dbbe a241 1bbf
00000030: be81 343f 4dca 1ebe 884e c8be 18de 8abe
00000040: 448d 07bf c27c 973d 5bb7 01bf 2efc a33e
00000050: 97ca 20be bb98 503e 27b8 50bf 31a4 9bbe
00000060: 5dc8 5ebe e60c 193f 5442 603e 5caa d43e
00000070: d12c 7d3e c49a 413f c7d5 883e 4dff 693e
00000080: e888 8a3f 4b46 4c3d f992 4abe ae5c c53d
00000090: 813b fabe a82c 3d3c ae0b 3dbf bfc7 953e
000000a0: c6d0 7c3f d17a 043e 36e3 c6be 4a06 c5bd
000000b0: c103 373e bd35 893e f764 043f 0f49 fdbe
000000c0: 8fa5 e0be 282e 0fbf 648d 513d c74b d83e
000000d0: fd9d 9dbe d6a8 3cbf 882d 25be c9a0 b33d
000000e0: 18b5 073f 0fa8 b33e f3d2 cdbe 089a 253f
000000f0: 9c5e 8a3d c290 9b3d f63f 31bf 0701 e53e
-0.21406193 -0.14900364 -0.5499588 0.50480074 0.41869104 0.3229662 0.43870822 0.2452914
-0.059486777 0.31246763 -0.42873964 -0.6064702 0.7051047 -0.15506859 -0.39122415 -0.2712257
-0.5294993 0.073968425 -0.50670403 0.32028335 -0.15702282 0.20370762 -0.81530994 -0.30398706
-0.2175612 0.59785306 0.21900302 0.41536224 0.24724127 0.7562678 0.267256 0.22851296
1.082303 0.049871724 -0.19782628 0.09636818 -0.48873523 0.011546291 -0.73845947 0.29253957
0.98756063 0.12937476 -0.38845223 -0.0962034 0.17872526 0.26798812 0.5171656 -0.49469802
-0.4387631 -0.55929804 0.05116023 0.42245314 -0.30784598 -0.73695123 -0.1613065 0.08770902
0.530107 0.35089156 -0.40200004 0.6468816 0.067563266 0.0759597 -0.6923822 0.44727346

weight f4 [16]
00000000: 30a1 2140 6959 5d40 5cdc ef3f f517 d43f
00000010: ced7 de3f 9f92 db3f 5759 0240 e3eb 1640
00000020: 192c 3540 5b4d 4540 ec00 6840 3aee dc3f
00000030: a5ef 2540 182f cd3f a3fa 4a40 96ac 863f
2.525463 3.4585822 1.8739123 1.6569811 1.7409608 1.715412 2.0367029 2.3581474
2.8308165 3.0828464 3.6250563 1.7260201 2.5927517 1.6029997 3.1715477 1.0521419

bias f4 [16]
00000000: 45c1 b73e 9481 b03e cf8e 4d3f 7d37 99be
00000010: edd2 2b3f 97da 403e 41c5 f03e 270b b83e
00000020: 6cf1 cd3e 269a 163f 2fa9 b53e f840 ba3e
00000030: d2dd 833e 4d37 9c3e 0236 503e 4ad7 13be
0.3588964 0.3447386 0.80296034 -0.29925147 0.6711872 0.18833385 0.47025493 0.3594601
0.40223253 0.5882896 0.3548064 0.36377692 0.25755173 0.3051094 0.20333102 -0.14437595

running_mean f4 [16]
00000000: ef6b c0be fa9c 0c3f 4524 b1be 6fa4 f3bd
00000010: a8de dbbe 4c28 19bf 6267 973e 3770 f53e
00000020: c69e 783e 95c6 16bf 3340 993d 21b8 bc3e
00000030: 08fb 24be ab3c bbbe 5739 d63d 9e61 adbe
-0.37582347 0.5492703 -0.34597984 -0.118965976 -0.4294331 -0.59827113 0.29571062 0.47937176
0.24279317 -0.5889676 0.07482948 0.3685923 -0.16111386 -0.36569723 0.104601555 -0.33863539

running_var f4 [16]
00000000: 95a7 283e d155 d63d af21 e23d a3e5 de3d
00000010: abdc 023e e45e 143d 6d09 6a3e ec17 8c3e
00000020: 756f 8c3e 3c88 053e 1153 683e d5e4 173e
00000030: 02f6 233e b547 4b3e e094 033f 346b 5a3e
0.16470177 0.10465587 0.11041581 0.108836435 0.1277949 0.036223307 0.22855158 0.27362
0.27428785 0.1304025 0.22687937 0.14833386 0.16011813 0.19851573 0.5139904 0.21329957

weight f4 [4, 16, 1, 1]
00000000: 5489 57be a20e 2cbc 29f4 25bf ca0a 36be
00000010: 0c02 8cbd a62d 35bf 66ca 583f 4ea0 1f3f
00000020: b8ac e53c 1ea2 0b3d 00f8 80be 898e e3be
00000030: 3d2a 633e 4a1b 41be 1c03 66be f91f e83d
00000040: 2d9c 1a3e 68a7 a43d 2f9c 6bbf 7ba6 f0be
00000050: 35b6 e2be be6a c4be 1746 033d 9cb9 cc3e
00000060: a898 e7be 131e 793e 4b4d 443e 4f41 8abf
00000070: 7bdd 093e 2890 57be 3041 3e3e 7eeb b7be
00000080: 4075 ab3e 5de5 6d3e 3705 77be 2254 4c3f
00000090: 4e3f a23e 76ff 33be d97b b13d 3931 ecbe
000000a0: cc82 ff3e 6039 843e 358b c4bd 935e b53e
000000b0: 426b a7bd 8a49 113f 2006 94be 6933 503e
000000c0: 230d 09bd 666d b8bd a8cd 8e3c f1d8 79bd
000000d0: adbd 8a3d 32c5 8bbe d949 47bc 82ad d8be
000000e0: 5a02 efbe 9e67 6a3e 64d3 88bd 05bb 35bf
000000f0: b1ff 04bf 1bbf 29bf bfc3 64bf 2b13 b33e
-0.2104848 -0.010501536 -0.64825684 -0.17777553 -0.06836328 -0.7077278 0.84683836 0.6235398
0.02803646 0.034090154 -0.2518921 -0.44444683 0.22184081 -0.18858066 -0.22462124 0.11334223
0.15098639 0.08039743 -0.9203519 -0.47002015 -0.44279638 -0.38362688 0.032049265 0.3998536
-0.45233655 0.24327879 0.1917011 -1.0801181 0.13463394 -0.21051085 0.18579555 -0.35921854
0.33487892 0.23232026 -0.24123083 0.79815876 0.31688923 -0.1757792 0.086662 -0.46131304
0.49904478 0.25825024 -0.09596864 0.35423717 -0.08174755 0.56752837 -0.28910923 0.20332111
-0.033459794 -0.09005241 0.017432049 -0.060997907 0.06774459 -0.27298886 -0.012163603 -0.42319876
-0.46681482 0.2289109 -0.066809446 -0.70988494 -0.51952654 -0.6630723 -0.89361185 0.34975561

weight f4 [4]
00000000: 9942 503f 9687 813f 83cb 9d3f e316 853f
0.8135162 1.0119503 1.2327732 1.039761

bias f4 [4]
00000000: 3340 84be 07a8 843e aa37 543c 99d2 b03e
-0.2583023 0.25909445 0.0129527245 0.34535673

running_mean f4 [4]
00000000: 3691 64c0 5a67 abc0 bee5 0940 0db8 adc0
-3.571363 -5.356366 2.1546474 -5.428717

running_var f4 [4]
00000000: 2cef b340 a6db da40 075a ac41 8ea6 7a42
5.622946 6.8393126 21.543959 62.66265

weight f4 [4, 4, 3, 3]
00000000: 3db5 813e ef86 66bd b316 85bd 7103 6c3e
00000010: 52d3 d73d aa5d 5e3e 9b66 6b3e 809a d23e
00000020: 701f 523c c8f6 b73d 3c0b 483e c32b f93d
00000030: 7036 323d ecf6 0b3e f91f 173e e214 9c3c
00000040: aa25 a6bd 6a52 c4be 6c61 d9bc 3547 d63d
00000050: e721 70bd a315 98bd 6d67 5bbb 874e bebe
00000060: 0533 f8bd d9fb 0fbf f94b d4bf fce5 b03d
00000070: 4a13 d63e 58e2 a83e 06a7 46be 7335 25be
00000080: 00ac af3d 4d3d c8bd e9f2 f6be 9c50 b2be
00000090: a354 043d 0246 0abe 965b 19be d88e b93d
000000a0: 258c 1bbe afa3 b2be 75e5 b1be 5ccd bbbe
000000b0: 5e20 d4be a825 093f 3cce 2f3f 2530 233f
000000c0: c6c2 4e3e 4d7d c43e ebee cf3e 6238 9a3e
000000d0: 9661 003f be3a 803e c506 663d 6399 87bd
000000e0: 547a 20be 9dfa e0bc 7119 babd 3773 16be
000000f0: b627 ecbd 5c45 0fbe 64fb 51be 0f2e 753e
00000100: 057a 07bf be47 12be 30a2 3abe c40f 81bf
00000110: db41 28bf c077 65be ccdc 7abf 7547 c7be
00000120: d4d6 36bf 505d f1bd 42c4 a33e 6c97 10bf
00000130: f93f 4ebe 1506 003f 5bbf b6be a090 febe
00000140: b682 69bc f91e 443e 945b bdbe e8be 97bd
00000150: 5adc 653d ca3d e7bd 6173 d73d a0e8 f33e
00000160: 4c29 2b3e e036 de3c ca2a 2dbe 2e95 22bd
00000170: 7137 16bf 9a87 93be b1d2 293e 85b4 763d
00000180: 8ce8 bebe a98e dabe e7ee f0be 0d18 debc
00000190: a566 a2be 667b 31bd 7a7f 3fbe 74ea 99be
000001a0: 5ff9 a4bd 85c9 86be 532d dcbe aabd fbbc
000001b0: 0563 ab3e e9c0 713e 2a0e 7f3e 85ae 723e
000001c0: 75b3 a23c 04fc bf3e fcf2 043f 5350 803c
000001d0: 376e a83d 4496 3fbe 6b77 d53e 5358 343f
000001e0: 9e16 1e3d 0110 ee3e 4c3f 413e f4b7 24bd
000001f0: 425e 943e 8c07 903e 93e5 c0bd eb7c 53be
00000200: 60f0 dcbe 4051 9fbd e060 bbbe 090d ed3c
00000210: 9c29 c7be 13e6 cabe b9cb 37bd 197b 05be
00000220: c760 673d 42f5 c33e 967f 8dbe 5c3f f63d
00000230: b7fb 7b3e 1fdf efbe 342b 263f c296 c53e
0.25333586 -0.056281026 -0.0649847 0.23048188 0.10538353 0.21715418 0.2298836 0.411335
0.012824878 0.08982617 0.19535536 0.1216655 0.043508947 0.13668412 0.1475829 0.019052926
-0.081126526 -0.38344127 -0.026535712 0.104628004 -0.05862608 -0.07426002 -0.0033478395 -0.37169287
-0.12119106 -0.56243664 -1.6585685 0.08637616 0.4181159 0.32985187 -0.19399652 -0.1613367
0.08577728 -0.09777317 -0.482322 -0.34827125 0.03230728 -0.13503268 -0.14976344 0.090604484
-0.1519018 -0.34890506 -0.34745374 -0.36680114 -0.41430944 0.53573084 0.68674064 0.6374534
0.20191488 0.38376847 0.40611967 0.30121142 0.50148904 0.25044817 0.0561588 -0.06621053
-0.15671664 -0.027463252 -0.09086884 -0.14692388 -0.11531012 -0.13991302 -0.20506054 0.23943351
-0.5292056 -0.1428518 -0.18225932 -1.0082936 -0.6572549 -0.22408962 -0.9799316 -0.38921705
-0.7142155 -0.11785376 0.3198567 -0.5648105 -0.20141591 0.5000928 -0.35692868 -0.49719715
-0.014252355 0.1915244 -0.3698393 -0.07409459 0.056118347 -0.11291082 0.10520054 0.47638416
0.16714972 0.027125776 -0.16910854 -0.03969305 -0.58678347 -0.28814393 0.16584279 0.06023075
-0.37286794 -0.42686966 -0.47057268 -0.027111078 -0.31718937 -0.043330573 -0.18700972 -0.30061686
-0.08055376 -0.26325622 -0.4300333 -0.030730087 0.33473983 0.23608746 0.24907747 0.23699386
0.019860962 0.3749696 0.51933265 0.015663302 0.08224147 -0.18709666 0.4169267 0.7044727
0.03859579 0.46496585 0.18871802 -0.040214494 0.28978163 0.28130758 -0.09418788 -0.20653121
-0.43152142 -0.07779169 -0.36597347 0.02893688 -0.38898933 -0.39628658 -0.04487202 -0.1303524
0.05648878 0.38273054 -0.27636403 0.120238036 0.2460774 -0.46849915 0.6490967 0.38591582

weight f4 [4]
00000000: 0069 7e3f 764d 533f d6da 3e3f 916d 533f
0.9937897 0.8254007 0.7455267 0.8258906

bias f4 [4]
00000000: 36c8 9c3e 6689 b43d b886 9e3f 254f 14bf
0.306215 0.08815269 1.2384863 -0.57933265

running_mean f4 [4]
00000000: 5e5d 54bf a710 b7bf 47f6 d2bf 8405 693f
-0.8295497 -1.4301957 -1.6481408 0.9102404

running_var f4 [4]
00000000: 346b d840 2565 6e40 aed1 a740 430c e43f
6.7630863 3.7249234 5.2443457 1.7816242

weight f4 [16, 4, 1, 1]
00000000: bddc 97be eeae 7dbc dacd 093f 932f 393f
00000010: fe3e 043f c335 8fbe 7e88 58bf 4f40 92be
00000020: 493b 3bbf 8050 173f d6dd d53e 1d89 24be
00000030: add6 aabe c65b d7be 571a 42bf ebf1 ac3e
00000040: 9c93 4f3f 95c4 ec3d 6003 22bf 4003 fabd
00000050: 6ff4 bbbd c45e d73e 2896 723e 2ab3 fabe
00000060: 8b58 33bf 0b10 803e c59e 263e 2cae 423f
00000070: 1edc 153d 5fbd 7a3e 51b7 813f 4371 4c3f
00000080: 69ad 80be 0dc4 b6be 6809 8bbf 651d 6cbd
00000090: b063 7a3e 861f 8f3e 5b23 743d ca27 c4be
000000a0: 84fb c1be 651a 4abe d0aa 2cbf 1013 b23e
000000b0: 33ce 653d 82bf c9bd 4876 85bf 64a2 55bd
000000c0: 3ee6 033e 6f33 a7be f02c 3cbf 5831 1dbb
000000d0: 7b65 363f ffc4 f43e 36b3 a53d 8956 dbbe
000000e0: d6ac b3be eddd f9be 09ab 42bf 6dfc b83d
000000f0: f57b 41be 5993 933e 5a14 0d3f d199 073f
-0.29660597 -0.015483601 0.5382973 0.7233822 0.5165862 -0.27970704 -0.8458327 -0.2856469
-0.73137337 0.5910721 0.4177081 -0.1606793 -0.3336691 -0.42062205 -0.7582144 0.3377832
0.8108461 0.115609325 -0.632864 -0.12207651 -0.091774814 0.42064488 0.23690093 -0.48964816
-0.7005698 0.2501224 0.16271503 0.76047015 0.036586873 0.24486302 1.0134069 0.79860324
-0.251323 -0.3569645 -1.0862246 -0.05764522 0.2445209 0.27953738 0.05960403 -0.38311607
-0.37887204 -0.19736631 -0.6744814 0.3478017 0.05610485 -0.0985098 -1.0426722 -0.05215682
0.12880799 -0.32656428 -0.7350607 -0.002398571 0.71248597 0.47806546 0.080908224 -0.4283946
-0.350928 -0.48802128 -0.7604223 0.090325214 -0.18894942 0.28823355 0.5510918 0.5296908

weight f4 [16]
00000000: 2f91 9c40 7022 9040 f7e7 4940 967c 5b40
00000010: 8dd0 6f40 889c 2140 f95a 7540 50b8 b440
00000020: 40f7 8540 a631 a440 3fca 8340 f076 4940
00000030: c645 5b40 cdf5 3940 2433 6440 ed74 8e40
4.8927226 4.504204 3.154783 3.4294791 3.747104 2.525179 3.8336775 5.647499
4.186432 5.1310606 4.1184382 3.1478844 3.4261336 2.9056275 3.5656214 4.451773

bias f4 [16]
00000000: 3398 c63e ee08 e73e 89b7 313f 5440 083e
00000010: c493 f33e 4805 293e b0d3 043e 8853 1bbd
00000020: 743b c33e 0a2b 1e3f 4075 9b3e fa0e 023f
00000030: 6906 963e c55e 81be 3464 053f 21f3 6cbd
0.38787994 0.45124 0.6942068 0.13305789 0.47573674 0.16505921 0.12971377 -0.03792146
0.38131297 0.6178442 0.30362892 0.508041 0.29301766 -0.25267616 0.5210602 -0.057849053

running_mean f4 [16]
00000000: 1aa7 1d3f f175 71bf a41f a03e 7c64 a0bf
00000010: 6a50 d5be 9b96 a53e 20a0 74bc 1484 be3f
00000020: 93d6 d3bf 389e 6e3e e711 8ebf 339d b0bf
00000030: febe 7ebf 0f84 0a3f 6884 a5bf ac1c 3e3f
0.615831 -0.9432059 0.3127414 -1.2530665 -0.41662914 0.32341465 -0.014930755 1.4884057
-1.6549858 0.23302543 -1.1099213 -1.3797973 -0.9951018 0.54107755 -1.2931032 0.742625

running_var f4 [16]
00000000: 27ee b33d 1da6 683d 66a3 273e 32d7 6c3d
00000010: d890 ad3d 97eb 883d f88f 713e 248f 2a3e
00000020: 4e63 9f3d 570d eb3c 8507 9b3d 2355 d73d
00000030: e6b7 0b3d 97d4 933d 292a 673d 7ea7 ce3d
0.08785658 0.056799043 0.16370925 0.057822414 0.084748924 0.0668556 0.23590076 0.16656166
0.07782613 0.028692884 0.075697936 0.105142854 0.034110926 0.07218283 0.05643669 0.1009054

weight f4 [4, 16, 1, 1]
00000000: 5d39 31be 1521 d53e e3e9 b33c 2c4f 37bf
00000010: 41f5 193e a94e d2be 7e25 883f 1315 f4be
00000020: 6a0a 4b3e 0e9b d63c b113 b0bd e0c4 573e
00000030: eda3 a5bc 33d0 98be 87de aebd bfd9 573f
00000040: 7b1b 7e3e 86f5 edbc 6437 3f3e 9498 da3d
00000050: ec1a b9bc aa24 3abf 2b32 df3d 3969 0b3f
00000060: b0ec 07be 9d0e e5be 89b6 2abe fc84 a4be
00000070: 70be 5dbe b0fa 76be f459 86be 17e2 cc3d
00000080: 2c65 fd3d 5561 53bf b1a0 54bf 0909 cd3e
00000090: eadb 083f 1835 19bd cb7f 203f b7e0 a3be
000000a0: feaa 89be bdf0 24bc d2ba 91bd 25be 923e
000000b0: 9f4a a93e 006d a83e 4cc9 1e3e 2eb1 1a3e
000000c0: c8b9 2ebe 86da 9a3e 816f 90be a238 d13d
000000d0: cbd6 fb3e 3910 cbbe 1410 4bbe 5659 3f3e
000000e0: c640 ccbe 16a6 983e 5845 9dba 5df6 2b3f
000000f0: f29d e03b 1990 edbd e563 2abf ba13 163e
-0.17307039 0.41626802 0.021962112 -0.7160518 0.15034963 -0.41075638 1.0636442 -0.47672328
0.19828191 0.026196983 -0.08597506 0.21071196 -0.020219767 -0.29846343 -0.085385375 0.8431663
0.2481517 -0.029047739 0.18673474 0.10673633 -0.022595845 -0.72712195 0.10898241 0.5445743
-0.13273883 -0.44737712 -0.16671194 -0.3213271 -0.21654677 -0.24119067 -0.26240504 0.10004061
0.12372813 -0.8257039 -0.83057696 0.40045956 0.5346056 -0.03740415 0.62694997 -0.3200738
-0.2688827 -0.010067162 -0.07115711 0.28660694 0.33064744 0.3289566 0.15506476 0.15106651
-0.17063057 0.30244845 -0.2821007 0.1021588 0.49187312 -0.39660814 -0.19830352 0.18686423
-0.39893168 0.29814214 -0.0011998815 0.67172796 0.006854766 -0.1159975 -0.66558677 0.14655963

weight f4 [4]
00000000: dc7f 843f 0871 7c3f f67f 8e3f 7b86 593f
1.035152 0.9860997 1.11328 0.84970826

bias f4 [4]
00000000: 5448 e23e 5af0 dc3d ea93 02bf 892b 96be
0.44195807 0.10788031 -0.5100695 -0.2933009

running_mean f4 [4]
00000000: 896e ea3f 3c2f 3cc0 fa09 10bf a24c bfbe
1.8314983 -2.940383 -0.56265223 -0.37363154

running_var f4 [4]
00000000: 2c11 2942 59ba 8742 aaff 5042 f413 5541
42.26677 67.86396 52.249672 13.317371

weight f4 [4, 4, 3, 3]
00000000: c8ea 25be 03f3 09bf f348 c8be b948 21be
00000010: 28c1 08bf fa08 01bd ad6f 4ebf dd9e 8dbe
00000020: f623 ee3d d7e1 14bc 0844 25be bfa0 353e
00000030: 83ff 24be d157 ecbd 2f26 86be c9e6 a43e
00000040: 8506 9e3e 720e babd e811 1d3f df81 b23e
00000050: 0a6c eb3e 0505 1f3f 704a 6d3d c70b bd3e
00000060: 3d73 e1be 9a6c 91bf cac7 bdbe 033f 0b3e
00000070: 076f 283e 8ba6 153e d5c0 ed3e 588f 133e
00000080: af47 ba3e 68cb b33d 83d9 92be 7285 2c3e
00000090: 929d 36bf 466c 62be b206 bd3d df89 2bbd
000000a0: 340c 6c3e 8306 973e f609 dabd 67af 563e
000000b0: 53a3 123f a306 acbe def3 da3c dc5c 6b3e
000000c0: a307 c23c 137f 59be 05ff b4be d648 f03c
000000d0: c55c 8fbe 87dd f1be 99a3 66bf 0e74 1f3d
000000e0: 0115 0cbf 8293 13bf 8901 b73e 2835 e4be
000000f0: f286 2abf 705c 4a3e 03cf febe c32a 7f3e
00000100: e7d0 5cbe f2e7 e0be 6de2 2d3d 9df3 1f3e
00000110: 8cd2 d43d d3e9 edbd f010 0a3e 135b d43e
00000120: c464 58bd 8b0e 853e c25c d83e b4f6 adbd
00000130: d8c9 01be 192a 8f3d 101b 39be a6bb 87be
00000140: 5a45 11be 9241 27bd 0f1b 77be dd9d 21be
00000150: d33d 08be 7d8f a9be 4c4b 3d3d 3d2f 3d3e
00000160: f96c 8f3d bc80 d43e acb4 cabe 7eb9 26be
00000170: aea4 9f3e 3fa5 51be 8262 e0bd 86df 973e
00000180: 4733 02bd 3315 ddbb 0160 e33e 9b84 873e
00000190: 2c23 453f bead 693f 2775 ac3e fab1 893e
000001a0: cd3e cc3e 0190 273f f3ab bb3e d2a4 0b3f
000001b0: bec4 15bf 03fd acbe 2cb3 97be 395a 6cbe
000001c0: 5b95 8e3d d3d5 373d 0deb a0be 48af 3db9
000001d0: ea36 ad3d 2ead 593e f509 8ebe ee10 02bf
000001e0: 13a4 2abe aa3f 04bf 20d2 00be 1245 95be
000001f0: d677 cfbe 58ea 1b3e a1a1 dcbe 2575 18be
00000200: b3d2 7a3e 61c0 5bbe 675e ba3c 550c a93e
00000210: 70ce 8ebe cf5b 9f3d 7922 073f c92d 71bd
00000220: db61 54bd c8a8 993c 65d2 0bbe 9644 db3c
00000230: 8112 723d 2513 1c3e 3ea7 553e 7fe6 8e3d
-0.16202843 -0.5388643 -0.39118156 -0.15750398 -0.53419733 -0.0315027 -0.80639154 -0.27660266
0.11627953 -0.009087048 -0.16139233 0.17737101 -0.16113095 -0.11540187 -0.26201007 0.32207325
0.3086435 -0.090847865 0.6135545 0.3486471 0.45980865 0.62117034 0.057932317 0.36923048
-0.44033232 -1.1361268 -0.3706649 0.13598256 0.16448604 0.14614312 0.46436182 0.1441015
0.36382815 0.08779031 -0.28681573 0.1684778 -0.71334183 -0.22111616 0.09229793 -0.04187953
0.2305153 0.29497156 -0.10646431 0.20965348 0.57280463 -0.33598813 0.026727613 0.22984642
0.023685282 -0.21239881 -0.35350814 0.029331606 -0.28000465 -0.47239324 -0.9009338 0.038929038
-0.5471955 -0.57646954 0.3574336 -0.44571805 -0.6661216 0.19761825 -0.49767312 0.24918656
-0.21564065 -0.4392696 0.042452265 0.15620275 0.10391721 -0.11616864 0.13483024 0.41475734
-0.052830473 0.25987658 0.4225827 -0.084943205 -0.12674654 0.06990451 -0.1807673 -0.26510352
-0.14186612 -0.040834017 -0.24131416 -0.15782876 -0.13304834 -0.33117285 0.046214387 0.18475051
0.07003207 0.41504467 -0.39590967 -0.16281697 0.31180328 -0.20473193 -0.10956289 0.29662722
-0.031787183 -0.006746912 0.44409183 0.26468357 0.77006793 0.91280735 0.3368313 0.26893598
0.39891663 0.6545411 0.36654624 0.5454837 -0.5850333 -0.33786783 -0.29628885 -0.23081292
0.06962081 0.044881653 -0.3142933 -0.00018089742 0.0845774 0.21257469 -0.27741972 -0.5080708
-0.16664152 -0.51659644 -0.12580156 -0.2915426 -0.40521115 0.15226114 -0.43092063 -0.14888437
0.24494438 -0.21460105 0.022750093 0.3301722 -0.27891874 0.07781183 0.52786976 -0.058881555
-0.051851135 0.018757239 -0.13654478 0.026766103 0.059099678 0.15241678 0.20864579 0.069775574

weight f4 [4]
00000000: 042e 9d3f 142c a03f dbba 3a3f ab01 a33f
1.2279668 1.2513452 0.7294137 1.2734884

bias f4 [4]
00000000: 8e8c e33e 84fc e53e 6ee8 383e d2d8 043f
0.44443172 0.44919217 0.18057415 0.5189334

running_mean f4 [4]
00000000: a8e1 84bf 08a4 51bf 132c d23e 9432 a0bf
-1.0381365 -0.81890917 0.4104925 -1.2515435

running_var f4 [4]
00000000: c84c 9340 d944 b840 9e1f 4340 004d 7540
4.6031227 5.7584043 3.0488048 3.8328247

weight f4 [16, 4, 1, 1]
00000000: 58de 0abf f648 5cbf 479a f7bd 4e85 1b3f
00000010: b58e 383e c796 083f a5da a63e 96d5 bcbe
00000020: a805 47bf 830d 74be 0f6b 56be a8b9 d4be
00000030: 7006 443f a246 dbbe aa34 1e3e 2291 0e3f
00000040: 0b42 253f e9c0 d5bd 4272 5f3e e860 603e
00000050: 888b 6dbe edf9 6f3f 62ca e03e a8a7 c83e
00000060: ccfe a6bd 91ab 6c3f 2e78 7b3e e616 e2be
00000070: 4872 0ebf ef43 87be ef24 81be 582d 36bf
00000080: 3348 22bf c9ed 2b3e a63d 863d 0d89 343f
00000090: 5a1e 36bf 97f5 63bf 1a13 abbb 7a7f 9d3e
000000a0: cd34 eabd e32d 89be e964 2bbb 080b 7e3f
000000b0: 2180 41bf 463e f93e b214 ab3d d116 2bbf
000000c0: 42b9 633e b388 383f 311a 963e af96 4bbf
000000d0: b289 b5be c439 09bf 71af 2c3e 78e7 1d3f
000000e0: af93 b6be 6f47 3fbf dc04 68be 8e03 1f3e
000000f0: b3b9 c63d b50c 2a3f 48be 973e 4018 f93e
-0.5424552 -0.8604883 -0.12089973 0.6075028 0.18023188 0.5335507 0.32588688 -0.36881703
-0.77743006 -0.2383328 -0.20939277 -0.41547894 0.7657232 -0.42827326 0.15449777 0.55690205
0.645539 -0.10437185 0.2182093 0.21911967 -0.23197758 0.9374073 0.43904406 0.39190412
-0.081540674 0.9244929 0.24557564 -0.44158095 -0.5564313 -0.26419017 -0.2522349 -0.7116294
-0.6339142 0.16789927 0.06554727 0.7052162 -0.7114006 -0.89046615 -0.005220783 0.3076132
-0.11435852 -0.2679282 -0.0026152676 0.9923558 -0.75586134 0.48680323 0.08353557 -0.6683169
0.22238639 0.72083586 0.29316857 -0.795268 -0.35456616 -0.5360377 0.168638 0.6168132
-0.3565955 -0.74718374 -0.22658104 0.155287 0.09703388 0.6642564 0.2963736 0.48651314

weight f4 [16]
00000000: f779 6040 681b 9640 8b58 a640 df02 b040
00000010: 4ad4 e540 c777 e340 b7b9 9840 13bf 8740
00000020: cdb6 8b40 d33b a640 8eb0 9240 8a79 bf40
00000030: b727 9640 aa95 a140 e44d b040 fa53 cc40
3.5074441 4.6908455 5.1983085 5.5003505 7.182164 7.1083713 4.7726703 4.2420745
4.3660645 5.1948028 4.584052 5.9835863 4.692348 5.0495195 5.509508 6.385251

bias f4 [16]
00000000: afe7 263d be5f b43e 9f40 213f 9c79 073f
00000010: f2d0 693e ccb5 933d 8424 b33e 1194 15be
00000020: 2193 7c3e bb5f 0a3f 7ad0 873e d688 0e3f
00000030: 5e6c 7e3e 044b 8bbe 8135 043f 8cc1 043e
0.040748294 0.35229295 0.6298923 0.52919936 0.22833613 0.072124094 0.34988797 -0.14607264
0.246655 0.54052323 0.26526242 0.55677545 0.24846026 -0.2720567 0.5164414 0.12964457

running_mean f4 [16]
00000000: 165c 07bf 68ce 893e aaac 85bf 9819 2f3f
00000010: 4336 113f 4f96 5a3f a001 943e b697 90bf
00000020: c14e 593e 843c 5dbf 5888 f33e a68d 29bf
00000030: 6355 ce3d 5512 fabd e600 2bbf 46a9 6d3f
-0.52874887 0.26915288 -1.0443318 0.6839843 0.5672342 0.853856 0.2890749 -1.1296299
0.21221448 -0.86420465 0.4756496 -0.66231763 0.1007488 -0.12210528 -0.66798246 0.92836416

running_var f4 [16]
00000000: 721d 953d b643 6a3d e834 943d c931 ae3d
00000010: 0817 423d 5c89 f73d b2c0 843d a3e2 b63d
00000020: c681 a13d 4e44 c43d b82a b83d b2b1 e03d
00000030: 7c99 c93d 6b3b 9b3d 2a82 223d 2fa2 8d3d
0.07281007 0.05719348 0.072366536 0.085055895 0.047385246 0.12086746 0.06482066 0.08929946
0.078860804 0.095833406 0.08992523 0.10971393 0.09843728 0.075796925 0.039674915 0.069157

weight f4 [10, 16]
00000000: 7be2 e83d b227 e2bf a3c1 d8be c7b0 0a40
00000010: afba 693f 807f 213c aa05 51bf fac7 b23f
00000020: 07fa 27be ce97 38bf afa3 553f b23e adbf
00000030: 3a56 d4bf dc06 3dbe efc8 483e 4441 603f
00000040: fb79 f2bf 9aef 353f 459d 0b3f c70e f73e
00000050: 4b82 a5bf 8d4d b0be 3316 463f a4f5 283f
00000060: ac5f 313f a9c8 ddbf d59e 6a3f 4254 b03f
00000070: ebf3 ed3e f2c4 97c0 8e93 9a3e 29b0 a5bf
00000080: 0d51 61be e27f 7f3e ff6d 0a3e 21ef 703c
00000090: 25e1 3b3f b864 10c0 6143 0abf 8787 21bf
000000a0: 2d62 57bf 16dd 4c3f a57e abbf 454c c83e
000000b0: 8417 7f3f 552f 923d c645 413f 1487 c1bf
000000c0: c631 ce3f 61b1 d2be ea80 ddbd 5160 c5bf
000000d0: 86d5 46be 2b88 dabe 2cde ac3f 14a0 f23f
000000e0: cb62 03c0 26a2 f3bd 71cc cbbf 0301 aabe
000000f0: 9a69 463f 3f0c 003f 255c ddbf 9cbe 303f
00000100: 87e6 383f 99c9 743f a7b3 89be d6a8 3fbe
00000110: ed1e 32c0 3724 70bf 642f c5bf 3222 b8bf
00000120: 6bd5 b43f c7fe cb3e 6f28 c23f a08b a93e
00000130: ff8f 42bf 73b8 623e cc73 bd3f 4272 32c0
00000140: 8bc2 f43e 7464 8f3f b813 9fbf 548d 12bf
00000150: 571b 193f 29fb 553f d815 843f d421 a13e
00000160: 1c6c 0bbe 08a2 14c0 5a07 66bf 519e d3be
00000170: b9e0 b43f 9059 46be 3dd1 cfbf ad19 d63f
00000180: d895 93bf aff6 f33f 17fc e1bf 1a3d 9e3f
00000190: 2f75 8b3f f16a 203e 21cb 0abf e522 06c0
000001a0: bcfe 7a3f f165 fbbf 6746 923f 5bf7 7abf
000001b0: e41d 8c3d 972d 373e 4d89 963e aa05 cd3d
000001c0: 2fbe 943e 7537 8dbf 493b 2a3f ea91 2ec0
000001d0: 2e98 1ec0 8e11 59bf 0dd7 5c3f c0f7 603f
000001e0: d286 0fbf 61fb 233f 88e4 06bf 303f 9a3f
000001f0: cd2b 07bf 1974 1dbf 3338 923f bda1 bbbf
00000200: 3cc7 70bf 0a55 f33e cf76 aebb 219f a0bf
00000210: 292c b53f 0421 d33f c0e5 c7be b587 b0bf
00000220: 0797 82bd aa4e 963f 2974 39bf 2d00 66be
00000230: 04ff a7bf 8cf1 6a3f 1375 ddbf ab0a 2e3e
00000240: 7dce 4d3f 7c8e 55c0 dfcc 1b3f 2816 14bf
00000250: 16aa babf f775 9c3f 96f4 5abf 251d 9ebd
00000260: a7d0 d8bc 0787 de3f f9d2 063d 36a1 eabe
00000270: ad8b c2bf 8e05 403f c2dd 033d d17a c63d
0.11371323 -1.7668364 -0.42335233 2.1670396 0.9130048 0.0098570585 -0.8164927 1.3967278
-0.16403972 -0.72106636 0.83452886 -1.3534758 -1.6588814 -0.18459648 0.196079 0.8759959
-1.8943475 0.7106873 0.5453685 0.48253462 -1.2930387 -0.34434167 0.77377623 0.6599982
0.6928661 -1.7326862 0.9164861 1.3775713 0.46475157 -4.742791 0.301907 -1.2944385
-0.22003575 0.24951127 0.13518523 0.01470545 0.7339042 -2.2561474 -0.5400906 -0.63097423
-0.8413418 0.8002485 -1.3398024 0.3912069 0.99645257 0.07137934 0.7549709 -1.5119348
1.610894 -0.41150954 -0.10815604 -1.5420018 -0.1941739 -0.42682013 1.3505301 1.8955102
-2.0529048 -0.11896162 -1.5921766 -0.33203897 0.77504885 0.50018686 -1.7293745 0.69040847
0.72226757 0.95620114 -0.26894876 -0.1871675 -2.7831376 -0.9380526 -1.5405087 -1.4385436
1.412763 0.39842817 1.5168589 0.33114338 -0.7600097 0.22140674 1.4800963 -2.7882237
0.47804675 1.1202531 -1.2427893 -0.572469 0.5980734 0.83586365 1.0319166 0.3147112
-0.13615459 -2.3223896 -0.8985497 -0.41331723 1.413108 -0.19370103 -1.623573 1.6726586
-1.1530104 1.9059657 -1.7655057 1.2362397 1.0895137 0.15665795 -0.542162 -2.0958798
0.98044944 -1.9640485 1.1427735 -0.98033684 0.06841639 0.17888485 0.29401627 0.10010846
0.2905135 -1.1032549 0.6649671 -2.727656 -2.4780383 -0.8479241 0.8626564 0.87878036
-0.56065094 0.6405545 -0.5269246 1.2050533 -0.5280121 -0.61505276 1.1423401 -1.4658734
-0.9405401 0.47525817 -0.0053242217 -1.2548562 1.4154102 1.649445 -0.39042473 -1.3791414
-0.063764624 1.1742756 -0.7244287 -0.22461005 -1.31247 0.9177482 -1.7301353 0.16996257
0.803932 -3.3368216 0.60859483 -0.5784631 -1.4583156 1.22235 -0.8552946 -0.07720403
-0.02646668 1.7384957 0.032916043 -0.4582612 -1.5198876 0.75008476 0.032193907 0.09691394

bias f4 [10]
00000000: 62db e13d bcac bc3e d74a b23e 5e01 c5be
00000010: 5d9d 9abd acd2 aabe 3fd8 02bf f0e0 d23d
00000020: bc08 0c3e 3cd0 123e
0.11028172 0.36850536 0.34822723 -0.38477606 -0.07549546 -0.33363855 -0.51111215 0.1029681
0.13675207 0.14337248
