HW2/aML/resnet6_ch16.pt (torch, 74614 bytes, 27 tensors)

weight f4 [16, 3, 7, 7]
0.41027954 0.33122858 0.014978746 0.21582347 0.17115234 -0.13206948 0.2759465 0.205078
0.11979357 -0.011256474 -0.25723812 -0.18150361 -0.0031441853 0.15953803 0.36236376 0.27644798
0.103040524 -0.1468529 0.018499566 0.21047762 0.15119228 0.25317362 0.37460548 0.27986073
-0.12573124 -0.07554108 0.41836795 0.18652995 0.24747585 0.1358985 -0.078218736 -0.15794876
-0.3401934 0.017348135 0.08307374 0.2601544 -0.06665982 -0.23574793 -0.12595393 -0.13458098
0.08921286 0.08505208 0.2446676 0.12936957 -0.055637233 0.3645717 -0.033265024 0.14519209
0.29328832 0.39540908 0.37304193 -0.11713159 0.21621189 0.18899119 0.0044930177 0.38916868
0.21111871 0.10621839 0.04778839 -0.17207848 -0.1897272 -0.004868123 0.06776845 0.30791098
0.24046697 0.25718802 -0.14482594 -0.019545222 0.12560381 0.1708224 0.23779555 0.36214766
0.23230118 -0.20589797 -0.09370507 0.32310092 0.1995971 0.30972862 0.13748194 -0.0733047
-0.15022495 -0.18342139 -0.015606767 0.12009492 0.24491072 -0.020707468 -0.20204082 -0.039981645
-0.17755176 0.009160005 0.11007534 0.18137784 0.12055836 0.0031256587 0.28120974 -0.0807278
0.13964094 0.30354905 0.36316192 0.3157659 -0.024998724 0.317559 0.14022647 0.015211012
0.3851623 0.2754291 0.031617478 0.02013924 -0.17371666 -0.25010103 0.10132566 0.05086207
0.40104288 0.21592921 0.18948194 -0.1307374 -0.12585859 0.11894182 0.073886044 0.23054132
0.37402096 0.16384026 -0.18687646 -0.08381663 0.30397493 0.18731482 0.3046235 0.05208935
-0.11274516 -0.1512068 -0.31250498 0.037810072 0.0024225302 0.24390261 -0.0029958289 -0.21003911
-0.082378834 -0.09049767 0.13488793 0.15121627 0.20897265 0.15107554 -0.007261679 0.37468782
0.052594714 -0.010737714 0.16851439 0.021389535 0.1374868 -0.07500916 0.037233405 -0.094492495
-0.12252012 0.107414275 -0.13979083 0.20506093 0.11901525 -0.047908146 -0.10593145 -0.211108
0.22192006 -0.028310308 0.26764947 0.06898964 0.1036737 -0.2028067 -0.33401367 0.15447423
0.5093743 0.110386565 -0.1141363 -0.20811933 -0.52539796 -0.074563205 0.34947556 0.1149046
-0.1804405 -0.3687995 -0.42524165 -0.495902 0.3461103 0.12723807 -0.16107498 -0.14164075
-0.14085078 -0.050110552 0.3145407 0.44970497 -0.04942266 -0.042603865 0.17539811 0.112093575
0.10088717 0.022778952 -0.08012519 -0.13841113 0.049677413 0.14622238 0.07500849 0.15218604
-0.048197508 -0.2435707 0.10961814 -0.09563931 0.1807786 0.12330803 -0.007598347 -0.13738123
-0.26533893 0.12663966 -0.04054576 0.3154865 0.113222145 -0.002203751 -0.21866515 -0.26740623
0.1603837 0.45373726 0.052820113 -0.03940933 -0.15051639 -0.5773115 -0.078295805 0.19085674
0.18269916 -0.11523356 -0.27185464 -0.43562707 -0.421312 0.30302078 0.2616832 -0.24306355
-0.21343328 -0.2572302 -0.031706076 0.19961202 0.42044306 -0.052626174 -0.07577013 0.09770565
0.2218265 0.08571081 -0.06043277 -0.13900384 -0.246803 0.043511968 0.2300461 0.040980075
0.09746652 -0.036461286 -0.17275059 0.18589658 -0.083893955 0.092187814 0.09449326 0.09152571
00000000: 2910 d23e cb96 a93e 6a69 753c d400 5d3e
00000010: 8f42 2f3e 393d 07be dc48 8d3e f8ff 513e
00000020: 5556 f53d 136d 38bc b7b4 83be 15dc 39be
00000030: ad0e 4ebb f05d 233e be87 b93e 978a 8d3e
00000040: e906 d33d 9b60 16be 678c 973c 7287 573e
00000050: 26d2 1a3e f99f 813e 4acc bf3e e849 8f3e
00000060: b1bf 00be 48b5 9abd 5334 d63e b501 3f3e
00000070: 4f6a 7d3e fa28 0b3e 2531 a0bd 52bd 21be
00000080: d42d aebe ad1d 8e3c 9122 aa3d f532 853e
00000090: f284 88bd e867 71be 11fa 00be 99cf 09be
000000a0: 3bb5 b63d c92f ae3d 258a 7a3e 7579 043e
000000b0: dee3 63bd 24a9 ba3e e840 08bd 3cad 143e
000000c0: e329 963e 0f73 ca3e 5aff be3e b0e2 efbd
000000d0: a666 5d3e e886 413e 2a3a 933b 1e41 c73e
000000e0: 812f 583e 0789 d93d c2bd 433d 5735 30be
000000f0: d947 42be c784 9fbb 2fca 8a3d 82a6 9d3e
00000100: f93c 763e 26ae 833e 404d 14be 4d1d a0bc
00000110: 499e 003e 11ec 2e3e ad80 733e 6b6b b93e
00000120: 5ce0 6d3e ebd6 52be 72e8 bfbd 7c6d a53e
00000130: 2f63 4c3e c094 9e3e 11c8 0c3e c620 96bd
00000140: 92d4 19be d1d2 3bbe 86b3 7fbc 53f4 f53d
00000150: e0c9 7a3e b5a2 a9bc cae3 4ebe cbc3 23bd
00000160: 21d0 35be d813 163c 2e6f e13d 1dbb 393e
00000170: 4de7 f63d dad7 4c3b b9fa 8f3e 9e54 a5bd
00000180: 09fe 0e3e c86a 9b3e 5cf0 b93e 11ac a13e
00000190: 20ca ccbc 1897 a23e 8797 0f3e 9c37 793c
000001a0: fe33 c53e 0b05 8d3e 5481 013d 0cfb a43c
000001b0: c8e2 31be 3e0d 80be d483 cf3d bf54 503d
000001c0: 7e55 cd3e 8c1c 5d3e 8e07 423e 06e0 05be
000001d0: 13e1 00be c597 f33d 9151 973d 0613 6c3e
000001e0: ad7f bf3e bec5 273e 8b5c 3fbe 0ea8 abbd
000001f0: 9aa2 9b3e 75cf 3f3e 9df7 9b3e a45b 553d
00000200: efe6 e6bd f5d5 1abe a700 a0be bcde 1a3d
00000210: 50c3 1e3b 9bc1 793e ab55 44bb 7e14 57be
00000220: 3cb6 a8bd d856 b9bd 1020 0a3e 70d8 1a3e
00000230: edfc 553e 8cb3 1a3e 61f3 edbb 15d7 bf3e
00000240: 8e6d 573d 3ded 2fbc 098f 2c3e 1b39 af3c
00000250: 57c9 0c3e 679e 99bd 0e82 183d 4885 c1bd
00000260: d4eb fabd 04fc db3d 5425 0fbe 7efb 513e
00000270: 44be f33d 553b 44bd 97f2 d8bd b22c 58be
00000280: 033f 633e 05eb e7bc 5a09 893e 714a 8d3d
00000290: e052 d43d 8fac 4fbe d703 abbe 7e2e 1e3e
000002a0: 5b66 023f 5a12 e23d 4bc0 e9bd 3c1d 55be
000002b0: 7b80 06bf 98b4 98bd 76ee b23e 1a53 eb3d
000002c0: 65c5 38be 4ad3 bcbe 46b9 d9be dee6 fdbe
000002d0: 5f35 b13e b24a 023e d7f0 24be 460a 11be
000002e0: 303b 10be b940 4dbd 7b0b a13e bb3f e63e
000002f0: 6a6f 4abd 6481 2ebd 909b 333e 5191 e53d
00000300: ef9d ce3d ed9a ba3c ad18 a4bd a6bb 0dbe
00000310: 8b7a 4b3d 52bb 153e 0d9e 993d a8d6 1b3e
00000320: c06a 45bd 996a 79be 7a7f e03d 8bde c3bd
00000330: 061e 393e ec88 fc3d 8efb f8bb aaad 0cbe
00000340: 81da 87be d4ad 013e 5013 26bd 7287 a13e
00000350: 03e1 e73d ce6c 10bb c2e9 5fbe 78e9 88be
00000360: a03b 243e 4050 e83e e759 583d ad6b 21bd
00000370: f820 1abe b0ca 13bf 8d59 a0bd f36f 433e
00000380: 7d15 3b3e 93ff ebbd 8830 8bbe 830a dfbe
00000390: 35b6 d7be 8a25 9b3e 57fb 853e a7e5 78be
000003a0: 418e 5abe adb3 83be 3bde 01bd 1867 4c3e
000003b0: 5044 d73e 8b8e 57bd 5f2d 9bbd e619 c83d
000003c0: 7c26 633e 2689 af3d 5a88 77bd 0657 0ebe
000003d0: edb9 7cbe 9b39 323d 3491 6b3e b9da 273d
000003e0: 879c c73d 6e58 15bd 88e5 30be ac5b 3e3e
000003f0: 98d0 abbd f7cc bc3d af85 c13d d571 bb3d

weight f4 [16]
0.7461915 0.8526156 0.9560635 0.7078634 1.5504284 1.8706408 1.0509746 1.3350718
1.70232 1.6496924 0.94164526 0.9056849 1.0933182 1.0266474 0.7602089 1.5916889
00000000: 6806 3f3f 0445 5a3f 94c0 743f 8936 353f
00000010: 7074 c63f 2871 ef3f 5686 863f a2e3 aa3f
00000020: 9fe5 d93f 1f29 d33f aa0f 713f f7da 673f
00000030: daf1 8b3f 2f69 833f 0d9d 423f 76bc cb3f

bias f4 [16]
-0.50394785 -0.70473 -0.17343943 0.25605896 0.31983846 0.2948087 0.3934957 -0.081759766
-0.23365478 0.14671654 0.07073969 0.13248219 -0.4243191 -0.073029615 -0.9337487 0.114533715
00000000: ba02 01bf 2f69 34bf 1b9a 31be 291a 833e
00000010: dec1 a33e 2af1 963e 4578 c93e aa71 a7bd
00000020: 3343 6fbe dc3c 163e f8df 903d 69a9 073e
00000030: 5a40 d9be 8d90 95bd 280a 6fbf a790 ea3d

running_mean f4 [16]
56.146473 -3.2570698 4.5023775 12.0009165 -21.398142 -78.13238 -5.909243 -38.31345
-57.152027 -66.50635 -10.579478 -1.3082898 -18.150036 -6.7764163 1.1754572 -49.63078
00000000: fd95 6042 d573 50c0 7a13 9040 c103 4041
00000010: 652f abc1 c743 9cc2 8518 bdc0 f940 19c2
00000020: ad9b 64c2 4003 85c2 8b45 29c1 0a76 a7bf
00000030: 4633 91c1 67d8 d8c0 6275 963f eb85 46c2

running_var f4 [16]
94402.086 10377.872 17650.016 11820.645 47487.133 191877.34 25441.645 60121.93
126500.32 144892.83 12270.426 5501.862 47176.895 27617.428 40121.3 115741.26
00000000: 0b61 b847 7d27 2246 08e4 8946 94b2 3846
00000010: 227f 3947 5661 3b48 4ac3 c646 eed9 6a47
00000020: 2912 f747 357f 0d48 b4b9 3f46 e5ee ab45
00000030: e548 3847 dbc2 d746 4db9 1c47 a10e e247

weight f4 [16, 16, 3, 3]
0.08001406 0.24190153 0.15017492 -0.10169365 -0.07149696 -0.12601705 -0.32954147 0.048981726
-0.46856135 -0.22711569 0.038939804 0.13998759 -0.51232964 0.028679354 0.10104664 -0.49645895
-0.035567265 -0.4045244 -0.48474026 0.13285404 -0.628738 -0.45378008 -0.69088936 -0.67360157
0.70249796 -0.1495096 -0.7619333 0.09192034 -0.112099715 0.35713094 0.16056739 0.32978514
0.10891282 -0.30452684 -0.0004700454 -0.43080917 0.043520924 0.09282356 0.31195554 0.16158505
0.0127446195 -0.055894524 -0.051330846 -0.060471825 -0.15324467 0.12904799 0.4568999 0.22373249
-0.7323752 0.04274756 -0.54893464 -0.0037573748 0.09862644 -0.07004495 0.12687618 0.14517088
0.20471281 0.058762822 -0.18914565 -0.3718757 -0.2438956 -0.0016612913 -0.28901443 0.24507502
0.5000504 0.41674718 0.3669011 0.7145481 0.32750803 -0.45110607 0.12909535 -0.3161716
-1.0170186 -0.77498555 -1.0017037 -0.71580064 0.51084995 -0.5289572 -0.39893872 0.65839803
-0.9241027 -0.39416546 -0.5129162 0.14123783 0.9503093 0.87799895 0.8380307 0.35319325
0.039960846 -0.123625666 0.1291192 0.035317812 0.02473856 0.053564094 0.16651964 -0.36224836
-0.4711272 0.15086105 -0.008327223 0.32514963 0.11259458 -0.07558348 0.35918847 0.039193597
-0.08123569 -0.09425326 -0.27861002 -0.5291512 -0.19986688 -0.69562536 -0.921638 -0.16449912
0.053752795 0.095897876 -1.0949855 0.38891423 0.08416861 0.2273688 0.3453121 0.0010922739
-0.39708012 0.27647883 -0.07191603 -0.5509316 -0.5080655 -0.7730533 -0.12197922 -0.1262186
-0.21083763 -0.1819881 0.13883692 -0.29638812 -0.21766832 0.43386084 0.07703337 -0.38175723
0.18663393 0.44005457 0.36281163 -0.03564311 -0.26957214 0.13541041 0.17521097 -0.2806141
0.15162227 -0.13541679 -0.27606755 -0.4593164 -0.055553634 -0.17333624 0.26556188 -0.51218075
-0.13054064 0.006420456 -0.09648243 -0.2098234 -0.21546398 -0.17443298 -0.19711444 -0.32846862
-0.07051567 -0.75540304 0.067313224 0.0060744286 -0.38366827 -0.050146554 0.04047877 -0.17541558
-0.10445849 0.1657386 -0.49726498 -0.123626225 -0.19031523 -0.2443333 -0.0658089 0.019939568
0.17411655 -1.2312751 -0.6420707 -0.34047058 -0.23774853 -0.2163905 -0.36387423 0.02435198
-0.19159989 0.046175484 0.1612441 0.061909765 0.25115493 -0.13826069 -0.16152795 -0.15118515
-0.009008432 -0.09374764 0.048567504 -0.005972747 0.1756858 0.20288172 -0.1936883 -0.15077445
-0.60854894 -0.07740123 0.071820624 0.07458146 -0.05762099 0.15072177 0.20045938 -0.2589975
-0.1298449 -0.41692543 -0.15624335 0.07811767 0.029262822 0.119375095 -0.3830934 -0.031236
-0.21309067 -0.38228145 -0.25500947 -0.16287176 -0.2811591 -0.30138248 0.1571294 -0.88790184
-0.41433838 -0.09549672 -0.10457636 0.015257025 -0.11695697 0.5122737 0.20289232 -0.062448837
0.3478175 0.22502059 -0.08428728 0.12630077 -0.2545767 0.028316997 -0.05663292 0.018074123
-0.25009638 0.024176326 0.39745688 -0.6965322 -0.18622145 -0.14237121 -0.2052553 0.10473103
-0.0122222 0.21827473 -0.3128964 -0.062951304 0.2056877 -0.14507364 -0.02884431 -0.2353857
00000000: 69de a33d 09b5 773e 74c7 193e c344 d0bd
00000010: 006d 92bd 9d0a 01be a9b9 a8be 10a1 483d
00000020: 46e7 efbe 0491 68be 587f 1f3d e858 0f3e
00000030: 0928 03bf f7f0 ea3c 8af1 ce3d de2f febe
00000040: fbae 11bd d21d cfbe e02f f8be e40a 083e
00000050: f9f4 20bf dd55 e8be 20de 30bf 2771 2cbf
00000060: e8d6 333f 0b19 19be 100e 43bf bb40 bc3d
00000070: 8994 e5bd ded9 b63e c76b 243e 99d9 a83e
00000080: af0d df3d f1ea 9bbe 6d70 f6b9 0593 dcbe
00000090: ff42 323d 471a be3d a3b8 9f3e 8d76 253e
000000a0: cfce 503c a8f1 64bd 4b40 52bd 4eb1 77bd
000000b0: 2cec 1cbe 2825 043e c9ee e93e 211a 653e
000000c0: f17c 3bbf 1118 2f3d fb86 0cbf 4a3e 76bb
000000d0: a9fc c93d ba73 8fbd d4eb 013e ada7 143e
000000e0: 3ca0 513e 49b1 703d 66af 41be 7e66 bebe
000000f0: c5bf 79be b0bf d9ba b3f9 93be f2f4 7a3e
00000100: 4e03 003f e35f d53e 76da bb3e a0ec 363f
00000110: 22af a73e 60f7 e6be 9231 043e 3ee1 a1be
00000120: aa2d 82bf 7465 46bf d437 80bf b63e 37bf
00000130: 10c7 023f bd69 07bf b241 ccbe c68c 283f
00000140: ff91 6cbf 0ed0 c9be 7a4e 03bf a6a0 103e
00000150: 7847 733f 8ac4 603f 2e89 563f bfd5 b43e
00000160: fcad 233d 742f fdbd d337 043e 69a9 103d
00000170: 85a8 ca3c 0666 5b3d 2084 2a3e 9e78 b9be
00000180: 9637 f1be 527b 1a3e e86e 08bc 037a a63e
00000190: fd97 e63d 83cb 9abd 8de7 b73e 7789 203d
000001a0: e65e a6bd da07 c1bd f9a5 8ebe 7476 07bf
000001b0: e7a9 4cbe 8114 32bf 78f0 6bbf 7572 28be
000001c0: e42b 5c3d 1b66 c43d 7c28 8cbf c41f c73e
000001d0: 9860 ac3d 5ed3 683e bfcc b03e a12a 8f3a
000001e0: 164e cbbe a28e 8d3e b648 93bd da09 0dbf
000001f0: 9510 02bf d2e6 45bf 3ed0 f9bd 733f 01be
00000200: d2e5 57be 175b 3abe 442b 0e3e 2fc0 97be
00000210: 72e4 5ebe 0223 de3e acc3 9d3d af75 c3be
00000220: f71c 3f3e d54e e13e 72c2 b93e 82fe 11bd
00000230: 5c05 8abe 07a9 0a3e 816a 333e a7ac 8fbe
00000240: de42 1b3e b3aa 0abe ba58 8dbe 852b ebbe
00000250: 358c 63bd 0e7f 31be baf7 873e 471e 03bf
00000260: 72ac 05be b062 d23b 9598 c5bd f2db 56be
00000270: 97a2 5cbe 8f9e 32be 5ed8 49be 0a2d a8be
00000280: 856a 90bd 1862 41bf 84db 893d 000c c73b
00000290: 2b70 c4be 7966 4dbd 11cd 253d 24a0 33be
000002a0: 55ee d5bd 61b7 293e 8499 febe bf2f fdbd
000002b0: ffe1 42be 8232 7abe d1c6 86bd 4e58 a33c
000002c0: 9c4b 323e 6c9a 9dbf bf5e 24bf 2952 aebe
000002d0: 5a74 73be 7995 5dbe b94d babe ce7d c73c
000002e0: c332 44be 8122 3d3d 2c1d 253e 1895 7d3d
000002f0: 6197 803e 3694 0dbe 9567 25be 48d0 1abe
00000300: 1a98 13bc c3fe bfbd b8ee 463d 09b7 c3bb
00000310: fae6 333e 3ac0 4f3e 3a56 46be 9e64 1abe
00000320: ddc9 1bbf 8984 9ebd b116 933d 2abe 983d
00000330: fd03 6cbd cf56 1a3e 3945 4d3e 529b 84be
00000340: 10f6 04be 4077 d5be 42fe 1fbe 28fc 9f3d
00000350: 96b8 ef3c ee7a f43d d124 c4be a4e2 ffbc
00000360: 7134 5abe 65ba c3be 9a90 82be dbc7 26be
00000370: 16f4 8fbe ce4e 9abe 88e6 203e 894d 63bf
00000380: 2924 d4be c993 c3bd 212c d6bd 9af8 793c
00000390: 2387 efbd 5f24 033f 01c3 4f3e 5aca 7fbd
000003a0: 2315 b23e cc6b 663e cf9e acbd fd54 013e
000003b0: e157 82be 0cf9 e73c ecf7 67bd 2f10 943c
000003c0: a20c 80be 6e0d c63c 787f cb3e ef4f 32bf
000003d0: d6b0 3ebe c2c9 11be 722e 52be 397d d63d
000003e0: 9f3f 48bc 6983 5f3e f533 a0be 9dec 80bd
000003f0: cc9f 523e 2f8e 14be e74a ecbc f308 71be

weight f4 [16]
1.4334959 0.95967597 0.93091685 1.4527179 1.0863726 1.1472781 1.1423081 1.1422932
0.570929 0.7594102 0.5942975 1.2767724 1.432498 1.3049366 1.5231378 0.6055672
00000000: cb7c b73f 53ad 753f 9150 6e3f a9f2 b93f
00000010: 420e 8b3f 02da 923f 2737 923f aa36 923f
00000020: 6728 123f b568 423f e223 183f 476d a33f
00000030: 185c b73f 2a08 a73f 2ef6 c23f 7406 1b3f

bias f4 [16]
-0.27173725 -0.11765073 -0.42547694 -0.13884164 -0.08603799 -0.037561182 -0.14526996 -0.25633612
-1.1416786 -0.33365938 -0.6749311 -0.17493276 -0.23819527 -0.09124098 -0.06065506 -0.97874755
00000000: 2521 8bbe def2 f0bd 1dd8 d9be 812c 0ebe
00000010: b034 b0bd c1d9 19bd a6c1 14be 7d3e 83be
00000020: 8622 92bf 67d5 aabe 49c8 2cbf 9321 33be
00000030: 76e9 73be 8ddc babd 7171 78bd 338f 7abf

running_mean f4 [16]
-1.0986025 -2.9900978 -0.33453104 -1.676753 -2.5255337 1.9950758 0.21385443 -0.86604357
1.3871589 -0.17543492 3.2148588 -1.1779222 0.21628976 -1.8494239 -3.86634 0.14456677
00000000: 029f 8cbf c35d 3fc0 a747 abbe d89f d6bf
00000010: 58a2 21c0 a55e ff3f a8fc 5a3e 08b5 5dbf
00000020: 6c8e b13f 36a5 33be 3fc0 4d40 28c6 96bf
00000030: 107b 5d3e ecb9 ecbf 1d72 77c0 5009 143e

running_var f4 [16]
55.551 62.771076 12.735483 20.089367 48.54708 18.969799 21.835588 24.922756
12.260515 23.451597 10.799913 36.45781 41.257416 26.639542 65.37624 16.079464
00000000: 3934 5e42 9515 7b42 8ac4 4b41 06b7 a041
00000010: 3630 4242 26c2 9741 49af ae41 ce61 c741
00000020: 122b 4441 df9c bb41 72cc 2c41 ccd4 1142
00000030: 9807 2542 c81d d541 a3c0 8242 bea2 8041

weight f4 [16, 16, 3, 3]
0.42830473 0.053187978 -0.13346231 0.87432075 0.84087765 0.9541465 1.118194 0.76454717
0.8339236 0.2110401 0.41108206 0.47409844 0.40146825 0.6043044 0.6024455 0.10707638
0.5139064 0.5443844 0.21783142 0.07012113 0.06424093 0.04937032 -0.15783563 -0.109835565
0.26381105 0.115239106 0.21233805 0.471484 0.13424666 0.20002061 0.21475041 0.37331626
0.34893718 -0.08096097 0.0893629 0.17591508 0.08361921 0.46909398 0.37966672 0.06811575
0.20750248 0.29912207 0.24951828 0.2683163 0.41847876 0.13834563 0.34794888 0.21486235
-0.03266626 0.09754562 0.06362715 0.16348718 -0.054140747 -0.009620429 -0.24576096 0.16297844
0.10768015 -0.54649 -0.015934646 0.19289921 -0.4577701 0.09883453 -0.06504532 -0.0044814753
-0.18599696 -0.5333238 0.34308437 0.16448215 -0.18557729 0.5844337 0.3520802 0.26528028
0.048368152 -0.39490193 -0.33656856 0.028431071 -0.2765897 -0.08667974 0.30067265 0.1527729
0.3284728 0.110576615 -0.0036555065 -0.1667897 0.31612927 0.22758652 0.08824601 0.313299
0.28125027 0.34807795 -0.28920516 0.023969602 0.30334195 -0.1429973 -0.03424577 0.2223315
-0.043879386 -0.057108544 0.026652819 -0.16089253 0.006797658 -0.41788247 -0.104153275 -0.13295597
-0.36453068 -0.16552654 -0.3047667 -0.43350485 -0.18790169 -0.43024334 -0.5024061 -0.6158652
-0.33679932 -0.16405131 -0.38908696 -0.22109754 -0.025535753 0.41152442 0.24906613 0.10949492
-0.29286277 -0.18968913 0.046138056 -0.5232895 -0.22818404 0.14566416 -0.19088598 -0.37186134
-1.0165691 -0.101344764 -0.023190852 -0.30030864 0.17452122 0.27773008 0.2771345 0.07188805
0.005572598 0.31829548 0.20180435 0.1395525 0.22194721 0.33755538 0.04306145 -0.21544603
0.15418664 0.069587104 0.18404484 -0.13571286 -0.031967316 0.26163593 0.06437977 0.05330072
0.393053 0.18899031 0.41350856 0.18413353 0.30318934 0.20950708 0.09908463 0.33091354
0.2017886 -0.024414364 0.30251667 0.3716015 0.33256975 -0.118849136 -0.0111994585 -0.10797585
0.14813149 0.16853984 -0.07458852 0.17390384 -0.18261692 0.14589658 0.30187538 0.035450585
0.27886194 -0.40329066 -0.34548044 -0.20634004 -0.07888591 0.26639995 0.48389596 -0.038881417
-0.006735017 0.31508118 0.08045622 0.26570877 0.0783204 0.0040089856 0.113885656 -0.1585002
0.07055225 0.19588985 0.083456196 0.052129976 -0.004478937 0.13609214 0.26226655 0.19844256
-0.3484229 -0.05344836 -0.10973112 -0.44014528 -0.68903834 -0.44041085 -0.7678294 0.033285312
-0.20542845 -0.4022161 -0.0052442853 -0.1897508 0.007674193 -0.21029684 -0.38832733 -0.09478285
-0.11244408 -0.18022668 -0.29860526 0.45729503 0.18082145 0.021739528 0.384678 0.18286687
0.2721141 0.22381118 0.1782276 0.27858272 -0.38423446 -0.06643248 -0.056047086 -0.3826759
0.14266385 0.26171094 0.20845354 0.0067272508 -0.28699028 0.043175824 0.037821088 0.013554181
-0.49833125 -0.09171963 0.13631918 0.1036905 0.09778167 0.2802328 0.042036377 0.08593189
0.012787303 -0.15197466 -0.042824414 -0.13563262 -0.1734284 -0.27712587 -0.20173685 -0.10637934
00000000: c24a db3e a3db 593d 58aa 08be 7cd3 5f3f
00000010: c243 573f f242 743f fb20 8f3f 5db9 433f
00000020: 047c 553f e51a 583e 5979 d23e 08bd f23e
00000030: 3f8d cd3e b1b3 1a3f de39 1a3f dc4a db3d
00000040: 5f8f 033f c75c 0b3f 330f 5f3e ab9b 8f3d
00000050: c090 833d 8838 4a3d aa9f 21be 78f1 e0bd
00000060: 3e12 873e 7b02 ec3d 256f 593e 5a66 f13e
00000070: f577 093e 34d2 4c3e 88e7 5b3e 4f23 bf3e
00000080: e5a7 b23e ddce a5bd e503 b73d 1523 343e
00000090: 8c40 ab3d 162d f03e ad63 c23e 4580 8b3d
000000a0: 887b 543e 8726 993e b881 7f3e c160 893e
000000b0: d942 d63e 7aaa 0d3e 5b26 b23e e004 5c3e
000000c0: 0ecd 05bd ffc5 c73d f44e 823d 2f69 273e
000000d0: b0c2 5dbd 019f 1dbc c3a8 7bbe d2e3 263e
000000e0: 6987 dc3d c5e6 0bbf 6089 82bc 5f87 453e
000000f0: d860 eabe c269 ca3d 7b36 85bd 57d9 92bb
00000100: fd75 3ebe e987 08bf c1a8 af3e 026e 283e
00000110: f907 3ebe 729d 153f db43 b43e d1d2 873e
00000120: af1d 463d 9630 cabe b752 acbe 47e8 e83c
00000130: 2a9d 8dbe 2685 b1bd c4f1 993e 8070 1c3e
00000140: 962d a83e fe75 e23d 3991 6fbb ebca 2abe
00000150: b2db a13e 710c 693e 53ba b43d ba68 a03e
00000160: 0900 903e 4637 b23e b312 94be e65b c43c
00000170: a34f 9b3e e26d 12be 4b45 0cbd deaa 633e
00000180: dfba 33bd a6ea 69bd 0357 da3c 03c1 24be
00000190: e3be de3b b1f4 d5be 504e d5bd 9c25 08be
000001a0: c4a3 babe ca7f 29be 620a 9cbe 59f4 ddbe
000001b0: 4d69 40be db48 dcbe b09d 00bf 57a9 1dbf
000001c0: f670 acbe 11fd 27be 6836 c7be 6567 62be
000001d0: 5b30 d1bc 54b3 d23e 310b 7f3e df3e e03d
000001e0: 1cf2 95be de3d 42be 42fb 3c3d 4df6 05bf
000001f0: 14a9 69be fc28 153e 9d77 43be 9c64 bebe
00000200: f01e 82bf d88d cfbd befa bdbc 0ec2 99be
00000210: b1b5 323e a332 8e3e 93e4 8d3e 0b3a 933d
00000220: 579a b63b a0f7 a23e cda5 4e3e dae6 0e3e
00000230: 2146 633e 0fd4 ac3e 3461 303d e29d 5cbe
00000240: 1ae3 1d3e af83 8e3d 4076 3c3e 50f8 0abe
00000250: 29f0 02bd 25f5 853e 8ad9 833d db51 5a3d
00000260: 3e3e c93e ad86 413e 65b7 d33e 808d 3c3e
00000270: a23b 9b3e 0689 563e e2ec ca3d 806d a93e
00000280: aca1 4e3e a200 c8bc 77e3 9a3e 8d42 be3e
00000290: 9546 aa3e 2d67 f3bd ef7d 37bc 7122 ddbd
000002a0: c8af 173e b595 2c3e dec1 98bd d913 323e
000002b0: eeff 3abe ea65 153e 698f 9a3e a234 113d
000002c0: fec6 8e3e 1d7c cebe d0e2 b0be ce4a 53be
000002d0: f08e a1bd 9365 883e 36c1 f73e 1f42 1fbd
000002e0: 6bb1 dcbb 5252 a13e 3bc6 a43d fb0a 883e
000002f0: 7266 a03d cf5d 833b e23c e93d e04d 22be
00000300: b37d 903d 5997 483e 15eb aa3d 3e86 553d
00000310: 0cc4 92bb bd5b 0b3e cd47 863e 8734 4b3e
00000320: 7d64 b2be abec 5abd b6ba e0bd b95a e1be
00000330: d164 30bf 887d e1be 7890 44bf 2e56 083d
00000340: d65b 52be 45ef cdbe 41d8 abbb 094e 42be
00000350: cc77 fb3b 0e58 57be d7d2 c6be 831d c2bd
00000360: 1549 e6bd 588d 38be cae2 98be 9322 ea3e
00000370: 4229 393e 1817 b23c 84f4 c43e 7441 3b3e
00000380: 8a52 8b3e c22e 653e 4c81 363e 65a2 8e3e
00000390: 61ba c4be c10d 88bd a191 65bd 18ee c3be
000003a0: 7916 123e fafe 853e d874 553e 4570 dc3b
000003b0: 64f0 92be 22d9 303d 49ea 1a3d 5b12 5e3c
000003c0: 4625 ffbe 80d7 bbbd 4197 0b3e af5b d43d
000003d0: c241 c83d ac7a 8f3e 562e 2c3d 0ffd af3d
000003e0: d681 513c 3f9f 1bbe a768 2fbd 47e3 0abe
000003f0: 3797 31be 71e3 8dbe 1b94 4ebe 69dd d9bd

weight f4 [16]
3.0020876 3.050455 2.7788801 2.5683093 3.3450518 2.1538002 2.973229 2.4238327
2.27878 2.7647414 2.7430637 2.8874507 2.486895 3.0092564 2.7203908 2.3653219
00000000: 3422 4040 a83a 4340 2cd9 3140 2e5f 2440
00000010: 5415 5640 ddd7 0940 6249 3e40 1320 1b40
00000020: 88d7 1140 86f1 3040 5b8e 2f40 fecb 3840
00000030: 4a29 1f40 a897 4040 e21a 2e40 6f61 1740

bias f4 [16]
-0.34429553 -0.20229763 -0.50822926 0.4012863 0.58188 0.46410966 0.79119474 -0.4163932
-0.23919636 0.25737557 0.35880896 0.31052583 -0.16128749 -0.022066845 -0.09428669 -0.12289601
00000000: 8147 b0be 1c27 4fbe 501b 02bf 6675 cd3e
00000010: 16f6 143f c89f ed3e bd8b 4a3f 7d31 d5be
00000020: e4ef 74be bbc6 833e cfb5 b73e 3efd 9e3e
00000030: 8c28 25be 87c5 b4bc 6119 c1bd e7b0 fbbd

running_mean f4 [16]
1.1620775 -0.117406145 0.23819725 0.67945415 -0.4633436 -0.31115514 1.6431203 1.0326144
-0.06947999 -0.5098553 -0.23491924 -0.63187605 0.68931395 -0.94185686 -0.5255105 -0.15421547
00000000: f5be 943f a272 f0bd fbe9 733e b5f0 2d3f
00000010: 5f3b edbe ba4f 9fbe c451 d23f b52c 843f
00000020: 864b 8ebd e085 02bf ab8e 70be a1c2 21bf
00000030: e176 303f 881d 71bf db87 06bf a9ea 1dbe

running_var f4 [16]
1.071472 0.97030354 0.79066265 0.9484646 0.74650985 1.2955687 1.150445 0.5898144
1.0215932 1.0613828 0.7509318 0.98827 0.5721091 0.6325463 0.86698484 1.4986421
00000000: ff25 893f d065 783f de68 4a3f 93ce 723f
00000010: 451b 3f3f 32d5 a53f c841 933f 14fe 163f
00000020: 91c3 823f 64db 873f 113d 403f 43ff 7c3f
00000030: be75 123f 8eee 213f b8f2 5d3f 81d3 bf3f

weight f4 [16, 16, 3, 3]
-0.4757759 -0.32046688 -0.15550321 -0.26455754 0.0957124 0.08946506 -0.4297753 -0.10546578
-0.09604316 -0.017970536 0.22441603 0.022411631 0.12128938 0.16565152 -0.1926398 -0.1346121
-0.018391531 -0.346294 -0.1417059 -0.47735393 -0.083558455 -0.11310348 -0.2680563 0.15693122
0.44404277 0.29407212 0.5191391 0.3769855 -0.07133686 -0.11134869 0.10594709 -0.045987036
-0.14959177 0.052158087 -0.06316896 -0.09241855 0.09628434 0.043184455 0.26118806 -0.15263553
-0.115441196 0.13110302 0.38056266 0.1715921 0.42192045 0.4012277 -0.08527849 -0.053818457
0.7744464 0.18859065 0.23934954 0.69954306 0.45356473 0.7042138 0.16479218 -0.083954714
0.4497574 -0.21299748 -0.1292368 0.31145108 0.09899641 0.04138958 0.23866804 0.12701476
0.2572656 -0.16229962 0.15593815 0.25037417 -0.0550852 -0.2763297 -0.033573143 -0.197599
0.68334854 0.666676 0.65496284 0.36664712 0.089825295 0.07714432 0.18354589 -0.054952625
-0.1347932 -0.27995348 0.05841837 -0.114154264 0.17586254 0.4811491 -0.013227853 -0.39273018
-0.10884684 -0.32547513 0.39305174 0.34739107 0.25754777 0.1612709 0.18789989 -0.043010253
-0.0054229237 -0.10131474 -0.23577736 -0.04217717 0.2766553 0.11393587 0.033363197 0.31001166
0.14575607 -0.04334398 0.1921566 0.017866507 -0.4147544 -0.2765985 -0.26198778 0.0174521
-0.20592634 -0.11768877 0.27958944 0.13986695 0.21450092 0.22941825 0.42897663 0.77097696
-0.32451886 -0.17670004 0.12835114 -0.73386043 -0.49056813 -0.5942498 -0.5263824 -0.101854526
0.29285866 -0.36180156 0.039090183 0.21315227 -0.27222016 -0.019940296 0.15167183 0.23588905
0.22151564 0.18239556 0.23076001 0.3492629 0.16075008 0.04712349 0.14719447 0.02792755
-0.25573248 0.06608686 0.26171407 -0.36312544 -0.19618286 -0.25003278 -0.33209804 -0.16663978
-0.1928503 0.62831444 0.41735676 0.32988387 0.08154955 0.13068953 -0.0004350832 -0.058384247
-0.0041425657 -0.03173463 -0.3886503 -0.4300648 -0.21088667 -0.019107176 0.0674835 0.04418346
0.25176024 -0.03691428 -0.1774757 0.06281163 -0.13336234 -0.02536603 -0.05746354 -0.06752651
-0.053356204 0.047352985 0.06192508 0.21836552 0.47149348 0.20136291 -0.042239685 0.5271915
0.1633211 -0.1615062 0.06764689 -0.3172706 -0.4923323 -0.04291718 0.30847242 0.7678294
-0.24768053 -0.36885265 0.0022906195 -0.0335871 -0.35692945 -0.20295404 -0.052387442 -0.11229174
-0.21455371 0.06547248 -0.016797477 0.056307137 0.3185435 0.17431946 0.14830692 0.10811333
-0.22437899 -0.06640362 0.14194472 0.108376235 0.22306629 0.21764196 0.18645571 0.26139104
-0.031611446 -0.28997076 -0.43360546 0.22355583 0.03894884 -0.14052157 0.15711538 0.1138288
-0.013033631 -0.12151834 0.36852497 0.44026452 -1.0284799 -0.6381154 -0.41377756 -0.9678297
-0.35455018 -0.49049425 -0.25158566 -0.084132515 0.2754581 -0.1558964 0.17475772 0.56007826
-0.016617324 0.215763 0.4462585 0.45903522 0.0058755022 -0.16222876 -0.031009978 -0.16299117
0.024720484 -0.2523732 -0.047672328 0.19947048 -0.22360928 -0.40133017 -0.2793228 0.1974484
00000000: e698 f3be 3c14 a4be 3c3c 1fbe 1674 87be
00000010: dd04 c43d 7539 b73d 820b dcbe 71fe d7bd
00000020: 47b2 c4bd f236 93bc 51cd 653e 9998 b73c
00000030: 9166 f83d 8da0 293e 5e43 45be c1d7 09be
00000040: d6a9 96bc 724d b1be 5a1b 11be bc67 f4be
00000050: b220 abbd cca2 e7bd ad3e 89be 94b2 203e
00000060: 9359 e33e 9f90 963e 4de6 043f 3e04 c13e
00000070: 0f19 92bd c80a e4bd cafa d83d e75c 3cbd
00000080: 962e 19be b8a3 553d ba5e 81bd f045 bdbd
00000090: b930 c53d 2fe2 303d 71ba 853e 7d4c 1cbe
000000a0: 6f6c ecbd df3f 063e 1cd9 c23e d7b5 2f3e
000000b0: f505 d83e b86d cd3e 7da6 aebd be70 5cbd
000000c0: 1f42 463f e81d 413e 0c18 753e 4115 333f
000000d0: a339 e83e 5b47 343f 48bf 283e 73f0 abbd
000000e0: 9a46 e63e 031c 5abe a756 04be 8476 9f3e
000000f0: a1be ca3d 1f88 293d 6565 743e 2810 023e
00000100: 51b8 833e df31 26be 40ae 1f3e 0b31 803e
00000110: 05a1 61bd 167b 8dbe fe83 09bd 6457 4abe
00000120: eeef 2e3f 47ab 2a3f a5ab 273f 2cb9 bb3e
00000130: 53f6 b73d d7fd 9d3d 74f3 3b3e 0116 61bd
00000140: 3b07 0abe 1056 8fbe 1a48 6f3d b6c9 e9bd
00000150: 4f15 343e 2d59 f63e a3b9 58bc ee13 c9be
00000160: 18eb debd ada4 a6be 143e c93e 3edd b13e
00000170: 4ddd 833e 3324 253e d468 403e 852b 30bd
00000180: c8b2 b1bb 1a7e cfbd 9f6f 71be f8c1 2cbd
00000190: c3a5 8d3e 3657 e93d d9a7 083d d9b9 9e3e
000001a0: 1441 153e 7589 31bd b3c4 443e c85c 923c
000001b0: b05a d4be 529e 8dbe 4323 86be b5f7 8e3c
000001c0: 5bde 52be cf06 f1bd 5926 8f3e 4839 0f3e
000001d0: 21a6 5b3e 9eec 6a3e d3a2 db3e bf5e 453f
000001e0: 5627 a6be dbf0 34be 7b6e 033e 47de 3bbf
000001f0: bf2b fbbe c120 18bf ffc0 06bf 1b99 d0bd
00000200: 92f1 953e 0e3e b9be 071d 203d 9744 5a3e
00000210: 7160 8bbe d559 a3bc dc4f 1b3e e68c 713e
00000220: ffd4 623e e7c5 3a3e 5a4c 6c3e 96d2 b23e
00000230: ab9b 243e 9004 413d 26ba 163e 51c8 e43c
00000240: 5eef 82be 8c58 873d 63ff 853e 94eb b9be
00000250: 29e4 48be 4c04 80be c108 aabe 9ea3 2abe
00000260: 8d7a 45be 37d9 203f c9af d53e 8ae6 a83e
00000270: 7303 a73d 7ad3 053e e11b e4b9 5224 6fbd
00000280: 5cbe 87bb 2cfc 01bd 2cfd c6be 7431 dcbe
00000290: adf2 57be a786 9cbc ca34 8a3d b7f9 343d
000002a0: b8e6 803e 6e33 17bd 31bc 35be 62a3 803d
000002b0: 2390 08be 6ccc cfbc e45e 6bbd 574b 8abd
000002c0: 098c 5abd 34f5 413d 27a5 7d3d 369b 5f3e
000002d0: 9867 f13e 1432 4e3e 8503 2dbd 06f6 063f
000002e0: a53d 273e e261 25be 748a 8a3d 4b71 a2be
000002f0: fb12 fcbe edc9 2fbd 19f0 9d3e 7890 443f
00000300: f79f 7dbe 41da bcbe 381e 163b a192 09bd
00000310: 75bf b6be 2fd3 4fbe 3794 56bd 36f9 e5bd
00000320: f8b3 5bbe 7016 863d dd9a 89bc 50a2 663d
00000330: 2218 a33e cd80 323e c5dd 173e 866a dd3d
00000340: 9bc3 65be 9ffe 87bd f559 113e 5cf4 dd3d
00000350: 7d6b 643e 89dd 5e3e 3fee 3e3e 0cd5 853e
00000360: 017b 01bd 0c77 94be 8901 debe d2eb 643e
00000370: d288 1f3d e3e4 0fbe dbe2 203e 131f e93d
00000380: 038b 55bc 9cde f8bd 4eaf bc3e 5a6a e13e
00000390: 3ba5 83bf 885b 23bf a7da d3be b0c3 77bf
000003a0: 9a87 b5be 1022 fbbe d6cf 80be ab4d acbd
000003b0: d808 8d3e 4ea3 1fbe b0f3 323e 4a61 0f3f
000003c0: 0e21 88bc faf0 5c3e fe7b e43e aa06 eb3e
000003d0: 4987 c03b 4c1f 26be a308 febc 28e7 26be
000003e0: 9d82 ca3c 0f37 81be 0f44 43bd fd41 4c3e
000003f0: d5f9 64be 267b cdbe 6603 8fbe ea2f 4a3e

weight f4 [16]
0.7203168 1.0621326 0.9074715 1.1483408 1.2314856 1.2477189 1.0170087 0.85614413
1.0759124 0.7566443 1.3742721 0.781536 1.3402154 0.8465791 0.9569373 1.4567055
00000000: af66 383f f6f3 873f 0d50 683f d5fc 923f
00000010: 52a1 9d3f 41b5 9f3f 572d 823f 432c 5b3f
00000020: 7fb7 893f 71b3 413f 26e8 af3f be12 483f
00000030: 2e8c ab3f 68b9 583f d8f9 743f 5375 ba3f

bias f4 [16]
-0.87122697 -0.0055881175 -1.096446 -0.28174552 -0.36640516 0.044200502 0.012111156 -0.6717948
0.036635775 -0.7091292 -0.22276685 -0.9634229 -0.54208213 -0.6545512 -0.5056397 -0.24433412
00000000: bb08 5fbf 871c b7bb 5858 8cbf f340 90be
00000010: 7599 bbbe 960b 353d df6d 463c befa 2bbf
00000020: 650f 163d 7e89 35bf fe1c 64be e2a2 76bf
00000030: e5c5 0abf ab90 27bf 9a71 01bf b932 7abe

running_mean f4 [16]
8.548036 -4.60132 -0.21575466 -7.4964347 -4.378394 -9.566346 2.455739 0.42155105
-7.1542325 1.1785624 -4.970548 0.08236157 -4.2560587 -7.949474 0.57936215 -4.884341
00000000: c1c4 0841 033e 93c0 caee 5cbe cbe2 efc0
00000010: ce1b 8cc0 c10f 19c1 d42a 1d40 8ad5 d73e
00000020: 79ef e4c0 22db 963f bb0e 9fc0 2fad a83d
00000030: a231 88c0 1762 fec0 1451 143f 854c 9cc0

running_var f4 [16]
77.22208 158.48904 93.61302 120.56004 130.3002 397.92346 174.19418 109.02184
393.97415 121.08368 314.21268 98.52808 137.34663 149.24142 154.7065 321.1718
00000000: b471 9a42 327d 1e43 de39 bb42 be1e f142
00000010: da4c 0243 34f6 c643 b631 2e43 2f0b da42
00000020: b1fc c443 d82a f242 391b 9d43 610e c542
00000030: bd58 0943 ce3d 1543 ddb4 1a43 fe95 a043

weight f4 [16, 16, 3, 3]
-0.16421281 -0.22397447 -0.25676063 -0.015416028 -0.008902996 -0.12841831 -0.108897634 -0.03169551
-0.17988697 0.06438953 -0.13015795 -0.46674234 0.011133619 0.067627296 -0.27710637 0.0021730175
-0.18781787 -0.7221387 0.09831702 -0.048322245 -0.078070335 0.12559538 -0.130044 -0.09952397
0.08125919 -0.123987466 -0.11225443 -0.49678606 -0.24488151 -0.308942 -0.12944467 -0.054327615
-0.32212898 -0.12662645 -0.110416554 -0.26558354 0.37563545 0.19737424 0.23268692 0.115091205
0.027568793 0.00075183733 -0.038310386 -0.015497239 0.059269544 -0.24368417 -0.2708939 -0.19502792
-0.08949608 -0.039358385 -0.13835403 -0.1614237 -0.22684044 -0.36408606 -0.39187124 0.026381174
-0.24494727 -0.40786648 0.0031552461 -0.21463987 -0.5804993 -0.18667914 -0.2813672 -0.08900548
-0.03239838 -0.11155095 -0.03427473 -0.009212707 -0.014290744 -0.098218605 -0.14312708 -0.2745285
-0.42284143 -0.40688106 -0.3219951 -0.32404393 -0.1866956 -0.11710593 -0.28272095 -0.20324361
-0.13793136 0.2001871 0.19340046 0.47728735 0.18612008 0.18813947 0.39160147 0.31856573
0.29789242 0.5896338 0.9365672 0.33105516 0.42732897 0.6181532 0.32319802 0.6578411
0.617431 0.53180134 1.0269365 0.14076659 0.048289575 -0.007273847 0.072869 0.058429476
0.028558364 0.17381977 0.03633899 0.17124063 -0.10672346 -0.16031767 -0.35102156 -0.07780814
-0.030787032 -0.32330212 -0.2318644 -0.36867583 -0.63396513 -0.10979227 -0.07956779 -0.038493104
0.1051574 0.1202545 0.098599315 0.22118309 0.2166194 0.21847947 0.1465592 0.1246512
0.09585585 0.11798922 0.018921223 0.13298468 0.33162072 0.2145953 0.43636826 0.25801077
0.20839663 0.15863445 0.28537178 0.20603576 0.3091293 0.45691517 0.17243387 0.27165154
-0.52301294 -0.37421057 -0.50922954 -0.29051542 -0.18431404 -0.31525537 -0.44616112 -0.4794547
-0.54907835 0.17522097 0.13591483 0.09181476 0.1580225 0.065437004 0.09031769 0.14982674
-0.02510728 -0.0371052 -0.058073997 -0.00053932116 0.07198397 0.19981954 0.05560478 0.12224528
0.17750087 0.14045149 0.1568497 -0.110391736 -0.14163835 -0.43833154 -0.09541864 -0.10289437
-0.43942127 -0.07591679 -0.13332808 -0.38627666 0.37541747 0.23663794 -0.08955695 -0.031715043
0.018901605 -0.18437706 -0.30884093 -0.29548407 -0.25098237 -0.29636136 -0.17753145 0.11903906
-0.22065447 -0.14323421 -0.034959618 -0.2651205 -0.27341107 -0.29966715 0.3904611 0.25783607
0.10805425 0.016090903 -0.11344837 -0.04357697 0.06795528 0.08841581 0.102779515 0.6255611
0.28564164 0.5478705 0.47821066 0.041810617 0.30604878 0.744219 0.31058562 0.33907494
0.16890389 -0.107394256 -0.19420917 -0.045234848 -0.3007896 -0.26998276 -0.0060447645 -0.13080165
-0.14578609 -0.26026836 -0.12708764 -0.035539556 -0.20365924 -0.14772187 -0.12896541 -0.24056065
-0.24796899 -0.27203223 -0.27803302 -0.3461352 -0.47467974 -0.2213756 -0.36219364 -0.36752954
-0.023181738 -0.09226847 -0.18844092 0.26319742 0.12384963 0.24206257 0.23531914 0.04552687
0.2107517 0.26919276 0.118858464 0.36304963 0.47270605 0.19814031 0.23876862 0.29074845
00000000: 6727 28be 9059 65be 2176 83be 8293 7cbc
00000010: dfdd 11bc 1780 03be b905 dfbd 27d3 01bd
00000020: 4a34 38be a8de 833d 2048 05be daf8 eebe
00000030: c869 363c 2e80 8a3d e3e0 8dbe 2f69 0e3b
00000040: 5453 40be 15de 38bf 6f5a c93d 8ced 45bd
00000050: 57e3 9fbd 139c 003e 412a 05be 39d3 cbbd
00000060: 386b a63d 24ed fdbd a7e5 e5bd be5a febe
00000070: 38c2 7abe a52d 9ebe 258d 04be a286 5ebd
00000080: 17ee a4be 5daa 01be 1322 e2bd 91fa 87be
00000090: 4a53 c03e 791c 4a3e 7b45 6e3e f0b4 eb3d
000000a0: f3d7 e13c f316 453a 5aeb 1cbd 22e8 7dbc
000000b0: 9fc4 723d 5888 79be 9bb2 8abe 66b5 47be
000000c0: b949 b7bd 4236 21bd aeac 0dbe 414c 25be
000000d0: dc48 68be 7d69 babe 59a3 c8be 551d d83c
000000e0: 75d3 7abe e0d3 d0be 3fc8 4e3b 8eca 5bbe
000000f0: 9a9b 14bf d128 3fbe 5d0f 90be 8148 b6bd
00000100: 2ab4 04bd d374 e4bd a963 0cbd e5f0 16bc
00000110: ba23 6abc d626 c9bd e88f 12be 008f 8cbe
00000120: ac7e d8be b752 d0be 8bdc a4be 16e9 a5be
00000130: 222d 3fbe 3cd5 efbd cdc0 90be 181f 50be
00000140: e13d 0dbe d9fd 4c3e c50a 463e 025f f43e
00000150: 4396 3e3e a2a7 403e fd7f c83e 0c1b a33e
00000160: 5b85 983e 3ef2 163f dec2 6f3f 1080 a93e
00000170: ddca da3e 4a3f 1e3f 367a a53e 4668 283f
00000180: f50f 1e3f 2224 083f a872 833f 1e25 103e
00000190: 4acb 453d 7359 eebb 583c 953d bf53 6f3d
000001a0: 3bf3 e93c cffd 313e 31d8 143d b459 2f3e
000001b0: d491 dabd 512a 24be 19b9 b3be e059 9fbd
000001c0: 1635 fcbc db87 a5be dc6d 6dbe 14c3 bcbe
000001d0: 8a4b 22bf c5da e0bd 70f4 a2bd f2aa 1dbd
000001e0: c35c d73d fe47 f63d 70ee c93d d27d 623e
000001f0: 7ad1 5d3e 15b9 5f3e 9d13 163e 2149 ff3d
00000200: 1250 c43d 55a4 f13d ae00 9b3c 232d 083e
00000210: 31ca a93e dfbe 5b3e a96b df3e fd19 843e
00000220: ed65 553e 1271 223e 401c 923e 0afb 523e
00000230: 3246 9e3e c9f0 e93e 8192 303e e915 8b3e
00000240: 2de4 05bf 8798 bfbe de5c 02bf 70be 94be
00000250: d2bc 3cbe 2769 a1be 3b6f e4be 167b f5be
00000260: 6690 0cbf 206d 333e 422d 0b3e 6009 bc3d
00000270: a6d0 213e d603 863d 7bf8 b83d 2e6c 193e
00000280: c8ad cdbc 9ffb 17bd 00df 6dbd 3b61 0dba
00000290: 556c 933d 7e9d 4c3e d6c1 633d bc5b fa3d
000002a0: cac2 353e 84d2 0f3e 359d 203e 1015 e2bd
000002b0: a509 11be fe6c e0be d96a c3bd 49ba d2bd
000002c0: d3fb e0be 437a 9bbd 2887 08be 0ec6 c5be
000002d0: b836 c03e 3751 723e a269 b7bd a2e7 01bd
000002e0: 8ad7 9a3c 57cd 3cbe 6620 9ebe b049 97be
000002f0: c380 80be adbc 97be ceca 35be c0ca f33d
00000300: 3ff3 61be fdab 12be d131 0fbd e0bd 87be
00000310: 89fc 8bbe f96d 99be 84ea c73e 1703 843e
00000320: 8c4b dd3d 12d1 833c 9e57 e8bd c47d 32bd
00000330: 232c 8b3d 5913 b53d 117e d23d c624 203f
00000340: 9f3f 923e 3e41 0c3f 07d8 f43e 9c41 2b3d
00000350: 6db2 9c3e 2385 3e3f 1405 9f3e 3b9b ad3e
00000360: 24f5 2c3e 85f1 dbbd c5de 46be 2d48 39bd
00000370: 1801 9abe 2e3b 8abe 2913 c6bb def0 05be
00000380: f348 15be e541 85be 4323 02be ed91 11bd
00000390: 0c8c 50be 6744 17be 820f 04be 8855 76be
000003a0: 95eb 7dbe cf47 8bbe 585a 8ebe a238 b1be
000003b0: 3909 f3be 49b0 62be 7271 b9be d52c bcbe
000003c0: a1e7 bdbc 40f7 bcbd a8f6 40be d0c1 863e
000003d0: e0a4 fd3d 40df 773e 80f7 703e 627a 3a3d
000003e0: 4bcf 573e a2d3 893e 116c f33d a4e1 b93e
000003f0: 8706 f23e 4be5 4a3e c37f 743e fbdc 943e

weight f4 [16]
4.8664327 5.3786087 4.964633 5.119666 5.9117646 6.3763814 6.20301 5.25889
4.8618298 5.3150983 5.018921 5.29499 4.8192325 5.1002617 5.360819 4.602146
00000000: d1b9 9b40 901d ac40 46de 9e40 4ed4 a340
00000010: 2d2d bd40 510b cc40 0f7f c640 d448 a840
00000020: 1c94 9b40 4915 aa40 009b a040 8f70 a940
00000030: 2737 9a40 5835 a340 d48b ab40 c844 9340

bias f4 [16]
0.5354961 0.72056663 0.5776711 0.45693305 0.6990494 0.6150591 0.8622619 0.5278287
0.6788008 0.33889806 0.42257488 0.46520934 0.72275996 0.42901522 0.5077687 0.13249116
00000000: 4616 093f 0e77 383f 41e2 133f 21f3 e93e
00000010: e7f4 323f 8374 1d3f 32bd 5c3f c81f 073f
00000020: e4c5 2d3f 0c84 ad3e bc5b d83e eb2f ee3e
00000030: cc06 393f e2a7 db3e 21fd 013f c3ab 073e

running_mean f4 [16]
-0.65656286 -0.6857726 0.07046348 0.0076595643 -1.0210344 1.0309194 -0.8586208 -0.16294569
0.5446112 1.8175431 0.3883904 -0.33490476 -0.48600304 0.8082166 0.99939907 1.3912802
00000000: 8114 28bf cb8e 2fbf 284f 903d 15fd fa3b
00000010: 41b1 82bf 2bf5 833f 93ce 5bbf 3cdb 26be
00000020: a46b 0b3f 41a5 e83f 1bdb c63e a378 abbe
00000030: 64d5 f8be 48e7 4e3f 9ed8 7f3f 7815 b23f

running_var f4 [16]
2.8994644 2.3372371 2.5827487 1.8325555 2.3488445 5.6894283 4.3754935 2.7384424
5.046257 3.3989537 2.1433175 2.2204516 2.3599 2.4501655 3.5405688 3.3973956
00000000: d390 3940 4b95 1540 c14b 2540 2e91 ea3f
00000010: 7853 1640 cc0f b640 0b04 8c40 a442 2f40
00000020: f07a a140 7588 5940 1d2c 0940 e11b 0e40
00000030: 9a08 1740 83cf 1c40 ae98 6240 ee6e 5940

weight f4 [10, 16]
2.1753118 0.2106073 -1.1558685 -0.4851291 -1.2360301 -1.0423639 0.11576898 0.8769111
-0.3830855 -1.0339724 -1.5264435 1.1082661 1.8695608 -2.2461374 -0.090893194 0.47631717
-0.67792225 -2.3088286 1.3545624 -1.3083287 0.026203375 0.88678354 -0.8907934 -0.53608906
0.62713444 0.42647022 -2.0390742 -2.201486 1.7799016 0.03242234 0.53579026 1.3027935
-0.572797 1.5159473 -2.6798873 -1.2289108 0.13909417 -0.6241436 1.0885514 -2.3962584
0.8678456 1.7421914 0.064584136 -0.6243427 -0.91129535 -0.5969794 1.536176 -1.4156238
1.3046119 -0.26242402 -0.15218167 0.786957 -0.063411266 -0.8023565 0.30585182 -2.153234
2.1489851 -2.1191618 0.24775743 -0.91352254 -1.4553273 2.2962992 -1.3241342 -1.9834394
-2.063194 1.4146926 1.406977 -1.9656975 0.84640276 0.3922982 -2.0683713 -1.2591848
-1.5334268 1.7942374 -1.0734887 1.3409816 -1.7245634 -0.47166866 1.0818418 0.9702076
0.15309182 -1.8650287 -1.2191563 1.6509675 -0.50107145 -1.3167236 0.66790247 0.95726335
-0.36618823 0.23757826 0.86500806 -1.5345904 -0.05172514 0.6713302 -1.8523419 1.516792
-0.21184522 0.52773625 -0.39194238 -0.5746747 -2.3164036 -1.5966419 -1.9261457 2.0850427
-1.0356226 0.90925044 0.83557165 -1.4363494 1.1712044 0.92559755 1.5999035 0.7011054
-1.9646478 -1.8139552 0.74241936 -1.2923813 1.4605362 1.3783957 2.0128987 -1.6142715
0.57775396 -0.32454136 -1.2530314 -0.30545932 -1.323271 -1.6324679 -0.7275147 -0.83487767
-0.3827604 0.80171204 -1.1489809 1.2159193 -1.880149 0.6991648 -0.45756218 0.24969971
-0.8191907 -0.6546533 2.0202737 1.0325575 -1.0276004 0.086255915 0.07471262 -1.7870272
-0.17679934 0.7495569 0.5199963 0.15144584 1.799511 0.4510897 -0.22983259 0.49266845
-2.8168888 -2.653299 0.15522751 1.6878945 -0.44375387 -1.1680993 -2.6062567 -0.81574637
00000000: 4f38 0b40 71a9 573e 80f3 93bf d762 f8be
00000010: 3c36 9ebf 2e6c 85bf 4918 ed3d 3f7d 603f
00000020: c823 c4be 3559 84bf 8062 c3bf aadb 8d3f
00000030: c54d ef3f b7c0 0fc0 3626 babd d8df f33e
00000040: 508c 2dbf d9c3 13c0 4d62 ad3f 5177 a7bf
00000050: 76a8 d63c 3f04 633f 090b 64bf 223d 09bf
00000060: e28b 203f 4e5a da3e 3180 02c0 26e5 0cc0
00000070: d1d3 e33f 4acd 043d 8d29 093f f0c1 a63f
00000080: d3a2 12bf 900a c23f 4683 2bc0 f34c 9dbf
00000090: b46e 0e3e e0c7 1fbf a755 8b3f 4c5c 19c0
000000a0: 212b 5e3f 2100 df3f b044 843d ecd4 1fbf
000000b0: a74a 69bf a4d3 18bf 6aa1 c43f 2933 b5bf
000000c0: 86fd a63f 715c 86be 83d5 1bbe 0476 493f
000000d0: c4dd 81bd 3c67 4dbf 9c98 9c3e 96ce 09c0
000000e0: f988 0940 59a0 07c0 20b4 7d3e 9ddc 69bf
000000f0: 2a48 babf 91f6 1240 3b7d a9bf 58e1 fdbf
00000100: 5f0b 04c0 a614 b53f d317 b43f fa9b fbbf
00000110: daad 583f 4fdb c83e 3260 04c0 f82c a1bf
00000120: 5447 c4bf 92a9 e53f 1468 89bf 49a5 ab3f
00000130: 7ebe dcbf 8e7e f1be cb79 8a3f 865f 783f
00000140: 1ac4 1c3e 43b9 eebf 500d 9cbf e752 d33f
00000150: 3846 00bf 668a a8bf a8fb 2a3f 360f 753f
00000160: 067d bbbe b747 733e 2b71 5d3f 756d c4bf
00000170: bedd 53bd 4cdc 2b3f 8a19 edbf 3e26 c23f
00000180: f4ed 58be b919 073f acac c8be e21d 13bf
00000190: f53f 14c0 c35e ccbf f18b f6bf 5771 0540
000001a0: 488f 84bf a3c4 683f 06e8 553f 4cda b7bf
000001b0: 07ea 953f f6f3 6c3f a3c9 cc3f a57b 333f
000001c0: 9479 fbbf af2f e8bf 320f 3e3f c06c a5bf
000001d0: daf2 ba3f 456f b03f 55d3 0040 73a0 cebf
000001e0: afe7 133f 492a a6be 5563 a0bf 2a65 9cbe
000001f0: f260 a9bf b5f4 d0bf 673e 3abf 8bba 55bf
00000200: 2cf9 c3be 003d 4d3f ce11 93bf 3ea3 9b3f
00000210: b9a8 f0bf 77fc 323f 9745 eabe 48b1 7f3e
00000220: 7bb6 51bf 5c97 27bf 2a4c 0140 d82a 843f
00000230: 6988 83bf f1a6 b03d ee02 993d 4fbd e4bf
00000240: e30a 35be f6e2 3f3f 7a1e 053f 9e14 1b3e
00000250: 6056 e63f 3bf5 e63e 3c59 6bbe 0a3f fc3e
00000260: e847 34c0 a7cf 29c0 f6f3 1e3e ed0c d83f
00000270: b533 e3be 4784 95bf e9cc 26c0 c1d4 50bf

bias f4 [10]
0.10140964 0.3221184 0.41490316 -0.2530073 -0.33951485 -0.35055053 -0.57146525 0.09995255
-0.012867671 0.31444058
00000000: dbaf cf3d b4ec a43e 306e d43e 2c8a 81be
00000010: e4d4 adbe 5c7b b3be 8c4b 12bf ecb3 cc3d
00000020: edd2 52bc 5bfe a03e
