HW2/aML/resnet10_btnk_ch4n8.pt (torch, 94111 bytes, 77 tensors)

weight f4 [4, 3, 7, 7]
000000 e8 d9 ce 3e 6a 3e ef 3d 1b 6d c4 3e 1e 61 6b 3e
       0.40400624 0.116818264 0.3836449 0.22986266
000010 50 a7 1f 3e 48 57 2b 3e 02 21 20 3b 85 4f 94 3d
       0.15591168 0.16732514 0.0024433737 0.0724173
000020 b9 00 60 3e 67 2b 7e 3e 7a 45 0f 3d 8e 92 2e 3c
       0.21875276 0.24821244 0.034978367 0.010655059
000030 c8 07 74 bc 7b 1b 02 bd ca c4 61 39 67 6b 33 3f
       -0.014894433 -0.03176449 0.00021530982 0.7008576
000040 4f 17 78 3e 64 56 5e bd a5 c0 a0 3d d2 a6 a4 bc
       0.24227642 -0.054281607 0.07849244 -0.020099077
000050 0d 4f 27 be 57 7a 31 3e cd 86 22 3f 0d 26 1c 3e
       -0.16338749 0.17331825 0.6348694 0.1524889
000060 4b 6c 24 be 89 fd 9d be 74 07 74 be c2 91 22 be
       -0.16056935 -0.30857494 -0.23830968 -0.15875915
000070 c7 f5 12 3f 74 88 06 3f d1 75 4c 3e 34 0e 05 be
       0.57406276 0.5255196 0.19966818 -0.129937
000080 8f b5 46 3d f7 53 4b bc b5 ee 12 bd c7 84 d2 3e
       0.04851299 -0.0124101555 -0.03587218 0.41116926
000090 6d 02 ba 3b 10 24 fb 3d 2c b4 af 3d d2 6b 38 3d
       0.0056765587 0.12262738 0.08579287 0.0450247
0000a0 bb f1 5a 3e 5a 55 d8 bd 71 18 10 3f 2f 68 23 3e
       0.21381275 -0.105631545 0.56287295 0.15957712
0000b0 ff e5 90 3e c8 06 f5 bc 32 09 be bd 07 d6 0c 3e
       0.28300473 -0.02991046 -0.092790976 0.1375352
0000c0 c9 d1 83 be d2 fe cd 3e 6a 24 ff 3d 9e e4 b5 3e
       -0.2574599 0.40233475 0.12458117 0.35525984
0000d0 09 89 9e 3e 51 96 8d 3e 59 15 13 3e 6d 65 97 bb
       0.30963925 0.27653745 0.14363612 -0.004620245
0000e0 e6 41 27 bd d8 ff 52 3e 6c f4 8c 3e d1 44 87 3d
       -0.04083433 0.20605409 0.2753023 0.066049226
0000f0 53 4c 96 3d 32 8a a6 3c 1b 49 01 be 07 d9 1f 3d
       0.073387764 0.020329569 -0.12625544 0.039025333
000100 7b 97 27 3f 4e e2 a1 3e 95 6b 3e 3c 11 1c ae bc
       0.65465516 0.3161797 0.011622329 -0.021253617
000110 d2 c5 08 be aa d1 27 be 4c bc 9a 3e 1e a9 11 3f
       -0.13356712 -0.16388574 0.30221784 0.5689868
000120 2e f9 59 3e 37 27 c5 bd 95 a5 89 be 74 23 21 be
       0.21286461 -0.0962662 -0.26884142 -0.1573618
000130 06 6d 62 be 45 4c 1c 3f 3e ef 05 3f 48 b3 cf 3d
       -0.22111902 0.6105388 0.5231818 0.10141617
000140 4a 5c da 3b 23 df 0a bd c5 22 68 3d 4c 84 ca bd
       0.0066638337 -0.033904206 0.056673784 -0.09888515
000150 2c 69 cd 3e 7b cc e8 3c 25 d6 61 3e 00 1b 4f 3d
       0.40119302 0.028417816 0.22054346 0.05056286
000160 d1 0a 1e 3e 5f 4d 15 3e 00 0b 6b bc f9 83 18 3f
       0.15433814 0.14580296 -0.014345884 0.59576374
000170 b4 ff 8d 3e 3b 61 5f 3e 47 d6 88 3d f4 b8 bc bc
       0.27734149 0.21814434 0.06681495 -0.023037411
000180 5f ce 13 3c e6 96 b6 be 3b 07 b3 3e a8 ff 17 3e
       0.009021371 -0.35662 0.34966454 0.14843619
000190 fd ce b5 3e 00 dc 79 3e 84 88 74 3e 69 61 6a 3e
       0.35509482 0.2440033 0.23880202 0.22888722
0001a0 d6 72 c6 bd d4 bc 78 bc ac 17 5a 3e 77 9d 53 3e
       -0.09689872 -0.015181739 0.21298093 0.20665537
0001b0 6e fe e9 bc b1 dc 60 bd e1 db 2e bd c2 95 88 bd
       -0.028563704 -0.054897968 -0.04269016 -0.06669189
0001c0 cc 22 cf bd 39 ed 22 3f c8 b0 74 3e 0f bf 92 3c
       -0.10114059 0.63643223 0.23895562 0.01791337
0001d0 cc f7 87 3d 35 03 32 be 9e 3c 1b bd fe e4 57 3e
       0.066390604 -0.17384036 -0.037899606 0.21083447
0001e0 12 46 28 3f 5d 63 85 3e e0 3c 64 be b5 02 93 be
       0.6573192 0.2605237 -0.22288847 -0.28713003
0001f0 14 ba 24 be dd b4 65 be 62 b9 04 3f 13 9c f7 3e
       -0.16086608 -0.22432275 0.5184537 0.48361263
000200 a6 47 0a 3e 46 3a 00 be 33 2f 88 bd 0e 19 a9 3c
       0.13503894 -0.1252223 -0.066496275 0.02064183
000210 16 4b ab bd b4 41 03 3f 90 3f ef 3d 63 07 1a 3e
       -0.08363931 0.5127213 0.116820455 0.1504188
000220 d2 fb 81 3d 6d a5 55 3d ea 95 d9 3d 9a 34 37 3d
       0.06346859 0.052159715 0.10624297 0.0447279
000230 54 2b 0e 3f 81 2e 72 3e 36 d1 3c 3e 65 1e e6 3d
       0.55534863 0.23650552 0.18439183 0.11236266
000240 cf 7c 61 3c 23 66 a6 3d 14 2d 8b be ed 25 34 3e
       0.013762667 0.0812495 -0.2718283 0.17592593
000250 9e 4b c0 bd 4d 8e 62 be ff fd 9c be de c3 d7 be
       -0.09389423 -0.22124596 -0.30662534 -0.42141622
000260 83 4f fa bc b2 1c 10 bf 60 49 dc bc a3 27 bf be
       -0.030555492 -0.56293786 -0.026890457 -0.37334928
000270 2d c7 42 be 46 76 49 bd 83 47 58 be fa b3 02 be
       -0.19021292 -0.04918506 -0.2112103 -0.12763968
000280 20 14 5c be 36 f5 04 bf a7 98 ed be d4 79 1e bd
       -0.21492052 -0.5193666 -0.46405527 -0.038690403
000290 eb 4b 66 be fb a5 e7 bd 69 a2 a1 3d 84 1d 33 be
       -0.22489898 -0.11310955 0.078923054 -0.17491728
0002a0 76 11 01 bf 41 16 ea 3c 0a 3b 2f bb bd 41 62 bd
       -0.5041727 0.028575065 -0.002673807 -0.055238474
0002b0 96 2d c5 3e ed 9a 41 3e 0a e2 c2 bc ca 15 1a bf
       0.38511342 0.18906756 -0.023789424 -0.601895
0002c0 33 ea ae bd 8d ac ab 3d ad 75 ba 3d 91 8f 9f 3e
       -0.08540764 0.08382521 0.09104476 0.3116422
0002d0 0d 85 06 bd d5 e4 f9 3c 8b 58 d7 be 16 c9 be bd
       -0.03284173 0.030504623 -0.4205974 -0.09315698
0002e0 65 74 01 3e 21 30 ad 3e 61 f7 2a 3c d0 dc 1c bc
       0.12642057 0.33825782 0.010434956 -0.00957413
0002f0 fa 89 5d 3d 1f 54 e4 be 5a 19 bd be 37 8f 03 bd
       0.054086663 -0.4459543 -0.36933404 -0.032119002
000300 e7 e7 00 3e 40 ae b3 3d 27 ee 24 bd 4f ba a8 bd
       0.12588464 0.0877347 -0.040266182 -0.082386605
000310 e1 60 7d 3e ff 98 e9 bd 20 7a 59 be 37 8b 6c be
       0.24743988 -0.11406135 -0.21237993 -0.23099981
000320 8c a3 c2 be d8 ad 00 be ec 5b ea be e8 e1 33 bc
       -0.380154 -0.12566316 -0.45773256 -0.010979153
000330 a9 d4 df be f0 6f 9d be 46 fa 54 bb 26 c1 2a be
       -0.43716934 -0.30749464 -0.0032497807 -0.16675243
000340 1c 60 35 bd d6 e2 75 be 81 20 d2 be 16 f5 00 bf
       -0.04428111 -0.24012312 -0.41040424 -0.5037397
000350 52 39 77 3c 38 ae 35 be d8 cb 34 be 0a 99 89 3c
       0.01508935 -0.1774224 -0.17655885 0.016796608
000360 43 27 7e bd de 2d 02 bf 38 b6 18 bb 5b c8 c5 3d
       -0.06204916 -0.5085124 -0.002330197 0.096573554
000370 cf 09 3e be 61 6a cb 3e f9 0d 52 3e a0 ac c5 bc
       -0.18558429 0.39729598 0.20513143 -0.024130166
000380 54 fc 02 bf 55 84 a4 bd cc 1a a4 3d d9 2a 66 3e
       -0.5116627 -0.08033053 0.080129236 0.22477283
000390 e0 b2 99 3e 12 82 53 bd 5f 03 96 3c 0d 0f f5 be
       0.30019283 -0.051637717 0.018312154 -0.47863045
0003a0 91 c8 d9 3b 28 3b 7e 3e 54 75 d8 3e 51 42 4a bc
       0.006646224 0.24827254 0.42277014 -0.012344913
0003b0 52 b6 ce bc 83 4c 39 bc ff b0 f7 be b2 61 de be
       -0.025233421 -0.011309746 -0.48377225 -0.4343391
0003c0 14 a3 16 be 25 b5 c9 3d 38 3b 04 3e dd 3b 0e 3c
       -0.14710647 0.09849004 0.12913215 0.008681265
0003d0 90 d4 4e bd fd a8 91 3e b9 17 b6 bc 31 4a 21 be
       -0.050495684 0.2844924 -0.022228109 -0.15750958
0003e0 ab 27 9f be d2 a6 c2 be d9 c7 33 be 25 a6 f4 be
       -0.31084952 -0.380179 -0.17556705 -0.47783008
0003f0 33 80 32 bd 77 66 05 bf 30 40 6e be 33 dd 05 3d
       -0.04357929 -0.52109474 -0.23266673 0.032681655

weight f4 [4]
000000 8e 01 78 3f 1b 2c 7d 3f a5 d1 84 3f 89 d3 81 3f
       0.9687737 0.98895425 1.0376478 1.014268

bias f4 [4]
000000 1d a8 a8 be 54 d5 4b 3f e1 31 a2 3e de 9c f9 3d
       -0.3294076 0.7962239 0.3167868 0.12188123

running_mean f4 [4]
000000 c2 27 8d 42 94 83 65 c2 4f 61 43 c2 5d 14 9c 41
       70.57765 -57.378494 -48.845028 19.509943

running_var f4 [4]
000000 09 af 4a 48 5d 0f f8 47 12 a0 f4 47 40 8e 1c 47
       207548.14 127006.73 125248.14 40078.25

weight f4 [4, 4, 1, 1]
000000 be 4f a8 be 72 a2 c9 3d c0 67 d7 3e de ae ec be
       -0.32873338 0.09845437 0.42071342 -0.46227163
000010 03 c0 47 3e 8d bc 20 bf d9 6f a4 3e b3 60 1f bf
       0.1950684 -0.62787706 0.32116583 -0.62256926
000020 8c cc 97 bc c8 e2 ce be a5 17 bf be 59 2d f9 3e
       -0.018530153 -0.40407395 -0.37322727 0.4866741
000030 34 7a 71 3f ca fa 56 3e 7c 0d 65 3e 54 f4 09 bd
       0.9432709 0.20994106 0.22368425 -0.033680275

weight f4 [4]
000000 af 10 d5 3f 74 21 82 3f 36 98 88 3f 36 06 5d 3f
       1.6645716 1.0166459 1.0671451 0.863376

bias f4 [4]
000000 02 51 ce bd 1c f1 30 be 41 9d 46 3e 30 97 68 3e
       -0.10074045 -0.17279476 0.19395925 0.22713923

running_mean f4 [4]
000000 e8 8d a0 3d 1b 2b 16 bf 4d fb d3 be 42 41 0f 3f
       0.078395665 -0.58659524 -0.41402665 0.5595895

running_var f4 [4]
000000 35 c6 98 3f e4 2a 22 3f 08 24 10 3f d0 30 ca 3f
       1.1935488 0.63346696 0.5630498 1.5796146

weight f4 [4, 4, 3, 3]
000000 bd fc fe bd 0a a5 4a 3d 6d f2 51 be 4e 9b 4d bd
       -0.1245055 0.0494738 -0.20502634 -0.05019694
000010 47 4e 1b 3e 6c 71 9c 3e 09 8f 27 be dd f0 91 bd
       0.15166579 0.30555284 -0.16363157 -0.07126019
000020 00 4e 77 be 68 b9 44 be d3 5f b8 be 39 b1 21 bf
       -0.24150848 -0.19211352 -0.36010608 -0.63161045
000030 76 80 34 3f af 0a 9d 3e 6c 09 5a 3e 98 1d aa 3e
       0.70508516 0.30672213 0.21292657 0.33225703
000040 51 00 70 bd a7 fc f7 3e 58 94 79 be ca 23 c0 bc
       -0.05859405 0.48434946 -0.24372995 -0.023454566
000050 de 4b c9 3e f6 65 3a 3f c5 89 93 ba 9d 07 83 be
       0.39315695 0.7281183 -0.0011256268 -0.25591746
000060 26 cd 4b 3f b7 b0 33 3c e2 66 9b bd 08 ac 5c 3e
       0.79609907 0.010967425 -0.07587983 0.2155
000070 80 af dd 3d 79 a4 b3 be 04 1e 1c 3d 78 cb 33 3d
       0.108244896 -0.3508642 0.038114563 0.043895215
000080 5d 4e fd 3d 73 8b c2 3d d7 03 11 bd 79 7f 67 3d
       0.12368462 0.09499254 -0.035404053 0.05651805
000090 a7 8e 47 bc ee 72 87 be 41 ec f2 bd 12 92 50 bc
       -0.012180007 -0.26454872 -0.11861468 -0.012730138
0000a0 b4 85 85 3d 03 3b 6f 3f ef c6 44 3f 15 78 e8 3e
       0.065196425 0.9344942 0.7686605 0.45404115
0000b0 dc a6 84 3f 55 72 d8 3d ff cf 11 be 4c db 77 3e
       1.0363421 0.10568682 -0.142395 0.24204749
0000c0 5a 94 df 3d 79 02 be bd 8b a1 a2 3e 1f 28 9e 3b
       0.10916968 -0.09277815 0.31763873 0.00482656
0000d0 80 3a e0 bd 9e 7d e0 3c bf 13 16 3c d0 6a 90 3e
       -0.10948658 0.027403649 0.009159981 0.2820649
0000e0 b1 8e c3 ba 03 08 03 bd 1f f5 e8 3c b7 e0 57 be
       -0.0014919845 -0.031990062 0.028437195 -0.21081816
0000f0 90 c7 ba 3e 43 50 d6 3e e4 df b6 be 48 49 db be
       0.3648038 0.4185811 -0.3571769 -0.42829347
000100 c0 6a 95 3e b5 b8 00 3e b4 69 8f be 2c 8e c8 3d
       0.29183006 0.1257046 -0.28010333 0.09792742
000110 e2 0f ba bd bf 8e 8d 3e c5 c7 bd 3e bf ce 30 be
       -0.09085061 0.2764797 0.37066475 -0.17266367
000120 dc 8d 44 bf a2 6b dc 3e 72 fe c7 3e d6 49 0b 3f
       -0.7677896 0.43050867 0.39061314 0.5440954
000130 26 eb 4f be eb 83 e5 bd de 50 7f 3d e0 f4 4b 3c
       -0.20304546 -0.11206802 0.06233298 0.0124485195
000140 c8 fa d5 3e 92 2c 5c 3d 57 37 0f be 63 7a 3c 3e
       0.41792893 0.053753443 -0.13985954 0.18406062
000150 09 57 10 3d 49 d6 c9 3d d8 47 e3 b9 f1 37 14 bf
       0.035239253 0.09855325 -0.00043350342 -0.5789786
000160 71 f5 48 bf b9 c4 ab 3e 87 3b d8 3e b2 8a 9a 3c
       -0.78499514 0.33548525 0.42232916 0.018864963
000170 9e a7 0d be 07 60 07 bf 82 cd e9 bb 17 3c 0e 3f
       -0.13833472 -0.528809 -0.007135094 0.5556044
000180 03 51 12 3e 50 9d bb 3e 66 47 61 3e 58 2b c1 3e
       0.14288716 0.36643457 0.21999893 0.3772838
000190 39 2e a4 bd 4a 8c 0e 3e 7f 4d c0 3d 89 3a 0f 3e
       -0.08016629 0.13920704 0.09389781 0.13987173
0001a0 9a 3e d2 bd 63 3f cb 3e 83 bd 70 3c e6 56 f0 bd
       -0.102658466 0.39696798 0.014693621 -0.117353246
0001b0 56 70 c7 3e 95 21 f1 be e8 3a b3 be 9e 2b 90 be
       0.38952893 -0.47095934 -0.3500588 -0.28158277
0001c0 ef 85 71 be e3 e4 10 be 51 02 76 bf 2f d0 17 bf
       -0.23586248 -0.14149813 -0.96097285 -0.5930204
0001d0 65 6a 94 3e 0b fc a3 bc 92 db 9f 3e 08 c9 8c be
       0.28987423 -0.020017644 0.31222206 -0.27497125
0001e0 91 b5 bc be 9b 0d 64 bc 32 82 f2 3c df 96 20 3e
       -0.36857274 -0.013919259 0.029603098 0.15682553
0001f0 ad 72 95 3e 3a ad 34 bf 90 17 15 3e 34 13 4d 3e
       0.29189053 -0.7057682 0.1455977 0.20026857
000200 f3 3d d7 bd 47 96 00 3e 1a 8b 90 3e 36 24 4c be
       -0.10509863 0.12557326 0.28231126 -0.19935688
000210 57 c0 e9 3e 65 ed c1 3d 17 40 92 be 23 85 49 bc
       0.45654556 0.094691075 -0.28564522 -0.012299809
000220 68 cd cc 3e 50 34 d4 3e c7 6f 54 bd e9 85 7d bc
       0.40000463 0.4144616 -0.05186441 -0.015473821
000230 6e 2e aa 3d d7 cc 0e bf 78 80 8c be 7f 17 35 be
       0.08309637 -0.5578131 -0.27441764 -0.17684744

weight f4 [4]
000000 0c 09 89 3f 7b 9c 83 3f a3 cf 84 3f 37 22 5f 3f
       1.0705886 1.0282129 1.0375866 0.8716158

bias f4 [4]
000000 b0 99 03 3f 41 86 8d be 42 aa a9 3e 40 97 24 3e
       0.51406384 -0.2764149 0.3313771 0.16073322

running_mean f4 [4]
000000 07 42 86 3e 47 92 3a 3f 40 99 0e 3f a6 77 d0 be
       0.2622225 0.7287945 0.5570259 -0.40716285

running_var f4 [4]
000000 e5 32 21 40 5c dd 2f 3f 7a de 0c 40 bb 25 05 3f
       2.5187314 0.6869714 2.201079 0.520107

weight f4 [16, 4, 1, 1]
000000 ee 4b c2 3e bd ce 55 3e 3e b8 0d bf 01 b5 32 3f
       0.37948555 0.20879646 -0.55359256 0.6980744
000010 95 af cb be 21 fe 1a 3e fe 8d 1b 3f 24 c3 1a be
       -0.39782396 0.15136005 0.6076354 -0.15113503
000020 8b 14 30 bf 37 e4 de 3d 6d 3c 9c 3e e2 fb 11 be
       -0.68781346 0.10883372 0.3051485 -0.14256242
000030 49 f1 b4 be 5c 33 3f bf 87 5c 67 be 42 98 56 be
       -0.35340336 -0.74687743 -0.2259389 -0.20956519
000040 8e 46 4e 3e 5e 7c 42 bd 92 aa 65 bf b4 3e 95 be
       0.20144102 -0.047481887 -0.89713395 -0.291494
000050 f1 54 e8 3e 2c 4a 29 3e 56 ea f8 be 8d b3 13 bf
       0.45377305 0.165322 -0.48616284 -0.5769585
000060 7b 97 48 bf 1e 94 de 3e be b1 33 be d1 6a 2d 3e
       -0.7835614 0.4347238 -0.17548272 0.16935278
000070 e5 c5 89 3f cb a0 96 3d 3e 90 85 3e 8c ce 89 be
       1.0763518 0.073548876 0.2608661 -0.26915395
000080 b0 01 dd 3b 11 42 06 3f 0d 08 55 be 8e 86 24 bf
       0.006744586 0.5244456 -0.20803852 -0.64267814
000090 1c 19 76 bf 3b 19 87 3e e0 16 5b 3e bb 6f a1 be
       -0.96132064 0.26386437 0.21395445 -0.31530556
0000a0 7d db a9 3e d6 be 24 bf 1d 09 bb be 22 0a 7f bc
       0.3317527 -0.6435369 -0.3653039 -0.015566381
0000b0 ef 3d bb be c7 29 b7 3d 7e e4 93 bf 08 aa 88 3e
       -0.3657069 0.08943515 -1.1554105 0.26692224
0000c0 04 a5 e1 3e 74 68 12 bf 2a 2b d9 3e 33 50 72 bd
       0.4407121 -0.5719063 0.42415744 -0.059158515
0000d0 c5 42 98 bd 74 2a 15 bf c1 e2 94 be 58 de b4 3e
       -0.0743461 -0.58267903 -0.2907925 0.35325885
0000e0 b4 ca 9b be cb 56 95 be a0 70 e8 3e ac f6 fa be
       -0.30428088 -0.2916778 0.45398426 -0.4901632
0000f0 7b cc 01 bf 2e 43 00 bf eb 01 55 be 08 10 b9 3e
       -0.5070264 -0.5010251 -0.20801513 0.36145043

weight f4 [16]
000000 a9 17 95 3f d4 05 97 3f 4c 05 6f 3f 1a a5 61 3f
       1.1647846 1.1798654 0.9336746 0.8814255
000010 f6 7a 97 3f 4a 99 b0 3f da ad 43 3f 89 6c a1 3f
       1.18344 1.379678 0.7643715 1.2611247
000020 12 7d 2f 3f 4c 4b d1 3f a8 8e 6b 3f ba 78 fc 3f
       0.6855022 1.6351104 0.9201455 1.9724343
000030 ad ca 86 3f 03 a1 aa 3f f9 24 a2 3f 67 fd b4 3f
       1.0530602 1.3330387 1.2667533 1.4139832

bias f4 [16]
000000 92 70 1b 3e d6 6d 96 3e c6 47 e8 bc 27 ec c2 3e
       0.15179661 0.29380673 -0.028354537 0.38070795
000010 f5 c7 cc bd b5 d4 5c 3d 24 f0 93 3e 07 0d ed 3c
       -0.09999076 0.05391379 0.2889415 0.028936876
000020 f1 9e 84 bc 2a 91 14 3e 60 41 b2 3e 32 a7 25 3e
       -0.01618907 0.145085 0.34815502 0.16177061
000030 1d 0c 4b 3c f3 1e 83 3c 3c 10 af 3e 99 aa 05 3f
       0.012393025 0.016005969 0.34192073 0.52213436

running_mean f4 [16]
000000 0c 53 30 3e 13 fe a5 3b 93 e5 7f be 18 58 d6 be
       0.1721918 0.0050656884 -0.2498992 -0.41864085
000010 50 3e 82 be 16 8c 70 bc f8 a1 b2 be 70 44 18 3f
       -0.25438166 -0.014681837 -0.34889197 0.5947943
000020 01 69 c6 bd 47 e8 e0 be 1c 3c 7a bd b5 52 01 bf
       -0.09687997 -0.43927214 -0.06109248 -0.50516826
000030 c8 da 84 3e 45 9a 2a be 29 84 15 be e6 61 b1 be
       0.25948167 -0.16660412 -0.14601196 -0.34645003

running_var f4 [16]
000000 24 90 ef 3e fe 99 37 3e 7b b6 89 3e f6 0f d8 3f
       0.46789658 0.17929837 0.26897034 1.6879871
000010 c9 69 67 3f 81 a3 89 3e 61 d8 c1 3e ca fd cd 3f
       0.9039579 0.26882556 0.37860397 1.6093075
000020 d4 67 69 3e 69 65 49 3f fd 1e b9 3e d1 ac dc 3f
       0.22793514 0.78670365 0.36156455 1.7240239
000030 af c9 88 3e cb 18 db 3e f9 46 ae 3e 33 b0 5b 3f
       0.26716372 0.42792353 0.34038523 0.85815734

weight f4 [16, 4, 1, 1]
000000 a0 36 d8 3e db af 0c 3f 77 53 df 3e 64 c8 f6 3e
       0.42229176 0.54955834 0.43618366 0.4819976
000010 33 d1 c3 3e 3e 0e c5 3e 51 30 0f 3f f5 13 9d 3e
       0.38245544 0.38487428 0.559331 0.30679289
000020 c0 cd 76 be f5 43 77 3f 1f 0d d3 3e 63 85 8c 3e
       -0.24101925 0.9658807 0.41220948 0.27445516
000030 83 56 ab be d4 a0 22 3e d6 e4 e0 be 9f ef de 3e
       -0.3346444 0.15881664 -0.43924588 0.4354219
000040 4b 16 6c bf 37 83 f6 bb 23 5d ad be 5d 79 25 be
       -0.92221516 -0.0075229662 -0.3386012 -0.16159578
000050 53 19 c0 bb be 82 3c bf de ec c7 be 27 a4 d6 be
       -0.005862394 -0.73636997 -0.39047903 -0.41922113
000060 0e 1f 49 bf 46 5a 18 bf 0b ba 80 be ca 3b ec 3c
       -0.7856301 -0.59512746 -0.2514194 0.028837103
000070 ee a8 de be 20 be e6 3e 3a da 92 3e 4b d2 b1 be
       -0.43488258 0.4506693 0.2868212 -0.34730753
000080 c8 78 1e 3f 66 b0 83 3e 87 7a 52 be d1 5c b3 3a
       0.6190305 0.2572052 -0.20554553 0.0013684278
000090 59 89 ee 3d 8e c5 d1 bc 61 7b 27 3f 7a a5 02 bf
       0.11647291 -0.025606897 0.65422636 -0.5103375
0000a0 a3 b2 19 3e 97 e0 c5 3e fa 1c 4f 3f 9d ec d0 3e
       0.15009551 0.3864791 0.8090359 0.40805522
0000b0 ef 54 d8 3e 64 65 ba bf 57 e1 2a bd e2 5f 2b bf
       0.422523 -1.4562192 -0.041718807 -0.6694318
0000c0 88 f4 af 3c 04 2b 24 bf 95 c3 94 be a3 e4 d3 3e
       0.021478906 -0.64128137 -0.29055467 0.41385373
0000d0 03 c6 8a 3e f2 03 85 3e 12 21 b5 bf db 1b 06 bf
       0.27104196 0.25979573 -1.4150717 -0.52386254
0000e0 3d 3b 2f bf f5 71 1b 3f 97 d9 9f be 73 22 cf 3d
       -0.68449765 0.6072076 -0.31220695 0.101139925
0000f0 56 27 a9 3e ef 4b 2e 3e aa 81 95 3e 8c e3 8e be
       0.33037823 0.17021154 0.29200488 -0.2790798

weight f4 [16]
000000 d8 02 30 3f 46 a7 7e 3f b2 d5 82 3f 7d 50 8f 3f
       0.6875434 0.9947399 1.0221465 1.1196438
000010 4e 93 78 3f 2c 91 8c 3f 2b f3 83 3f c2 77 83 3f
       0.9709977 1.0981803 1.0308584 1.0270922
000020 8e 38 ac 3f 21 94 6c 3f aa 2b 9d 3f 14 40 90 3f
       1.3454759 0.92413527 1.227895 1.1269555
000030 a1 57 82 3f 71 9c 91 3f d7 8e 9a 3f d2 67 26 3f
       1.0182992 1.1375867 1.2074841 0.6500217

bias f4 [16]
000000 92 70 1b 3e d6 6d 96 3e c6 47 e8 bc 27 ec c2 3e
       0.15179661 0.29380673 -0.028354537 0.38070795
000010 f5 c7 cc bd b5 d4 5c 3d 24 f0 93 3e 07 0d ed 3c
       -0.09999076 0.05391379 0.2889415 0.028936876
000020 f1 9e 84 bc 2a 91 14 3e 60 41 b2 3e 32 a7 25 3e
       -0.01618907 0.145085 0.34815502 0.16177061
000030 1d 0c 4b 3c f3 1e 83 3c 3c 10 af 3e 99 aa 05 3f
       0.012393025 0.016005969 0.34192073 0.52213436

running_mean f4 [16]
000000 32 df 81 3f 38 d2 5b 3f 7f 6e 92 3f b5 ef 1b bd
       1.0146239 0.85867643 1.1439971 -0.0380704
000010 bf 86 f7 be 36 22 84 bf 31 2d 64 bf 8b e0 aa 3e
       -0.4834499 -1.032294 -0.89131457 0.33374438
000020 2a e6 9e 3e 05 49 34 3e 97 e6 6f 3f 1f 82 bf bf
       0.31034976 0.1760598 0.9371123 -1.4961585
000030 70 4f 1b bf b7 e9 11 bf b4 12 84 3e 50 5b 98 3e
       -0.60668087 -0.56997246 0.2579552 0.29757166

running_var f4 [16]
000000 4e 6f d9 3f 00 77 80 3f 68 64 38 3e c6 be 31 3e
       1.6987092 1.0036316 0.18007052 0.1735793
000010 f5 3c 10 40 29 80 07 3f 03 2c 87 3f 4a 90 9b 3f
       2.2537205 0.5292993 1.0560306 1.2153409
000020 1a 71 2f 3f eb 21 dd 3e a9 9e 61 3f 42 4b 1b 3f
       0.68531954 0.4318994 0.8813272 0.6066171
000030 5b 60 fb 3e 91 d5 33 3f 6f 8c 41 3f 20 b2 a2 3d
       0.4909695 0.7024775 0.7560491 0.07944131

weight f4 [4, 16, 1, 1]
000000 00 97 07 bf 3a bc 95 bd 86 25 26 be 26 fd c4 be
       -0.5296478 -0.07311292 -0.16225252 -0.38474387
000010 80 a8 91 3e e9 74 e0 3e 94 80 62 3e 93 0d 21 3e
       0.28448868 0.43839195 0.22119361 0.15727834
000020 6b f4 49 3e 9e 78 12 be 31 4b 63 be e9 fc a9 3e
       0.19722144 -0.14303824 -0.22196652 0.33200768
000030 67 8c 5d bf 53 79 2c 3f 1a 7d e5 be 0d ff 66 bc
       -0.8654236 0.67372626 -0.44822007 -0.014098895
000040 4e 95 df 3e 05 e0 fe be 75 79 08 3e ff f3 06 be
       0.43668598 -0.49780288 0.13327582 -0.13179015
000050 5c d1 bb be 90 b1 1c be 75 17 19 bd 6e 7c 84 bd
       -0.36683166 -0.1530211 -0.037375886 -0.064690456
000060 6b 83 c8 be 45 07 84 39 2f 1b c8 3e ee d8 3e be
       -0.39162764 0.00025182418 0.3908324 -0.1863744
000070 10 5f 33 be 35 2a ee be 07 e6 a9 3e 45 d2 cd be
       -0.17516732 -0.46516576 0.3318331 -0.40199485
000080 82 c1 c9 bd 0c 9c 17 be e5 ba 8c 3e f7 6c 93 3d
       -0.09851362 -0.14805621 0.2748634 0.07198518
000090 b3 1a d8 be 7b 67 16 3f fe 89 bb 3c 89 3a 28 3f
       -0.4220787 0.5875165 0.022892948 0.6571432
0000a0 26 db 81 be 6d aa 97 be 18 2e d6 be 17 e5 03 bf
       -0.2536251 -0.29622212 -0.41832042 -0.5152144
0000b0 d1 97 e7 bd f0 b8 59 3e c0 71 31 bf 8f bd 9c 3e
       -0.113082536 0.21261954 -0.69314194 0.30613372
0000c0 78 06 fe 3d 4d 3b a2 3e 84 33 86 3d aa 41 a1 bd
       0.124035776 0.31685868 0.065527946 -0.078738526
0000d0 9b 1a 1e be d8 2f af be a6 7b 0e 3f 6e 68 aa be
       -0.15439837 -0.3421619 0.5565742 -0.332828
0000e0 d4 d4 be 3e e5 9a d0 3e 4c f3 95 bd 96 9a 8a be
       0.3727175 0.40743175 -0.07321796 -0.27071065
0000f0 d6 ae 91 be ce a6 96 be 5a 35 94 be a4 15 23 3e
       -0.28453702 -0.29424137 -0.28946954 0.15926224

weight f4 [4]
000000 6b b2 a3 3f 13 41 84 3f 2d 8c 93 3f 0a e1 78 3f
       1.2788824 1.0332359 1.1527153 0.9721838

bias f4 [4]
000000 64 aa 90 3e 6b 9b b7 3e ec 02 80 3e 99 69 01 3e
       0.28254998 0.35860762 0.2500223 0.12637939

running_mean f4 [4]
000000 c7 f9 fd be 9d b2 5f bf f9 2c 7d bf 86 f1 e4 3d
       -0.49604627 -0.8738192 -0.9889675 0.111788794

running_var f4 [4]
000000 33 38 d6 40 26 f2 a0 3f a7 29 39 3f c9 c7 3f 3f
       6.6943603 1.2573898 0.7232918 0.7491422

weight f4 [4, 4, 3, 3]
000000 0a df 3a 3f 7b 32 0d be 1a b1 b4 be ab 3a fa 3e
       0.7299658 -0.13788788 -0.35291368 0.48872885
000010 02 7b f1 be f4 b2 58 bf 54 6e 63 3e 45 97 0b 3f
       -0.4716416 -0.8464806 0.22210056 0.54527694
000020 8c 4e df 3d 63 3d 9c 3e a6 12 a6 3e 17 8b 13 3e
       0.109036535 0.30515584 0.32436103 0.14408527
000030 69 db d2 3e 2d 99 2a 3f f8 88 34 3e 20 d6 bf be
       0.41183022 0.6663998 0.17630374 -0.37468052
000040 27 e3 02 bf 73 42 41 bf bd 15 a1 3e a6 d8 71 3e
       -0.51127857 -0.7549202 0.31461897 0.23617801
000050 15 96 40 be c9 31 22 3b 30 32 aa 3d 58 66 21 3f
       -0.18807252 0.0024748913 0.08310354 0.6304679
000060 25 f4 e5 3d 9d a6 cd 3e f7 4e c1 3e 9f 7e 7b 3d
       0.112282075 0.40166178 0.37755558 0.061400052
000070 48 6a d3 bd 36 77 d3 3d 14 20 4a be 4b 08 02 be
       -0.10323006 0.10325472 -0.197388 -0.12698476
000080 82 88 96 be b5 21 ad 3c d2 07 0b 3e 2b 6d c7 be
       -0.29401022 0.021134237 0.13577202 -0.38950476
000090 1e d8 2a 3f ad 65 f6 bd ff 93 f1 39 97 de 6f be
       0.6673602 -0.12031112 0.00046077368 -0.23424755
0000a0 46 f9 04 3e 1c 48 f4 3d ae 48 00 3f 20 ab b9 3e
       0.12985715 0.11927816 0.501109 0.3626337
0000b0 58 fa 89 3e c0 69 08 3f e4 92 1d 3e 97 9b 6b be
       0.2694881 0.5328636 0.15388066 -0.23008572
0000c0 f6 a1 15 be 04 b9 fa 3d 9d 4b a5 3e a5 a0 d5 3e
       -0.14612564 0.1224232 0.3228425 0.41724125
0000d0 d9 f5 9e be a9 8a 5b be 42 8f 00 3d 58 33 2d 3e
       -0.31046942 -0.21439613 0.03138662 0.16914117
0000e0 6a 6c 0e bf c6 3b 95 be 71 10 2c bf e4 e1 c2 be
       -0.55634177 -0.29147166 -0.6721259 -0.38062966
0000f0 75 62 d3 bd 51 4c db 3c 26 b5 34 be 1d 60 82 3d
       -0.103215136 0.026769789 -0.17647228 0.063659884
000100 0c 4e a5 3e d5 14 12 bd 1e 26 12 bf 9c 6e 2c bf
       0.32286108 -0.0356644 -0.5708941 -0.67356277
000110 ad 46 2b be 9d 90 af 3e dc b5 01 3f 90 26 6f 3e
       -0.1672618 0.3429002 0.5066812 0.23354554
000120 90 6e 82 bc 01 be bc 3e f6 aa 80 3f 35 59 30 be
       -0.015921861 0.3686371 1.0052173 -0.1722153
000130 f5 a9 cd 3e 25 0b aa 3e 31 e2 d4 be 04 a1 f1 bd
       0.4016873 0.33211628 -0.4157882 -0.117982894
000140 ed 48 d1 bd be ac 25 3f a3 b4 63 be 95 83 bd 3d
       -0.102189876 0.6471671 -0.22236876 0.09253613
000150 4f 1a 7c bc 28 39 a6 3d 1c 6a 09 3e f4 69 98 be
       -0.015387132 0.081163704 0.13419384 -0.29768336
000160 68 99 0d bf 39 34 a7 be 93 07 d1 be fc 06 cb bd
       -0.55312204 -0.3265703 -0.4082609 -0.099134415
000170 f7 7d 9e be 8c 52 a5 bf 89 20 f3 be 45 57 14 3d
       -0.3095548 -1.2915816 -0.4748576 0.03621604
000180 6a 6d 44 3e b0 a1 57 be f9 6f 8e be 03 e1 2a bf
       0.19182363 -0.21057773 -0.27819803 -0.6674959
000190 cb f2 08 bf c0 94 68 3d ba 56 91 3d 14 25 39 be
       -0.5349547 0.056782484 0.0709662 -0.1808055
0001a0 4b c9 07 3e 14 f0 c2 be 13 5a 03 3e 3f 80 b1 3e
       0.13260381 -0.3807379 0.1282733 0.34668157
0001b0 b7 af 3e 3e 1f 1f 1a be 9f 83 a6 3d 57 e2 05 be
       0.18621717 -0.15050934 0.081305735 -0.13074623
0001c0 e1 b7 ac bc b8 13 1b be b8 db d2 be ed d9 83 be
       -0.021083774 -0.15144241 -0.41183257 -0.25752202
0001d0 35 7d a9 3e fd 7c 93 3c 44 ac 0c be 09 60 fa bd
       0.33103338 0.018003935 -0.13737589 -0.122253485
0001e0 21 14 29 3f a5 13 0f 3e 0f 47 6b 3e 80 0b 86 3e
       0.6604634 0.13972338 0.22976325 0.2618065
0001f0 b1 96 20 3e 48 94 5c 3e 3a 86 92 3d 6b 79 8e 3d
       0.15682484 0.2154094 0.07154508 0.069567524
000200 cb 0f 12 3f 8c 13 89 be b6 35 8b 3d 5b 71 e2 3e
       0.5705535 -0.26772726 0.06797354 0.44227108
000210 22 f1 11 bf 6f 1b bb be 2d 81 31 3e c3 69 97 3e
       -0.57008564 -0.36544368 0.17334433 0.29572877
000220 53 5c a0 3e 1d d0 76 3e 72 a4 bf 3e bb ee b7 3e
       0.31320438 0.24102826 0.3743015 0.35924324
000230 9d a3 9d 3e 9e 37 ef 3e 7e 53 d5 3e 8b d0 ce 3d
       0.3078889 0.4672212 0.41665262 0.1009837

weight f4 [4]
000000 af 7a 66 3f 2b e1 90 3f 1e 6f 9d 3f 37 d4 9f 3f
       0.9003095 1.1318716 1.2299535 1.2486638

bias f4 [4]
000000 dd c1 67 be 7a 74 f5 bd 5b 36 b6 3d fd 13 da bc
       -0.22632547 -0.11985107 0.08897086 -0.02662086

running_mean f4 [4]
000000 e5 9e 72 3f 34 70 c2 3e ec d0 62 bf da dc 81 3f
       0.94773704 0.3797623 -0.8860004 1.0145524

running_var f4 [4]
000000 45 bd c1 3f 2b a4 9b 3f 1c 46 74 40 ed fe b6 40
       1.5135885 1.2159475 3.8167791 5.718619

weight f4 [16, 4, 1, 1]
000000 0e 43 28 3e ae a9 42 3e 36 89 43 ba 5f bd 54 bf
       0.1643183 0.1901004 -0.00074591057 -0.8310146
000010 46 d1 1e 3f d2 5b aa 3d 79 ea 60 be 65 bb b4 be
       0.62038076 0.083182946 -0.21964444 -0.3529922
000020 9a ba 25 3e cd e4 f3 be 8a db 92 bf a4 7e 94 3e
       0.16184464 -0.476355 -1.1473248 0.2900287
000030 90 2c 1f 3f f0 4d 93 bd d5 f8 09 3f 6d 78 7a be
       0.6217737 -0.071926 0.5389531 -0.24460001
000040 84 6a a5 be 42 0a 42 3c 09 e4 8e 3e 4f 41 f3 3e
       -0.32307827 0.011843266 0.27908352 0.47510764
000050 24 b3 86 3e f2 50 09 bf 41 b8 40 3e 7a 22 04 3f
       0.26308548 -0.5363914 0.18820287 0.5161511
000060 24 75 68 3e f1 17 5b bf f1 bc 17 3e d9 34 d4 be
       0.22700936 -0.85583407 0.14818169 -0.4144657
000070 e3 28 be be e8 42 27 3f 86 52 06 bf 5c 01 cd 3d
       -0.3714057 0.65336466 -0.5246967 0.10010025
000080 3b 8d 1a bf 87 e0 ca bd 05 7f 09 3e e6 5c 1d bf
       -0.6037175 -0.099061064 0.1342736 -0.61469877
000090 6d 72 93 bd 25 f8 32 3f cd 1c 1e 3f b8 5f cc 3e
       -0.07199559 0.6990989 0.61762697 0.39916778
0000a0 87 74 59 be 47 c4 c3 be 7d e1 8d 3e 69 20 b9 be
       -0.21235858 -0.38235685 0.27711096 -0.3615754
0000b0 f2 3a ec be 25 80 f6 3b 54 48 de 3d 42 f0 e7 be
       -0.46138722 0.0075226002 0.10853639 -0.4530049
0000c0 cb c1 2b 3e 3e 11 24 bf 64 ff 7b be ad 60 cf be
       0.16773145 -0.6408881 -0.24609143 -0.40503445
0000d0 7a a2 94 be ae f8 ca 3e c3 c8 77 be c3 7d 8c be
       -0.2903021 0.39642853 -0.24197678 -0.274397
0000e0 5a ea f3 3d 58 df 98 3e 6e d3 88 3d 0f f7 7b bf
       0.119099334 0.29857898 0.06680952 -0.98423856
0000f0 2e 12 92 3e d3 0b 4b be 9f 60 f2 3e dc 4f 04 3f
       0.28529495 -0.1982873 0.4733934 0.51684356

weight f4 [16]
000000 94 c6 0d 3f 08 6f 65 3f 0b bc 30 3f 75 55 19 3f
       0.5538113 0.89622545 0.6903693 0.5989602
000010 69 56 79 3f 83 10 69 3f 32 39 aa 3f 81 d6 7e 3f
       0.97397476 0.9104082 1.3298705 0.99546057
000020 e2 4c 6d 3f ba 16 7b 3f 37 ba 63 3f 36 a4 81 3f
       0.9269544 0.98081553 0.88956016 1.0128238
000030 e5 b5 21 3f 81 ac 21 3f 06 3d 9b 3f 39 7e 7d 3f
       0.63168174 0.63153845 1.2127998 0.99020725

bias f4 [16]
000000 32 54 3b be 5a f2 e2 3d c0 02 40 bd 50 23 32 3e
       -0.18293837 0.11081381 -0.046877623 0.17396283
000010 d5 96 28 be 50 53 96 3f b5 41 39 bc fc 74 3e bf
       -0.16463788 1.1744175 -0.01130717 -0.74397254
000020 7d 00 15 3f 76 c9 18 bf 47 35 c8 bd 16 08 c5 3d
       0.5820387 -0.59682405 -0.09775787 0.09620683
000030 28 7b 4f 3f 94 e3 b7 bd 1b e1 c7 3e 03 e9 31 be
       0.81047297 -0.08978954 0.3903893 -0.17374043

running_mean f4 [16]
000000 fa 65 37 be 2f bf b1 bd b6 64 c5 be 39 9b 3b 3e
       -0.17909995 -0.086790435 -0.385534 0.18320931
000010 f1 da 46 3e 15 e5 13 3e 0e b6 38 be 4a f1 af bd
       0.19419457 0.14442857 -0.18038198 -0.08590944
000020 2e 95 4d be a8 12 e0 3e aa f0 be bd ca b3 0b be
       -0.20076439 0.43764234 -0.09323247 -0.13642803
000030 51 56 92 be fd 9c fd bd 9b 9b 32 be 6d 42 9c 3e
       -0.2858148 -0.12383459 -0.17442171 0.3051943

running_var f4 [16]
000000 8e 17 56 3f 10 31 74 3e ec 54 8a 3e b2 96 40 3e
       0.8362969 0.23846841 0.27017915 0.18807486
000010 4c b9 8d 3e 5a 6b c8 3e d4 b1 be 3e ab 00 de 3d
       0.27680433 0.39144403 0.37245047 0.10839971
000020 7b 1f 54 3f 59 38 b2 3e 4d cf 92 3e a8 f5 e7 3e
       0.82860535 0.34808615 0.28673783 0.45304608
000030 a4 7d a0 3e 3b 2b 18 3e e5 95 93 3f 1b 7f cd 3e
       0.31345856 0.14860241 1.1530119 0.40136036

weight f4 [8, 16, 1, 1]
000000 1f 70 96 3e 63 09 54 3e ce 92 ed 3e 23 97 4d 3e
       0.29382417 0.20706706 0.46401066 0.20077185
000010 a1 66 51 be 66 3e ad bd c2 a6 46 be a5 ab 2a bc
       -0.20449306 -0.08459167 -0.1939955 -0.0104169
000020 d0 0f 4f be 96 fa 78 be 42 98 bb 3e bd 19 3a be
       -0.20220876 -0.24314341 0.366396 -0.18173881
000030 16 6d 1e bf b2 be 75 3e 42 3c 0e be 85 db 8d 3e
       -0.618852 0.23998526 -0.13890174 0.27706543
000040 f2 3c 98 3c 33 75 fd 3d 79 53 ed 3e 46 80 e9 be
       0.018583748 0.123758696 0.46352747 -0.45605677
000050 b8 5b 25 3e 60 a9 a3 be 0d 36 33 bd b5 dd 5a 3f
       0.16148269 -0.3196516 -0.04375272 0.8549455
000060 00 7e b3 be 56 48 09 3f 80 b1 7d 3e 39 6b d6 be
       -0.35057068 0.53626 0.24774742 -0.4187868
000070 31 a6 00 bd b5 c9 ad be 66 53 15 bf 39 d5 b5 be
       -0.031408492 -0.33942953 -0.5833038 -0.35514238
000080 f8 a3 70 be c6 88 0b 3e e2 ac 4a 3e b7 79 1e 3f
       -0.23500049 0.13626394 0.19792512 0.6190447
000090 83 29 3d bd 16 36 39 3e 81 59 11 3d f1 aa c4 bd
       -0.046182167 0.18087038 0.03548575 -0.09602917
0000a0 2f fa 45 3f 3e ea 1e 3d 07 97 54 3f cd 69 62 bd
       0.77334875 0.03879761 0.8304295 -0.05527668
0000b0 7c 40 de 3e aa 13 79 3e b6 2b 27 3e 8b 28 d5 3d
       0.43408573 0.24323907 0.16325268 0.104081236
0000c0 2c bd bd be f5 9d 5d be 48 99 85 bd 5f 38 bc be
       -0.3705839 -0.21642287 -0.06523377 -0.36761758
0000d0 8f b1 33 3e 34 a8 23 be 6c 34 c3 be 16 4e b0 bd
       0.17548202 -0.15982133 -0.38125932 -0.08608644
0000e0 5e b6 fe be 3e 3c c5 be f2 9a 0e bf ab c0 9f 3c
       -0.4974851 -0.38522524 -0.5570518 0.019501051
0000f0 84 c5 c5 be 16 99 9e 3d dc c5 de be 3c b2 08 3f
       -0.38627255 0.077440426 -0.4351033 0.53396964
000100 c1 4f 16 3f 7d fa 8b 3e 66 99 90 be e5 d3 d5 be
       0.58715445 0.27339545 -0.28242034 -0.41763225
000110 3f 9b 2e 3e d8 66 d9 3d 11 48 71 3b 55 84 80 3e
       0.17051409 0.10615319 0.0036816637 0.2510096
000120 20 02 ef 3d d6 ac 2d be 4f fb 8e be 5e c8 c4 bd
       0.11670327 -0.16960463 -0.27926108 -0.096085295
000130 5a 97 c1 3e 4b dc 06 be 2e 91 19 bf c2 da 1d be
       0.37810785 -0.13169973 -0.5998715 -0.1541548
000140 e9 30 c2 3d 01 53 b2 be 37 2e 19 3e 38 8d 7c be
       0.09481985 -0.34828952 0.14959036 -0.24663246
000150 7a a5 05 3f 7d af 60 3e 01 cb 88 be 6c f2 ea be
       0.5220562 0.21941943 -0.2671738 -0.45888078
000160 aa bd 9c 3d 13 81 34 3f 22 46 ab be 62 55 c7 be
       0.07653363 0.7050945 -0.33451945 -0.3893233
000170 f7 2f 33 3e f8 76 c5 be 34 ca 7f be a2 2e 5a bd
       0.17498766 -0.38567328 -0.24979478 -0.05326713
000180 ac b3 a5 3e 85 ba 02 3f a9 0b 68 3e 39 ad b8 be
       0.3236364 0.51065856 0.22660698 -0.36069658
000190 19 47 1a be 87 71 c1 be cc c6 b5 3c 6c f4 05 be
       -0.15066184 -0.37781927 0.02218952 -0.13081521
0001a0 22 4f 2e bf c9 8c 86 3c c3 1a 8a be 31 1f f7 be
       -0.680895 0.016424553 -0.26973543 -0.48265985
0001b0 ed ae bc bc 11 09 e2 3e ed 2e 7e 3e 5a 44 c0 bc
       -0.02303263 0.44147542 0.24822588 -0.023470093
0001c0 82 3b 2e bf 9c 5a bd be a7 8a dd be e1 31 ac 3e
       -0.6805955 -0.36983192 -0.43269846 0.33631805
0001d0 e6 c8 7f be 4e 0c 02 bf e3 1b d3 3e 99 a4 52 be
       -0.2497898 -0.50800025 0.41232213 -0.20570602
0001e0 67 dd 78 3d 80 67 db 3e 82 dd cf 3e b8 35 d0 3d
       0.06075802 0.42852402 0.40598685 0.10166496
0001f0 2b d6 f8 be 21 76 07 3f f0 0b 18 be 0f 65 48 3d
       -0.48600897 0.52914625 -0.14848304 0.048924502

weight f4 [8]
000000 1a b1 5b 3f 43 f5 8b 3f fa 21 76 3f fa 09 b2 3f
       0.8581711 1.0934223 0.96145594 1.3909295
000010 48 23 97 3f 79 94 6e 3f 3f f6 36 3f fc a9 a6 3f
       1.1807642 0.931953 0.7146949 1.3020625

bias f4 [8]
000000 94 85 14 bf 28 d6 a3 3e 71 c5 1c be 89 60 87 bc
       -0.58016324 0.31999326 -0.15309693 -0.016525524
000010 18 2b c1 3e 49 c8 45 3e c2 80 b0 be e5 ac 13 3f
       0.3772819 0.19314684 -0.34473234 0.5768569

running_mean f4 [8]
000000 b7 94 0a bf fc ce 2e c0 00 8c 55 40 c6 d5 32 c0
       -0.5413317 -2.7313833 3.33667 -2.7942977
000010 f4 4e 70 bf 98 2e a1 bf cc f9 a8 bf be ef 3a bf
       -0.9387047 -1.2592344 -1.3201232 -0.7302207

running_var f4 [8]
000000 fd cd 39 3f 7e 9c 25 40 59 5e 17 40 20 ec 0b 40
       0.7257994 2.5876765 2.3651335 2.186287
000010 72 30 24 40 51 43 b2 3f 2a e0 2c 3f 0e 99 c3 40
       2.5654569 1.3926793 0.6752955 6.1124334

weight f4 [8, 8, 3, 3]
000000 9e f5 0c bf 1e 20 25 bf d3 b1 89 be 73 78 dd bc
       -0.5506228 -0.6450213 -0.26893482 -0.027034974
000010 ed d3 20 be 23 e9 15 be 8b 13 c5 3e bd 92 e1 3e
       -0.15705843 -0.14639716 0.38491473 0.44057265
000020 e9 62 d0 3b b9 d2 0b bf 65 ae cd be ed 33 3c bd
       0.0063594473 -0.5461841 -0.40172115 -0.045947958
000030 41 fe 86 bd f8 58 ab 3d 17 5c 25 3e 14 33 a6 3e
       -0.06591464 0.08366579 0.1614841 0.32460845
000040 f3 22 ad 3e a2 88 03 3e 04 8a 37 bf d3 8a a5 be
       0.33815727 0.1284509 -0.7169497 -0.32332477
000050 1d 38 2f 3e 63 2e 5d be 39 0a 17 3d c2 cd 85 bc
       0.1711125 -0.21599726 0.036874983 -0.016333465
000060 1a 22 41 3e cf 4a 53 bd 91 b7 e3 bd 54 a3 cd 3d
       0.18860665 -0.051585015 -0.11118997 0.10040918
000070 91 cc e0 3e b1 f6 f4 3e c6 d8 88 3e 9a 5d c4 3d
       0.43906072 0.4784446 0.26727885 0.095881656
000080 19 4a e0 3e 8a c3 9e bd 09 a7 ce 3d 07 93 fa bd
       0.43806532 -0.0775214 0.10090453 -0.122350745
000090 e6 76 3e bf 81 c3 19 bf 0f 92 7f be 85 2a 80 be
       -0.74400175 -0.6006394 -0.2495806 -0.2503244
0000a0 1e 04 ba 3d e3 d2 37 bd 8c 7b b0 3e 02 30 e1 3e
       0.090828165 -0.04487885 0.3446926 0.4398194
0000b0 ff f9 5d 3e eb 69 cc 3c 71 b5 85 3c ea 2b 2d 3c
       0.21677397 0.02495285 0.01632187 0.010569552
0000c0 c1 a9 b2 bc ac 12 36 3e db 51 1d 3f 86 88 41 3e
       -0.02180946 0.1778056 0.61453027 0.18899736
0000d0 a1 41 06 3f 3a 6d 9a 3e 7a 07 19 bf f2 80 27 bf
       0.5244389 0.30161458 -0.59777033 -0.6543113
0000e0 44 f1 28 3d 36 c6 27 be 0a 1e fb be a0 d3 82 be
       0.041245714 -0.16384205 -0.49046355 -0.25552082
0000f0 49 72 bc bd f6 fe 7d be f6 c9 d2 bd d1 ac 3c 3d
       -0.09201486 -0.24804291 -0.10292427 0.046063248
000100 67 b9 ca 3d b3 65 13 3d 54 9f bd bb 82 45 99 bd
       0.09898644 0.03598566 -0.0057868157 -0.07483961
000110 94 c8 d2 bc d2 c4 c0 be d5 95 71 be 06 65 74 be
       -0.025730409 -0.37650162 -0.23592313 -0.23866662
000120 26 23 28 3e be 25 03 be 65 4a bf bd 23 d8 24 be
       0.16419658 -0.12807366 -0.093403615 -0.16098075
000130 49 4a 82 3b 68 11 9d be c4 ac 44 be 34 d1 1b be
       0.0039761406 -0.30677342 -0.1920653 -0.15216523
000140 12 a9 33 be dd 8e ff 3e 3a e4 10 3f f1 08 b2 3e
       -0.17544964 0.49913684 0.56598246 0.34772447
000150 a0 48 95 3e e7 3d 24 3e 75 c4 42 bc a7 a8 19 be
       0.2915697 0.16039239 -0.011887659 -0.15005742
000160 4a a7 92 be 41 56 d2 be a5 1e c0 3e f6 4a 33 3e
       -0.28643256 -0.41081432 0.3752338 0.17509064
000170 46 44 09 3e 61 26 69 3d fb 2c e3 bd 7e 96 1f be
       0.1340495 0.056921367 -0.11092564 -0.15584752
000180 52 e3 ff bd bb e2 ef be db de 00 bf fa c9 2a bd
       -0.1249453 -0.4685267 -0.5034005 -0.041696526
000190 cc 16 58 3e a3 e5 2c 3f 2b 56 16 3e 65 a0 a4 3e
       0.21102446 0.675379 0.14681308 0.3215362
0001a0 28 ff c6 3e 88 6c 01 3f bf b7 57 3f 7d 63 12 3e
       0.38866544 0.5055623 0.8426475 0.14295764
0001b0 7a 83 86 3e de fa 2a 3e 07 05 cf 3e c6 2b 67 3d
       0.26272184 0.1669726 0.40433523 0.05643823
0001c0 d5 c6 cb 3e 52 b8 ac 3e bc e4 f7 be 6e 4e 42 be
       0.39800134 0.33734375 -0.48416698 -0.18975231
0001d0 7c 0a 30 be 85 0d b8 3e 58 eb 3d 3c bd 11 f5 3e
       -0.171915 0.35947815 0.011591755 0.47865096
0001e0 03 fa 98 3d c1 e2 8b bc 9d f8 ed 3e 90 e4 26 be
       0.07469561 -0.017075898 0.4647874 -0.16298127
0001f0 8b fc 06 3e 3b 18 f9 3d e1 09 59 bd e7 09 c3 bd
       0.13182275 0.12162825 -0.052987937 -0.09523373
000200 d0 ef ad bc 9c d3 cc bd e0 0b 83 3d da 92 6d be
       -0.021232516 -0.10001299 0.06398749 -0.2320055
000210 7e 16 a3 bc ea f6 50 be 4f ad a4 3d ab bb 83 be
       -0.019908186 -0.2040669 0.080408685 -0.25729117
000220 d4 9d 10 be 52 21 c3 3e c6 4b d8 3e 11 46 99 3e
       -0.14122707 0.3811136 0.4224531 0.2993627
000230 d8 84 35 3f a9 db bb 3e 9b 73 e1 3e ff 85 4d 3f
       0.7090583 0.36691025 0.44033512 0.80282587
000240 ba b4 0a 3e dc 3e a4 3d cd f2 0a be 8c af e9 3d
       0.13545504 0.08019802 -0.13569184 0.11410436
000250 4e f3 18 3e f0 05 be bd 57 ba c4 3e a0 36 76 3e
       0.14936563 -0.09278476 0.38423416 0.24044275
000260 db c3 0f be fa 9d 16 3e 6d cf d6 3d 32 a7 10 3e
       -0.14039557 0.14708701 0.10488782 0.1412628
000270 09 32 d7 3e e0 58 ff bd 70 29 1f 3d 7e 80 98 3e
       0.4203036 -0.124681234 0.038857877 0.29785532
000280 cd 2f c9 3e 57 e4 d6 3e d1 cc 81 be af a7 14 bf
       0.39294282 0.41971084 -0.25351575 -0.58068365
000290 28 4c 19 be 19 07 13 bf d2 5b 3f be 98 1b a9 be
       -0.14970458 -0.57432705 -0.1868737 -0.33028865
0002a0 f5 63 ca be a4 94 e8 be 7c 22 f5 bd d0 9d 93 3e
       -0.39529386 -0.45425904 -0.11969468 0.2883134
0002b0 13 98 d8 be 61 73 c0 be a8 a8 7f bd 48 a4 01 bf
       -0.42303523 -0.37588027 -0.062416703 -0.506413
0002c0 16 bc ca be 1b 3d 0a bd 4f b5 b6 be 09 c1 a8 3d
       -0.39596623 -0.03374968 -0.35685202 0.082399435
0002d0 f4 7e f3 3e ee 85 29 3f 79 06 b2 3e aa 61 24 3e
       0.47557795 0.66219985 0.34770563 0.16052881
0002e0 50 52 65 bd 2a 74 88 3e 66 37 22 3e fc e1 16 3d
       -0.055986702 0.26651126 0.15841445 0.03683661
0002f0 bc f5 9d be b8 8b 64 3d d6 93 19 3e cc fe 97 3e
       -0.30851543 0.05579731 0.14997801 0.29686582
000300 f9 f4 b4 be 3b 2d 73 3d d5 ba e1 bd a4 87 72 be
       -0.3534315 0.059369307 -0.110219635 -0.23684555
000310 e5 f9 82 3d 9a 82 d8 3e 0a 7d 6e 3e 1f a4 e4 3e
       0.0639532 0.4228714 0.23289886 0.44656464
000320 92 74 94 3e 90 4f 97 3e 6d 80 c7 3d 91 1d b1 3e
       0.28995186 0.2955289 0.09741292 0.3459287
000330 cd 02 21 be 7b 9f 08 be 2a c6 49 bd 7f dd 49 3d
       -0.15723725 -0.13342087 -0.04926125 0.0492835
000340 9e d8 34 be 98 37 21 be 22 8a d2 3d 83 40 33 3e
       -0.17660758 -0.15743864 0.10280253 0.17505078
000350 f1 15 a8 3d 2e 53 eb 3e e7 e4 a7 3e 15 7d 4d 3e
       0.0820731 0.459619 0.32791826 0.20067246
000360 3c 99 3d 3e 00 97 79 3e db 28 42 3e d3 51 e3 3e
       0.18515486 0.24374008 0.18960898 0.44398364
000370 5c 8a e2 3d 52 a1 03 3d 19 fc a2 3e e4 47 c7 3d
       0.11061546 0.03213627 0.3183296 0.09730509
000380 5a ac 30 bd cc e7 11 3f 29 91 b4 3e 3f 44 86 3e
       -0.043133117 0.5699432 0.35266998 0.26223943
000390 d8 4a df 3e e3 ac 4f be 1e 95 bc 3e 3f 5d c9 3e
       0.4361179 -0.20280795 0.36832517 0.39328954
0003a0 f2 b3 f4 3d cf d0 12 3e 4d d5 45 bd 30 58 0b be
       0.11948384 0.14337467 -0.048299123 -0.1360786
0003b0 73 63 49 be 42 0d 36 3e 0b d2 9c bd 97 f9 63 bd
       -0.19666843 0.17778495 -0.0765725 -0.05565795
0003c0 4d c2 42 3e 2b 32 2d bb 0f 50 70 3e a2 d9 b1 bd
       0.19019432 -0.0026427608 0.2346804 -0.08684088
0003d0 1e a9 42 3e d5 84 00 3f 9c d8 b4 3d da 4e 9b 3b
       0.19009826 0.50202686 0.088303775 0.0047396244
0003e0 d1 f6 80 3c a4 d1 15 3e c4 22 31 be a8 a1 01 3d
       0.015742691 0.14630753 -0.17298418 0.031648308
0003f0 5f 33 84 be 00 91 14 be 56 7c d8 bd ce 93 97 3e
       -0.25820443 -0.14508438 -0.1057059 0.29604954

weight f4 [8]
000000 12 23 9e 3f a5 1d 89 3f ba 33 78 3f d0 2a 8b 3f
       1.2354453 1.0712172 0.9695393 1.087244
000010 4b b0 a8 3f a0 35 7b 3f f3 43 75 3f 22 9a 8c 3f
       1.31788 0.981287 0.9580681 1.0984538

bias f4 [8]
000000 81 43 ac 3e a8 35 04 be ca c1 05 3e 34 96 39 3d
       0.3364525 -0.12911093 0.13062206 0.04530926
000010 0a ec 06 3f 07 84 9c bd 4b de 26 3e 1a 4a 85 be
       0.5270392 -0.0764237 0.16295736 -0.26033098

running_mean f4 [8]
000000 59 a7 38 bf 81 97 71 40 fc dc c9 3f 95 ae 2e 40
       -0.7213035 3.774872 1.5770564 2.7294056
000010 3d 1d 04 c0 96 bd c0 bf 72 5f 8d bf e6 56 68 c0
       -2.0642846 -1.5057857 -1.1044753 -3.6303039

running_var f4 [8]
000000 dd 31 0f 41 38 69 01 41 b9 e1 cd 40 87 9f 17 41
       8.949674 8.088188 6.433804 9.476447
000010 3e be 82 41 b3 45 69 40 07 d3 1d 41 7c ee d5 40
       16.342892 3.644879 9.86402 6.685362

weight f4 [32, 8, 1, 1]
000000 1b 87 ff 3d ce 1c 77 be 34 91 b9 be 57 ed bc bd
       0.12476941 -0.24132082 -0.36243594 -0.092249565
000010 ca ab b4 3e 48 34 6e 3f 81 f2 40 bd c5 99 9a bc
       0.35287315 0.93048525 -0.04710627 -0.018872151
000020 f9 46 bc be cf 4a 80 3e 22 59 02 be 95 b1 a9 be
       -0.36772898 0.25057074 -0.12729314 -0.33143297
000030 3a f8 15 3e b9 61 31 3f 3f bd ce 3d e7 44 20 bf
       0.14645472 0.6928974 0.100946896 -0.62605137
000040 89 34 35 be a4 f5 5b 3e f7 17 58 3e 35 29 6a 3d
       -0.17695822 0.21480423 0.21102892 0.057168204
000050 0d 3b b7 bc 8d 7e a7 3e 0e 1f 4d 3f c4 43 18 bf
       -0.022367025 0.32713738 0.8012551 -0.594784
000060 23 6b 9c 3f c8 f9 89 be ea 99 85 be 98 6d 00 3f
       1.2220196 -0.2694838 -0.2609399 0.50167227
000070 49 db 64 3d 2f 32 7b 3d 9e 7c dc 38 0e 30 08 be
       0.05587319 0.061327156 0.00010513629 -0.13299581
000080 d6 bb 71 3d 66 41 56 3e 12 83 aa 3e be ee c4 3e
       0.059017025 0.20923385 0.33303124 0.38463396
000090 64 17 91 be 64 55 43 be 1d c5 32 bf 20 8f 4c 3e
       -0.28338158 -0.19075543 -0.6983202 0.19976473
0000a0 bd 72 1a be 3a b6 7f be 7c 1c b3 3e 14 19 09 bc
       -0.15082832 -0.24971858 0.3498267 -0.0083677955
0000b0 a9 f3 76 bf ac aa fe bd d0 c2 8f 3e c1 35 d9 3e
       -0.96465546 -0.12434897 0.28078318 0.42423823
0000c0 5f c6 08 3e a0 66 51 3e a8 f6 d9 ba 0f 40 47 bf
       0.13356923 0.20449305 -0.0016629295 -0.7783212
0000d0 4f 39 34 bd 30 1d b2 3e 57 ff f5 3e be 81 99 be
       -0.043999966 0.34787893 0.4804637 -0.29981798
0000e0 f3 03 5a 3e a4 bf e3 3e 31 14 06 3f 04 de 82 be
       0.21290569 0.44482148 0.5237456 -0.2556001
0000f0 c7 bb 02 bf d5 4c c9 3e be 35 81 be 8f a9 79 bd
       -0.51067775 0.3931643 -0.25236315 -0.06095272
000100 1a 24 88 bf 96 d0 45 3d 5a 9d 2b 3e f2 79 1c bf
       -1.0636017 0.048294626 0.16759244 -0.61123574
000110 b0 bd 2f 3c 17 46 04 be f6 18 58 3d 95 11 3a bf
       0.010726377 -0.12917362 0.05275818 -0.7268308
000120 e6 7b 1f bf 67 90 38 3e 4a 02 89 3e ea 1f 07 3f
       -0.6229843 0.18023835 0.2675956 0.5278307
000130 8d 88 bb be b3 92 cc be 14 d3 f8 be 62 46 f5 bd
       -0.36627617 -0.39955673 -0.4859854 -0.11976315
000140 76 58 f5 bb 41 af e4 be 2a 1b 81 3d 9f f0 24 3e
       -0.007487352 -0.44664958 0.06304009 0.16107415
000150 b2 a9 cd be f7 dc 8e 3d 54 47 1a 3f a6 31 11 bf
       -0.4016853 0.069757394 0.6026509 -0.5671638
000160 17 d5 43 bf 1b 78 db 3e 9a eb 82 3e 24 23 3c 3d
       -0.76497024 0.4286507 0.25570375 0.04593195
000170 42 43 c3 bc b7 94 04 3f 2e 81 34 3d dc 61 07 bf
       -0.023835782 0.5178942 0.044068508 -0.52883697
000180 0e 69 a5 3e 4e b9 88 3e db 11 3f 3e 8b f7 ae be
       0.32306713 0.26703876 0.18659155 -0.34173235
000190 df 6e 5e 3f 90 5e 37 3e 94 c9 ab 3e 6c f0 d7 be
       0.86887926 0.17907166 0.3355223 -0.42175615
0001a0 1a 6b ba be 1e 07 d3 be 21 67 10 3f 27 8b 04 3f
       -0.36409837 -0.41216367 0.5640736 0.5177483
0001b0 46 a6 f9 be f1 e5 a8 bd 58 dc 20 3d 2b 31 c0 3e
       -0.4875967 -0.08246983 0.039272636 0.37537512
0001c0 e6 13 12 3e b9 ba 10 3f 82 42 3d bf 7e cc 84 3e
       0.14265403 0.56534916 -0.7392961 0.25937265
0001d0 20 f1 9c 3e c8 28 c6 bc 1d 9c a1 bc d5 61 81 3e
       0.30652714 -0.024189368 -0.01972776 0.25269952
0001e0 61 23 c7 3e 3d 34 8c 3e 26 ee bc 3e 4c 5b 8c bd
       0.3889418 0.27383605 0.36900443 -0.06853351
0001f0 b0 c7 39 bf 91 0d 56 3e 10 24 9c bd e1 c9 1c 3f
       -0.72570324 0.20903613 -0.07624066 0.6124554
000200 99 07 14 3e 69 57 33 bf 58 cc 29 bf 00 c1 a0 be
       0.14456023 -0.7005525 -0.6632743 -0.31397247
000210 8f 8a 2a 3f 12 69 5b 3d 1b 1e 4e 3d c0 0e 7f be
       0.66617674 0.053567 0.05032168 -0.2490797
000220 40 d8 69 be 12 1f e5 be 55 87 a5 3e 9f 15 9e 3d
       -0.22836399 -0.44750267 0.32329813 0.07718968
000230 3b 95 bd be 4d a5 66 3e c9 cc b4 3e 08 ed ff bc
       -0.37027916 0.22523995 0.3531249 -0.031240955
000240 53 92 e3 bd 8b f8 6b bc 1a 17 2e 3e 11 62 2a 3f
       -0.111118935 -0.014402519 0.17001 0.6655589
000250 1d 23 32 3f 0e 67 4c 3e d3 0c 91 bd 29 de 06 be
       0.6958483 0.19961187 -0.07082524 -0.13170685
000260 94 0c 37 bd 52 ff 6e be 41 64 a7 be 05 bc 62 3f
       -0.04468973 -0.23339584 -0.32693675 0.88568145
000270 b0 75 5a bd d1 80 05 3e 91 81 fa 3d 1d ca b9 3e
       -0.05333489 0.13037421 0.12231744 0.36287013
000280 3e c4 b5 3e db e8 e7 3e 3f 09 90 3e d3 e4 2c be
       0.35501283 0.45294842 0.28132054 -0.16884165
000290 b2 2f 80 3f 9c 3e 27 be 1e dc d5 bd 12 93 bc be
       1.0014555 -0.16332477 -0.10442375 -0.36830956
0002a0 43 7b 8e 3f 39 66 a9 3e 16 e1 e0 be f5 d2 4b bd
       1.1131366 0.33085802 -0.43921727 -0.04976173
0002b0 9a b3 aa 3e f5 87 b2 3e 37 39 87 be 8e e6 9d 3e
       0.3334015 0.34869352 -0.2641084 0.30839962
0002c0 5c 43 20 3f 31 4b 8f 3d 6c 67 e3 3e 47 00 0c 3f
       0.6260278 0.069967635 0.44414842 0.54687923
0002d0 5f 5f 9b 3e 65 e5 9e bd bb 64 16 bf 7c 14 9d bb
       0.303462 -0.07758597 -0.5874745 -0.0047937017
0002e0 a0 ea 7f 3e c6 ff 17 3f a8 ec f9 be 13 21 82 be
       0.24991846 0.59374654 -0.48813367 -0.2541586
0002f0 57 85 3b 3e dc 30 c4 3e 1b 97 b7 3e ed 43 49 be
       0.18312584 0.38318527 0.35857472 -0.19654818
000300 ea 9c 24 3c 19 3a 33 3d 92 8b f8 3e f6 f7 38 3e
       0.010047177 0.043756578 0.48543984 0.1806334
000310 f7 a7 0f 3f b5 35 8e 3e f9 30 b7 be 02 ae 72 be
       0.5611567 0.2777535 -0.3577955 -0.23699191
000320 4e 5b 55 3e c2 46 14 3f b9 7a cd bd 91 10 05 bf
       0.20835611 0.5792047 -0.10033173 -0.51978403
000330 13 b2 99 3d 8a 5f 45 3e d3 96 86 bd 9a 1f 8c 3e
       0.07504668 0.19274727 -0.06571736 0.2736786
000340 b1 d6 49 be 45 8e dc 3e a3 2b 36 be 23 7f 25 bc
       -0.19710805 0.43077293 -0.17790084 -0.010101113
000350 fc 84 36 3f 6c 32 2b 3f 95 14 52 3c 8f fc 3c 3e
       0.7129667 0.6687381 0.01282229 0.18455718
000360 8b f9 90 be 61 94 e8 3e 8b 37 bc 3e 7e b5 b1 bd
       -0.28315386 0.45425704 0.36761126 -0.08677195
000370 b0 f5 2e bc 78 9a 41 3e ec e8 b9 3e a7 81 ab be
       -0.010678694 0.18906581 0.36310518 -0.33497354
000380 c7 75 00 3f a7 fa 4d 3e 0a 21 b0 be a6 82 17 3f
       0.50179714 0.20115148 -0.34400207 0.5918373
000390 1e ca 2c be be f8 32 bd 55 63 3b be 5a 23 9e be
       -0.16873977 -0.04369425 -0.18299611 -0.30886346
0003a0 ac 94 56 bf aa 0c be 3e dd 53 84 3d c2 63 8e be
       -0.83820605 0.37119037 0.06461308 -0.27810484
0003b0 ab 63 a5 be 81 c7 35 3f f5 84 90 3d 56 91 a6 bd
       -0.32302603 0.71007544 0.070566095 -0.081331894
0003c0 88 b8 ed ba 54 05 f9 3e d1 9f 96 3c 9e f5 69 be
       -0.001813666 0.48636878 0.018386753 -0.22847602
0003d0 da 50 d4 3e a5 1e e6 be 05 a6 42 3f 4e 18 54 3d
       0.41467935 -0.44945255 0.76034576 0.05178099
0003e0 8e 33 cd ba 42 e3 11 bf c9 31 12 3e ab e3 d0 3e
       -0.0015655623 -0.5698739 0.14276804 0.40798697
0003f0 c9 0b 22 bf 25 b0 a6 bc 1b 6f 70 bc f2 5d 00 3f
       -0.6329923 -0.020347664 -0.014674927 0.5014335

weight f4 [32]
000000 65 45 d8 3f 2c 5b c2 3f 25 95 05 40 f9 c4 0b 40
       1.6896178 1.5184073 2.087228 2.1838973
000010 a7 ae f2 3f f9 84 10 40 6d 0a 99 3f a2 1c ee 3f
       1.895955 2.258116 1.1956307 1.8602488
000020 04 53 ed 3f 5f 9e ef 3f da 89 21 40 dd bb d6 3f
       1.8540959 1.8720206 2.5240388 1.6776081
000030 24 ef a2 3f 20 32 f9 3f d2 43 07 40 d3 f9 14 40
       1.272923 1.9468422 2.1135144 2.327748
000040 c9 80 d1 3f b7 98 d3 3f 78 58 d5 3f be 1e d5 3f
       1.6367427 1.653098 1.6667624 1.6650007
000050 e8 e3 bb 3f da 8e 01 40 cd 24 ce 3f 42 1c 07 40
       1.4678926 2.024344 1.6104981 2.1110997
000060 50 07 b5 3f a6 cb da 3f ed a3 da 3f 14 d5 be 3f
       1.4142857 1.7093399 1.7081276 1.4908776
000070 89 3f f3 3f 9d 52 c0 3f 74 7c ba 3f df 2f f4 3f
       1.9003764 1.5025212 1.456923 1.9077109

bias f4 [32]
000000 b6 60 4a 3e ec 80 01 be 43 2d 16 3e 10 21 79 3e
       0.19763455 -0.12646836 0.14665703 0.24329019
000010 bf bd fe 3e 3c 3c 21 3f a1 6e 66 3d a9 19 01 bd
       0.4975414 0.62982535 0.056257848 -0.031518612
000020 69 1d 97 3e 7a 13 a0 3e 8a b2 93 bc 2a a9 90 be
       0.29514626 0.3126486 -0.01802947 -0.28254062
000030 bb fc 1d 3e 8d 2d 31 3f ee 69 cd 3d c2 46 87 3e
       0.1542844 0.6921013 0.1002997 0.2642117
000040 d8 08 b7 3d 8c 98 74 3e f9 e8 5c b9 f7 fb f7 3d
       0.08937234 0.23886317 -0.00021067624 0.12108605
000050 26 7c 4e 3e 4c 9d c6 3d 90 83 3f 3e e4 bb 63 3d
       0.20164546 0.09697971 0.18702531 0.05559911
000060 8b ca 68 be fc d3 3e bd f3 a2 f2 3d ea 53 bc 3e
       -0.22733514 -0.046588883 0.11847486 0.3678277
000070 ff 73 b5 3d a5 94 0c bd 6d 98 bb 3e 43 ed 54 3e
       0.08860015 -0.034321446 0.3663973 0.20793633
