HW2/aML/resnet6_btnk_ch16.pt (torch, 95389 bytes, 42 tensors)

weight f4 [16, 3, 7, 7]
000000 20 a0 44 bf 49 98 31 bd b7 7e 0a 3d 86 c6 16 3e
       -0.7680683 -0.04335812 0.03381225 0.14724168
000010 85 14 41 3e 25 be f7 bc 2d 05 90 be 02 4b 1b be
       0.18855484 -0.030242035 -0.2812895 -0.15165332
000020 2a c4 ab 3e af a9 e6 bd f5 a0 a6 bd a9 6b 90 3d
       0.335481 -0.11262833 -0.08136169 0.070517845
000030 71 cb 51 bd 0b ee a8 3b 78 19 f2 be 38 d2 86 be
       -0.051219407 0.00515533 -0.47285056 -0.2633226
000040 75 28 0b be cd ef db bd a6 74 89 bd a3 ff 66 bd
       -0.13589652 -0.10739098 -0.06711702 -0.056396138
000050 5e ea 54 be 72 4c 29 be 45 db 99 be ca 46 17 3e
       -0.20792529 -0.16533068 -0.30050102 0.14773098
000060 3b 03 1a 3e e6 45 25 bd 3e aa d1 be 78 46 27 be
       0.15040295 -0.040349863 -0.40950197 -0.16335475
000070 f3 27 94 be 0e 8d 8d 3d b1 77 5d 3d a7 0e 1c 3e
       -0.2893673 0.0691167 0.054069225 0.15239964
000080 25 74 9f bf a8 b4 51 bf b5 c0 ba 3e bc 9f 4e bf
       -1.245732 -0.81916285 0.3647515 -0.80712485
000090 85 b4 8b 3e 46 6e 33 bd 5b 47 2e bf 7c 61 0d bf
       0.27286163 -0.043806337 -0.6807763 -0.55226874
0000a0 8c 38 79 3e af 36 99 3e de ae b3 be df 0a 13 3e
       0.24337977 0.29924533 -0.3509435 0.14359616
0000b0 1c 66 1d be e8 d3 a5 bd 62 a4 29 3e 16 63 9b 3e
       -0.15370983 -0.080970585 0.16566613 0.30349034
0000c0 48 bf c9 bd 35 a7 4b bf 8e 9f 15 be 2e e4 27 3c
       -0.09850937 -0.7955201 -0.14611647 0.010247273
0000d0 06 ce 94 3d fc 50 9a 3e 69 d3 b5 bd 56 1e 92 be
       0.07265858 0.3013991 -0.08878214 -0.2853877
0000e0 bc a3 df bd ee ff a7 3e bd 90 d6 bd 7c db d5 bd
       -0.10919902 0.32812446 -0.104768254 -0.10442254
0000f0 53 57 e0 3c 1f 9b 20 bd 39 46 35 bd 7b 4d f2 be
       0.02738539 -0.039210435 -0.044256423 -0.47324738
000100 ea 4c 8e be e6 ad b7 bd 02 82 d6 bd b6 4e c4 ba
       -0.27793056 -0.08968715 -0.10474016 -0.0014977071
000110 b4 b4 32 3d a6 2e 76 be 81 24 76 be 90 a0 35 be
       0.043629363 -0.24041232 -0.24037363 -0.17737031
000120 64 f4 9a 3d 1c 41 a8 3d b3 86 2a bd bc 39 d5 be
       0.07566145 0.08215544 -0.041632365 -0.4164561
000130 c6 80 56 be ea 95 62 be ef b3 2b bd 7e d5 dc 3d
       -0.2094756 -0.221275 -0.041919645 0.10782908
000140 17 da 82 3d 84 d5 aa bf 8e 56 40 bf 23 bd a7 3e
       0.063892536 -1.334641 -0.7513207 0.32761487
000150 33 64 3a bf 52 a8 80 3e 28 5a 09 be 04 77 27 bf
       -0.7280914 0.25128418 -0.13413298 -0.6541598
000160 49 dd d2 be b6 fa 29 3e d6 66 9c 3e 8e 6b 91 be
       -0.41184452 0.16599545 0.30547208 -0.2840237
000170 76 6b 39 3e 4d f4 8f bd da d8 a3 bc e5 5e 35 3e
       0.181074 -0.070290186 -0.020000864 0.1771198
000180 88 44 57 3e 95 c5 ca bd 42 78 40 bf 72 48 0d bc
       0.21022236 -0.09900967 -0.751835 -0.008623229
000190 93 df 78 3d 4a 38 ab bb 1c b9 8f 3e 8c 5a 24 be
       0.060760092 -0.005225216 0.28070915 -0.16050166
0001a0 fb 6b 2a be e1 46 94 bd 37 54 c1 3e 16 3d 4c bd
       -0.16642754 -0.072400816 0.37759563 -0.049862944
0001b0 a8 8e cf bd a1 46 1c 3d a3 77 12 3d 0b f6 6e bd
       -0.101346314 0.038153294 0.035758626 -0.058340114
0001c0 0f 42 1b bf ca ee 81 be 12 75 c4 bd 58 01 88 ba
       -0.6064767 -0.25377494 -0.09592642 -0.0010376377
0001d0 42 89 76 3b 12 76 9d bd ef 0a 85 be c2 5c 45 be
       0.0037618433 -0.07688536 -0.25984904 -0.19273666
0001e0 b9 0a a9 be 11 e4 cd 3d 24 27 f5 3d 98 6d 01 bd
       -0.33015993 0.10053266 0.11970356 -0.031598657
0001f0 8b cf e6 be 5f 0d 9a be a0 a9 66 be 67 1b 52 bd
       -0.45080218 -0.30088326 -0.22525644 -0.051295664
000200 36 fb 83 3d 6c ce 74 3d 03 26 ac bf 64 9e 3d bf
       0.06444399 0.05976717 -1.34491 -0.7406981
000210 f1 61 c0 3e ba a1 49 bf 02 f1 66 3e 69 66 19 be
       0.37574723 -0.787624 0.22552875 -0.14980473
000220 7d f0 28 bf 58 c6 e5 be f5 e5 46 3e 8c 4a 78 3e
       -0.65991956 -0.44877887 0.19423659 0.24247187
000230 34 d6 6c be b2 3a ff 3d f6 72 83 bd 62 4e a4 3d
       -0.23128587 0.12462367 -0.064184114 0.08022763
000240 f0 b7 10 3e c5 bc 67 3e 19 08 32 be a2 de 09 3e
       0.14132667 0.22630604 -0.17385902 0.13463834
000250 58 90 75 3d 1b cc 89 3e 5c 2d bd 3e 2b f8 b7 bd
       0.05995211 0.26913533 0.3694867 -0.08982881
000260 28 05 be bc e9 29 91 be 70 89 10 3e 82 08 58 3d
       -0.023195818 -0.28352287 0.14114928 0.05274249
000270 f0 10 75 3e f8 25 6f 3e 98 8c 13 3e 04 8e 67 be
       0.23932242 0.23354328 0.14409101 -0.22612768
000280 ce 89 cc be eb f4 42 3e 90 13 68 3e b0 6c 0b 3e
       -0.39948887 0.19038741 0.22663713 0.1361568
000290 9d c5 46 3e 7b 43 13 3e 97 5b 12 be 32 40 8d be
       0.19411321 0.1438121 -0.14292751 -0.2758804
0002a0 fb 41 15 bd ba 6e 2b 3e 61 79 c5 3d 48 2e a0 3b
       -0.036439877 0.16741458 0.09642292 0.0048883297
0002b0 8e f7 45 3e ee 4b 06 bf ee 6e 18 bf 0d bd b9 be
       0.19332716 -0.5245961 -0.59544265 -0.36277047
0002c0 f6 dd 1f 3c b5 9a b9 3d 56 d8 69 bd 07 ee 5e be
       0.009757509 0.09062711 -0.05709108 -0.21770488
0002d0 66 75 de be 2c 33 bf bd b7 35 67 be 2b a3 80 bd
       -0.43448943 -0.09335932 -0.22579084 -0.06281122
0002e0 19 2a 29 3d 45 5a 6b be b7 c2 c3 be 4f d1 9b be
       0.041299913 -0.22983654 -0.38234493 -0.30433127
0002f0 ea 76 30 be c8 29 fc be ba 25 a2 be 10 80 a4 be
       -0.17232862 -0.49250627 -0.31669408 -0.32128954
000300 bb fa b9 bd 78 45 3a be 96 dd 99 3d 67 9c 4c bd
       -0.09081026 -0.18190563 0.07512967 -0.049953844
000310 c8 5a 14 3c 73 22 42 3d 19 1a 72 3e d1 dd be 3e
       0.009054847 0.047396135 0.23642768 0.37278607
000320 0c 68 d7 bd c6 59 0b be 7c 24 83 be d6 08 e2 3c
       -0.10517892 -0.13608465 -0.25613773 0.027592104
000330 ce 66 22 3e 25 4b fa 3d 60 d1 28 3e ca c9 3b 3e
       0.1585953 0.12221364 0.1648612 0.18338695
000340 97 40 73 be ae 21 a2 be 56 33 0b 3e f9 41 7a 3e
       -0.23755108 -0.3166632 0.13593802 0.24439229
000350 25 22 25 3e 57 30 91 3e 52 3f 7f 3e 7b 86 16 be
       0.16126306 0.28357193 0.24926499 -0.14699738
000360 01 3b d8 be 1d be ea bc 75 eb 36 3e c9 e9 4d 3d
       -0.42232516 -0.028655106 0.17863257 0.050271783
000370 6f 8c e4 bd 22 d3 4a 3e 9f 0a e8 be c0 f7 1b bf
       -0.11159598 0.19807103 -0.45320603 -0.6092491
000380 48 24 ad be ce 5d 08 3d 60 be 0e 3e 44 b9 98 bd
       -0.33816743 0.033292584 0.1393981 -0.074572116
000390 d4 1d 2f be 0f 74 f9 be 5a bd 5b bd d9 d8 75 be
       -0.17101222 -0.48721358 -0.053647377 -0.24008502
0003a0 c9 06 c0 bd de 68 4e 3d 88 fe 63 be 3c b8 c5 be
       -0.09376294 0.050392978 -0.22265065 -0.38617122
0003b0 47 ca 5f be 7c 87 32 be 87 28 00 bf 48 8d 5d be
       -0.21854506 -0.17434496 -0.5006184 -0.21635926
0003c0 5c f3 b2 be ed 6d e3 3b 3a bd 0e be bb 8b 04 3d
       -0.34951293 0.0069405944 -0.13939372 0.03235982
0003d0 96 8f 00 bd 00 4f b9 3b 06 26 b9 3c 27 77 ae 3e
       -0.031386934 0.0056551695 0.022601139 0.3407528
0003e0 15 1f bf 3e ab 1a 02 be 8a e5 14 be 8e f6 97 be
       0.373284 -0.12705486 -0.14540687 -0.29680294
0003f0 29 66 b1 3d 5e 4f 22 3e 59 fe 21 3e a7 35 7f 3e
       0.08662064 0.15850589 0.15819682 0.2492281

weight f4 [16]
000000 2c 7b bf 3f 33 61 a0 3f 12 cc 98 3f df 51 a7 3f
       1.4959464 1.2529663 1.1937277 1.307186
000010 71 03 55 3f 24 ec 31 3f 47 ad c9 3f 46 fe 71 3f
       0.83208376 0.69500947 1.5756005 0.94528615
000020 e7 75 bd 3f bc 24 b5 3f 97 28 aa 3f d0 42 6b 3f
       1.4801606 1.4151835 1.3293637 0.9189882
000030 84 bd 6e 3f 80 72 03 40 51 70 41 3f f2 7c 60 3f
       0.9325793 2.0538635 0.75562006 0.8769065

bias f4 [16]
000000 67 27 10 3d 6a f4 8f 3e 8e 66 e2 bd 35 a8 4a bd
       0.035193827 0.2811616 -0.11054717 -0.04947682
000010 14 ec 84 be 72 bd 38 be 2a ea df 3d 19 49 fc bd
       -0.25961363 -0.18041018 0.10933335 -0.1231863
000020 ac 48 48 bd c4 03 3c bd c2 a0 a3 3e de 9d 2c be
       -0.04889743 -0.04590203 0.31958586 -0.16857097
000030 23 46 43 bd 26 70 8d 3c 7b 43 66 be 05 fb 24 bd
       -0.04767431 0.01726539 -0.2248668 -0.040278453

running_mean f4 [16]
000000 98 e0 8e c2 d9 96 2b c2 0d dc 0e c1 9f 53 09 c2
       -71.43866 -42.897312 -8.928723 -34.33166
000010 cd d3 99 41 96 e4 a4 c0 71 f5 78 c2 04 1d c8 42
       19.228418 -5.1529036 -62.23969 100.05667
000020 0e 56 2a c2 89 fc 11 c2 97 f4 1a c2 6f 20 7b 40
       -42.584038 -36.496616 -38.738857 3.9238546
000030 9f bd 17 41 45 3a c6 c2 1d 38 b6 3f 87 a2 47 c0
       9.483794 -99.11381 1.4235874 -3.119295

running_var f4 [16]
000000 b2 e3 27 48 09 78 c3 47 5e 30 1e 47 15 5f 5f 47
       171918.78 100080.07 40496.367 57183.082
000010 25 d7 81 46 c6 25 b4 45 03 6f 15 48 08 d1 a3 48
       16619.572 5764.7217 153020.05 335496.25
000020 4f 37 92 47 a7 03 91 47 39 e0 94 47 a0 72 df 46
       74862.62 74247.305 76224.445 28601.312
000030 c2 9d fd 46 90 24 99 48 04 a1 4c 46 7d c8 16 47
       32462.879 313636.5 13096.254 38600.49

weight f4 [16, 16, 1, 1]
000000 c6 7a 7f be ad 8f 62 bd 83 14 28 be 02 5a 9d 3e
       -0.24949178 -0.0553128 -0.16414075 0.30732733
000010 d0 3e 1f bf 5f c6 4c 3e e9 4a 2d bf 6c 35 f9 bd
       -0.6220522 0.19997548 -0.6769243 -0.121683925
000020 31 10 06 3e 30 53 6e 3e 5c 11 4e be 97 ea e7 3d
       0.13092114 0.23273921 -0.2012381 0.11324041
000030 f4 85 d0 3e 55 41 44 bf 96 9a 85 3e 54 9f de 3d
       0.40727198 -0.7666219 0.26094502 0.10870233
000040 06 fe 9f 3e 0b 2d 36 be 3d e5 ea 3e a4 a0 a1 bd
       0.31248492 -0.1779062 0.4587802 -0.07891968
000050 40 57 d3 3e 81 0d 46 bd 20 3a c9 be 10 9b dc bd
       0.41277504 -0.048352722 -0.39302158 -0.10771763
000060 e4 51 d3 bd 18 0b c8 bd 8b 82 1d bd b2 6d fe bd
       -0.10318354 -0.09767741 -0.038454574 -0.124232665
000070 67 67 d0 be 68 5a 18 3f 43 89 93 be 58 ca b3 bd
       -0.4070389 0.5951295 -0.2881566 -0.087788284
000080 65 6b c7 3e 34 5b 88 be a7 d4 fa be a2 08 b5 3e
       0.38949123 -0.26632082 -0.48990366 0.3535815
000090 9e d6 1b be 3b 5a 29 be c0 02 9b 3e d0 ae 5b be
       -0.15218589 -0.16538326 0.30275536 -0.21453404
0000a0 52 8b f6 3e 43 9f 00 3d 53 62 64 3e ad 20 97 3e
       0.48153168 0.031401884 0.22303133 0.29517117
0000b0 fc 50 36 be 6d 4d fd bd 32 68 15 be d4 a4 36 3e
       -0.1780433 -0.123682834 -0.14590529 0.17836314
0000c0 88 8a e6 3d 8c 4e 03 3e f9 35 eb 3d 27 82 6d 3e
       0.112568915 0.12822932 0.11484904 0.2319418
0000d0 7a a0 39 3c 5a 2a 06 3e 91 6e b2 3e 8b d3 29 bf
       0.0113297645 0.13102093 0.3484998 -0.66338414
0000e0 4b 11 0b 3d a1 e6 fb 3e d9 76 2e 3f 4a a4 00 3e
       0.03395204 0.49199393 0.681501 0.12562671
0000f0 8e 5e 67 3d 36 c0 28 3f e4 f0 35 3e eb 77 c5 3d
       0.05648666 0.6591829 0.17767674 0.09642013
000100 8a 8b 94 bf 66 13 19 be 54 21 d7 3d 65 9f 75 3f
       -1.1605084 -0.14948806 0.10504404 0.9594634
000110 cf fd df bb 34 9b 70 3e bb d6 b8 3e ba 92 7e be
       -0.0068356763 0.23496705 0.36101326 -0.24860659
000120 0d 74 6f bf d8 f5 70 3e d0 9d b5 be 5e 25 e4 3e
       -0.93536454 0.23531282 -0.35471964 0.4455976
000130 a9 e4 fb bd 5b 6c 0f bf 44 42 21 be 24 03 08 3f
       -0.12299473 -0.5602471 -0.15747935 0.5312979
000140 81 20 f6 3d 7e e3 be 3d ce 4f cd be b1 cb 89 3d
       0.120179184 0.093207344 -0.4009995 0.06728304
000150 c6 5d 1d 3e 7f 5b c9 bd 90 e6 af 3e ea 18 c9 be
       0.15367803 -0.098319046 0.34355593 -0.3927682
000160 d9 0b db 3c 63 d9 0b be d8 9e a2 be 7b d4 aa 3e
       0.026739048 -0.13657145 -0.31761813 0.33365235
000170 06 be ab 3e 5b 92 08 bf 70 c8 8a 3e d0 5c fb bd
       0.33543414 -0.5334832 0.27106047 -0.12273562
000180 94 b2 77 bf e3 8b 16 3d 28 80 82 be 55 69 53 bf
       -0.96756864 0.0367545 -0.254884 -0.825826
000190 6c 92 12 be 9e 96 5c 3d a6 17 7f bf ef c5 69 be
       -0.14313668 0.053854577 -0.9964546 -0.22829412
0001a0 c8 08 42 bf 9a cb 75 be b2 3f 00 be 5e 04 d8 3a
       -0.7579465 -0.24003449 -0.12524298 0.0016480794
0001b0 29 e0 bb bd f6 22 cf 3e f8 69 14 3c 63 07 50 3d
       -0.091736145 0.4045636 0.009058468 0.050788295
0001c0 55 ba 82 3d 75 80 e0 be 13 c8 5c 3e 2f 29 6b 3d
       0.06383196 -0.43848005 0.21560697 0.057412323
0001d0 1f 13 18 3e 10 d0 fe 3e 8b ea 10 be 6a c8 ae bd
       0.14851044 0.49768114 -0.14151971 -0.0853432
0001e0 73 fe 2e 3e df c8 29 bd a5 e6 24 be 26 e2 a1 bd
       0.17089252 -0.04145133 -0.16103609 -0.079044625
0001f0 b8 a7 96 3e 46 c9 34 bf a7 54 f4 3e 4e 8e 61 be
       0.29424834 -0.7061962 0.47720835 -0.22026941
000200 88 a7 81 bf f1 33 a0 3e 15 8f 85 be e9 b4 fd bc
       -1.0129251 0.31289628 -0.26085725 -0.030970054
000210 2d c1 e1 be 8c 54 d2 3c 89 c4 8e 3d b8 47 1b 3e
       -0.44092694 0.02567508 0.0697108 0.15164077
000220 dd 6e 0a 3f 12 fe f6 be b4 8b ab be 46 74 97 bf
       0.54075414 -0.48240715 -0.33505023 -1.1832359
000230 7c 8a 1c bd e0 01 fb bd 48 28 03 3f a4 b2 69 be
       -0.038218006 -0.12256217 0.5123334 -0.22822052
000240 6b e3 37 3f 01 b0 1f 3f 83 9a a3 be b3 73 18 bd
       0.7183139 0.62377936 -0.3195382 -0.037219714
000250 ef 33 d7 3d 92 ad 2b bd a4 59 3b 3e a6 c1 b4 3e
       0.105079524 -0.041913576 0.18295914 0.35303992
000260 c9 9c 36 3f c2 d2 d4 bd 70 46 17 3e bd 21 7b 3e
       0.71332985 -0.10391761 0.14772964 0.24524589
000270 80 b1 89 be 9f f0 e9 bc f6 e6 9e be e1 8f 27 3e
       -0.26893234 -0.02855712 -0.31035584 0.16363479
000280 18 66 c6 bc 46 2a 71 3e 1b 2e 84 3e f3 f2 24 be
       -0.024218604 0.23551282 0.25816426 -0.16108303
000290 33 94 06 be 36 ed c7 3d d3 65 71 3e 5b 3b 8e 3e
       -0.13142471 0.09762041 0.23573999 0.2777966
0002a0 14 87 4b 3d 44 cb eb 3d 2c 8e a9 3e 0c 38 11 bf
       0.049689367 0.11513379 0.3311628 -0.56726146
0002b0 3d fc 5f 3e ac c0 0b 3f 5c ff 97 3d 81 3f 94 be
       0.21873565 0.5459087 0.07421753 -0.289547
0002c0 b0 95 c6 bd 41 96 0e bf 8a 10 31 bf 36 07 e6 be
       -0.096965194 -0.5569802 -0.6916586 -0.44927377
0002d0 81 1a 90 bd 1a cc db be 6a d7 3a 3f b8 d0 3a 3e
       -0.07036305 -0.42929155 0.72984946 0.18243682
0002e0 aa 44 4d bf 5f 11 9f 3e eb 47 9c be 78 81 54 3e
       -0.801829 0.3106794 -0.3052362 0.20752513
0002f0 02 2e 0a bd bc f1 9c 3e e8 2c 2c bd 2e 32 24 3e
       -0.033735283 0.3065318 -0.042035013 0.16034767
000300 64 1f cb be 93 95 a7 bd d7 90 8d be d8 83 d2 be
       -0.39672387 -0.08182826 -0.27649567 -0.41116214
000310 dd 93 9c be 2f 34 37 be 68 60 22 bf e6 df 60 bd
       -0.3058156 -0.17891 -0.63428354 -0.054901026
000320 c4 02 81 bf f8 51 57 be f6 83 46 bf 9c b4 93 bd
       -1.0078969 -0.21027362 -0.77545106 -0.07212183
000330 2b 48 9a be 7d 5c 52 be 04 36 8f be 7e a8 03 bd
       -0.30133185 -0.20543094 -0.27970898 -0.03214311
000340 4f e2 e8 3e 86 f2 b3 3a 17 e3 4c be 44 ad f5 3e
       0.4548516 0.0013728894 -0.20008503 0.47983754
000350 f5 94 d2 3e 7a 0a b3 3d 78 b1 6a bf b8 a2 76 3d
       0.4112927 0.087422326 -0.91677046 0.060213774
000360 b6 33 89 3e 13 78 e0 be e3 ce e2 be 14 bf cd 3e
       0.26797265 -0.4384161 -0.44298467 0.40184844
000370 2c 38 3e 3e e1 8e c8 3d 8e bd 89 3c a7 05 32 be
       0.18576115 0.09792877 0.01681402 -0.17384969
000380 e5 cf 4e bd ba 5e 14 be 98 4e f1 bd 2d f2 22 3f
       -0.050491232 -0.1448926 -0.11782569 0.6365078
000390 36 37 0d 3c 4f 7c e7 3d de b4 9c bc d6 7c bb 3e
       0.00861912 0.11303007 -0.019129213 0.3661868
0003a0 d1 fe e1 3e 03 1e 01 bf d8 39 fc be 31 e5 47 bd
       0.44139722 -0.5043642 -0.4926288 -0.04880256
0003b0 a8 86 c0 be 2b d7 fa 3e 14 30 7f 3e a4 bf 7e 3e
       -0.37602735 0.48992285 0.24920684 0.24877793
0003c0 54 3b 7a be e1 5c d0 3e d5 c6 ca 3d e5 df 28 3c
       -0.24436694 0.4069586 0.099012055 0.010307287
0003d0 5d d0 03 be 8b 9a f4 3d 30 ea 39 3e ad a8 67 be
       -0.12872453 0.11943539 0.18155742 -0.22622938
0003e0 e9 67 ea 3e 65 a9 8b be 38 f2 a8 be 7e 52 8f 3d
       0.45782402 -0.27277675 -0.32997298 0.06998156
0003f0 f7 25 bf be df 08 1c be 70 9a a2 bd 39 1f a6 3e
       -0.37333652 -0.15237759 -0.07939613 0.32445696

weight f4 [16]
000000 1e ff 98 3f 12 79 8a 3f 82 93 97 3f f5 25 35 3f
       1.1952856 1.0818198 1.1841891 0.7076104
000010 5b 0a 66 3f 07 30 80 3f ce 1c 8f 3f 81 ab 6a 3f
       0.8985955 1.0014657 1.1180665 0.91667944
000020 3c b3 a2 3f 5f ed 8a 3f 96 12 71 3f 24 29 9a 3f
       1.2710948 1.085369 0.94168985 1.2043805
000030 f5 96 99 3f 02 be 7e 3f 72 e4 8f 3f 36 3e 9b 3f
       1.1999193 0.9950868 1.1241591 1.212836

bias f4 [16]
000000 0a c9 53 be b8 4b 9a 3e c8 28 8a 3e 84 a8 b2 bc
       -0.20682159 0.30135894 0.2698424 -0.02180887
000010 d1 aa 3e 3e 8d 1e 81 be aa 2e 85 3d 50 78 7b be
       0.18619849 -0.2521862 0.06503041 -0.24557614
000020 e0 b8 9e 3e 01 c4 c6 3d a5 70 91 3e 55 f3 d2 3e
       0.31000423 0.097053535 0.28406253 0.41201273
000030 88 ce bf 3d a5 03 c4 be 67 ba 1d be 85 c9 0c 3e
       0.093655646 -0.3828403 -0.15403138 0.13748749

running_mean f4 [16]
000000 53 16 24 bf ce 8c 34 bd e0 13 43 3e 5b 60 79 3f
       -0.64096564 -0.044079594 0.1905055 0.9741265
000010 17 ab 0e bf e1 b7 01 be 50 5d 8f bf 30 bd b3 be
       -0.5572981 -0.126678 -1.1200352 -0.35105276
000020 c9 d0 39 bf 6a 99 57 3f e7 50 1b 3f a9 b2 c7 be
       -0.72584206 0.84218466 0.6067032 -0.39003494
000030 50 d3 cc bf 01 00 3e be 05 b3 7b 3c 7e 9b a5 bd
       -1.6001987 -0.18554689 0.015362506 -0.080862984

running_var f4 [16]
000000 47 63 08 3f 3c 13 73 3f e0 c9 6d 3f f1 fc 05 3f
       0.53276485 0.94951224 0.9288616 0.5233908
000010 39 73 9f 3f ca 9d 4a 3f ec 56 be 3f 7f b7 83 3f
       1.2457038 0.79147017 1.4870276 1.0290374
000020 f2 cd 9a 40 27 97 01 3f 14 d2 0c 3f 19 41 d2 3f
       4.83764 0.50621265 0.55008054 1.6426116
000030 ec ee 74 40 16 15 41 3f 53 c9 b5 3e 4d 58 eb 3e
       3.8270826 0.754228 0.3550516 0.45965806

weight f4 [16, 16, 3, 3]
000000 81 b4 4e 3e db 2f 50 3e d1 46 a7 3e 28 bf 65 be
       0.20186044 0.20330755 0.32671216 -0.22436202
000010 26 7f 82 3d 0e b0 9d 3e 12 fa e2 be 5b 0e 99 be
       0.06371908 0.30798382 -0.44331414 -0.29893765
000020 0e 36 dc 3e 69 dc 03 3f 34 b6 9f be 47 1a b2 be
       0.4300999 0.51508194 -0.31193697 -0.34785673
000030 46 ac 04 be 06 58 ab bd 44 9f 66 3d 9e 44 8e 3e
       -0.12956342 -0.083663985 0.05630423 0.27786726
000040 9a 71 a3 3e 2c 89 c0 3d e0 c6 b7 be 62 4c 49 be
       0.3192261 0.094011635 -0.35893917 -0.19658044
000050 a2 00 a5 3d b9 58 ef 3c c6 c3 3a be bb f0 52 be
       0.08056761 0.029217111 -0.18238744 -0.20599644
000060 ea 6d 9d 3e 95 96 70 be 33 78 ed bd c1 3f c0 3c
       0.3074792 -0.23494942 -0.11595192 0.0234679
000070 95 5d 9b 3d 03 e7 bf bd 8a 15 a5 bd 4e 61 88 3e
       0.07586209 -0.09370234 -0.08060749 0.26636738
000080 6b 19 96 3e 31 40 c7 bb 26 4f 51 3e c3 7d 04 3e
       0.29316267 -0.0060806503 0.20440349 0.129386
000090 83 6c 0f 3d bc 70 eb bc 7f 66 86 3e c4 51 9d bd
       0.035015594 -0.02874028 0.26250073 -0.07681611
0000a0 d9 4f b1 3c e1 d8 ac 3d 70 bc 0d bd 6e b8 a9 bd
       0.02164452 0.08439804 -0.034603536 -0.0828713
0000b0 64 b7 7b 3c 18 e6 66 be 5b 31 0a bd 3d e5 6b bd
       0.015363548 -0.22548711 -0.033738475 -0.057591666
0000c0 b6 a7 94 be 2c 93 bf 3d 7b a6 70 3e 2f 6d 14 bf
       -0.29034203 0.09354243 0.23501007 -0.579791
0000d0 cb 52 1a be 73 93 92 3e a1 b9 80 3e 09 7d e7 ba
       -0.15070646 0.2862812 0.25141624 -0.0017661165
0000e0 5f 1c 44 be 61 09 58 3e d0 8d 55 be 02 f1 e3 be
       -0.19151448 0.21097328 -0.20854878 -0.44519812
0000f0 27 4b a8 3e d5 6e 87 bd 94 e4 1c bd f8 ce 90 be
       0.32869837 -0.066129364 -0.038303927 -0.28282905
000100 cb 92 12 3d a8 e1 fc 3d 7b 97 e7 be a7 0e 12 be
       0.035784524 0.12347728 -0.45232758 -0.14263402
000110 4c de 28 3e fe 24 9f be 90 2a a0 3d 60 c2 3d 3e
       0.1649105 -0.3108291 0.07820618 0.1853118
000120 5e 9c 93 bd 03 c0 ce bd 84 e1 39 be 73 be 22 be
       -0.07207559 -0.10095217 -0.18152434 -0.15892963
000130 7c c4 7d be b9 9d 5e be 08 9f 2e 3d b8 af 0b be
       -0.24781984 -0.21739854 0.042632133 -0.1364125
000140 cd b6 59 3d fa 8f 82 3b a5 90 a7 bd 1a 45 85 be
       0.053152848 0.0039844485 -0.08181886 -0.26029283
000150 1a 49 17 3e ef e6 61 3e c3 a9 23 3e 40 0d 32 3d
       0.1477398 0.2206075 0.15982728 0.043469667
000160 0e 65 68 be d3 6e 14 be 63 2d 92 be 12 a9 22 3d
       -0.226948 -0.14495401 -0.28550252 0.03971202
000170 51 1a 38 3e b4 ef b6 be c8 86 b3 bd 59 01 3d 3d
       0.17978789 -0.35729754 -0.08765942 0.046143863
000180 11 4f 57 be 5a a8 cc bc 73 50 0e be a7 81 75 3e
       -0.21026255 -0.02498262 -0.13897876 0.2397524
000190 dc c4 74 3e 17 eb 39 3e 42 30 0e 3e ec d9 57 3e
       0.23903221 0.18156086 0.13885596 0.21079224
0001a0 43 fb 0c 3e 29 79 84 be 51 e6 d4 be 97 f4 9a be
       0.13767724 -0.25873688 -0.41581967 -0.30264732
0001b0 35 e2 53 3e b6 77 19 be bc dd 7e be cf 3b 36 3e
       0.2069176 -0.14987072 -0.24889272 0.17796253
0001c0 fa e7 6e be bf ac dc be 1c 69 81 3e 4a e5 5a bd
       -0.2333068 -0.43100545 0.25275505 -0.053441323
0001d0 72 24 b9 3d d0 6e bd bd be f0 b8 bc 92 ca a3 3e
       0.090401545 -0.092496514 -0.022575732 0.31990486
0001e0 cd 24 43 3c 47 6f c3 3d ec 2b 79 3e 85 53 c1 be
       0.011910629 0.09542709 0.24333161 -0.37759033
0001f0 9c 65 4d be 6e d7 6e 3e 9c a8 32 bf 4b 10 09 bf
       -0.20058292 0.23324367 -0.6978853 -0.53540486
000200 61 3d 62 3d ff 61 e8 bd e8 23 01 be b9 7e 4c 3e
       0.055234317 -0.11346816 -0.12611353 0.19970216
000210 1d e4 fa 3e 4e 48 fb 3d 62 bb 73 be 2e 4c 98 3e
       0.49002162 0.122696504 -0.2380195 0.2974562
000220 80 56 29 be b6 cb 12 be f2 07 e0 bd ec 33 bc be
       -0.16536903 -0.14335522 -0.109390154 -0.36758363
000230 b8 89 8d be 0d 23 bb 3e 27 40 aa 3e 79 17 c3 be
       -0.27644134 0.3655018 0.3325207 -0.38103846
000240 22 8e 84 be a4 ee 69 bd e2 50 12 3e b4 35 0d be
       -0.2588969 -0.05711235 0.14288667 -0.13790017
000250 27 58 b8 bd e5 a3 90 be 35 cc a2 3e c2 19 a6 3d
       -0.09001189 -0.28250042 0.31796423 0.08110382
000260 20 8f 19 3e b4 5c 27 3e bb b9 91 3d dc 1f 2c bf
       0.14996004 0.16343957 0.071155034 -0.67236114
000270 56 55 6d 3e 8c 61 7b 3e 1f e0 f2 be f0 fd cb 3c
       0.23177084 0.2454893 -0.47436616 0.02490136
000280 35 2f 5d be 1a 8d a7 be c9 9e 09 3f b7 ff ef 3e
       -0.2160004 -0.3272484 0.5375791 0.46874782
000290 80 44 77 3d 64 9e 38 bf 48 13 12 be 24 e5 02 bf
       0.06036806 -0.72116685 -0.14265168 -0.5113089
0002a0 b7 77 cd bc 9e 0b 3c bc 9c 3b 65 3e 95 3c e0 be
       -0.025081499 -0.011477379 0.2238602 -0.4379622
0002b0 0d 8a 21 3d 9e 30 82 3e 1d 17 56 be 8a e2 6f 3e
       0.039438296 0.25427717 -0.20907255 0.23426262
0002c0 33 14 e8 bc 17 79 8b 3d 79 7d 64 3e 27 97 16 bd
       -0.028329944 0.068102054 0.22313489 -0.036765244
0002d0 fa 78 b5 3d ba 14 45 bd 32 b0 15 bf 96 bb 39 be
       0.08860965 -0.04811547 -0.5847198 -0.18137965
0002e0 ee 89 4d 3e 4c 9c 4b be 5f 7f 1e bf 10 c4 b6 be
       0.20072147 -0.19883841 -0.619131 -0.3569646
0002f0 b0 8a 22 be 90 8c 8d 3c 69 a0 e7 3d 63 54 45 3e
       -0.15873218 0.01727894 0.11309893 0.19270472
000300 48 65 28 3e a5 f7 c1 bd 2d 52 5c 3d a4 ab 3c 3e
       0.16444886 -0.094710626 0.053789306 0.1842485
000310 9b 1d 4a bd e3 b9 e2 3c 46 d2 e9 bd d6 10 48 be
       -0.04934464 0.027676528 -0.114170596 -0.19537672
000320 90 17 8c bd 23 62 6b bd 11 ea fd bd 1f b7 1c bd
       -0.06840432 -0.057466637 -0.1239816 -0.038260575
000330 42 5f 43 be 0b c6 50 be fe 15 53 be 0a 71 24 be
       -0.19079307 -0.20388047 -0.20613858 -0.16058746
000340 c3 80 bc 3b 63 56 8a be c3 77 aa 3d 8a c4 fc 3d
       0.0057526543 -0.27019033 0.08323624 0.12342174
000350 21 0e f5 bd 92 fc 9c 3e 9b 09 85 3d 86 09 8c 3d
       -0.119655855 0.30661446 0.06495973 0.06837754
000360 e1 57 da be 10 3e 1b be 2e ff 6b 3e e0 b2 c9 bd
       -0.4264517 -0.15160394 0.23046562 -0.09848571
000370 b1 ba 31 be 30 3a 2b 3d c9 e8 1c 3e 03 4b 4c bd
       -0.17356373 0.04180354 0.15323175 -0.049876224
000380 30 e0 a3 3e fa a7 86 3d ad 90 95 bd 70 34 19 bf
       0.3200698 0.06575008 -0.07302985 -0.5984564
000390 59 a5 77 be e4 2c 00 3d fd a6 af 3c 55 30 c6 be
       -0.24184169 0.03129281 0.02144193 -0.3870875
0003a0 31 11 ab bd dc 71 ac 3b c2 ee 33 3e 07 85 3b 3e
       -0.083528884 0.0052625965 0.17571548 0.18312465
0003b0 63 87 11 be 6e 1f cb 3e 49 f7 05 3e 0d d9 29 be
       -0.14211802 0.39672416 0.13082613 -0.16586705
0003c0 a7 7f db 3e 24 35 1c 3e bb e7 40 3c 1f 82 03 3f
       0.42870829 0.15254647 0.011773999 0.51370424
0003d0 da e4 95 3e 5e c8 49 3f ab d3 d3 3e 1b 97 95 bd
       0.29276162 0.7882136 0.41372427 -0.07304212
0003e0 c8 c6 0f 3f 59 6c b3 be 1b e2 c0 be 41 17 ab 3e
       0.5616269 -0.350436 -0.37672505 0.3341618
0003f0 f3 cd 55 be e7 f0 9a be a8 89 3c 3d 82 38 8b be
       -0.20879345 -0.3026192 0.046029717 -0.2719155

weight f4 [16]
000000 56 ad 81 3f ce be 85 3f 5c ae ab 3f c5 64 80 3f
       1.0131023 1.0448854 1.3412585 1.0030752
000010 83 48 4e 3f c7 ba 47 3f b7 79 81 3f 44 6f ca 3f
       0.80579394 0.78019375 1.011527 1.5815206
000020 0a 28 b4 3f ac c0 5f 3f db 4d 56 3f 9d 77 ac 3f
       1.4074719 0.8740337 0.8371255 1.3474003
000030 56 d8 9b 3f 65 30 a8 3f 89 e6 70 3f e1 d5 9d 3f
       1.2175395 1.3139769 0.9410177 1.2330896

bias f4 [16]
000000 bd 9d 1e 3d 32 a4 34 3e 46 52 db be d4 bb 3a be
       0.03872465 0.1764076 -0.42836207 -0.18235713
000010 e4 ce 0e bf 54 c6 ac be 57 f9 aa 3e 61 cd 8d bd
       -0.5578444 -0.33745062 0.33393356 -0.069239385
000020 01 e7 66 3e ec 41 0d bf 0c c0 a5 be ec 08 9c be
       0.22549058 -0.55178714 -0.32373083 -0.30475557
000030 d8 a8 14 3d b0 42 48 3d b2 f7 3e bf de 76 bb bd
       0.036293834 0.048891723 -0.74596703 -0.091535315

running_mean f4 [16]
000000 69 da ac bf 16 81 0c bf b1 43 3b be fc 8d 8c bf
       -1.3504153 -0.5488447 -0.18287541 -1.098083
000010 f5 06 4c 3f 15 10 09 bd e4 22 0e c0 69 ce 56 3d
       0.79698116 -0.033462603 -2.2208796 0.05244294
000020 60 c3 e0 bf ae 41 e8 bf 7a d7 c0 3f 7e 54 12 bf
       -1.7559624 -1.8145044 1.5065758 -0.57160175
000030 c6 25 30 bf c0 94 81 3e 8c 35 32 40 c3 cc 49 bf
       -0.6880764 0.253088 2.7845182 -0.78828067

running_var f4 [16]
000000 b6 1d bf 40 36 c7 2d 41 44 60 f2 40 b5 b6 2f 41
       5.972377 10.8611355 7.574251 10.982106
000010 ec a9 ad 40 90 cb ef 40 e3 92 22 41 41 3a 00 42
       5.4269924 7.493599 10.160861 32.05689
000020 de 00 34 42 bb 48 14 41 1f 46 f6 40 73 28 73 41
       45.000847 9.267756 7.6960597 15.197375
000030 98 03 1a 41 da 5e 90 41 1c b2 e1 40 88 8a 63 41
       9.625877 18.046314 7.052992 14.221321

weight f4 [64, 16, 1, 1]
000000 c3 05 9b 3c 45 39 31 3e ad 64 89 be 99 c5 8d 3f
       0.018923646 0.17307003 -0.26834622 1.1075927
000010 df 01 57 3e 3b fc 83 3d 6e b9 76 3e aa 0e 27 3e
       0.20996808 0.064445935 0.24094173 0.16314188
000020 cf c8 a6 3e a8 98 44 3e 64 3c 46 3e 03 b8 0d be
       0.3257508 0.19198859 0.19358975 -0.13839726
000030 d8 9f 0f 3f bc c1 ae bd 7c 18 83 bc cc 8c e1 be
       0.5610328 -0.08533046 -0.016002886 -0.44052732
000040 6a ff 80 3c 9b ba b2 3e d5 e4 94 3d 8e 34 03 bd
       0.01574679 0.34907994 0.07270209 -0.032032542
000050 8b 2c 24 be 03 ac af bd 1f cd b1 3e 74 91 d8 be
       -0.16032617 -0.085777305 0.34726807 -0.42298472
000060 8f 47 26 be ce 12 cd 3e f8 3c 94 3d 45 d5 0f bf
       -0.16238235 0.4005341 0.07238191 -0.561848
000070 aa 52 7a be 59 55 8f 3f 67 25 02 be c9 7e 05 bd
       -0.24445596 1.1197921 -0.1270958 -0.032591615
000080 a6 97 51 3e 42 3a 7c be 9b 47 05 3d f9 d3 1d 3e
       0.20468006 -0.24631599 0.03253899 0.15412892
000090 9b 9c 91 3e cb 45 2d 3e f8 f5 df be b8 81 96 3f
       0.28439793 0.16921155 -0.43742347 1.1758337
0000a0 11 03 53 3f 39 70 aa 3e 21 b3 82 be 52 a4 0f 3e
       0.82426554 0.33288744 -0.2552729 0.14027527
0000b0 6d b6 16 3f 7f 19 0a be 67 a9 8e 3e 6e 8b 3a bf
       0.5887211 -0.13486288 0.2786362 -0.72869
0000c0 5d a4 53 3f bd 4a c1 3e 50 62 27 3f 76 d8 46 3e
       0.82672673 0.37752333 0.6538439 0.19418511
0000d0 5e 5a 80 3e a2 81 ba 3d 76 bf 3a 3d 0a 70 92 3d
       0.25068945 0.09106757 0.045592748 0.07150276
0000e0 dd d9 41 bf 48 70 29 bc 3e 6c 50 3e 56 f2 89 be
       -0.7572306 -0.010341711 0.20353791 -0.269427
0000f0 44 d4 dc be 1c ef 3a bf d5 a7 84 be 52 3a a1 be
       -0.43130696 -0.730211 -0.25909296 -0.31489807
000100 0d 7e 87 3f da 39 70 be 98 93 ae bd 9b be bb bd
       1.0585343 -0.23459569 -0.08524245 -0.091672145
000110 4b 16 85 be cc f1 7f 3e d0 4e d4 be 37 78 08 3e
       -0.2599357 0.24994582 -0.4146638 0.13327108
000120 be d1 ae be d6 c1 b3 bc e3 84 4a be e6 62 fb be
       -0.34144396 -0.021943014 -0.19777255 -0.4909889
000130 06 7b b5 3c 1d 50 8e 3e d3 24 32 be dd 56 04 be
       0.022153389 0.27795497 -0.1739686 -0.1292376
000140 f7 75 b9 bc 94 0a 9f 3e fa 03 72 3e 9f b5 2a be
       -0.022639258 0.31062758 0.2363433 -0.16670845
000150 81 14 d0 3d ea 0c d1 be 24 a0 17 bf 2c 3d a3 3f
       0.10160161 -0.40830165 -0.5922873 1.2753043
000160 db 15 34 be c3 ab f2 3e 28 1c 0e be 36 a4 04 3e
       -0.17586462 0.4739667 -0.13877928 0.12953267
000170 75 7e 59 bf a7 e6 6a be 9a 11 00 be f1 eb 8b be
       -0.84958583 -0.2293955 -0.12506714 -0.27328447
000180 32 d6 d7 bd e6 36 8f 3e 35 21 41 3e 21 4c d3 3e
       -0.105389014 0.27971572 0.18860324 0.4126902
000190 92 e0 af be a7 f2 ae bc 53 eb 75 3f da 59 fd bd
       -0.3435102 -0.02135594 0.960622 -0.123706535
0001a0 95 94 2e bf 3f 36 dd bd 04 a7 ef 3e 2c 4a 32 be
       -0.6819547 -0.10801362 0.4680711 -0.17411107
0001b0 03 94 77 be 0e 91 40 3e e4 21 94 bd 58 6c d6 3c
       -0.24177556 0.18805334 -0.072330266 0.02617471
0001c0 fc 3d 86 bc 07 90 a0 3e 18 88 0b 3e 77 55 9c 3d
       -0.016386978 0.31359884 0.13626134 0.076334886
0001d0 9b 87 cc be fd c6 18 be e0 a8 88 3e 18 a3 a2 bb
       -0.3994721 -0.14919658 0.2669134 -0.00496329
0001e0 9c 69 2b be d3 4f 83 3e ba 40 0d 3f 37 7b 18 bf
       -0.16739506 0.2564684 0.5517689 -0.5956301
0001f0 ff 8d 01 bf a3 44 dc 3e 86 93 0f 3e 47 dc 23 bf
       -0.50607294 0.43021116 0.1402112 -0.6400799
000200 3a 8a a4 be 36 b9 4c be df 5a 53 be ce ff 89 be
       -0.32136708 -0.19992527 -0.20640133 -0.26952976
000210 bf a9 67 3e e1 2a 77 bd 6e ca d6 bd 21 9b 4d bf
       0.22623347 -0.060343627 -0.10487829 -0.8031483
000220 8a 60 95 be 2a 9e c6 3e 77 51 3c be 20 b1 e8 be
       -0.29175216 0.38792545 -0.18390451 -0.45447636
000230 d1 56 98 be e3 68 6f 3d ba 68 86 3e e8 c3 e4 be
       -0.29753736 0.058449637 0.26251775 -0.44680715
000240 90 6a 2a 3e 8c b9 b5 3e ab 32 dc 3d f4 5a bd 3e
       0.16642213 0.35493124 0.10751852 0.36983454
000250 91 d2 bd be f5 a0 38 3d 8e 16 d2 3e 0e 80 be be
       -0.37074712 0.045075376 0.41032833 -0.37207073
000260 3c 72 68 be 08 0d d8 3c ae 86 e1 3e 1f 05 83 be
       -0.22699827 0.026373401 0.44048065 -0.25589845
000270 ca 4a d7 bc 44 6d 65 3f 31 df c9 3d 2c 83 f5 be
       -0.02628078 0.8961985 0.098570235 -0.4795164
000280 a6 de 0d 3e 87 eb 28 3f 37 06 02 be d9 32 c2 be
       0.13854465 0.65984386 -0.12697683 -0.3792942
000290 32 83 94 3e 1e 5b 18 bf aa d5 2c be 7a 1a e6 bd
       0.29006344 -0.59514034 -0.16878381 -0.11235519
0002a0 50 d5 1d 3e 90 ff 7e bd 91 f5 97 3e c3 67 06 be
       0.15413404 -0.062255442 0.2967954 -0.1312552
0002b0 c6 a7 94 3d 30 54 61 3d a6 c0 e6 bd 66 01 b2 3e
       0.07258563 0.055011928 -0.112672135 0.34766692
0002c0 bd 24 5d bd 50 60 e6 3d af 40 6e be a6 46 27 3e
       -0.053990114 0.11248839 -0.23266862 0.16335544
0002d0 83 16 05 3d bb 4e 06 3e 06 27 b9 bd b3 4f e5 be
       0.032492172 0.13115971 -0.09040646 -0.44787368
0002e0 97 42 c8 3d 9a 4d 83 3d a3 31 b0 be dc 8e 99 3f
       0.09778326 0.06411286 -0.3441287 1.1996722
0002f0 b1 44 c0 3d 58 e2 9e be 8b 8a 4a be eb 68 05 3f
       0.09388102 -0.31032062 -0.19779412 0.5211322
000300 60 b8 99 be 46 71 5f be 09 e1 8e be 09 cf 98 be
       -0.3002348 -0.21820554 -0.27906063 -0.29845455
000310 40 0b f2 3d 0b f9 b0 3e 03 d2 8a 3d b6 a7 b0 be
       0.11818552 0.34565005 0.06778338 -0.34502953
000320 85 40 06 3d fa 5a 1e 3f 5c e5 45 3e 24 ea 4b 3e
       0.032776374 0.6185757 0.19325775 0.19913536
000330 be f3 11 3f 61 ef fc 3a 36 c6 12 3e 22 eb 88 3e
       0.57012546 0.0019297415 0.14333424 0.26741892
000340 ce d0 68 bc 45 f9 ca be dd bf 24 3e 37 7a 91 bd
       -0.014209939 -0.39643303 0.16088815 -0.07103389
000350 8b 41 d9 3c 38 9d 5a 3e a4 63 02 be c3 92 10 be
       0.026520511 0.21349037 -0.12733322 -0.14118485
000360 48 4a b0 3e 0b 45 eb 3e 12 d7 69 bd 01 d1 c3 3e
       0.34431672 0.45951113 -0.057089873 0.38245395
000370 3d 33 3d 3e 48 d3 ff be 0b ca 8e be 49 e8 3b 3e
       0.18476577 -0.49965882 -0.27888522 0.18350329
000380 de 29 c8 3e b3 0e ea be a4 10 02 3d 2c 3d 78 3e
       0.39094442 -0.4571434 0.03175415 0.24242085
000390 b4 4d 5e 3e 08 9f e4 3d 8c 6f 00 bf 37 b6 9e bc
       0.21709329 0.11163145 -0.5017021 -0.019373996
0003a0 5b 15 e4 b8 d1 db cb 3d 6d 42 a4 3c a6 ac 75 3e
       -0.00010875865 0.09954036 0.020051206 0.23991641
0003b0 b6 21 3d be 75 0d eb 3d da 32 df bc cd 18 c7 bd
       -0.18469891 0.11477176 -0.027245928 -0.09721527
0003c0 14 81 14 be d1 61 58 be f6 08 e1 be 12 af d8 be
       -0.14502364 -0.21131064 -0.4395215 -0.42321068
0003d0 ab 03 54 3e 12 ef 87 be 92 c1 c6 be da 3d de be
       0.20704524 -0.26549584 -0.38819557 -0.43406564
0003e0 3b 33 33 3e 80 ce 97 3e 96 e5 bd 3c 9d b6 bf bd
       0.17500012 0.29649734 0.023180764 -0.093610026
0003f0 11 4b 96 be 7b 40 fb 3e 30 c8 c9 3e 4b d4 ce be
       -0.29354146 0.49072632 0.39410543 -0.40396342

weight f4 [64]
000000 94 7d f7 3f 82 45 ca 3f 2a 5b fa 3f 8c 37 f7 3f
       1.9335198 1.5802462 1.9559071 1.9313827
000010 22 46 dd 3f da 13 c1 3f b5 25 fc 3f 91 e0 06 40
       1.7287028 1.5084183 1.9699007 2.1074564
000020 54 50 ae 3f e9 99 fb 3f 8c 65 eb 3f ab f9 f4 3f
       1.3618264 1.9656345 1.8390365 1.9138693
000030 6f 0c b5 3f 45 63 b4 3f bc ad b2 3f 29 75 fa 3f
       1.414442 1.4092795 1.395927 1.9567004
000040 1e 76 ab 3f b0 81 13 40 fe d8 df 3f 98 f1 00 40
       1.3395422 2.3047905 1.7488096 2.0147457
000050 1a cc eb 3f 3e 51 f1 3f 86 26 d6 3f b3 12 c5 3f
       1.8421662 1.8852918 1.6730506 1.5396332
000060 27 62 ef 3f f4 ef 9f 3f 53 52 c2 3f 51 72 f0 3f
       1.8701829 1.2495103 1.5181373 1.8784887
000070 d4 e5 ed 3f 7a 02 b4 3f a0 51 ec 3f 5b 35 f1 3f
       1.8585763 1.4063256 1.846241 1.8844408
000080 55 51 d8 3f 2c a5 03 40 5e 13 b2 3f d0 93 94 3f
       1.689982 2.0569563 1.391216 1.1607609
000090 ea 08 a1 3f 4f b8 09 40 4b ac c8 3f b5 6b f3 3f
       1.2580845 2.1518743 1.567758 1.9017245
0000a0 89 66 17 40 60 a5 01 40 56 7d 20 40 fd c5 da 3f
       2.3656332 2.0257187 2.50765 1.7091671
0000b0 37 1d a7 3f 69 08 f9 3f 4e 21 f9 3f 5d 36 e7 3f
       1.3055791 1.9455692 1.9463289 1.8063465
0000c0 0b 93 04 40 53 fb f5 3f a7 42 cf 3f 5e 9c dd 3f
       2.0714748 1.9217323 1.6192216 1.7313344
0000d0 80 7c 10 40 9a e1 df 3f 2b b6 de 3f 95 49 e1 3f
       2.2575989 1.7490723 1.7399343 1.760058
0000e0 fe 69 e7 3f 62 eb fe 3f f0 18 ea 3f ae da d6 3f
       1.8079221 1.9915583 1.828886 1.6785486
0000f0 ca 4e e1 3f 87 e8 c7 3f 6c 53 c3 3f a8 11 f8 3f
       1.760217 1.5617837 1.5259833 1.9380388

bias f4 [64]
000000 f8 a4 b6 bc b5 cf 85 bd dc 4d 55 3e 5b c5 5d 3e
       -0.02229546 -0.065337576 0.20830482 0.21657316
000010 46 d7 46 3d 07 3e 82 3e 0c 1a 57 3e 60 6a 17 be
       0.048545144 0.25437948 0.2100603 -0.14786673
000020 68 3b e2 bd 77 99 42 3e 33 b8 b6 3e 59 c9 56 3e
       -0.11046487 0.19003855 0.35687408 0.20975246
000030 a4 f1 73 3c 2e e0 8e 3d 5d f6 45 bb 2f 00 c6 be
       0.014889155 0.06976353 -0.0030206658 -0.38672015
000040 3e 18 ef 3d 1b 1a 1f 3e 0d cc a7 3d 21 f7 d5 bd
       0.11674546 0.15537302 0.081932165 -0.10447527
000050 07 cc 4b 3d 82 8b 14 3e 29 c0 ad bc a8 6a d7 bd
       0.049755123 0.14506343 -0.021209793 -0.1051839
000060 82 07 8b 3d 9d 53 7d be 9a 95 65 be ee b1 45 bd
       0.067885414 -0.24738927 -0.2242035 -0.04826539
000070 3a f9 62 bd 0d 91 00 3e dd fe c7 bd 15 8b 01 3e
       -0.055413462 0.12555332 -0.09765408 0.12650712
000080 fd 27 06 bd fa ef 08 be 26 89 ca 3e 0b d7 9d 3d
       -0.03275298 -0.13372794 0.3955776 0.07707032
000090 d4 20 98 3d 2d 18 8d 3e 63 70 b5 b9 62 3a a3 ba
       0.074281365 0.27557507 -0.00034606745 -0.0012453313
0000a0 8d fd 37 3e fe d5 b9 3c 30 bc 74 3e 61 4c 81 bd
       0.17967816 0.022685047 0.23899913 -0.06313396
0000b0 bc 21 a6 bd a9 0d 1c 3c 91 23 79 3e ad 33 8e 3e
       -0.08111903 0.009524741 0.24329974 0.277738
0000c0 6f 35 9c 3e 11 26 52 be 16 19 da bc b0 6d 94 3d
       0.30509517 -0.20522334 -0.02662329 0.07247484
0000d0 67 fa 98 3e 83 35 1f be 8d 71 16 3e 6c 08 68 3e
       0.29878542 -0.15547757 0.14691754 0.22659463
0000e0 2a 75 d6 bd 51 38 3c 3e 38 dd aa 3e b7 4d 5f bc
       -0.10471566 0.18380858 0.33371902 -0.0136293685
0000f0 5a 16 43 be ac 4e 51 3e 90 88 78 3e 74 8f 23 3b
       -0.19051495 0.20440167 0.24270844 0.002495733

running_mean f4 [64]
000000 3b cd 13 3f 81 c0 bc 3e 2a 68 1d 3f 7f 43 d6 be
       0.5773503 0.3686562 0.61487067 -0.4184837
000010 5c e3 6d be 02 82 99 be c4 41 34 3e c2 cf 5c 3d
       -0.23231262 -0.29982 0.17603213 0.05390907
000020 64 6b 2d bf 58 ff bc 3e 4e 4d 77 3e 10 25 be bc
       -0.6774199 0.36913562 0.24150583 -0.023211032
000030 cb 5c 61 3e ba ca 23 bd 2d 89 9d be e8 59 9a be
       0.22008054 -0.039988257 -0.3076872 -0.30146718
000040 86 03 24 bf 47 2b 4e be 2e b7 1d bd 4a ab eb be
       -0.64067876 -0.20133696 -0.038504772 -0.4602912
000050 ae f0 84 be 2d 61 57 3f f0 c9 0a bf 03 93 e2 3e
       -0.25964874 0.84132653 -0.5421438 0.44252786
000060 32 9e 32 3e c7 f0 38 3e db 8e e2 3e 13 ae 75 bf
       0.17443159 0.180606 0.44249615 -0.9596874
000070 64 6d 81 3b f2 03 87 be af d9 30 3f af 35 b2 3b
       0.003949808 -0.26370198 0.6908216 0.0054385285
000080 63 d2 ab be d5 e8 e5 3c a5 21 7e bc 52 87 5f bf
       -0.3355895 0.028065125 -0.015510951 -0.8731586
000090 ba 8f 2c 3e de d8 d3 be 46 a8 b0 3c 02 87 f0 bd
       0.16851702 -0.41376394 0.021564614 -0.11744501
0000a0 3c 7b 1b be 7b 1b 1b 3d 56 57 1b be b4 13 d6 3c
       -0.15183729 0.037868004 -0.15170035 0.026132442
0000b0 b5 b6 a1 bd a4 50 19 be a1 9e b5 3d 58 1b c3 3e
       -0.07896177 -0.14972168 0.08868147 0.381068
0000c0 d2 e9 a3 be 7e ed f7 bd d3 9c 3e be f9 ba aa 3e
       -0.32014328 -0.12105845 -0.18614511 0.33345774
0000d0 8e ac 24 3e 90 01 03 3f f8 b0 8f be e9 a9 d6 be
       0.1608145 0.5117426 -0.28064704 -0.41926506
0000e0 06 38 23 3e fb ef d3 be dd 17 04 be fe 69 7f be
       0.1593934 -0.41394028 -0.12899728 -0.24942777
0000f0 18 5a e4 3c 63 7d 31 3f 14 97 c7 3e eb 39 bb 3e
       0.027874991 0.6933195 0.3898245 0.36567625

running_var f4 [64]
000000 10 bf 90 3e e3 33 56 3e 3d d8 9e 3e d7 d2 17 3f
       0.2827077 0.2091823 0.31024352 0.5930609
000010 37 82 e1 3e 2f f4 a2 3e 04 6d 37 3e 25 fd 0e 3e
       0.4404466 0.31826922 0.1791268 0.13963754
000020 60 7f 4e 3e 20 a6 62 3e 19 c0 2e 3e f8 93 6b 3e
       0.20165777 0.22133684 0.17065467 0.23005664
000030 4c 56 ee 3e 30 a2 29 3e 08 2f 6f 3e 47 37 1a 3e
       0.46550214 0.16565776 0.23357785 0.15060149
000040 d5 f7 1f 3e e4 38 3e 3e 23 6a 5c 3e 72 52 59 3e
       0.15621884 0.1857639 0.21524863 0.21222857
000050 ee 57 4a 3e f5 b0 65 3e 1b c0 5f 3e ec 7a 8b 3e
       0.19760105 0.22430785 0.21850626 0.2724222
000060 c7 3d 8b 3e eb b5 6b 3e b2 56 8d 3e a0 f7 8e 3e
       0.2719557 0.23018615 0.27605206 0.27923298
000070 f9 47 a4 3e f0 5a 8e 3e 5a 41 89 3e 4d 26 17 3e
       0.3208616 0.27803755 0.26807672 0.14760704
000080 9a eb 77 3e 20 4c 7e 3e df b1 fd 3e df 60 ac 3e
       0.24210969 0.24833727 0.49549767 0.33667657
000090 dc 7e 08 3f 2b 7b e5 3d c3 f0 07 3e 94 88 05 3e
       0.5331857 0.11205133 0.13275437 0.13040382
0000a0 9a 93 1b 3e 5b 57 1b 3e be c2 3c 3e 6c b3 07 3f
       0.15193024 0.15170042 0.18433663 0.5300815
0000b0 39 cc 35 3e 62 ed 51 3e c6 ee 87 3e 75 bb 50 3e
       0.17753686 0.2050071 0.26549357 0.20384009
0000c0 ca 78 5b 3e 16 d1 2e 3e 2e eb 9f 3e ab 33 8d 3e
       0.21432796 0.17071947 0.31234115 0.27578482
0000d0 ae 01 e8 3e 5d 7c dc 3d 78 13 de 3e 97 d2 6f 3e
       0.45313781 0.10765908 0.43374228 0.23420177
0000e0 35 49 54 3e 8f 37 39 3e 7b 63 53 3e 3b 83 59 3e
       0.20731051 0.180876 0.20643418 0.21241467
0000f0 c3 e1 88 3e 58 3b 82 3e 49 c5 2f 3e 5f 76 71 3e
       0.26734743 0.254359 0.17165102 0.23580311

weight f4 [64, 16, 1, 1]
000000 4e 83 2a 3f 00 01 64 3e 75 e4 0d be cb 39 b7 3e
       0.66606605 0.22266006 -0.1385668 0.3578628
000010 92 36 c8 3e 8b 10 be bd 62 40 b4 3d 0a 51 ee 3d
       0.39104134 -0.09280499 0.088013425 0.11636551
000020 3f 5a d5 3e 19 e5 f8 3e 69 60 b6 3e d6 86 b1 3e
       0.41670415 0.48612288 0.3562043 0.34673184
000030 c9 a7 a4 3d 95 da 8c be 46 7e 38 3e 03 8f 8c 3e
       0.08039815 -0.27510515 0.1801692 0.2745286
000040 68 04 20 3f 9e 8a 98 3e d0 dd ab 3d ee fe 99 3e
       0.62506723 0.29793257 0.08391917 0.30077308
000050 d7 cf ea 3e dd 07 a8 3e 14 16 da 3d 96 e5 52 3e
       0.45861694 0.328185 0.10648742 0.20595393
000060 ec 27 a9 3e 25 32 54 be 74 ea 7d 3f ce 4f 92 3e
       0.3303827 -0.20722254 0.9918587 0.2857651
000070 f6 0e cf be e4 20 02 3f c6 fc 4e be 17 66 3d bd
       -0.40441102 0.5083144 -0.20213613 -0.04623994
000080 32 48 d0 3e a1 b5 50 be 0b 63 81 3e b2 31 83 3e
       0.4068008 -0.20381786 0.25270876 0.25623852
000090 d0 87 de be 75 40 e6 3d 16 c9 cc 3e 32 f7 b0 be
       -0.43462992 0.11242763 0.39997166 -0.34563595
0000a0 41 49 01 3e 18 92 b1 3e bb 95 34 3d 28 0a b3 be
       0.126256 0.34681773 0.044088107 -0.34968686
0000b0 fb de ab 3e 2d cb 09 3f 52 77 15 3f 73 94 0a 3e
       0.33568558 0.53825647 0.58385193 0.13533191
0000c0 ce 16 80 be de cf 8e 3e 22 1b 12 3d 86 5e 10 3f
       -0.250174 0.27892965 0.035670407 0.5639423
0000d0 36 2c b2 be bc 19 9f 3d 57 f0 31 be bf 8a 81 be
       -0.34799355 0.0776858 -0.17376839 -0.25301167
0000e0 e0 8f f9 3e f2 a2 cb be 42 37 e6 3d c0 5f 63 be
       0.4874258 -0.39772755 0.11241008 -0.22204494
0000f0 4e 96 99 3e 6c 35 ae 3f ee f8 4f 3e d9 27 0b bf
       0.29997486 1.3610053 0.20309803 -0.5435768
000100 f1 7d ec 3e 5d 84 6c bf 8a 83 04 bf 8d c5 3b be
       0.46189836 -0.9238947 -0.5176321 -0.18337078
000110 c4 e4 0d 3e aa 7e 8a be a3 3f 54 bf dc 70 41 bd
       0.13856798 -0.27049762 -0.829096 -0.04722677
000120 1c 09 fb 3e f0 38 b8 3e e7 ab 19 3f de 2c 81 be
       0.49030387 0.3598094 0.6002793 -0.25229543
000130 64 09 05 bf 5a 03 bb bc 7c 54 55 be 77 f3 1e 3b
       -0.51967454 -0.022828747 -0.2083301 0.0024254003
000140 58 40 8d bf eb eb 80 bf a9 53 45 bd 7e 5c 9b 3e
       -1.1035261 -1.0071996 -0.048175488 0.30344003
000150 6e bf 61 bd aa 09 8e bd 06 65 1a bf fa 28 66 be
       -0.055114202 -0.06935437 -0.603104 -0.22476569
000160 48 b3 a7 bf ce 1c 3c bf b6 c6 97 be d0 6c eb be
       -1.3101587 -0.7348145 -0.29643792 -0.45981455
000170 dc f1 bb 3d b9 e7 aa bf 6d 15 39 be 1a b1 26 bd
       0.091769904 -1.3351966 -0.1807458 -0.04069624
000180 93 8a cf 3e 33 75 60 3d be 4c fb bb d4 5c 9c be
       0.4053541 0.05479927 -0.0076690605 -0.30539572
000190 0b db a7 3b 29 d3 55 3e 9e 84 45 3f 87 a1 16 bd
       0.0051225475 0.20881332 0.7715548 -0.03677514
0001a0 de 41 3c bf 1f 5a 81 bf b0 83 79 3f 9f 30 40 3d
       -0.73538005 -1.0105628 0.97466564 0.04692137
0001b0 58 6c 4d be 1e cb e3 bd 2e b4 31 bf dc 8c 19 3e
       -0.20060861 -0.11122726 -0.6941556 0.1499514
0001c0 7f df 32 3e fa 2e e2 3e 1b 9e 2f 3e c8 80 21 3f
       0.1746807 0.44176465 0.17150156 0.6308713
0001d0 8b 29 3c bc c8 fe 81 be fd 20 84 3e 49 92 03 bd
       -0.011484514 -0.25389695 0.25806418 -0.03212193
0001e0 ff 36 00 3f 93 d8 83 bf 8a af 0a 3f 02 98 6a be
       0.5008392 -1.0300468 0.541741 -0.22909549
0001f0 97 a8 f9 be 12 90 a3 3f d5 d1 15 3e 9f d8 6d be
       -0.48761436 1.2778342 0.14630826 -0.23227166
000200 6a 32 00 bf 81 86 ef 3e 73 f4 3b be 37 c6 44 3b
       -0.50076926 0.46782306 -0.18354969 0.0030025372
000210 b9 d8 fb 3e eb 2e 04 3f 45 e4 bd be 4b ab 02 be
       0.49188784 0.5163409 -0.37088218 -0.12760656
000220 4c 1c 17 be 38 e8 f2 be c9 9e d2 3d 06 42 0f 3e
       -0.14756888 -0.47442794 0.10284192 0.1399003
000230 70 ad af bd 98 8a 3b 3d ef 63 e2 3d 3d e5 15 bc
       -0.085780025 0.04578647 0.11054217 -0.009148893
000240 44 a0 6d be b4 df 16 be b4 a3 c7 3e ba 3b fa 3d
       -0.23205668 -0.14733773 0.38992083 0.12218423
000250 b8 8b b4 be 82 ae 5c be 20 c0 23 bf bd c6 47 bd
       -0.35262847 -0.21550944 -0.63965034 -0.048773516
000260 b8 cf ed 3c d9 95 8f bf 3b 47 1a 3f 82 12 8b be
       0.029029712 -1.1217605 0.6026494 -0.27162558
000270 44 a8 c6 be 42 11 49 3f cb 91 ef be bc 65 85 bd
       -0.3880025 0.7854196 -0.4679092 -0.06513545
000280 b2 b3 b0 3e ee 26 da be dc 47 5b 3b 14 64 31 3f
       0.34512097 -0.42607826 0.003345958 0.6929333
000290 95 66 25 3f eb 1b f5 3e cf db ae be 85 56 f4 bd
       0.6460965 0.47872862 -0.34152076 -0.11930565
0002a0 ad d5 ab 3e 16 69 0d 3f ac 1a ad bd 02 9a c5 3d
       0.3356146 0.55238473 -0.08452353 0.09648515
0002b0 20 0d 5c be 9e f5 04 bf 02 ad 67 be 7f 34 cc 3c
       -0.21489382 -0.5193728 -0.22624591 0.024927376
0002c0 6b 1c fd be 69 74 b7 3e b0 c3 0e bf c4 ec 0f 3f
       -0.49435744 0.35831 -0.55767345 0.5622065
0002d0 9c 71 25 3d 84 51 80 3e 71 8a b2 3e ad 82 71 bd
       0.04039155 0.2506219 0.34871247 -0.058962513
0002e0 80 a7 22 3f 05 60 78 bd c7 46 e4 3e 14 4c cd bd
       0.63536835 -0.060638446 0.4458525 -0.100242764
0002f0 ef b3 22 be b6 34 a4 3e 7d 83 94 3d 16 05 0a bf
       -0.15888952 0.32071465 0.07251642 -0.5391401
000300 52 e1 a2 3f 99 ba d2 be d4 5a 85 3d eb 74 11 be
       1.2725012 -0.41157988 0.06511465 -0.14204757
000310 be 3b 84 3e 9d e1 44 3e fb bf 74 be 60 e6 cd bd
       0.2582683 0.1922669 -0.2390136 -0.10053706
000320 74 8e e5 3e 22 6f 14 3f 59 3e d7 3e ac bc 7d 3e
       0.44835246 0.57982075 0.42039755 0.24779004
000330 f7 4b ca bd d3 54 18 3f 26 e1 75 3e d1 c7 10 be
       -0.098777704 0.5950443 0.24011669 -0.14138724
000340 46 27 17 3e 88 db fd 3e db 7f 1d 3e 4f 7f c4 3d
       0.14761075 0.49581552 0.15380804 0.09594595
000350 d9 cf 11 3e 26 45 c5 3e c8 cc 8f 3e 41 15 17 be
       0.14239444 0.3852932 0.28085923 -0.14754201
000360 af bf e7 3c 4b 50 e6 3e 1d 70 2e 3f 02 b6 4a 3e
       0.028289644 0.44983134 0.6813982 0.19795993
000370 67 11 d7 bd 81 eb 88 3e c1 33 4d bd 25 26 72 3e
       -0.10501366 0.26742175 -0.050098184 0.23647363
000380 18 cc 36 3f 53 3b 82 be f2 2d 8d bd d9 55 05 3f
       0.7140517 -0.25435886 -0.06893529 0.5208412
000390 1b 37 86 3e b9 2b b1 3e 74 90 07 bd 31 2b 72 3d
       0.26213917 0.3460367 -0.033096746 0.05912322
0003a0 61 7b cd 3e a1 7c 64 3e 89 24 9d 3e ae 5d 90 3e
       0.40133193 0.22313167 0.30691937 0.28196472
0003b0 59 6c 79 bd 79 52 c1 bd 8c 2e c5 3e 3e 48 fb 3d
       -0.060894344 -0.094395585 0.38512075 0.122696385
0003c0 13 cc 71 bd 8f 1f 1b bf 06 be 19 be fb cd 09 3f
       -0.05903251 -0.6059503 -0.15013894 0.53829926
0003d0 bc 1d 90 3e f9 4c 0d 3f 40 d3 53 bf 94 9b 28 bc
       0.28147686 0.55195576 -0.82744217 -0.010290999
0003e0 40 cb 3a be 59 f5 3b bf 6a 43 9c be de 58 4a 3e
       -0.18241596 -0.73421246 -0.30520183 0.19760463
0003f0 45 08 08 be 96 c3 b2 be 79 5e 65 3e 36 4a 90 3c
       -0.13284405 -0.34914845 0.2239932 0.017613512

weight f4 [64]
000000 eb ab 43 3f ed 1f b3 3f 92 bb 8e 3f 55 2d a3 3f
       0.764342 1.3994118 1.1150992 1.2748209
000010 22 c2 a5 3f 09 74 c5 3f f3 a1 9b 3f 17 ff a8 3f
       1.294987 1.5426036 1.2158798 1.3202847
000020 48 8d a3 3f fb da b7 3f 16 46 68 3f eb b3 b3 3f
       1.2777491 1.4363703 0.9073194 1.4039282
000030 8a db 88 3f e5 43 56 3f ce 38 37 3f 75 75 ae 3f
       1.0691998 0.8369735 0.7157105 1.3629595
000040 af 63 61 3f f2 4e 89 3f 75 f8 c8 3f 8a 3b 9f 3f
       0.8804273 1.0727217 1.5700823 1.2440045
000050 1f 90 9d 3f 1e 87 d6 3f 89 c5 5c 3f 21 63 84 3f
       1.2309607 1.6759984 0.86238915 1.0342752
000060 d3 d8 8c 3f 66 92 a0 3f a1 60 c6 3f 57 9c c1 3f
       1.100367 1.2544677 1.5498239 1.5125836
000070 01 02 51 3f 8b ac 8b 3f 17 80 c9 3f b1 49 8f 3f
       0.8164368 1.0912031 1.5742215 1.1194364
000080 d0 c7 b1 3f d8 5e 9c 3f 79 06 fc 3f 4b 13 91 3f
       1.3889103 1.2216444 1.9689475 1.1334013
000090 5b 72 82 3f 64 3f 8e 3f cc db 86 3f f2 2d 69 3f
       1.0191149 1.1113095 1.0535827 0.9108573
0000a0 ef 19 9f 3f 7f 6f 46 3f 75 ae c8 3f 9a ff e0 3f
       1.2429789 0.7751388 1.567824 1.7578003
0000b0 4c 96 ae 3f d4 5f 2d 3f 41 b8 9b 3f b3 6f 73 3f
       1.3639617 0.6772435 1.2165605 0.95092314
0000c0 87 7d ab 3f b1 ad 8f 3f 25 4d b0 3f f3 f1 84 3f
       1.3397683 1.1224881 1.3773543 1.0386337
0000d0 b0 62 b7 3f 33 d3 89 3f 92 2f 7d 3f 16 81 a6 3f
       1.4326992 1.0767578 0.9890071 1.3008144
0000e0 20 15 92 3f d3 c3 b3 3f 0a da b2 3f 90 c3 ec 3f
       1.1412697 1.4044136 1.397279 1.8497181
0000f0 99 c6 ac 3f 43 4b 81 3f de cc e0 3f fc 60 87 3f
       1.3498107 1.0101093 1.756252 1.0576472

bias f4 [64]
000000 f8 a4 b6 bc b5 cf 85 bd dc 4d 55 3e 5b c5 5d 3e
       -0.02229546 -0.065337576 0.20830482 0.21657316
000010 46 d7 46 3d 07 3e 82 3e 0c 1a 57 3e 60 6a 17 be
       0.048545144 0.25437948 0.2100603 -0.14786673
000020 68 3b e2 bd 77 99 42 3e 33 b8 b6 3e 59 c9 56 3e
       -0.11046487 0.19003855 0.35687408 0.20975246
000030 a4 f1 73 3c 2e e0 8e 3d 5d f6 45 bb 2f 00 c6 be
       0.014889155 0.06976353 -0.0030206658 -0.38672015
000040 3e 18 ef 3d 1b 1a 1f 3e 0d cc a7 3d 21 f7 d5 bd
       0.11674546 0.15537302 0.081932165 -0.10447527
000050 07 cc 4b 3d 82 8b 14 3e 29 c0 ad bc a8 6a d7 bd
       0.049755123 0.14506343 -0.021209793 -0.1051839
000060 82 07 8b 3d 9d 53 7d be 9a 95 65 be ee b1 45 bd
       0.067885414 -0.24738927 -0.2242035 -0.04826539
000070 3a f9 62 bd 0d 91 00 3e dd fe c7 bd 15 8b 01 3e
       -0.055413462 0.12555332 -0.09765408 0.12650712
000080 fd 27 06 bd fa ef 08 be 26 89 ca 3e 0b d7 9d 3d
       -0.03275298 -0.13372794 0.3955776 0.07707032
000090 d4 20 98 3d 2d 18 8d 3e 63 70 b5 b9 62 3a a3 ba
       0.074281365 0.27557507 -0.00034606745 -0.0012453313
0000a0 8d fd 37 3e fe d5 b9 3c 30 bc 74 3e 61 4c 81 bd
       0.17967816 0.022685047 0.23899913 -0.06313396
0000b0 bc 21 a6 bd a9 0d 1c 3c 91 23 79 3e ad 33 8e 3e
       -0.08111903 0.009524741 0.24329974 0.277738
0000c0 6f 35 9c 3e 11 26 52 be 16 19 da bc b0 6d 94 3d
       0.30509517 -0.20522334 -0.02662329 0.07247484
0000d0 67 fa 98 3e 83 35 1f be 8d 71 16 3e 6c 08 68 3e
       0.29878542 -0.15547757 0.14691754 0.22659463
0000e0 2a 75 d6 bd 51 38 3c 3e 38 dd aa 3e b7 4d 5f bc
       -0.10471566 0.18380858 0.33371902 -0.0136293685
0000f0 5a 16 43 be ac 4e 51 3e 90 88 78 3e 74 8f 23 3b
       -0.19051495 0.20440167 0.24270844 0.002495733
