HW2/aML/resnet6_btnk_ch8.pt (torch, 59696 bytes, 42 tensors)

weight f4 [8, 3, 7, 7]
0.07023906 -0.039753415 -0.01762153 0.07515906 -0.0045253825 -0.008093182 0.16777633 0.16292776
0.09496636 0.019293798 -0.06325729 -0.050673038 0.041725706 0.2053641 -0.008060934 0.23464374
0.0915431 0.010105641 0.098143525 0.17311397 0.08969059 -0.16418493 0.26426527 0.112122595
0.21837129 0.13033201 0.3190026 -0.0700135 -0.6247639 0.0045310226 0.12294701 0.1686434
0.17239529 -0.075726226 -0.29001126 -1.0554694 -0.106316164 -0.21599752 -0.045755498 -0.39234924
-0.29632556 -0.14368293 -0.5371189 -0.27645266 -0.49620873 -0.33327717 -0.1512895 0.094621755
0.02969545 -0.0007473904 0.014579351 -0.052016743 -0.03637754 0.07206855 0.013854007 0.26337826
0.19237389 0.045414798 -0.0711532 -0.112330064 -0.08186399 0.06533777 0.2088767 -0.03769424
0.19932659 0.12171758 0.07314446 0.18205309 0.2959811 0.07966113 -0.2489727 0.23422128
0.098482005 0.30213746 0.14757837 0.1753587 -0.036901508 -0.5401347 0.112406924 0.12029939
0.14062575 0.14105006 -0.05639962 -0.3681097 -0.95976806 -0.11675612 -0.12732865 -0.10167296
-0.38670915 -0.42295614 -0.11888999 -0.42840698 -0.2949948 -0.54142845 -0.41745552 -0.099570885
0.072054766 0.098767854 0.053168003 -0.09009134 0.008694623 0.018741358 0.0051362854 0.010721053
0.15846944 0.25025904 0.018299516 -0.06137905 -0.11034948 -0.059381265 0.11358684 0.20499252
-0.0034524628 0.25771156 0.12985325 0.033164784 0.17810325 0.18973438 -0.016644875 -0.24864455
0.2539057 -0.0055743186 0.3014529 0.20154029 0.24911866 -0.04928638 -0.5626755 0.0394348
0.13954985 0.054054637 0.12224364 2.6375028e-05 -0.35194948 -0.9710078 -0.10271365 -0.20069516
-0.15483716 -0.4608875 -0.40734875 -0.16704005 -0.44902813 -0.20948508 -0.48808315 -0.39853024
-0.14813411 -0.01381098 -0.01936075 0.052793335 -0.055383973 0.15580471 0.32876924 -0.16360025
-0.36558858 0.3990555 0.29108155 -0.13683806 0.04270778 -0.13818112 -0.7053037 -0.29886574
0.32908338 0.18858457 0.04776266 0.043351047 -0.15367539 -0.11331506 0.3338926 0.10007088
-0.17837398 -0.17244503 0.13058606 -0.08493473 0.19455694 0.2723689 -0.07388866 -0.41641974
-0.08081892 0.15827581 -0.10312273 -0.074324146 0.00047052332 -0.14546351 -0.021071276 0.26860356
0.054515112 0.043911736 -0.061184093 0.01810531 0.010601373 0.2239196 -0.09093134 -0.19548462
-0.17347991 -0.0068424796 0.036735315 -0.030485008 0.05716935 -0.05697126 0.11479174 0.26212263
-0.24440905 -0.2492032 0.26564306 0.34153327 -0.13171893 0.043440197 -0.14063309 -0.63832235
-0.20847014 0.2059786 0.2388386 0.011826659 -0.019537108 -0.12155196 -0.0022107598 0.30819568
0.20905396 -0.20229527 -0.041169483 0.26328933 -0.06760842 0.108164266 0.3786414 -0.10997114
-0.39002144 0.04087994 0.090006836 -0.0072759837 -0.06856771 0.050164007 -0.21666083 -0.018702248
0.25448695 0.11653459 -0.09044988 -0.032672193 0.022498189 0.030113876 0.14585795 0.002196311
-0.12609681 -0.036730614 0.13513312 -0.04894155 -0.06518138 0.13405374 -0.017501231 0.093605064
0.341102 -0.18236253 -0.32065013 0.38731346 0.40906614 -0.024346283 0.011904151 -0.08013236
00000000: 7fd9 8f3d 7ad4 22bd 075b 90bc feec 993d
00000010: a949 94bb 4499 04bc 8fcd 2b3e 89d6 263e
00000020: b97d c23d 070e 9e3c 0a8d 81bd 888e 4fbd
00000030: 93e8 2a3d f74a 523e 0212 04bc 7346 703e
00000040: f37a bb3d 2192 253c 79ff c83d ca44 313e
00000050: b3af b73d 1820 28be c74d 873e 88a0 e53d
00000060: b99c 5f3e c175 053e 4f54 a33e 3d63 8fbd
00000070: 87f0 1fbf f978 943b a4cb fb3d dbb0 2c3e
00000080: 6488 303e 5a16 9bbd 5b7c 94be 9f19 87bf
00000090: 4abc d9bd 742e 5dbe 1e6a 3bbd 00e2 c8be
000000a0: fcb7 97be 9e21 13be a080 09bf 348b 8dbe
000000b0: 120f febe 4ea3 aabe a2eb 1abe 0dc9 c13d
000000c0: df43 f33c 85ec 43ba 3bde 6e3c 820f 55bd
000000d0: 9e00 15bd ad98 933d ebfb 623c 84d9 863e
000000e0: a9fd 443e de04 3a3d c5b8 91bd 4e0d e6bd
000000f0: 4fa8 a7bd cfcf 853d c6e3 553e 4765 1abd
00000100: 451c 4c3e 1147 f93d c3cc 953d 206c 3a3e
00000110: d68a 973e 6025 a33d b3f2 7ebe b4d7 6f3e
00000120: efb0 c93d c3b1 9a3e c91e 173e 3b91 333e
00000130: 0926 17bd 4546 0abf 9a35 e63d 875f f63d
00000140: 3200 103e 6d6f 103e 4a03 67bd e078 bcbe
00000150: 5cb3 75bf d51d efbd 7162 02be ea39 d0bd
00000160: befe c5be b58d d8be 987c f3bd 2958 dbbe
00000170: 8f09 97be 0e9b 0abf bbbc d5be d2eb cbbd
00000180: 7391 933d cd46 ca3d b1c6 593d cf81 b8bd
00000190: e473 0e3c 7a87 993c 494e a83b 5ba7 2f3c
000001a0: d045 223e f421 803e dee8 953c 9968 7bbd
000001b0: e8fe e1bd c539 73bd 38a0 e83d 8fe9 513e
000001c0: b742 62bb c5f2 833e 40f8 043e ccd7 073d
000001d0: b360 363e bb49 423e d55a 88bc ad9c 7ebe
000001e0: eeff 813e c6a8 b6bb 0958 9a3e 9460 4e3e
000001f0: f618 7f3e 84e0 49bd 800b 10bf 6386 213d
00000200: 28e6 0e3e 6568 5d3d e05a fa3d f13f dd37
00000210: b932 b4be f893 78bf 895b d2bd 0883 4dbe
00000220: a28d 1ebe 72f9 ebbe 0490 d0be 8c0c 2bbe
00000230: 04e7 e5be 4283 56be 09e6 f9be 280c ccbe
00000240: 78b0 17be 7347 62bc 709a 9ebc d33d 583d
00000250: 4eda 62bd 458b 1f3e 7154 a83e d386 27be
00000260: 6d2e bbbe 0151 cc3e a408 953e 471f 0cbe
00000270: 5aee 2e3d 5a7f 0dbe c98e 34bf ee04 99be
00000280: 9e7d a83e 501c 413e c7a2 433d de90 313d
00000290: 155d 1dbe ba11 e8bd f9f3 aa3e f6f1 cc3d
000002a0: aba7 36be 6e95 30be 5ab8 053e 42f2 adbd
000002b0: ef39 473e f073 8b3e f052 97bd f834 d5be
000002c0: 6484 a5bd 0e13 223e 0332 d3bd 4237 98bd
000002d0: 92b0 f639 63f4 14be ab9d acbc 6886 893e
000002e0: 3d4b 5f3d cbdc 333d 2c9c 7abd 9651 943c
000002f0: 62b1 2d3c 2e4b 653e 363a babd 1f2d 48be
00000300: b8a4 31be e136 e0bb c577 163d b2bb f9bc
00000310: 692a 6a3d b25a 69bd ef17 eb3d f034 863e
00000320: 5e46 7abe 202f 7fbe 5e02 883e 73dd ae3e
00000330: 54e1 06be 59ee 313d 1f02 10be 1869 23bf
00000340: 3279 55be 0eec 523e 1b92 743e 9ac4 413c
00000350: 490c a0bc 3cf0 f8bd 65e2 10bb d3cb 9d3e
00000360: 3e12 563e 7e26 4fbe 55a1 28bd dccd 863e
00000370: 4976 8abd 3a85 dd3d 49dd c13e 8d38 e1bd
00000380: e4b0 c7be b971 273d 8155 b83d 606b eebb
00000390: 3a6d 8cbd c678 4d3d 56dc 5dbe 7535 99bc
000003a0: 1d4c 823e b0a9 ee3d c93d b9bd 47d3 05bd
000003b0: 1f4e b83c 60b1 f63c c95b 153e fcef 0f3b
000003c0: 861f 01be d772 16bd 5660 0a3e ef76 48bd
000003d0: d17d 85bd 6245 093e be5e 8fbc 03b4 bf3d
000003e0: eca4 ae3e 3ebd 3abe 412c a4be f34d c63e
000003f0: 1e71 d13e db71 c7bc a109 433c 6f1c a4bd

weight f4 [8]
1.1321805 0.7252118 1.471096 0.90962696 0.8231732 0.9218789 1.6982172 1.6627783
00000000: 4aeb 903f 7ba7 393f e04c bc3f 50dd 683f
00000010: 7bbb 523f 4100 6c3f 2e5f d93f ebd5 d43f

bias f4 [8]
0.030369515 -0.107157044 0.5587688 -0.09517494 0.24141693 0.21267407 -0.029823834 0.7282504
00000000: 7dc9 f83c 2775 dbbd 790b 0f3f 14eb c2bd
00000010: 0036 773e 3bc7 593e 1d51 f4bc 9e6e 3a3f

running_mean f4 [8]
-28.429522 0.014284901 -55.373943 17.175152 18.502804 6.663429 -67.922646 -79.65977
00000000: a96f e3c1 380b 6a3c eb7e 5dc2 b666 8941
00000010: be05 9441 cf3a d540 65d8 87c2 cd51 9fc2

running_var f4 [8]
56533.195 2297.2366 136496.11 74525.12 32523.771 17914.484 170484.7 220066.2
00000000: 32d5 5c47 c993 0f45 074c 0548 8f8e 9147
00000010: 8b17 fe46 f8f4 8b46 2d7d 2648 8de8 5648

weight f4 [8, 8, 1, 1]
-0.09711733 0.6171266 -0.77682555 0.26224157 0.15631294 -0.03951096 0.077388 -0.7341062
0.6967809 0.020351984 0.3506877 -0.21095048 0.3232233 -0.015125392 0.7207224 0.24964121
0.17523745 0.2249036 -0.21837813 -0.1606853 0.13707328 0.5550729 -0.29243028 -0.2947518
-0.41076127 -0.20865072 -0.5182743 -0.77429676 0.39629507 -0.059784338 -0.67394924 -0.5475894
-0.25590584 0.316748 0.34562674 -0.36184704 0.01408853 -1.0765514 0.36012346 -0.41108295
0.51102597 -0.058792908 -0.3712985 0.56627524 0.12900782 -0.058806777 0.029156912 0.75479245
-0.3487189 -0.29347292 0.4100003 0.03914358 -0.44232142 0.27574444 -0.20286301 -0.017281706
-0.38549358 -0.3332275 -0.3520763 -0.41230905 -0.26962292 -0.120917484 0.58866036 -1.3715705
00000000: 73e5 c6bd 02fc 1d3f 0ade 46bf 8744 863e
00000010: 8010 203e 3fd6 21bd 9a7d 9e3d 62ee 3bbf
00000020: 3c60 323f 34b9 a63c 578d b33e 6703 58be
00000030: 867d a53e 7ed0 77bc 4381 383f f2a1 7f3e
00000040: 7271 333e 214d 663e 849e 5fbe b08a 24be
00000050: f05c 0c3e 4219 0e3f 6cb9 95be b5e9 96be
00000060: 4d4f d2be 89a8 55be a0ad 04bf 5038 46bf
00000070: 30e7 ca3e 6ce0 74bd f087 2cbf d22e 0cbf
00000080: 1706 83be cb2c a23e fdf5 b03e 0444 b9be
00000090: 94d3 663c 70cc 89bf 1a62 b83e 7779 d2be
000000a0: 99d2 023f d5d0 70bd d61a bebe 6af7 103f
000000b0: a01a 043e 60df 70bd 7ada ee3c 143a 413f
000000c0: 498b b2be 1542 96be 8feb d13e 0555 203d
000000d0: f477 e2be 602e 8d3e 52bb 4fbe 5d92 8dbc
000000e0: 6a5f c5be cb9c aabe 5843 b4be 2c1a d3be
000000f0: 040c 8abe 96a3 f7bd 72b2 163f 9f8f afbf

weight f4 [8]
0.8499169 0.84070134 1.0881 1.0863416 1.8448768 0.9052143 1.1167605 1.6443033
00000000: 2794 593f 3438 573f dc46 8b3f 3e0d 8b3f
00000010: ec24 ec3f 20bc 673f 02f2 8e3f 8878 d23f

bias f4 [8]
-0.107418835 0.64456826 -0.048200283 0.20545974 0.12828727 0.39455262 0.26555756 0.7956203
00000000: 68fe dbbd 6d02 253f a96d 45bd 0a64 523e
00000010: bd5d 033e cd02 ca3e 29f7 873e c6ad 4b3f

running_mean f4 [8]
-1.1136564 0.96471477 -0.19670282 -1.3468229 -0.5790284 0.7441487 0.034022495 -1.9522231
00000000: 4b8c 8ebf 8cf7 763f 776c 49be b164 acbf
00000010: 353b 14bf 8780 3e3f 2c5b 0b3d 72e2 f9bf

running_var f4 [8]
1.0951134 0.48090035 0.9042501 1.2766179 2.54679 0.75532234 0.6771603 1.7095377
00000000: ad2c 8c3f 9238 f63e ef7c 673f 3768 a33f
00000010: 9bfe 2240 ce5c 413f 615a 2d3f 22d2 da3f

weight f4 [8, 8, 3, 3]
-0.49569675 -0.33892864 -0.39317235 -0.0118532805 0.21927133 -0.09503538 -0.15913029 0.050821397
0.11564129 0.23691562 -0.1994804 0.095869325 -0.30508137 -0.17764987 0.412272 -0.06757402
0.47434464 0.36819258 -0.086540185 0.17620786 0.24351518 -0.36997828 -0.033960916 -0.24205731
-0.43397328 0.16389963 0.18034568 -0.36708894 -0.22747873 -0.5685207 0.13146946 0.1508393
-0.4929759 -0.016761368 0.29608858 0.19396387 0.027659096 0.0761734 -0.12778749 0.109246716
-0.064755976 0.17827414 -0.35611337 -0.503923 -0.10538792 -0.16718471 -0.11030123 -0.19170418
-0.20269212 -0.02629698 0.23605958 0.1991878 0.11837505 -0.032621667 0.845868 0.14843638
0.20116177 -0.40166593 -0.547461 0.124908134 -0.11169273 0.20615546 0.13047452 0.4656978
0.22776295 -0.1921764 0.0823301 -0.46015254 -0.6210868 -0.2278407 -0.24067263 0.19241892
0.082062766 0.13769285 0.12689301 -0.022396976 -0.09361533 -0.19654548 -0.13064082 -0.0786558
-0.574136 0.33367035 -0.010889085 -0.017179457 0.11339979 0.18716544 0.043237854 -0.16800256
-0.2707263 -0.3776535 0.36236864 -0.11950088 -0.023984337 0.32847884 0.091407105 -0.09956114
0.13408831 0.47661754 0.20305793 -0.14324032 0.07087932 0.13609877 -0.23588023 0.30663413
0.13554645 -0.53859216 -0.0006010593 0.39904135 -0.0636723 0.28056404 0.1549248 0.05012617
0.2616398 0.40380937 -0.7346404 -0.08361462 0.5395544 -0.21290152 0.1548506 0.053230442
-0.32846496 0.08908236 -0.25304922 -0.30622852 -0.6867509 -1.4466997 -0.97223675 -0.053447664
-0.31339937 -0.40827048 0.11187344 0.05058754 0.028704794 0.21483727 -0.1512638 -0.04347287
-0.032331485 -0.33614734 0.59296334 0.32777664 -0.50787026 0.29490656 0.26893893 0.5946921
0.13061121 0.22131504 0.3683762 -0.41900516 -0.18825246 0.18061271 0.10166655 0.36757278
0.20684943 1.0436494 0.3985854 0.28243515 0.23102611 0.040064823 -0.26504862 0.40515128
-0.11353721 -0.18688476 0.054627616 0.1708671 -0.08192185 0.2587377 0.27868637 -0.18816154
-0.058680393 0.15627949 0.055717874 -0.37489486 -0.57758677 -0.18840317 -0.055159632 0.33345878
1.0084704 -0.13421208 0.11833878 0.71087265 0.4914985 0.18903387 -0.5775451 0.24439509
-0.0729147 0.39849845 0.34787303 -0.44561282 0.3421746 0.101513825 0.08008173 0.35611227
-0.30053023 -0.14810371 -0.019819478 0.41694862 -0.08088096 -0.011849387 0.3192811 -0.43699342
-0.10962378 0.13683644 0.1103926 -0.7298172 0.5236238 0.604136 0.10075879 -0.24366716
0.76289964 0.036108542 0.4177051 0.50358313 0.5745321 -0.26248908 -0.1665467 0.4583277
0.6343427 0.15463847 -0.13273133 0.32647774 -0.21863952 0.14209138 0.46654987 0.21736293
0.53640014 0.5814805 0.101525545 0.28458878 0.20464772 -0.0067797876 -0.35341388 -0.005213852
-0.12837094 -0.4409191 0.2725702 -0.019869046 0.20631035 -0.036555164 -0.034296915 0.07232214
0.42293867 -0.041894373 0.23259443 0.019386573 0.12875976 0.07377547 -0.09629203 -0.012308745
-0.024337783 0.39788955 -0.029239133 0.04518478 0.6539607 0.1690062 0.24148172 0.09906036
00000000: f7cb fdbe 0e88 adbe e34d c9be 4334 42bc
00000010: aa88 603e e9a1 c2bd 0df3 22be 192a 503d
00000020: 57d5 ec3d 029a 723e 9744 4cbe 2357 c43d
00000030: a033 9cbe d9e9 35be 5115 d33e 3f64 8abd
00000040: 4ddd f23e bd83 bc3e fb3b b1bd d56f 343e
00000050: 0b5c 793e cb6d bdbe 9a1a 0bbd dfdd 77be
00000060: bf31 debe 4ed5 273e 8aac 383e 15f3 bbbe
00000070: 2ff0 68be 938a 11bf ee9f 063e 9e75 1a3e
00000080: 5667 fcbe 234f 89bc ec98 973e 779e 463e
00000090: 5495 e23c cd00 9c3d b9da 02be bebc df3d
000000a0: c89e 84bd 7f8d 363e 7e54 b6be 1901 01bf
000000b0: 9fd5 d7bd 7832 2bbe 9ce5 e1bd 1a4e 44be
000000c0: 868e 4fbe c46c d7bc 9ab9 713e e3f7 4b3e
000000d0: 9e6e f23d 4c9e 05bd ce8a 583f b5ff 173e
000000e0: 5afd 4d3e 28a7 cdbe 6726 0cbf d6cf ff3d
000000f0: 28bf e4bd 6b1a 533e 1d9b 053e f16f ee3e
00000100: b13a 693e e4c9 44be af9c a83d 1d99 ebbe
00000110: 8bff 1ebf 134f 69be e372 76be 7709 453e
00000120: 8610 a83d 5bff 0c3e 3ef0 013e dd79 b7bc
00000130: 65b9 bfbd 3843 49be b5c6 05be 4b16 a1bd
00000140: 94fa 12bf d7d6 aa3e 2268 32bc efbb 8cbc
00000150: 263e e83d 4ca8 3f3e 2d1a 313d dd08 2cbe
00000160: a39c 8abe cd5b c1be 6288 b93e e1bc f4bd
00000170: cd7a c4bc 612e a83e a633 bb3d b6e6 cbbd
00000180: 724e 093e 3707 f43e 6bee 4f3e 97ad 12be
00000190: 2d29 913d 7a5d 0b3e 968a 71be 26ff 9c3e
000001a0: b0cc 0a3e 2de1 09bf 6890 1dba 264f cc3e
000001b0: 9f66 82bd 17a6 8f3e 9ba4 1e3e 1951 4d3d
000001c0: a7f5 853e 1ac0 ce3e 6511 3cbf 243e abbd
000001d0: 3d20 0a3f db02 5abe 2891 1e3e 2a08 5a3d
000001e0: 8f2c a8be d070 b63d ab8f 81be fcc9 9cbe
000001f0: e8ce 2fbf 752d b9bf 82e4 78bf f0eb 5abd
00000200: e275 a0be d408 d1be e71d e53d e134 4f3d
00000210: 5126 eb3c 4dfe 5b3e e6e4 1abe 9c10 32bd
00000220: 056e 04bd 811b acbe 72cc 173f 57d2 a73e
00000230: c903 02bf fefd 963e 5db2 893e be3d 183f
00000240: f2be 053e 69a0 623e ce9b bc3e d887 d6be
00000250: 41c5 40be 8af2 383e 8d36 d03d 8032 bc3e
00000260: 56d0 533e 4e96 853f 6313 cc3e 579b 903e
00000270: 1c92 6c3e 031b 243d 74b4 87be fd6f cf3e
00000280: 3286 e8bd b85e 3fbe 35c1 5f3d c9f7 2e3e
00000290: a5c6 a7bd 4579 843e fbaf 8e3e 6bad 40be
000002a0: da5a 70bd bb07 203e 6d38 643d 38f2 bfbe
000002b0: badc 13bf c3ec 40be 11ef 61bd 1cbb aa3e
000002c0: 8f15 813f e46e 09be 9a5b f23d c0fb 353f
000002d0: b1a5 fb3e 1892 413e ffd9 13bf b542 7a3e
000002e0: 4d54 95bd fd07 cc3e 6a1c b23e 5d27 e4be
000002f0: 8231 af3e 7be6 cf3d e401 a43d 5954 b63e
00000300: 19df 99be 80a8 17be 755c a2bc 4a7a d53e
00000310: eba4 a5bd ee23 42bc d078 a33e 9abd dfbe
00000320: 6f82 e0bd da1e 0c3e 8415 e23d 4dd5 3abf
00000330: 360c 063f a8a8 1a3f a05a ce3d e283 79be
00000340: 644d 433f 8de6 133d 71dd d53e d3ea 003f
00000350: 8914 133f f864 86be 388b 2abe eea9 ea3e
00000360: 4864 223f 8c59 1e3e b9ea 07be 1728 a73e
00000370: 0ae3 5fbe 6780 113e a0df ee3e 6394 5e3e
00000380: 8551 093f e8db 143f a0ec cf3d 9fb5 913e
00000390: 2c8f 513e fb28 debb aaf2 b4be f6d8 aabb
000003a0: ac73 03be 26c0 e1be 528e 8b3e 69c4 a2bc
000003b0: 0543 533e deba 15bd ec7a 0cbd a11d 943d
000003c0: 6b8b d83e 6f99 2bbd 3c2d 6e3e 97d0 9e3c
000003d0: 99d9 033e 9817 973d c134 c5bd 9eaa 49bc
000003e0: 0860 c7bc 2eb8 cb3e e886 efbc ad13 393d
000003f0: f869 273f f60f 2d3e fc46 773e 28e0 ca3d

weight f4 [8]
1.019151 1.6240648 1.0367354 1.0023042 0.85441715 0.9686496 0.8747475 0.8543778
00000000: 8a73 823f 5be1 cf3f bfb3 843f 814b 803f
00000010: 15bb 5a3f 6cf9 773f 74ef 5f3f 81b8 5a3f

bias f4 [8]
-0.16831331 -0.14551434 -0.8131681 -0.8862564 -0.2556569 -0.47089425 -0.52595276 -0.32815087
00000000: 535a 2cbe b601 15be c92b 50bf b3e1 62bf
00000010: 76e5 82be 0d19 f1be d7a4 06bf 6403 a8be

running_mean f4 [8]
-1.1151174 -0.03042241 4.67495 2.8722765 1.6198372 -0.82377493 0.14694197 2.8434224
00000000: 2bbc 8ebf 6b38 f9bc 3199 9540 61d3 3740
00000010: d356 cf3f eae2 52bf f577 163e a2fa 3540

running_var f4 [8]
2.0394917 8.352608 4.8314238 3.3168595 3.2885137 5.2321854 2.3338845 2.1807706
00000000: 0887 0240 48a4 0541 069b 9a40 6d47 5440
00000010: 0277 5240 106e a740 5d5e 1540 bf91 0b40

weight f4 [32, 8, 1, 1]
0.11431274 -0.67771643 0.15772036 0.58622557 0.10028701 -0.14922738 0.2774662 -0.4654696
0.7534083 -0.70281315 0.33316982 0.11050414 -0.43622342 -0.1190643 -0.11331205 0.29037356
0.22074197 -0.8458733 0.6386288 0.26576057 -0.537337 0.03400562 0.18103178 0.01185458
-0.068048716 0.5490846 -0.2120555 -0.4091078 0.10781936 0.1918202 -0.30468735 0.08199366
0.023419363 0.65978426 -0.08516145 -0.25830397 0.34969515 0.16210325 0.64599264 -0.1669975
0.84011203 -0.09320266 0.37041286 0.21973133 0.057980143 -0.0045365132 -0.29765254 0.2461499
0.36234993 0.08212543 -0.002859925 0.04277658 -0.049743935 -0.79338557 0.19797358 -0.6344621
0.0012969509 -0.0631669 -0.034877345 0.37057915 0.31160727 0.3286838 -0.5333067 -0.44755167
0.31968156 0.30096236 0.23820394 -0.7596497 0.054300413 0.19521672 0.15330075 0.22461596
0.11622065 0.1353574 -0.18886305 -0.33451238 -0.20349336 0.5877422 0.4221543 -0.2925066
0.19878867 -0.4276654 -0.0032867752 -0.39952782 0.23815927 0.42818394 -0.39274088 0.46556666
0.23802057 0.33240497 -0.4851527 0.29762554 -0.10959713 0.3196445 0.002484938 0.62455565
0.03605352 -0.5091859 0.24951635 0.72814786 0.0893003 -0.11175876 -0.42368415 0.10560803
0.26908362 0.8001858 -0.230851 -0.48456165 -0.40864387 0.18070358 0.022894781 0.4014201
0.6879292 0.32121187 0.45127356 -0.33691192 -0.38010848 -0.05879031 0.15882117 -0.33122918
-0.17436482 -0.19031593 0.6118294 -0.04506134 -0.26953173 -0.53218436 0.187686 0.028686969
0.2138434 0.48324227 -0.50939643 -0.2265535 -0.25957203 0.67013144 -0.042399045 0.09419005
-0.21710613 -0.45665252 -0.031290554 0.27046585 0.27220264 0.32192713 0.14380734 -0.89617974
-0.2816372 -0.41368085 -0.17436658 -0.16940232 0.04703377 0.44691586 0.49626434 -0.31288654
-0.24985296 0.46242034 -0.4958856 -0.24860919 0.31522152 -0.078396276 0.25319782 0.7171016
0.07890114 -0.36781287 -0.07107243 0.14899325 -0.2709475 0.57714856 0.23184909 0.34617516
-0.7660082 -0.10898631 -0.5680934 -0.15904759 0.121741235 0.13182144 0.6913047 0.1660146
-0.17007 -0.28783727 -0.11081505 0.13748595 -0.17987908 -1.0114955 0.30402052 -0.33690616
0.40108728 -0.03605884 0.14441408 -0.4833928 0.66164196 -0.07349159 0.12965949 0.21492442
0.010641627 0.31818163 -0.2803645 0.6264979 0.35538712 -0.14780448 -0.46132815 -0.164045
0.28528336 0.25888282 -0.6539701 0.25235665 0.49843115 -0.12874952 -1.3045154 -0.16902429
-0.10262598 0.3605225 -0.22585274 0.49826893 -0.745392 0.24939781 0.09341376 0.30740818
0.26507705 -0.41094822 0.50500196 -0.23963429 -0.49209544 0.31023523 0.2080465 -0.17956834
-0.2565169 0.057905357 -0.64515173 0.17599462 -0.38006717 -0.47718132 0.5088217 0.051355675
-0.12579936 1.2452766 0.0901568 -0.07941295 -0.170158 0.5757116 -0.14943011 -0.021823782
-0.060173415 1.0284218 0.21677431 -0.010475666 -0.41345677 -0.31109434 0.21980394 0.2058589
-1.1060613 0.20472838 -0.43957457 0.08945127 0.16796307 0.32492933 -0.18938152 0.18703182
00000000: cc1c ea3d d37e 2dbf 7281 213e e112 163f
00000010: 4763 cd3d 10cf 18be 0d10 8e3e 0852 eebe
00000020: 5edf 403f 90eb 33bf 3c95 aa3e ff4f e23d
00000030: ad58 dfbe fcd7 f3bd 2610 e8bd d8ab 943e
00000040: 2f0a 623e 278b 58bf 2d7d 233f c511 883e
00000050: eb8e 09bf 7a49 0b3d 6560 393e b639 423c
00000060: 205d 8bbd cf90 0c3f 1425 59be 9476 d1be
00000070: 66d0 dc3d 846c 443e fbff 9bbe 4bec a73d
00000080: f7d9 bf3c 9fe7 283f 2069 aebd 6b40 84be
00000090: 3e0b b33e 65fe 253e c65f 253f 6501 2bbe
000000a0: 9511 573f 09e1 bebd c1a6 bd3e 4001 613e
000000b0: 967c 6d3d 08a7 94bb ea65 98be b80e 7c3e
000000c0: ee85 b93e 6131 a83d 946d 3bbb 7f36 2f3d
000000d0: 4cc0 4bbd 511b 4bbf 96b9 4a3e 1c6c 22bf
000000e0: 73fe a93a a65d 81bd 8cdb 0ebd 8dbc bd3e
000000f0: fd8a 9f3e 3e49 a83e ca86 08bf 7e25 e5be
00000100: 4dad a33e bd17 9a3e bceb 733e 6778 42bf
00000110: 1c6a 5e3d e4e6 473e dffa 1c3e ba01 663e
00000120: 1805 ee3d 219b 0a3e 5165 41be 3545 abbe
00000130: 9060 50be 4676 163f 9c24 d83e 6dc3 95be
00000140: 428f 4b3e f6f6 dabe f066 57bb e98e ccbe
00000150: 06e0 733e ed3a db3e 5515 c9be c15e ee3e
00000160: aabb 733e fc30 aa3e ef65 f8be 6062 983e
00000170: 7674 e0bd 72a8 a33e 57da 223b e1e2 1f3f
00000180: dbac 133d 025a 02bf 3781 7f3e e667 3a3f
00000190: 13e3 b63d c7e1 e4bd 21ed d8be 0649 d83d
000001a0: 54c5 893e fad8 4c3f 3464 6cbe 7718 f8be
000001b0: c539 d1be 5c0a 393e d68d bb3c ef86 cd3e
000001c0: 211c 303f e275 a43e 540d e73e b87f acbe
000001d0: 949d c2be 1cce 70bd 04a2 223e df96 a9be
000001e0: b18c 32be 2ee2 42be daa0 1c3f 3d92 38bd
000001f0: 1000 8abe 3c3d 08bf c230 403e ef00 eb3c
00000200: c4f9 5a3e 886b f73e ce67 02bf a4fd 67be
00000210: a0e6 84be bc8d 2b3f 9faa 2dbd b7e6 c03d
00000220: 1251 5ebe 5cce e9be 862a 00bd 807a 8a3e
00000230: 255e 8b3e a2d3 a43e 3b42 133e 096c 65bf
00000240: c032 90be facd d3be 278d 32be cd77 2dbe
00000250: 7ba6 403d 28d2 e43e 5c16 fe3e aa32 a0be
00000260: 74d9 7fbe 5cc2 ec3e b8e4 fdbe 6893 7ebe
00000270: b764 a13e 3a8e a0bd 25a3 813e f893 373f
00000280: ec96 a13d f851 bcbe 6c8e 91bd b091 183e
00000290: a1b9 8abe 02c0 133f d969 6d3e df3d b13e
000002a0: 1d19 44bf 3734 dfbd 926e 11bf 5fdd 22be
000002b0: 7853 f93d 33fc 063e 58f9 303f bbff 293e
000002c0: d526 2ebe 685f 93be 00f3 e2bd 1ec9 0c3e
000002d0: 3932 38be af78 81bf 94a8 9b3e f77e acbe
000002e0: 505b cd3e 6fb2 13bd 49e1 133e 437f f7be
000002f0: 5e61 293f c282 96bd 75c5 043e 2615 5c3e
00000300: 385a 2e3c b4e8 a23e f08b 8fbe 2b62 203f
00000310: 4df5 b53e 0f5a 17be 3433 ecbe 6afb 27be
00000320: a910 923e 4a8c 843e 966a 27bf e434 813e
00000330: 5e32 ff3e ead6 03be 5cfa a6bf b414 2dbe
00000340: 922d d2bd 6896 b83e f145 67be 1b1d ff3e
00000350: 03d2 3ebf 2462 7f3e b74f bf3d 9b64 9d3e
00000360: 2eb8 873e ce67 d2be cf47 013f b162 75be
00000370: eff3 fbbe 27d7 9e3e 240a 553e c3e0 37be
00000380: 2f56 83be 2b2e 6d3d aa28 25bf ef37 343e
00000390: 2a98 c2be 1c51 f4be 2442 023f 545a 523d
000003a0: 8cd1 00be 3965 9f3f 21a4 b83d 42a3 a2bd
000003b0: e63d 2ebe d661 133f 3504 19be cac7 b2bc
000003c0: 6678 76bd 53a3 833f 16fa 5d3e 21a2 2bbc
000003d0: 9bb0 d3be c247 9fbe 4914 613e adcc 523e
000003e0: 6b93 8dbf 51a4 513e eb0f e1be 3a32 b73d
000003f0: 83fe 2b3e 235d a63e 3bed 41be 4585 3f3e

weight f4 [32]
1.8642354 2.0249593 2.3746984 1.9927367 2.3423357 1.8781424 2.339942 1.3957099
2.1731546 1.491901 2.4328618 1.4812913 2.3593705 1.5907373 2.1859682 2.1131876
1.7854067 2.544469 1.4325489 1.3816445 0.9971719 1.7858909 2.0724628 2.0734432
1.2357119 1.929358 1.7454143 2.213038 1.5880175 2.4203098 2.125395 1.4178429
00000000: 449f ee3f ef98 0140 0ffb 1740 ff11 ff3f
00000010: d4e8 1540 f866 f03f 9cc1 1540 9fa6 b23f
00000020: f714 0b40 9df6 be3f 02b4 1b40 f49a bd3f
00000030: edff 1640 489d cb3f e7e6 0b40 773e 0740
00000040: 3588 e43f 95d8 2240 c35d b73f bad9 b03f
00000050: a846 7f3f 1398 e43f 3ba3 0440 4bb3 0440
00000060: cf2b 9e3f 34f5 f63f bc69 df3f 6aa2 0d40
00000070: 2844 cb3f 5be6 1a40 7906 0840 e07b b53f

bias f4 [32]
0.15715282 -0.16711141 -0.0106799705 -0.3315366 -0.6826599 0.15451875 0.3072524 0.22499701
-0.16712916 0.62666464 0.18033256 0.20113614 0.284661 0.36613348 0.36748835 0.63237196
0.3530904 -0.07157237 -0.015180836 0.44127285 0.5129619 0.5337794 0.5577587 -0.4871027
-0.18142805 0.8154591 -0.11290364 -0.094522305 -0.024127863 -0.4377906 0.3649241 -0.005640307
00000000: abec 203e 411f 2bbe 0bfb 2ebc 2abf a9be
00000010: cdc2 2ebf 2a3a 1e3e 3050 9d3e 9e65 663e
00000020: e823 2bbe 186d 203f 19a9 383e a2f6 4d3e
00000030: 16bf 913e d975 bb3e 6f27 bc3e 21e3 213f
00000040: 44c8 b43e 8994 92bd 0bb9 78bc 84ee e13e
00000050: 7951 033f c4a5 083f 46c9 0e3f 8665 f9be
00000060: 46c8 39be edc1 503f 063a e7bd e994 c1bd
00000070: cca7 c5bc 1726 e0be 55d7 ba3e 53d2 b8bb

running_mean f4 [32]
-0.029329892 -0.05305065 -0.040575717 0.010053601 0.21195103 0.15389523 -0.15222318 0.018976348
0.097842865 0.05645102 0.012178624 0.16223407 0.013220865 0.07848005 0.048425928 -0.07024893
0.082340546 -0.053260613 -0.024852654 0.10325313 0.09928529 -0.044156987 -0.2817062 0.11542926
0.049116924 -0.12188643 0.07589098 -0.016445769 -0.16479346 0.25421605 0.13412285 -0.03665569
00000000: 3e45 f0bc a34b 59bd b932 26bd dcb7 243c
00000010: b109 593e b696 1d3e 65e0 1bbe 4974 9b3c
00000020: d761 c83d 2f39 673d da88 473c b020 263e
00000030: 549c 583c 26ba a03d 445a 463d acde 8fbd
00000040: 29a2 a83d cd27 5abd cb97 cbbc 6176 d33d
00000050: 1656 cb3d f5dd 34bd cc3b 90be 2d66 ec3d
00000060: d42e 493d 989f f9bd bb6c 9b3d 47b9 86bc
00000070: 9ebf 28be 9b28 823e 8057 093e 4724 16bd

running_var f4 [32]
0.22689332 0.31492433 0.30170354 0.14365336 0.3532309 0.51249474 0.6704514 0.26836607
0.2468602 0.13680838 0.36559954 0.37199894 0.29118857 0.3006175 0.24706933 0.22439152
0.20416602 0.31787995 0.13739458 0.33339408 0.42372733 0.3499784 1.0738354 0.3386192
0.2195441 1.1190562 0.2161684 0.18691361 0.6441981 0.35580996 0.30670482 0.35535982
00000000: b956 683e c33d a13e e378 9a3e de19 133e
00000010: aeda b43e db32 033f b4a2 2b3f 4767 893e
00000020: ecc8 7c3e 7f17 0c3e dd2f bb3e a576 be3e
00000030: ab16 953e 89ea 993e beff 7c3e e4c6 653e
00000040: e610 513e 29c1 a23e 2ab1 0c3e a1b2 aa3e
00000050: caf2 d83e 5e30 b33e 7073 893f 7f5f ad3e
00000060: 2bd0 603e 3c3d 8f3f 405b 5d3e 4866 3f3e
00000070: 2bea 243f b92c b63e 6a08 9d3e b9f1 b53e

weight f4 [32, 8, 1, 1]
0.013472961 0.3177964 -0.29918522 0.2549993 0.26991037 -0.51766026 0.54962885 -0.43019855
0.049535915 -0.04012983 1.0066037 0.28748468 -0.4141026 -0.10177477 0.5453984 1.656669
0.11197283 0.18432967 0.93072015 0.13578078 -0.32952598 -0.03505839 0.8204913 0.99674165
0.13590139 0.0409922 -0.1537781 -0.37792283 0.0252605 0.5172997 -0.2791497 0.5528456
-0.24314028 0.1743598 0.80266243 -0.48179847 -0.29767367 -0.29032877 0.27627727 0.95174855
0.31663665 0.4313107 0.5240465 -0.10540328 -0.35162315 0.24324702 0.16190219 0.75939226
-0.73931515 0.08131766 0.37540787 0.46131858 0.31559616 -0.20184943 -0.23219092 -0.10402167
-0.23767012 0.023826052 0.9010224 -0.13274463 -0.38995123 -0.09197357 0.11344392 0.4293738
0.78458035 -0.32716793 0.19893356 -0.17337018 0.19172007 0.26697755 -0.09919268 -0.49577326
0.36099255 0.3365732 -0.11674342 -0.097258404 0.3322898 0.32382503 0.5980794 0.14653367
0.28114742 0.4197036 0.4339178 0.120175615 0.36969674 0.061887626 -0.73284185 0.9772753
0.34438488 -0.20260064 0.19434762 -0.5436121 0.1867183 0.3246187 -0.18094417 -0.7488369
0.806498 0.50056607 0.65595293 0.048071958 0.038481027 0.0119833825 -0.04165931 -0.5458807
-0.15548803 -0.70068526 0.032260366 0.09427376 0.13149448 -0.21636511 -0.94441766 0.015208681
0.78416973 -0.023108602 -0.39838815 -0.037165012 0.28294966 -0.1515576 0.64426476 1.0043327
0.29476893 -0.26368034 -0.20924151 0.1874748 -0.41029578 -0.43144736 0.8844846 0.08912886
0.24650526 0.26948893 0.31887978 -0.04753363 0.3915871 -0.50202775 -0.14572968 -0.5244251
-0.03538409 0.3152168 -0.5203331 0.35769954 0.15104125 0.049154926 0.3337226 -0.99565977
0.0774718 0.1850486 0.35180056 0.3106623 0.1347786 -0.6438996 0.64127845 -0.14014614
0.034515478 0.06243773 -1.2177835 -0.8332679 -0.18908215 0.05687276 -0.65276664 -0.8574651
0.10341373 0.5050979 0.13436167 0.19480559 0.08024965 0.31659892 0.6178596 -0.0070822067
-0.32915005 0.51564586 -0.40096402 0.46604568 -0.057242267 -0.2870485 -0.108337775 -0.20546953
-0.34057015 0.029407429 0.032204192 -0.108283125 -0.32137188 -0.19370076 1.287844 -1.4700224
0.00078355265 0.22623521 0.7440359 -0.18216893 -0.4567643 0.30119824 0.6222313 0.0690279
-0.29294795 0.7861069 0.056257673 0.13097715 0.16536601 -0.34874734 -0.3047354 -0.26103404
0.66820043 -0.7784652 -0.3387313 -0.12150367 -0.6265419 -0.044989858 -0.19737044 0.8859045
-0.1765945 0.16772862 0.048473272 0.18077117 0.20887172 0.56843364 0.3947706 0.04835177
0.3777644 0.1951804 0.14728655 -0.32424793 0.1346316 0.43029264 -0.28795394 0.70306176
-0.092584506 0.42614293 -0.008592492 0.26733732 -0.48353323 -0.05114229 0.6543536 -0.33999306
0.368084 0.36535093 -0.106253736 0.15378512 0.12800789 0.688179 -0.3711899 -0.40396535
-0.079550296 0.068319894 0.51816475 -0.33042863 0.41622943 0.2278061 0.6507304 0.09027029
-0.56683105 0.14163825 0.4059569 0.062883765 0.12645009 0.40986362 0.36719748 -1.2113904
00000000: b2bd 5c3c 36b6 a23e ce2e 99be 458f 823e
00000010: b131 8a3e 6285 04bf 7ab4 0c3f fc42 dcbe
00000020: 2ce6 4a3d 2d5f 24bd 64d8 803f 3131 933e
00000030: 4205 d4be 4a6f d0bd 3b9f 0b3f bb0d d43f
00000040: 0352 e53d ebc0 3c3e ad43 6e3f 1e0a 0b3e
00000050: a1b7 a8be 6399 0fbd b80b 523f 762a 7f3f
00000060: bc29 0b3e 70e7 273d 0278 1dbe 1a7f c1be
00000070: 1cef ce3c c16d 043f b6ec 8ebe 4a87 0d3f
00000080: c4f9 78be 608b 323e 497b 4d3f 4aae f6be
00000090: af68 98be f9a5 94be 3774 8d3e cba5 733f
000000a0: 331e a23e c2d4 dc3e e927 063f addd d7bd
000000b0: f307 b4be bf15 793e b0c9 253e 8867 423f
000000c0: c243 3dbf e089 a63d 7635 c03e f331 ec3e
000000d0: d295 a13e 9eb1 4ebe 75c3 6dbe 5009 d5bd
000000e0: cc5f 73be da2e c33c 67a9 663f 35ee 07be
000000f0: b0a7 c7be a45c bcbd 4955 e83d e2d6 db3e
00000100: 42da 483f 8e82 a7be 3db5 4b3e f487 31be
00000110: 4452 443e 48b1 883e 8825 cbbd fed5 fdbe
00000120: 04d4 b83e 5353 ac3e 2d17 efbd 6a2f c7bd
00000130: e321 aa3e 65cc a53e bb1b 193f ec0c 163e
00000140: 8ef2 8f3e 64e3 d63e 792a de3e a21e f63d
00000150: e448 bd3e e17d 7d3d 869b 3bbf b72e 7a3f
00000160: 3753 b03e 8b76 4fbe 1003 473e 2a2a 0bbf
00000170: 1533 3f3e 6c34 a63e 6e49 39be c6b3 3fbf
00000180: a776 4e3f 1925 003f 88ec 273f 1ae7 443d
00000190: 489e 1d3d f355 443c f4a2 2abd d6be 0bbf
000001a0: 4138 1fbe 1c60 33bf 7223 043d 9a12 c13d
000001b0: 7da6 063e d18e 5dbe 5bc5 71bf d52d 793c
000001c0: 59bf 483f 404e bdbc 88f9 cbbe 573a 18bd
000001d0: c7de 903e ea31 1bbe 89ee 243f f98d 803f
000001e0: f4eb 963e 1c01 87be 6843 56be 65f9 3f3e
000001f0: 4a12 d2be abe6 dcbe 956d 623f 3189 b63d
00000200: e06b 7c3e 74fa 893e 3644 a33e a0b2 42bd
00000210: 1b7e c83e e484 00bf 293a 15be b940 06bf
00000220: e8ee 10bd 1964 a13e 8d34 05bf 6524 b73e
00000230: 8faa 1a3e ad56 493d b0dd aa3e 8fe3 7ebf
00000240: 89a9 9e3d 617d 3d3e 341f b43e 210f 9f3e
00000250: 6703 0a3e 9bd6 24bf d32a 243f 7882 0fbe
00000260: 1a60 0d3d b5be 7f3d 54e0 9bbf 0c51 55bf
00000270: c09e 41be 69f3 683d b71b 27bf d582 5bbf
00000280: 94ca d33d 194e 013f 1b96 093e 1e7b 473e
00000290: ee59 a43d 4119 a23e 0c2c 1e3f db11 e8bb
000002a0: 5b86 a8be 5e01 043f 284b cdbe 8a9d ee3e
000002b0: de76 6abd 05f8 92be 32e0 ddbd 9b66 52be
000002c0: 365f aebe d9e7 f03c 8be8 033d 8bc3 ddbd
000002d0: db8a a4be 7e59 46be 12d8 a43f b229 bcbf
000002e0: 5467 4d3a 34aa 673e 2379 3e3f 7e8a 3abe
000002f0: 03dd e9be a836 9a3e 8d4a 1f3f 805e 8d3d
00000300: 46fd 95be 4d3e 493f 726e 663d e01e 063e
00000310: b555 293e 038f b2be 4706 9cbe 41a6 85be
00000320: 2f0f 2b3f 7f49 47bf 306e adbe ebd6 f8bd
00000330: 0d65 20bf 4947 38bd 7a1b 4abe a3ca 623f
00000340: 30d5 34be 0dc1 2b3e e98b 463d 141c 393e
00000350: 78e2 553e de84 113f 5f1f ca3e 810c 463d
00000360: 566a c13e 5fdd 473e 49d2 163e d303 a6be
00000370: dedc 093e 514f dc3e b36e 93be dbfb 333f
00000380: f29c bdbd 682f da3e 86c7 0cbc 70e0 883e
00000390: ab91 f7be 947a 51bd b883 273f 9213 aebe
000003a0: 8275 bc3e 470f bb3e 8f9b d9bd d979 1d3e
000003b0: 8014 033e 802c 303f 9a0c bebe 8cd4 cebe
000003c0: 44eb a2bd 4deb 8b3d 72a6 043f f12d a9be
000003d0: 061c d53e 0146 693e 4496 263f a1df b83d
000003e0: d71b 11bf 9e09 113e 95d9 cf3e 34c9 803d
000003f0: 227c 013e a5d9 d13e 4f01 bc3e d70e 9bbf

weight f4 [32]
1.3177347 1.4384013 1.7594858 1.3350921 0.8525011 1.363185 1.4385555 1.6542008
1.1404892 1.1441292 1.3448365 1.5213836 1.52644 0.76405317 2.3508253 1.8901925
1.412706 0.9299714 1.2017748 1.9065222 1.2779543 1.9365839 1.0816207 1.2523953
1.1732037 2.0591412 1.2439123 1.3843952 0.8576324 1.5267624 1.4045198 1.3323375
00000000: 88ab a83f 891d b83f d536 e13f 4ce4 aa3f
00000010: 833d 5a3f d97c ae3f 9622 b83f dabc d33f
00000020: 8dfb 913f d372 923f 9a23 ac3f b3bc c23f
00000030: 6362 c33f fd98 433f ec73 1640 d4f1 f13f
00000040: 8dd3 b43f 9b12 6e3f c2d3 993f eb08 f43f
00000050: 0294 a33f fbe1 f73f 8c72 8a3f 7d4e a03f
00000060: 8a2b 963f f8c8 0340 8538 9f3f dd33 b13f
00000070: cc8d 5b3f f36c c33f 4ec7 b33f 098a aa3f

bias f4 [32]
0.15715282 -0.16711141 -0.0106799705 -0.3315366 -0.6826599 0.15451875 0.3072524 0.22499701
-0.16712916 0.62666464 0.18033256 0.20113614 0.284661 0.36613348 0.36748835 0.63237196
0.3530904 -0.07157237 -0.015180836 0.44127285 0.5129619 0.5337794 0.5577587 -0.4871027
-0.18142805 0.8154591 -0.11290364 -0.094522305 -0.024127863 -0.4377906 0.3649241 -0.005640307
00000000: abec 203e 411f 2bbe 0bfb 2ebc 2abf a9be
00000010: cdc2 2ebf 2a3a 1e3e 3050 9d3e 9e65 663e
00000020: e823 2bbe 186d 203f 19a9 383e a2f6 4d3e
00000030: 16bf 913e d975 bb3e 6f27 bc3e 21e3 213f
00000040: 44c8 b43e 8994 92bd 0bb9 78bc 84ee e13e
00000050: 7951 033f c4a5 083f 46c9 0e3f 8665 f9be
00000060: 46c8 39be edc1 503f 063a e7bd e994 c1bd
00000070: cca7 c5bc 1726 e0be 55d7 ba3e 53d2 b8bb

running_mean f4 [32]
-0.50882995 2.4693282 1.8862323 0.53369874 1.2805014 1.3358866 0.120867856 0.8856374
-0.09073159 0.62615955 1.5208849 -0.5289979 0.31783208 -0.41096354 1.0824561 -0.13017525
-0.2491517 -1.0987619 0.22306748 -2.2473137 0.6273294 -0.56055033 -1.4839907 0.78326756
-0.2562227 0.25230753 0.5780157 1.0547484 -0.26153135 -0.02526366 0.8599868 -0.6562384
00000000: ae42 02bf 7909 1e40 0f70 f13f 7ba0 083f
00000010: 78e7 a33f 55fe aa3f 9189 f73d 22b9 623f
00000020: 7cd1 b9bd fe4b 203f 5bac c23f 686c 07bf
00000030: e3ba a23e d069 d2be ec8d 8a3f a94c 05be
00000040: a021 7fbe 3ba4 8cbf cd6b 643e fdd3 0fc0
00000050: a998 203f 3a80 0fbf 68f3 bdbf 3984 483f
00000060: 9f2f 83be 742e 813e d6f8 133f ff01 873f
00000070: 70e7 85be bcf5 cebc 1828 5c3f 3dff 27bf

running_var f4 [32]
0.55364186 0.5324062 0.31098148 0.29905376 1.4682212 0.3144801 0.50997126 0.65987116
0.36604553 1.2869698 1.2093296 0.36441767 1.1278722 0.7539352 0.49039325 0.98887926
0.44119254 0.97704387 0.48911634 1.7935787 1.5262574 0.5323206 0.54819953 0.27335736
0.69878006 2.4946492 1.5814459 0.47746342 0.23677678 2.575567 0.43319434 0.83778304
00000000: 79bb 0d3f c64b 083f f738 9f3e 931d 993e
00000010: acee bb3f 8903 a13e 7a8d 023f 51ed 283f
00000020: 526a bb3e 6dbb a43f 50cb 9a3f f494 ba3e
00000030: 1e5e 903f e601 413f d314 fb3e 3127 7d3f
00000040: fde3 e13e 8c1f 7a3f 756d fa3e fd93 e53f
00000050: 675c c33f 2a46 083f ce56 0c3f 7ff5 8b3e
00000060: 40e3 323f 55a8 1f40 d26c ca3f 1676 f43e
00000070: 9d75 723e 17d6 2440 a6cb dd3e f378 563f

weight f4 [8, 32, 1, 1]
0.35544863 -0.29065853 0.6721585 0.03947572 -0.65885407 0.12365383 0.2920636 0.9669447
0.09073683 0.040297385 -0.37003842 0.8094307 -0.066138774 -0.14234577 0.17091629 0.31257093
-0.39709908 0.1961264 0.25730532 0.035465628 0.10540122 0.2879483 0.15260962 0.3086049
-0.2948091 0.76006436 0.10956842 -0.19249749 0.4161301 -0.08107112 0.12747833 0.03567391
-0.4012753 0.17035702 0.00010831693 -0.08042392 0.10860522 0.02699912 -0.16060756 0.29997045
-0.20508154 -0.08389364 -0.4394774 -0.7651262 -0.1921734 0.013954925 0.14100182 0.37713987
-0.23749395 -0.30010566 -0.32349032 -0.43072048 0.011598842 -0.28193283 0.1100275 0.1785964
0.10235781 0.41156882 0.29049554 0.06785778 -0.8904125 0.40975028 0.24788328 0.110794485
-0.011337554 -0.3164533 -0.06796019 -0.6813759 0.29751483 -0.057566874 -0.68357307 0.08547371
-0.46335953 0.16585626 -0.032646485 -0.08604317 -0.07141047 0.59293824 0.04557762 0.54596645
-0.16276556 0.1993827 -0.04191909 0.29249704 0.33050668 0.01155142 -0.59173346 0.06767181
-0.16059166 -0.09548763 0.22375618 0.336458 -0.7933454 0.0026787147 -0.0029070354 0.391557
-0.29559073 -0.21094373 -0.56739914 -0.20947629 0.1425156 0.16138917 0.12260817 0.021515016
-0.010256641 -0.06484526 0.27651447 -0.22095577 0.28196657 -0.41352814 -0.15269038 -0.46745622
0.3448421 -0.11952777 0.027749501 -0.54679173 0.41525453 -0.015045056 -0.77020967 0.3085879
0.041426178 -0.28913605 0.39889994 -0.23790929 -0.13409922 0.03440675 0.046172064 -0.4908622
0.3594956 0.42903787 0.5736537 0.27861628 0.07082718 0.12960951 0.15554045 -0.67979646
-0.011351859 -0.10332511 0.03686251 -0.25036478 0.058045745 0.336866 -0.086739264 -0.6407523
-0.18249772 -0.48482567 -0.19069727 -0.38906577 0.038063027 -0.38852334 -0.17823605 -0.08281954
-0.034540825 -1.014311 -0.058374047 0.11603186 -0.092747614 -0.23297517 -0.10335317 -0.0018459056
-0.05410217 -0.27137557 0.2732376 -0.18209146 0.39616758 0.035189983 0.08980128 -0.15696272
-0.15097788 0.009383946 -0.58533245 0.5200135 0.14890468 -0.27714992 -0.7924853 -0.41679108
-0.14001341 0.29101005 -0.202104 -0.1431816 0.044817388 0.012266065 0.31263438 -0.25306857
0.098564416 -0.25324982 0.23426433 -0.1796953 0.37192595 0.340547 -0.18131612 0.16318887
0.29120484 0.0319474 0.0028160876 0.15391725 -0.1441244 -0.18104933 -0.26427406 -0.4823951
0.16244489 0.243838 0.3172598 -0.09360372 0.17643389 0.5318028 -0.32973793 0.41474652
0.36828926 0.4541247 -0.19264399 0.675324 0.32366562 -0.35284835 0.80508906 -0.18691723
0.07348471 0.22057636 -0.031369176 0.26754647 -0.18262066 0.2929294 -0.33907923 -0.1341214
-0.22665617 -0.058424484 -0.09466286 -0.3079582 0.51586866 0.07511416 0.43020934 -0.08931343
0.36171553 0.31460845 -0.12659395 -0.40530506 -0.3623947 -0.27188647 0.29403946 -0.57135576
0.25105652 -0.008080259 0.14260477 -0.12553324 0.08681878 0.16300924 0.098065674 0.33213472
-0.04709809 0.019237548 -0.12244961 0.40096644 -0.055854663 0.24393937 0.21370333 -0.45516044
00000000: 5dfd b53e 32d1 94be 9412 2c3f 4bb1 213d
00000010: a9aa 28bf 383e fd3d 5c89 953e b089 773f
00000020: 3bd4 b93d df0e 253d ad75 bdbe da36 4f3f
00000030: c473 87bd 17c3 11be ae04 2f3e 4c09 a03e
00000040: 9250 cbbe 5cd5 483e 86bd 833e 6844 113d
00000050: 98dc d73d f66d 933e b245 1c3e 7601 9e3e
00000060: 38f1 96be 9493 423f 6865 e03d 101e 45be
00000070: 010f d53e 9e08 a6bd ae89 023e ce1e 123d
00000080: f573 cdbe 1272 2e3e 3628 e338 4cb5 a4bd
00000090: 6a6c de3d 422d dd3c 4f76 24be ba95 993e
000000a0: e500 52be 6ed0 abbd 2f03 e1be 50df 43bf
000000b0: 1bc9 44be 33a3 643c c862 103e 7a18 c13e
000000c0: 9d31 73be 73a7 99be 86a0 a5be 6587 dcbe
000000d0: 1209 3e3c 8059 90be 1956 e13d fae1 363e
000000e0: f9a0 d13d 26b9 d23e d5bb 943e 05f9 8a3d
000000f0: 13f2 63bf caca d13e 1dd5 7d3e 38e8 e23d
00000100: 26c1 39bc 2b06 a2be b62e 8bbd a76e 2ebf
00000110: dd53 983e 3ecb 6bbd a5fe 2ebf d70c af3d
00000120: 763d edbe 39d6 293e 52b8 05bd 6737 b0bd
00000130: a73f 92bd cdca 173f 99af 3a3d 75c4 0b3f
00000140: 04ac 26be fa2a 4c3e 5ab3 2bbd 2cc2 953e
00000150: 2c38 a93e 2b42 3d3c d87b 17bf 8597 8a3d
00000160: 2472 24be 058f c3bd 5720 653e 3944 ac3e
00000170: af18 4bbf 608d 2f3b f683 3ebb 297a c83e
00000180: ab57 97be a201 58be 1241 11bf f480 56be
00000190: 9cef 113e 3443 253e fe19 fb3d 4240 b03c
000001a0: 780b 28bc 97cd 84bd 4e93 8d3e 3b42 62be
000001b0: ec5d 903e f6b9 d3be de5a 1cbe 6c56 efbe
000001c0: 258f b03e faca f4bd ec52 e33c 8bfa 0bbf
000001d0: 3e9c d43e 8a7f 76bc 762c 45bf 3cff 9d3e
000001e0: 7fae 293d a409 94be 9d3c cc3e 7e9e 73be
000001f0: 4e51 09be 18ee 0c3d eb1e 3d3d 4a52 fbbe
00000200: cf0f b83e daaa db3e f8da 123f cba6 8e3e
00000210: d70d 913d 5bb8 043e ff45 1f3e 2407 2ebf
00000220: 26fd 39bc 1e9c d3bd 25fd 163d d02f 80be
00000230: 60c1 6d3d b379 ac3e 5ba4 b1bd 5808 24bf
00000240: afe0 3abe 123b f8be 2546 43be a133 c7be
00000250: fae7 1b3d 88ec c6be 8383 36be 4a9d a9bd
00000260: ae7a 0dbd f1d4 81bf a019 6fbd 1da2 ed3d
00000270: 76f2 bdbd 0b91 6ebe d4aa d3bd 50f2 f1ba
00000280: 3d9a 5dbd bdf1 8abe cce5 8b3e 2f76 3abe
00000290: 7ad6 ca3e 5f23 103d bce9 b73d d6ba 20be
000002a0: f299 1abe 1fbf 193c 59d8 15bf 9b1f 053f
000002b0: 787a 183e 98e6 8dbe 51e0 4abf a465 d5be
000002c0: ad5f 0fbe 45ff 943e 5af4 4ebe 339e 12be
000002d0: 7092 373d 9bf7 483c 9d11 a03e 3492 81be
000002e0: 24dc c93d f6a9 81be fde2 6f3e 0b02 38be
000002f0: 146d be3e 2d5c ae3e efaa 39be fc1a 273e
00000300: cd18 953e 47db 023d 1c8e 383b 7c9c 1d3e
00000310: 5995 13be ff64 39be ee4e 87be 7efc f6be
00000320: f457 263e abb0 793e e06f a23e 4fb3 bfbd
00000330: 16ab 343e 3a24 083f 69d3 a8be a859 d43e
00000340: 6990 bc3e 0883 e83e 7744 45be 09e2 2c3f
00000350: 80b7 a53e 8aa8 b4be 511a 4e3f 3b67 3fbe
00000360: 277f 963d c5de 613e f77c 00bd dafb 883e
00000370: e900 3bbe d8fa 953e cb9b adbe 1f57 09be
00000380: 8e18 68be 834e 6fbd 9ade c1bd b2ac 9dbe
00000390: f80f 043f 74d5 993d 6644 dc3e f6e9 b6bd
000003a0: c732 b93e 5c14 a13e d8a1 01be 2584 cfbe
000003b0: cc8b b9be b434 8bbe 578c 963e 5f44 12bf
000003c0: 7b8a 803e 1063 04bc fc06 123e c98b 00be
000003d0: 0bce b13d e5eb 263e a8d6 c83d 900d aa3e
000003e0: ede9 40bd 1098 9d3c dcc6 fabd 794b cd3e
000003f0: dcc7 64bd 3ecb 793e 0cd5 5a3e ca0a e9be

weight f4 [8]
0.84715307 1.3106842 1.1012557 1.0821639 0.96487755 1.2982973 1.0938958 0.89776176
00000000: 06df 583f 80c4 a73f f2f5 8c3f 5984 8a3f
00000010: 3702 773f 9b2e a63f c704 8c3f b7d3 653f

bias f4 [8]
-0.37468565 -0.08771719 -0.3422649 -0.032836724 -0.23292278 -0.012009802 -0.6195061 -0.38034418
00000000: ccd6 bfbe 12a5 b3bd 583d afbe cd7f 06bd
00000010: 4f83 6ebe c3c4 44bc f497 1ebf 79bc c2be

running_mean f4 [8]
4.497532 0.13935113 0.3224565 -3.2992957 -4.935564 -1.8383391 3.9172535 0.40071294
00000000: c8eb 8f40 10b2 0e3e 0519 a53e a927 53c0
00000010: 24f0 9dc0 b24e ebbf 48b4 7a40 3f2a cd3e

running_var f4 [8]
7.364964 14.778444 4.234386 4.731065 6.5557117 14.083256 8.970893 15.284223
00000000: c9ad eb40 8274 6c41 1780 8740 e264 9740
00000010: 64c8 d140 0455 6141 c788 0f41 2d8c 7441

weight f4 [8, 8, 3, 3]
-0.11015174 -0.20525618 -0.39809626 -0.11869177 -0.15982279 -0.6158018 -0.28783065 -0.12107598
-0.4135014 0.7519062 0.2615625 0.4206312 0.6978052 0.06471834 0.5962931 0.7092436
0.009249898 0.511956 0.001163071 -0.052611787 0.078923814 0.26621076 0.06750449 -0.06706355
0.14373596 0.028293217 0.20203915 0.103597485 0.20294036 0.1148488 0.10059283 0.07611797
-0.08511727 0.17610933 0.055129882 -0.5030336 -0.17499852 -0.018568845 -0.17617053 0.094557576
0.1601748 -0.32152218 0.02291822 -0.03142559 -0.691918 0.33093065 0.49786013 0.27501553
0.014471161 -0.16701022 -0.44141212 -0.080640025 0.047269624 0.24486686 -0.040053826 0.22628164
0.372185 -0.16061622 0.033470947 -0.04518835 -0.066239044 -0.14064595 -0.74945927 0.22142638
0.17210165 -0.023315517 0.42418784 0.31326953 0.12584502 0.6101975 0.16364267 0.30897635
-0.63286465 -0.25360724 -0.23033962 -0.6447319 -0.4879445 -0.16387321 -0.5645673 -0.36086768
-0.12281569 -0.29299322 0.24537708 -0.12161798 -0.54793876 -0.062256753 0.15473653 -0.6716845
-0.26182273 -0.056544546 0.28077742 0.5161205 0.10424205 0.26577115 0.71005726 0.049277008
0.0928006 0.2727092 -0.047552004 0.65969646 0.34215897 0.19137688 0.25166148 0.015585728
-0.039975405 0.2475644 0.12449642 0.04584723 0.5293245 0.035684727 0.37192324 0.14409956
-0.20609441 0.13363548 0.4128219 0.23639525 0.5220271 0.5105554 -0.083021276 -0.36729184
0.47384566 -0.18527913 -0.26325884 0.6099272 0.22484553 0.05433907 -0.24812317 -0.0035634225
0.047480337 -0.24378233 -0.058268007 -0.07974172 0.034791324 0.24696395 0.15263483 -0.059483655
0.10462718 -0.024695145 -0.19735502 0.095163666 0.047424044 -0.3294354 -0.08627407 -0.051501054
-0.10477275 -0.14493012 -0.13448086 -0.19952045 -0.077009104 -0.056002256 -0.1692325 0.06771499
-0.008187539 -0.11804112 -0.27921984 -0.40409654 0.048818607 -0.034671545 -0.027211577 0.15234023
-0.10621556 -0.053542666 0.45105252 0.32837206 0.6901467 0.60421884 0.4076358 0.44740656
0.42618042 0.23701593 0.4028682 0.5568122 0.25546852 0.6346759 0.26400614 -0.05286927
0.03846656 0.217136 -0.078611605 0.029477362 -0.008249217 0.06308876 0.16812766 0.06452057
0.043001242 -0.34440157 -0.16789076 -0.28626335 -0.78288585 0.49841192 -0.021202607 -0.32669088
0.14007294 -0.08459874 -0.5107138 -0.5556658 -0.5660854 -0.90252805 -0.38387236 -0.22005488
0.081821434 -0.014777714 -0.04937425 0.11252803 -0.0981665 -0.11600259 0.07988156 -0.3631722
-0.22564793 -0.1853274 -0.29405183 -0.112090394 -0.12081976 -0.3302573 -0.08978404 0.004000791
-0.2556408 -0.011207487 -0.017630102 -0.2535424 0.0045259376 0.08293641 -0.051682487 -0.27936193
-0.25172225 -0.5538492 -0.28416017 -0.5500723 -0.64583254 0.30161676 -0.11685599 -0.39128402
-0.14271294 -0.075096935 0.040507432 0.07115043 0.7214244 -0.37843493 0.13255526 0.52021384
-0.641306 0.026567927 0.6115264 -0.028827414 0.08732424 0.47454268 -0.40489742 0.070098035
0.30709094 -0.6982202 0.15754324 0.48580363 0.14803989 0.023682998 -0.28253597 0.29661715
00000000: 3c97 e1bd ad2e 52be 46d3 cbbe ac14 f3bd
00000010: 96a8 23be 30a5 1dbf 8a5e 93be aff6 f7bd
00000020: 75b6 d3be ed7c 403f 85eb 853e f95c d73e
00000030: 5da3 323f 0d8b 843d aaa6 183f fd90 353f
00000040: e28c 173c 8c0f 033f 3072 983a 757f 57bd
00000050: cfa2 a13d c74c 883e cb3f 8a3d 9d58 89bd
00000060: 852f 133e 2dc7 e73c 5ae3 4e3e eb2a d43d
00000070: 99cf 4f3e d935 eb3d 9d03 ce3d bde3 9b3d
00000080: f751 aebd 0156 343e dfcf 613d cfc6 00bf
00000090: d032 33be b11d 98bc 0c66 34be 67a7 c13d
000000a0: dd04 243e 8e9e a4be febe bb3c 1fb8 00bd
000000b0: 8a21 31bf be6f a93e 86e7 fe3e d6ce 8c3e
000000c0: 7318 6d3c ba04 2bbe c500 e2be 9926 a5bd
000000d0: cb9d 413d 61be 7a3e 7b0f 24bd 60b6 673e
000000e0: 088f be3e 9478 24be d518 093d 6b17 39bd
000000f0: 56a8 87bd 7e05 10be 90dc 3fbf 99bd 623e
00000100: 6a3b 303e 2f00 bfbc 262f d93e dd64 a03e
00000110: 84dd 003e e735 1c3f f291 273e 2632 9e3e
00000120: 6b03 22bf cfd8 81be 26de 6bbe 260d 25bf
00000130: ddd3 f9be 61ce 27be 7c87 10bf a6c3 b8be
00000140: cb86 fbbd 3503 96be 2144 7b3e d912 f9bd
00000150: b745 0cbf f000 7fbd 4173 1e3e 84f3 2bbf
00000160: a10d 86be 419b 67bd 0fc2 8f3e 7920 043f
00000170: db7c d53d 2813 883e 50c6 353f b0d6 493d
00000180: 3e0e be3d 8aa0 8b3e e4c5 42bd dee1 283f
00000190: 762f af3e 4df8 433e c6d9 803e 485b 7f3c
000001a0: 40bd 23bd 8681 7d3e fbf7 fe3d 4eca 3b3d
000001b0: cf81 073f 262a 123d b96c be3e d68e 133e
000001c0: 6a0a 53be bdd7 083e 645d d33e 9911 723e
000001d0: 91a3 053f c2b3 023f 0f07 aabd ad0d bcbe
000001e0: e69b f23e d0b9 3dbe ddc9 86be 3024 1c3f
000001f0: e83d 663e a592 5e3d 0014 7ebe 4f88 69bb
00000200: be7a 423d 13a2 79be 6faa 6ebd a04f a3bd
00000210: 5981 0e3d 1ee4 7c3e 4e4c 1c3e 22a5 73bd
00000220: c646 d63d 794d cabc 6f17 4abe 2be5 c23d
00000230: b73f 423d c2ab a8be 76b0 b0bd c5f2 52bd
00000240: 1893 d6bd 9068 14be 5ab5 09be 174f 4cbe
00000250: f3b6 9dbd 9f62 65bd 494b 2dbe 28ae 8a3d
00000260: 0725 06bc 8bbf f1bd e7f5 8ebe bee5 cebe
00000270: 05f6 473d c003 0ebd d0ea debc 14ff 1b3e
00000280: 8b87 d9bd 8e4f 5bbd 5bf0 e63e 6220 a83e
00000290: 74ad 303f 16ae 1a3f a4b5 d03e 7912 e53e
000002a0: 5234 da3e 4eb4 723e be44 ce3e 3f8b 0e3f
000002b0: c5cc 823e 1f7a 223f d02b 873e 738d 58bd
000002c0: 1d8f 1d3d e658 5e3e 1fff a0bd 827a f13c
000002d0: b927 07bc ae34 813d a829 2c3e 5c23 843d
000002e0: 1222 303d 6755 b0be 8eeb 2bbe 1c91 92be
000002f0: 356b 48bf d92f ff3e 17b1 adbc 0744 a7be
00000300: 486f 0f3e 1b42 adbd 24be 02bf 1d40 0ebf
00000310: f9ea 10bf 140c 67bf eb8a c4be 1156 61be
00000320: ff91 a73d 3a1e 72bc a73c 4abd 1975 e63d
00000330: 850b c9bd c492 edbd f198 a33d b5f1 b9be
00000340: 4010 67be 77c6 3dbe f68d 96be a68f e5bd
00000350: 5a70 f7bd 7c17 a9be b2e0 b7bd 1119 833b
00000360: 5ae3 82be 9c9f 37bc 016d 90bc 4fd0 81be
00000370: 514e 943b 91da a93d 04b1 53bd 8708 8fbe
00000380: bde1 80be 10c9 0dbf 717d 91be 8ad1 0cbf
00000390: 4855 25bf 836d 9a3e 3152 efbd 6156 c8be
000003a0: 5723 12be 6ccc 99bd 1feb 253d 51b7 913d
000003b0: 45af 383f 39c2 c1be 91bc 073e bc2c 053f
000003c0: a12c 24bf fba4 d93c ff8c 1c3f 7827 ecbc
000003d0: 0dd7 b23d 42f7 f23e b74e cfbe 8f8f 8f3d
000003e0: 063b 9d3e 8fbe 32bf 0453 213e 41bb f83e
000003f0: c597 173e d902 c23c 8ea8 90be 34de 973e

weight f4 [8]
0.8855315 0.89089924 0.97814757 1.3069867 1.4156499 1.7933604 1.0153396 0.7952828
00000000: 31b2 623f f911 643f e167 7a3f 574b a73f
00000010: 0434 b53f d58c e53f a6f6 813f a797 4b3f

bias f4 [8]
0.19073273 -0.20629038 -0.21611065 0.5459346 0.8050385 0.014598496 -0.5676367 -0.4593483
00000000: 714f 433e c93d 53be 1c4c 5dbe 5fc2 0b3f
00000010: 0117 4e3f 882e 6f3c a450 11bf b32f ebbe

running_mean f4 [8]
0.7539914 0.27985248 -0.108183205 -0.7371987 -1.6158584 -0.38964495 -0.18890193 0.1436444
00000000: 9505 413f d348 8f3e 288f ddbd 0eb9 3cbf
00000010: 73d4 cebf 8b7f c7be 826f 41be 8517 133e

running_var f4 [8]
5.127306 5.266579 4.3873477 8.702244 17.821846 5.831809 3.3730857 2.1113713
00000000: e412 a440 d187 a840 2765 8c40 643c 0b41
00000010: 2493 8e41 2e9e ba40 a3e0 5740 b520 0740
