HW5/model_AE.pt (torch, 895912 bytes, 12 tensors)

weight f4 [128, 784]
00000000: 916e edbc fc9c 95bc ee8d 89bc 9011 a43b
00000010: 51df 0a3d 3e55 11bd 641b c6bb 52cd 08bc
00000020: c040 8f3a 20c2 92ba 28b7 c53c 35b0 0cbd
00000030: 4046 173a 6007 533b f825 3ebc 86ca d93c
00000040: 24de cabb 0e56 d8bc fd8f 043d 40d6 8cbc
00000050: a024 d23a 485b eebc d408 b8bb 1883 6bbc
00000060: 3287 0cbd fafa e5bc 726c 9f3c d0c3 cd3c
00000070: 8899 c13b 87bb 083d d770 0c3d e81c cebc
00000080: 92f7 72bc 96eb d63c 00a6 8eba 7095 1e3c
00000090: d3e0 c1bc 92c4 3ebc 5788 0dbd 40ee d33b
000000a0: 8640 74bc 60d9 55bb ff91 0d3e 01ef 913d
000000b0: 1d2e a13d 4869 a6bb 07ae 103d 80d1 cc3b
000000c0: 602a 33bb bac2 bf3c d092 123c 9e8d ffbc
000000d0: 2a04 c9bc e041 6a3c 6809 463c 6ad6 2dbc
000000e0: 5036 d2bc 9093 d7bc 0072 ce38 771c 0a3d
000000f0: 072c 85bc fce0 6c3c 1867 3a3c ce1e b83c
00000100: caf1 943c f869 eebc 3312 8dbe 7fcb 7ebe
00000110: 519a 6bbe cb97 13be 48f2 403d 2a6c 923d
00000120: eab2 413e 886a 223e 2067 083d e408 acbb
00000130: 9487 33bd 1c03 413c b05e e43b dcba f3bb
00000140: a0b1 6d3b b2c1 c13c 58e6 7bbc f219 2ebc
00000150: 200f a23a ade2 113d 2dc5 bebc da0b 97bc
00000160: 7e11 023d 7b87 d03c a738 a33c 3d39 923d
00000170: 53b7 df3c eda4 733d 998a ed3d fabc 803c
00000180: 5352 1d3e f403 2bbe 1899 efbd f0e7 46bd
00000190: dc99 33be b28f 85bc 8be1 17be bde2 acbe
000001a0: c2cb 77be 1d27 03bd 84a3 873b dbf9 88bd
000001b0: 4bdd 23bd 7739 743c c5f4 01bd 184e e5bc
000001c0: e1a4 e4bc 416e 093d 0755 58bc 055e 9c3d
000001d0: e61d 43bd fee1 92bb 613c 86bc 4179 7cbe
000001e0: 52f8 77be 33ed 63be 12ed bfbd 67e4 00be
000001f0: 0469 79bd 8e1d 883e 9b9a 503e ff0b 063e
00000200: 57ed 68bd 3f9d d4bd 3bc5 6ebd 5e57 20bc
00000210: aa8c 78bd 2f08 12be 93a5 37be d0f6 03be
00000220: a652 afbc eefe 3abd a518 fc3c 35b0 c1bc
00000230: 2c8e cd3c 507e 91bb 7517 e73d 9370 2d3d
00000240: 1cf2 dcbc d94f e1bc dc09 68be 5b98 90be
00000250: 813a 81be aac0 11be 1faa 5bbe de1a bebe
00000260: 5309 1cbe de4e 2f3e 8280 963e d215 1d3e
00000270: 793c d0bb 4b3e 44bd e0f5 46bd 524a c9bd
00000280: 4ef6 8dbe d604 5abe 01e7 b0bd 46c6 0dbe
00000290: e590 a2bd ad8c aebc 2720 093c b478 20bc
000002a0: c014 7eba 1a4b 7ebc a7d4 c0bd 4f2e 20be
000002b0: 7bba cd3c fd52 eabd d092 aebe db83 5fbd
000002c0: 0bf6 273d 628a 0cbe 6053 a8be 66e2 d0be
000002d0: df19 b3bd ecba dd3d 448a 9d3e 82dc 5b3c
000002e0: c72a 4bbd dad8 1dbe 3b23 33be 1283 08be
000002f0: 34d0 57be b4de 24be 01e5 22be 2771 0abe
00000300: 9425 71bd 4d3c 0e3b a776 3abc c112 063d
00000310: aa58 ed3c 3683 58bd 1af5 1ebe fe70 40be
00000320: 3f3c 14bd 04af 21be 6d39 6cbe 251a 733a
00000330: 8b96 85bd 043c 1cbe 3a43 6ebe 8b9e 38be
00000340: 4ad5 54bd 22fd 543e 2482 463e 9d88 06bd
00000350: 821e 41be 53ba 70be b948 2cbe 1ae4 40bd
00000360: 6dc2 1fbe 641d c8bc 28b0 623b e02a 9bbd
00000370: cd04 b2bd 09d8 3c3c c8eb 803c 8668 bf3b
00000380: 00ba 53bc 9d22 f03c 331c 27be 92b2 773d
00000390: 56b5 10be 459a 42be 1781 cfbd 0f19 2cbc
000003a0: b80d d63d 8c43 9d3d 9d18 f1bd c8bb 3ebd
000003b0: be4b 22ba 0711 4d3e 8a24 273e 3bfd 1a3d
000003c0: 0af7 7bbe e2eb 7abe 82e8 24be 63b8 1abe
000003d0: 4551 aebc 9b71 3cbc 6a0b a03d d5e3 5bba
000003e0: 7b6e 90bd 9c89 adbc 5d6f 9d3c 9c84 d23c
000003f0: e1fd 32bc 6a95 913b efd3 5ebc ae80 3bbc
-0.028983386 -0.018263333 -0.01679131 0.0050069764 0.033904377 -0.035481684 -0.0060457457 -0.008349733
0.0010929331 -0.001119677 0.024135187 -0.03434773 0.0005770661 0.003220044 -0.011605732 0.026585829
-0.006191032 -0.026408222 0.03236388 -0.017192006 0.0016032644 -0.02909626 -0.005616287 -0.014374517
-0.03430862 -0.028073777 0.01946089 0.025117785 0.005908195 0.033381965 0.0342873 -0.025160268
-0.014829533 0.026235383 -0.0010883212 0.009679183 -0.023666775 -0.011643546 -0.034553852 0.0064676106
-0.014907962 -0.0032630786 0.13825224 0.071256645 0.078701235 -0.0050784685 0.035322215 0.0062505603
-0.002733849 0.023408283 0.008946136 -0.031195458 -0.024538118 0.014297932 0.012087204 -0.010610202
-0.025660664 -0.02631548 9.8440796e-05 0.033718552 -0.016256345 0.014457937 0.0113771185 0.022475626
0.0181817 -0.029103264 -0.27552947 -0.24882315 -0.23008086 -0.14413373 0.047106057 0.07149537
0.18915907 0.15860951 0.033301473 -0.0052500833 -0.04383047 0.0117805265 0.0069692954 -0.007438047
0.0036269203 0.023651931 -0.015374742 -0.010626303 0.0012364127 0.035616565 -0.02328738 -0.018438268
0.031754963 0.025455227 0.019924475 0.071398236 0.027309095 0.059483457 0.11598701 0.015715111
0.15363435 -0.16700727 -0.11699122 -0.048561037 -0.17539161 -0.01630387 -0.14832132 -0.33766738
-0.24198821 -0.032019723 0.0041393656 -0.06688281 -0.040005963 0.014906279 -0.03172757 -0.02799134
-0.027910652 0.033552412 -0.013203866 0.0763512 -0.047635935 -0.004482507 -0.016386213 -0.2465563
-0.2421582 -0.22258453 -0.093713894 -0.12587129 -0.060891166 0.26585048 0.20371477 0.13090514
-0.05686697 -0.10381555 -0.058293562 -0.009786455 -0.060681023 -0.14260934 -0.17934255 -0.1288712
-0.021401715 -0.045653276 0.03077347 -0.023643592 0.025092207 -0.0044401065 0.11283771 0.042343687
-0.026970915 -0.027503895 -0.22660011 -0.28241238 -0.25239947 -0.14233652 -0.21451615 -0.37129873
-0.15237932 0.17119929 0.2939492 0.15340355 -0.006354865 -0.04791097 -0.04857433 -0.098286286
-0.27726978 -0.21290907 -0.086378105 -0.13845167 -0.07937793 -0.021307314 0.008369482 -0.009794403
-0.0009692423 -0.015520835 -0.0941556 -0.15642665 0.025113335 -0.1144161 -0.34096384 -0.054569107
0.04100613 -0.13724664 -0.3287611 -0.40797728 -0.08745169 0.10826668 0.3076955 0.013419272
-0.049601343 -0.15414754 -0.17493908 -0.1333125 -0.21075517 -0.1610058 -0.1590767 -0.13519727
-0.058873728 0.0021703423 -0.011380828 0.03273273 0.028972942 -0.052859508 -0.15523186 -0.18793103
-0.036190268 -0.1578942 -0.23068781 0.000927361 -0.065228544 -0.15257269 -0.23267832 -0.1802923
-0.05196122 0.20799688 0.19385582 -0.03284513 -0.18859294 -0.23508577 -0.16824616 -0.047092535
-0.15601511 -0.024428077 0.003458986 -0.07576537 -0.08692322 0.011526116 0.01573743 0.0058413176
-0.012922764 0.02931338 -0.16319351 0.060473032 -0.14131674 -0.19004162 -0.10132044 -0.010504021
0.104518354 0.07678899 -0.11772273 -0.0465658 -0.0006191096 0.20026027 0.16322532 0.037839156
-0.24605957 -0.24504045 -0.1610432 -0.151094 -0.021278987 -0.011501695 0.07814677 -0.00083881366
-0.070523225 -0.021183781 0.019218141 0.025697999 -0.010924787 0.0044428604 -0.013600334 -0.011444254

bias f4 [128]
00000000: 315f f23e 50d2 2fbc b122 89bd 94e0 f43b
00000010: ad20 f0bd 63a6 6ebb de3d 42bc 120f 82bd
00000020: 9918 21bc 838e 19bc 5b43 13be 5373 53bd
00000030: a8ed bbbc f7cd d73e dfa0 d53e efd5 153e
00000040: ae9f 1a3e 2070 58ba 220c 943e dc3f 533e
00000050: c7ea 743c 61e5 10be 79f6 f9bc 7838 41bd
00000060: 0c08 133d 56cc 0a3f 93b9 f2bd 20e5 99bd
00000070: 9531 c13d d06f d93b 5820 b63e 4805 5bbd
00000080: cc8e b2bc f258 81bc f359 cfbc d377 2d3c
00000090: 3c7a 13bd 8a0b a23c dfd5 d73d e361 0cbc
000000a0: c08f 283d be1a 533d 0156 90bc e24f 123f
000000b0: cfc6 aebd 8071 d23d 72dd 81bd 26d1 163e
000000c0: 27c3 0c3f d087 cb3d e688 90bb 1bfd 8a3c
000000d0: 7e6f c3bc eac9 b3bd 4557 043e 0dbc 27bd
000000e0: 8264 00be 2552 30bd e0d4 713b e6d8 1e3e
000000f0: 7c9e 4d3e 15e4 3e3e 775c 2d3e 9458 87bb
00000100: 5037 433e 4ea4 9bbd f746 fa3e 22c3 f6bc
00000110: b37f 473d cb86 5a3c 3493 a33e 9dbe 33bc
00000120: 4a6c 1e3d 17ff 853d cd76 02bc c19c be3c
00000130: 7528 313f bb41 77bc 2148 643c 5aec 703d
00000140: 68f9 f2bb 0b4c 31ba 7df8 c03c 0202 d9bb
00000150: 7c7d 7e3e eaa7 28be cfd3 14bd 05dd da3d
00000160: 652c 593e 70f5 7c3d 3c3a e53d fb28 303e
00000170: e563 f0bd 2a41 873e 95f2 68ba 922c a0bc
00000180: 72b6 193e f84d 0d3e 2ff0 22bd 495e 273e
00000190: 60fb 513e dc73 c33b 4bb7 6fbc 6780 3fba
000001a0: e056 183f f158 4c3b fe71 0cbc a7ef 35bd
000001b0: fea2 51be ac0b d73d 88e9 0d3e 7bf1 08bd
000001c0: dbe1 623e 0aeb 02bc d3cf bb3e bb8b 083f
000001d0: b33e 0d3e 3b9f c53c df94 3ebd 0c19 b63c
000001e0: d05c 4abe 3749 cbbc 4990 06bd 1c10 85bd
000001f0: a39b 4b3c 4759 6dbd e779 423e 85d1 cd3e
0.4733825 -0.010731295 -0.0669607 0.007473061 -0.117249824 -0.0036415092 -0.011855571 -0.06350531
-0.009832525 -0.009372356 -0.14381163 -0.051623654 -0.022940472 0.42149326 0.41724297 0.1463239
0.15099975 -0.0008256454 0.28915507 0.20629829 0.014948553 -0.14150001 -0.030513035 -0.047172993
0.035896346 0.5421804 -0.11851802 -0.07514405 0.09433285 0.0066356435 0.3557155 -0.053471833
-0.021796606 -0.015789483 -0.025311446 0.01058765 -0.036005244 0.019780893 0.105388395 -0.00856826
0.041152716 0.051539175 -0.017619135 0.5715314 -0.085340135 0.10275555 -0.063410655 0.14728221
0.5498528 0.099380136 -0.004410851 0.016966393 -0.023856875 -0.087787464 0.12923916 -0.040950824
-0.1253834 -0.04304709 0.0036900565 0.15512428 0.20079988 0.18641694 0.16929804 -0.0041304324
0.19064069 -0.07599698 0.48882267 -0.030122343 0.048705768 0.013337801 0.31948245 -0.010970739
0.03867749 0.06542795 -0.007962895 0.023268105 0.6920236 -0.015091355 0.0139332125 0.058819152
-0.0074149854 -0.00067633454 0.023555988 -0.006622554 0.24852556 -0.16470304 -0.03633481 0.106866874
0.21208341 0.061757505 0.11192748 0.17203133 -0.11737803 0.26416904 -0.0008886245 -0.019552503
0.15011004 0.13799274 -0.03977984 0.1634456 0.20506048 0.0059647392 -0.014631103 -0.0007305205
0.5950756 0.0031180943 -0.0085721 -0.044418003 -0.20472333 0.10500273 0.13858616 -0.03343342
0.2215647 -0.007990608 0.36681995 0.5333821 0.13793449 0.024123779 -0.046528693 0.02222874
-0.19761968 -0.024815185 -0.032852445 -0.06497213 0.012427243 -0.05794647 0.18991815 0.40198913

weight f4 [64, 128]
00000000: 426d b93d 369a e3bc 388c c6bc 4bf4 e23a
00000010: 614f 143c 1fbb ba3c 286b 633d 2caa 72bd
00000020: 851f 3fbc 4456 8b3c 6a9b a7be 03be 173c
00000030: fe69 cebd 1c49 be3e 144a 733d 9975 2ebc
00000040: c39b 02be 07d0 bebd 6e11 e83d 51c2 973d
00000050: abc0 11bd b19d a9bb 8b06 823d c57c 8cbe
00000060: b167 6bbd 58a0 9e3e 8ab4 91bd 3719 adbc
00000070: 6f03 a9bd 45fd 9abd 9749 edbd ced4 0abe
00000080: 846a 823b 5acb 123d 7830 123d b3a4 4ebd
00000090: 671b a43d 2035 ac3c 1726 943d 50d9 f7bd
000000a0: 02e6 efba fdad 003e 209a 38bd 5998 b73e
000000b0: ddab 193d 4d96 983d 8e64 50be 95b0 203e
000000c0: 0068 9c3e d616 b33d e111 2ebd 7171 543d
000000d0: 1586 b1bc b6ed 743c e1b0 6fbe 6dad 0dbd
000000e0: 6b23 1e3e 1e1e 01bd 6557 d1bb aabf c53d
000000f0: c532 813d 45aa 19be e567 ad3c b6d5 983c
00000100: 5d4d 243e 45d3 0ebd d23d 8abd cf38 b5bc
00000110: 9eee b0bd f8c3 0f3d 3538 083e 31bb e7bd
00000120: 75f9 1e3e d580 92bd 4a67 d0bc 501c b43d
00000130: 1161 293f 9017 973d 7fa3 183e 0bbd 87bd
00000140: 73be 33bd ff35 193d a360 b9bb 1b2e 213d
00000150: 5001 2ebd 0620 4fbd 9386 82bd 1267 ec3d
00000160: c0ae 61be bd15 0cbd df3a ad3d 11ac 743e
00000170: 6801 25bd 0195 a83d f234 bdbc 0748 153d
00000180: ae00 bebd 45a2 813d d1aa 08bd 4f47 2d3e
00000190: 08ec 41be 02cc 443d 5395 eabc 32aa 673d
000001a0: 6c7a 47be 43d4 5a3d 7320 4fbd 3e42 85bd
000001b0: d1aa 0c3e 0acd 6d3e 373d 57be 89b8 d2bc
000001c0: d953 7e3e 597a 993d 7383 eabb ce73 a53d
000001d0: c1e7 4e3d 195d 353d d450 6f3d ebdc afbd
000001e0: 83e4 953d ce05 a63d 2a11 49bd 685d 34be
000001f0: 1a92 83bd 4772 133d 6384 ec3d 771f 943d
00000200: 1497 523e 0790 3cbd 4563 9abd f8d8 18bd
00000210: 11c7 a43d 6b8e 883c 26ed 0abd 60ae a5bd
00000220: ad28 4a3d 2e3f cc3c 27ad 963e 08fa 163e
00000230: b28d 9d3d d2c6 d83d 6b4e 8e3e bad1 bc3d
00000240: d2ce e9bd ebeb 233d b08e ebbd 3ebb 933c
00000250: b348 9c3d ec69 113e c6e0 84bd e241 babd
00000260: 9683 023d e84d 743e cf3a 823d 72e4 8d3d
00000270: 1969 87bb 199e d13d e2ea 583d d669 d13d
00000280: 1ae4 fb3b 57e0 92bd 8b08 b2bc a20e 79bd
00000290: 5edd aa3d ad15 dfbc a424 26bb e079 a9bd
000002a0: 0c29 923d 7b02 643d 6f58 be3d f87c ee3c
000002b0: bacd 2c3e ad9f 09bd fda7 e0bc 706c c5bd
000002c0: 2de4 353e f72e 0a3e b9fb a83d 834e b03a
000002d0: 643d 663d af1b 77bc 0b9b 753d cf50 803c
000002e0: 5943 083b 4ff0 88bd dd5b 9cbd 132d e8bc
000002f0: 8f4b f63c f933 c0bc ae50 91bc f733 88bd
00000300: 0484 4e3d 0b28 d83d a40e 44bc 2ec1 82bd
00000310: 2623 ed3c ed48 b53d 45a6 9e3e 4a53 1bbc
00000320: 4454 2b3d 82f5 b8bd 0bf6 babc 8851 943d
00000330: e46b 24be 0d58 77bb da96 233e ae5a 103e
00000340: 48e7 ecbb f3ce a4bc 64ba 1a3d 1c25 91bc
00000350: 21c6 843e ce4e d63b 8c9a dc3b 0354 513d
00000360: 6900 24bd 5f32 24bd 6339 9cbd aa47 433e
00000370: 8f46 c3bc 0712 7e3b 8908 153e 0ea0 5f3d
00000380: 33e8 e53c 1b6b 9f3d 257a 413b 993a ccbc
00000390: 61c3 cc3d 900d 883c 6b8b a83d 6027 7dbc
000003a0: a8af 43be 02d6 f03b 3899 b1bc ab72 e43b
000003b0: 5749 663d 3cfa 3c3e b3cf 56bd 92e5 9a3c
000003c0: 6676 66bd 4fff 84bc ac18 733d 33ce 943e
000003d0: fdde 693d 42d9 693d 1d12 10bd 4bba 2c3c
000003e0: 7ff3 c23c c217 9f3d 5cd0 2dbd 0cb3 03be
000003f0: 9383 453d cd89 8e3d fa81 a33d afd0 753e
0.090540424 -0.027783494 -0.024236783 0.0017315237 0.0090521285 0.022794304 0.055522114 -0.05924432
-0.01166523 0.017008908 -0.3273576 0.009261611 -0.1007881 0.37165153 0.05939682 -0.010648155
-0.12754731 -0.09317022 0.113314494 0.0741011 -0.035584133 -0.005176269 0.06348904 -0.27438942
-0.057471935 0.30981708 -0.07114513 -0.021130187 -0.08252608 -0.075678386 -0.11586302 -0.13557741
0.003979983 0.035838462 0.035690755 -0.05045004 0.08013039 0.021021426 0.072338276 -0.12101996
-0.0018302801 0.12566371 -0.04506886 0.3585842 0.037517417 0.074505426 -0.20350859 0.1569236
0.30548096 0.0874459 -0.04249752 0.051866 -0.02167038 0.014949253 -0.23407318 -0.03458922
0.15443198 -0.031522863 -0.006388592 0.09655698 0.06308512 -0.15006359 0.021167705 0.018656593
0.16045137 -0.03486945 -0.067500725 -0.022121815 -0.086392626 0.035099 0.13302691 -0.11315001
0.15524848 -0.07153479 -0.025439877 0.08794463 0.66163737 0.07377541 0.14906119 -0.06627854
-0.0438828 0.03740501 -0.005657272 0.03935061 -0.04248172 -0.05056765 -0.06373324 0.115430966
-0.22039318 -0.03420042 0.084584944 0.23893763 -0.040284544 0.08231545 -0.023096535 0.036445644
-0.092774734 0.063297786 -0.03336603 0.16921733 -0.18937695 0.04804612 -0.028635656 0.056558795
-0.19480294 0.053425085 -0.050568055 -0.06506775 0.13737036 0.23222747 -0.21019445 -0.025722759
0.24836673 0.07494039 -0.0071567832 0.080787286 0.050513986 0.044278238 0.058426693 -0.08587059
0.07318976 0.08106576 -0.049088635 -0.17613757 -0.06424351 0.035997655 0.11548688 0.07232564
0.20565444 -0.046035793 -0.075384654 -0.037316293 0.080457814 0.016669473 -0.03391757 -0.080899
0.049355198 0.02493247 0.2942898 0.14743817 0.07693042 0.10584797 0.27794203 0.0921969
-0.11416401 0.04001991 -0.11501825 0.01803362 0.07631054 0.14200562 -0.06488185 -0.090945974
0.03186377 0.23857844 0.06358873 0.06928338 -0.0041324017 0.10235233 0.052958377 0.10225265
0.007687104 -0.07171696 -0.02173259 -0.06080497 0.08343004 -0.027232016 -0.002535143 -0.08275199
0.07136735 0.055666428 0.09294211 0.029112324 0.16875353 -0.033599544 -0.027423853 -0.096398234
0.17762823 0.13494478 0.08251137 0.0013451133 0.05621089 -0.015082284 0.059962314 0.015663533
0.0020792095 -0.0668646 -0.07634709 -0.028341806 0.030065326 -0.023462282 -0.017738666 -0.066505365
0.05041887 0.105545126 -0.011966381 -0.06384502 0.028947424 0.088518 0.3098623 -0.009480307
0.04182841 -0.09031202 -0.0228224 0.07242113 -0.16056782 -0.0037741691 0.15975514 0.14097092
-0.0072297193 -0.020118212 0.037775412 -0.01771789 0.2593241 0.006540156 0.0067322906 0.05110551
-0.040039454 -0.0400871 -0.07628133 0.19070306 -0.023837356 0.003876807 0.14554037 0.054596
0.028064823 0.077841006 0.0029522267 -0.024930285 0.09998203 0.01660803 0.08229717 -0.015451282
-0.19109976 0.0073497305 -0.021679506 0.0069716773 0.056222286 0.18454832 -0.05244417 0.018908296
-0.056265257 -0.016235022 0.0593497 0.29063568 0.057097424 0.05709196 -0.035173524 0.010542463
0.023797749 0.07768203 -0.042435035 -0.1286127 0.048221182 0.06959877 0.079837754 0.24005388

bias f4 [64]
00000000: 94c2 443e 19e0 f1bc 39e9 963e 704a b3bd
00000010: 0c8e c83c 2c62 fd3e e092 7abd ded8 04bc
00000020: 3195 67bd b5f0 b0bd e0ed 023f e9f7 7d3c
00000030: 78bc 703e 369c 1a3d f7a1 473e dd62 43bc
00000040: d2d7 a33e 98b3 0e3c 304e 853d 7047 4fbd
00000050: 8c74 ac3c cadb 33bd 287c 783e 094b bfbe
00000060: ac95 9e3d e877 ae3d 1e64 183d 0fd9 d2bd
00000070: b396 75be 76ff f3bb 5f32 503e 5692 2c3e
00000080: d02c 03bd 6bcf 89bd c0bd 1dbc 8aee 36bd
00000090: cdbb 48bd c357 9e3d b349 d93d 18e0 d8bd
000000a0: 106c 09be 1924 89bd 6ed7 57bb c3bd 403d
000000b0: 2ecf e83d 080f 993e 78e6 923d 4a47 ac3d
000000c0: 3c78 c43e 19fb 0ebe 2c9e 92bd 323a 853e
000000d0: 570a f5bc aeab a9bd ac8e 8fbc d393 41bd
000000e0: 164b 82bd f614 c8bc 57bf 183d ae7f 403d
000000f0: f4e2 46be b95b ec3c 5827 8ebd 7572 1d3e
0.1921485 -0.029525803 0.2947481 -0.08754432 0.024481796 0.49488962 -0.061175227 -0.008108346
-0.056538764 -0.08639661 0.5114422 0.015501001 0.23509395 0.03774663 0.19495378 -0.011925426
0.32000595 0.008709811 0.06509054 -0.050605237 0.021051668 -0.04391078 0.24266112 -0.37361935
0.077433914 0.08518964 0.037204854 -0.10295307 -0.23983268 -0.007446225 0.20331715 0.16852698
-0.03202516 -0.06729015 -0.009627759 -0.044661082 -0.049007226 0.07731583 0.1060976 -0.105896175
-0.13420129 -0.06696338 -0.0032934803 0.04705597 0.113676414 0.2989428 0.07172865 0.08412035
0.38372982 -0.13962974 -0.07159075 0.26020962 -0.029912157 -0.082846984 -0.017524086 -0.047260117
-0.06361978 -0.024424057 0.03729185 0.046996765 -0.19422513 0.02885233 -0.06941098 0.15375693

weight f4 [12, 64]
00000000: ac1a 35be 0983 113e e52d a33d 38a8 63bc
00000010: 323e a6bd 6d1a 8fbe c536 483d 1db2 29bd
00000020: a3ee 933d 1812 31bc 8321 a53e c833 513d
00000030: 440d 01be 13ec c03c 8da0 eabc 15a7 4e3d
00000040: 4e33 77be 9f18 59bd 654c 73bd 33bf b5bd
00000050: d1d1 58bd d225 aebc a594 0fbe 40ab 8a3d
00000060: ea88 e03d b1fd febc 0a5c d2bb 9ce3 87bd
00000070: b03c d8bd ae2e 473d 93c6 513e e434 2d3d
00000080: de32 a0bd 58ef 853d 2ed2 96bc 4a97 6ebe
00000090: 5fa3 a8bd 2474 19bd 94b4 cbbd ed1e 713d
000000a0: 015e f03c 0952 dcbd 40c6 a13d 1810 4b3d
000000b0: d227 073e b9aa 3d3f 3215 363e 3f9e 8cbd
000000c0: 88ef f73d bae6 b53d c75d ef3c c60e 6a3c
000000d0: 0804 d9bd 0314 28bd d3a6 c23d ea8f e2bd
000000e0: a3b2 cdbd 3e84 67be 60ee 8d3d ae0c b0bd
000000f0: 1065 f13d 8c4c ae3d 1cc4 8c3d 7e45 9cbd
00000100: 47db adbd d9b5 393c d9d3 6e3d e89e abbb
00000110: 763c 3b3d cec0 50be b550 b4bc c0d2 1f3d
00000120: 12a6 17be 7d32 95bd 265d 4fbe 3b0e 6b3d
00000130: cd03 073e b1bd dbbd f819 22bd 187b 1ebd
00000140: 5adf 65be 5fe2 80bd b80d 713d e0ad 96bb
00000150: 126f 913d 6f95 013c 4427 44bd 4d12 c23c
00000160: 90f8 5fbe 697b a9bd 9e1a 1ebd c1be 21be
00000170: 8915 493e 3991 db3d 4b8a e03d 77d2 4c3d
00000180: 99a4 11be 1d0c 91bd 8186 03be 3535 cb3d
00000190: d48e 08bd 5442 fd3d 1be2 5abd 8753 50bd
000001a0: dadd 873d 5aff 2abe b0da efbb 6275 debb
000001b0: b90c 953a 0ea4 4bbc 00f9 9abb d935 99bd
000001c0: 32ab 83bc b800 25be b2b8 003d 9309 bebd
000001d0: 3bee e4bd 4b0d 81bd 9470 6cbd 017d 113d
000001e0: bc98 86bd a553 e63d 34e5 adbd 130a 8ebd
000001f0: 5a75 ca3d 07b0 0d3d 7741 c13d 258f ebbc
00000200: 286e 19be 5f70 edbc 490a 89be 69d7 73bd
00000210: e034 c9bd 50d3 1ebe cd5b eebd 74c8 f53c
00000220: f61c 2e3e 8a89 1ebe 2897 573d 5e10 25bd
00000230: a512 e5bd fba6 973d 3b8d c4bc e7f4 bebd
00000240: 32c7 a3bd 772f 9dbb b3c0 c3bd fb31 843d
00000250: 3b9b 12bd 93e1 86bc 8fca 143e 438e b13d
00000260: 6ccd c5bd ddf0 11be 6ec2 b03d 005f 763d
00000270: 77fd de3d d72e 703d 9b2a 5b3e bffd 32bd
00000280: ca69 a23e 3b4b aa3d f84f c03d 9b49 42be
00000290: 8bc1 923d d3b8 fb3d 4388 25be 2425 483d
000002a0: cf53 703d fe61 d23d b8f8 22be b248 6a3d
000002b0: 0315 aabe 1e2d 773e 4dd6 49be 5433 bbbd
000002c0: b0e8 213f c52d a63d 6367 01be fc45 aabd
000002d0: 1a4c 29be 5a5c ea3c 093a db3c 0efe 8a3d
000002e0: 1a01 a23e 884e 88bc 8539 31bc 0684 3dba
000002f0: 57c4 ba3d 0c64 843d dcbf 323d d1ab 2fbe
00000300: 3ba6 183e 6a81 18be 74d2 23be 752e 813d
00000310: cdb9 133e 86ae 6cbd f23c 12bd e7f1 e2bc
00000320: 4250 393d 9c67 cdbd 4ff4 cebd 8734 873d
00000330: 8d95 3dbd 9308 813d d310 543d 281e 70be
00000340: 1fb6 253e b962 d43d cb75 ee3d 3299 9e3c
00000350: 114d d53c c16c 713d 6c36 f33d 666e 80be
00000360: 61df 45bd bf10 86bc 0a1d d03c 496a 083b
00000370: c83c d03c 1a81 08bd 6708 093d b64f 51bc
00000380: 1116 31bd f43a bbbd 8439 613d b982 45bd
00000390: 9bbd 1dbd 3fad f1bd c766 3abe 051f bbbd
000003a0: b863 9c3b a799 cbbd 0ce0 7a3d 50ef eebd
000003b0: d6ce 2d3e 6fe8 893d 5e76 343d d459 223e
000003c0: 1505 ad3c f803 80bd c2c7 a03d 9fb4 903e
000003d0: 555d 0dbe aa37 733d e6c1 02bb ce13 d7bc
000003e0: 220c 54be d7b0 24bd 75aa 57bd cdd2 a2bd
000003f0: 8e1c 0bbe 5f74 24be 9adb 7e3d e4ae 46be
-0.17685956 0.14210142 0.07967738 -0.013895087 -0.081173316 -0.2794985 0.048880357 -0.041429628
0.07223251 -0.010807537 0.3225213 0.051074773 -0.12602717 0.023550069 -0.02864101 0.05045231
-0.24140665 -0.053001996 -0.059399027 -0.08874359 -0.05293447 -0.021258269 -0.14021547 0.067709446
0.10963614 -0.031126829 -0.0064196633 -0.0663521 -0.1055845 0.0486285 0.20485906 0.04228677
-0.07822202 0.06539792 -0.018410768 -0.232999 -0.082342856 -0.037464276 -0.09946552 0.058867384
0.0293417 -0.107578345 0.07899141 0.049575895 0.13198784 0.7408863 0.17781523 -0.068661205
0.12106234 0.08881898 0.029219521 0.014285749 -0.10596472 -0.04103471 0.095044754 -0.11062606
-0.10043838 -0.2260904 0.06930232 -0.085961685 0.11786854 0.08510694 0.068733424 -0.07630442
-0.084890895 0.01133486 0.058307502 -0.005237449 0.045711957 -0.20386049 -0.02201114 0.039019346
-0.14809445 -0.072850205 -0.20250377 0.057386618 0.13185044 -0.1072954 -0.039575547 -0.03869161
-0.22448483 -0.06293177 0.058850974 -0.0045983642 0.07101263 0.007909163 -0.04788901 0.023690367
-0.21872163 -0.08275492 -0.038599603 -0.15795423 0.19637121 0.107210584 0.10963877 0.050005402
-0.14222945 -0.070823886 -0.12844278 0.09922258 -0.033339337 0.12366167 -0.053438287 -0.050860908
0.06634112 -0.16698971 -0.0073197708 -0.0067888955 0.001137159 -0.01242925 -0.00472939 -0.07480974
-0.016072843 -0.16113555 0.03142614 -0.0927917 -0.11178251 -0.063013636 -0.05772455 0.035519604
-0.065721005 0.11246423 -0.08490983 -0.06935515 0.09885664 0.0345917 0.094363146 -0.02875478
-0.14983428 -0.028984247 -0.2676566 -0.059531603 -0.09824538 -0.15510297 -0.11638603 0.03000281
0.17003235 -0.15482154 0.05263439 -0.040298812 -0.11185197 0.07404896 -0.023993125 -0.09324055
-0.07996978 -0.004796918 -0.09558239 0.064548455 -0.03579257 -0.016464984 0.14530395 0.086697124
-0.09658322 -0.14252038 0.086308345 0.060149193 0.10888188 0.05863842 0.21402971 -0.043699022
0.31721336 0.0831513 0.09390253 -0.18973391 0.07165822 0.12291112 -0.16165261 0.048863545
0.058673676 0.10272597 -0.15915191 0.057198234 -0.33219156 0.24138305 -0.19710656 -0.091406494
0.6324568 0.081141986 -0.12637095 -0.0831413 -0.16532937 0.02860849 0.026761072 0.06786738
0.31641465 -0.01663901 -0.010816936 -0.0007229451 0.0911948 0.06464395 0.043640003 -0.17155387
0.14907162 -0.14893118 -0.1599825 0.06307689 0.14426346 -0.057783626 -0.035702653 -0.027703239
0.045242555 -0.100295275 -0.10105192 0.06601816 -0.0462852 0.063004635 0.051773857 -0.23449004
0.16182755 0.10370392 0.11643561 0.019360159 0.026037725 0.058941606 0.118756145 -0.25084227
-0.048308734 -0.016365407 0.025404472 0.0020815304 0.025419608 -0.033326246 0.03345528 -0.012775352
-0.043233935 -0.09142104 0.05498649 -0.04822037 -0.0385109 -0.11800622 -0.18203269 -0.09136776
0.0047726296 -0.09941416 0.061248824 -0.11666739 0.16973433 0.06733786 0.044058196 0.15854579
0.021120587 -0.06250757 0.07850601 0.28262803 -0.13805135 0.059379257 -0.0019951998 -0.02625456
-0.20707753 -0.04020771 -0.052652795 -0.07950363 -0.13585111 -0.16060017 0.062221147 -0.19402653

bias f4 [12]
00000000: bfef 133e 6e14 64be 3ff4 28bd 48bb 9dba
00000010: b379 5a3e 5419 3fbe 6c36 e9bb cbe1 a9bd
00000020: 5219 083c 0133 bbbe 9b95 203e 05d1 f5bd
0.14446925 -0.22273418 -0.041248556 -0.0012033964 0.21335487 -0.18662006 -0.0071170833 -0.0829502
0.008306818 -0.3656235 0.1568207 -0.12002758

weight f4 [64, 12]
00000000: 3f48 373e fa7c 733e e02f f6bd a5ab cdbc
00000010: 2ec3 0d3f 04d5 ffbd b95f ddbe d015 063e
00000020: 1693 463d f8a3 943e 74f2 46bd 463d b73c
00000030: 5f08 5ebe 9aab 8dbe 4df8 bc3d 9f6e b3be
00000040: 5389 2cbd 8fa3 34be 2f89 fabd 1df9 683d
00000050: dcd3 a7bd e932 2abe a7a9 84be 8018 663e
00000060: 21bc 6cbe ab8d a5be 27e1 86be 75bc 6cbe
00000070: 9c8b 85bd 6260 b8bd 9448 463e 479a 433e
00000080: dc82 963e bd6a ce3d d597 2f3e a775 5a3d
00000090: a24f 5c3e 83e7 bf3e fe79 adbe 0316 75bc
000000a0: e9a6 113e f1fd a93e 716b 4b3e 41c9 f93d
000000b0: 9414 7fbe e54d 873d de3d 1abf b27c 4d3e
000000c0: 32dd 213d 7702 7cbe 9844 193d 61ed c0be
000000d0: b966 143e aeb3 a3be 4dc1 093e 0852 7ebe
000000e0: bf2e 2cbe 7ead b63c 8816 3e3e e8d6 2abe
000000f0: bbae 8bbd c1e0 9ebe 090b 2ebd 0ec2 e33d
00000100: b0b6 b73e 0cd8 39be 587e b33e 0565 f6bd
00000110: 8bd5 843e 0ac8 e03e 17d9 ccbe 20ee 95be
00000120: a64b 083d 2b68 0abe e53e 6b3e c9ba adbe
00000130: b7ce 333e 0035 e1bd 20b0 17bd 62b1 69be
00000140: 25b7 b43d 4c73 45be 98a3 5b3e 94e7 cb3d
00000150: ce52 81be 775a 3d3e 7f9b b13d ea6a a53c
00000160: a4f2 1fbd 276b 3b3e d495 48be 8834 78be
00000170: a530 863e 9bec a03e 3187 e3ba 6b26 0abd
00000180: 06cc 403e c2e8 62be b72c acbc 72c2 d63d
00000190: 1bbc 73bb 9375 643d dac0 f7bd f450 e1bd
000001a0: 3e96 b63d 6b25 83bd a8e9 6d3c 7f32 923e
000001b0: 8cac 1fbe cafb ecbe 1836 a1be 017e 393e
000001c0: 7708 28bd 10db a63b 0591 dbbd 1f33 59be
000001d0: c3dc 8abc 31eb a9be 898a 4dbe cfc5 733e
000001e0: 930e 243d d0fa d9be 26ea b8be 1956 d83d
000001f0: 956e 1ebe 8ec8 4ebd 1b27 e0bd bd55 2f3d
00000200: f459 2d3e 0dcf 713d 4737 823e f737 a4bd
00000210: e33d 7e3e aa06 8fbc b0a2 76bd baca 33be
00000220: 29ad d23e 3ef6 d53d df54 87bd c2da 10bd
00000230: 96a2 e5be c1ff abbd 9115 c43e 8c8e 32be
00000240: bce7 c2be a40d bc3e 8dee 4bbe 185b 7fbe
00000250: eced 963b f82f 97be 2e8f 693e 51f3 6bbe
00000260: 736b 30be add2 0ebe ddb2 ee3c 73d2 83bd
00000270: 3890 cdbd 8f93 d33d e7e0 4cbe 7876 9e3e
00000280: a1e7 05be a892 2abe 946f 87be 0de0 4c3e
00000290: 4d2b 243d 1ea2 603e 804b ae3c 60e5 0a3e
000002a0: 769a 423c a1fa 9e3e 3e39 afbe 1f89 94be
000002b0: 4a36 423b 3a54 a03d 745a 413d eb28 663e
000002c0: 4d0e 9fbd f8be 26be 444c 9dbc 76ce bf3e
000002d0: 9fc4 22be 1c21 c43d e490 803c e5c9 063e
000002e0: 2154 153e cacc 58be 3381 3b3e a1d3 413e
000002f0: 30d5 3cbe 0ec2 823d aa72 ae3e 92b6 a23e
00000300: 1ee0 c6be cb2e e83d dc0e 31be eb57 803e
00000310: 44a2 f1bd d164 463e dbc7 80bd c5ac 2b3e
00000320: 11a6 0cbe ae83 2d3e 9cb2 623e 28a9 423e
00000330: 51e9 f53e a077 9fbe 1049 d13e b90f 933d
00000340: 98d7 84be d07b bf3b 3e07 d6bd 19a2 a5bd
00000350: 5262 9dbd c375 e3be aa67 c23d 5fa6 513e
00000360: 06ba 04bf 833e 9dbd ece5 b1bc 3a44 48bd
00000370: bcf1 913e caee a73e f909 f93d 1a70 e9bd
00000380: 8876 023f 6d6b e1be 224f cf3e 1b81 b3be
00000390: 22e3 07be aa65 10be 8459 4fbe 76e6 98be
000003a0: aab9 8cbe 23c8 8bbe 0c80 b2be bf40 413e
000003b0: 4285 863e 0cb5 eebd e159 e33d cb2c f7bd
000003c0: ccfa 9f3c 6bc6 e4be 7fd3 44be 2b58 fbbd
000003d0: 6229 073e 6e13 60be 364c c3bc 7e78 0ebe
000003e0: 25fa 36bd 9a83 0ebd e8f2 64be 6810 553e
000003f0: 2a90 553e 2e06 3dbe a5e3 d53c 5d04 a6be
0.17898653 0.23778144 -0.1202085 -0.02510626 0.55375946 -0.124918014 -0.43237093 0.13094258
0.048480116 0.29031348 -0.048571065 0.022368085 -0.21682881 -0.27669984 0.09227047 -0.35045335
-0.04212315 -0.17640518 -0.12233197 0.056878198 -0.08194706 -0.16620983 -0.25910684 0.22470284
-0.2311864 -0.32334647 -0.26343653 -0.23118766 -0.06520769 -0.090027586 0.19363624 0.19101821
0.29396713 0.100789525 0.17147763 0.05333486 0.21514753 0.37481317 -0.33882135 -0.014958861
0.14223827 0.33201554 0.19865204 0.12196589 -0.24910194 0.06606654 -0.6025065 0.20067099
0.03951759 -0.24610315 0.03741893 -0.37681106 0.1449231 -0.31973022 0.13452645 -0.2483598
-0.16814707 0.022299524 0.18563282 -0.16683543 -0.068204366 -0.3103085 -0.042490993 0.11120997
0.35881567 -0.18148822 0.3505733 -0.12030987 0.2594417 0.43902618 -0.40009376 -0.29283237
0.03327527 -0.135163 0.22973211 -0.33931568 0.17559324 -0.10996437 -0.0370332 -0.22821572
0.088239945 -0.19282264 0.21449125 0.099562794 -0.25258487 0.18491541 0.08672237 0.020192582
-0.03904976 0.18302594 -0.19588405 -0.24238789 0.26208988 0.31430516 -0.0017359016 -0.033728044
0.18827829 -0.22159103 -0.021017415 0.10486306 -0.0037190977 0.05577619 -0.120973304 -0.11001769
0.08915375 -0.06403621 0.01452104 0.2855415 -0.15593165 -0.4628585 -0.31486583 0.18114473
-0.041023698 0.0050920323 -0.1072102 -0.21210907 -0.01695097 -0.3318725 -0.20072378 0.23805927
0.04005296 -0.42574167 -0.3611614 0.10563297 -0.15471871 -0.050484233 -0.10944959 0.042806376
0.16928846 0.05903535 0.25432798 -0.08018487 0.24828295 -0.017459232 -0.060213745 -0.17557803
0.41147736 0.104473576 -0.06607985 -0.035364874 -0.44850606 -0.083983906 0.38297704 -0.1743719
-0.38067424 0.36729157 -0.19915219 -0.24937093 0.004605999 -0.29528785 0.22808525 -0.23042037
-0.17228489 -0.13947554 0.029138023 -0.064366244 -0.10037273 0.10330879 -0.20007668 0.3094976
-0.1307664 -0.16657507 -0.26452315 0.20007344 0.040080357 0.21936843 0.021276236 0.13564062
0.011877647 0.3105059 -0.3422336 -0.29010865 0.002963441 0.07828565 0.047205403 0.22476546
-0.077663995 -0.16283786 -0.019201405 0.37462205 -0.15895317 0.095766276 0.01569409 0.13162954
0.14582874 -0.21171871 0.18311004 0.18928386 -0.184407 0.06384669 0.34071857 0.31779915
-0.38842863 0.1133705 -0.17290825 0.25067076 -0.11798528 0.19374396 -0.062881194 0.16765125
-0.13735224 0.16944763 0.22138447 0.1900984 0.4802957 -0.31145954 0.40876055 0.07180733
-0.25945735 0.005843617 -0.104506 -0.08087558 -0.07684769 -0.44425783 0.094924286 0.20473622
-0.5184635 -0.07677939 -0.02171608 -0.04889319 0.2850474 0.3279937 0.12160105 -0.11398335
0.50962114 -0.44027272 0.4049006 -0.35059437 -0.13270238 -0.14101282 -0.20248991 -0.29863328
-0.274854 -0.2730113 -0.34863317 0.18872355 0.26273543 -0.11655626 0.111011274 -0.120690905
0.019528769 -0.4468263 -0.19221304 -0.12272676 0.1319938 -0.21882412 -0.023840051 -0.13913152
-0.04467215 -0.034793474 -0.22358286 0.2080704 0.20855775 -0.18459389 0.026109526 -0.32425204

bias f4 [64]
00000000: a600 033e da2f 9d3e 9ec5 193f 6fd5 27be
00000010: bcef 1e3f e758 e43e fbfa d03e e901 ccbe
00000020: a3a9 15bf 663e 933d 8d9d 3dbf 2b62 e83e
00000030: d8fa 333f a3c6 283e 0300 323e 74f8 393f
00000040: afc2 c5be b2b7 a83d 8b7f 26bd 8855 cfbe
00000050: 7820 4bbf 3182 09bf 46da 943d 8795 f03e
00000060: 9bb1 173e 6701 2f3f 1bd0 143e 78b7 143f
00000070: efa2 153f 9601 92be b4ce 643f 291b dcbb
00000080: f99f 32bf 5992 e43e 6ad8 47bf a35b 63be
00000090: e715 49bf 8699 2cbf bfc1 cb3e 14d9 da3e
000000a0: 844d 0b3e caf9 18bf b491 1c3f de07 923d
000000b0: 20d0 8cbe ca46 febd b02a e83e 6ed9 33bf
000000c0: a1a6 093f 58cf 073f 0245 3c3f e0bd 7e3e
000000d0: c448 e0be dd9a 0f3f a703 2f3e 0577 12bb
000000e0: be38 10bf a978 f53e 67be 373c dbd3 fd3e
000000f0: a795 163f eb28 91be 0690 cb3e 7e56 5ebf
0.12793216 0.3070057 0.60067165 -0.16390012 0.62084556 0.44599077 0.40816483 -0.39845207
-0.5846197 0.07189636 -0.7406853 0.45387396 0.7030463 0.16482024 0.17382817 0.72644734
-0.38625094 0.08238162 -0.04064898 -0.40494943 -0.7934642 -0.5371428 0.07268195 0.4698908
0.14813845 0.68361515 0.14532511 0.5809245 0.5845174 -0.28516835 0.89377904 -0.006717105
-0.6977535 0.44642904 -0.78064597 -0.22202925 -0.78549045 -0.6742176 0.39796254 0.42743742
0.13603789 -0.5975615 0.61159825 0.07130407 -0.27502537 -0.12415846 0.45345068 -0.70253646
0.5376988 0.53050756 0.735428 0.24877119 -0.43805516 0.5609568 0.17091237 -0.0022348773
-0.5633658 0.4794362 0.011214829 0.49575695 0.588221 -0.2835153 0.3975832 -0.86850727

weight f4 [128, 64]
00000000: 2831 46be 2198 74bd 6fdb fb3c fcd5 d73d
00000010: ceb0 443b 76ab 8e3d 6985 c0bd 6f91 cfbd
00000020: d8ea 0c3e 0290 583e 1b85 8d3d 1e1d 19be
00000030: 4291 583c 967d e33c f5b7 683e 67e1 46bd
00000040: 7a20 273e 0096 263e 4a9a 633d 9e09 163e
00000050: 6240 333e 8145 193d ae38 19be acc9 92bc
00000060: d66c 543e 469b 53be 0785 b73d ba28 c2bd
00000070: 0476 b2bd 4ae3 4fbc ccbf 5fbe e07d 60bd
00000080: c7ce 443e 4536 3f3d 3a70 87bb 37f4 743d
00000090: fc60 463e 0d24 fc3d eb4e 9abe b1f4 843d
000000a0: 8e25 d1bd e993 123e 53d1 40bf aff2 8b3d
000000b0: fd1b d5bd 6c67 e1bd 82f1 df3d c208 753e
000000c0: a454 14be 47ae 053c 5e4e 84bc 0acb 3b3d
000000d0: 6b97 84bd f475 0ebe 1062 603e dd2a 253d
000000e0: d572 3c3d c1af 813d 5aec 9e3c 7244 20be
000000f0: cc53 59bd 00f9 843d 0276 e2bd e06f f53d
00000100: 13d9 903d 06ce ffbd 9b90 823e 5d23 42be
00000110: f1d6 07be e531 8dbe 94ce 7dbc 13d7 a5bc
00000120: 2be3 53be c6b9 edbd ff0a 85be 4ad5 f13d
00000130: 941a 4a3e 1dab 88bc 01a5 2b3e f317 20be
00000140: 32f4 06be e8ee 113d 41ec 71bd b8ab 503e
00000150: bd25 0bbe 5c5c b53c c92c 33bd 28bc 833d
00000160: cacf 9cbe d028 683e 3d7a 19be 21cd 953c
00000170: 3dfa 92bc 1639 923e 32b6 38be 4235 b4be
00000180: ed6b 2b3b 76ac 70be e000 d03d 4f86 f6bd
00000190: 675e 58bc b668 613d 79dd efba 9070 633e
000001a0: bc4e d8bd 9a92 3abd 09a5 e43d bf26 203e
000001b0: 3645 213e e4b7 b7bd 76aa 8a3d b450 6fbe
000001c0: dbfd 533d 9f7e cbbb dd4b ecbd 9724 243e
000001d0: ac75 243d c16c 05be 4ec5 bb3e 5b33 d23d
000001e0: 111a 17be fcc4 6c3d cc11 b63d 5f49 113e
000001f0: 71e3 db3d 44dc 2c3d 8343 0abe 38bd b4bd
00000200: 5f44 86bd 5065 aa3d 07ba 17bc 1241 583d
00000210: 9655 cbbd 3e74 a53d f079 cebd 3492 0bbe
00000220: 20f2 8b3c a8d8 c0bd c2be a8bd 1c84 03be
00000230: b4bd 32ba 3a20 31bd 30bc 6ebc 0ab5 c2bd
00000240: b3fb 01bd c830 45bd 5d6a 50bd 981a cc3d
00000250: af37 04be f078 cdbd 27de acbd 8609 b83d
00000260: c0f3 dbbd 468d 8c3d 0f5a 0d3d 509b e5bd
00000270: 8777 c4bc b0b9 653d c594 b93d f6a3 6f3d
00000280: aea4 bcbd 732b 6fbd 228e c63d a203 4d3c
00000290: 6ec3 07bd fc91 843b 345f fcbd 9dc0 28bc
000002a0: 446d ba3d eb6c 54bc b84b fc3d 490c fdbd
000002b0: fda6 05bd cc9b 5fbd 1255 02be d732 03be
000002c0: cebb 613d 61ff 8bbd e53e 823d 73ea bd3d
000002d0: cd71 5c3d 58e8 983c f0f3 bbbd f1e0 fabd
000002e0: c4dc 843d 3908 e13d 78bd 00be b7e7 1fbd
000002f0: f38a db3c 80f6 a73b 1330 e3bd 4e1d 77bb
00000300: 4cfe a83d e004 7f3d c238 ee3d 06d6 22be
00000310: 51e2 9fbd 0e1d 0ebe 5ff0 103d e340 d63d
00000320: dfe3 cd3d 6704 ca3d 3dd4 273e 2774 ddbd
00000330: 867a 11be 88f0 f13d 8baf 3abe 9a33 17be
00000340: 0002 253e 06f7 80be 4e2e 713b 5e0c 97bd
00000350: 810a 393e 7ec9 1a3e f3e0 b73d 2c33 083e
00000360: fc27 b2bd 62bc 193d f283 fa3d 50a5 b0bd
00000370: abbd 073d 60b9 0ebe 7b13 71bc 44f9 0f3d
00000380: 661b b63d da95 7c3e 26f4 d0bd 566c 86bd
00000390: 42e2 40be 6844 f33c b28a b4bd b127 1e3c
000003a0: 6b0e 5e3d b1ad 95bd 3279 8abe 9e43 0f3d
000003b0: 0374 7ebd 8527 0e3d 9fc4 5fbd 087e d53d
000003c0: cca2 6d3a 62e3 9dbc dfc5 013d 017c 2f3e
000003d0: 041c 06be 95ba 6f3d 1f2f 8fbe dfae 47be
000003e0: f76a b4bd 0e61 44be 4115 d5bd e73c febd
000003f0: 1cc7 183c 3259 fe3d dec6 ebbd b176 a13d
-0.19354689 -0.059715394 0.030744283 0.10538861 0.003001261 0.06966297 -0.09400446 -0.10135161
0.13761461 0.21148685 0.069101535 -0.14952514 0.013218226 0.027769845 0.22726424 -0.048554804
0.16320983 0.16268158 0.055567063 0.14652106 0.17505029 0.0374198 -0.14963028 -0.01791843
0.20744643 -0.20664701 0.0896092 -0.09480424 -0.08713916 -0.012688467 -0.21850508 -0.054807544
0.19219504 0.046682615 -0.0041332515 0.059803214 0.19372934 0.12311564 -0.30138335 0.06491984
-0.10212241 0.14314236 -0.75319403 0.068333976 -0.10405729 -0.11006054 0.10934736 0.23929122
-0.14485413 0.008159227 -0.01615065 0.04584793 -0.06474193 -0.13912183 0.21912408 0.04032408
0.04600795 0.063323505 0.01939981 -0.1565111 -0.05305843 0.064928055 -0.110576645 0.11984229
0.070726536 -0.12490468 0.2550095 -0.18958803 -0.13265587 -0.2757713 -0.015491147 -0.020244157
-0.20692126 -0.11607699 -0.25984952 0.1180826 0.19736701 -0.016683156 0.16762163 -0.15634136
-0.1317909 0.03562823 -0.0590632 0.20378006 -0.13588615 0.022138767 -0.043743882 0.06432372
-0.3062728 0.22671819 -0.14988036 0.01828629 -0.017941589 0.28559178 -0.18038252 -0.35196882
0.0026156858 -0.23503289 0.10156417 -0.12037336 -0.013206101 0.0550315 -0.0018300257 0.22210908
-0.105618924 -0.045549966 0.111642905 0.1563978 0.15749058 -0.08970621 0.06770794 -0.2337063
0.051755767 -0.006210163 -0.11537907 0.16029583 0.040151283 -0.13029768 0.3667397 0.102637015
-0.14756037 0.057805046 0.08890113 0.14188145 0.107367404 0.04220225 -0.13502316 -0.08825153
-0.065560095 0.08320105 -0.009260661 0.05279643 -0.099284336 0.08078812 -0.100818515 -0.13629991
0.017083228 -0.09416324 -0.08239509 -0.12843364 -0.0006818429 -0.043243624 -0.014571235 -0.09507187
-0.03173418 -0.048142225 -0.050882686 0.0996601 -0.12911867 -0.100328326 -0.0844081 0.089861915
-0.10739851 0.06862883 0.034509715 -0.11211264 -0.023982776 0.05608529 0.09061579 0.058505975
-0.09211098 -0.058391046 0.096950784 0.012513073 -0.03314536 0.004045723 -0.12322846 -0.010299829
0.09102872 -0.012965421 0.1231913 -0.12355859 -0.032629956 -0.05459194 -0.12727764 -0.12812363
0.055110745 -0.06835819 0.063596524 0.09273233 0.053819466 0.018665478 -0.09177387 -0.122499354
0.0648742 0.109878965 -0.12572277 -0.03903934 0.026799655 0.0051258206 -0.11093154 -0.0037706676
0.08251628 0.06226051 0.116319194 -0.15901956 -0.07806838 -0.13878271 0.035385486 0.10461595
0.100532286 0.09864121 0.16389556 -0.1081317 -0.14206895 0.11813456 -0.18231027 -0.14765778
0.16114044 -0.25188464 0.0036801281 -0.07375406 0.18070413 0.15115926 0.089784525 0.1330077
-0.08699033 0.03753317 0.12232198 -0.08625281 0.033139866 -0.13937902 -0.014714117 0.035149828
0.088919446 0.24666539 -0.102028176 -0.06563632 -0.1883631 0.029695705 -0.088155165 0.009653018
0.05421297 -0.0730852 -0.2704559 0.034976594 -0.062122356 0.034705658 -0.05463087 0.10424429
0.0009065091 -0.019273464 0.031682845 0.17137147 -0.13096625 0.058527548 -0.27965638 -0.19500302
-0.088094644 -0.19177648 -0.104044445 -0.1241396 0.009324815 0.124193564 -0.1151254 0.07883967

bias f4 [128]
00000000: 5cba e3be 33e2 103f 98ca 79bd 87bf 4f3d
00000010: 6572 903e 4496 f3be 0eff 653c d0e2 e73e
00000020: c14e 62bd c682 23bf ca3d 3abc 0699 9abe
00000030: cdd8 793c 6ad3 3e3e 152a 8f3e c652 323e
00000040: 0674 8e3d 55b3 babe 6852 913e fdf1 03be
00000050: d751 523e 42ab 4c3d dfd9 613e 5f01 f83d
00000060: 7b61 913e 5193 dd3e 2a30 523e 9992 333e
00000070: 5ea9 24be 3f76 293e 9209 17bf 49f9 7bbf
00000080: bef7 10bd 7879 763e 6e8c f13d fb2f 9b3e
00000090: c98f 513e 554f 843d e3e2 4a3d 3171 3abe
000000a0: 696b 4c3e 7745 bebd f11d c83e 6b9a 9d3c
000000b0: 0b53 9e3e 59c6 70be 4cc4 9cbd b1b0 ff3d
000000c0: e69f 1bbf aa29 5b3d e048 0b3e ccc7 603e
000000d0: e6f9 153f 8040 cb3c 8fa4 8e3d 2dfc 823d
000000e0: 3f35 393e 9c0c 863c 9131 ce3d 07c4 3f3d
000000f0: acc0 1d3e 1d2d bc3e 6034 113e 4071 53be
00000100: 0d1a 303e cc51 78bd 65c7 913e 88cb 58bd
00000110: f7b7 c13e f952 7abd 7c4b 85bd 2560 a6bd
00000120: b645 a0bb 446d 33bd fe3e 473e 33f6 b7bc
00000130: aba3 983e cbcb a33d ae20 ac3e fb0b ce3c
00000140: fcfc b03d 72f4 653d 8b01 103e e356 8dbe
00000150: a233 5abe 5a7d 223b f31a 01bf 3585 cebd
00000160: 0708 223e ae69 c83d dcd9 3b3e 886d 0c3e
00000170: 089e 9f3e c62e 4d3d 2e96 edbd 5065 6f3e
00000180: 7c1f 6ebe 373e f1be 4d08 673d 5b10 2c3e
00000190: 4bb2 0e3d 7425 d83e d869 8bbd ed5c 12bf
000001a0: f3b0 213e 71f0 54be 4136 b0bc 85a5 c33c
000001b0: 63c9 1cbc f919 4f3e 0869 ad3e dcbc f5be
000001c0: 7ab4 3b3e a602 183e a55a f33d 9a06 c7be
000001d0: 30e8 103e 119b 9b3e 4f8c 833e fb9c 363d
000001e0: 31e5 403e b86f 213e 299f 103e 7c4c 8a3e
000001f0: 9864 c83d 5b0c 913b 2568 2d3e acf8 ecbd
-0.44478118 0.5659515 -0.060984224 0.050719764 0.28212276 -0.4757558 0.014037861 0.45290232
-0.055250887 -0.6387142 -0.011367271 -0.30194873 0.015249443 0.18635336 0.27961794 0.17414388
0.069557235 -0.36464944 0.28383183 -0.1288528 0.20539032 0.04996801 0.22055767 0.121096365
0.28394684 0.43276456 0.20526186 0.17536391 -0.16080233 0.16549014 -0.5899898 -0.98427254
-0.035392515 0.24069774 0.11794363 0.30310044 0.20465006 0.06460444 0.049532782 -0.18207242
0.19962849 -0.09290593 0.39085343 0.019238671 0.30922732 -0.23513164 -0.07654628 0.12484873
-0.6079086 0.05350653 0.13602018 0.21951216 0.5858444 0.02481103 0.06964981 0.06395755
0.18086718 0.016363434 0.10068048 0.046817806 0.1540553 0.3675317 0.14180136 -0.2064867
0.17197438 -0.060624883 0.28472438 -0.052928478 0.37835667 -0.061114285 -0.06508538 -0.08123807
-0.0048911227 -0.043805376 0.19457623 -0.022456264 0.2981237 0.07997855 0.33618683 0.025152197
0.08642003 0.056141324 0.14063089 -0.27605352 -0.21308759 0.0024793954 -0.50431746 -0.10084001
0.15823375 0.09785782 0.18344826 0.13713658 0.31175256 0.050093435 -0.1160091 0.23378491
-0.23254198 -0.4711778 0.0564044 0.16803114 0.034838002 0.42216074 -0.068072975 -0.57173043
0.15790157 -0.20794846 -0.021510245 0.023882637 -0.009569499 0.20224752 0.33869195 -0.4799565
0.18330565 0.1484476 0.118825234 -0.38872224 0.14151073 0.30391744 0.25692984 0.044583302
0.1883743 0.15765274 0.14123215 0.27011478 0.09784812 0.0044265217 0.16934259 -0.11570868

weight f4 [784, 128]
00000000: bddf abbd 59ef c6bd 2ac9 273d e1d0 c0bd
00000010: 021d 89bc 9b93 81be 00a4 24bd 7975 af3c
00000020: 7f08 45bd 51a0 083b c6b0 8ebb daf9 adbe
00000030: 4f4f 1ebd 8cff 703c 7b79 ebbd 6e62 aebc
00000040: e767 0ebc e6bf 1abe f591 61be 160d 773d
00000050: 0081 ccbd 418f 97bd 8291 2bbd 34a1 8fbb
00000060: 815a acbd 70e2 1abe fca7 51be 83f7 163d
00000070: a8da 8dbc f957 c7bd ea7a 7ebd 16f7 203c
00000080: 8284 cd3c ccd7 37bd 2f7b 38bd 7297 06bb
00000090: a16e 363d 8098 163c 3e39 f53c 9eb5 083d
000000a0: 9dfb a2bd e366 eabd 4cc1 81bd 4e0d fbbc
000000b0: eb1c 653a 9ea4 03bc c6e0 56bd 27c0 33be
000000c0: 6d2c a0bd 7448 11be c24f 0f3d 8295 7dbd
000000d0: dbdc d9bd ba72 e73b 781d 2d3d 6767 19bd
000000e0: 74ba 123d 5a19 d2bd 6162 c1bd 8115 82bd
000000f0: 6a08 02bd 1a82 8ebe 84a1 3fbd 1cc9 e6bd
00000100: 5c57 8dbd d96a 443d 3498 dabd 037e 1fbd
00000110: 7498 4ebc 76dc a43d 9193 3abc 4fe5 513d
00000120: fa18 3cbd 654b 97be 37c6 32be 41a7 d4bd
00000130: 2561 213b cafb 04be 8bc3 f0bc cc89 803c
00000140: 9dd0 253d 5ade 9cbd ae14 a4bd f06a 1d3d
00000150: 0b60 d1b8 1764 833c d182 9abd 8f5a b1bc
00000160: 6b61 8bbd 7393 0dbd 08aa c0bd 2d3b 47bd
00000170: 0200 ecbd e2ae aa3c cb1f e3ba 6a84 8abd
00000180: d17e cabd 8620 fdbc 2a8e a03c 2503 f0bc
00000190: fab9 07bd 0ca1 c1bd 5036 52bd 7709 bbbd
000001a0: cfde 0a3c 2a78 d6bd b50b 2abe 8cf4 eabc
000001b0: db46 e43c 2e18 5e3d f025 dd3c 0d17 b4bd
000001c0: a86c 94bd a90c 5d3b 9da8 f63c 267e 403d
000001d0: 1fa5 00be 09e4 f8bc af5c 80bd ff0b 04be
000001e0: 67ec 1cbd 9b7e c0bd 6dfe 95bd 0af2 093d
000001f0: 1375 97bc 400e d8bc e74b 71bc 2571 743d
00000200: 646a c0bd 2c03 54bd 974f cc3c 92a7 9cbd
00000210: 3d15 29bd 8ca6 70be 9537 8f3a f13a 83bd
00000220: dd4c c8bd 57b3 17be f1fd 0d3d 3700 8fbe
00000230: 2619 1bbd 991b 2a3d a725 cdbb 0c38 a8bd
00000240: 346a b6bd d823 15be 66bf 8abe 0afc a1bd
00000250: 2d90 7ebd 205b e9bd 154e 93bd 7cb8 febc
00000260: a37e eabb 638f 17be 1b3b 0bbe baa2 91bd
00000270: 1a76 3e3d 2cf7 d9bd d70c babd f8cf a73c
00000280: 5155 233c 84c9 abbd 867c f3bd e21a d7bd
00000290: 0cb8 07bd 8aa1 783c b582 2ebd 1335 73bd
000002a0: f2c1 66bd 2998 fbbd 2ec6 0cbd c373 073c
000002b0: 2b39 b1bd 63d0 65bb 3dd7 50bd 4235 0ebe
000002c0: b07f 503d fd14 36be 377d fdbd 48d1 15ba
000002d0: 7110 93bb 34f5 7e3c 5c03 59bc 5de3 d3bd
000002e0: 1cc3 bd3c 1248 93bc 6121 4f3d 4c0b 6ebd
000002f0: c26c 103d fce2 7bbe 8372 6abc 713b 62bc
00000300: 07e2 ccbd 505c 623d a519 10bd b055 ee3b
00000310: 0110 453d c56c 393d c147 3cbd e9c0 93bc
00000320: bb3a bbbc 625c 8dbe 8331 25be 6af5 20be
00000330: e3cc 533d 5948 a6bd 56f0 d5bd 02c8 0f3d
00000340: 4636 dbbd 2566 9dbd 9f38 a1bc e8a2 2abd
00000350: 0e13 b6bd 4137 573d bce7 383c 6c92 88bd
00000360: da8b febd 1b38 2fbd 7fff c2bd 3d4d b4bd
00000370: c11c d9bd ba93 9bbd e1ee 5b3d 8430 03bc
00000380: e1f1 d3bd 2c32 5dbc 6335 d33c 6057 b9bd
00000390: d633 a23c c76b 57be 1cbb ad3d 7215 e03c
000003a0: ec24 13bc d276 58bd 0e2c 4dbd 787a 123d
000003b0: 7175 003d deab 18bd eb8b 453d 693c b1bd
000003c0: 6064 34bd 6b24 b9bd 3222 debd dc0b 4bbd
000003d0: c55e ffbd 38aa 343d 5674 fabd 0b2e 5fbd
000003e0: aa57 103d 5b5b 0bbe ee88 3bbd ee9f 62bd
000003f0: 4ed7 bdbd 3144 4cbd 019f 033d bddb d13c
-0.08392284 -0.09713621 0.04096333 -0.094148405 -0.016737465 -0.25307927 -0.040195465 0.02141832
-0.048103806 0.002084751 -0.004354569 -0.33979684 -0.038649853 0.014709365 -0.1149778 -0.02128717
-0.008691764 -0.15112266 -0.22028334 0.060315214 -0.09985542 -0.074003704 -0.041886814 -0.0043832306
-0.084157 -0.15125442 -0.20474237 0.03685714 -0.017316177 -0.09733576 -0.06212894 0.009824535
0.025087599 -0.044883534 -0.045039352 -0.0020537046 0.044539098 0.009191632 0.029934522 0.03337633
-0.07958148 -0.11445405 -0.063356966 -0.030645993 0.0008739966 -0.008034853 -0.052460454 -0.17553769
-0.078209735 -0.14187795 0.034988172 -0.06191016 -0.10637828 0.007063237 0.04226443 -0.037452128
0.035822347 -0.10258742 -0.094425924 -0.06351758 -0.031746306 -0.27833635 -0.046784893 -0.11268827
-0.06901428 0.04795346 -0.10673562 -0.038938534 -0.01260959 0.08049862 -0.011387722 0.051244076
-0.045922257 -0.2954971 -0.17458425 -0.10383464 0.0024624553 -0.12986675 -0.029390117 0.015690707
0.040482152 -0.07659598 -0.08011757 0.03843206 -9.983786e-05 0.016038937 -0.075444825 -0.021649627
-0.068056904 -0.034564447 -0.09407431 -0.04864042 -0.11523439 0.020835344 -0.0017328201 -0.06763537
-0.098874696 -0.030899297 0.01959904 -0.029298374 -0.033136345 -0.094545454 -0.051321328 -0.09132665
0.008475973 -0.10472138 -0.16606028 -0.028681062 0.027865818 0.05422228 0.02699563 -0.08793459
-0.07247287 0.003372947 0.030109698 0.046995305 -0.12562989 -0.030382173 -0.06267678 -0.12895201
-0.03831139 -0.09399148 -0.073239185 0.033678092 -0.018488443 -0.026373982 -0.014727569 0.059678216
-0.093952924 -0.051760837 0.024940295 -0.07649149 -0.04128002 -0.23501033 0.0010926599 -0.064077266
-0.097802855 -0.14814506 0.034666006 -0.2792985 -0.03786578 0.041530225 -0.006260592 -0.08213815
-0.089069754 -0.14564455 -0.2709915 -0.07909401 -0.062149215 -0.11394334 -0.07192627 -0.031093828
-0.0071562096 -0.14800791 -0.13596766 -0.07111116 0.04649935 -0.106428474 -0.0908448 0.02048491
0.0099690715 -0.083880454 -0.11888985 -0.10503174 -0.033134505 0.015175233 -0.04260512 -0.059376787
-0.056337304 -0.122848816 -0.034368686 0.008267346 -0.08653482 -0.0035066835 -0.050986517 -0.13887504
0.050903022 -0.17781444 -0.123773985 -0.0005715084 -0.004488044 0.015561391 -0.01324543 -0.103461005
0.023164324 -0.017978702 0.050568942 -0.058116242 0.03525997 -0.24598306 -0.014309528 -0.013808117
-0.10004049 0.055263817 -0.035180707 0.0072733983 0.048110966 0.045269746 -0.045966867 -0.018036323
-0.022855153 -0.27609545 -0.16132168 -0.15718618 0.051709067 -0.08119268 -0.10446231 0.03510285
-0.10703711 -0.07685498 -0.01968032 -0.041659266 -0.08890353 0.05254293 0.0112857185 -0.06668553
-0.12429018 -0.042778116 -0.09521388 -0.088037945 -0.106011875 -0.07596536 0.05369461 -0.0080071725
-0.10348869 -0.013500731 0.025782293 -0.090498686 0.019800108 -0.21037208 0.08482954 0.027353976
-0.008980971 -0.05284769 -0.050090842 0.035761327 0.031362 -0.03727328 0.04822914 -0.086541004
-0.044041038 -0.09040149 -0.10846366 -0.049571857 -0.12469248 0.044107646 -0.122292206 -0.05448727
0.035239853 -0.13609068 -0.045784883 -0.055328302 -0.09269582 -0.04986972 0.03213406 0.025617475
