HW5/model_DAE.pt (torch, 896143 bytes, 12 tensors)

weight f4 [128, 784]
00000000: 0fe9 d93c 3351 293a 931d 88bc c8d9 a93c
00000010: b1e6 d73c 0358 bb3c 2023 913c a64e 5b3b
00000020: 29f9 353d 8017 d33c 5d7f c53c dea5 193c
00000030: 1533 9b3c f668 4a3d ad8e 143d 8b55 2f3d
00000040: 033e 893d 7571 813b 520f 263d bd96 e73c
00000050: 465a 083d 001c 163d 364a 503d ca85 523c
00000060: 5aaf 383b b93b 413d 15cc a23c bbbf 193d
00000070: 3947 1e3d 7c92 1a3d d928 b03c f092 563d
00000080: d721 543d 50ac 983c 2563 dd3c 87d1 643c
00000090: cec9 2c3d b0ed 293d 8c34 5f3d 9993 093d
000000a0: ee1a fe3c 5631 563d ce66 303d 67f1 023d
000000b0: c413 1a3d faa8 b43c 9757 8b3d bcf6 423c
000000c0: 0dab 103d 4dcb 293d 7ae1 bf3b e881 193d
000000d0: 55b1 0f3c d486 f9bb 3df2 163d 6d39 9a3d
000000e0: 1d64 813d 8b58 353c 7431 623d 80a1 223d
000000f0: 5947 523d 0c31 cc3c 3c08 883d f472 2b3d
00000100: 2212 613c e44a 533c c5a3 0e3b 045e 073d
00000110: f5e1 123d 4979 043d f7c6 0b3d 6f7a 3b3d
00000120: 5f25 083d 12fd bc3c 4832 043d cdfe 2a3d
00000130: 0fd5 5e3c ad84 b73c ec8a e73c 1573 423d
00000140: b10b 1b3d ab52 b03a c030 713d 8c0e a53c
00000150: 07c3 053c a77e aa3c 027b 2a3d 1f09 be3c
00000160: c27d d5bb baa8 0a3c 3dce 803c 56d4 df3c
00000170: 6838 2c3d 72fd 183d 7d7c 643d 1797 463d
00000180: a185 883d 7a86 3a3d 33fa e33c 7e5a 8b3d
00000190: 0179 4f3d 300c f73c 71a6 8e3c 819d 563d
000001a0: 59b0 5e3d bb76 1a3d bca5 9d3c ea2c 953c
000001b0: 93d1 863d 1579 f53c 9545 963d b3f4 073d
000001c0: 2952 5a3c d2a5 013d 3cfc ba3c 35ff d53b
000001d0: 96fb 613d b7ac 0d3d cccb c93c ec52 a53d
000001e0: 2fd7 873d be9f 753d eee1 013e 07da 0c3e
000001f0: 1b44 e93d 9e7e 0c3e 012f d33d 0b19 1a3e
00000200: a237 083e e53e 023e 07ce dc3d a0b8 b03d
00000210: 2113 7b3d c17d b33c eccf 693c d956 fb3c
00000220: b9ca 103d 3339 b83c 981e f53c d321 383c
00000230: 18f8 213d c9ce a53c 7c5d 053d 9a90 993c
00000240: 6f5f c23c 4f75 643c 84fc 523d 7fd0 8e3d
00000250: cdb5 e93d 381a ac3d 670c 9e3d cf77 ab3d
00000260: 6fca 863d 45b2 133e b731 8e3d 9fec b03d
00000270: e930 9e3d 8fa9 d13d fa99 ad3d f60b 5a3d
00000280: 27cc d63c b88b 243d 80d9 613d 812e 143d
00000290: 81e1 763d 0e23 2b3d b861 5d3d 6381 c73c
000002a0: 0360 2d3b 6b32 1c3d 6cb6 2e3d fe16 533c
000002b0: b279 fc3c c72c 883c 23b9 2f3d 2ed1 293d
000002c0: 152e 893d 02a3 1c3d 60ff ca3c c991 4a3c
000002d0: d14c 9ebc 4946 0cbc e53b e1bc bc73 dbbc
000002e0: e9fe efbc 6688 a2bc 7290 59bc a430 dbbc
000002f0: 4e7f 2cbd e509 433b 4a00 f6bc 1eef 343d
00000300: fbd6 ac3d 2f61 9e3d c7d4 f73c 795d de3c
00000310: 860e 973c 09dd c83c 6bdf 883c 7100 1b3d
00000320: a77f 393d 8404 0d3c dfa6 dbba d6b7 3cbd
00000330: 45f7 10bc 95a0 13bd e374 c0bd a997 bfbd
00000340: a9da dbbd 812f e3bd 04dd 0ebe 5750 27be
00000350: 760a 2ebe 2324 0ebe 1939 0cbe 245a ffbd
00000360: cd09 d0bd 9dbd 8dbd d943 1dbb df49 923c
00000370: 35bf 743d 2632 233d e80b fe3c beb7 0e3d
00000380: fbf6 71bc 2aad e33c 5b0c 3a3d 619f 2f3d
00000390: f53a 8c3c 27da ad3b 030f fdbc bf73 afbc
000003a0: 1bf5 6abd a6f2 9cbd f2b0 86bd f338 81bd
000003b0: 763e c3bd 7520 d5bd a153 b3bd 4b4d 14be
000003c0: f161 72be 8de0 5abe 001e 80be f049 5abe
000003d0: f034 05be dbe5 9cbd 3b01 8abd 22ee 0fbd
000003e0: 8cfc 1a39 049d 9b3a 05a0 623b 6716 2f3d
000003f0: cb72 783b ff98 e03b 6fc5 033d 62f7 3d3d
0.026600389 0.0006458938 -0.016615665 0.020733729 0.02635512 0.022869116 0.017716944 0.0033463626
0.04442707 0.025768042 0.024108583 0.009377925 0.018945256 0.049416505 0.03626888 0.04280619
0.06701281 0.0039502927 0.040541954 0.02827012 0.033289216 0.036647797 0.050852023 0.012849281
0.002818069 0.047176097 0.019872705 0.037536364 0.038642142 0.037737355 0.021503853 0.052386224
0.051790085 0.018636853 0.027024815 0.013965971 0.042184643 0.041486442 0.054493472 0.033588026
0.0310187 0.052293144 0.043066792 0.0319685 0.037616506 0.02205323 0.06803816 0.011899646
0.035319377 0.04145365 0.0058557363 0.037477404 0.008770307 -0.0076149497 0.03685211 0.07530484
0.06317923 0.011068474 0.055222943 0.0397048 0.051337574 0.024925731 0.066421956 0.041857675
0.013737233 0.012896273 0.0021765095 0.033048645 0.03586002 0.03234223 0.034125295 0.04577106
0.033238765 0.023069892 0.032274514 0.041746903 0.013600602 0.022402132 0.028264485 0.047473032
0.037852947 0.0013452371 0.058884382 0.020148538 0.008164174 0.020812346 0.041621216 0.023197709
-0.0065152356 0.008463079 0.015723342 0.02732293 0.04204598 0.03735108 0.055782784 0.048483934
0.06666113 0.045538403 0.027829265 0.068043694 0.050652508 0.030157179 0.01741335 0.0523963
0.054367397 0.037710886 0.019244067 0.018209893 0.06582942 0.029964963 0.073374905 0.033192348
0.013325253 0.03165228 0.022825353 0.006530667 0.05517157 0.03458854 0.02463331 0.08072457
0.0663284 0.059966795 0.12683842 0.13755046 0.11389943 0.13720176 0.103117 0.15048616
0.13302472 0.12719305 0.10781484 0.086289644 0.06129754 0.02191055 0.014270764 0.03068106
0.03534958 0.022488212 0.029921815 0.011238533 0.03954324 0.020240204 0.032559857 0.01874571
0.023727147 0.013943984 0.05151035 0.06973361 0.11411629 0.08403438 0.07717209 0.08372461
0.0658158 0.14423473 0.06943076 0.08638882 0.077241726 0.10237419 0.08476634 0.053234063
0.026220394 0.04017231 0.055139065 0.036177162 0.06027365 0.041781478 0.05404827 0.024353689
0.0026454933 0.03813402 0.04265444 0.0128839 0.030819748 0.016622914 0.04290117 0.041459255
0.066982426 0.038241394 0.024779975 0.012363859 -0.019323738 -0.008561679 -0.02749438 -0.026788585
-0.029296355 -0.01984043 -0.013279067 -0.026756592 -0.042113595 0.0029760536 -0.030029435 0.044173352
0.08439442 0.0773338 0.030252827 0.02714418 0.018439543 0.02451946 0.016708096 0.037842218
0.045287754 0.008607034 -0.0016758105 -0.046073757 -0.008848016 -0.036041815 -0.09397294 -0.09355099
-0.107350655 -0.11093045 -0.13951498 -0.16339241 -0.16996178 -0.13880973 -0.13693656 -0.12468365
-0.10158119 -0.069209315 -0.002399674 0.01785749 0.05975266 0.039842747 0.031011537 0.0348432
-0.014768357 0.027792532 0.04542194 0.042876605 0.017117957 0.005305547 -0.030890947 -0.021417497
-0.057362657 -0.07663469 -0.065767184 -0.0630969 -0.09533398 -0.10406581 -0.08756185 -0.1448261
-0.23670174 -0.21374722 -0.25022888 -0.21317267 -0.13008475 -0.07661029 -0.06738516 -0.03513921
0.00014780666 0.0011872356 0.0034580242 0.042745974 0.0037910219 0.006854176 0.03217071 0.0463785

bias f4 [128]
00000000: 375a f43e 511b 43be f6cf 04bd 2545 4fbb
00000010: a857 0fbd b186 ffbb e05d febc ca78 21bc
00000020: e0f1 a63b d991 1fbe a4ed b73d be2e c2bd
00000030: fe51 8e3c aaa2 04bd e72a 883e e3d1 5abc
00000040: 0895 db3e a108 2fbd c594 743c a6ef 233e
00000050: ba89 583e 9495 0abd 632c 0d3f 83ed 22bd
00000060: 3fcc 15bd 12a2 1d3d 2fcf 92bb 131a f53e
00000070: f22e 623e 94e9 95be 7fdb a43d 19eb 793e
00000080: d81c 0a3e 9334 9f3b a6aa b1bc ed53 083c
00000090: 78ea 40bd 1557 6b3c 3758 5f3e af38 713e
000000a0: 99c0 793d 70d4 ff3d f3de 68bc f5a5 143c
000000b0: a674 e2bc 5cca 1bbd a1ad dd3c 068a 393c
000000c0: f3c5 67bc e5ca 613e 2b16 f93d b88c d23a
000000d0: eca0 36bb 94d5 43be 24e3 05bd 2140 3a3e
000000e0: 0c78 01bd d8a4 c9be 072a 15bd 2ff7 5c3c
000000f0: 85fa 783e 35b0 c43c 4619 1dbc 1d79 af3c
00000100: 74f9 f1bb 05b4 1d3e 33ba 203b e31a 05bd
00000110: 6a5c 07bc a19d cc3b ac57 7a3d 4d19 643b
00000120: c890 a8bc 6ae2 86bd afcf 96bd e02e 783c
00000130: 91d3 afbe 7806 843e e439 ca3e d7fa 3f3e
00000140: 0e7f eabc 52b1 9c3d a361 663d b227 ae3e
00000150: 13eb 103e bcac 79bc b9fa 6d3e 3c43 ce3c
00000160: 6743 cfbc 2dc6 c23d 32d7 643e 6e7c 49bc
00000170: a544 9ebc 848f 493e 358f 14bd afea d23b
00000180: a39c 55bd 7458 d33b b919 663c 351c aebc
00000190: 7c3a 15be 1090 fcbc 5461 c9bc 1a37 823d
000001a0: 2eca ca3d 9ee7 b03e 4d21 b93e 6f89 473c
000001b0: 880f 57bc 82d5 24bd 09ed 2c3d bc03 bdbc
000001c0: fae5 d73c d1a4 563e ab9b e4bc f0ba eebd
000001d0: 41ca 0e3f 701b d8bc 933b 9a3c df6e 7a3d
000001e0: b448 943c 94a2 d5bb df31 62be ca52 a13e
000001f0: d8a7 ec3c 24e9 12bd 41d6 813e 965d 39be
0.47725078 -0.19053389 -0.03242489 -0.0031626907 -0.034995705 -0.007798039 -0.031050622 -0.0098554585
0.0050947517 -0.1558298 0.08980873 -0.094815716 0.017373081 -0.03238169 0.26595232 -0.013355705
0.4288714 -0.04273284 0.014928048 0.16009387 0.21146289 -0.033834055 0.55145854 -0.03977729
-0.036571737 0.03848464 -0.0044802646 0.47871456 0.2208822 -0.29279768 0.08049678 0.24406089
0.13487566 0.0048585623 -0.021687817 0.008320791 -0.047098607 0.014364024 0.21810995 0.2355678
0.06097469 0.12491691 -0.0142133115 0.00907277 -0.027643513 -0.03803478 0.027060332 0.011324411
-0.014146316 0.22050054 0.12162431 0.0016063666 -0.0027866913 -0.19124442 -0.03268732 0.18188526
-0.031608626 -0.39383578 -0.036417034 0.013486668 0.24314316 0.024009803 -0.009588545 0.021420056
-0.0073844735 0.15400703 0.0024525046 -0.032496344 -0.008261779 0.006244377 0.061118767 0.003480512
-0.02057685 -0.06586154 -0.07363831 0.015147895 -0.343411 0.25786185 0.39497292 0.18748032
-0.028625038 0.07651009 0.056245457 0.3401466 0.14152174 -0.015238937 0.23240174 0.025178544
-0.025300695 0.09510455 0.22347715 -0.012297733 -0.019319842 0.19683653 -0.036269385 0.006436668
-0.052151334 0.0064497534 0.014044219 -0.021253685 -0.14573091 -0.030830413 -0.024582542 0.06358166
0.09901844 0.3455171 0.3615822 0.012178763 -0.0131262615 -0.04024268 0.04221824 -0.02307307
0.026354779 0.2096131 -0.02790626 -0.11656749 0.55777365 -0.02638027 0.018827235 0.06114089
0.018101074 -0.006519625 -0.22089337 0.31508476 0.028888628 -0.03586687 0.25358775 -0.18102106

weight f4 [64, 128]
00000000: 4d4b fabc c3b1 aabd 4b47 96bd 21a7 a43d
00000010: f986 843d e5d9 34bc d35f f8ba bf21 3e3c
00000020: 6d34 033d 3ad9 d3bd f0c2 1d3e 2c0b e43d
00000030: 8662 8e3d b9a6 8c3c de18 0e3d 9b13 a7bd
00000040: 5875 80bd 4bcd 11bb 1ede a73c 50be b5bd
00000050: 8cce d6bb 172e a4bd 83b1 f4bc 52df b4bd
00000060: 2c2f 733d 9751 713d e964 463d 8e64 f33d
00000070: b00f 23bb 1ed8 483c 6775 b8bd 06db cfbd
00000080: 0ff2 d8bb c102 723d 33a6 1ebd 6717 61bc
00000090: fdd3 2d3e 89dc 893d 8f18 8ebd b42b 983b
000000a0: a10e 3f3c 313f e5bc 1dd9 90bd 0ca8 93bd
000000b0: d1c7 793d 143a 48bd 5a4a c139 908a 133e
000000c0: 0dca 8dbd 5975 e63d d426 3dbd 2519 bb3c
000000d0: ac72 493d 76f8 f43d 8de9 76bd 5956 a33d
000000e0: 9a48 69bc bd63 c8bc 4171 b73d c03b 2dbd
000000f0: 9e4e 803e 0a95 e1bc e5c6 78bd 8fad d4bc
00000100: f635 3fbd f46c e43d e251 96bc 715f 1ebd
00000110: 4bd3 ed3c fec7 e0bc f0f7 8bbd ea5c d33a
00000120: bf5d ddbc 01fe 113e 122c 3d3b 0ba6 393e
00000130: 47b7 723d 3104 433e 36ed 253d 66c1 223e
00000140: 6a78 233d 0c79 13bc e4e1 97bd 55e5 50bb
00000150: 5bf7 923e 4c4b 9ebd 325f c53d 6589 6fbd
00000160: 1385 a43d fd17 f03c fe42 db3d bd26 68bd
00000170: 2238 ab3c 1891 f23d c042 5dbd 5ce8 6f3d
00000180: 898f 013d f41e e83c bff2 d73c 9195 8f3d
00000190: cbcd 50bc eabd d0bd f99d 8ebd 2b3b 41bd
000001a0: 8987 e83d 9585 cf3c 8f5b e83d 2f89 ae3c
000001b0: 6241 4b3d b330 d63c 2b4f 213e a654 7f3d
000001c0: 4c83 8bbd 026d 8c3d dcf1 dd3b 4799 25bc
000001d0: 7dc3 ea3c 9ed2 82bd c3fb 623c c0d9 a7bd
000001e0: 645c 7c3d d995 223d 9d00 ea3b e312 f93d
000001f0: 5646 9b3b 710d 283d 2aba 363d d4c7 c73a
00000200: c33b c7bd d2fe 96bd 6681 493b 80e1 4ebd
00000210: 8cf8 31bd dadf 803d 7759 8bbc 0a26 b93d
00000220: 90ce 9d3d b45f 46bc 6863 6abb d9ee 0e3c
00000230: bcc1 813c 017a b63d d123 293d 04cc b3bd
00000240: ad25 debd d545 93bd 03ef 353d cc72 d9bd
00000250: 0a46 813d d59c 78bd 2cc8 95bc 69d3 46bd
00000260: db15 653d 099b aabd 3249 e1bc 1e20 083d
00000270: 5dbd 88bd 0619 383d 7352 913d 39ca 433c
00000280: 0ce7 c2bd 3356 fe3b 936d 10bd 1bdc 6bbd
00000290: 59a7 f8bc 94c1 2dbd 7fff 1dbd b2f4 11bc
000002a0: d935 5dbc 540d d7bd b685 973c 8648 b33c
000002b0: b030 8bbd 46c5 36bd c04f 6abd 4b3e be3b
000002c0: 4907 6ebb 882f 893d 4ed6 e8bc a87a 12bd
000002d0: 38a9 863d e454 bdbd d265 933d a123 9cbd
000002e0: 6ccf 3c3d a4fb b63b b4c1 833d c5ee bbbc
000002f0: 21cb 55bd 0813 e5bd be0c 7f3d 943e 88bd
00000300: 319d 893d 93ec c0bd 1351 9c3d 6240 bcbd
00000310: 2e8a 91bd 8684 713b cde9 88bd 3275 0b3c
00000320: dca5 0bbd 3528 8fbd ce03 debc a628 c3bd
00000330: 8b94 21bd 627e 9bbd 4e91 f43c dde6 5cbd
00000340: c61f d5bd 9979 4c3d 036b 2a3d 4abc e3bd
00000350: 49a6 9ebd d2be 063d 78d0 4fbc f712 8c3b
00000360: 33d3 05bd e471 0fbd d1f2 4d3c 182b 1eba
00000370: 5d2c c93c ce14 c83c 9d17 a9bd 9ae1 993d
00000380: 9748 72bd a17c 8dbd d6c1 a13b afee 6ebd
00000390: c0ec 0bbe e659 bbbc 5842 b7bd db0a 85bd
000003a0: d3e7 8c3d 1c8d abbd 4353 d73c e8f7 1a3d
000003b0: 172f 9fbd 5d8f 233d 021e 5d3d f5e1 793d
000003c0: 7566 013b 7ce3 c4bd 8006 533d 37d7 aabd
000003d0: 6db1 96bd 8ac8 d03c fb87 283d 0ccc 2e3d
000003e0: c70f 86bd 3155 983d 66af 48bd 7352 b3bc
000003f0: 0a8d 233c 02ab 133b 8098 3e3d fe21 ab3c
-0.030553484 -0.083346866 -0.07337817 0.0803969 0.064710565 -0.011038278 -0.0018949456 0.011604725
0.03203242 -0.10344167 0.15406394 0.11134943 0.069523856 0.017169343 0.034691684 -0.08158036
-0.062723815 -0.0022247608 0.020491656 -0.0887419 -0.006555384 -0.080166034 -0.0298698 -0.088316575
0.05937116 0.0589157 0.04843608 0.11884414 -0.0024881177 0.012258558 -0.09006768 -0.10149197
-0.0066206525 0.059084658 -0.03873272 -0.01373849 0.16975398 0.06731517 -0.06938278 0.0046438817
0.011661203 -0.027984234 -0.07072661 -0.07209787 0.060981575 -0.048883513 0.00036867225 0.14408326
-0.06923304 0.11252851 -0.046179608 0.022839138 0.049181625 0.11961453 -0.060281325 0.07975454
-0.014238501 -0.024461621 0.08957148 -0.04229331 0.2505998 -0.027536888 -0.060736556 -0.025961665
-0.04668232 0.11153594 -0.018349592 -0.03866524 0.029031416 -0.027439114 -0.068344 0.0016125713
-0.02702224 0.14257051 0.002886538 0.18129747 0.05925682 0.19044568 0.040509425 0.15894088
0.039909758 -0.009001028 -0.07416132 -0.0031874974 0.28704342 -0.077292055 0.09637298 -0.05848064
0.080331944 0.029308314 0.10706137 -0.05667757 0.02090079 0.11844081 -0.054018736 0.058571205
0.031631026 0.028335072 0.026360868 0.070109494 -0.012744377 -0.10192473 -0.06963725 -0.047175568
0.11353976 0.025332252 0.113455884 0.021305649 0.0496229 0.026146268 0.15752856 0.062336586
-0.06812152 0.06856729 0.0067732166 -0.010107345 0.02865767 -0.06387828 0.01385397 -0.081958294
0.061611548 0.039693687 0.0071411864 0.121618055 0.0047386093 0.041028444 0.044611134 0.0015242049
-0.097281955 -0.07372822 0.0030747293 -0.050508022 -0.043449923 0.06292696 -0.017010434 0.090404585
0.07705414 -0.012107778 -0.0035764817 0.008723938 0.01583945 0.08909989 0.041293923 -0.08779147
-0.1084703 -0.07191054 0.044417392 -0.10617599 0.06312187 -0.06069644 -0.018283926 -0.04854146
0.055929046 -0.08330352 -0.027500723 0.033233754 -0.06676743 0.04494574 0.07095804 0.011950069
-0.09516725 0.0077617406 -0.035260748 -0.057582956 -0.030353235 -0.04242094 -0.03857374 -0.008908438
-0.013501608 -0.10500589 0.018496376 0.021885168 -0.06796396 -0.04462173 -0.05720496 0.0058057657
-0.003632026 0.06698519 -0.028422501 -0.035761505 0.06575245 -0.09244707 0.07197155 -0.07623983
0.04609625 0.005584197 0.0643343 -0.022941003 -0.052195672 -0.111852705 0.06226801 -0.06652561
0.06719435 -0.09420123 0.07632651 -0.091919675 -0.07106434 0.0036852672 -0.06685219 0.008511828
-0.034093723 -0.06990091 -0.027101424 -0.095292374 -0.039448302 -0.07592465 0.029854443 -0.053931106
-0.10406451 0.049920652 0.04160596 -0.11119898 -0.0774656 0.032896824 -0.01268398 0.0042747217
-0.03267212 -0.035020724 0.012570099 -0.0006033643 0.024557287 0.024423983 -0.08256457 0.07513733
-0.05915126 -0.06908537 0.004936437 -0.058333095 -0.13664532 -0.022870015 -0.08948201 -0.06496211
0.068801545 -0.08376524 0.02628482 0.037834078 -0.077726535 0.039931644 0.053983696 0.061006505
0.0019744907 -0.09613702 0.05151987 -0.0834183 -0.0735806 0.02548625 0.041145306 0.042675063
-0.06545978 0.07438124 -0.048995398 -0.0218899 0.009982357 0.0022532349 0.046532154 0.020890232

bias f4 [64]
00000000: 8e44 d73e 7c6d e53b 0597 013f 2dd2 283d
00000010: ee5d 32bd 93b8 6dbe 3f77 1f3e a86c 8a3e
00000020: eebd 7dbe b97d 19be 27e6 833e c618 c3bd
00000030: fd6a b73e ad03 dbba 8e73 b0bd 4d28 f13e
00000040: 44df a23e de06 37bd 5608 8e3c f9e4 d4be
00000050: 319e a03e bad7 83bc 5507 0ebe 05f2 043f
00000060: 0ced cc3e 7d23 8c3d 2447 763e 4f07 113d
00000070: 4d80 2aba f7b9 1abe 0269 da3c 8468 023f
00000080: c693 fdbc 3634 c9bd b791 593d 8e02 ee3d
00000090: a823 d93e a78d a73e 7001 713c 7f89 813e
000000a0: 5c86 f2bd b6b2 b83e 1d78 903d 028c d13c
000000b0: 5879 923e c4fd 6bbd aac3 47bd 6f72 58bd
000000c0: d522 3f3d 9e40 4cbd 9f8e f9bd 4223 51bd
000000d0: c919 d5bd 57a3 06bd 7c5b 6fbd 65f6 14be
000000e0: ffd6 a73e ddba c3bd 1228 fdbe 91e6 673e
000000f0: 9021 bd3e 2079 833c 1e77 cdbd bb6e a8bc
0.4204449 0.007001577 0.5062106 0.041216064 -0.04354661 -0.2321494 0.15572833 0.27036023
-0.24779484 -0.14989366 0.2576153 -0.095262095 0.35823813 -0.001670947 -0.0861579 0.4710106
0.31810963 -0.044684283 0.01733796 -0.41580942 0.3137069 -0.016094077 -0.13869984 0.5193179
0.40024602 0.06842706 0.24050575 0.03540736 -0.00065041037 -0.15110002 0.0266614 0.5094073
-0.030954253 -0.098244116 0.05311748 0.11621581 0.42410016 0.3272526 0.014709815 0.25300214
-0.11842033 0.36073846 0.0705416 0.025579456 0.28608203 -0.057615057 -0.048770584 -0.052843507
0.046664078 -0.04986631 -0.12185406 -0.051059015 -0.10405309 -0.032870617 -0.058436856 -0.14547117
0.32781217 -0.09557126 -0.49444634 0.22646548 0.3693967 0.016048968 -0.100324854 -0.020560613

weight f4 [12, 64]
00000000: 05fe 143e 1219 a8bc 633f 1abc 0ecd 833d
00000010: 47ef ab3d efde 1fbe f3a7 9dbd b8e4 21bd
00000020: b381 2f3e 83b9 4bbe e4fe 88be fc3c 403e
00000030: 7316 3bbd 165e 163e 76d1 d13d d34c 3a3e
00000040: 4fd0 353e 4cc1 13be ebb7 393d b277 9e3b
00000050: ffde 473e bf6b f2bb 9b1a 373d d039 81bd
00000060: 42a3 33bd 5916 44bd 37ad 303c a4ca ad3d
00000070: 2904 803d 65b4 043d 0957 06bd c41a e0bd
00000080: 515d 6cbd 5a33 e5bb b7e4 54bd 44ac 3b3d
00000090: 2a30 1a3e 42ae 30be 0df4 5bbd 32a6 813e
000000a0: 9730 d4bd 29b1 ecbb 4414 83bd f79b 22bd
000000b0: 2534 033e 5f0f 0eba 50df 363c fb8e 513d
000000c0: aca4 04bc 9c62 38bd 3924 e93d e06f 0cbd
000000d0: aa00 c1bd 7361 ddbd 244d da3d ca68 1dbd
000000e0: 26bc 07be 883b 1c3e a2a7 f83d 6b62 38be
000000f0: be86 8abd 9319 583e 277a 293e 11a6 b4bd
00000100: 1a5a 0bbe 3b3e 88bc 9137 2a3d a377 83bd
00000110: c983 96bc 683f a33e 158b f33c d489 d2bc
00000120: e18f 953d 755e 97bd 9410 8cba dd57 5bbd
00000130: c801 e1bd c87d 343e 8f7b b3bd f60d c93d
00000140: f30b 37be 1ff6 5c3d ec35 c1bd d331 bc3e
00000150: c808 7abd 54a6 dbbd 0776 973a fdea 8a3e
00000160: 2d0f 2e3d fe4e 363e 831a d7bb e393 823d
00000170: 7b50 b13d b1c0 5f3d c371 2dbd 3abd 683d
00000180: 2906 bebd 349e aa3d 322b b8bd c7fc 603e
00000190: 4bd8 dbbd f3b7 0abc f9cc bdbd dcc0 943d
000001a0: 8820 46bd 5186 6a3c a423 c9be b601 a9bb
000001b0: 4c1d 5a3e 2f22 c63c 0025 39bc 23dc a1bd
000001c0: b3f7 b0bd 8567 05be 1cfe 87bd 81c8 983d
000001d0: 33af 60bd 7478 33bd a69a 9ebb 2068 ecbd
000001e0: f4b8 05be 336f 053e 2714 1ebe 84fd c9bd
000001f0: 5567 163c 0cb9 1d3e 015e 17be b7f6 5cbd
00000200: 1161 22be 19c8 f33c badb 96bb 365c 1e3c
00000210: 91c1 a73d 7157 4c3d 3e63 53be 71f1 3dbe
00000220: 5677 06be 0e2f 133d 24ba 273e 6915 1ebd
00000230: f0b7 69bd dc48 03bd 9073 01be 4081 343d
00000240: 0f0e 72bb ddcb 0d3e 243a 093d abdd 003d
00000250: 30a9 1bbb 3b1d 25bd 27f2 bd3e 5787 54bd
00000260: 91bc 883d 26bc 2bbe f773 7ebc a92d 25bd
00000270: 03f9 debd 719c 7ebc f7fd 0d3d 584f 363e
00000280: 7d0d 0c3d ea0e a5bc 8f1b b03d ff4d 323e
00000290: 59af 723c 29c4 713d 35fc b63d 15e2 93bd
000002a0: 0c03 25be af9c 17be a58c 7a39 a0cb 4ebc
000002b0: f9dc 32bd 1338 1d3d 16a7 943d 44b2 273e
000002c0: 2d64 3bbd a555 313e c84f 2abe c13d 163c
000002d0: cb7a 0fbd f1b5 a03d fc03 dfbd 3d88 e53e
000002e0: e9f2 e5bd bd45 56be 64cb 5bbd 976e 49be
000002f0: 9e61 12be 1ced 433e 295b 18be dba2 d03c
00000300: 0835 ca3d c7a9 5cbc 3305 f63b 8211 fd3c
00000310: 4615 94bc f9a6 bf3d f62b c03c 9b31 0c3e
00000320: a1a7 bcbd 658d 9cbd b8ea 3c3d 1acb 633e
00000330: 0f41 51bc c999 453d 600b 8ebc 6a17 bb3a
00000340: a6e8 fe3d 3e6c e63c 3896 b13d 4024 9dbe
00000350: ea83 cfbd d3eb d3bd d307 62bd 7662 073d
00000360: 3311 fcbc 6600 383e eb67 223e bb7f e8bd
00000370: cfd9 01bd aabf babb 9df2 ae3d c071 a0bc
00000380: ced8 1bbb f8e6 07be 343a a9bd 4978 cf3d
00000390: b11f 18bd 6f72 23be 3922 843c 0f89 d2bd
000003a0: b2ea bfbd 7252 843c 57fe cfbc f2d1 b33c
000003b0: e6ad 0d3e dbde a0bd d52c cb3c 7c3a 023e
000003c0: 69a0 2fbd a7ef 533d 7fae 883d 60b9 c03d
000003d0: 3716 f7bd bef5 3cbd d7c2 7cbd 910c afbe
000003e0: 21be 84bd d363 4a3e e230 083e dbc2 dc3d
000003f0: 382c d83d 988b 2a3d 09b7 36be 03fc 263d
0.14550026 -0.020519767 -0.009414527 0.064355955 0.08395248 -0.15612386 -0.076980494 -0.039524764
0.1713932 -0.19894986 -0.26756966 0.18773264 -0.045675706 0.14684328 0.1024503 0.18193369
0.17755245 -0.14429206 0.045341413 0.004836046 0.1951866 -0.0073980982 0.044703107 -0.06309855
-0.043856867 -0.047872875 0.010783485 0.08485916 0.062507935 0.0323986 -0.032797847 -0.10942605
-0.05770618 -0.006994647 -0.051975932 0.045818582 0.15057436 -0.17253974 -0.05369954 0.2532211
-0.1036083 -0.0072232676 -0.0640035 -0.03969952 0.1281286 -0.00054191606 0.01116164 0.051161747
-0.008095901 -0.045015916 0.11383862 -0.03428638 -0.09423955 -0.108096026 0.10659245 -0.038430013
-0.13255367 0.15257084 0.121413484 -0.18006293 -0.06763981 0.21103506 0.16550504 -0.08820737
-0.1360859 -0.016631236 0.0415569 -0.06419303 -0.018373387 0.31884313 0.029729405 -0.025700487
0.07302833 -0.07391063 -0.0010686093 -0.05355059 -0.10986668 0.17626107 -0.08763801 0.09817116
-0.17875652 0.053945657 -0.09434113 0.36756763 -0.06104353 -0.10725084 0.0011555561 0.27132407
0.04249494 0.1780357 -0.0065644397 0.063758634 0.086579286 0.054627124 -0.04234482 0.056821086
-0.09278519 0.08330956 -0.08992614 0.21971427 -0.10734614 -0.0084667085 -0.09267611 0.072633475
-0.048370868 0.01431425 -0.39285004 -0.0051576747 0.21300238 0.024186222 -0.011300325 -0.07903316
-0.08640995 -0.13027771 -0.066402644 0.07460118 -0.054854583 -0.043816045 -0.004840213 -0.11543298
-0.13058835 0.130307 -0.15437375 -0.098628074 0.00917991 0.15402621 -0.14781953 -0.053946223
-0.1585734 0.0297585 -0.00460383 0.0096655395 0.08191217 0.049888078 -0.20643327 -0.18549134
-0.1313146 0.035933547 0.16379601 -0.038594637 -0.057060182 -0.032051906 -0.1264174 0.044068575
-0.003693465 0.13847299 0.033502713 0.0314614 -0.0023751967 -0.04031108 0.3709881 -0.051886883
0.06676591 -0.16770992 -0.015530578 -0.040326748 -0.10887339 -0.015540228 0.034666028 0.17803705
0.03419255 -0.020148713 0.085990064 0.17412566 0.014812314 0.059024964 0.089348234 -0.07220856
-0.16114444 -0.14805864 0.00023894252 -0.01262179 -0.043667767 0.038383555 0.072584316 0.16376597
-0.045749832 0.17317827 -0.16631997 0.009169997 -0.035029214 0.078472026 -0.10889432 0.44830504
-0.11227972 -0.2092504 -0.053660765 -0.19671093 -0.1429505 0.19133419 -0.14878525 0.02546828
0.09873396 -0.013468212 0.007507944 0.030892137 -0.01807655 0.093580194 0.023458462 0.13690798
-0.0921166 -0.07644156 0.046122283 0.22245446 -0.012771859 0.048242364 -0.017339408 0.0014273946
0.12446718 0.028127786 0.0867123 -0.3069172 -0.101325825 -0.10347714 -0.055183243 0.033052884
-0.03076992 0.17968902 0.15859954 -0.11352488 -0.03170186 -0.0056991177 0.085423686 -0.01958549
-0.0023780349 -0.13271701 -0.082630545 0.101303644 -0.0371396 -0.15961622 0.0161296 -0.10280048
-0.093709365 0.016152594 -0.025389833 0.021950696 0.13835868 -0.07855006 0.024801651 0.12717623
-0.04287759 0.051742222 0.066739075 0.094103575 -0.12064784 -0.046132796 -0.06170925 -0.34189275
-0.06481577 0.19764642 0.13299897 0.10779353 0.10555309 0.041637033 -0.1784326 0.04076768

bias f4 [12]
00000000: 86e8 0abe c91b 3c3e 2955 683d c1b0 b93e
00000010: f160 bfbe 7cb6 08bf 04e3 64bd aa4d 77be
00000020: 4b05 85be 7ed7 c43e de40 8fbe bedf a2be
-0.13565263 0.18369974 0.05672184 0.36267665 -0.37378648 -0.5340345 -0.05588056 -0.2415072
-0.259806 0.38445657 -0.27979177 -0.31811327

weight f4 [64, 12]
00000000: 6075 6ebe 49f4 7f3e 8337 db3e 6eac c1be
00000010: 6713 023f 4824 9c3e b0a2 4b3e ce4b 68be
00000020: 939a c2be 03a0 433e e465 92be f254 c13d
00000030: d30a 963d 33af cfbe 7c26 7fbe b4dc bf3e
00000040: f1f8 92be e43f 1ebe 1ca8 533e 6f7b aabe
00000050: 2d95 32be 7f67 953d 99e3 883e c7d3 d33c
00000060: b1be 9e3c 36dd 95bd f8a4 a23d 60f3 eabe
00000070: 030b 273e f9d4 82bd b3bd 8bbe 84ca f83d
00000080: fffa a33e b5c4 1f3e 710f 3e3e d866 8cbe
00000090: 66bd 8ebb 2a23 1fbe ffc0 a2bd 2689 48bd
000000a0: d05d af3e 0b93 af3e a6cd 82be 2ed6 3cbe
000000b0: 5a51 3c3e 1db4 d4bd 08f3 36be d193 773e
000000c0: d366 873e 32c5 e33d 96c1 433e 31c5 aa3e
000000d0: 19e1 8fbd 7c6c aebd d592 72be 5adc 82be
000000e0: 56a6 b13d 1407 133c 074d a13e 9797 8cbe
000000f0: ab3a b33d 34c8 2d3e b1d9 15bb d6c7 29be
00000100: 336d 94bd a39e 3e3a a7c9 88be 50bc 2fbe
00000110: 16cb 8fbd 2f70 75be 687f febd 011c 75be
00000120: 694d afbe fca2 9f3e 4c2b efbd 4827 bd3e
00000130: 9011 983e f23f 4ebe b682 74be 457b 00be
00000140: 1198 81be 5afc 6f3d 81fc 853e 2fda debd
00000150: 77f3 3cbe a340 d53e fa6d d83e 4e3f 7b3e
00000160: b43b 2a3e 1182 353e aece 103e dcfa 27be
00000170: 9a35 813d 0815 093e 8365 3d3e 72cd 493e
00000180: badf aa3d 1702 43bc 5b6d e4bd 7118 db3d
00000190: 41ff 81bd e81c c93e a57c 98bd 566c 2ebe
000001a0: eb3c 99be 8a78 41be 0e0f 07be 6f25 ee3d
000001b0: cc05 47bf 2e77 85be 9102 c1bd 8798 66be
000001c0: 41e7 883e 9b9a d4be 03a4 20bd 9970 dabc
000001d0: 63b8 e83c a01d 243e 9bcc 83be 10b9 70be
000001e0: fe50 153e 22ea ffbd de7e c23d c290 e0bd
000001f0: 6df1 dabe 4f9b 7ebe 38eb f93d d7d9 83be
00000200: 49f6 11be 1875 05be 5ecc 19be 3f67 503d
00000210: e06e 1f3b 4af5 bc3e a99f 87bd 2ebc 093e
00000220: a293 b7bd 1c44 5d3e fda2 71be 2da1 823e
00000230: 25a7 c9bd c4f9 01bf 7bfd d03e a592 8b3c
00000240: b274 513e 4784 9a3d 4db0 55be 16d8 9dbe
00000250: f8ac db3e bf24 b8bd ce47 febd 11ac 493e
00000260: b5d7 45be 911f b73e e752 45be 93cf 9c3d
00000270: 5237 92be 2ca8 343e 716b 823e 4f7a 2dbe
00000280: bdbe 7dbe b0df 803e 1e1d 15be 73b2 57be
00000290: 5a4e a63d 25fb 733e 89ff 5bbe 1a71 27be
000002a0: 5da5 66be 124a 903e d4ef 80be 6850 c4bc
000002b0: 26d8 a4be 9460 353b bee3 f23d 357e c6be
000002c0: 45cf 3c3e 12e8 5abd 817c 8ebe 3fb6 133d
000002d0: ab03 3a3e d4a5 0d3e 9324 5e3c 4b01 ddbe
000002e0: fec6 c03d 71a7 1fbd 70c0 f0bd bf5a ecbd
000002f0: c2dc 7dbe 651f 99be d6ad 2abe 7bc9 b83d
00000300: 181a 50be 237f 2c3d a495 b43d 3192 2ebe
00000310: b0c0 11be 46da bd3e 95e9 953d 693d 97bd
00000320: a546 ddbc eb4f fb3e 4298 6d3e d040 043f
00000330: b510 493e b3f3 a0be 597b 843d 145b c6bb
00000340: b214 f1be 9953 d63c efbf 2bbe bc8f 0cbe
00000350: 58d6 b73e 3c7c 7f3e b9e9 e13d aa39 153e
00000360: 033b 8c3e 1c92 50be c0da 7cbd 8bea 27be
00000370: b5de 10bf 13a5 5abe b148 a43c f1e1 163e
00000380: f6f0 be3d 0e06 52bd dc07 36bd 9c7c dcbe
00000390: 0788 d43d 3af8 1bbd b7ee 1fbe 5792 413e
000003a0: c984 e93d 39bb fcbb 794d 923c 0e35 95be
000003b0: 7717 023e e315 883e abdf 24bd fd7b f4be
000003c0: 8659 0bbe 2d2f 23be 44a1 96be c513 8dbe
000003d0: a3e0 83bd 28e0 e8bc ee24 7dbe 7b94 c43d
000003e0: 5107 90be e0bd 65be 0833 01be a1cb bcbe
000003f0: d8af 8fbe 952a dc3e 0ac8 9e3d 0065 a73e
-0.23286963 0.24995531 0.4281579 -0.37826866 0.50810856 0.3049643 0.19886279 -0.22685167
-0.38008556 0.19104008 -0.2859336 0.0944003 0.07326283 -0.40563354 -0.24917024 0.3747307
-0.28705552 -0.1545406 0.20669597 -0.33297297 -0.17439719 0.07295131 0.26736143 0.02585782
0.019378038 -0.07317583 0.079416215 -0.45888805 0.16312794 -0.063882776 -0.27293167 0.12148002
0.32027432 0.15602382 0.18560578 -0.27422214 -0.004356074 -0.15540758 -0.07946967 -0.04895892
0.3425126 0.34291872 -0.25547522 -0.18441078 0.18390408 -0.103859164 -0.17866147 0.24177481
0.26445636 0.111215964 0.19116816 0.3335357 -0.07025356 -0.085167855 -0.23688824 -0.2555874
0.08674304 0.0089738555 0.3150408 -0.27459404 0.087514244 0.16970903 -0.002286535 -0.16580138
-0.072473906 0.00072715635 -0.2671635 -0.1716168 -0.070211574 -0.23968576 -0.124266446 -0.23936464
-0.34238747 0.31179035 -0.1167818 0.36944032 0.297009 -0.2014158 -0.23877987 -0.12547024
-0.2531133 0.05859027 0.26169208 -0.10881459 -0.1845225 0.41650876 0.42271405 0.24535868
0.16624337 0.17725398 0.14141342 -0.16404289 0.06309052 0.13386929 0.18495755 0.19707277
0.08343454 -0.011902354 -0.111536704 0.10698021 -0.06347514 0.39279866 -0.07445649 -0.17033514
-0.2992929 -0.18893638 -0.13189337 0.11628234 -0.7774322 -0.2606749 -0.09424318 -0.22519122
0.26738933 -0.41524205 -0.039218914 -0.026665019 0.028408235 0.16026926 -0.2574204 -0.23508096
0.14581677 -0.12495829 0.09496854 -0.1096511 -0.42762318 -0.24863933 0.122030675 -0.25752136
-0.14254107 -0.13032949 -0.15019366 0.050879713 0.0024327561 0.3690589 -0.0662225 0.13450691
-0.089637056 0.21608013 -0.23597331 0.25513592 -0.098463334 -0.5077174 0.4081839 0.017037699
0.20454672 0.07544761 -0.20868035 -0.30828923 0.42905402 -0.08991384 -0.124160394 0.19694544
-0.19320567 0.3576627 -0.19269906 0.07656779 -0.2855783 0.17642277 0.25472596 -0.16941188
-0.24779792 0.2517066 -0.14561889 -0.21064167 0.08120413 0.23826273 -0.21484198 -0.16351739
-0.22524019 0.2818151 -0.25182974 -0.023964122 -0.32196158 0.0027675973 0.118598446 -0.38768163
0.18438442 -0.053443976 -0.27829364 0.036062475 0.18165462 0.1383279 0.013558525 -0.4316505
0.09412955 -0.038978044 -0.117554545 -0.11540746 -0.24791244 -0.29906765 -0.16667876 0.09022804
-0.20322454 0.042113435 0.08817604 -0.17047955 -0.1423366 0.37080592 0.07319943 -0.0738476
-0.027011225 0.4908441 0.23202613 0.51661396 0.1963528 -0.31435928 0.06468839 -0.006053338
-0.47086102 0.02616291 -0.16772436 -0.13726705 0.3590572 0.24949735 0.11030907 0.14572778
0.27388772 -0.20368236 -0.061732054 -0.16398065 -0.56589824 -0.21352033 0.020054193 0.14734627
0.093233034 -0.051275305 -0.04444109 -0.4306382 0.10377508 -0.038078524 -0.15618406 0.1890348
0.1140228 -0.0077127484 0.017859207 -0.2914204 0.12704264 0.26579198 -0.04025237 -0.47750846
-0.13608369 -0.15935965 -0.2941991 -0.27554145 -0.064393304 -0.028427199 -0.24721119 0.09598633
-0.28130582 -0.22435713 -0.12617123 -0.36874107 -0.28063846 0.43001238 0.07752998 0.32694244

bias f4 [64]
00000000: 0601 833c 18f4 163f 5864 94be 1195 3cbf
00000010: ea07 b13e 0566 d4be 621b 56be 1579 1ebe
00000020: b385 aa3e 8af3 cdbe 2db4 c43e 1201 9c3e
00000030: 0ff2 91bd a8ad 373f 8908 1a3f 8217 99bb
00000040: 2a1e 82be 22c1 97be b448 bb3e 2483 a9bd
00000050: 9436 113f 7e87 273f 64aa 383e 5a81 d9be
00000060: e50d bf3e 7a79 c5bd a795 a1be c7da 323f
00000070: 0174 3a3e 5dc7 063e ca9d 58be 396b c0be
00000080: cdc6 81bd ad79 30be 3b6b 2a3f 64f4 2a3f
00000090: 304a 0f3f 8a7c 73be 3e72 963e 9061 673d
000000a0: 2ba9 84be 8cef ce3d cc4a e93e 77ce bdbe
000000b0: a6cd eabe 2ef3 103f 215a a93d 97c7 5c3e
000000c0: 42b7 36be 86bb 3abf fccc 2a3f a5d7 2d3f
000000d0: 8f7d c23e d5e4 053e 8eaf b33e 7413 1d3e
000000e0: fbb8 9b3e 975b b63e ea9c 593e b436 14bd
000000f0: 279e b63e 0892 70be 5a47 de3e e33b 803e
0.015991699 0.5896621 -0.28982806 -0.7366496 0.3457635 -0.41484085 -0.20908883 -0.15475877
0.3330513 -0.40224868 0.38418713 0.30469567 -0.07126247 0.71749353 0.60169274 -0.004671992
-0.25413638 -0.29639536 0.36578906 -0.08276966 0.56723905 0.6544112 0.18033749 -0.424815
0.37315288 -0.096423104 -0.31559488 0.6986508 0.18208314 0.13161989 -0.21153942 -0.37581804
-0.06336746 -0.17233916 0.6656987 0.6677916 0.55972576 -0.23777977 0.29384035 0.056489527
-0.25910315 0.10104284 0.45564878 -0.37071583 -0.45860022 0.5662106 0.08269144 0.21560512
-0.17843345 -0.7294239 0.6671903 0.6790717 0.3798642 0.13075574 0.35094875 0.15339452
0.30414566 0.35616753 0.21251264 -0.03618498 0.35667536 -0.23493207 0.43413812 0.2504569

weight f4 [128, 64]
00000000: 5384 1bbe 1505 8bbd a779 67bd 2684 09be
00000010: 5a4a b33d 09b4 473c d2a6 79bd 87a2 89be
00000020: 0814 373d 53fc a9be 7966 cdbd 81d0 d6bd
00000030: 942e b03d 8c66 05be 957b fcbd 0404 67bd
00000040: 209f 303d 7145 f3bd 5fd7 ee3d 5dce b1bc
00000050: 4030 643e 9f12 43bc ec37 6c3d 0327 be3a
00000060: db53 3cbe cea2 8dbd 5e0c 4a3c 37e8 e83d
00000070: bea5 be3d 11ca 83bc 2590 d5bd d93f 623d
00000080: c670 3fbe a192 d43d 0060 2d3e fe76 40be
00000090: 638e 003e fc11 b4bd 0354 ee3d 6979 2e3e
000000a0: c989 8bbe c250 be3d cff8 063e ca73 aabd
000000b0: 3d60 c83d 49ef 473d 340e 96be c47a 40be
000000c0: 3749 f9bd 5dca 0a3e 527b 67be ce25 883e
000000d0: 9b89 fc3d a5f0 043e ea8c 2a3c 6d22 cfbc
000000e0: 96a0 7a3e ba32 dd3d f5df 183e 8055 9e3d
000000f0: 4a05 98bd ff1e 493d c004 343d ec8b e6bc
00000100: c4da 273e 8005 4c3d 7077 ddbc a92b 4a3e
00000110: 4d93 0f3e 60a0 0cbd 10d8 a7bd ec0d 28be
00000120: 6e26 fb3d 0bbf 0ebe c3da 103e 25ca 59be
00000130: c095 a83c 431e c0bd d614 4abd bf8d 7f3e
00000140: e8f9 1fba 29f5 193d a5b6 5abd ff40 813d
00000150: 9506 853d dcd1 2ebd e104 113d 4028 dabc
00000160: 4a17 a63d 1601 823e af62 0cbd 840f 483d
00000170: d81a 953d 1ba2 d33c 5dc3 9abe 807f bcbd
00000180: cf54 edbe f7ad 383e 2fc6 c0bd 0a43 163e
00000190: c254 0b3e 1f8b 73be e264 65bd c95f 31be
000001a0: f70e b1be 74bc 49bd ab61 993c e954 dfbe
000001b0: aecb 8e3e 05c1 e13d 7e36 e2be 7ee6 6f3e
000001c0: 65c7 b93d 8291 89bd 77bb c5ba df1f d73c
000001d0: 560a f83d 9afa 02be 7a06 883c 9f04 f3bd
000001e0: 3de8 273d df02 353d 4e48 f33d fa1d 423d
000001f0: 915c a33c 2b32 b4be d775 b93d a42f 70bd
00000200: a99b 623e d653 3f3d c0bc a6bc 432e 943b
00000210: 3bce bd3c eda1 6b3e 0198 89be e708 283e
00000220: 14f7 1a3e 04ad 7dbe 3940 f23d 2697 01be
00000230: e582 83be 5a89 1c3e 8e7e 5b3d 9d6d 993e
00000240: e009 97be e589 efbd 501e b83c d9fd 8d3d
00000250: 29cb 89bc 7289 083e a1df b4bd fcdb 6d3e
00000260: aadc c13e c297 d3bd 8eba 6bbd 7f8b de3d
00000270: a982 adbc 07da 5cbe 2f2d 74be 8f17 4b3e
00000280: 991f 92bb bcee 0e3d 7863 28be 100e 83bc
00000290: e792 f5bd 730e 9fbd 8241 233e 7800 423d
000002a0: e3e0 6a3e 7297 81bd 21a7 bb3e f7ca 283e
000002b0: 570f 673e f420 6b3d 1e35 90be a6ca 93bd
000002c0: 7448 e3bd 1bdc 613d db46 4fbc 261c 89bd
000002d0: 7499 76be 87e7 10bd 45a0 fabd 0ebe 393b
000002e0: 1a46 b33d 283c 7cbd 04e6 2a3d 2300 0bbe
000002f0: 02a1 a0be 142a 553e a376 df3c dbb1 8fbd
00000300: d721 1e3e 2e76 eebe 963f 25be bc55 60be
00000310: bbb8 2c3e 5a56 4b3d d372 323d d78b 623e
00000320: ef2d 7dbe 92d0 6b3c dc41 7cbe 244e 873e
00000330: 4d72 7c3d 777f 60be 4eb2 97be e7f4 9c3c
00000340: f44b 71be 31b1 b0be d3c3 a2be 2672 38be
00000350: 34a9 bcbe b168 8c3e 4594 cf3d bd38 7e3d
00000360: af6e 1bbe 8529 2b3d 8158 7f3e e483 123e
00000370: 788c a1be d4f0 86bd 333d b23e 532a 1e3e
00000380: f4a8 f03d 3051 b33e 6e9d 543e b965 fe3d
00000390: 9c20 64be 48ee 9bbd 5966 61bd 0f75 423e
000003a0: dc1e 87bd 4b20 24be ffb9 f33d 2bbe febd
000003b0: 693d 953d 0917 b2be 2e6a 1c3d d9a5 6f3d
000003c0: bd96 cd3c 4b5d 073e 3ab3 0d3d 35fe acbc
000003d0: 692f 543e bedf 5f3e 70f1 adbe cbfd ef3d
000003e0: 59a1 0abd 6816 debc 141a 29be 0ed4 163e
000003f0: bcd4 2b3d e6f7 2a3e 4875 4ebc 4b3c febd
-0.15187196 -0.06788079 -0.0565125 -0.13429317 0.08754416 0.01218892 -0.060950108 -0.2688181
0.044696838 -0.3320032 -0.10029311 -0.10488988 0.08602634 -0.130274 -0.12328259 -0.056400314
0.043120503 -0.11878479 0.116621725 -0.021704847 0.22284031 -0.011906295 0.05767052 0.0014507476
-0.18391363 -0.06915818 0.01233205 0.113724165 0.093089566 -0.016087564 -0.10427884 0.05523667
-0.18695363 0.1037953 0.16931152 -0.18795392 0.12554316 -0.08792493 0.11637118 0.17038502
-0.2725356 0.09292747 0.1318085 -0.08322866 0.09783981 0.048812184 -0.2930771 -0.18796831
-0.12172168 0.13553758 -0.22605637 0.26591343 0.12330934 0.12982424 0.010409573 -0.02528497
0.24475321 0.10800691 0.14929183 0.077311516 -0.07422884 0.049101826 0.043949842 -0.028142892
0.16392046 0.049809933 -0.027034491 0.19743218 0.14021035 -0.034332633 -0.081955075 -0.16411561
0.12263189 -0.13940065 0.14145951 -0.21268518 0.020579219 -0.09380772 -0.049336277 0.24956416
-0.00061026076 0.03758732 -0.05339684 0.06311225 0.06495396 -0.042680606 0.035405044 -0.02663052
0.08109911 0.25391454 -0.0342738 0.04884292 0.07280511 0.025834134 -0.30227175 -0.09204006
-0.46353766 0.18035112 -0.094128005 0.14674011 0.13606551 -0.23783539 -0.056004412 -0.17321695
-0.3458173 -0.04925199 0.01872333 -0.4361947 0.2788977 0.11023144 -0.441822 0.2342777
0.090712346 -0.067172065 -0.0015085776 0.026260315 0.121113464 -0.1279091 0.01660465 -0.11866116
0.040992964 0.04419219 0.118790254 0.04739187 0.0199416 -0.35194525 0.09055679 -0.058639184
0.22129692 0.04671081 -0.020353675 0.0045221164 0.023169627 0.23010989 -0.26873782 0.16409646
0.15133315 -0.24773031 0.11828656 -0.12655315 -0.25685802 0.1528677 0.05358749 0.2996644
-0.29499722 -0.11696223 0.022475392 0.06933183 -0.016820507 0.13333681 -0.08831716 0.23228449
0.37863666 -0.1033168 -0.05755096 0.108664505 -0.021180468 -0.21567546 -0.23845361 0.19833206
-0.004459333 0.034895644 -0.16444194 -0.015997916 -0.1199091 -0.07766428 0.15942958 0.04736373
0.2293735 -0.06327714 0.36650947 0.16483675 0.22564445 0.057404473 -0.28165525 -0.072163865
-0.11097804 0.05514155 -0.012651171 -0.06694822 -0.24081975 -0.03537705 -0.122376 0.0028342041
0.08753605 -0.061580807 0.041723266 -0.13574271 -0.3137284 0.20816833 0.02727825 -0.07016345
0.15442596 -0.4657454 -0.16137537 -0.21907705 0.16867344 0.0496429 0.043566536 0.22123657
-0.24724554 0.014392989 -0.24634498 0.26426804 0.061632443 -0.21923624 -0.29628223 0.019159747
-0.2356413 -0.34510186 -0.31790027 -0.18012294 -0.36847842 0.27423623 0.10135702 0.06206583
-0.15178941 0.041787643 0.24936105 0.14308125 -0.31552482 -0.06588903 0.34812316 0.15445833
0.11750975 0.3502288 0.2076318 0.12421746 -0.22278064 -0.07613808 -0.055029247 0.18989967
-0.06597683 -0.16027944 0.1190071 -0.124386154 0.07287104 -0.347832 0.0381872 0.058507774
0.025096292 0.13219182 0.034594752 -0.02111731 0.2072121 0.21862695 -0.33973265 0.11718329
-0.03384528 -0.027110294 -0.16513854 0.1472933 0.041950926 0.16696128 -0.012601204 -0.12413844

bias f4 [128]
00000000: cb27 c53d 2572 8439 b82a 03be bd02 d0bd
00000010: 4cea 24be 6ed7 cbbd 8832 bdbd b90e 573d
00000020: b4ae 533b 4061 51be aec1 743c 26ac 60be
00000030: b2c9 d3bd d8b4 663e 692f 5c3e 1ec3 aabd
00000040: 35be 0d3e 668d 78bc 15d3 823e 5d7c 10be
00000050: 80ab dd3e f5ec d1bc 035b 14be 5cf4 6f3d
00000060: 4aac a7bc 472d 783e 8824 963e 61da e33d
00000070: aa00 d23e c7e5 cf3e baaf a13d 1b73 a63d
00000080: 6df0 443e 8667 783e b516 b73d 523a a83e
00000090: 23ce de3e 0850 0fbd 4be3 813e ab6b b83c
000000a0: 98a4 ed3d 2397 f23d 82bc e83c 4d52 903e
000000b0: 0bbd a4bd 0a4f 5e3e 5e20 9fbe fd37 753c
000000c0: a5f2 91bd 9c5e 153d c1ad 1e3e e317 d73e
000000d0: b089 f23e 6305 82bc 228c f1bd 63e4 1b3e
000000e0: 450a c13e 9e40 a03e 9b78 0a3e 866f bf3e
000000f0: 8430 b4bc 9f75 553e a97e f9bd 80fb 45bd
00000100: dbf8 23be 255c e5be 3c95 6e3e c579 073f
00000110: a9d3 05be 5e10 d4bc 90e1 7e3e 0ba0 dabd
00000120: 6903 973e 057c 713e 63d9 7a3d 5c8f 2b3e
00000130: 563b de3e cdfb d23e e541 babd c729 743e
00000140: fae0 b13d 8ac4 c03c 1bd5 abbb 0679 9d3d
00000150: 3eeb 943e 4607 98bc acb6 883e 3a2e e73e
00000160: f84b 113e 1203 d03c 0b9f 7dbd cbb6 c5be
00000170: 9995 3cbc 1e4f 503e 39f8 d73e c7c0 953d
00000180: 0097 623e b5ea 01be fece 2c3c 55d4 a73e
00000190: 0710 49bd 1229 0abe 4c2b 143e 318a 583e
000001a0: daa6 e2bd b3d1 203e 8b11 98bd e483 aabc
000001b0: 93cf b3bd e047 00be 45fd ac3d 080d a2bd
000001c0: 0b59 923d 40c0 8abe 130f 843e f570 ab3d
000001d0: 153b 46be b0a5 4e3e 8722 76bd ce7d cebe
000001e0: b024 9c3e e5c1 8bbe 68fc 523e bea4 053e
000001f0: 815a 34bc 4b05 aebe 3db0 78bc 9360 0a3e
0.096267305 0.00025262046 -0.12809265 -0.10156772 -0.16105002 -0.09953199 -0.09238154 0.052504275
0.0032300176 -0.20447254 0.014938755 -0.2194067 -0.10341205 0.22529924 0.2150246 -0.08337997
0.1384209 -0.015170431 0.25551668 -0.14109941 0.43294907 -0.025625685 -0.14487843 0.05858265
-0.020467896 0.24236022 0.29324746 0.11125637 0.41016132 0.40604994 0.07894845 0.081274234
0.1923234 0.24258241 0.08939878 0.32856995 0.43516645 -0.034988433 0.25368723 0.022512278
0.116036594 0.11845233 0.0284102 0.2818779 -0.080438696 0.21709839 -0.31079382 0.014966962
-0.07126359 0.03646718 0.1549597 0.42010412 0.47370672 -0.01587171 -0.11794306 0.15223841
0.37703148 0.312993 0.1352257 0.37389773 -0.02199579 0.2084565 -0.12182362 -0.048335552
-0.160129 -0.44796863 0.23299116 0.5292018 -0.13069023 -0.02588671 0.24890733 -0.10675057
0.2949479 0.23582466 0.061242472 0.16753906 0.43404645 0.41207734 -0.090946 0.23844062
0.08685489 0.023531217 -0.00524391 0.07689099 0.29085726 -0.018558156 0.26701868 0.45152456
0.14189136 0.025392089 -0.061919253 -0.38616022 -0.011510276 0.20342681 0.42181566 0.0731216
0.22127914 -0.1268719 0.010547398 0.32779184 -0.04908755 -0.1349223 0.14469641 0.21146466
-0.11066981 0.15704994 -0.07425221 -0.020814843 -0.08779826 -0.12527418 0.08446745 -0.07912642
0.0714589 -0.270998 0.2579275 0.08371154 -0.19358476 0.20180392 -0.06009152 -0.40330356
0.3049674 -0.27296367 0.20604098 0.13051125 -0.011007906 -0.33988413 -0.015178737 0.13513403

weight f4 [784, 128]
00000000: c844 b2bc 32c2 7dbd cd5c 57bd 98c6 9fbe
00000010: 0e8d 1cbd 3fb2 92bc 2b49 3dbd 2e15 293d
00000020: a600 ef3c 8577 bdbc 3630 90bd 8da3 a9bd
00000030: 5670 60bb 6db8 a8bd d3aa bbbd d159 0e3d
00000040: abf6 acbd 422b 8abd b0cf 43bd 42f0 a53d
00000050: c89a a7bd c698 4b3b 3cee 0c3d 3607 b3bd
00000060: 3592 6ebd 2f40 54be e811 703b 8ac5 8ebd
00000070: 2bcb 5a3c 331e 1a3d ff72 84bd ed33 cbbd
00000080: f0cc cbbd c77a adbc 1667 fcbd f67f 93bd
00000090: 72e4 7dbd 0827 e1bd 7f52 40bd 1a29 423d
000000a0: b568 c8bd f8a4 b5bb 9c87 e1bd 5395 ebbd
000000b0: 1ccb 76bd 9d43 43bd 319c 9fb7 4ea7 8abc
000000c0: 25bf 91bd 49f8 7a3b 2159 0ebd 4a2f 9cbd
000000d0: fbd6 43bc 93ce 24bd fbd3 3dbe 04bc b0bc
000000e0: fcca 393d 0f5b 13bb fa8f 9cbd ad95 e4bd
000000f0: ca14 b9be 71f5 f73b 1a50 03bb 2519 80be
00000100: f512 a4bd bd44 c2be fdc0 e4bd fa51 d4be
00000110: a9d8 3c3d 7865 6ebd 625c b4bd 8f92 d9bd
00000120: bcf4 79bd 918b a33c 6250 14be 1441 14bd
00000130: d1d0 e8bd 6fb4 19bd 5d7b c0bc d52b 163c
00000140: 5e0c 853d c3ad 8f3d a194 94be 38d7 da3c
00000150: 4801 663d d3ef 6c3c 994c 78b9 9f36 283d
00000160: 42e7 b4bd cefe 6e3d 6505 5bbd bdcc 4439
00000170: 5fbc f83a f6b1 dcbd bab9 543d 8b5a 8fbd
00000180: 53e9 6bbd a4bf fa3c f450 50bd 582f 7ebd
00000190: b53d ffbd 2782 49be e196 30ba 2dc6 8bbe
000001a0: 4cd2 8dbd cd88 c8be d270 45be 4e2a 2f3d
000001b0: 971f 0c3b d771 76be 9110 b8bd 7a74 233d
000001c0: 03ad 453d 7336 abbb e514 8e3d f622 9fbd
000001d0: f53a a4be 5acd be3c 4334 703d ec22 6ebd
000001e0: da97 33be 91ba c0bd 4d50 16bd a6ac 54bc
000001f0: a649 a83c 74bf b9b8 5845 943d 76f9 723d
00000200: c434 c8bc fda6 2ebd 1e39 11bc 24f3 90be
00000210: 90d1 673d 9f14 c1bd 7437 b5bc 37c0 ccbb
00000220: 327e 2b3d 258e 00bc 666f 99bd 95e6 653c
00000230: 2bf5 453c 135a 4abd 107d 3a3b 9a2e 1fba
00000240: fd9a 9e3c d9a1 09bd 9e08 c1bd e492 b3bd
00000250: 68a6 493d 55a7 96bd 5e9b 0f3d ae25 74bd
00000260: 898f 8e3d 18f2 88be 118f 62bd 6deb 253d
00000270: e55b 323c ff12 de3c 6ad1 f03c dadd a1bd
00000280: 5041 1ebd ecd4 443d 3d70 49be 76c5 383d
00000290: 1c8a febd 38de 2ebd 615a 68bb 9e78 c7bd
000002a0: 1fd5 3abd bbb6 b7bd 484d e7bd 17b9 d13c
000002b0: afdb 6ebb 76fa 02be c60d 00be 0471 623d
000002c0: ffe6 d7bc 3300 adbd 9d56 d9bc 335b 06bd
000002d0: a24a b4b9 8089 c3bd bcfe 51be e166 25bd
000002e0: 3b71 10bd 1a91 06bd 4a2f a73c 9a24 423d
000002f0: 3bf8 e1be 6fdb fabc e29a f7bd ca24 81be
00000300: f56a 96bd 4dfd 4fbe 1ef9 ba3c 6cee 0fbf
00000310: 99e4 6bbd fbf7 6b3d fb76 06be 6427 a9bd
00000320: 0f8d a6bc cf96 7ebd 52e0 eabd 27b3 413d
00000330: adba 0ebd 9ec1 31bd ddc8 adbd 2978 fabd
00000340: ff70 7ebd a951 293c 3034 97be 38c2 53bd
00000350: bac2 a23c a48f 093d 279e 813c 32b5 f1bd
00000360: 0502 bcbd c0f8 a23d 754e a13b 8dc8 dabd
00000370: f3dd 21bd 3fdc 0a3d d7a6 51bd 2a9e 2d3d
00000380: 3508 c5bb 620b b3bd 9ff6 bbbd 5fb2 2cbd
00000390: aeaa e2bd af43 1dbe b530 b5bd 8765 93be
000003a0: 7a27 34bd 7473 a6be a1cf c3bd 94c1 02bd
000003b0: b54b 83bd fb9a 4abe a1ee b3bd 4182 533d
000003c0: f019 6dbd 98d7 6a3c ac9e dcba 1cec 953d
000003d0: 61a0 a4be 04e6 023d 05fc a3bd 85bb 94bd
000003e0: f961 52be f249 bbbd 33a6 8cbc 3647 b8bc
000003f0: cbc9 9a3d e223 c73c cd85 4e3d 90f2 d03c
-0.021761313 -0.061952777 -0.052578736 -0.31206203 -0.038220458 -0.01790726 -0.046212357 0.041279964
0.029175114 -0.02312828 -0.070404455 -0.08283148 -0.0034246645 -0.082383014 -0.091634415 0.034753624
-0.08445486 -0.06746532 -0.047805488 0.08102466 -0.08183819 0.0031066402 0.034406886 -0.0874161
-0.058244903 -0.20727609 0.0036631767 -0.06971271 0.013354103 0.037626456 -0.06467246 -0.099220134
-0.09951198 -0.021176709 -0.123243496 -0.07202141 -0.06198544 -0.10993773 -0.046953674 0.04740248
-0.09785596 -0.0055433474 -0.110121936 -0.11503091 -0.060252294 -0.047671903 -1.902701e-05 -0.01692548
-0.07116536 0.0038294962 -0.03475297 -0.07626207 -0.011953111 -0.040236067 -0.18537895 -0.021574028
0.045359597 -0.0022484695 -0.07644649 -0.11161361 -0.36148673 0.0075671007 -0.0020036758 -0.25019184
-0.08011428 -0.37943068 -0.11169622 -0.41468793 0.04610506 -0.058202237 -0.08806683 -0.10623657
-0.061024413 0.019964011 -0.14483789 -0.036194876 -0.113679536 -0.03752559 -0.023496324 0.009165724
0.064964995 0.07015564 -0.29019645 0.026713952 0.056153566 0.014461475 -0.00023679658 0.041067716
-0.088331714 0.05834847 -0.05347194 0.00018768288 0.0018977037 -0.10776131 0.051934935 -0.069996916
-0.057595562 0.03060896 -0.050858453 -0.06205687 -0.124629416 -0.19678555 -0.000673635 -0.27299634
-0.069248766 -0.3916687 -0.19281319 0.042764954 0.0021381134 -0.24066864 -0.08987535 0.039906003
0.0482607 -0.0052249967 0.06937579 -0.0777034 -0.3207623 0.023291279 0.05864359 -0.058138773
-0.17538396 -0.09410585 -0.036697675 -0.012980616 0.02054293 -8.857148e-05 0.07239789 0.059319936
-0.024439223 -0.04263972 -0.008863715 -0.28310502 0.05659634 -0.09427761 -0.022121169 -0.0062484997
0.041868396 -0.00784639 -0.07491951 0.014032026 0.012082378 -0.049402308 0.002845589 -0.0006072313
0.019361014 -0.033601616 -0.09425472 -0.087682515 0.049230963 -0.07356135 0.03506028 -0.059606247
0.06960971 -0.26747203 -0.05531222 0.040507723 0.010886167 0.027108667 0.029396731 -0.07903643
-0.038636506 0.04805462 -0.19671722 0.04511019 -0.12428686 -0.042692393 -0.003545426 -0.09739803
-0.045613404 -0.089704 -0.11294037 0.025600953 -0.003644686 -0.12790856 -0.12505254 0.05528356
-0.026355265 -0.084473036 -0.026530558 -0.032801818 -0.0003438788 -0.095477104 -0.2050733 -0.040381316
-0.035264235 -0.032853223 0.020408291 0.047398187 -0.44134697 -0.030622212 -0.120900884 -0.2522338
-0.07344619 -0.2031147 0.022823866 -0.5622318 -0.057591055 0.05760954 -0.13131325 -0.08259466
-0.020330934 -0.06215554 -0.11468567 0.047289994 -0.034845997 -0.04339754 -0.08485577 -0.1222995
-0.06211948 0.010334411 -0.29532003 -0.051698893 0.019868243 0.033584252 0.015822483 -0.118021384
-0.09180073 0.079576015 0.004922683 -0.10682783 -0.039518308 0.03390145 -0.0511845 0.042387165
-0.0060129412 -0.087424055 -0.091778986 -0.042162295 -0.11067711 -0.1535785 -0.08847181 -0.28788397
-0.04398296 -0.3250996 -0.095610864 -0.03192289 -0.06410924 -0.19785683 -0.08785749 0.05163789
-0.057886064 0.014333628 -0.0016831956 0.07320425 -0.3215361 0.03195764 -0.08007053 -0.07262329
-0.20545186 -0.09144963 -0.017169094 -0.022494894 0.0755802 0.024309102 0.05042057 0.025506288
