HW5/model_image_classifier.pt (torch, 841832 bytes, 8 tensors)

weight f4 [16, 1, 3, 3]
00000000: 5b37 55be a37f a4be 7cd6 e5bd 83c8 8dbe
00000010: 04e7 b83c 5af8 a7be 1cf8 51be 04c0 ae3a
00000020: 8ff0 613e 4e6d 0cbc 34af 77bd 2345 173f
00000030: ec09 d93d 3115 563e 0b64 1cbf f5ab 353e
00000040: 353b 91be b4a9 cdbe d62f 5b3c a526 c93e
00000050: 640e 88be 1f71 903e 6315 d8bd 1420 41bf
00000060: 0e83 08be 1225 c93e f027 6b3d 51c0 28bf
00000070: 9600 c9be 7aff a3be b0b9 203f 1cb1 1b3f
00000080: 9c6d d2bc 8243 fcbd 17ce b1bc bad5 70bf
00000090: 8760 253f 3a3f 6d3d 25c4 25bf ead8 09bf
000000a0: 7a13 2ebf d5ad 603d 6310 08bf ff6e 5f3e
000000b0: c013 be3e cf54 35be 120e 88bc cb86 74bf
000000c0: 53e4 1cbf 9b63 f5be 8343 d8be 8baf 7ebf
000000d0: 9c0b 64bc 75b9 0a3f 55a2 94be 46e8 383d
000000e0: 7f4a 76be 258e 653e 07c6 ddbc 2b3e 783e
000000f0: 2698 8ebc c58f 033d 2b30 e9be aba9 a93e
00000100: e08c b83e 6b7d d93e e5c7 04bf 18db a13d
00000110: 02d4 5e3e eba9 12bf 2528 61bf f861 3bbf
00000120: b0b7 d4bd ad21 bfbe 0a32 0cbf 130c 89bb
00000130: c63c 59be 998b c5be 8e6c 91bc 0371 5b3e
00000140: 4951 80bd 3ab7 8b3e 0481 bfbe a591 d7be
00000150: d7a7 183f 3b85 c2be b7a6 1abf 8209 423d
00000160: 0499 0ebc 16fc 8a3e 4977 6cbe 20fc 68bf
00000170: 0b03 233f 8d0c 0b3f 89e7 5fbf 8f2a 25bf
00000180: d63e 083f 0f2a 843e 1580 9abe 5694 1b3e
00000190: 0b1c e73d fb82 c63d 0d47 8cbe e86f c93e
000001a0: cdf6 353e 59eb 31bf c93c 10bf 83a1 01bf
000001b0: 5cb3 07bd 8513 bdbe b87a 51be e4d2 be3e
000001c0: b26f 5c3e 1d71 953e fa1d dc3d 4007 14bf
000001d0: 34ad 8ebe 198d 32bf 1700 fdbe 6a4a 93bf
000001e0: 888d 22bf 8827 d2bd 42e1 b6be 2d25 adbe
000001f0: c545 afbe 5b6a 16bf 5ec6 00bf 8364 31bf
00000200: c688 e7be 8b45 00be e349 3fbd 504e 493e
00000210: 4e8a ce3e 678c 043f 91da 073e 7455 60be
00000220: 4b5a 6ebe 6e65 033f ebdc 90be 55f1 563d
00000230: 23c3 a23e 2af7 523d 9ae8 33bc 51d6 ce3e
-0.20821898 -0.3212863 -0.1122255 -0.2769204 0.022571094 -0.32806665 -0.20504802 0.0013332372
0.22064422 -0.008570982 -0.06046982 0.5908987 0.105975956 0.20906521 -0.61090153 0.17741378
-0.28365484 -0.40168536 0.013378104 0.39287296 -0.2657348 0.28211305 -0.10550954 -0.7543957
-0.13331243 0.39286095 0.057411134 -0.6591845 -0.3925826 -0.3203085 0.62783337 0.6081712
-0.025687031 -0.123175636 -0.021704717 -0.9407612 0.64600414 0.057921626 -0.6475242 -0.5384661
-0.6799847 0.05485328 -0.53150004 0.21819685 0.37124443 -0.17708133 -0.016608272 -0.9551818
-0.61285895 -0.47927555 -0.42239007 -0.9948661 -0.0139187835 0.54189235 -0.290301 0.04514339
-0.24051856 0.22417505 -0.027071966 0.24242465 -0.017406534 0.03211953 -0.45544562 0.3313726
0.3604498 0.424785 -0.51867515 0.07903117 0.21760562 -0.57290524 -0.8795188 -0.73196363
-0.10386598 -0.3733038 -0.54763854 -0.0041823476 -0.2121459 -0.38583067 -0.017751958 0.2142983
-0.06265504 0.27288228 -0.3740312 -0.42103305 0.59631103 -0.37992272 -0.60410637 0.04737235
-0.008703474 0.2714545 -0.23092379 -0.9100971 0.6367652 0.54316026 -0.8746267 -0.64518064
0.5322088 0.25813338 -0.30175844 0.15193304 0.11284646 0.09692951 -0.27397957 0.3934319
0.17769928 -0.6949974 -0.5634275 -0.5063707 -0.033130035 -0.36928955 -0.2045697 0.37270272
0.21526983 0.2918786 0.10747905 -0.5782356 -0.27866518 -0.6974655 -0.4941413 -1.1507084
-0.6349721 -0.10261446 -0.35718733 -0.33817425 -0.34232917 -0.58756036 -0.50302684 -0.69293994
-0.45221537 -0.12526529 -0.046701323 0.1965878 0.40339893 0.51776737 0.1326697 -0.21907598
-0.23276632 0.51326644 -0.28293547 0.052476246 0.31789503 0.051505245 -0.0109807495 0.40397885

bias f4 [16]
00000000: dd7e 94be f557 b6bd 6a78 eabe 68a9 f63c
00000010: ccad 63be 27a6 9d3d 5937 86be 2b71 81bd
00000020: b10e 66be 483d b1be 850a 51bd 83c1 79be
00000030: bb36 54bd 37cd 5b3e 8530 14be 8fcd ffbe
-0.2900304 -0.08903495 -0.45794994 0.030110076 -0.22234267 0.07697707 -0.26214102 -0.06320413
-0.22466542 -0.34617066 -0.051035423 -0.24390225 -0.051810008 0.21465002 -0.14471634 -0.49961516

weight f4 [32, 16, 3, 3]
00000000: c253 323d 006b 2f3b 1628 073d fec6 3abd
00000010: 5489 a43c c04a 48bd 55b9 9dbd 3990 97bc
00000020: 12ce 1dbd 8e02 fabd 0a00 2bbe a562 e1bc
00000030: 6985 59be 275b 8fbf 4ff6 f93e 8d0e 213e
00000040: c1a8 9c3a 8f48 cbbe 2205 1cbf a021 51bf
00000050: 2916 47be 6861 8abe 896e 48be 90d1 2ebf
00000060: eb4c b83d 46fc 0dbe dac2 8e3e 64a6 683e
00000070: 5c02 7fbc 1185 01be d87e 1f3f 71f6 febe
00000080: a50a cabe 2d78 4b3d efea a3be 3abf 7a3e
00000090: c73f 4abe 7735 d53c 57ac b83e a69d 02bf
000000a0: 02d8 64be cdc8 a0be dc42 8bbe f95d 213f
000000b0: 7c90 5dbc ed00 41bd 0a60 f5bd 5f51 20bf
000000c0: 42ab e3bd 82cf 4f3e 0f3f c6be d79c db3d
000000d0: 108f 003f 9cb9 873c 01f5 d2be 51a2 f9be
000000e0: 85b4 babe f705 c4bd bd33 9dbe 5745 9abe
000000f0: e29c 78bd 929c 5dbe 52ba 7c3e 23a8 2f3e
00000100: 04c4 053e 01f9 433e 712c d2be aa08 a6bf
00000110: 3ad9 273f 9b4f 50bc 6a1e 69be fd2e 52bf
00000120: c67e 9cbc a90b 2bbd 135b 2fbf f34c ffbd
00000130: 1828 1c3e 267c b13e 3f1a e1bd 2a7d 70bd
00000140: fabd cc3e 0fe2 1dbf 8f94 c1be f262 56bf
00000150: 29c8 9e3d 4105 c0bd 2375 1abe 13ed 5b3e
00000160: 4abb 0e3e 3bec 073f 4029 be3d b730 dd3e
00000170: e00d d93d aae9 283e 9177 bbbe 5629 843f
00000180: 3591 763e fbb4 cabd 5e07 023f 0b27 d33c
00000190: d1a6 2a3e 0d36 1d3e b6ff 87be 3a3b 28bf
000001a0: a6d2 023f 25f9 0a3d a2d5 7c3c 6569 87be
000001b0: 7233 a4be 5ed9 98be 9557 1abf 068c ff3d
000001c0: 0c6f 2dbe 7d39 6bbe df1f 54bd 0e86 87be
000001d0: 8ba2 ac3d 0909 d2bc 2c34 96bd c68a 14bf
000001e0: 5513 abbd 40bd 6cbe 2c0d d7be 2b3a 013e
000001f0: d840 fdbe 88a7 20bf 40a6 e3bd ce96 d5be
00000200: aa4a 2cbf 3a36 b0be 96fe 73be 950a 75be
00000210: 67f7 06bf c4e8 9d3e 9c3d 333f 8e74 2abf
00000220: 486b 33bf 361d fe3e a0dd e6be ea39 f6be
00000230: dd44 5fbe ed42 d9be 3ecb 293e b119 aabb
00000240: 78f0 093d 0df6 5fbd 05ae bebc f735 9d3d
00000250: d26b ef3c 01da 2bbd 4833 17bd 5f5f d5bc
00000260: 473b 08bd 7692 c8be c5b5 ecbe 0af6 f23d
00000270: 2996 933e b9b0 493e 8905 a13e cc9f 3ebe
00000280: fe87 7dbe 3907 37bf 388a 56bd 669d 42bc
00000290: b4c3 b33d ee83 b23d bd7c d53d 0e68 1bbe
000002a0: 27b7 93be 9c5a cabe bbae 41bf ff6e 4ebc
000002b0: 1a67 103f b7c1 c33e 3612 1cbf 312d 2e3e
000002c0: 668c babe 47a1 383f 5abe c0be 54bb 3e3e
000002d0: 4d9f 2f3c afca 033f 6a63 d6bd 2c8e a7be
000002e0: 310c 2abe a9ce 9d3e 6c4a 2dbf 632a 3b3e
000002f0: 5cb7 0e3e 35c5 b43d e2f1 17be b663 aabd
00000300: db8e b5be 1eb9 c6be 94e5 913d 9224 d2be
00000310: dfdd 1d3e 764a 2c3e ec00 35bc 1ca7 543d
00000320: 1548 dc3d 37bc e5bd 297f 4fbd f909 a8bc
00000330: 2fdf 5ebe 820f c0be 5b6a 3fbe 8c9f 23bf
00000340: b9f6 0bbf 1b5c 0cbe 870e 1f3f 4b97 dc3e
00000350: a621 ec3e 8f51 17be 7bc2 20be a4d5 e2be
00000360: 40a3 1b3e a2dd 793d 95bf a3be e530 bebd
00000370: bfd7 c0bc 947d f2be 60d6 373e f67a ff3c
00000380: 8dbc 973e 0581 34be afea c33d 7faa 23be
00000390: a12d c7be 5996 b9be 825f cbbe 5fad a53e
000003a0: eadf 6ebe 6fee 4c3d c694 d3be eeda fb3d
000003b0: 76b2 65be 65db f2be ad5d 06bf d00d 74be
000003c0: f996 d53e a39c a63d 9daf 473f 9063 b3be
000003d0: 9424 bebd b802 173e a51e a53e 3d4c 5c3e
000003e0: ff2e da3d b267 04be 8c97 e9be 310e e8be
000003f0: 4bbc 0d3e 6587 6d3e 9a38 5c3e 63cf 01bd
0.04353691 0.0026766658 0.032997213 -0.04559993 0.020085014 -0.048899412 -0.07701365 -0.018501388
-0.038526602 -0.122075185 -0.16699234 -0.027512858 -0.21242298 -1.1199692 0.4882073 0.15728207
0.0011952148 -0.39703795 -0.6094533 -0.8169193 -0.19442047 -0.2702744 -0.19573416 -0.68288517
0.08999046 -0.13865766 0.27883035 0.22719723 -0.015564527 -0.12648417 0.62302923 -0.49797395
-0.39461246 0.049675155 -0.32015178 0.2448701 -0.19750892 0.02602647 0.36068985 -0.510218
-0.22348025 -0.314032 -0.27199447 0.63034016 -0.013523217 -0.047120024 -0.119812086 -0.6262416
-0.11116649 0.20294002 -0.38719985 0.10723274 0.50218296 0.016567998 -0.41202548 -0.4875665
-0.3646585 -0.0957145 -0.30703536 -0.30131027 -0.06069649 -0.21641758 0.2468045 0.17153983
0.13063055 0.19137956 -0.4104953 -1.2971394 0.65565836 -0.012714292 -0.22765508 -0.8210295
-0.019103419 -0.041759167 -0.68498343 -0.12465849 0.1524967 0.3466503 -0.10991334 -0.058713116
0.3998869 -0.61673063 -0.37808654 -0.8374473 0.07753021 -0.09376002 -0.15083747 0.21477155
0.13938633 0.53094834 0.092852116 0.4320123 0.105983496 0.16495386 -0.3661466 1.0325115
0.2407883 -0.098978005 0.5079249 0.025775453 0.16665198 0.1535265 -0.2656228 -0.6571537
0.51102674 0.03392901 0.015431793 -0.26447597 -0.320705 -0.29853338 -0.6028989 0.12477879
-0.16936892 -0.22971149 -0.051788207 -0.26469463 0.0842944 -0.025639074 -0.0733417 -0.5802425
-0.08353297 -0.23119068 -0.42002237 0.12619846 -0.49463534 -0.6275563 -0.11115694 -0.41716617
-0.6730143 -0.34416372 -0.23827586 -0.23929818 -0.52721256 0.3084165 0.70015883 -0.665841
-0.70085573 0.4963166 -0.4509096 -0.4809106 -0.21803613 -0.42433873 0.16581437 -0.005191051
0.033676594 -0.05467801 -0.023276338 0.076763086 0.029226217 -0.04195595 -0.03691414 -0.026046453
-0.033259656 -0.3917424 -0.4623243 0.118633345 0.288255 0.1969632 0.31449535 -0.18615645
-0.24758908 -0.71495396 -0.05237791 -0.011878347 0.08777562 0.0871657 0.104241826 -0.15176412
-0.28850672 -0.39522254 -0.7565724 -0.012599706 0.5640732 0.3823373 -0.6096529 0.17009427
-0.3643524 0.7212109 -0.37645227 0.18626148 0.010719133 0.51481146 -0.104681805 -0.32725656
-0.16606213 0.30821732 -0.67691684 0.18277888 0.13937134 0.08826677 -0.14838365 -0.083197996
-0.35460553 -0.38813108 0.07123867 -0.41043526 0.15416668 0.1682528 -0.011047583 0.05191718
0.10755936 -0.1121754 -0.05065838 -0.020512568 -0.21764825 -0.37511832 -0.18692915 -0.63915324
-0.54673344 -0.1370701 0.6213154 0.43084177 0.46119422 -0.14777206 -0.15699188 -0.4430362
0.15198994 0.06100238 -0.31982103 -0.0928667 -0.023540376 -0.47361434 0.17952871 0.031186562
0.2963604 -0.17627342 0.09566247 -0.15983008 -0.38902 -0.3624752 -0.39721304 0.32358834
-0.23327604 0.050032075 -0.41324443 0.12297617 -0.22431359 -0.4743301 -0.5248669 -0.23833394
0.41716745 0.08135345 0.7800234 -0.35036898 -0.092843205 0.14747131 0.32249942 0.21513458
0.10653495 -0.12930182 -0.45623434 -0.45323327 0.1384136 0.2319618 0.21505967 -0.03169192

bias f4 [32]
00000000: 691d bbbe 9b71 9bbe 4047 8cbe 783a a5be
00000010: e7db 01be dda9 b5be 3470 13be a67c 87be
00000020: 7bf9 81be 6014 cd3c d0d8 99bb ca74 f6bd
00000030: 8ec0 97be db77 abbe 4ce7 2dbe 29f8 82be
00000040: 09cb b9bc 48fb 71be 189c a9be 7385 b7be
00000050: 6b02 6cbe 070c e5be 1df9 70bd f6d9 81be
00000060: 3d51 eabb 7973 33be 26d8 42be 0404 97be
00000070: b70d ffbe c682 f9be c5a2 153e 05b5 47be
-0.36545876 -0.30360112 -0.2739811 -0.3227117 -0.12681542 -0.35481158 -0.14398271 -0.26462287
-0.2538565 0.02503413 -0.0046950355 -0.120339945 -0.29639095 -0.3348988 -0.16982764 -0.25579956
-0.022679823 -0.23631012 -0.33126903 -0.35844 -0.23047797 -0.4473574 -0.058831323 -0.25361603
-0.0071507976 -0.17524518 -0.19027767 -0.2949525 -0.4981515 -0.48732585 0.14612873 -0.19502647

weight f4 [128, 1568]
00000000: b183 12bc fe0a d9be 033d 7b3e ce49 b63e
00000010: 4051 ff3e 8f4b 863e dade 783c 6561 c1be
00000020: d90f 063f 0fe7 c7be 473b debe 5a80 f1bd
00000030: 984f c5be 41f6 adbe 0d57 1fbe 238b 033e
00000040: 1352 8ebe fcae 1abf 9967 53be 5b05 2dbf
00000050: 89d4 0bbe dd16 bfbe efcf 4ebe 0933 6abe
00000060: 8673 a8bd 54e6 563e e2a2 94be b0b4 07be
00000070: 2d47 aa3e 8666 30be 9a41 6cbe ffcd 74be
00000080: c5c6 afbe 6d8a a43e b244 813b 23d5 09bf
00000090: be43 f73e d983 86be 393a 753e 4949 8c3c
000000a0: 1206 9e3e 36e3 753b 85b3 b43e 07fa faba
000000b0: aed7 18bf 82fa 1ebe 6d54 b6bd aadc 6bbc
000000c0: c6b9 71bd c2af c93c b865 84be df65 963d
000000d0: cd62 c8bd d652 1b3f d61b b43e 8d85 273e
000000e0: 1dbd 1a3e a85c 9e3d 71eb 073e fc16 49be
000000f0: 80cc c7be 2235 afbe f210 90bc e0f4 e8bd
00000100: f695 973c bf1c bb3d 5fda dfbe 47a8 2dbf
00000110: 962b b3be c5ac a5be f2a9 35be 0dee c3be
00000120: 17b5 833c 4648 2cbe 7bdd ebbe 1e4c bdbe
00000130: eb1d dfbd 587c b8bd 9348 05bf bd1c e8be
00000140: 6775 fabe 80cf a73b 8a47 873e 8089 80be
00000150: b64a 893e 2bc8 923c 1dbd 933e 3802 b43e
00000160: 6621 d03e b23c cf3e 28cf 8e3e f15b 00be
00000170: 8397 e03d 05eb f6bd 9314 c0be 5a2b 15be
00000180: 78a1 6c3e 6c2c 90bc 6550 39bc aab8 093e
00000190: 5a7e 7e3e b01a 1e3e 5c6d d7bd d0e8 29be
000001a0: 70ab c0bc 5091 243e 1756 b93e a5a1 b13e
000001b0: 4b28 093e dbea 173e 0b34 03be 608a 413b
000001c0: aa98 6dbd 5b50 823e aa40 c33d 6a68 07be
000001d0: 9fbd 5b3e 177c ca3d 7520 b6bc 6c8f 893a
000001e0: b0a5 933d c268 893e 6cba a93c befe dc3d
000001f0: ba2c 12bd 3499 c53c 01d6 bebd 9d75 7b3d
00000200: 6359 c73d a010 9e3e d8f5 71bc 3353 db3d
00000210: ea87 d0bd 5c81 263e 1a87 473e 2aad f83d
00000220: db09 9e3e c4c4 fd3c 3671 073e 6fa6 433c
00000230: dc57 093c 26fd 64bc 6b64 043e 8d87 053e
00000240: 74c2 92bb bd9b f5bb 35fc 1bbc 0ec7 053d
00000250: 4466 fc3c 0158 283e a0b9 3a3e b9ce babd
00000260: 9f46 abbc 0250 82bd 1dc7 793c 60f6 49bd
00000270: 6107 84be 5817 95bd c298 f3bc e63a ffbe
00000280: ac08 acbe 6694 a0bc 9f66 89bd 401c 7bbe
00000290: 08ea 4cbe b0f3 c2be 32dd 23bf 90ab 5cbe
000002a0: a6d6 423a a201 88bd a26e 14bd 83f1 5ebe
000002b0: 78d1 f6bd 54c0 b8be efb2 87be 6297 88bc
000002c0: dfd6 943d 7f36 553d 94ac d4be 17ea a83e
000002d0: 8586 893e dd9f a03e 3935 febd eba3 ecbc
000002e0: 2b31 ef3c 2ce4 cabc 91c8 043f 6be4 2e3e
000002f0: 0d80 38be 9e91 3f3d e6f3 363e 0da8 bbbd
00000300: 8b5f 4ebe 4d49 643e 2884 103f db90 9f3d
00000310: c8fc ad3b 5254 06bc 9dda c9bc 3cbd 4cbc
00000320: 8114 cfbb bd50 58bc e63a 90bc f699 41bc
00000330: 74b3 9fbb 7903 4f3d 203b 613c 3197 c63b
00000340: 4260 c03c 8058 ef39 bc8e 373c c9ad a0bc
00000350: 5431 0a3c 6929 4bbc 20aa abbc 7095 813a
00000360: 4f89 76bc b0d6 4a3c c8ad 46bb ccb5 a13c
00000370: 4bba cdbc 8006 3e39 b4ed 273c 288f be3c
00000380: 8044 80bb f7d8 abbc 4252 15bc 999a c7bc
00000390: 2c7a 593c 2d2b 6abc 203a 953c 2b75 34bc
000003a0: 74a0 a63c b068 d13a 7cc4 193c a717 84bc
000003b0: f0c0 92bb dee7 9c3c 500d a4bc 547f 073c
000003c0: 1703 65bc 5082 60bb 69ee 87bc c065 753b
000003d0: 3c35 bebc 152a 003d e30e 9b3e 45a7 523e
000003e0: 8598 8b3e 6fa5 31bd 757d a8be 8bdd 453d
000003f0: 7f57 9c3d 7204 9f3e eb69 e73c 23f7 dfbe
-0.0089425305 -0.423912 0.24534993 0.35603184 0.49866676 0.26229522 0.015189851 -0.3776962
0.5236793 -0.3904347 -0.434046 -0.11792059 -0.38537288 -0.3397694 -0.15560551 0.12846045
-0.27796993 -0.60423255 -0.20644988 -0.67586297 -0.13655294 -0.3732213 -0.20196508 -0.22871031
-0.08225159 0.209863 -0.2903052 -0.1325252 0.33257428 -0.1722661 -0.230719 -0.23906706
-0.34331337 0.3213686 0.0039449567 -0.53840846 0.4829387 -0.26272467 0.23947991 0.017124789
0.30864006 0.0037519461 0.35293213 -0.0019148 -0.597041 -0.15525249 -0.08902822 -0.014395872
-0.059015058 0.02461994 -0.25858855 0.07343649 -0.0978447 0.6067327 0.35177487 0.1635954
0.15111203 0.077325165 0.13273408 -0.19637674 -0.3902321 -0.34220225 -0.017586205 -0.11374831
0.018504124 0.09136342 -0.4372129 -0.67834896 -0.3499419 -0.32358375 -0.1774061 -0.38267556
0.016077561 -0.16824445 -0.46067414 -0.36972135 -0.10894378 -0.09008092 -0.52063864 -0.45334426
-0.48917696 0.0051211715 0.26421767 -0.25104904 0.26814812 0.017917713 0.2885522 0.35157943
0.4065048 0.40475994 0.27892423 -0.12535073 0.109663986 -0.12056545 -0.37515697 -0.14567319
0.2310847 -0.017599307 -0.011310671 0.1344935 0.24852887 0.15439868 -0.105189055 -0.16592717
-0.023519248 0.16071057 0.36198494 0.34693637 0.13394277 0.14835684 -0.12812822 0.002953194
-0.05800692 0.2545193 0.09533818 -0.13223425 0.21459053 0.098869495 -0.022232274 0.0010495014
0.07209337 0.26837736 0.020718776 0.10790776 -0.035687186 0.024120905 -0.09318162 0.06139146
0.09733846 0.3087206 -0.014768086 0.10709228 -0.101821736 0.16260284 0.19485131 0.121424034
0.30866894 0.030977614 0.1322678 0.011941536 0.008382764 -0.013976371 0.12928931 0.1303999
-0.004478747 -0.007495372 -0.00952058 0.032660536 0.030810483 0.16439821 0.18234873 -0.091214605
-0.020907698 -0.063629165 0.015245226 -0.049307227 -0.2578688 -0.07279843 -0.029735927 -0.49849623
-0.33600366 -0.019602012 -0.067090265 -0.24522495 -0.20011151 -0.38076544 -0.6400939 -0.21549821
0.0007432498 -0.066409364 -0.03623832 -0.21771817 -0.12051672 -0.36084235 -0.26503703 -0.016673747
0.07267546 0.052053925 -0.41537917 0.32991096 0.26860443 0.31371966 -0.12412495 -0.028886756
0.02919825 -0.024767004 0.5186854 0.17079322 -0.18017597 0.04676973 0.17866477 -0.091629125
-0.20153634 0.22293587 0.56451654 0.07791301 0.005309675 -0.0081988145 -0.024640376 -0.012496289
-0.006319583 -0.013202843 -0.01760621 -0.011816492 -0.0048736874 0.05054042 0.013747007 0.006060504
0.0234834 0.0004565157 0.011203464 -0.019614117 0.008434612 -0.01240001 -0.020955145 0.0009886455
-0.015047385 0.012380287 -0.0030315984 0.019740008 -0.025113245 0.00018122233 0.010249544 0.023261622
-0.003914416 -0.02097748 -0.00911385 -0.02436571 0.013273757 -0.0142925205 0.018216193 -0.011014263
0.020340182 0.0015976634 0.009385224 -0.01612456 -0.0044785663 0.019153532 -0.02002588 0.0082701035
-0.013977787 -0.003425736 -0.016593175 0.003744468 -0.023218744 0.031290133 0.30284795 0.20571621
0.272648 -0.04337066 -0.32908216 0.048306983 0.07633876 0.3105808 0.028248748 -0.43743238

bias f4 [128]
00000000: c364 3fbd 45e4 87bc d1be 73be 5987 88be
00000010: 82df 54be 968d 2abe 1fea 66be 7a96 6cbe
00000020: 2755 3abd fca4 9bbd 0a70 aabb d5cd 7dbc
00000030: 04fb 08be b4a1 3c3d 5702 02bd 3339 22bd
00000040: b1bc 923d 3800 3fbd 64cc 19bd 5e14 6cbc
00000050: 2dc2 85be bec0 8cbd 2e34 2a3d 813b 36be
00000060: 4b0c 8d3d ce20 33bd 244a 95bc 07e7 1c3e
00000070: 0bb7 c1bc ecbe a8bd a65d bcbd 4be2 68bd
00000080: 6d2b c0bd fc71 2dbd 3f48 4dbd 292f a7bd
00000090: 1906 73bc bbb0 6fbe 0118 b2bd b7a0 e53d
000000a0: 8f68 19be 9862 65bd 4478 6cbe 2617 3abe
000000b0: bb18 86be 9eb4 75be b01f 99be eba4 48bd
000000c0: 4d3c cabd f162 3ebd 38df 06be a1c4 5abd
000000d0: 0ff9 7cbe d3e9 b8bc cd41 8dbc 875b e6bb
000000e0: 6778 22be 55f4 ecbc 7998 aebc e30a bdbc
000000f0: 1a10 b9bc 5069 8dba 6d3a a8bd 8534 0cbd
00000100: ced3 a5bd bd63 a6bc f2bd 70bc ff2a 04bd
00000110: c116 28bd edcc b2bd 75b1 efbd 1c9c 49bd
00000120: 9533 7cbd c325 bcbc c1ec b7bd 8498 dabc
00000130: 305d 3abd 41f6 37bd cc2d 7bbd 7221 1abe
00000140: 1bfa 14be 62a4 583d 6ede 4bbd 6864 7dbe
00000150: 514c 9cbc 5bc3 6dbe 64e7 34be 25f5 9bbc
00000160: edc5 1bbd 5560 cdbb 4e99 9dbc 7d3b 87bc
00000170: 990e 07be e154 4cbc 4192 44bd 6340 0ebc
00000180: 3f22 24bd 0bba 3bbe 9e36 f8bc 1bab 5a3d
00000190: 820f 903d 5022 8bbe 5b47 1a3e 7b02 2bbd
000001a0: 2af9 ab3d 28b2 723e bae9 82bc 6ff2 24be
000001b0: 7044 6dba 21b7 00bd 272f 91bc 3f5b 82be
000001c0: 7f12 e0bc c543 913c 30db 8b3e 6617 0e3e
000001d0: c5c2 9b3e a1b8 11bd e116 4fbe e458 5bbe
000001e0: 368e a1bc bf40 2cbe 7ee1 4dbd 9e80 97bc
000001f0: 607f 28bd ade9 32be 1c99 44be 8f03 263e
-0.046726953 -0.01658834 -0.2380326 -0.26665762 -0.20788386 -0.16655573 -0.22550248 -0.23104277
-0.045491364 -0.07599828 -0.0052013444 -0.015490969 -0.13377005 0.04605265 -0.031740513 -0.03960533
0.07164896 -0.046631068 -0.037548438 -0.014409153 -0.26124707 -0.068727 0.04155367 -0.17796136
0.0688711 -0.043732457 -0.01822383 0.15322505 -0.023646852 -0.082395405 -0.091975495 -0.056856435
-0.09383283 -0.042345032 -0.050117727 -0.08163292 -0.014832997 -0.23407261 -0.08695985 0.112122945
-0.14981292 -0.05600223 -0.23092753 -0.18172893 -0.26190743 -0.23994681 -0.29906988 -0.048985403
-0.09874783 -0.046481077 -0.13171089 -0.053410176 -0.24704383 -0.022572434 -0.01724329 -0.007029954
-0.15866242 -0.0289251 -0.021312939 -0.02307648 -0.022590686 -0.0010788832 -0.08214269 -0.034229774
-0.08097039 -0.02031123 -0.014693724 -0.032267567 -0.041037325 -0.08730493 -0.11703769 -0.049221143
-0.06157263 -0.022967225 -0.08980704 -0.026684053 -0.045499027 -0.04491258 -0.061322972 -0.15051821
-0.14548533 0.052891143 -0.049772672 -0.24745333 -0.01907936 -0.23219053 -0.17666394 -0.019037792
-0.038030554 -0.006267587 -0.01923814 -0.016507858 -0.13189162 -0.012471409 -0.04799104 -0.008682343
-0.040071722 -0.18332689 -0.030299481 0.053385835 0.07034208 -0.27174616 0.15066282 -0.041750412
0.08397134 0.23700774 -0.01598059 -0.16108106 -0.00090510305 -0.031424645 -0.01772268 -0.2546024
-0.02735257 0.01773251 0.27315664 0.13876113 0.30422035 -0.035576466 -0.20223571 -0.21420628
-0.019721132 -0.16821574 -0.050263874 -0.018493947 -0.0411371 -0.17471953 -0.19199032 0.16212295

weight f4 [4, 128]
00000000: 02d2 b83e 089e 52bd 6227 89be 119e 9a3d
00000010: c52e cabe 7bb7 d2bc 3df8 e9bd 46ef 31be
00000020: 319a 183d 0d42 c93d 0419 f1bc 37b4 11bd
00000030: e6e6 3d3b cb01 393e 244a 3c3d 2a67 1c3d
00000040: cc6f f43d f413 143d 57f6 493d 0878 36bd
00000050: a213 87be d36e 69bd 19f5 b73e 56f7 15be
00000060: c4a6 503e dbfd 5dbd 02f2 793d 96fb 4f3d
00000070: 08b9 7f3c 1ce0 963c 0c11 f9bd 788b d53b
00000080: d119 dabd 2ddf 563c 8f22 583d bcf7 62b6
00000090: 973d 0bbd 5178 7dbd bd10 fc3d 99b2 4d3e
000000a0: f520 c9bd 53d4 88be 55b7 76be 0248 47bd
000000b0: 08d7 babd bf23 65be 1558 353e 8e79 ddbd
000000c0: 2149 30be 0b74 de3c 4571 91bc a5a7 afbd
000000d0: c08c abbe de92 ce3b cc00 a4bd 8293 af3d
000000e0: 4829 e43d 8971 09bd 9d6d 79bd 09dc 03bd
000000f0: ad99 fd3c 6717 063e 0178 72be 3fee e4bc
00000100: 19fe e3bc ed82 9fbd a6cb f5bc 41be 81bc
00000110: 1e31 cabd 22fd a6be 04b1 903d 4bae 033c
00000120: 8112 0f3f 2896 0fbc 1cec 273d 897b 133c
00000130: 5485 b3bd 123b fc3b a2f9 2e3d 17e6 9ebe
00000140: 1ea3 c4bd 8bff 233e 6a37 c3bc 8786 17be
00000150: 21b0 d43d 915d cebe bdd8 81be 88c5 bd3c
00000160: ab9b 6dbd 4aa8 b7bd 5d27 1a3d 9696 0dbd
00000170: 5c87 5fbe 4a85 81bd 26ac a5bc 7360 96bd
00000180: d190 053d 8f09 b53d 2806 983c 56a9 443e
00000190: a729 573e ebf9 6cbd 3b60 b43e 59e7 a6bc
000001a0: cf72 a53e 05d9 c53e 824d 8a3c fa9c 2a3c
000001b0: 11fa cfbd 902d e03b 322b e33b ef73 47bd
000001c0: 7f39 c3bd 425c 423d a16c dc3e f079 263e
000001d0: 64a3 553e 0c47 3cbd af35 f8be 5dd0 9dbe
000001e0: 7da9 ba3c db73 9bbe 4184 733d a451 883e
000001f0: 6436 c6bd dc10 233e 5aee 2ebe 1d93 e03d
00000200: 9b11 b2be e6ff 0e3c 41f7 be3c defb 78bd
00000210: ca9a 0abe 042a 2d3d b3dd 1e3b e3d2 0d3e
00000220: ad0a 35bd 27a1 1dbe 3b06 eb3c d310 273d
00000230: 55a0 da3d 1a4a 39be af7c 5e3d 15d2 2fbd
00000240: 9c75 9cbd ead1 e5bc df47 42bb 4361 4d3d
00000250: 07a9 e23d 7620 0cbd 8278 ddbe 3f73 d6bc
00000260: 2761 043e c4ec 2c3d 76b5 a63c 400e b43d
00000270: 623d af3d 5371 95bd 3654 e83c 95bb fd3d
00000280: 80b5 ecbd 5743 5fbd 9df8 743c aa04 173e
00000290: 064c 1ebe 382a d43c 21d3 5a3d 07a7 1bbe
000002a0: f157 943d 4d2b 22be 10ec 9b3c ea4d 4ebd
000002b0: 6477 513d 5487 bb3d 2d13 9bbc 0d09 3b3d
000002c0: fb8b f6bd e862 74bb 365f b0bd bdba d0bd
000002d0: 8fe8 ee3d 5443 2d3d fc3e 51bd 1066 ad3c
000002e0: ba2e 4e3e 4ced 213d a47c e9bd 43f9 21ba
000002f0: 6d1c 54bd 87fe 4fbe 5c31 6cbe 4714 debc
00000300: 9305 11be 22d4 05bd 1905 74bc dda7 073d
00000310: 92a2 57bd 71eb a0bd d66f 80bd 1492 b73c
00000320: 1b91 8fbe 51c1 a4bd 4b61 15be 8e8f 093d
00000330: 3641 5bbd 7b47 d63b 5702 203d 900f 84be
00000340: 945f ffbd d9b6 fe3d ea8e 82bd e331 ea3d
00000350: e2db 5fbe bbbc 4a3e 4504 97bd a8d8 8c3c
00000360: c06c acbe bad6 73bd ebe7 1ebd baff 553d
00000370: 4b0e 81be 2648 62bd 642d 253c 08b1 ecbb
00000380: 82ee d7bc 4c53 15bc 68bd 3bbc 46f7 e5bd
00000390: 0da6 bbbe d0f4 5f3d c145 19be 0fe6 9cbc
000003a0: 4a28 06bf 66e3 e8be bd58 0aba 52f5 0dbe
000003b0: 2095 82be fdc3 8ebd 73cb 1a3d 562c 0b3e
000003c0: 4b93 233b 4499 afbd c641 ddbe 9741 28bf
000003d0: 7e15 35bf 432c 243d c139 253e e592 fd3d
000003e0: 8894 7bbc 86cc 873c 8120 e2bd 7b72 d43e
000003f0: 8b0c 8cbd d5fe 8d3d eca1 5f3d adb7 95bd
0.36097723 -0.05142024 -0.2678786 0.0754968 -0.39488807 -0.025722256 -0.11424301 -0.17376432
0.037256423 0.09827051 -0.029430874 -0.035572257 0.0028976738 0.1806709 0.045969144 0.038184322
0.11935386 0.03615184 0.049307194 -0.044548064 -0.26382166 -0.056990456 0.35929182 -0.14645132
0.20376116 -0.054197174 0.061021812 0.05077704 0.01560808 0.01841741 -0.121614546 0.00651687
-0.10649455 0.013114733 0.052767333 -3.3820825e-06 -0.033994284 -0.06188232 0.1230788 0.20087661
-0.09820739 -0.2672449 -0.24093373 -0.048652656 -0.09123045 -0.22376917 0.17709382 -0.108142
-0.17215396 0.027154943 -0.017754206 -0.085768975 -0.3350582 0.006304129 -0.080079645 0.08573057
0.11140686 -0.03355554 -0.06089555 -0.032192264 0.030957067 0.13094865 -0.2367859 -0.027945636
-0.027831124 -0.07788644 -0.030004334 -0.01583779 -0.098726496 -0.32615 0.07065013 0.00803716
0.5588761 -0.008763827 0.040996656 0.009001621 -0.08765665 0.0076974714 0.042718537 -0.3103492
-0.09601425 0.1601545 -0.023830134 -0.14797412 0.103851564 -0.4030576 -0.2536067 0.02316548
-0.058009785 -0.089676455 0.037635196 -0.034567438 -0.21828979 -0.06324251 -0.020223688 -0.07342615
0.03260881 0.08839714 0.018557623 0.19205222 0.21011983 -0.057855528 0.35229668 -0.020373987
0.32314155 0.38642135 0.016882662 0.010413403 -0.10155118 0.006841369 0.0069326395 -0.048694547
-0.09532451 0.047451265 0.43051627 0.16257453 0.2086311 -0.045966193 -0.48478457 -0.3082303
0.022785896 -0.30361828 0.0594523 0.26624787 -0.09678343 0.159244 -0.17083111 0.1096556
-0.34779057 0.008728003 0.02331126 -0.060787074 -0.1353561 0.042276397 0.002424103 0.13849978
-0.044199634 -0.15393506 0.028689494 0.04078753 0.10675112 -0.18094674 0.054318126 -0.04292496
-0.0763962 -0.028054196 -0.002964489 0.050141584 0.11067396 -0.034210645 -0.43256003 -0.026178
0.12927686 0.042217985 0.0203502 0.087917805 0.0855663 -0.072970055 0.028360467 0.12389294
-0.11558056 -0.05450758 0.014951852 0.14747873 -0.15458688 0.025899038 0.053424004 -0.15200435
0.07243336 -0.1583683 0.019033462 -0.050367273 0.05113925 0.09156671 -0.018930042 0.04566293
-0.12038418 -0.0037290398 -0.0861191 -0.101918675 0.11665451 0.042300537 -0.051085457 0.021166831
0.20135012 0.039532945 -0.114007264 -0.00061788055 -0.05178492 -0.20311938 -0.23065704 -0.027109278
-0.14162283 -0.03267301 -0.0148937935 0.03311907 -0.052645274 -0.07857407 -0.06271331 0.022408523
-0.28040394 -0.08044685 -0.14587896 0.03358417 -0.053528987 0.006539283 0.03906473 -0.25793123
-0.12469402 0.12437219 -0.06374915 0.114352964 -0.21861222 0.19798557 -0.07373861 0.017193154
-0.3367672 -0.05953095 -0.038795393 0.052245833 -0.25206217 -0.055244587 0.010081623 -0.007223252
-0.026358847 -0.009114098 -0.011458732 -0.11228804 -0.36650124 0.05467683 -0.14968015 -0.01915267
-0.52405226 -0.4548599 -0.0005277505 -0.13863114 -0.25504398 -0.069709755 0.03779168 0.13591132
0.002495962 -0.08574155 -0.43214244 -0.6572508 -0.7073592 0.040081274 0.16135313 0.123815335
-0.015355237 0.016577017 -0.11041356 0.41493592 -0.0683833 0.06933371 0.05459778 -0.07310424

bias f4 [4]
00000000: c3a7 6e3d 2011 b63d 444f 71be 9bae 2abd
0.05826546 0.08889985 -0.23565394 -0.041670423
